data/checkpoints/rlgym-ppo-run-1760750124713022400/544525798/PPO_VALUE_NET.pt (torch, 623393 bytes, 7 tensors)

model.0.weight f4 [256, 89]
000000 66 25 c9 3e 68 ff 15 be 5b 23 36 3e 1c 7f 6e bf
       0.39286345 -0.14648211 0.17786925 -0.93162704
000010 0e c7 0d be b4 87 b1 be 95 f2 87 3d 72 62 ae be
       -0.13845465 -0.34673846 0.06638066 -0.34059483
000020 7f 8e 58 3d ae 06 99 3c 6f b8 97 bc f8 ae f0 bb
       0.05287027 0.018679943 -0.018520562 -0.0073450767
000030 0a 89 c6 bb 19 3e 8f 3b 94 d0 af 3c 04 96 aa 3c
       -0.006058817 0.0043714163 0.021461762 0.020823486
000040 79 0e 48 bb ea 29 06 bd 7d 69 92 3d d3 82 d5 bc
       -0.0030526205 -0.032754816 0.071490265 -0.026063358
000050 1a 55 a9 bd 75 35 94 3d ab cb f9 bc 16 f0 cc 3c
       -0.08268185 0.072367586 -0.030492624 0.025016826
000060 40 f5 f3 bc f6 de 28 3d 9d ce 80 3d ec e3 9e bc
       -0.02978003 0.041228257 0.06289408 -0.019395791
000070 03 ca 89 bc d4 84 d6 bd cb 70 96 3c 0d 3c a6 bd
       -0.01681996 -0.10474554 0.01836433 -0.081169225
000080 37 f9 d0 3c cc 17 1c bc 6e 89 42 3d 65 9d b3 3d
       0.02550946 -0.009527158 0.047494344 0.08770255
000090 6b ba 1b 3d 39 a2 0f 3d 3c 62 8f bc bc 89 98 bd
       0.03801958 0.035066817 -0.017502896 -0.07448146
0000a0 58 cd 08 bd e8 92 c5 3d e9 6e fb bc e8 2a 21 3d
       -0.033398956 0.09647161 -0.030692535 0.03934756
0000b0 ec b3 3d 3d 38 e2 03 3d 40 3b c7 bd 0b 51 c4 3d
       0.046314165 0.03219816 -0.09728098 0.0958577
0000c0 34 43 9c bd 58 6e a0 3d 9a 0e 21 bd f6 9e f4 3e
       -0.076300055 0.078335464 -0.039320566 0.47777528
0000d0 12 12 82 3e ad 98 a7 3e 8f 58 8d 3d b8 f9 c6 bd
       0.25404412 0.3273367 0.06901657 -0.09715599
0000e0 51 65 9b 3d 29 fc a9 3d 31 b0 38 bd ab 93 32 bd
       0.07587684 0.08300049 -0.045089904 -0.04359786
0000f0 38 9e be 3d 8e 6f dd bc a0 0f 9b 3e ea 45 45 3d
       0.093075216 -0.027030732 0.30285358 0.04816238
000100 d9 47 04 3d 28 a7 b0 bd c5 55 dd 3d de 49 88 bc
       0.03229508 -0.086256325 0.10807375 -0.016636785
000110 91 73 83 bc 8d eb e1 bc 0c 08 9e 3e 1c 1d a3 bc
       -0.016046317 -0.02757814 0.30865514 -0.019911341
000120 bc 69 96 3d 2f 21 bb 3c 35 9a 22 bd 19 12 fb bc
       0.07344386 0.022842972 -0.039697845 -0.030648278
000130 d9 98 1f 3c ba 78 7d 3b 81 27 d4 bc 55 22 88 3d
       0.009741032 0.0038676695 -0.025897743 0.06647173
000140 fe dc f5 3d 5c 99 0a 3e 3e b6 b8 3c 33 91 5e bc
       0.120050415 0.13535064 0.022547837 -0.013584423
000150 2a 5a b5 3c 5c cd dc 3d c9 eb 1b 3c 53 60 9b 3b
       0.02213772 0.10781357 0.009516665 0.0047417074
000160 76 4a af 3d 0d b8 9e be 30 e8 2e 3f d2 66 1c be
       0.08559124 -0.30999795 0.6832304 -0.15273598
000170 c3 f3 44 be 4b dd 7c bf 41 b4 c7 3c de f4 fa 3d
       -0.19233613 -0.98775166 0.024377944 0.12253736
000180 0d b3 ae bd 2d b5 e4 3d 18 b5 51 ba 22 76 2a bb
       -0.08530245 0.11167369 -0.00079997024 -0.0026010354
000190 4a 87 0f bc a8 57 ae bb 59 ed 15 3a bf 1a f7 bc
       -0.008760283 -0.005320508 0.00057192665 -0.03016412
0001a0 23 75 65 3b f0 70 e7 bb be 87 ed 3c 5c 37 59 3d
       0.0035012446 -0.0070630237 0.028995391 0.05303131
0001b0 e2 73 04 be f9 b8 64 bd bc 36 21 bd 40 74 8d 3b
       -0.12934831 -0.055840466 -0.03935884 0.0043168366
0001c0 c4 3f 54 3d 06 23 e5 3c 8b 14 d4 bd 0d 62 3e 3d
       0.051818624 0.027970802 -0.10355481 0.046480227
0001d0 37 6a 9b b9 e8 ae bd bd 2b ea 79 3d a1 f7 17 bc
       -0.0002964304 -0.09261876 0.061014336 -0.009275348
0001e0 f8 b5 8c 3c 85 ed e4 3b 4c 18 5a 3c 43 70 c3 3a
       0.017176613 0.0069863223 0.013311457 0.0014910776
0001f0 82 8e f3 bd 27 4b 47 3d f6 01 50 3d d4 dd c7 bd
       -0.118924156 0.048655655 0.05078312 -0.09759107
000200 53 08 ca bd db 06 86 3d 6a 95 5c bd 34 2e cc 3c
       -0.09864869 0.06544276 -0.05385343 0.024924375
000210 4a 54 8a 3d 31 c6 d2 3c 2d 02 33 3d 96 04 06 3d
       0.06754358 0.02572927 0.043703247 0.032719217
000220 d6 1a 52 3d cc 91 32 bb 40 a2 e9 bc 6e 0b b1 3d
       0.051295124 -0.0027247546 -0.02851975 0.08644758
000230 65 8d 15 bd 65 41 cd bd 4b ce ad bd a0 2a 02 bd
       -0.036511797 -0.10022239 -0.08486613 -0.03177893
000240 dc 90 24 3c 8e 97 50 bd 32 a5 74 bb d4 38 c0 b9
       0.010044303 -0.050925784 -0.003732991 -0.00036663434
000250 5d fc f1 bc 6f 71 04 3e aa 3d 10 3e 58 76 3b 3e
       -0.029539282 0.12933896 0.14086023 0.18306863
000260 15 17 4e 3d 05 4f 41 3b 1e 1a 40 3d 78 2b ee bd
       0.05031498 0.0029496562 0.046899907 -0.11629385
000270 6c 81 cb bc 5e c7 e7 3c dd e4 45 be f2 da a5 3d
       -0.024841987 0.028293308 -0.19325586 0.08098401
000280 94 78 89 3d c5 93 ad bd 33 b0 c5 bc 47 d9 db 3c
       0.067124516 -0.084754504 -0.02413187 0.026837004
000290 a9 f2 e9 bc b3 e2 bd bc ee fb 1e 3c 1a 8f 86 bc
       -0.028558092 -0.023179388 0.009703619 -0.016425658
0002a0 99 b0 b7 3d 33 fa 04 3e 17 4a 94 3e 13 93 4f 3c
       0.0896923 0.12986068 0.28962776 0.012669343
0002b0 62 10 a9 bc f6 3f 0c 3c 56 f6 99 3d 7c c4 92 bc
       -0.020637695 0.008560171 0.07517688 -0.017915957
0002c0 01 2a 3c 3d 61 2e af bd 06 d4 37 bf ac 4f c4 bf
       0.045938496 -0.08553768 -0.718079 -1.5336814
0002d0 bb 68 d8 3e c0 1e fa bc bd cc 83 bd f3 39 ab 3d
       0.42267403 -0.03053224 -0.06435535 0.08360662
0002e0 6a 60 99 bc 4c c1 19 3d c2 58 01 bd 36 c0 b2 ba
       -0.018722732 0.037537858 -0.031578787 -0.0013637606
0002f0 40 bf cc 3b 54 fd 8d 3b 9f f6 d5 ba 0f 74 68 3a
       0.0062483847 0.0043331776 -0.0016324109 0.0008867392
000300 81 55 ae bc aa e7 a3 3b 46 ed 40 bb 5e 70 65 3c
       -0.021281006 0.0050019817 -0.00294383 0.014003841
000310 15 da 57 3d 3a cb 63 3d c8 27 a1 3d 1c 88 5a 3d
       0.052698214 0.055613734 0.07868916 0.05335246
000320 02 6c a1 3d ec 03 80 bd 13 3c 5e 3c 9d 54 cc bd
       0.07881929 -0.06250748 0.0135641275 -0.09977076
000330 5f 46 9b 3d d3 c3 48 3c 60 57 8a bc 87 9e a3 3d
       0.075817816 0.012253719 -0.016887367 0.07989221
000340 b1 02 5e 3d c5 a0 7a 3d ad 06 ab bc 97 9d 83 bd
       0.054201785 0.061188478 -0.020877207 -0.06426542
000350 bc 2e ad 3c e7 29 2b bd 90 ad 66 3d 0d bb 6e 3c
       0.021140449 -0.041788008 0.056317866 0.014570964
000360 b3 27 32 3d 65 6c 90 bc 73 7e 05 3c 36 06 4e bb
       0.04349489 -0.017629812 0.008147824 -0.0031436807
000370 2c d4 98 bd 3f 5c d0 3b 50 53 a7 3c 67 62 2d bb
       -0.074623436 0.006358653 0.020425469 -0.0026456357
000380 86 51 e2 bd 1a fa d5 bd 01 12 4e bd ab ab 80 3b
       -0.110507056 -0.10448094 -0.05031014 0.0039267144
000390 03 5e 23 3b ed d3 43 3f 83 31 c8 3f 50 87 11 bd
       0.0024927862 0.7649525 1.564011 -0.035529435
0003a0 7a 80 23 3d d4 d2 45 3c c8 d4 50 3c 34 a3 f6 3b
       0.039917447 0.012074191 0.0127460435 0.0075267795
0003b0 fc fd 02 3c ee ec 37 3c 9d 4a 65 3e c2 23 bd 3b
       0.007995125 0.011225922 0.22391744 0.005772085
0003c0 a8 06 93 3c 45 45 4c 3c 4c 77 29 bb 5f 53 e8 bc
       0.01794751 0.012467687 -0.002585846 -0.028360067
0003d0 ff 56 b9 3e be 15 27 bc cf f1 09 bc db d1 12 3b
       0.36199185 -0.010198055 -0.008419468 0.0022402916
0003e0 8b b2 34 bd 0b 84 a2 3d 7a 81 d0 bb df a7 18 bb
       -0.044115584 0.079353414 -0.006363091 -0.0023293418
0003f0 28 53 3d 3c 15 98 22 3c 62 4a bc 3b 74 f7 65 ba
       0.0115554705 0.0099239545 0.005746172 -0.000877253

model.0.bias f4 [256]
000000 d0 56 bd 3c 9e a3 0d be 30 43 79 3d c1 02 dc bd
       0.023112684 -0.13831946 0.06085509 -0.10742713
000010 8d fe 1a 3e 19 bc a6 3c e9 f7 64 3d f1 99 88 3d
       0.15136166 0.020353364 0.055900488 0.06669987
000020 24 3d 10 bd 35 65 a0 bd 41 bb 93 bc df ad 36 bd
       -0.03521456 -0.07831804 -0.018033626 -0.04459941
000030 ef 63 5c 3d f7 9e aa bd 16 a2 e1 3d 98 d6 cb 3d
       0.05380624 -0.083311014 0.110172436 0.0995304
000040 f6 29 27 bd 2f 29 c6 bd d7 bb 9d bd f5 29 b6 3d
       -0.0408115 -0.09675824 -0.07701843 0.088947214
000050 6f 42 f3 3c 3d b6 d1 bb 41 3c b7 bc 8d 3f 7a 3d
       0.029694764 -0.0063998983 -0.022367598 0.061095763
000060 12 7e 38 3c a7 1e 07 bd 53 44 b6 bd e0 21 c8 3d
       0.011260526 -0.032988217 -0.088997506 0.09772086
000070 94 69 b1 3d 18 05 2d 3d eb ba 72 bd 52 ea e3 bb
       0.086627156 0.042241186 -0.05926029 -0.0069554234
000080 4a ac 9a 3d 27 6d 69 bc a0 2c 5f bd 02 d7 91 bd
       0.07552393 -0.014247215 -0.054485917 -0.071210876
000090 63 3e 91 bd 6a d1 7d bd 38 d5 86 bd b4 97 1d 3c
       -0.070919774 -0.06196729 -0.06583637 0.009618688
0000a0 39 d9 ca bd 59 25 09 3d 14 a4 23 bd 20 79 2d 3d
       -0.09904713 0.033482883 -0.0399514 0.042351842
0000b0 27 2f 30 bd e2 a8 e1 ba ff 99 32 3d 70 9b 0d bd
       -0.043013718 -0.0017216469 0.043603893 -0.034572065
0000c0 21 f8 7b 3b 3d 89 28 3d ae fa 4a bd 98 85 65 bc
       0.0038447457 0.041146506 -0.049555473 -0.014008902
0000d0 ef c3 82 3d d3 2e 96 3d 06 9e c2 bd 1e ec 8e bd
       0.063850276 0.0733315 -0.09502797 -0.069786295
0000e0 86 25 52 3d 43 45 9e 3d 30 f4 06 3c cb dd 85 3d
       0.051305316 0.077280544 0.00823693 0.06536444
0000f0 ed 66 b7 3c 1b 18 82 3d 5d 83 22 bd 7a 4f 35 3d
       0.022387946 0.06352254 -0.03967606 0.044265248
000100 b9 d0 49 bd 1e ba 0e bd 87 ea 69 bd 6b 25 28 bd
       -0.04927132 -0.034845464 -0.05710843 -0.04105131
000110 05 1a 18 bc b9 26 ae 3c c5 95 83 bb 72 7d 6f bd
       -0.009283547 0.021258699 -0.0040156567 -0.058469243
000120 28 f2 fe 3d b0 12 c9 3d c0 bc 0a 3c 2a e4 88 bb
       0.124485314 0.098180175 0.008467853 -0.00417759
000130 34 fe a0 bc ad a5 63 bc e2 95 d4 bd bd b5 10 3c
       -0.019652463 -0.013894481 -0.103801504 0.008832392
000140 cb ea 79 bd ad 3d 96 bd 64 37 86 bc f2 85 ba bd
       -0.06101493 -0.073359825 -0.016383834 -0.09107579
000150 b0 85 2f 3d ff 76 82 bd e9 9e 47 3d 92 99 8e 3d
       0.042852104 -0.06370353 0.048735533 0.06962885
000160 7c 14 c1 3d bc a2 82 bd 52 57 2f 3d b6 db ca 3d
       0.09427735 -0.06378695 0.042807885 0.09905188
000170 29 a3 7f 3c d1 53 40 bd 81 8d 1d bd 36 3a 98 3c
       0.015602865 -0.046954934 -0.038465027 0.018582445
000180 4e 13 9a bd 6d 62 0d bd 02 48 7c 3d 8e d8 a6 3c
       -0.07523213 -0.034517694 0.06159211 0.020366933
000190 9b 4f 06 bc b7 b3 a8 3d 6d 0b c2 3b 52 71 a2 bd
       -0.00819769 0.08237403 0.005921772 -0.079317704
0001a0 13 71 17 3d 2b d4 1a 3c 7c 60 d3 bc 89 a0 19 bd
       0.03697307 0.009449999 -0.025802843 -0.037506614
0001b0 52 94 e9 3a 27 8c 84 bd 96 bf 15 bd b5 1e 86 3d
       0.0017820692 -0.064720444 -0.036559664 0.06548826
0001c0 cf 2e 36 3c 56 b1 f7 3b 1d 41 be 3d 6e 34 b7 bd
       0.0111195585 0.007558982 0.09289763 -0.08945547
0001d0 08 43 a9 3d 02 de 13 bd c9 0c 74 bd 28 4b e0 bc
       0.08264738 -0.036100395 -0.059582505 -0.027379587
0001e0 b8 dd a1 3d b3 02 aa bd db 64 97 bd 38 0e 04 bd
       0.079036176 -0.08301296 -0.073922835 -0.032240123
0001f0 b7 0c 9e bc 91 72 04 bd 36 48 e8 ba 99 50 a8 bc
       -0.019293172 -0.03233582 -0.0017721716 -0.020546244
000200 89 80 a3 3d d8 38 35 3d ac 4f 79 bd f0 ab 0c 3d
       0.079835005 0.044243664 -0.060866997 0.03434366
000210 a7 e7 bb 3d 77 d8 cd bc 6e d5 8b bd 5c d4 63 bd
       0.091750436 -0.025127633 -0.06827818 -0.055622444
000220 c4 aa 92 bd 90 e5 36 3d 92 b5 7e 3d 0d d3 82 3d
       -0.07161477 0.04465252 0.062184878 0.06387911
000230 b6 7a c2 bd 26 10 5d bd 2e 9d 88 3d c7 f0 a3 b8
       -0.094960615 -0.05397048 0.06670605 -7.817294e-05
000240 1d 6b 79 bc 14 72 b3 3d 9b a4 13 bd 63 3b a0 3d
       -0.015223292 0.08761993 -0.036045652 0.07823827
000250 73 9b b7 3c 8e f2 bf bd 14 b9 3a 3d f7 b0 3d 3c
       0.022412991 -0.093724355 0.04558666 0.011577836
000260 e0 a6 b3 3c ab f0 ee 3c b8 69 6c bd b7 a5 00 bc
       0.021930158 0.029167494 -0.05771801 -0.0078520095
000270 59 e1 d6 3d 48 43 aa bd 5e e8 f3 3c 2b 7b 3d 3d
       0.104922004 -0.08313614 0.029773887 0.04626004
000280 bf 51 be bc 02 2e 1f bd f7 34 7a bc 15 1a 51 3d
       -0.023232339 -0.038862236 -0.015271417 0.051050264
000290 45 b0 d0 3d d9 f9 c8 3c 3e cb b5 bc fe 12 91 3d
       0.10189871 0.0245332 -0.02219164 0.070837006
0002a0 8d a5 c9 3d 29 97 c5 bc f1 37 1e 3d 32 8c 68 3d
       0.098460294 -0.02411993 0.03862757 0.056774326
0002b0 48 b3 20 bd 93 6d 59 bd aa be 2d 3d ea 2c b0 3c
       -0.039233476 -0.053083014 0.04241816 0.021505792
0002c0 d0 a5 0f 3b 53 29 47 3d ca 38 b1 bc 30 fe 2a bd
       0.00219189 0.048623394 -0.021633524 -0.04174632
0002d0 58 5c 1e bd a1 6a cb bd 63 57 d0 bc 3a f7 44 bc
       -0.038662285 -0.09932447 -0.025432294 -0.012021834
0002e0 de 51 0e bb eb b8 e0 3d 59 25 6e 3c 6c 17 47 3c
       -0.0021716277 0.1097277 0.014535272 0.01215158
0002f0 6e cb d5 3d 3f 51 6f bc 41 9a 2a bd e6 93 ce bd
       0.10439192 -0.014606773 -0.041651014 -0.10086803
000300 49 6f 32 bd 0a 30 3e 3d 86 a3 b1 3d 04 1c 9d bd
       -0.04356316 0.046432532 0.08673768 -0.07671359
000310 9d bd 64 3c cf 2a c2 3d 3b c1 5a bd 89 5e ee bc
       0.013961223 0.09480821 -0.053406935 -0.029097812
000320 9b 71 9c 3b 88 ae b6 bc e5 19 2c bd 30 c4 f5 3d
       0.004774285 -0.02230002 -0.042016882 0.120003104
000330 a6 c1 75 bd cc 43 93 3d ae 48 5c 3c 59 a5 1f bd
       -0.05999913 0.071906656 0.013445063 -0.038976047
000340 96 1b cb 3d d2 de 30 bc d8 b9 5c bc b6 31 7a bc
       0.09917371 -0.010795312 -0.013472043 -0.015270641
000350 bf f6 98 3c be 4a bf bc c5 f0 98 bc 31 e3 a9 3c
       0.018672345 -0.02335107 -0.018669495 0.020738216
000360 4e 99 22 bd f5 c4 5f 3d 20 7c 3d 3d 24 00 45 3d
       -0.039696984 0.054631192 0.046260953 0.048095837
000370 13 6a 83 bd 31 db 66 bd c0 b6 58 3c a8 c1 52 bd
       -0.064167164 -0.05636138 0.013227165 -0.051454216
000380 3e fe da bd 1d e4 17 3d cf 7f 13 3d f8 c1 a2 3d
       -0.10693024 0.03708278 0.03601056 0.07947153
000390 60 94 29 3d 55 69 c2 3b a0 b1 05 3e f6 6f a9 bc
       0.041401267 0.0059329667 0.1305604 -0.02068327
0003a0 3b 3c 06 3c de 00 c9 bd cb 7f 40 3d db 28 2a 3c
       0.008193071 -0.098146185 0.046996873 0.010385717
0003b0 03 d0 de 3c 6b b5 e5 3c 76 83 84 3a 1e 17 13 3d
       0.027198797 0.028040608 0.0010109979 0.03591072
0003c0 ce 81 cc 3c 2d 8a 9b bd c1 d8 dd bc 4f 6c 89 3d
       0.02496424 -0.07594714 -0.027080895 0.06710111
0003d0 20 af 93 bc 7b fc 9c 3d f5 b7 84 bd df ab 17 bd
       -0.018027842 0.07665344 -0.064803995 -0.037029143
0003e0 3d 5a ca 3d 71 a6 42 3d 50 13 e9 bd 74 2a 1f 3c
       0.09880493 0.047522012 -0.11380637 0.009714711
0003f0 8e a1 92 3d 1c 48 cb 3d a1 05 86 bd 97 df fe bc
       0.0715972 0.09925863 -0.065440424 -0.031112475

model.2.weight f4 [256, 256]
000000 72 42 f4 bc b4 b9 82 3c 09 9d af be 2b 71 bc bd
       -0.02981684 0.01595769 -0.34299496 -0.092012726
000010 91 31 94 3c 6f 47 e5 3d 5b e8 22 be ad 61 72 3d
       0.018090041 0.111952655 -0.15908949 0.059175182
000020 dc ca fe bc 9b 8c 33 3d a8 d2 38 3a ce 09 1c 3e
       -0.03110259 0.043835264 0.0007050433 0.15238115
000030 92 f7 9e bd 8b a5 d7 3c e4 bd 06 3c 9a 31 02 3b
       -0.07762064 0.026324054 0.008223984 0.001986599
000040 f6 d7 11 3d dd 3c 1c bd 44 59 95 ba 76 52 c6 3d
       0.035606347 -0.03814398 -0.0011394401 0.09683697
000050 07 65 35 be 40 ca a8 3d e9 c5 41 3e 71 ef 25 3d
       -0.1771432 0.08241701 0.18923153 0.040511552
000060 6d 77 fb 3b cd 9f d4 b9 64 da 48 bd 60 c4 be 3c
       0.007674149 -0.00040554852 -0.0490364 0.023286998
000070 91 d0 84 3e bb db 10 3e 4d f9 8b 3d ef a3 b2 bd
       0.25940374 0.1414632 0.0683466 -0.08722674
000080 a2 ce 3a 3d 13 e0 cb bc 9e d5 a3 3d 13 a9 0a be
       0.045607217 -0.02488712 0.079997286 -0.13541059
000090 df f3 33 3c 43 ff 8a bd 7b be b1 3d cd 25 cf 3d
       0.010983436 -0.067869686 0.086789094 0.10114632
0000a0 6b e0 0a bf b5 e6 69 bd 38 de a6 3d 1f e4 89 3a
       -0.54248685 -0.057104785 0.081478536 0.0010520256
0000b0 62 40 03 3e e5 53 b2 3d d3 10 15 3d 9d 89 be bd
       0.12817529 0.08707408 0.036392998 -0.093035914
0000c0 ec 99 a5 3d c1 32 86 be ab 21 91 3d 8b e8 9a 3d
       0.08085999 -0.26210597 0.070865 0.07563885
0000d0 5a 18 05 3e 01 eb 71 bd 47 8b 5a 3d 05 56 e0 3a
       0.1299757 -0.059062008 0.05335548 0.001711548
0000e0 10 bb 71 bd b4 bf 97 bd 8f 67 bf bd 00 4b 06 3d
       -0.059016287 -0.07409611 -0.09345924 0.03278637
0000f0 e3 26 0e 3e df 33 82 bc 44 8b 29 3d 40 82 ca bb
       0.13882022 -0.015893875 0.04139258 -0.006180078
000100 d3 ac f4 bb d6 b9 91 3d 15 5a 04 3e a8 f5 d6 3d
       -0.0074668913 0.071155235 0.12924989 0.10496074
000110 37 6e 85 3c 68 2f d5 ba 0f 6e d0 3c 6b 8e 0d bd
       0.016287906 -0.0016264739 0.025443105 -0.03455965
000120 a7 11 44 3d 14 bf 83 3d f8 ca 87 3c 40 65 40 be
       0.047868397 0.0643293 0.016576275 -0.18788624
000130 9e 35 0a 3e 90 4f 64 bd b5 57 6d bb de 06 96 3d
       0.13497016 -0.05573994 -0.0036215608 0.073255286
000140 10 2c 86 3d 76 13 5f 3d 59 49 b2 bd 78 42 af bc
       0.06551373 0.05446192 -0.08705396 -0.021394
000150 8e c2 b9 bd 0a 35 e2 bb 0c 30 37 bf 3b b5 b1 bc
       -0.090703115 -0.0069032954 -0.7155769 -0.021692863
000160 fe 1f 50 bc 48 89 70 3c 6c 9f c2 3d d5 2b 90 3c
       -0.01270294 0.014681168 0.095030636 0.017599026
000170 31 83 9a 3d 86 2c c6 3d f2 3d 4d 3d 01 d7 7c bd
       0.07544554 0.09676461 0.050107904 -0.06172848
000180 cf 0a c3 3c ff 68 bd 3b 60 05 33 bd 22 be b5 bc
       0.023808865 0.005780339 -0.043706298 -0.022185389
000190 f2 3a 65 be d3 da ed 3d e1 1d 04 3e 90 a7 03 3d
       -0.22385767 0.11614003 0.12902023 0.032142222
0001a0 fe 07 5e bb 49 ff 18 3e 6a 58 95 bd 04 cd dd 3c
       -0.0033879275 0.14941134 -0.07292254 0.027075298
0001b0 a6 74 04 3e ee 0d d1 bc 31 6e 76 3d d0 02 2c 3e
       0.12935123 -0.025519338 0.06016368 0.16797948
0001c0 41 b3 cc 3e 69 6b 3d be 9d b5 e6 3d 37 64 8c 3c
       0.3998051 -0.18498005 0.11265109 0.01713763
0001d0 a5 22 02 3e e8 d9 38 be d4 61 4d 3d 22 91 98 bc
       0.12708528 -0.18051875 0.050142124 -0.018623892
0001e0 cf fb 83 bd cb 8b 0f bd 80 4a 9b bd 83 ba dd ba
       -0.06444513 -0.035045426 -0.07582569 -0.0016916547
0001f0 05 cf 2d 3e ba d1 93 bc d0 b0 4b bc 87 3c 97 bd
       0.16973503 -0.018044341 -0.012432292 -0.073845915
000200 b9 40 63 bc 24 d4 5e bc be 81 19 be 6b 70 b3 3d
       -0.013870412 -0.013600383 -0.14990899 0.087616764
000210 bb a9 23 be af b6 1c 3c 36 ea 3b 3d fa 2c 16 bc
       -0.15982716 0.00956504 0.045877658 -0.009165997
000220 b5 cb 4f be a5 9c ba 3d 30 9d 04 3e 7f 09 93 bd
       -0.20292552 0.09111909 0.12950587 -0.071795456
000230 8f a4 12 bd 2c a3 74 bc f9 ff b3 3c 2e a9 68 be
       -0.035801467 -0.014931481 0.021972643 -0.22720787
000240 b8 54 8b bd 99 b6 87 3d ff a1 da bc 16 25 14 bd
       -0.06803268 0.066266246 -0.026688574 -0.03616818
000250 e9 f3 e6 bd 4e 00 a9 3d 5e 44 df bc 66 4e 95 3d
       -0.11276991 0.08252011 -0.02725428 0.07290344
000260 a4 da 1c 3e e4 e9 d2 bd 8d 48 92 bd 96 3d 08 be
       0.1531778 -0.10298517 -0.07142744 -0.13304743
000270 66 00 d1 3c c1 67 8e 3d a5 06 24 be e9 8c bb 3c
       0.025512885 0.06953383 -0.1601816 0.02289434
000280 65 6e 08 be dc 5e 24 be ef 39 0c be 15 52 ae 3d
       -0.13323362 -0.16051811 -0.13693975 0.0851175
000290 30 2b e4 3d 50 db 28 3d d7 33 11 3e 9c 2d 69 3d
       0.1114105 0.041224778 0.14179932 0.056928262
0002a0 9f 6a 88 3d 14 96 5b bd a3 79 5b 3d ed 51 9f bd
       0.06660961 -0.053609923 0.0535828 -0.07779298
0002b0 48 2f b7 3d 83 2b 12 bd 2d eb e5 3d 1c e5 20 bd
       0.08944565 -0.035686027 0.11226497 -0.039280996
0002c0 11 bf ef bd 1d 52 16 be 3a 4d a5 bd cd c6 64 3d
       -0.11706365 -0.14679761 -0.080713704 0.055853654
0002d0 62 56 51 bd 79 34 b2 bc a5 19 03 3c e0 e6 b8 39
       -0.05110777 -0.021753537 0.00800172 0.0003526723
0002e0 fc 82 64 3c 74 a4 21 be 8b 18 f2 3d 3f 8d 40 bd
       0.013947245 -0.1578539 0.118210874 -0.047009703
0002f0 06 0a 23 3d a9 5d 88 3c a5 20 22 3c cc 0a e5 3d
       0.03980448 0.016646223 0.009895478 0.111837
000300 57 59 f1 bd b4 b7 c2 3d 54 c8 36 3b 3f e1 b0 3d
       -0.11784618 0.09507695 0.00278904 0.08636712
000310 24 ca ee bd 8a 8e 8d bb dc 9f 01 bd 55 1c a3 3c
       -0.11659649 -0.0043199705 -0.031646594 0.01991097
000320 50 8d 49 bc 18 3c 0b 3d f9 cc d5 3d 56 c0 72 bd
       -0.012301758 0.033992857 0.10439486 -0.059265457
000330 62 ea 08 be c0 d6 94 be f3 6f 32 3d 69 f1 11 bd
       -0.1337066 -0.2907009 0.043563794 -0.035630617
000340 42 c2 4c 3c 08 5f 91 bd 14 1b 07 3c cf 20 36 3d
       0.012497487 -0.07098204 0.008246202 0.044464882
000350 ae 56 a8 bc 84 8f ff 3b ef 3d fa 3d 1d be 22 3b
       -0.020549145 0.007799091 0.12218844 0.0024832555
000360 af 7c 3b 3c b6 1e 2d 3c ed 61 19 3e c0 0e 10 3d
       0.011443301 0.010566404 0.14978762 0.035170317
000370 49 b3 f7 3d f4 46 4c 3c 5b 50 3f bd ef 6b 56 3d
       0.12094743 0.012468088 -0.046707492 0.052349027
000380 da 88 7a 3d 94 64 9f 3c 73 b0 ac bd 18 e4 4e bd
       0.061165668 0.01945714 -0.084320925 -0.050510496
000390 23 23 c6 3d fc 67 03 3e cc fa 40 bd 55 cd 2c 3d
       0.096746705 0.12832636 -0.04711418 0.042188007
0003a0 c8 a4 b4 bc a3 af a2 3c 4f 41 bd 3d f1 b6 2b 3d
       -0.02205123 0.01985914 0.09240972 0.041922513
0003b0 6d b6 99 bd 4f 84 76 bd 93 76 9d bd d3 73 55 3b
       -0.07505498 -0.060184773 -0.07688632 0.0032570257
0003c0 17 70 a1 3c 17 c3 a4 3b 47 94 f8 3d 5b dd 04 3d
       0.019706769 0.0050281393 0.12137657 0.032437664
0003d0 5e 32 1b bd 42 67 db 3d c6 fc a5 bd 22 75 96 3d
       -0.03788983 0.10713054 -0.08104853 0.0734656
0003e0 45 93 83 3c a7 61 a9 bb 9f 50 b6 bd 52 e6 f8 3d
       0.016061435 -0.005169112 -0.08902096 0.12153305
0003f0 7e 18 0a be 2d 43 01 be 06 0b 98 3e ae 49 9e be
       -0.13485906 -0.12623282 0.2969591 -0.30915588

model.2.bias f4 [256]
000000 54 09 c7 3d ea ef e4 3c 57 37 28 3c cb a6 3c bc
       0.09718576 0.027946431 0.0102671 -0.011514376
000010 c1 56 98 3d 8e c1 0d 3d dd f4 45 3d 86 9b b0 3d
       0.07438422 0.034608416 0.048329223 0.08623414
000020 1c ba 5b bd b0 b5 78 3c ff 6e 0c be c6 39 0c 3d
       -0.053644285 0.015180036 -0.13714217 0.034234785
000030 15 fc 13 bd 0a c6 2d 3d b5 de 90 3d c4 d3 cd 3d
       -0.036129076 0.042425193 0.07073728 0.10050157
000040 1e b6 df bc 5e b0 ce bc d1 da f8 bc 2b c4 6a bd
       -0.02730852 -0.025230583 -0.030377777 -0.057315987
000050 df 58 4e bd ec e8 b0 3c 00 40 4e bc 8a 34 ab 3d
       -0.050377723 0.02159544 -0.012588501 0.083596304
000060 54 46 f1 bc f0 ff a9 bc 8d 20 b6 3d 67 ed b9 bc
       -0.02945248 -0.020751923 0.08892927 -0.02269621
000070 49 2c 0a bb 90 2f 85 bd 3b 64 c6 bb 3e 2b 4a 3c
       -0.0021083525 -0.065032125 -0.006054429 0.012339411
000080 b0 4b 49 3a bb aa 1c bd 5c 64 4a 3d 4d f2 11 bd
       0.000767882 -0.03824876 0.049412116 -0.035631467
000090 ce 61 e3 bb be 95 45 bd f7 d9 c4 b9 f7 91 5f bd
       -0.0069391495 -0.04823851 -0.0003754643 -0.054582562
0000a0 8d 05 02 3d 7a 50 27 3b 50 1b c7 bb 0a 7a 4c 3c
       0.031743575 0.0025530146 -0.006076254 0.012480268
0000b0 78 01 dc bc 21 18 66 b9 d6 62 ac 3a 4e f0 05 bd
       -0.02685617 -0.00021943498 0.0013152014 -0.032699876
0000c0 23 5c 4b 3d fc 5a 83 3c 7e 90 7c bd 57 51 4e bd
       0.049648415 0.016034596 -0.061661236 -0.05037054
0000d0 9e 79 5b 3d d0 bc 82 bd a0 95 85 bc 9b 0a a4 bd
       0.05358278 -0.063836694 -0.016306698 -0.08009835
0000e0 11 82 6e 3b 33 c5 80 3d aa 04 36 bb ac b0 85 3c
       0.0036393444 0.06287613 -0.0027773776 0.016319595
0000f0 75 64 30 bd 67 7b 45 3d 3a 93 2d 3d 95 3e a8 bb
       -0.043064553 0.04821339 0.042376734 -0.0051344135
000100 ce 98 54 bc 94 f1 df bd 35 2c 1e 3d 78 15 a8 3d
       -0.012975885 -0.10934749 0.038616378 0.0820722
000110 53 f8 c8 bc a9 f1 46 3d 9e 48 cb 3c a4 61 28 3d
       -0.024532473 0.04857031 0.0248149 0.041108742
000120 3a a9 49 bd cc df 12 3d d4 83 df 3b aa fb 86 3b
       -0.049233653 0.03585796 0.006821135 0.004119356
000130 77 d6 c6 bb 08 ac 4b 3d 52 f6 dd 3d 4c f2 e6 3c
       -0.0060680467 0.04972461 0.108379975 0.028191708
000140 3f 89 e0 bc 89 28 1d 3c 80 ac 83 3d dc e0 c1 3d
       -0.027409194 0.009592184 0.06429386 0.09466717
000150 8e 15 58 bd 5e 02 37 3d 75 ff 0a 3d d5 77 9f 3d
       -0.05275493 0.044679992 0.03393503 0.07786528
000160 2f f0 2d bc b4 f5 85 3c a4 0e 76 bc 7a 8b c0 bb
       -0.010616346 0.016352512 -0.015018139 -0.005876002
000170 aa 58 0e bd 6c e0 1e 3d a9 f0 3c 3d 87 60 99 3d
       -0.034752525 0.038788244 0.04612795 0.07489114
000180 90 07 91 3c 07 76 81 bd b2 ca 3d 3c 6f 7e dc bc
       0.017703801 -0.0632134 0.011583971 -0.026915757
000190 80 5b 1a bd 5b a4 26 bc a9 72 e7 3c 1d 4f 07 3d
       -0.037684917 -0.010171021 0.028252916 0.033034433
0001a0 28 c7 9f bd b0 0f 16 3d e9 71 63 3b e5 50 69 3d
       -0.07801658 0.036636055 0.0034705347 0.056961913
0001b0 2c d7 23 3c 9e d9 20 bd 2f ea 01 bd 85 32 27 3d
       0.010000031 -0.039270036 -0.031717476 0.040819664
0001c0 9b 9b 13 3d dd c8 d6 3c fb 06 8c bc 07 6a 83 3d
       0.03603707 0.026218826 -0.017093172 0.064167075
0001d0 f0 2f 43 bd 10 12 2c bd 02 fd 34 bc fc 90 37 bd
       -0.04765314 -0.042009413 -0.01104665 -0.044816002
0001e0 60 80 d9 3c 23 cb 1b bd f2 6a 79 3d a0 9c cf bb
       0.026550472 -0.038035523 0.060893007 -0.00633581
0001f0 1a aa c2 3c ae 62 ee bc ca 35 93 bd f6 95 28 3c
       0.023762751 -0.029099789 -0.07187994 0.01028966
000200 d0 62 cf b9 85 02 0a bd c7 83 3f bd 38 f2 a3 bc
       -0.00039555738 -0.03369381 -0.046756532 -0.02001296
000210 30 13 cf 3d f8 da e1 bd 12 b4 41 3d 58 eb 60 bd
       0.101110816 -0.11028093 0.04729087 -0.05491194
000220 0b c3 4d 3c 8a 25 84 bd c0 1a a8 bb eb c7 74 3d
       0.012558709 -0.064524725 -0.005130142 0.05976097
000230 18 33 b8 3d f6 71 97 bd be 35 bc 3d ba 7a 9e 3c
       0.0899412 -0.07394783 0.09189938 0.01934563
000240 76 0f e8 3d 76 d3 b2 3d 5d 56 1e bd bb a2 76 3d
       0.11331074 0.08731739 -0.03865658 0.060213786
000250 fe 08 75 3b 38 5c 38 bd 6e 00 bd 3c c0 6e 41 3c
       0.0037389393 -0.04500982 0.023071494 0.01180619
000260 0e 41 e8 bc 03 ac f1 3b 02 9c 15 bd e2 0c 84 3d
       -0.028351333 0.0073752417 -0.036525734 0.0644777
000270 b7 b0 99 bc 2d a9 b7 3d c3 32 99 bd e7 13 37 bd
       -0.018761022 0.089678146 -0.07480385 -0.044696715
000280 16 ef f4 3b cc c7 41 bd 54 e2 af bc 8f c8 69 bd
       0.0074747903 -0.04730968 -0.021470226 -0.057076033
000290 70 0b 36 3d 0e 3b 2c bd 63 a4 cc b7 9b f3 e9 3c
       0.0444445 -0.042048506 -2.4395244e-05 0.028558543
0002a0 b5 aa ab 3c c5 94 10 3d 9e bc 90 3d a6 e2 7b 3d
       0.020955423 0.035298128 0.07067226 0.061495446
0002b0 76 80 88 3c 32 24 11 bd b5 97 05 bd 7a 77 6d 3d
       0.016662817 -0.03543491 -0.032615382 0.05797527
0002c0 ad 9d 22 3d bc 97 dc 3c ab 84 e0 bd 42 0b 92 3c
       0.039701153 0.026927821 -0.109628044 0.017827634
0002d0 8b da 70 bc 6d 18 d7 3d 96 a8 86 bc 7c a1 f9 bc
       -0.014700542 0.10502706 -0.01643781 -0.03047251
0002e0 a7 fb 4f 3a e0 bb 97 bc 08 de 90 3d 85 97 09 bd
       0.00079339225 -0.018522203 0.07073599 -0.033591766
0002f0 f1 c2 18 3d c2 f3 24 bc 6c c1 ef bc 67 af 2a 3d
       0.037295286 -0.010067882 -0.029267035 0.041671183
000300 a2 47 1f bd 1e 20 3b 3d 61 70 ee bc 34 e9 93 bc
       -0.038886674 0.045684926 -0.02910632 -0.018055536
000310 9d 73 11 3d 88 93 94 3d ce e8 d4 3c 0d 43 8c 3d
       0.035510648 0.07254702 0.025989916 0.068487264
000320 5a ad ab 3d b7 50 dd 3c e0 da 5d 3d d1 5d 15 3d
       0.083826736 0.027016027 0.054163814 0.036466423
000330 35 ed e2 3b 6c a4 81 bd 78 5d 76 bc 26 43 10 bd
       0.00692525 -0.06330189 -0.015036933 -0.035220288
000340 63 11 00 bd 7b 19 85 bc b2 e7 00 3d ae 1a 41 bd
       -0.03126658 -0.016247502 0.031470962 -0.047144584
000350 0a c5 89 3d d2 1d 0d 3d 45 28 b6 bb 42 cc 06 3d
       0.06727035 0.034452267 -0.0055589997 0.03290964
000360 fd 53 a5 3c 40 f8 f3 bc 55 3f 17 3d 56 b5 fd bc
       0.02018165 -0.02978146 0.036925633 -0.030970257
000370 2f f5 a5 3c 19 71 1b 3d 0e 71 2c 3d 26 79 90 bc
       0.020258514 0.037949655 0.042100005 -0.017635893
000380 97 64 19 3d f4 04 81 bb f8 d4 ac 3d c0 7e 8d bc
       0.037449446 -0.003937358 0.08439058 -0.017272353
000390 6b df c9 3c 0f 94 11 3d e7 f2 63 bc 3b 66 01 bc
       0.024642667 0.03554159 -0.013912893 -0.007897909
0003a0 8f c4 37 3d 53 7d 54 3d 70 c4 f3 bc 7d ba 9f 3c
       0.044865187 0.05187733 -0.029756755 0.019498104
0003b0 75 d2 c5 3b 35 70 6e 3d 03 55 15 3d d0 b7 07 bc
       0.0060370513 0.058212478 0.036458027 -0.00828357
0003c0 9f cc 43 bc eb 33 9e 3c 86 c3 1c bd c8 c9 c2 3b
       -0.011950641 0.019311866 -0.038272403 0.0059444644
0003d0 3c 9a 84 bb 24 c8 6a 3d 12 86 30 bd 3f bd 14 bc
       -0.0040467065 0.057319775 -0.04309661 -0.009078323
0003e0 7c 9b 38 3d ce 77 02 3c ce b3 a8 bd b6 3e 1f bd
       0.045070156 0.007963134 -0.0823742 -0.038878165
0003f0 b8 6a e5 3c 02 7f af bb 0d ab 2a bd ee 50 18 bd
       0.028004989 -0.0053557167 -0.041667033 -0.037186556

model.4.weight f4 [256, 256]
000000 f5 c9 1a be f6 34 03 3d 9f f5 93 be aa e5 0d 3d
       -0.15116103 0.03203293 -0.28898332 0.034642853
000010 00 19 bc bd de 23 21 bd 63 0f 50 be 4b 68 6a be
       -0.09184456 -0.039340846 -0.2031837 -0.22891347
000020 37 2c a4 bb a1 02 d6 be 54 dd 87 3c 5f 51 19 3d
       -0.0050101536 -0.4179888 0.01658503 0.037431117
000030 78 69 2f be 46 b6 0c bd ee 87 64 bd 84 e0 09 3e
       -0.17130077 -0.034353517 -0.055793695 0.13464552
000040 75 25 0f be 81 15 09 3c 23 a2 1f bd bd 48 8f bc
       -0.13979132 0.008366943 -0.038972985 -0.017490739
000050 de 3a 85 bd e3 48 1e be 9d 12 7d bd 52 bc 87 bd
       -0.06505369 -0.15457492 -0.06178533 -0.06627716
000060 62 63 1f bd 78 6f b8 3c 66 ae d4 bb e9 06 b9 3c
       -0.03891314 0.02251409 -0.0064905165 0.022586303
000070 62 ad bd be a9 85 4a 3d 7c d9 59 be 03 a6 57 be
       -0.37046343 0.049443875 -0.2127437 -0.21059422
000080 52 21 46 be 94 13 24 bd 31 87 8f 3d 0d 68 bf bd
       -0.19348648 -0.040057734 0.070082076 -0.09346018
000090 d6 17 0f bd fc 31 0c be 78 bc 8a bd 45 1f 1a 3d
       -0.03493484 -0.13690943 -0.06774229 0.037627477
0000a0 0d bb 54 be c7 2c 4d bf 0f be f0 3d a1 ed 81 be
       -0.20774479 -0.8014645 0.11755001 -0.2537661
0000b0 aa ee bc bd e0 37 82 bf a2 f0 91 be 78 95 29 3d
       -0.09225209 -1.0173302 -0.285039 0.04140231
0000c0 96 e8 58 3d 11 0a 3c bc e8 49 3b 3d 1f d7 bc 3d
       0.052956186 -0.011477009 0.04572478 0.092207186
0000d0 b5 12 6b 3d 08 d3 05 3d 38 c7 c7 3d 38 20 c3 bd
       0.057390887 0.03267196 0.09754795 -0.095276296
0000e0 f5 32 2d bd 5c 1a fe 3a 3a fb c5 bd 47 f9 0a be
       -0.042284925 0.0019386518 -0.09667058 -0.13571654
0000f0 4f cb 43 3c 41 c3 29 3b e0 bf 96 3c 96 a0 91 3c
       0.011950328 0.0025903734 0.01840204 0.017776769
000100 b7 14 63 3d e4 a3 cc bc 1f cf cd bc b3 e4 ea bc
       0.055439677 -0.024980493 -0.025123177 -0.028673505
000110 5e 78 d2 3c ee 9e 2f 3c 9f ea dd be 7d 68 85 3b
       0.025692161 0.010719044 -0.43343064 0.004071294
000120 38 08 a3 be f2 d4 25 bd 27 d6 7f 3d 99 25 32 bd
       -0.31842208 -0.040486284 0.06246009 -0.043492887
000130 13 6d 6c bd 19 47 97 3d 8c f1 8c bd 4e 62 3a 3d
       -0.05772121 0.07386608 -0.06882009 0.045503907
000140 2d 2f 5b 3d 09 c8 9c 3d 8e 49 1d 3b 08 4a 71 bd
       0.053511787 0.07655341 0.002400014 -0.058908492
000150 86 99 a1 bc 79 82 05 bd bd 82 d2 3c f8 75 19 3d
       -0.019726526 -0.03259513 0.025697106 0.03746602
000160 b3 55 38 3d 1b 04 32 3e 24 c6 9f bd 5f 02 05 3c
       0.045003604 0.17384379 -0.07801464 0.008118241
000170 b1 fd 9f 3c e0 0a 83 3d c3 af 85 bd cb 23 00 bf
       0.01953015 0.063985586 -0.065276645 -0.50054616
000180 f6 c6 ee be 2b 96 ec be 7c 71 b8 bd ff a4 d4 3c
       -0.4663617 -0.4620832 -0.090060204 0.025957583
000190 45 b2 8f be 0b c5 ff b9 af bb 2b 3d 15 9a 5d be
       -0.28065696 -0.000487842 0.041927036 -0.21640809
0001a0 1f b0 c8 3d d2 d4 c6 be 6f 6b d3 3c be 97 03 bd
       0.097992174 -0.38834244 0.025808064 -0.032127135
0001b0 e4 d4 28 3e e1 42 e3 3e e8 2b 15 3d 01 4f d7 ba
       0.16487461 0.44386962 0.036418825 -0.0016426743
0001c0 27 8f ab 3e ed 78 f7 bd 05 34 5d 3d 18 b5 00 3c
       0.33507654 -0.12083612 0.054004688 0.007855676
0001d0 2c e1 76 3c 12 48 3f 3d 53 4f 88 bd f4 54 37 3d
       0.015068334 0.04669959 -0.06655755 0.044758752
0001e0 f0 5e 5f b8 f2 b8 0d be 5c a6 93 bb 6b bd 31 3d
       -5.325576e-05 -0.13840082 -0.0045059156 0.043393534
0001f0 c9 71 40 be b4 40 e5 be b0 c6 16 bf b9 c0 dc be
       -0.18793406 -0.44775927 -0.58896923 -0.43115786
000200 ea 71 81 bd 0b 0c 54 be 13 cf 99 bc bb 14 7c bc
       -0.063205555 -0.20707719 -0.018775498 -0.015385802
000210 28 d5 94 3d 53 32 d9 3d e3 84 56 bd a0 f8 e2 3d
       0.07267219 0.10605302 -0.052372824 0.11082578
000220 5f a8 01 3d 2b 91 48 bd 9e 8f a7 bd 34 17 25 be
       0.03165471 -0.048966568 -0.0818169 -0.16122133
000230 68 76 bc be 76 bd 43 3e d7 ac e8 bc df df 11 be
       -0.36809087 0.19115242 -0.028402729 -0.14245556
000240 12 32 32 3e ae 8b 64 bd 5c c5 fc 3c 12 81 73 bc
       0.17401913 -0.05579727 0.030855827 -0.014862316
000250 f2 12 43 bd 4d 97 12 3e e8 c7 45 3c 5e 6e 22 3d
       -0.04762549 0.14315529 0.012071587 0.039656036
000260 b0 0e f0 3d ff ef 19 3d 33 32 3b bd 95 cc 2a 3c
       0.117215514 0.037582394 -0.04570217 0.010424753
000270 24 d6 09 bd 80 da 1e be d9 37 82 3b 51 bb a0 be
       -0.033651486 -0.15513039 0.0039739427 -0.3139291
000280 7d a3 15 3c e4 93 3f 3d a1 06 5b bd ae d1 77 3d
       0.009133217 0.0467719 -0.05347312 0.0605027
000290 ed bf d7 bd 6f 55 1b 3d f3 2a 76 bd 14 a1 a7 bc
       -0.10534654 0.037923273 -0.060099553 -0.02046255
0002a0 79 94 25 bd a5 1b 92 bd 1d 1a 75 3c ac 10 36 3d
       -0.040424798 -0.07134179 0.014959839 0.044449493
0002b0 ae 4a 96 be 89 2a 3f bd 30 7b 41 bd 51 ec bb 3c
       -0.2935385 -0.046671424 -0.04723662 0.022939833
0002c0 8e d0 93 bd 26 ab 31 be 23 ce c9 be 8c e6 a3 bc
       -0.07217513 -0.17350444 -0.39415082 -0.020007394
0002d0 ba 4c 64 be a3 95 1a 3d b2 69 87 3d 2a e9 81 be
       -0.22294894 0.03774036 0.06611957 -0.25373203
0002e0 15 eb 41 bc 7f 7c 4d bf 8a 4e 23 bc 49 d8 54 ba
       -0.011835833 -0.8026809 -0.009967456 -0.0008119387
0002f0 3a 29 88 3d ef 38 aa bd 50 a0 6b 3e ee d8 fb ba
       0.06648488 -0.083116405 0.23010373 -0.001921443
000300 b2 f0 84 3c 2c c9 9b bd 11 98 58 3d 6a c6 ac bc
       0.016228054 -0.0760673 0.052879397 -0.021090705
000310 25 85 93 be 46 72 72 3e 6b 1d cf bb e3 07 7c be
       -0.2881252 0.23676404 -0.0063206456 -0.24612384
000320 af db 99 be 13 61 f6 3c 96 ca 96 bd d2 80 98 bc
       -0.30050418 0.030075585 -0.07362859 -0.018616114
000330 f6 55 ef bd 43 13 0f 3e cf 33 55 3d 2b 97 83 3d
       -0.116863176 0.13972192 0.05205136 0.064253174
000340 02 99 83 bd 0f e9 15 3c 16 db b0 be d6 80 02 3d
       -0.06425668 0.009149804 -0.3454215 0.03186115
000350 e4 c6 19 3d 89 31 c2 3b 64 3c b3 3d 93 6f f5 3c
       0.037543193 0.005926315 0.08751753 0.02996043
000360 42 de 82 bd 6b 94 30 3d cf 83 2a be 71 29 1d be
       -0.063900486 0.043110292 -0.16651843 -0.1534784
000370 ba 22 ef 3c e2 bd dc 3c ad 71 aa be 83 eb 0b bc
       0.029191364 0.026946012 -0.33289853 -0.008540037
000380 bb 38 dd be 03 08 d3 3c 98 44 ce be e0 7a a3 be
       -0.43207344 0.025760656 -0.40286708 -0.31929684
000390 13 83 c5 3a 49 a7 90 3c 00 da d0 3d 8c c9 d5 be
       0.001506897 0.017657893 0.1019783 -0.4175533
0003a0 3a ac 2d 3d 84 71 40 3b b3 d4 8e be e5 ee 49 3e
       0.042400576 0.0029364536 -0.27896652 0.19720037
0003b0 df 6a d1 be d4 be 49 be f1 87 08 3c 43 20 30 3d
       -0.4090185 -0.19701701 0.008333192 0.042999517
0003c0 41 22 b3 3d c0 33 01 bf 94 e9 f9 be 2b 09 45 bd
       0.08746768 -0.5046959 -0.48811018 -0.048104446
0003d0 2f 80 42 bb 71 8f ab bc 93 6a 81 bd 6a 5a dc bd
       -0.0029678454 -0.020942422 -0.063191555 -0.107594326
0003e0 ec 77 2d bd 5d bb 97 3d ad 46 e0 bd 17 28 b0 bc
       -0.042350695 0.074087836 -0.1095098 -0.021503491
0003f0 7b c4 76 bd 7a 43 f8 3d 0f f7 8d 3c 01 63 3d 3c
       -0.060245972 0.12122245 0.01732972 0.011559249

model.4.bias f4 [256]
000000 07 d6 4d 3d fb ba 26 bd d5 c3 d9 3b 72 88 9d 3d
       0.05025294 -0.040705662 0.0066456595 0.076920405
000010 3f a3 06 3d 20 a3 c4 3b e0 d5 0e bd 2b 58 ec bb
       0.032870527 0.0060008913 -0.034871936 -0.007212659
000020 a2 cd 9a bd b4 86 b3 bb ae fd d2 bc 2f a8 c2 3d
       -0.075587526 -0.0054787043 -0.02575573 0.09504735
000030 7f 74 a2 3d 40 b2 0d 3c eb d9 1a 3d fb 24 1d bd
       0.07932376 0.008648455 0.03780548 -0.038365345
000040 41 b2 51 bd 35 c5 f4 bb aa e3 05 bd 31 3d 6b bd
       -0.051195387 -0.007469798 -0.03268782 -0.057431404
000050 92 a6 26 3d 2c 76 b8 bb a7 16 80 3d 63 a5 ab 3d
       0.040686198 -0.0056293216 0.062543206 0.083811544
000060 fc e7 4e 3d 25 80 86 3c 2d 82 2b bb d2 be a8 3d
       0.050514206 0.016418526 -0.002617012 0.08239521
000070 fd c9 e8 3c 25 b1 b5 3c 66 43 86 bc 6f 46 08 3d
       0.028416628 0.022179196 -0.01638956 0.033270296
000080 71 26 90 3d 6b fd 7e 3c ce d8 1a 3d 79 9d 30 3d
       0.07038582 0.015563349 0.037804417 0.043118928
000090 69 33 b0 3d 66 45 ff 3c 58 1f d5 bc 48 6e 69 3d
       0.08603556 0.031161021 -0.026015922 0.056989938
0000a0 31 af 62 3d b2 2d 11 bd 66 80 b4 3d 32 9b 2b 3d
       0.055342857 -0.03544397 0.088135526 0.041896053
0000b0 3a b8 90 3c 57 7d 0a 3c 58 f4 d9 bc a4 0d 79 3d
       0.017665971 0.008452735 -0.02660577 0.060804024
0000c0 6a 80 b9 bc 60 d4 2e bc 77 de 88 bd fa ed 78 3d
       -0.02264424 -0.010670751 -0.06683057 0.060773827
0000d0 5c 53 41 3d 36 e2 5a bd e0 77 16 bc 7a 55 98 bd
       0.04719864 -0.053438388 -0.009183854 -0.07438178
0000e0 09 8c 25 3d 37 d8 a6 3c 6d 61 b3 3b e2 ff 7d 3d
       0.04041675 0.020366771 0.0054742605 0.062011607
0000f0 f3 a6 63 3c a5 ca e9 3d 71 f2 68 3d 9d 32 a0 3c
       0.013894784 0.114156045 0.056871835 0.019555384
000100 58 61 bb bc 9e 65 67 3d 11 56 f4 3b dd a0 a3 3c
       -0.022873566 0.056493394 0.007456549 0.019974167
000110 59 9c eb 3d 60 5a 61 bb dc 29 ce 3d e9 11 a8 bb
       0.1150443 -0.0034386143 0.10066578 -0.005129088
000120 87 eb 8c 3b 84 6a 27 3d 7c 96 41 3d b3 41 c2 bc
       0.004300538 0.040873066 0.047262654 -0.023712968
000130 37 f5 20 3e ae 5a e6 bc ae 31 c3 bc 1a da 93 3d
       0.15718542 -0.028119411 -0.0238274 0.07219334
000140 e7 45 b4 bb ec 99 84 bd 19 46 80 bb 73 3f 92 bd
       -0.005501497 -0.06474671 -0.0039146063 -0.07141008
000150 bb 44 a2 3d 22 73 65 3d f3 6c 87 bd 1b c8 2a be
       0.079232655 0.056018002 -0.06612577 -0.16677897
000160 3b 07 aa 3c ff 1a 79 3b 03 6a b2 3c bb 25 24 bc
       0.0207554 0.0038010476 0.021779066 -0.010018761
000170 9c 3d 9c 3d da 70 00 3d 40 3b 2f 3c 1a aa ac 3c
       0.076289386 0.031357624 0.010695279 0.021077204
000180 c2 30 ef 3d 3c 02 1c 3d 7c 54 89 bc cc f6 df 3d
       0.11679222 0.03808807 -0.016763918 0.10935745
000190 10 c5 5d bc 5b 94 56 3d 60 cc 97 bd d3 ec 13 bd
       -0.013535753 0.052387577 -0.07412028 -0.036114525
0001a0 78 e5 8d 3c fc f0 9f 3d 91 ab f8 3b 94 2d 9a bc
       0.017321333 0.07809636 0.0075888117 -0.018820561
0001b0 ed 97 26 bd 2d b2 83 3d 5a be 1f be 7d 9c b5 bd
       -0.04067223 0.06430469 -0.15599957 -0.088677384
0001c0 40 00 42 bd 52 bc 3b 3c e6 c7 cd 3c 45 02 cc 3c
       -0.04736352 0.011458473 0.025119733 0.024903426
0001d0 2d 8a 83 bd a0 48 b8 3c 62 aa f6 3c 5f da 81 bc
       -0.06422839 0.022495568 0.030110542 -0.015851198
0001e0 48 82 2e 3c 43 51 d9 bc 81 c6 25 bd cb f1 42 bc
       0.010651179 -0.026528006 -0.04047251 -0.011898468
0001f0 58 9f df bc 2f 7a 8f 3d 63 41 e5 bc 49 f9 0e 3d
       -0.02729766 0.070057265 -0.02798528 0.034905706
000200 3c 93 79 3c 55 ef 08 3d c4 7c ad 3d d8 03 02 bd
       0.015232857 0.03343137 0.08471063 -0.031741947
000210 d2 72 66 bc 15 06 03 3d 62 88 96 bb 97 ce 3d 3d
       -0.014065461 0.031988222 -0.004593895 0.046339598
000220 96 bb c1 3d df e3 af 3b a7 7e d9 bc cf fa 65 bd
       0.09459607 0.0053677405 -0.02654965 -0.056147393
000230 a4 7c e4 3b d5 9d f3 3c a7 98 c1 bb 37 34 0c bd
       0.006972866 0.029738346 -0.00590809 -0.034229483
000240 60 a1 93 ba 37 91 e2 bc 94 64 eb 3c d5 30 46 3d
       -0.0011263303 -0.027657134 0.028734483 0.048386414
000250 f6 a6 e3 3c 66 4d 97 bc 00 15 e0 3c f5 81 34 bc
       0.027789574 -0.018469524 0.027353764 -0.011017312
000260 05 4a 80 bc 0a 41 79 3c c5 07 17 bd f8 b6 24 3c
       -0.015660295 0.01521326 -0.036872644 0.010053389
000270 01 c0 84 bd 90 2f 9b 3c 93 4a 73 3d a9 fa da bb
       -0.06481934 0.018943578 0.05939729 -0.006682713
000280 f5 4d 8f 3b ef e0 c1 3c 27 0d a1 3d 22 a5 ae bc
       0.004373307 0.023666827 0.07863837 -0.021318976
000290 02 14 8c ba c2 af c9 3d 04 17 df 3c 37 43 e7 3d
       -0.0010687115 0.09847976 0.027232654 0.11292117
0002a0 9c 04 16 bd 3b 89 87 bc 6d 82 c6 bd 3b 7f 85 3d
       -0.03662549 -0.016544929 -0.096928455 0.06518408
0002b0 57 19 90 3c 14 6f 97 bc 87 1d 9b 3d e2 1d 5a 3d
       0.017590208 -0.018485583 0.07573991 0.053251155
0002c0 2c 70 1f bc 29 98 31 3d a1 2e bf 3d 9e c8 59 bc
       -0.009731334 0.043358 0.09335066 -0.01329246
0002d0 ca 4b 82 3d 31 b0 ef 3c 1a b7 5b 3d 93 9b 80 bd
       0.06362112 0.02925882 0.053641416 -0.062796734
0002e0 db 0b af bc 78 07 de bc c4 a7 c4 bc 15 95 14 bd
       -0.021367958 -0.02710317 -0.024005778 -0.03627499
0002f0 5d d0 8e 3d eb 29 7c bc 6e af bd bc a4 af b6 bd
       0.06973336 -0.015390853 -0.02315494 -0.089202195
000300 7e d9 8d bb 7b e9 e2 3c 97 2a 3e 3d ee 9b 11 3b
       -0.0043289056 0.027699223 0.046427336 0.0022218185
000310 2b f5 97 3d cc 24 24 3d c5 9f a0 3c 59 25 de 3a
       0.07419809 0.040074155 0.019607434 0.0016948386
000320 fe 84 48 3c 2b cc 72 3a 29 c1 95 3d a0 f3 0d 3d
       0.012238739 0.0009261991 0.07312233 0.034656167
000330 5d fc 1d bd 21 b1 24 bd a0 15 e9 bb a7 f3 ff bc
       -0.03857075 -0.040207986 -0.0071131736 -0.031244112
000340 fc 6d 3f bd b7 7b f0 3c 82 57 61 3d eb 1d 3b 3c
       -0.04673575 0.029355867 0.055015095 0.011420707
000350 a3 a2 42 3c 9b 5c 9e 3b 7c 9a b8 bc 19 f8 6a 3d
       0.011879596 0.004832817 -0.022534601 0.05736551
000360 1c a2 61 bd a0 e1 8c bd 4c d4 89 bd 21 43 a2 3d
       -0.05508624 -0.06878972 -0.067299455 0.0792296
000370 53 6b 3f 3c fc 48 3d bd b2 a8 ce 3d f5 e0 40 3d
       0.011683303 -0.04621218 0.1009077 0.047089536
000380 ba f0 9b 3d ca ff 20 3c d2 04 35 bd a4 d1 5e 3d
       0.07614274 0.00982661 -0.04419405 0.054399148
000390 ff ac 14 3d e1 3c e9 3d d2 dd f3 bc c4 88 9b 3d
       0.036297794 0.11388565 -0.029768858 0.07594445
0003a0 88 5e 36 bd e3 b5 84 3d fd 85 fa bc fc 11 1b bd
       -0.044523746 0.06480005 -0.030581469 -0.037858948
0003b0 68 44 a4 bc 70 12 35 bd f2 32 8e 3d 5f 82 75 3c
       -0.02005215 -0.044207036 0.06943311 0.014984696
0003c0 e8 56 1d bd 1e 76 ec 3c f6 9f 16 bd 8b c6 d4 3c
       -0.03841296 0.028864916 -0.036773644 0.025973579
0003d0 99 95 22 3d 72 a0 b5 bc ae a8 39 3d 19 76 92 bd
       0.03969345 -0.022171233 0.04532688 -0.071514316
0003e0 fa f3 1f 3d e0 c1 a8 3c da fa 4d bd 53 6e 77 3d
       0.039051034 0.02060026 -0.05028806 0.060407948
0003f0 15 7f 8b bc 82 5c 40 bb d3 00 e8 3d d8 25 ef bc
       -0.01702837 -0.0029352014 0.11328282 -0.02919285

model.6.weight f4 [1, 256]
000000 7e 8a fe be e7 8f f8 bd 72 9c 16 bd 50 f2 22 3e
       -0.49715036 -0.12136822 -0.03677029 0.15912747
000010 39 08 fb bd 49 8d 86 3e 24 87 61 be b6 34 eb 3d
       -0.12257428 0.26279667 -0.22024208 0.11484663
000020 47 15 f4 be 27 5e c8 3b ce f6 31 bc 35 0d be 3e
       -0.47672483 0.0061147395 -0.0108620655 0.3711945
000030 1c 51 9f 3d 9a 9b 79 be 85 56 c1 3d 5e d5 de be
       0.07779142 -0.24375764 0.094403304 -0.4352216
000040 9b 05 e8 bd 34 aa 9c be f8 7e 61 3f 6b 88 bf bc
       -0.11329194 -0.30598605 0.88084364 -0.023380479
000050 6b 97 df 3e 19 2c 0e bd 6d 9f 2b 3e 8b 88 27 bf
       0.4367021 -0.034710024 0.16760035 -0.65442723
000060 90 16 d8 3e 40 a5 26 bd f5 b4 0d 3e dd 08 66 3e
       0.42204714 -0.04068494 0.13838561 0.22464319
000070 c6 f4 42 3f c1 f8 8f 3d f0 51 06 3f 93 35 4a bd
       0.76154745 0.07029868 0.52468777 -0.0493675
000080 84 93 1f 3e 53 f3 1f 3f 51 cd 82 3e 17 f2 b5 3d
       0.15583616 0.6248066 0.2554727 0.088840656
000090 28 62 9e 3e 51 b5 49 be 12 ff a9 ba 10 fa 43 bd
       0.30934262 -0.19698073 -0.0012969694 -0.0478459
0000a0 d7 ab f0 3d ae 3f fa bd e3 37 68 3e 40 e4 c9 bd
       0.11751526 -0.12219177 0.22677569 -0.09857988
0000b0 fb aa 7f be 3e 9b 49 3e 40 91 07 bf 90 99 82 be
       -0.24967568 0.19688126 -0.5295601 -0.25507784
0000c0 90 ab a3 be 23 83 b3 be fe 93 19 bc a4 9b 47 be
       -0.3196683 -0.35060987 -0.009373663 -0.19492966
0000d0 77 b3 f2 be 0a c2 87 bd 6f c3 05 3e 2c 8b 64 bd
       -0.47402546 -0.06628807 0.13062833 -0.055796787
0000e0 ca 3d ca be f5 d6 34 be a9 92 00 be 58 03 2a be
       -0.39500266 -0.17660125 -0.12555946 -0.16602838
0000f0 ba ea d3 bd e2 e3 eb 3e d5 a2 9b bd ab 70 e6 bc
       -0.10347505 0.46072298 -0.07599417 -0.028129896
000100 a7 e0 2a 3f 8d 3e e5 3d 9e 32 6f be 6e 2b f7 bd
       0.6674904 0.11193571 -0.23359153 -0.120688304
000110 ed 27 38 3e 9b 90 ce 3d 16 f9 03 3e 09 5f a4 be
       0.1798398 0.10086175 0.12887987 -0.32103756
000120 49 fd 1c 3f b3 99 36 3e 7a 2f 90 be aa 79 02 bf
       0.6132398 0.17832069 -0.28161222 -0.50966895
000130 f8 ca b0 be d6 7e 64 3f 32 fb af bc cd c6 bf 3d
       -0.34529853 0.89256036 -0.021482084 0.0936409
000140 5e f4 4c be f7 c7 5b 3d 05 4c d6 bd 5c 3b 99 3e
       -0.20015094 0.0536575 -0.10463718 0.299281
000150 f0 97 95 3e db 5a d4 3d bb a4 3a 3d 83 16 ef 3e
       0.29217482 0.10368892 0.045567255 0.46696863
000160 0c cf 1f 3e 57 e9 f5 3d c4 0f 03 3e 01 52 ac be
       0.15606326 0.12007397 0.12798983 -0.33656314
000170 a8 dc c7 3d be 60 cb be dc 9d ac 3e f6 4a 69 3e
       0.09758884 -0.39722246 0.33714187 0.22782502
000180 69 aa 9f 3d f2 f9 b1 bd c5 cd a5 bd a4 7c ef 3d
       0.07796175 -0.086902514 -0.08095888 0.11693695
000190 9a a2 a4 3e be bc 52 bf 99 a1 aa be 66 42 79 bc
       0.32155305 -0.8231925 -0.33326414 -0.0152135845
0001a0 5b e1 f4 be 64 ce f4 bd 50 9f f9 be 6d ab 9f 3b
       -0.47828183 -0.119534284 -0.48754358 0.0048727305
0001b0 b3 d8 b7 be fa 1d c0 be 68 e6 fa be e0 c2 05 bf
       -0.35907516 -0.3752287 -0.4900391 -0.5225048
0001c0 05 92 23 be 53 e0 01 3e 37 02 d5 bc 18 d6 7f be
       -0.15973671 0.12683229 -0.026002033 -0.24984014
0001d0 81 4a 24 bf 7b f6 f1 bd 3f 97 2d be 7d d9 97 be
       -0.64176184 -0.118145905 -0.16952227 -0.29658118
0001e0 36 01 1e 3e 2e 5d e8 be 5c d2 1c bc 09 a4 b1 3e
       0.1543015 -0.4538359 -0.009571638 0.3469546
0001f0 b6 ac 9d bd 58 f4 26 3e b7 9e 03 bf e2 86 c1 be
       -0.076989576 0.16304147 -0.51414055 -0.3779822
000200 09 98 69 3d 54 55 7b be 09 b5 07 3e 86 95 0b bf
       0.057029758 -0.24544269 0.13252653 -0.5452503
000210 7a 71 8a be 11 53 2e 3e f8 4a 33 bf 74 b6 c9 be
       -0.270397 0.17023875 -0.7003627 -0.39397013
000220 51 03 5e 3e 71 85 0d 3e ef a8 f7 bc e7 ec 4c 3d
       0.21680953 0.13820435 -0.030231921 0.050030615
000230 30 50 8e bd 0d 01 61 be 7a 01 fa bd 02 d0 c6 3e
       -0.06948888 -0.21973057 -0.12207313 0.38830572
000240 37 7b 83 3e d2 f1 ff be 21 88 2d be 60 01 89 3e
       0.25679943 -0.49989182 -0.1694646 0.26758862
000250 60 0f 3b be f9 f8 40 be 99 29 10 bf 60 ea 78 bd
       -0.18267584 -0.18844976 -0.56313473 -0.060770392
000260 90 52 94 be 5d 5a 96 3e a0 84 48 be a8 76 98 3c
       -0.2896924 0.29365817 -0.19581842 0.018611267
000270 30 16 02 bf f5 e8 08 be 9d 96 89 3e 31 8d 07 3f
       -0.50815105 -0.13370116 0.2687272 0.52949816
000280 3f f6 08 3e 63 76 00 bd 75 df 0b 3e 4b f0 35 be
       0.13375185 -0.031362902 0.13659461 -0.17767446
000290 29 02 6f be e9 68 de 3d 17 a7 37 bb e0 c0 0c 3e
       -0.23340668 0.10859854 -0.0028023177 0.13745451
0002a0 15 3a 77 bd f0 1b 77 bd f3 36 4c bf 5e 95 69 3e
       -0.060358126 -0.060329378 -0.79771346 0.22810885
0002b0 1b 07 f1 be df 06 7f bd 49 9e d8 3d d8 05 e6 3d
       -0.47075734 -0.062262412 0.105770655 0.11231583
0002c0 90 5f 34 3e c4 c8 44 be 41 13 fa 3d 64 bd 33 3e
       0.17614579 -0.19217211 0.12210704 0.17552716
0002d0 ea a8 d1 3e a8 2a 49 3e ff d0 0f 3e e9 80 21 bf
       0.40949184 0.19645178 0.1404457 -0.63087326
0002e0 f7 a1 c4 3e 10 7b 16 3e b8 37 64 3e 2d a1 ac be
       0.3840482 0.14695382 0.2228688 -0.33716717
0002f0 3b f6 f1 3d 39 04 14 3d 0c b5 44 bd 36 ef 49 be
       0.11814543 0.03613684 -0.048024222 -0.19720158
000300 0a ac cc be 73 58 d0 3e 7a c8 48 3e be 3d 08 3e
       -0.39975005 0.4069248 0.19607726 0.13304803
000310 63 b3 66 3e 47 7d 0f 3d c7 30 41 3e 9b da 46 3e
       0.22529368 0.035031583 0.18866263 0.19419329
000320 0d 16 45 3e 19 d4 3c be 88 88 65 be e9 cc b6 3e
       0.19246693 -0.18440284 -0.22415364 0.3570321
000330 53 09 11 bf 7a e8 fb bd 5e 34 bc 3e bf af 7f bc
       -0.5665485 -0.12300201 0.36758703 -0.015605866
000340 3e 66 80 be cf cd ef 3d 3b f6 bf be d1 28 ad bd
       -0.25078005 0.11709177 -0.37492546 -0.08455051
000350 3a f3 93 be 63 fb 29 be 19 97 47 bd 80 29 25 be
       -0.28896505 -0.16599803 -0.048728082 -0.16129112
000360 99 7e 33 be 6a a9 7f be ff 8b a3 bc 4d 6f 5b 3e
       -0.17528762 -0.2496697 -0.019964216 0.21429177
000370 57 67 7c 3e 50 b2 b5 be 96 58 ad 3d 0b b7 bd be
       0.24648796 -0.35487604 0.08464162 -0.37053713
000380 8c f6 d6 3d 12 af cf 3e f3 db 9f bc 55 2f f2 3d
       0.10496244 0.40563256 -0.01951406 0.11825434
000390 62 2e c5 be 93 ea b6 3e 4c 5d 3d 3c 39 1f f6 be
       -0.3851195 0.3572584 0.011557888 -0.48070696
0003a0 03 8c bb 3b 1f c9 04 3f ea de 5d be 88 2e bf be
       0.005723478 0.51869386 -0.21667066 -0.37340188
0003b0 f0 00 6b 3e f8 19 47 bd a4 9b de 3d 35 1d a3 be
       0.22949576 -0.04860875 0.1086953 -0.3185822
0003c0 9d 91 a8 be f5 ac cf 3e 91 6f c8 be 1e 8d 02 be
       -0.32923594 0.40561643 -0.39147618 -0.12749144
0003d0 b4 6a 80 bf df 82 47 3e d1 e2 8f 3e e3 bc bd be
       -1.0032563 0.19483517 0.28102735 -0.37058172
0003e0 4e 7d 06 3e 3e 2d de bd a9 2a dd be 2e 77 17 3e
       0.13133737 -0.10848473 -0.4319661 0.14791557
0003f0 76 4f 65 be 15 71 19 3e 95 8e 11 3e 94 37 41 3e
       -0.22393593 0.14984544 0.14214547 0.18868858
