data/checkpoints/rlgym-ppo-run-1760750124713022400/544525798/PPO_POLICY.pt (torch, 638775 bytes, 8 tensors)

model.0.weight f4 [256, 89]
000000 33 22 a6 be d3 3e 92 3e b0 c0 bc be f8 5b b2 3d
       -0.32447967 0.28563556 -0.3686576 0.08708948
000010 58 b9 1c be bd f4 64 be 3c 47 95 3c 81 b5 2d bc
       -0.15305078 -0.22358985 0.018222444 -0.010602356
000020 35 76 17 3d 79 47 19 3d 15 a6 e3 3c 63 f2 a3 bc
       0.036977965 0.037421677 0.027789155 -0.02001304
000030 98 96 f7 bc 52 c0 1e bd d4 f5 f6 bd 2d da 92 3c
       -0.030223176 -0.03875763 -0.12058607 0.0179263
000040 0d 3c 5b 3a 82 f4 68 3d 3e f0 25 bd 77 1e af 3c
       0.0008363135 0.056873806 -0.040512316 0.021376831
000050 29 8e 7f 3d f6 59 d8 3b dc 47 6f 3c aa 03 b7 3d
       0.062391434 0.006602521 0.014604535 0.08936246
000060 f8 53 82 bd 6d 1e a2 3c 4a 26 7d bd b9 b3 9e 3d
       -0.06363672 0.019789899 -0.061804093 0.07749123
000070 10 0e aa 3d 83 3d dd bd dd a0 d2 3d 9c 3c f2 3c
       0.083034635 -0.10802748 0.102845885 0.029569916
000080 e6 52 f7 3c 75 5f 92 3c 87 9e 89 3d 60 28 f7 bc
       0.030190896 0.017867783 0.0671969 -0.03017062
000090 3c f9 d6 bd 9a f7 0d bc e4 3c bc bd 39 57 13 3c
       -0.104967564 -0.00866499 -0.091913015 0.0089929635
0000a0 85 71 b6 bc 10 c4 87 bd a6 59 a2 bc 1b 8a 91 3d
       -0.022270927 -0.06629193 -0.019818138 0.0710642
0000b0 50 85 ab bc f7 30 35 bc 3b 04 cf bc 5a 35 c2 b9
       -0.020937592 -0.011059037 -0.025270572 -0.00037042313
0000c0 18 61 ac 3d c4 13 40 3d cd bd 6c 3c d0 a9 8b 3e
       0.08416957 0.04689385 0.014449549 0.27277994
0000d0 0e 82 68 3c 33 61 53 3e 2f e9 56 bd 6e 97 16 be
       0.014191164 0.20642547 -0.052468475 -0.14706203
0000e0 24 c1 9b be 4e 7f 3a bd 9b ac de 3d 26 ce b3 bd
       -0.30420792 -0.045531563 0.10872766 -0.08779554
0000f0 b1 04 1c be f4 ca 91 3d 1b 10 b2 3e 83 c6 f7 be
       -0.15236165 0.07118788 0.34777912 -0.4839364
000100 dc f3 4c be 1b 3d d2 bd 47 ff 74 be 2e 17 80 bd
       -0.200149 -0.10265561 -0.23925506 -0.06254421
000110 46 0a 4c bc bc 34 21 3e bc 0f 79 3e 98 6c 01 3e
       -0.012453621 0.15742773 0.24322408 0.12639081
000120 2d bb f5 bd 92 ea a1 bc 0c 04 ae 3c 2b c4 f8 3b
       -0.119985916 -0.019765172 0.021242164 0.0075917444
000130 5a 8d 97 3c 1a e2 ea 3b c2 f1 4c bb e4 fb 9f bd
       0.018500019 0.0071680667 -0.0031272029 -0.07811716
000140 1c 5e 57 3d e6 c8 71 be c4 d3 17 bc e8 d4 bd 3c
       0.052579984 -0.23611793 -0.009266797 0.02317281
000150 a6 87 b7 bc ee 29 67 bd 9d 2d fc bc dd 76 ba 3d
       -0.02240355 -0.05643647 -0.030783469 0.091047026
000160 81 f5 37 3d 8f cb c9 3d 7f 0f 19 be c8 61 0a 3e
       0.044911865 0.09853279 -0.14947318 0.13513863
000170 e8 39 27 3d ca a4 9a be 17 f9 77 be e9 db 1b 3c
       0.040826708 -0.3020385 -0.24216114 0.00951288
000180 81 9c 5e 3e 10 ba 85 3e 32 0f 68 3d 07 f8 5d bd
       0.21739389 0.26118517 0.056655116 -0.054191615
000190 a8 cf bc 3c c7 e7 18 bd 2b 34 c3 3c e3 2f 0e bd
       0.023048237 -0.037330415 0.023828587 -0.034713637
0001a0 fb 26 db bc 23 80 9a bc 50 0a 71 bb 53 14 a6 3d
       -0.026751986 -0.018859928 -0.0036779828 0.08109345
0001b0 9e 2a 25 3d e4 0f 3c bc 87 13 74 3d 74 89 91 bd
       0.040323846 -0.011478398 0.059588935 -0.07106295
0001c0 32 e1 1a 3d 49 3d ca bc da 5d fa bc af 32 56 bb
       0.03781242 -0.024687426 -0.03056233 -0.0032684018
0001d0 53 a0 88 bd 02 d3 90 bc e2 7b a3 3c 43 83 5a 3d
       -0.066712044 -0.017678741 0.019956533 0.053347837
0001e0 57 fe 37 bd 96 25 fb 3c 3c 92 bf 3d 77 bf 6a bd
       -0.04492029 0.03065757 0.09354064 -0.0573115
0001f0 cc ca ad 3d c3 ea 95 bd 0a a5 0c 3d 79 73 06 3d
       0.08485946 -0.07320168 0.03433708 0.032824967
000200 79 47 4c bc 99 11 bc 3d 71 0d 73 bd 5a 80 4c 3c
       -0.012468212 0.09183044 -0.05933899 0.012481773
000210 4c aa bc bc 95 39 c6 bd 53 f2 1b bd c0 a8 c8 bd
       -0.023030423 -0.09678952 -0.038072895 -0.097978115
000220 f1 2a de 3c d2 5b cf bb 2e 26 71 bb 42 88 55 bd
       0.027120085 -0.0063280845 -0.0036796439 -0.0521319
000230 2d 45 a3 be 2a 61 b5 3a 32 83 c4 3d 0d ee 81 3e
       -0.31888714 0.0013838161 0.09595336 0.2537693
000240 92 23 15 3d f2 46 0c 3e 37 4d b0 bd a2 b7 63 bd
       0.036410876 0.13698938 -0.086084776 -0.055595048
000250 b9 17 eb bc 1f 75 48 3e 8c 59 46 be 63 2c 27 3e
       -0.028697835 0.19575928 -0.19370097 0.16325526
000260 a2 39 69 3e fa fe e4 3d f6 8f 71 3e fd 0c f0 3e
       0.22775891 0.111814454 0.23590073 0.4688491
000270 0b 5d b3 bc 56 e3 83 3d ad af ac bd 9d 25 b5 3e
       -0.021894952 0.06439845 -0.08431945 0.3538026
000280 c6 99 82 3e e1 47 1e 3e 96 ea e9 bb 7a 26 6b 3d
       0.25507945 0.15457107 -0.0071385605 0.05740974
000290 a9 8c c6 3d b3 84 4e 3d ed ca 39 bd 06 03 ab 3d
       0.096947975 0.05041952 -0.04535954 0.08350186
0002a0 02 21 d5 3d 7c 30 18 3e 22 51 99 3d 8d 35 68 bd
       0.10406686 0.14862245 0.07486178 -0.056691695
0002b0 b5 16 97 3c d7 9c 07 3b 69 65 5f bd c0 e2 b9 bd
       0.018443445 0.002069285 -0.05454007 -0.09076452
0002c0 92 81 4d bd 67 68 aa bb 05 b9 5d 3c 5b b3 9b 3e
       -0.050172396 -0.005200434 0.013532882 0.30410275
0002d0 1e f7 4b 3c 51 07 c0 3d 41 88 46 3c 14 ce 23 be
       0.012449054 0.093763955 0.012117446 -0.15996581
0002e0 53 7c 2c be 40 5a b3 3c 6c 9a 4b bc 0c 7e 57 3d
       -0.16844301 0.02189362 -0.012426954 0.052610442
0002f0 93 36 e3 3d 50 f1 3d bd a5 0a 76 bd 32 58 0f bd
       0.110943936 -0.04637271 -0.060068745 -0.03499622
000300 e5 63 89 be d2 3d 25 3d 45 fa 1a bd 2f 83 4b bd
       -0.26834026 0.04034216 -0.037836332 -0.049685653
000310 0f 40 22 3d 51 73 81 bd cc 32 c6 3d 0f 01 fc 3c
       0.039611872 -0.06320823 0.096776575 0.030762224
000320 33 9f dd bc ac 96 4c 3c 17 df ad 3c e9 2c 03 bd
       -0.027053451 0.012487095 0.021224542 -0.03202525
000330 fc ab 9c bd 7e 7e 3f bb 8a 86 13 3d 23 89 1f 3c
       -0.07649991 -0.0029219682 0.03601698 0.009737286
000340 90 89 bc bc 3d 10 90 3d 94 3c c3 bc 79 89 3c bc
       -0.023014814 0.07034347 -0.023832597 -0.011507385
000350 d3 da 3c 3d 1f a1 79 bd 32 74 1a 3d e1 e3 a8 bc
       0.046107125 -0.060944673 0.03770847 -0.020616474
000360 f6 ec 5b 3d dd 10 0c bd ff 27 e9 3b ab e7 71 3c
       0.05369278 -0.03419577 0.0071153636 0.014764707
000370 1c 33 9f bd f8 36 9f bd 9a c2 4b 3d b3 cd af bc
       -0.0777342 -0.07774156 0.049746133 -0.02146039
000380 4c 40 8c 3d 42 fb d4 bd aa 92 39 bd d6 0e a4 bd
       0.06848201 -0.10399486 -0.045305885 -0.08010642
000390 3e 64 23 3d d6 12 53 bd 3a be fb bd aa 9b 63 bd
       0.03989052 -0.051531635 -0.12292142 -0.055568375
0003a0 75 7a 2f be 43 48 fe 3c 11 8d 69 3e 29 a8 56 3d
       -0.17136557 0.031040316 0.22807719 0.052406464
0003b0 38 30 55 be ce 62 49 3d 66 db ae 3d b9 bf ee 3d
       -0.20819175 0.049166493 0.08537941 0.11657662
0003c0 21 68 19 bf 83 fb 49 3d ba bb ec be e2 ee 0b 3e
       -0.59924513 0.049312126 -0.46236974 0.13665345
0003d0 66 f3 80 3e 2a fb 2e 3e 75 ca 8c bd b4 b1 78 bc
       0.25185698 0.17087999 -0.06874553 -0.0151790865
0003e0 cf f8 61 3b 62 04 61 3d e9 18 2e 3d 52 be dc bd
       0.0034480577 0.05493582 0.042504225 -0.10778488
0003f0 71 37 c1 3d 16 11 92 3c 04 71 6f bd 1e 84 b4 3c
       0.09434403 0.017830413 -0.05845739 0.022035655

model.0.bias f4 [256]
000000 0b 71 41 bd ac 66 83 3c 34 9e 18 bd 5a 5b 85 bc
       -0.047226947 0.016040169 -0.03726025 -0.016278911
000010 04 d9 8a bd c0 e7 31 bd 2b e0 99 3d fd 96 b7 bd
       -0.06779674 -0.043433905 0.0751346 -0.089643456
000020 ae fe 06 3d 1a 5a da 3a 6f cc 3b 3d bc a5 b3 3c
       0.032957725 0.0016658932 0.04584926 0.021929614
000030 7b 5c 09 3d 02 3c 62 3c 12 1b db 3d 56 b3 63 3d
       0.033535462 0.013808252 0.106985226 0.05559095
000040 d4 7c 58 3d 79 b3 15 3d 8a 50 5e 3d a0 15 d1 3d
       0.05285342 0.03654811 0.054276027 0.10209203
000050 2a 5f ed 3c e2 12 b6 3b 5c d9 0b bd 81 b7 a5 3b
       0.028976042 0.00555645 -0.034142837 0.0050572758
000060 0d 81 47 3d 13 cf e9 bd 6f a0 c4 bd 1b 3a c5 3d
       0.048707057 -0.114164494 -0.09600913 0.09630223
000070 5e a6 a2 3d c1 96 c2 3d 8a 68 c3 bd 66 a3 b6 3d
       0.07941888 0.0950141 -0.095414236 0.089178845
000080 87 f1 90 bd 9d 3c 91 bc 82 d3 94 bd 81 1b c6 3c
       -0.07077318 -0.017729098 -0.072669044 0.024183037
000090 17 ad 89 bd 05 06 9c 3c e4 54 b1 3d 3a cf 01 3c
       -0.067224674 0.01904584 0.0865877 0.007922942
0000a0 6a db 20 3d 4b 6e 41 3c 00 ad e4 3c 71 07 21 bd
       0.03927175 0.011806081 0.027914524 -0.039313737
0000b0 43 75 a3 3d 0e 09 73 3d 78 fe cc 3c 6e d1 16 bd
       0.0798135 0.059334807 0.025023684 -0.03682082
0000c0 b2 07 ba 3c 91 7e 07 3c 90 3a 83 3d 48 2c 1c bc
       0.022708748 0.008269922 0.06407654 -0.009532042
0000d0 55 e8 63 bd f8 e8 b2 bd ad c4 6a bc 15 2f 41 bd
       -0.05564149 -0.087358415 -0.014329118 -0.04716404
0000e0 71 4d c3 bd d1 04 a8 bd d1 8e 6d 3c 27 c3 d7 ba
       -0.09536255 -0.08204044 0.014499382 -0.0016461358
0000f0 46 75 ee bc 94 82 ef bd 9f 99 ac 3b 00 c0 97 3d
       -0.029108655 -0.11694828 0.0052673365 0.07409668
000100 8f d1 51 bd ed 53 b5 3d e4 81 13 bd 7d 80 80 3d
       -0.05122524 0.08853898 -0.036012545 0.06274507
000110 34 21 a1 bc 62 3d e0 bd f6 f5 87 bd 81 f9 2f 3c
       -0.019669153 -0.10949208 -0.0663871 0.010740639
000120 e8 f7 5d 3d dc 3d fc bd 4a 98 98 3d 0f 78 9c 3c
       0.0541915 -0.12316486 0.07450922 0.019100217
000130 67 58 f7 3c de 36 f6 3b 22 55 7d bd 0e 92 b9 3d
       0.03019352 0.007513865 -0.061848767 0.09061061
000140 84 e3 2a bc 5e 7e fb bd f9 60 bd bb d1 89 8e bd
       -0.0104302205 -0.12279962 -0.0057793823 -0.0695988
000150 2b 03 7f bd 87 4a ab bd f1 d9 69 3c ad e0 cd bd
       -0.06225888 -0.08363824 0.014273153 -0.10052619
000160 06 7a 55 bd c8 69 b2 bc a6 93 95 bd a7 bb bf bd
       -0.052118324 -0.021778956 -0.07303552 -0.09361964
000170 b7 20 8c bd 20 cf 44 bd 2a 47 d2 bd 01 40 c4 bd
       -0.06842177 -0.048049092 -0.1026748 -0.0958252
000180 16 89 af bd fd 8c 87 3d 5e 9d aa bd 11 bb ab 3c
       -0.08571069 0.06618688 -0.08330797 0.020963224
000190 7b 77 43 bc 32 89 a1 bd 83 2a 8c bc d6 2c 7d 3a
       -0.011930342 -0.07887496 -0.017110115 0.0009657865
0001a0 48 15 cd 3d 89 87 f1 bc 2a 11 b5 3d 43 66 3b 3d
       0.10013825 -0.029483574 0.088411644 0.04575182
0001b0 f4 bf 87 3d 64 b9 c0 3c 6a 9a 62 bd ce cb 34 bb
       0.06628409 0.023525901 -0.055323042 -0.0027587297
0001c0 cf f0 04 bd 88 fd 37 3d 3a 72 73 3d 1c 6d 58 3d
       -0.032456215 0.04491952 0.059435107 0.05283843
0001d0 75 9d 88 bd 2e 6b 89 3b 2f e1 77 3d b1 c4 c7 3c
       -0.066706575 0.004193685 0.060517486 0.024385782
0001e0 66 0f e8 bc c5 19 91 3d 1f 21 bd bd 8c 99 b7 bd
       -0.028327655 0.07084993 -0.09234833 -0.089648336
0001f0 d4 70 a4 bd 77 82 28 3c bd 6a ad bc c4 b0 59 3d
       -0.08029333 0.0102850115 -0.02116906 0.053147092
000200 30 55 25 3b ab d6 55 3c 03 cc 24 3c 1c cc 5c 3d
       0.0025227778 0.013051669 0.010058406 0.05390559
000210 96 0e 48 3d 4a 99 6d 3d f2 3e 14 3b 81 46 7a 3d
       0.048842035 0.058007516 0.0022620526 0.061102394
000220 8d 53 af 3d 35 77 34 3c 5f 5c 40 3c 02 99 50 bd
       0.08560858 0.011014749 0.011740773 -0.05092717
000230 44 d0 f5 3d 6e 6b 5a 3c a5 80 d4 bd 5a e7 42 bd
       0.12002614 0.013331277 -0.103760995 -0.047583915
000240 de 17 22 bd f9 75 74 bc 1e 14 87 bd 6d f8 36 bd
       -0.039573543 -0.014920705 -0.06595634 -0.04467051
000250 b9 1f c6 bd 9c 09 71 bc a0 02 d5 bd 39 cf 92 3b
       -0.09674019 -0.014711764 -0.10400891 0.0044802693
000260 44 ba 5f 3b 42 58 a3 bd 4d 81 f6 3c f8 0c 60 3d
       0.0034138123 -0.07975818 0.030090952 0.054699868
000270 5e e4 12 bd 98 36 af bd af bc d2 3d 33 b2 4f bd
       -0.03586232 -0.08555335 0.10289895 -0.050707053
000280 23 f9 c2 3c 21 07 a6 bd 46 28 a5 bd 34 46 0f bc
       0.023800438 -0.081068285 -0.08064322 -0.008744765
000290 d9 e7 10 bd ab 88 56 bd 54 bb c3 bd a8 f5 34 3d
       -0.035377357 -0.05237643 -0.095572144 0.04417959
0002a0 f9 15 ee bd 1c 85 38 bd 0c 62 ac bd 61 2d c4 bd
       -0.11625285 -0.045048818 -0.084171385 -0.09578968
0002b0 d0 38 14 3d 20 c1 6d bd a3 3f 3f 3d 7b 49 b3 bd
       0.036186993 -0.058045506 0.046691548 -0.0875425
0002c0 d3 cf 89 bd 2e c9 20 3d fa 48 6f 3c 93 33 ab 3d
       -0.067290924 0.03925436 0.014604801 0.083594464
0002d0 67 09 55 3d fb 54 9c bd 09 aa 98 bc 17 0d cf 3c
       0.05201092 -0.07633396 -0.018635767 0.025274796
0002e0 bd 2d 1d bc 93 e8 af 3d ad 6f 81 3d 63 eb 56 3d
       -0.009593424 0.08589282 0.063201286 0.052470576
0002f0 d3 42 bc bd 9a c5 4c bd bf f7 e5 bd 01 4e 63 bd
       -0.09192433 -0.049993135 -0.112288944 -0.055494312
000300 26 4b 02 3d 85 47 4f bd 94 59 f4 3d 7a a4 01 bb
       0.03180995 -0.050605316 0.11931148 -0.0019781874
000310 1a 6d e6 ba 75 d5 1c bd 9b a3 9c bd 8b 7d 90 3c
       -0.0017580122 -0.038289506 -0.07648393 0.017637989
000320 f8 c4 bc 3d 72 fa a9 3d 61 57 af 3c 82 f3 ff 3c
       0.09217256 0.08299722 0.02140397 0.031244043
000330 a7 77 3d bd bf ce 94 3b a0 17 a9 3d 6d 04 31 bd
       -0.046256687 0.0045412476 0.08256459 -0.04321711
000340 40 4d 5b 3d e1 57 8d 3d dd fe de 3c cf f8 d2 bd
       0.05354047 0.06901527 0.027221138 -0.10301363
000350 a6 19 6d 3d bc 16 d6 bd 49 12 1e 3d e4 74 60 3d
       0.05788579 -0.10453555 0.038591657 0.054798976
000360 27 79 a5 bd 77 2e b2 bd 04 78 a8 bd fc c0 ad 3d
       -0.080797486 -0.08700269 -0.08226016 0.084840745
000370 4e 8b 80 bd 38 33 87 bd 3c 1a 15 bc 82 22 a1 3c
       -0.0627657 -0.06601566 -0.009100493 0.019669775
000380 22 ed 2e bd 60 c6 a4 bd 9e 66 b6 bd c6 93 dc 3c
       -0.042706616 -0.080456495 -0.089062914 0.026925933
000390 71 02 4b bd f8 12 d0 bd d5 a3 9e bd 77 00 35 bc
       -0.049562875 -0.10159868 -0.07746092 -0.011047474
0003a0 70 d2 4a bd 54 81 5f bb 15 0e 07 3c 31 d5 bb 3d
       -0.049517095 -0.0034104185 0.0082431035 0.091715224
0003b0 4b 37 c0 3d 1c a5 f4 3c f8 38 7d bd 54 db 96 3c
       0.09385546 0.029863887 -0.061821908 0.01841513
0003c0 6b c2 80 bd 71 20 85 3d 2f 88 88 3c 21 77 a6 bc
       -0.06287082 0.06500328 0.0166665 -0.020320477
0003d0 bb 59 bf 3d df cc 5d bc 0a 49 4f bd 5e 97 22 3c
       0.093432866 -0.013537615 -0.050606765 0.009923784
0003e0 26 12 da 3d 8b e3 ad bd 99 5a 37 bd 28 15 3b bd
       0.10647993 -0.08490666 -0.044764135 -0.045674473
0003f0 be ec 5b 3d 17 71 d1 3d 2b 9b a4 3d 67 ac a3 3d
       0.05369257 0.10226648 0.080374084 0.079918675

model.2.weight f4 [256, 256]
000000 29 b6 dd bd af 90 54 3d ee 73 14 bc dd ce 5d bd
       -0.1082576 0.051895794 -0.009060843 -0.05415236
000010 ff a7 1e be 43 f8 55 3d 9a 81 ad 3a 40 ed 04 bd
       -0.15493773 0.052238714 0.0013237477 -0.03245282
000020 a8 e2 90 3d f4 a1 78 3d e2 41 0c bd d1 c5 44 bd
       0.07074481 0.060701326 -0.03424252 -0.048040215
000030 a8 13 25 bd 29 d2 09 be 82 f3 81 bb 19 37 1d bc
       -0.04030195 -0.13459076 -0.003965796 -0.009595656
000040 85 71 18 3d d4 e3 8e 3c bc 55 87 3d 6b 4d 37 bd
       0.037217636 0.017442621 0.066081494 -0.044751566
000050 8d 08 e9 bc 59 21 e4 bd da 58 1c bd eb 21 12 be
       -0.02844646 -0.11139173 -0.038170673 -0.14270751
000060 6b bc f9 bc 39 c2 9b 3c cb b1 01 3d 20 67 d2 b8
       -0.030485353 0.019013511 0.031663697 -0.00010032789
000070 5b 55 18 3c fa 74 b8 3d 91 cf 19 3d 39 27 d8 3d
       0.009297694 0.090066865 0.037551466 0.10554356
000080 d9 71 dd 39 c2 d9 01 bd c7 44 c1 bd a2 ac f8 3d
       0.00042237228 -0.03170181 -0.09436946 0.12142302
000090 43 11 98 3d 66 85 99 bd 49 70 0a 3d 64 0f a4 bb
       0.074251674 -0.07496147 0.03379849 -0.0050067175
0000a0 b9 b7 3c bd 89 e1 16 bd f1 db 77 3d d5 f9 75 bc
       -0.04607365 -0.03683618 0.060512487 -0.015013178
0000b0 7a c7 3e bc fa 4e b6 bd 5d f6 c4 3b a5 bd 9d bd
       -0.011644239 -0.08901782 0.006010814 -0.077021874
0000c0 83 57 a2 3c 4a c9 4c bd 12 5d 1f 3d 6b e2 a0 bc
       0.01981712 -0.04999665 0.03890712 -0.019639215
0000d0 f5 93 13 3c 2b b3 66 bd 49 ec 58 3b c6 53 7c 3d
       0.009007444 -0.05632321 0.0033099821 0.06160333
0000e0 a6 65 a4 bc 7b 6a e1 3c f1 18 2d bd 3a b9 af 3d
       -0.020068001 0.027516594 -0.042260114 0.08580251
0000f0 c2 82 50 bd 1a 4a 6f 3d 06 97 9c 3c 51 5b 4f 3d
       -0.05090595 0.058420278 0.019114982 0.050624195
000100 14 50 27 be 95 52 2f 3d 16 25 0f 3e a7 25 36 3b
       -0.16339141 0.042803366 0.13978991 0.0027793439
000110 86 a0 2a 3d a3 5b c9 3c d4 1a 0a be 1a 37 29 bd
       0.041656993 0.024579829 -0.13486797 -0.041312315
000120 60 40 4e bc e1 87 ca 3c 65 5b e9 bd df 64 bc 3c
       -0.01258859 0.024722995 -0.11394385 0.022997318
000130 20 60 0c 3d 11 0c 31 be f5 df e1 3d 32 ea 2c bd
       0.03427136 -0.17289759 0.110290445 -0.042215534
000140 0a 65 57 3d 3c 3d 59 bd d7 2b 2f 3c 52 ca 09 bd
       0.052586593 -0.053036913 0.010691605 -0.033640213
000150 77 b2 50 3d 25 78 2b 3d c7 4b ef bc 83 5b 11 3c
       0.050951447 0.041862626 -0.029210938 0.008871916
000160 70 73 18 3b 1e 52 9f 3d 7b 88 3c 3d 8e 81 41 3d
       0.0023262165 0.077793345 0.046028595 0.047242694
000170 ac 30 f7 bd 78 e3 00 bd d0 df 97 3d 79 57 de 3d
       -0.1206983 -0.03146693 0.07415736 0.10856528
000180 0a e3 83 3d 65 2d 54 be 6d 58 5a bc 33 4d f6 bc
       0.06439789 -0.20720442 -0.013326746 -0.030066108
000190 e4 17 99 3c f6 49 eb bd 04 86 cf bd 5c 46 1d 3b
       0.01868815 -0.11488716 -0.10132983 0.0023998236
0001a0 08 6c b0 bc 72 2d ea bd 40 85 aa bc 9d 7d 9f bc
       -0.021535888 -0.11434449 -0.020815492 -0.019469077
0001b0 39 23 33 3e 97 03 35 3d e7 3b c2 3d 7a 86 96 bd
       0.17493905 0.044192877 0.09484082 -0.07349868
0001c0 23 b5 0f 3c 35 20 8a 3d dc 02 3b bd 84 dc d5 bc
       0.008771214 0.06744424 -0.045657024 -0.026106127
0001d0 4e e5 5b 3d 12 41 43 3e 25 5a 21 3e d4 b8 d6 3c
       0.05368548 0.19067791 0.15757044 0.02621118
0001e0 76 00 bb bc 9a e2 38 bd 28 3b 97 3d a2 2a ff bc
       -0.022827368 -0.04513798 0.0738433 -0.031148259
0001f0 21 64 f2 bc ca c4 bb 3d 26 83 9a bd b0 19 ea 3c
       -0.02958876 0.09168394 -0.07544546 0.028576702
000200 14 85 fe 3c dc 10 6e 3d 6b 15 36 bd 3f ce 52 3d
       0.031069316 0.058121547 -0.04445402 0.051466223
000210 2a ec be 3c 4e 26 e8 3d 86 67 04 3e 00 92 89 3c
       0.023305971 0.11335431 0.12930116 0.016793251
000220 f6 61 be bd b4 c1 40 bd f5 fa b7 bd 70 1d 14 bd
       -0.09296028 -0.04705973 -0.08983413 -0.036160886
000230 5b b3 cc bd e3 c8 94 bd 16 23 9b 3d 70 bf b4 bc
       -0.09995147 -0.072648786 0.075750515 -0.02206394
000240 d8 04 35 3b 09 a9 e5 bc 4a 61 ae 3d 98 35 ea bc
       0.0027621295 -0.028034704 0.0851465 -0.028590009
000250 20 a4 a0 3c 53 91 69 bd 0e e3 31 3d a2 a3 88 bd
       0.01960951 -0.057023358 0.043429427 -0.066718355
000260 5c 4a 31 bc 0d 90 2d bd ec dd 13 bd e9 75 b0 3d
       -0.010820951 -0.042373706 -0.036100313 0.086162396
000270 c5 92 bf ba 7b de bc 3d 82 45 9e 3d dc aa 47 bd
       -0.0014615884 0.09222122 0.07728101 -0.04874693
000280 69 b3 8f bd 86 0d 59 be ee 8c b0 3c 0c a4 69 3d
       -0.07016642 -0.21196565 0.021551576 0.057041213
000290 1a 9f 2e be 52 b6 63 bd 0c 16 80 be ce b4 49 bd
       -0.1705288 -0.055593796 -0.2501682 -0.049244694
0002a0 0f f9 36 3c 13 92 54 be 61 fb 4b bd 04 a3 86 3d
       0.011167779 -0.20758848 -0.04980028 0.065740615
0002b0 03 2a c5 3d be 59 52 3d 40 69 e3 3d 64 4f 4c bd
       0.09627154 0.051355116 0.11104059 -0.0498804
0002c0 8b 03 92 3d 9f 2c 52 bc 19 50 0b bc 55 40 5d 3d
       0.07129582 -0.012828021 -0.0085029835 0.05401643
0002d0 1f ae 1a bd d8 04 cf bd ca b4 d1 bd 32 b8 2c be
       -0.03776371 -0.10108346 -0.10239561 -0.1686714
0002e0 20 88 88 3c 1a e7 23 be e7 ca 6e 3d c9 54 df bc
       0.016666472 -0.16006127 0.05829897 -0.027262108
0002f0 79 a5 40 3e 1d d2 53 3d f0 a7 18 3d 43 45 3a be
       0.18813123 0.05171405 0.037269533 -0.18190484
000300 a7 73 0a be 2b 74 00 be 4e a8 83 be 38 9e 19 be
       -0.1352068 -0.12544315 -0.25714344 -0.15001762
000310 21 e9 fb bd cd 05 35 b9 de e2 74 bd dc 80 fb 3d
       -0.12300325 -0.00017263666 -0.05978667 0.12280437
000320 91 f7 dd 3b b8 90 a5 3d e3 f8 f8 bc 23 7a c0 3c
       0.006773897 0.080842435 -0.030392116 0.02349574
000330 8e 6d 7c 3d 75 3c f2 3c e6 9f b9 3d d6 09 cb bb
       0.061627917 0.029569844 0.09063701 -0.006196241
000340 5a 83 88 3d e9 86 8c bc 96 03 57 bd f8 e7 17 3d
       0.06665678 -0.017154174 -0.052493654 0.037086457
000350 0d c6 de 3d 39 12 7f bc ff 98 20 be de aa 9b 3a
       0.10877619 -0.015568309 -0.15683363 0.0011876484
000360 d1 0b 4b be be 9c b7 bd cf 34 54 bc 8c 01 1c 3d
       -0.19828726 -0.08965443 -0.012952044 0.038087413
000370 8c e2 72 3d 25 12 1c bc 7e 53 8d 3d 5a 49 f7 bd
       0.059298083 -0.00952581 0.069006905 -0.120745376
000380 28 2b a5 bc 14 3e 22 3c 54 c3 6f 3c 26 f5 9a bc
       -0.02016218 0.009902496 0.014633972 -0.018915724
000390 c7 b5 c5 bd 01 1f bc bc dd fd 51 3d 70 de a6 3d
       -0.09653812 -0.022964003 0.051267494 0.08147895
0003a0 48 9e bd be bf 8a ba 3c bf c9 73 bd 77 63 66 3d
       -0.37034822 0.022771237 -0.059518572 0.0562472
0003b0 bd c0 cd 3c 9b ff db bb 67 b6 21 be c5 d9 39 3c
       0.025116319 -0.00671382 -0.15792237 0.011343424
0003c0 39 5d 3e 3c 2c 62 75 3d 8b 64 4c bd 1e 9c bc 3d
       0.011618906 0.059908077 -0.049900573 0.092094645
0003d0 95 b7 ee 3b b5 6f 80 3d 5a 89 d5 bd 2a 6e 2d be
       0.0072850683 0.062713064 -0.10426588 -0.16936556
0003e0 b6 31 ba 3d 0e 82 8e 3c 6a 29 ac 3c 51 8a 92 ba
       0.09091513 0.017396 0.021015842 -0.0011180138
0003f0 8a c8 b8 bd 80 35 4b 3a 04 80 08 3d 61 6d 67 bd
       -0.09022625 0.00077518076 0.03332521 -0.056500796

model.2.bias f4 [256]
000000 48 91 12 3d be 4d 22 3d b5 fc b2 bd 70 69 bf bc
       0.035783082 0.039624922 -0.08739606 -0.023365706
000010 2a 02 74 bd be 27 f4 3c 95 84 64 3d c0 0d 4f bd
       -0.059572376 0.029804107 0.055790503 -0.050550222
000020 f6 4c 6b 3d 25 34 2e bd a6 27 a4 3c c4 58 39 bd
       0.057446443 -0.042530198 0.020038437 -0.04525067
000030 e5 c2 03 3d 56 0c e8 bc 83 06 62 3d 6b 52 c3 3c
       0.032168288 -0.028326195 0.05518199 0.02384301
000040 81 38 30 bd ac 95 10 bd c1 ee be 3c f6 d8 be ba
       -0.043022636 -0.03529899 0.023307206 -0.0014560509
000050 d5 aa 9f 3c bb 6b 63 bd 12 14 09 3d d1 fc 9e 3b
       0.019490639 -0.05552266 0.033466406 0.0048519154
000060 1c 08 8b 3c a3 5c 2d bd 64 c0 2e 3d 6d 24 30 3d
       0.01697164 -0.042324673 0.042663947 0.04300349
000070 97 56 ea ba c2 f1 0b bd 7f 52 31 bc 6f fd 7c ba
       -0.0017878589 -0.034166105 -0.010822891 -0.00096508017
000080 95 3a a3 3c 99 ea 36 bd d2 8b f1 bc 70 57 36 3d
       0.019925395 -0.044657324 -0.029485617 0.04451698
000090 d4 fe fc b9 cb ff 85 3c cf 5d 1b bd ac 7b 35 3d
       -0.00048255047 0.016357323 -0.03793126 0.044307396
0000a0 3c 1a 85 bd dd 0d bf 3c b2 44 a1 3b a5 d9 81 bb
       -0.064991444 0.02332204 0.004921519 -0.003962713
0000b0 c7 78 ff bc 1a 6e 77 3d 49 bb b7 bc 5a 4c a6 3c
       -0.03118552 0.060407735 -0.022428172 0.02030008
0000c0 f2 19 cf bc 6d 21 8b 3d db 80 e5 3c c9 a0 57 3d
       -0.025280926 0.06793485 0.028015545 0.05264357
0000d0 ac 73 1a bd 41 5b 22 3d c0 5a 85 3d 4b 49 cf bc
       -0.03770797 0.039637808 0.0651145 -0.025303503
0000e0 02 9c 03 3d ca b8 01 bb 45 28 0e 3d 3a c1 d5 b8
       0.032131203 -0.001979398 0.034706373 -0.00010192623
0000f0 5b 74 27 3d 6d 4c e3 3a ab 70 04 bd ae 52 ab bb
       0.04088245 0.0017341502 -0.03233401 -0.005228362
000100 61 8f 9c 3c f3 7c b4 3c 91 5c 0a bc b6 7c 0c 3d
       0.019111337 0.022032237 -0.008444921 0.03429862
000110 d7 19 55 3a ad 9d 7e 3d e0 a0 5c 3d d6 22 aa 3b
       0.00081291556 0.06216209 0.05386436 0.005192141
000120 ea 01 1f bd f1 0d 7e bd 2e 5b de 3c 8b d3 9d bc
       -0.038820185 -0.062025014 0.027143087 -0.01926591
000130 61 ac 3c bb 13 03 4f 3d df bb 13 3b 73 ca 25 bd
       -0.002878927 0.05054004 0.00225424 -0.040476274
000140 90 95 89 bd 0a 51 89 bd ca 20 43 3d 32 7f c0 3c
       -0.0671798 -0.0670491 0.047638692 0.023498151
000150 2d 63 d0 bc 4c 6f 97 bc b0 3d 66 bd c0 c4 bb bc
       -0.025437916 -0.018485688 -0.056211174 -0.022920966
000160 41 51 49 3d cc 9e 11 3d b4 f9 05 bc a0 3a 37 bd
       0.049149755 0.03555183 -0.00817721 -0.044733644
000170 dc 32 01 3c a6 98 11 bd be 87 a4 3c 57 50 84 3c
       0.007885661 -0.035545968 0.020084258 0.01615159
000180 53 f4 17 3d 2a 4e 1d 3d 5c 51 6f 3c 5f 68 f4 3a
       0.03709824 0.03840462 0.0146068 0.0018646828
000190 e1 5e 00 bd 72 53 c8 3c 19 dc 12 bd 1e da a4 bd
       -0.031340484 0.024453852 -0.035854433 -0.08049415
0001a0 28 c7 d9 3c 64 96 7a bd b0 46 e4 bc 27 eb 26 bd
       0.026584223 -0.06117858 -0.027865738 -0.040751603
0001b0 20 0c 25 bc 06 fe 06 3c 44 d8 47 3c 8e 09 3e bd
       -0.010073692 0.008239275 0.012197558 -0.04639583
0001c0 91 fa 11 3d 3e 20 bd 39 f4 4c 70 3d 6a 6e 84 3c
       0.03563935 0.00036072911 0.05866714 0.01616593
0001d0 7e 66 50 bc d7 b6 0a bd b9 f6 73 bc ca a5 1d bd
       -0.012719749 -0.033865776 -0.014890366 -0.038488187
0001e0 f0 e4 3b 3d f5 19 5c bd 9a 5f 5a 3d a2 37 30 3d
       0.04587263 -0.053735692 0.05331383 0.043021806
0001f0 63 3a f0 b9 0d c8 26 3a a4 ad 7d 3c 37 64 d6 3c
       -0.0004581987 0.00063622074 0.015483294 0.026170833
000200 8d f9 68 bc 8e 67 63 bd 35 60 a6 bb 48 d0 54 3b
       -0.014219654 -0.05551868 -0.0050773867 0.0032472778
000210 65 ce 22 3d c7 65 58 bd 28 87 6f bc 7d e0 be bc
       0.039747614 -0.052831437 -0.014619626 -0.023300404
000220 96 8c 64 3d c9 68 d1 bc f8 6c ba bc b1 4c 24 3d
       0.055798136 -0.02556266 -0.022757038 0.0401122
000230 8e 77 60 3b 0f 47 80 3d 61 54 ed bc 26 ea 14 bd
       0.0034250948 0.06263553 -0.028970899 -0.036356114
000240 d5 3d 38 3b 9d 79 07 3b 25 cb 16 3d 45 22 bf bc
       0.0028113027 0.0020671852 0.036814827 -0.02333177
000250 9c e0 77 bd 98 90 bb bc c9 03 7e bc e7 b3 74 bd
       -0.06051694 -0.022896096 -0.015503832 -0.05974188
000260 64 2a a8 bd 42 d2 18 bc 7a 5b 14 bd 2b 31 7e 3d
       -0.0821121 -0.009327473 -0.03622005 0.06205861
000270 78 77 07 3d c9 86 39 3d d8 0b f3 bc 81 07 8e bd
       0.03307292 0.045294557 -0.029668733 -0.06935025
000280 0e be 5a bd a5 3d d1 bc c5 0f 02 3d 7b b5 17 3c
       -0.053403907 -0.02554209 0.03175332 0.009259577
000290 64 ad 11 bd 11 59 36 bb e5 17 55 bc 9d cb 69 3d
       -0.03556575 -0.0027824084 -0.013006185 0.057078946
0002a0 d5 47 2a 3d 86 c4 51 bc 95 13 30 bd f0 c3 31 3d
       0.04157241 -0.0128032025 -0.042987425 0.04339975
0002b0 87 2b 05 3d d9 2c 5e bd 29 ea 09 3d 7c 68 72 bc
       0.032512214 -0.05424199 0.03367058 -0.014795419
0002c0 6c 03 3d bd a5 c1 26 3d 44 8c 15 3d a0 ab c0 3b
       -0.04614584 0.040712018 0.03651072 0.0058798343
0002d0 23 bd 82 bc ba 52 b5 3c 6b 40 28 bd d4 74 6d 3d
       -0.015959328 0.022134174 -0.04107706 0.057972744
0002e0 b6 28 f0 bc 69 4a d7 bc c1 6d b6 3c 53 78 8b bd
       -0.029316287 -0.026280599 0.022269132 -0.068100594
0002f0 5a 2f 04 3d 5e 70 3b 3c 85 a3 01 bd 8a d9 a3 3c
       0.03227172 0.011440365 -0.031650085 0.020001192
000300 84 a7 fb bc 17 b1 6c 3a ba a5 ab bd 8e 57 31 bd
       -0.030719526 0.0009029074 -0.08381219 -0.04329639
000310 6e 6b 81 3c d6 1e 83 3b b3 16 49 3d 4f 43 8f bc
       0.015798297 0.0040014787 0.049093913 -0.01748815
000320 3d bc 85 3d e8 06 2f 3d eb 52 47 3d ad ab e3 bc
       0.06530044 0.042731196 0.04866306 -0.027791822
000330 87 26 3d 3d ad 5d b9 3c 62 4b 80 bc 23 70 99 bb
       0.04617932 0.022627676 -0.015660945 -0.004682557
000340 4c b1 73 bd ea 73 0f bd 09 ae 98 ba 02 15 5a bd
       -0.059495255 -0.035022654 -0.0011648546 -0.05324269
000350 06 5e 6b bd 91 83 0f bd 07 d6 32 3d f5 b9 15 3b
       -0.057462715 -0.03503758 0.043661144 0.0022846435
000360 10 b2 06 3d 80 60 2d bc 8b 1c d0 bc 28 4c 25 bc
       0.032884657 -0.010582089 -0.025404235 -0.010088958
000370 fd b8 56 bd b3 9a b6 3c 2b 6f 04 3d 6b c6 11 bc
       -0.052422512 0.022290563 0.03233258 -0.008897404
000380 43 8d 0c bd 68 ed a3 bd e3 7b ba 3d 4e 84 87 bd
       -0.034314405 -0.08004266 0.09105661 -0.06617032
000390 b4 b1 ce 3c 5f 71 0a bd 3a 28 7a bd e0 a0 fb 3c
       0.02523122 -0.033799525 -0.06107352 0.03071636
0003a0 2e 43 7b bc dc 7b 3c bb 96 f4 19 3d f0 25 0e 3d
       -0.015335841 -0.002876035 0.03758677 0.03470415
0003b0 8e 9e 63 3c fc e3 91 bd 4c f0 14 bd 8a 68 a7 3b
       0.013892783 -0.07123563 -0.036361977 0.0051088976
0003c0 1b 8f 0b 3d a5 9f b6 3c 97 79 65 bc 94 f1 b2 bc
       0.034072023 0.022292921 -0.01400604 -0.021843709
0003d0 30 25 0a 3d 5f 59 06 3d d4 e6 97 bc 63 69 7d 3d
       0.03372687 0.032800075 -0.018542685 0.061868083
0003e0 b3 24 bc 3d ec 78 48 3d f8 17 1e bc 45 3b 10 3d
       0.09186687 0.048943445 -0.009649269 0.035212774
0003f0 80 09 6c 3a fd a3 11 3d 1e ed 9e 3c 00 dd d2 3b
       0.0009004101 0.035556782 0.019400176 0.0064350367

model.4.weight f4 [256, 256]
000000 fa af 04 3e ff ff 2d 3d 9f f7 dd 3c a0 74 a5 3b
       0.12957755 0.042480465 0.027095614 0.005049303
000010 5a 44 be 3c c7 f7 13 bc 79 34 ab 3c 73 e2 29 bd
       0.023225952 -0.009031243 0.020899044 -0.041475724
000020 86 fd d6 bd 98 ba e4 3c a2 03 86 3d 44 22 98 bd
       -0.104975745 0.027921006 0.06543662 -0.07428411
000030 82 01 11 be 86 a9 d0 bb 07 e1 a4 ba b3 1c 76 bc
       -0.14160731 -0.006367865 -0.001257927 -0.015021491
000040 33 8d 64 bd 43 f6 3d be 37 09 c8 bc cc 72 a0 bc
       -0.05579872 -0.18550973 -0.024418456 -0.01958599
000050 fc ef 76 3c a0 27 8a bd be 00 59 3d d9 5a d3 bd
       0.015071865 -0.06745839 0.052979223 -0.10320062
000060 a4 0e aa bd da 7f e3 3c 4b 46 4f 3d 79 9d 66 bb
       -0.08303574 0.027770925 0.050604146 -0.0035189076
000070 c8 8a f2 3c 1a f9 c5 3d 14 67 df bd 1d 47 36 3c
       0.029607192 0.09666653 -0.109083325 0.011125353
000080 b3 b3 58 bc 51 5b 96 bd 4f 32 9f 3d bb 66 95 3d
       -0.013226437 -0.07341636 0.077732675 0.07294985
000090 a5 d4 a7 3d 56 15 d7 bd 3f 87 11 3d fa e2 b1 3c
       0.081948556 -0.105021164 0.03552937 0.021714676
0000a0 bf 20 3a bd d1 8f d2 bc 2a 1b c8 bc 24 0f 9e bc
       -0.045441385 -0.025703343 -0.024427015 -0.019294329
0000b0 70 ec da 3c 97 3d 88 bd a4 cc 87 3d 70 bd 1c 3b
       0.02672407 -0.06652372 0.06630829 0.0023916624
0000c0 d0 09 39 bd fd df b6 bc 79 4b 65 be 24 8a 0c be
       -0.045175374 -0.022323603 -0.22392072 -0.13724571
0000d0 c7 e0 88 bd 59 5e 3d bd ba 5a 7c bc 23 86 60 be
       -0.06683498 -0.046232555 -0.01540249 -0.21926169
0000e0 7c 50 16 bc 02 b1 2a bd e6 76 af 3d d9 c1 4f bc
       -0.009174462 -0.041672714 0.085676 -0.012680494
0000f0 18 3f c7 3b ef ee 68 bd 04 f2 ea 3c b7 6c a8 be
       0.0060805194 -0.05686849 0.028679855 -0.32895443
000100 2d 8f 08 bd d6 01 c8 3d bb 4f 9b bd 2d c3 1f 3b
       -0.033339668 0.09765975 -0.07583567 0.0024377808
000110 5a 8a 70 3d 71 e0 fc bc 4a 54 a2 3c 1d 3a 1e be
       0.058725692 -0.03086874 0.019815583 -0.15451856
000120 ec 68 a2 3c a2 e0 00 3c f5 4a 5b bd 65 be e2 bd
       0.019825421 0.007866057 -0.05353828 -0.11071471
000130 1a 95 b7 bc ae 8d 71 3c 7c 85 bc bd 12 c2 c4 bd
       -0.022409964 0.014743252 -0.092051476 -0.096073285
000140 b2 0b 2f be 64 14 e7 3d 43 59 b4 3d 70 c3 14 3d
       -0.17094305 0.11283186 0.08806088 0.036319196
000150 23 7f 48 be d6 0e 8d be da 14 4e 3d 46 38 ee bc
       -0.19579749 -0.2755038 0.050312854 -0.029079568
000160 f8 cb 5b be 1e d3 22 be 28 24 a8 3c eb e9 6a 3c
       -0.21464527 -0.15900847 0.020525053 0.014337997
000170 d3 e7 97 bd 28 96 ad 3c 2d 48 58 bd a7 28 5e bd
       -0.07417264 0.021189764 -0.052803207 -0.054237988
000180 2b 58 95 3a c8 bf 85 3c 55 ba 36 bd 42 e6 9b bd
       0.0011394074 0.0163268 -0.044611294 -0.076122776
000190 eb 01 ff 3c 2d 2a ae bd 5b 02 24 3d de 6b fb 3c
       0.031128844 -0.08504138 0.04004131 0.030691084
0001a0 47 0f a7 bd c8 e8 bc 3d fb 8a de bb 2c 14 54 bb
       -0.08157211 0.09224087 -0.00679147 -0.0032360656
0001b0 1f 19 83 be 86 b0 83 bd 51 f1 da bb 79 63 9a bd
       -0.25605103 -0.064301535 -0.006681599 -0.07538504
0001c0 3d 81 41 be 70 a8 a3 3e f6 36 f0 bd 74 b7 81 3c
       -0.18896957 0.31964445 -0.11729233 0.015834548
0001d0 f4 07 7b 3d 18 3f f9 3c f1 4f 16 3e 15 99 14 bc
       0.06128688 0.030425593 0.14678933 -0.009069701
0001e0 d1 6e 9c 3d cd 45 f8 bd cb c4 e7 bc 95 9a 8a bc
       0.07638324 -0.121226884 -0.02829208 -0.016919414
0001f0 99 13 fa 3b 9c 0f c3 be 97 4c d6 3c 2d 66 9a 3c
       0.0076317308 -0.38097847 0.026159568 0.01884755
000200 80 70 b6 3c 22 81 8b 3d 73 ba 4f 39 94 32 4b 3d
       0.022270441 0.068117395 0.00019810516 0.049608782
000210 47 a2 34 3d 21 fc 83 3e 56 62 4d 3d d1 87 74 bb
       0.044100072 0.25778297 0.05014261 -0.0037312398
000220 fb be 8c 3d 53 00 d0 3d a0 95 7b be dc 75 dc bd
       0.06872364 0.10156312 -0.24568796 -0.107646674
000230 de 21 aa 3d 91 51 94 bd cc 0a ce 3d eb 62 69 3c
       0.08307241 -0.0724212 0.10060653 0.014244775
000240 74 3b 60 3b 54 1f b9 bc ae a1 17 3d fa 36 1a be
       0.0034215124 -0.022597946 0.037019424 -0.15060034
000250 38 40 ee bd 5f f9 21 bb 6c 61 82 3d 02 37 f5 3c
       -0.116333425 -0.0024715287 0.06366238 0.029933456
000260 34 4e 0c 3d e7 e6 55 b9 06 77 ea 3c d3 ca 8e bd
       0.034254268 -0.00020399281 0.028621208 -0.069722794
000270 56 56 82 3a 0d d1 18 3d 73 f2 5e be 78 f3 3e 3e
       0.0009943943 0.03730874 -0.21772175 0.18647563
000280 3b 16 bc 3d f4 21 c0 bc 8f 30 6a bd 33 d0 cd bd
       0.091839276 -0.02345369 -0.057175215 -0.100494765
000290 4d 35 95 3d 9c 2a 02 3d fa f8 56 be 9f da ce 3d
       0.07285557 0.031778917 -0.20993415 0.101002924
0002a0 39 fa 0a 3e 7c 1e 98 3c c3 37 3f 3e b4 8c 8e 3b
       0.13572015 0.018569224 0.18673615 0.004350269
0002b0 80 2b f7 bc 97 c7 09 be 35 88 48 bd 46 c8 08 be
       -0.03017211 -0.13455044 -0.048958022 -0.13357648
0002c0 9f e8 83 3c 20 e6 f2 bb 6f 00 27 3d a6 81 3d 3d
       0.016102133 -0.007412687 0.040771898 0.04626622
0002d0 c3 a5 60 bc 0b 54 65 bc a0 9a 0e bd 7f b3 0d 3d
       -0.013711396 -0.013997088 -0.03481543 0.03459501
0002e0 74 af f3 bd 0a dd 97 3d 62 9a 38 bd fe 5c 34 bd
       -0.118986994 0.07415207 -0.045069106 -0.044033997
0002f0 68 55 4d bd 2a 1c 7a bd b8 6c f8 3b 70 d3 d3 bd
       -0.050130278 -0.061062016 0.0075813197 -0.10343063
000300 d3 8c 3e be d2 3f 62 3d cc 7a 2b bd 92 c0 f2 3d
       -0.18608408 0.055236645 -0.041865155 0.11853136
000310 9a ee 84 3d e5 b4 20 be 64 a6 a9 3d 0e 90 96 bd
       0.06490822 -0.15694006 0.082836896 -0.07351695
000320 22 b9 40 bd fe 8a a7 3d ce 7e 2e bd be a6 30 bd
       -0.047051556 0.081808075 -0.0426014 -0.043127768
000330 f7 5f 38 bc ed b4 95 bd 8f a1 ad ba c4 8c 24 3c
       -0.011253349 -0.073098995 -0.0013247001 0.010043327
000340 6f 84 38 bd ec 84 19 be 76 42 56 bd ab 44 5c be
       -0.045048174 -0.14992112 -0.052309476 -0.2151057
000350 48 2e ae bc 3a f0 81 3d e3 38 32 bd cd 82 4d bd
       -0.021262303 0.06344648 -0.043511283 -0.05017357
000360 b1 d9 84 bd 58 ae d5 bc 79 b6 33 bd f8 a3 cd ba
       -0.06486834 -0.02608411 -0.04387519 -0.0015689125
000370 c6 b0 67 bc 9b bb f9 bd 52 04 81 3d 93 11 9b 3d
       -0.014141267 -0.12193986 0.06299652 0.075717114
000380 c3 54 8c be dc 29 1e be ac b6 ae 3d 52 7e 52 3d
       -0.27408418 -0.15445656 0.08530936 0.05139
000390 49 bd 3e bd 98 e7 e7 bd a2 bb be 3c 2c 73 69 be
       -0.046567235 -0.1132347 0.02328283 -0.22797841
0003a0 2a 22 c2 bd ab b4 ce 3b 1d 1b bd 3c 9f 61 6e bd
       -0.094791725 0.0063081584 0.023084218 -0.058198567
0003b0 b3 ec df bd 1a 63 14 3e 45 78 c0 bd 34 6f cb bc
       -0.10933819 0.14490929 -0.093979396 -0.0248333
0003c0 4a a2 25 3d 06 e3 87 bd 79 17 49 3e de 35 fe bc
       0.040437974 -0.06635098 0.1963786 -0.031031545
0003d0 6d d9 c6 3c 45 fb 6d bc 4e 4d f9 bd e1 8e 47 bd
       0.024273599 -0.014525239 -0.12172948 -0.048720244
0003e0 09 39 e0 3c df d9 ea 3d f6 34 6d 3d 5f 24 70 bb
       0.027370946 0.11467337 0.057911836 -0.0036642773
0003f0 52 1d cf bd 0d 46 64 3c c0 e5 f8 bc 3f 71 25 3d
       -0.10113014 0.013932717 -0.03038299 0.040391203

model.4.bias f4 [256]
000000 ac a6 84 3d 4c 31 62 bd 2d e3 ee 3c 70 91 86 3b
       0.06477103 -0.055222794 0.02916106 0.004106693
000010 84 96 a7 3a 72 ce 24 3d b2 31 50 bd 18 ca 86 3d
       0.0012785946 0.040235944 -0.050828643 0.06581515
000020 37 c3 64 3d 79 d5 82 3d f9 e6 85 bc f3 8c 40 3d
       0.055850234 0.06388373 -0.016345488 0.04700942
000030 50 a6 e9 bb a4 c9 02 bd 61 94 90 3c 10 a6 5f 3d
       -0.0071304217 -0.03193058 0.017648878 0.05460173
000040 eb 07 8a bd 93 3b 4c 3d d6 32 20 3d 83 5c ed bb
       -0.067397915 0.049861502 0.03911098 -0.0072436943
000050 81 90 b1 bc 99 0b 6f 3d 3c ce c5 bc 4d 35 24 3d
       -0.02167535 0.05836067 -0.024146192 0.040089894
000060 08 9a f8 3c 38 fb 73 3c bd 29 a0 3d 5d 36 51 3d
       0.030346885 0.014891438 0.07820461 0.051077235
000070 2d bf 8b 3c 93 93 a6 3d 33 ec c9 3c 31 20 fc bc
       0.017058933 0.08133616 0.024648761 -0.030777069
000080 4e f8 1c 3d 30 cf 06 3d 22 c8 83 3a cf 24 90 bc
       0.03832274 0.032912433 0.0010054151 -0.017595677
000090 ce 95 99 3d 17 96 60 bd a6 b1 cf bc 1f 98 51 3d
       0.07499276 -0.054830637 -0.025353264 0.051170465
0000a0 ce 6b 92 bc b8 e2 78 3d 00 86 1d 3d a6 74 fa 3a
       -0.01787367 0.06076309 0.03845787 0.001910825
0000b0 cb c2 bb ba 21 67 f0 bb 19 09 d4 bc 57 a4 32 bd
       -0.0014325021 -0.0073365127 -0.025883244 -0.043613758
0000c0 f0 13 f0 bc 94 17 4a 3d 53 97 d3 3c 41 3f f3 3b
       -0.029306382 0.049338892 0.025828993 0.007423312
0000d0 fb 8c 93 bc 9c b9 ee bd 59 05 03 bd f8 11 08 3d
       -0.01801156 -0.11656496 -0.03198752 0.03322026
0000e0 53 f6 47 3d 9c 4f 7f 3d 21 64 57 bc a8 79 9e 3b
       0.048818897 0.06233178 -0.013146431 0.00483628
0000f0 79 3e 00 3d 84 bf 13 3c 5f 7d 21 3d 70 2f bf 3c
       0.03130958 0.009017829 0.039426204 0.02333805
000100 85 fa 8a 3d 06 5b 05 bd 14 c7 7d 3d 02 63 08 bd
       0.06786064 -0.03255751 0.061957434 -0.033297546
000110 85 e3 0d bb ba 0c 96 3d c1 11 07 bc 0b f4 be bc
       -0.0021650505 0.07326646 -0.008243979 -0.023309728
000120 f5 d8 35 bd c3 5b d9 bc 4e 24 9d 3d 86 88 9f 3d
       -0.04439636 -0.026533013 0.0767294 0.07789712
000130 86 1b cf bc ae 60 c1 bc bc 94 0e 3d c0 cb ad 3d
       -0.025281679 -0.02360567 0.034809813 0.08486128
000140 da 78 9d 3d b7 3b bf 3c 0f 0e 58 3d 90 f4 56 3d
       0.07689066 0.023343904 0.052747782 0.052479327
000150 f1 06 8a bc d1 6b 8f 3d 81 ff 46 3d 0a ed a8 3c
       -0.016849013 0.07002986 0.04858351 0.020620842
000160 ee 07 5c 3d e4 f1 42 3d 4b 10 70 bd c1 72 9c bd
       0.0537185 0.047593966 -0.05860929 -0.07639075
000170 ef 25 6d 3d 69 16 4e 3d c0 3e c5 bd 7a 16 23 bd
       0.057897504 0.05031434 -0.09631109 -0.039816357
000180 17 da fb 3c d6 65 45 3d 91 41 ad 3c 50 dd 77 3d
       0.030743642 0.04819282 0.021149429 0.060513794
000190 2d 79 76 3d c3 b6 19 bd b4 e5 a6 3c 1b 46 54 bd
       0.060174156 -0.03752781 0.020373203 -0.05182467
0001a0 8c 3e 06 bd 95 5f 97 3d e6 45 5d 3d 77 e9 2c 3d
       -0.032774493 0.07391278 0.05402174 0.042214837
0001b0 37 a1 8c 3d 59 85 21 3d e5 42 e9 bb a0 3a 86 3c
       0.06866687 0.03943381 -0.00711857 0.016385376
0001c0 51 1a d0 3c 69 a3 7c 3c 9b 81 23 3c 26 04 a9 3b
       0.025403174 0.015419819 0.009979631 0.0051579652
0001d0 11 59 ca bc a4 b9 70 3d 53 c2 82 bd de 3d 48 3d
       -0.024700673 0.05877079 -0.06384721 0.048887126
0001e0 78 20 9d bd af ee 78 bc ab d2 01 bd 21 e2 7a 3d
       -0.076722085 -0.015193625 -0.03169505 0.06125081
0001f0 25 71 2f 3c 32 58 fc 3c 64 fb 1a bd ed 26 13 bd
       0.010708128 0.030803774 -0.0378374 -0.035925794
000200 f8 af 8a bd ea d2 3b 3c 2e 34 7f bd 17 0b 72 3d
       -0.067718446 0.01146386 -0.06230562 0.059092607
000210 7f aa 33 3d f5 2c f0 3a 02 26 c8 bd 22 69 7e bd
       0.04386377 0.0018323945 -0.097728744 -0.06211198
000220 1b c2 86 bc 81 6c 08 3c 8c 98 44 3d df a4 80 bd
       -0.016449979 0.008326651 0.047997043 -0.06281447
000230 34 51 a4 bd f5 76 ad bc af 0c 59 3d c7 98 14 3d
       -0.08023301 -0.021174887 0.05299061 0.036278512
000240 17 e6 26 bd ef 18 93 3c 88 05 64 3c 36 ef e8 bc
       -0.040746775 0.017956225 0.013917334 -0.028434377
000250 b3 da 1f 3c b3 47 5f bd da bf 20 bd 3a f1 01 3d
       0.009756732 -0.054511737 -0.039245464 0.031724192
000260 3c bf 9c bd bb 9b d0 3c 9a 82 2e bd 38 ba 4a bd
       -0.076536626 0.025464883 -0.04260502 -0.049494
000270 30 4d d3 bc 69 18 b6 bc 92 a7 8b 3b ed 54 81 3b
       -0.025793642 -0.022228437 0.0042619193 0.0039468915
000280 35 48 c1 3c 62 21 db 3c 72 f6 8d 3d d4 25 2a bd
       0.023594001 0.026749317 0.06931771 -0.041539982
000290 24 7e ab 3c 76 d6 22 bd 2c 9c 0c bc 84 87 79 3c
       0.020934172 -0.039755307 -0.008582156 0.015230063
0002a0 85 7a 59 3d 91 ba 77 3d 28 13 6b 3d a4 d5 6d 3d
       0.05309536 0.060480658 0.057391316 0.05806507
0002b0 74 4b 92 3b a6 35 10 3d d6 c5 88 bd 13 25 85 bd
       0.004464561 0.035207413 -0.06678359 -0.06501212
0002c0 4e cd 61 bd 39 1d d1 3d be 2f dd bc eb 92 b8 3d
       -0.055127434 0.10210652 -0.027000304 0.090123974
0002d0 55 1d 1e bd 8e a9 3a 3d 1c 2d 98 bd d5 e6 7d 3d
       -0.038602192 0.045571856 -0.07430479 0.061987717
0002e0 ca 43 1b bd 00 31 1f bd e5 f4 67 3c 72 af 5c bd
       -0.037906446 -0.03886509 0.0141575085 -0.053878255
0002f0 24 aa 92 3d d0 1a 20 bd 38 44 de bc bf 3d 72 3d
       0.07161358 -0.03908807 -0.027132139 0.059140917
000300 db 8a c3 3c 05 73 28 3c 2c 00 2a 3d 24 40 6b 3c
       0.023869922 0.010281329 0.04150407 0.014358554
000310 73 75 33 3d b0 7c 81 3d 2a 2d 57 bd 6c 69 f6 3c
       0.04381318 0.063226104 -0.052533306 0.030079566
000320 00 d0 93 bd 7c 0d 0b 3d 51 19 78 bb 6e b3 2f 3d
       -0.07217407 0.033948407 -0.0037856887 0.042895727
000330 86 99 0e bc 12 af 6f bd 08 a5 59 bd b3 33 3b bd
       -0.008703595 -0.05851657 -0.0531359 -0.0457036
000340 93 53 b9 3d ca 5f 9e bc 64 48 b0 bc e6 05 56 bd
       0.09049144 -0.019332785 -0.021518894 -0.05225172
000350 bd fb 5d 3c f8 24 19 3d 18 02 2e bd 7a a1 10 bd
       0.013548789 0.03738877 -0.042482466 -0.035310246
000360 bc 32 e9 bc 8f d1 e7 3c de f9 16 bb 9f 7d 6d bc
       -0.028466575 0.028298168 -0.0023037116 -0.014495282
000370 4c ba 88 3d ee 82 f1 3c 52 5c 54 bd a9 2d 0d 3d
       0.06676158 0.029481377 -0.051845856 0.034467373
000380 e9 92 8a 3d cd c0 ae bd a3 ce a3 39 9d 4f 71 3d
       0.06766302 -0.085328676 0.0003124374 0.058913816
000390 e7 6c 9b bc 5b 68 a1 bd 23 84 95 3d 2d cb 6f 3d
       -0.018972827 -0.07881232 0.07300594 0.058543373
0003a0 e2 e3 5e 3d dc 89 8b 3d cc 99 8a bc f0 a1 2d bc
       0.054416545 0.06813404 -0.01691904 -0.010597691
0003b0 9f cd 31 bd be 44 0b 3e b7 e7 98 bc 36 44 17 3d
       -0.043408986 0.13600442 -0.018665178 0.036930285
0003c0 92 c4 92 3c 9e 75 90 bd cc 92 2b 39 ef fb f1 3c
       0.017915998 -0.07053684 0.00016362517 0.029539077
0003d0 92 4b 9a 3d 7a c7 a9 3c 5e 91 27 bd ca f5 95 bc
       0.07533945 0.020725 -0.040910117 -0.018305678
0003e0 21 1a bc bc ce a1 95 bc bb cb d9 3c 9c 4e 9c bd
       -0.022961678 -0.018265631 0.026586404 -0.07632181
0003f0 06 4e a0 bc ea 9f a4 bc 50 28 9a 3b 20 65 da 3b
       -0.019568454 -0.020095784 0.0047045127 0.006664887

model.6.weight f4 [16, 256]
000000 91 df 48 be eb ac d9 3c 61 93 1b be f7 97 77 be
       -0.19616534 0.026571712 -0.1519294 -0.24179064
000010 0e 66 0b bd 8d 21 98 bd 37 ca b1 3d 26 05 ea 3e
       -0.034032874 -0.07428274 0.086811475 0.45707053
000020 81 49 28 3c 44 4c 90 bd 50 3c 02 bc eb ad 22 bd
       0.010271431 -0.070457965 -0.00794895 -0.039716642
000030 b7 a4 87 bd cd 4c 4e 3d e9 e5 03 bf 95 99 f9 3d
       -0.06623214 0.05036621 -0.5152269 0.121874966
000040 f9 2d d3 bc 3b 2b 62 be 01 18 8f be ef c2 1f bd
       -0.025778757 -0.22086804 -0.27948 -0.039004263
000050 5e 77 af 3d 7b 6c e1 bd 35 c0 e2 be da 50 45 3e
       0.08567689 -0.11007019 -0.44287267 0.19269124
000060 86 b6 32 3d 6f 72 09 bd cf 06 07 3e 1c 30 5e bd
       0.0436311 -0.033556398 0.13186191 -0.0542451
000070 7a d9 73 bc a8 dd 29 bd ce 6d 00 be 4b 11 a1 bd
       -0.014883393 -0.041471153 -0.12541887 -0.078646265
000080 d6 a7 1c 3e b0 83 5f 3d d9 70 fa 3d fb 61 75 3e
       0.152984 0.054568946 0.12228555 0.23963158
000090 02 66 2a 3d f6 46 0f 3e 0c 92 4a be 35 79 56 be
       0.04160119 0.13991913 -0.19782275 -0.20944674
0000a0 fc 43 b0 3d 12 96 74 bd ec f5 6a be 1b 0b a6 3d
       0.08606717 -0.05971343 -0.22945374 0.08107587
0000b0 9c c4 21 3c 96 0c a7 3d 5c d1 bc bd 8a f0 35 3d
       0.0098735355 0.081566975 -0.0921962 0.04441885
0000c0 a8 c8 a8 bd 3b 0f 2a 3d 74 21 80 3c 2c 8c 5b 3d
       -0.08241397 0.04151843 0.015640952 0.053600475
0000d0 73 41 d2 bd f8 ea 46 3e 48 19 c6 3d 14 2e 10 3e
       -0.1026639 0.19425571 0.09672791 0.14080077
0000e0 37 21 cc be a2 cc 84 bc 4a dc 4a bd 66 f8 61 3f
       -0.3986909 -0.016210858 -0.04952649 0.8826965
0000f0 22 9b ca bc eb 9b e5 3c 06 2d 45 be b4 6b d3 bd
       -0.024732176 0.028028449 -0.19255456 -0.10323277
000100 d1 67 4e 3e 10 8d a3 be bb d6 59 3e 67 c8 a9 3d
       0.2015679 -0.3194356 0.2127332 0.08290177
000110 63 6f 9d be cd 78 97 3d ff c0 ec bb 0b eb fd 3e
       -0.30749044 0.07396088 -0.0072251554 0.49593386
000120 49 67 f2 bd ff ba de bd 09 10 6f 3e f1 ad b4 3c
       -0.11836106 -0.108755104 0.2334596 0.022055598
000130 d8 2f 9c bb 7d 4f cf 3d 2f ac 6a 3d b2 8c 51 3f
       -0.0047664456 0.10122583 0.057293113 0.8185531
000140 d0 18 03 3f f6 d0 87 3d 8f d5 c2 3d 08 56 16 bd
       0.51209736 0.06631653 0.09513389 -0.03670314
000150 f5 10 3e 3e 10 69 70 be c3 3f 73 be 7c f2 03 be
       0.18561156 -0.23477578 -0.23754792 -0.12885469
000160 0a 38 c7 3d 07 69 a4 bd 7b d2 10 3d 06 4b 19 bd
       0.097274855 -0.08027845 0.03535698 -0.037425064
000170 58 a9 fa bc e4 4c 2e be 12 2c 4e 3c 9a 3e bd be
       -0.030598328 -0.17021519 0.012583749 -0.36961824
000180 af 38 32 bd 89 1a 29 bc bb b1 46 3d 79 e7 13 3d
       -0.04351109 -0.010321268 0.04850934 0.03610942
000190 ed 66 28 3d df bb 3e 3c 30 51 d1 bd 70 c3 01 bd
       0.041113783 0.011641472 -0.102205634 -0.031680524
0001a0 4c ec ed be cb 80 02 bc 26 d8 14 3e 7d 34 99 3d
       -0.46469343 -0.007965277 0.14535579 0.074807145
0001b0 b3 9b 83 3d 33 25 45 bd 2d 06 b9 3c cb 6d 9f bd
       0.06426182 -0.04813118 0.022585953 -0.07784613
0001c0 6d 56 1c 3d 07 83 67 3d 55 c6 95 bd 28 66 c4 3d
       0.03816836 0.05652144 -0.073132195 0.09589797
0001d0 b7 73 0c be 64 8a b2 3d 43 12 2f bd de 49 6f be
       -0.13716017 0.08717802 -0.042742025 -0.23368022
0001e0 14 18 30 3e fb b8 52 bf 60 aa fc be a0 c5 ce bd
       0.17196685 -0.8231351 -0.49348736 -0.10096288
0001f0 1e 03 59 be 64 a5 c4 bd d2 bc c8 3d 2b db ef bc
       -0.21192595 -0.09601858 0.098016396 -0.029279312
000200 85 40 65 bb 5b 58 cd 3e 14 65 16 bd fa a4 a3 bd
       -0.0034981084 0.40106472 -0.03671749 -0.07990451
000210 53 21 32 3d 49 b9 c5 bd 5b 6d f3 3c 7e 48 c2 3c
       0.04348881 -0.09654481 0.02971523 0.023716208
000220 3a e6 79 3d b1 73 f7 3d 8f e3 ff 3d 53 f7 81 bd
       0.061010577 0.12082613 0.12494575 -0.063460015
000230 7d 70 4d 3d 4a ab 94 bd 80 7e 01 3f a1 4c 4e 3f
       0.050156105 -0.07259233 0.5058365 0.80585676
000240 12 a0 98 bc 3b 2f 88 bd dc 76 15 bf 0b dd e0 bd
       -0.018631015 -0.066496335 -0.5838449 -0.109796606
000250 06 21 b8 bd 39 d9 16 be 23 57 96 be 9d 6c 84 be
       -0.08990674 -0.14731301 -0.29363355 -0.25864115
000260 68 57 98 bc f1 0f 3f be 97 a1 88 bd db 73 36 be
       -0.018596366 -0.18658425 -0.06671446 -0.17817633
000270 d5 08 17 3d dd 1b 86 bd 48 92 21 be 21 00 be be
       0.036873657 -0.06548283 -0.15778458 -0.37109473
000280 5c e5 30 be 17 b2 f9 3c 31 75 b8 bc ee d7 32 3d
       -0.17274994 0.030480428 -0.022516819 0.043662958
000290 b2 7d a6 bb e9 a8 1e bc cf 75 01 3d 77 e5 b1 3d
       -0.005080902 -0.009683826 0.03160649 0.08686345
0002a0 9d c1 11 be 16 af c2 3c f9 58 13 3d ac 48 10 bd
       -0.14234014 0.023765128 0.035973523 -0.035225555
0002b0 3c 9a b8 3d 36 be b9 bd 8d 26 d5 bd f0 b5 47 3d
       0.09013793 -0.09069483 -0.104077436 0.048757493
0002c0 d8 89 be bb f8 38 03 bd ea 69 3a bd 73 bf 12 be
       -0.005814772 -0.03203675 -0.045511164 -0.14330845
0002d0 d5 22 74 be a0 02 93 be f7 92 b6 bd 3c fc 15 be
       -0.23841412 -0.2871294 -0.0891475 -0.14647001
0002e0 7a d3 0f bf 7b fe ce bd 3c 8e 3b bc f9 6d 48 bc
       -0.5618206 -0.10107132 -0.011447486 -0.012233251
0002f0 04 62 0e 3e 57 b0 40 bd 6b 5d ac bc 8a d1 7b be
       0.13904577 -0.04704317 -0.021040639 -0.24591652
000300 75 c4 26 3f 2a d8 0f be 57 22 47 bb 68 9c 19 3d
       0.6514352 -0.14047304 -0.0030385458 0.037502676
000310 d4 29 0c bd 1d 8b 49 bd c5 df 39 3c 0c 8b 5c be
       -0.034219578 -0.049204934 0.011344855 -0.21537417
000320 3a 7a 3e 3c 76 a5 0f be 96 bb 8b be aa a9 06 be
       0.011625821 -0.14027962 -0.27291554 -0.13150659
000330 26 bf 87 be 4a 43 67 bd ec 1d e3 be 5f 0e e2 be
       -0.26513022 -0.056460656 -0.44358766 -0.4415159
000340 5e 46 4c bd ea b5 98 3c b6 c9 79 bd 42 bf c6 3c
       -0.049871795 0.01864143 -0.060983382 0.02426112
000350 ea 67 5a bc 83 8b 72 3c 8a c5 a6 3d 76 be be 3d
       -0.013330439 0.01480377 0.08143146 0.09313671
000360 04 06 ae be 6b 14 0a be d9 10 a5 3c 3e b1 18 bd
       -0.33988965 -0.13484351 0.020149635 -0.037278406
000370 72 c2 89 be 21 42 22 3b 87 5e f9 bc 5a 76 ca 3d
       -0.26906163 0.0024758654 -0.030440582 0.09885855
000380 39 a6 e5 3c af 14 27 bd eb 00 92 3e d2 d5 06 3d
       0.028033363 -0.04079121 0.28516325 0.03291876
000390 7c c1 6e 3d 86 4e 56 bd 7a 45 3f be e8 71 67 3e
       0.05828999 -0.05232098 -0.18678847 0.22602046
0003a0 51 37 cd 3d e4 fd 41 bc 46 ec 7f bd 1b ac 2e bd
       0.100203164 -0.011840317 -0.062481187 -0.0426446
0003b0 a7 a0 fe bd 99 3b f3 bc b7 23 54 bb 15 e3 d1 bc
       -0.12432986 -0.029691504 -0.003236992 -0.025620976
0003c0 bd 08 1e be 3c ad 51 bc cd 1e d3 3c 5d 79 25 bd
       -0.15433021 -0.01279765 0.025771523 -0.040398944
0003d0 77 54 0c 3f 49 7d b2 3c c6 9f df 3c 49 6b 2f be
       0.54816383 0.021788256 0.027297866 -0.1713077
0003e0 09 d7 3b bd b4 a4 d6 3b f9 bd 04 3d 8c 98 a1 3d
       -0.04585937 0.006550396 0.032407735 0.07890424
0003f0 ca c9 78 3c fe 0e ce 3d 5c 3d e5 bc 24 90 74 be
       0.015184829 0.10061453 -0.02798336 -0.2388311

model.6.bias f4 [16]
000000 ef 75 19 3d 81 60 1e bd 67 e5 81 bd 1f 8e 21 3d
       0.037465986 -0.038666252 -0.06342583 0.039442178
000010 95 1d 7f ba 51 4a 48 bd f8 bb ed 3d 93 24 13 bc
       -0.0009731886 -0.048899 0.11608118 -0.008980888
000020 27 96 61 3c 6d 84 9c bd cd ca d0 3b e2 a5 3c bd
       0.013768709 -0.07642446 0.006371832 -0.046056636
000030 8a 11 af bd 79 0d 9e 3c 9e 37 ee bc 17 20 61 bc
       -0.08548267 0.019293534 -0.029079255 -0.013740561
