data/checkpoints/rlgym-ppo-run-1760842305955113400/837374406/PPO_POLICY.pt (torch, 638775 bytes, 8 tensors)

model.0.weight f4 [256, 89]
0	0xbee813e1	-0.45327666
1	0x3e4a875a	0.19778195
2	0xbea91544	-0.33024037
3	0xbaf4ed9f	-0.0018686539
4	0x3c735aa2	0.0148531515
5	0xbde5e364	-0.11225012
6	0x3cabeab7	0.020985944
7	0x3c68034b	0.014160941
8	0xbca2c88a	-0.019871015
9	0x3d881569	0.06644709
10	0xbca88338	-0.020570382
11	0xbc9d7e56	-0.01922528
12	0xbd05f61a	-0.032705404
13	0xbc7b791c	-0.015348699
14	0xbd4c389d	-0.049858678
15	0x3cbb7f22	0.02288777
16	0xbc499980	-0.012304664
17	0x3d350ecf	0.044203576
18	0xbd285d59	-0.04110465
19	0x3cb920c3	0.02259863
20	0x3d88a16b	0.06671413
21	0x3c0d2f1f	0.008617192
22	0x3c4763e0	0.012169808
23	0x3db506a2	0.08839156
24	0xbd89741a	-0.06711598
25	0x3ca15782	0.019695047
26	0xbd7bb476	-0.061451398
27	0x3da05890	0.07829392
28	0x3dacb5f1	0.0843314
29	0xbdd87812	-0.105697766
30	0x3db2fcac	0.087395996
31	0x3ce6b0fb	0.028160563
32	0x3cff62aa	0.031174976
33	0x3ce64660	0.02810973
34	0x3d93290d	0.07185564
35	0xbd062ef3	-0.032759618
36	0xbdda2d4e	-0.106531724
37	0x3bfa64bf	0.0076414044
38	0xbdad6e9f	-0.08468365
39	0xbb13eac1	-0.0022570344
40	0xbc819ff8	-0.01582335
41	0xbd883455	-0.066506065
42	0xbc932121	-0.017960133
43	0x3da43571	0.08018006
44	0xbc9689fc	-0.018376343
45	0xbba23a18	-0.004950773
46	0xbcc142e5	-0.023591468
47	0x3a031c11	0.00050014356
48	0x3dae07be	0.084975705
49	0x3d358aae	0.04432171
50	0xbac3128c	-0.0014882847
51	0x3e843725	0.25823322
52	0xbd62eaeb	-0.055399816
53	0x3f4a68ed	0.79066354
54	0xbe044bb1	-0.12919499
55	0xbe010cab	-0.12602489
56	0xbeb8cbd9	-0.36093023
57	0xbe885a7e	-0.2663154
58	0x3e93e8ae	0.28888458
59	0xbd760592	-0.060063906
60	0xbe85299a	-0.26008302
61	0x3dad0f18	0.084501445
62	0x3edb0068	0.42773747
63	0xbf3b32bd	-0.73124295
64	0xbe330612	-0.17482784
65	0xbdfd0607	-0.12354665
66	0xbe7350d1	-0.23761298
67	0xbd20bf6c	-0.039245054
68	0x3c445193	0.011982339
69	0x3e093771	0.13400055
70	0x3e3715ec	0.17879456
71	0x3d9dcec4	0.07705453
72	0xbdef4deb	-0.116847835
73	0xbbb89bf8	-0.0056338273
74	0x3d0624c4	0.032749906
75	0x3b385354	0.002812584
76	0xba98a92b	-0.0011647096
77	0x3d258f1c	0.040419683
78	0xbb4a1ec3	-0.003084109
79	0xbd60dde0	-0.054899096
80	0x3bb57c2d	0.0055384845
81	0xbe9fceb3	-0.31212386
82	0x3ca3932e	0.019967642
83	0x3d005f5d	0.031340946
84	0xbd14e884	-0.036354557
85	0xbb038536	-0.0020068414
86	0xbcd6f669	-0.026240544
87	0x3d7586d3	0.05994303
88	0x3e124022	0.14282277
89	0xbd85d46e	-0.06534658
90	0xbe74c3c1	-0.23902799
91	0x3d888eed	0.06667886
92	0xbe37ed77	-0.1796168
93	0xbec6e4ee	-0.38846534
94	0xbd8c9641	-0.06864596
95	0xbd818219	-0.06323642
96	0x3e823d93	0.25437602
97	0x3e3e4b01	0.18583299
98	0x3dbf0df9	0.09328837
99	0xbd12adb2	-0.03581018
100	0x3baed6b0	0.0053356513
101	0xbd15b612	-0.03655059
102	0x3c439b6b	0.01193891
103	0xbd13b10e	-0.036057524
104	0xbcd91d5b	-0.026503256
105	0x3a08897f	0.0005208477
106	0xbd0ccaf9	-0.034373257
107	0x3da64142	0.08117916
108	0x3d2bcf9f	0.04194605
109	0xbcbfd187	-0.02341534
110	0x3d75c60f	0.060003337
111	0xbd917a6c	-0.07103428
112	0x3d1a0908	0.03760627
113	0xbd8125c1	-0.06306029
114	0xbcebd121	-0.028786244
115	0xbb550705	-0.0032505405
116	0xbd2abd0e	-0.041684203
117	0xbc800dd5	-0.015631596
118	0x3ca4ca8d	0.020116115
119	0x3d40e5c3	0.047094118
120	0xbd38c25a	-0.045107223
121	0x3d06ca37	0.03290769
122	0x3dc69324	0.096960336
123	0xbd859981	-0.06523419
124	0x3daef8ab	0.085435234
125	0xbd93623f	-0.07196473
126	0x3d20eb72	0.03928704
127	0x3d15d3d0	0.036578953
128	0xbc8a9c1b	-0.01692014
129	0x3df1573a	0.11784215
130	0xbd6d00f6	-0.057862245
131	0x3c37292b	0.011179249
132	0xbdbbb10f	-0.091646306
133	0xbdc1bbdf	-0.09459662
134	0xbcf4a834	-0.029865362
135	0xbdca3dfb	-0.09875103
136	0x3ced79db	0.02898877
137	0xbbe50663	-0.0069892867
138	0x394658b5	0.00018915797
139	0xbdb27e6d	-0.0871552
140	0xbea3ef4b	-0.32018504
141	0xbd0b42d4	-0.03399928
142	0x3e4b3d4e	0.19847605
143	0x3e61620d	0.2201006
144	0x3df9ef90	0.12203896
145	0x3e703135	0.23456271
146	0xbe00ca58	-0.12577188
147	0x3d666760	0.05625093
148	0x3cb81eb8	0.022475585
149	0x3e744be7	0.2385708
150	0xbe1c1b92	-0.15244892
151	0x3e873121	0.2640467
152	0x3e5d727f	0.21625708
153	0x3d65e84b	0.056129735
154	0x3e427b4f	0.18992351
155	0x3f0b3898	0.5438323
156	0x3cb18a28	0.021672323
157	0x3deaea09	0.1147042
158	0xbc87ad0b	-0.016562006
159	0x3e803fa5	0.25048557
160	0x3e5d9031	0.21637036
161	0x3e3384bf	0.17531107
162	0xbdd50df5	-0.10403053
163	0x3d371b71	0.044703905
164	0x3da8273b	0.082106076
165	0xbd21212e	-0.039338283
166	0xbb84456b	-0.0040365956
167	0x3d2e1697	0.042502012
168	0x3e5e79e9	0.21726193
169	0x3db279b2	0.08714618
170	0x3dc42bd2	0.095786706
171	0xbbc25786	-0.0059308438
172	0xbb9a0aa7	-0.004700977
173	0xbcbbfdc3	-0.022948151
174	0xbd283dfd	-0.04107474
175	0xbd991e22	-0.074764505
176	0xbcf11a20	-0.029431403
177	0xbd59bfc3	-0.053161394
178	0xbd61b6c5	-0.055105943
179	0x3ea5626d	0.32301655
180	0xbbc0b39d	-0.0058807866
181	0x3e4f64fb	0.20253365
182	0x3d96eb04	0.073690444
183	0x3dd08a5a	0.101826385
184	0x3cb74cc4	0.022375472
185	0x3df8c7e4	0.12147501
186	0xbdfe5ae9	-0.124196835
187	0x3d4442e3	0.04791535
188	0x3dc0dc59	0.09417028
189	0x3c398755	0.01132377
190	0xbd46258b	-0.048375648
191	0xbc1c4683	-0.009538296
192	0xbe1fc796	-0.1560348
193	0x3d39b435	0.045337874
194	0xbc04163f	-0.0080619445
195	0xbd6270fa	-0.055283524
196	0x3d235229	0.039873276
197	0xbd6fc0cd	-0.05853348
198	0x3dcc8910	0.0998708
199	0x3d1796cb	0.03700904
200	0xbcbda78e	-0.023151185
201	0x3c957815	0.018245736
202	0x3d006ce7	0.031353857
203	0xbcd52d66	-0.026022624
204	0xbd958022	-0.0729983
205	0x3c1843a9	0.009293475
206	0x3ce3f752	0.027827892
207	0x3c0ba51b	0.008523251
208	0xbd0f7a6c	-0.03502886
209	0x3d944d0a	0.072412565
210	0xbc989d16	-0.018629592
211	0xbc79c292	-0.015244143
212	0x3d1287d9	0.035774086
213	0xbd5fdc26	-0.05465331
214	0x3d214e21	0.03938115
215	0xbd003717	-0.031302538
216	0x3d85c380	0.06531429
217	0xbd357f64	-0.044310942
218	0x3ca7d674	0.020488001
219	0x3c9900af	0.018677084
220	0xbd9660ee	-0.073427066
221	0xbd6c1394	-0.05763586
222	0x3d5c7e22	0.053831227
223	0xbc8b3ec0	-0.016997695
224	0x3d9673ad	0.07346282
225	0xbdbe7e80	-0.09301472
226	0xbd2493df	-0.040180083
227	0xbd95a243	-0.073063396
228	0x3d1a4260	0.037660956
229	0xbe0a07e7	-0.13479577
230	0xbe0851c0	-0.13312435
231	0xbe9079ad	-0.2821783
232	0xbe385028	-0.17999327
233	0xbd2f3caf	-0.04278248
234	0x3e89edb1	0.26939157
235	0x3e44317c	0.19159502
236	0xbed2ca32	-0.41169888
237	0x3d307cda	0.043087818
238	0x3d13ea7d	0.036112297
239	0x3e09dfc3	0.13464265
240	0xbf171443	-0.5901529
241	0xbdd5e6b3	-0.10444393
242	0xbf069cef	-0.5258321
243	0x3cc8a3ec	0.024492227
244	0x3e5124f8	0.20424259
245	0x3e32a1de	0.1744456
246	0xbd82e215	-0.06390778
247	0x3db70ee3	0.08938386
248	0x3d156f67	0.036483195
249	0xbc94cff2	-0.018165562
250	0x3d0cf07d	0.034409035
251	0xbd617b00	-0.055048943
252	0x3d3c5616	0.045980535
253	0xbbd15164	-0.0063878763
254	0xbd4e2510	-0.050328314
255	0x3c0758d1	0.008260922

model.0.bias f4 [256]
0	0xbd3bb4fe	-0.045826904
1	0x3c8aa89f	0.016926108
2	0xbd08d587	-0.03340676
3	0xbc326f36	-0.010890773
4	0xbd821cd4	-0.06353155
5	0xbd31e7c0	-0.043433905
6	0x3d856d15	0.06514946
7	0xbdba59c2	-0.09099151
8	0x3d17c6ec	0.03705494
9	0x3bf27bdd	0.0074000196
10	0x3d3bcc6f	0.04584926
11	0x3c9aaa80	0.018880129
12	0x3cf3e853	0.029773867
13	0x3c4709e4	0.012148354
14	0x3dcc5032	0.099762335
15	0x3d881bc5	0.066459216
16	0x3d5c6f45	0.053817052
17	0x3d061912	0.032738753
18	0x3d731504	0.059346214
19	0x3dc82f65	0.09774665
20	0x3cdf6c23	0.027273243
21	0x3c18ddeb	0.009330253
22	0xbd11f9af	-0.035638507
23	0x3b41c6e3	0.0029568009
24	0x3d388747	0.045050886
25	0xbde9befc	-0.114133805
26	0xbdd17404	-0.10227206
27	0x3dba0683	0.09083273
28	0x3db2ae03	0.08724596
29	0x3dca4f21	0.09878374
30	0xbdbe4552	-0.092905656
31	0x3d9fd12f	0.078035705
32	0xbd9eedf1	-0.077602275
33	0xbc497432	-0.0122957695
34	0xbd9ae8ba	-0.0756392
35	0x3cca50f7	0.02469681
36	0xbd85ef44	-0.06539777
37	0x3c852d39	0.016256915
38	0x3d979614	0.07401672
39	0x3bbf5c7b	0.005839882
40	0x3d135c55	0.035976727
41	0x3c709dcb	0.014686058
42	0x3cb93710	0.022609264
43	0xbd0e3d9e	-0.03472673
44	0x3d9aebd8	0.07564515
45	0x3d655166	0.05598583
46	0x3cccfe78	0.025023684
47	0xbd27880f	-0.04090124
48	0x3c27cbd3	0.010241467
49	0x39ceb1a7	0.00039423743
50	0x3d83743f	0.064186566
51	0xbc5249ee	-0.012835009
52	0xbd6f0ef0	-0.058363855
53	0xbdb18182	-0.0866728
54	0xbc8e8850	-0.017398983
55	0xbd420450	-0.047367394
56	0xbdd38a65	-0.10329131
57	0xbd800216	-0.06250398
58	0x3c4227ec	0.011850338
59	0xbb367cbb	-0.0027845341
60	0xbd01e0db	-0.03170858
61	0xbdef8294	-0.11694828
62	0x3b1c6d5a	0.002386889
63	0x3d8c57df	0.068526976
64	0xbd4d78f8	-0.050164193
65	0x3dbf852e	0.09351574
66	0xbd0710e7	-0.032975104
67	0x3d62dd43	0.055386793
68	0xbcec47ff	-0.028842924
69	0xbddf4296	-0.10901372
70	0xbd886b38	-0.06661075
71	0x3c7478a9	0.014921346
72	0x3d612bf3	0.054973554
73	0xbe069e13	-0.13146238
74	0x3d907073	0.07052698
75	0x3c24c474	0.010056604
76	0x3d402370	0.046908796
77	0x3c1bf177	0.009518019
78	0xbd69d719	-0.0570899
79	0x3db85fd4	0.09002653
80	0xbc2ae384	-0.0104302205
81	0xbdfb7e5e	-0.12279962
82	0x39ece9dd	0.0004518767
83	0xbd90d820	-0.070724726
84	0xbd757590	-0.05992657
85	0xbdb43c1c	-0.088005275
86	0x3c4b254e	0.012399031
87	0xbdd4a6cd	-0.10383377
88	0xbd4638e8	-0.048394114
89	0xbcbe5293	-0.023232734
90	0xbd9c8b23	-0.07643726
91	0xbdce67fd	-0.10078428
92	0xbd83a84a	-0.06428583
93	0xbd5551eb	-0.052080076
94	0xbddc027a	-0.1074266
95	0xbdb54ece	-0.088529214
96	0xbdb6539b	-0.08902665
97	0x3d7ebb77	0.0621905
98	0xbdb13fee	-0.08654772
99	0x3c773ea5	0.015090619
100	0xbc349b7f	-0.011023401
101	0xbda3d995	-0.08000485
102	0xbca10191	-0.019654067
103	0xbbffa546	-0.0078016846
104	0x3dc0e78e	0.094191656
105	0xbcf11fe1	-0.029434146
106	0x3da3f24b	0.08005198
107	0x3d4424f1	0.047886793
108	0x3d6b5e7a	0.057463147
109	0x3bf659f1	0.007518046
110	0xbd7a05b7	-0.061040606
111	0xbb65e426	-0.0035078614
112	0xbcfd24f4	-0.03090141
113	0x3d1b24e1	0.037876967
114	0x3d807fa6	0.06274347
115	0x3d2fdd2e	0.042935543
116	0xbd99993d	-0.07499931
117	0x3a1f82de	0.00060848694
118	0x3d63fe8a	0.05566267
119	0x3cbbfe81	0.022948505
120	0xbd07f96b	-0.033196848
121	0x3d73b0f1	0.059494916
122	0xbdbeb111	-0.093111165
123	0xbdd49782	-0.1038046
124	0xbdaf7bef	-0.0856856
125	0x3ba6e8ee	0.0050936854
126	0xbced5ddc	-0.02897542
127	0x3d56860c	0.05237393
128	0xbbb66b52	-0.005566993
129	0x3c741b78	0.014899127
130	0x3b15ce5e	0.00228586
131	0x3d51b72c	0.051200077
132	0x3d66a4b7	0.056309428
133	0x3d9788b0	0.07399118
134	0xbaadb6c7	-0.0013253324
135	0x3d6f7d8e	0.058469348
136	0x3d922ce4	0.071374685
137	0x3c265fcf	0.0101546785
138	0x3c65e96f	0.014032706
139	0xbd641e09	-0.055692706
140	0x3df1b486	0.1180201
141	0x3c0c2402	0.008553507
142	0xbdcc107c	-0.09964082
143	0xbd13ea05	-0.03611185
144	0xbcf140af	-0.029449789
145	0xbc65ff0c	-0.014037859
146	0xbd8b4c8a	-0.06801708
147	0xbd1e2055	-0.038605053
148	0xbdcfd785	-0.10148529
149	0x3c9464a0	0.018114388
150	0xbddecf21	-0.108793505
151	0x3b92cf39	0.0044802693
152	0x3b4b340d	0.0031006366
153	0xbdbd6c9a	-0.0924923
154	0x3ccaf628	0.02477558
155	0x3d3fb67e	0.046804897
156	0xbd187485	-0.037220497
157	0xbdb22d8e	-0.08700095
158	0x3dc30cea	0.095239475
159	0xbd4fb556	-0.050710045
160	0x3cc1a83a	0.023639787
161	0xbda66ef0	-0.081266284
162	0xbda9690e	-0.08271991
163	0xbc3d6d2a	-0.011561671
164	0xbd3d8320	-0.04626763
165	0xbd593051	-0.053024594
166	0xbdd5c3f8	-0.10437769
167	0x3d2012f2	0.039080568
168	0xbdf72eb4	-0.12069455
169	0xbd2ecf1e	-0.04267799
170	0xbdaa9494	-0.0832912
171	0xbdc297df	-0.09501623
172	0x3d075fb9	0.033050273
173	0xbd2a45a6	-0.04157033
174	0x3d5023f1	0.050815526
175	0xbdcc7198	-0.09982604
176	0xbd89d927	-0.06730872
177	0x3ce442e3	0.027863925
178	0x3c4c069e	0.01245275
179	0x3db52188	0.08844286
180	0x3d4472c9	0.04796103
181	0xbd8c8d29	-0.06862862
182	0xbc9a6fc5	-0.018852124
183	0x3cb75e66	0.02238388
184	0xbc2ea5bd	-0.010659632
185	0x3db6d4e6	0.08927326
186	0x3d846a69	0.064656086
187	0x3d5f1b82	0.054469593
188	0xbdc5ef91	-0.09664834
189	0xbd584d44	-0.05280806
190	0xbdeb214a	-0.11480959
191	0xbd8366aa	-0.06416066
192	0x3d06c6b4	0.03290434
193	0xbd339e49	-0.043852124
194	0x3de41927	0.1113761
195	0x3b41d17c	0.0029574325
196	0xbbc87dff	-0.0061185355
197	0xbd3bc39f	-0.045840856
198	0xbd9e5e15	-0.077327885
199	0x3c599c67	0.013281918
200	0x3d9f2b6e	0.077719554
201	0x3daaba02	0.083362594
202	0x3cd22da0	0.025656521
203	0x3d151101	0.03639317
204	0xbd41770d	-0.047232676
205	0xbb8857e6	-0.004160869
206	0x3daec4c0	0.08533621
207	0xbd4ba514	-0.049717978
208	0x3d4f3feb	0.050598066
209	0x3d8d57e1	0.06901527
210	0x3c98a8ea	0.018635232
211	0xbddacaa1	-0.1068318
212	0x3d770d9c	0.060315713
213	0xbdd6b878	-0.10484403
214	0x3d39f400	0.045398712
215	0x3d5e0d06	0.05421164
216	0xbdae7a8b	-0.08519467
217	0xbdbb1723	-0.09135272
218	0xbdc14fa7	-0.094390206
219	0x3da017ba	0.078170255
220	0xbd8007b2	-0.06251468
221	0xbd937af9	-0.072011895
222	0xbc034bf7	-0.008013717
223	0x3c846956	0.01616351
224	0xbd28575f	-0.04109895
225	0xbdb60015	-0.088867344
226	0xbdba8d73	-0.091090105
227	0x3cdf10f8	0.027229771
228	0xbd4c0d57	-0.04981741
229	0xbdbf62b6	-0.093449995
230	0xbda9ea1e	-0.082966074
231	0xbc8039cd	-0.015652562
232	0xbd5b947b	-0.0536084
233	0x3a4407ac	0.000747795
234	0x3c785e9f	0.015159278
235	0x3db3e203	0.08783343
236	0x3db377da	0.08763094
237	0x3cb02ac4	0.021504767
238	0xbd7d5069	-0.061844263
239	0x3c6c5c3c	0.014426287
240	0xbd888998	-0.06666869
241	0x3d8864f3	0.066598795
242	0x3c9d6c00	0.019216537
243	0xbcb2cf76	-0.02182744
244	0x3dc52c7d	0.09627626
245	0xbcbedeb1	-0.023299547
246	0xbce5b926	-0.028042387
247	0x3c134af8	0.008990042
248	0x3de4e084	0.111756355
249	0xbdb8e63f	-0.09028291
250	0xbd386f5a	-0.045028068
251	0xbd237419	-0.03990564
252	0x3d8782de	0.06616758
253	0x3dc6dead	0.09710441
254	0x3dad8937	0.08473437
255	0x3d9c2166	0.07623558

model.2.weight f4 [256, 256]
0	0xbdfcf488	-0.12351328
1	0xbcae3075	-0.02126334
2	0x3c5543ca	0.01301665
3	0x3b8b1fd9	0.00424574
4	0xbe428d22	-0.1899915
5	0x3d55f843	0.052238714
6	0xbc7e6174	-0.015526164
7	0xbd04b73e	-0.032401316
8	0x3d6987ef	0.057014402
9	0x3d02f495	0.031971533
10	0xbd0c41e2	-0.03424252
11	0xbd93c211	-0.072147496
12	0xbae5c975	-0.0017531352
13	0xbdf8f466	-0.1215599
14	0xbcb6cc4a	-0.02231421
15	0xbdd61377	-0.104529314
16	0x3cc659be	0.024212714
17	0x3c839875	0.016063908
18	0x3d8907ed	0.06690965
19	0xbcbf7ee6	-0.02337594
20	0xbd56b527	-0.052418854
21	0xbde5c4b7	-0.11219161
22	0xbc150603	-0.009095672
23	0xbe2edea5	-0.1707712
24	0xbdd3a28a	-0.10333736
25	0x3cbaf7c9	0.022823231
26	0x3cc93f4e	0.024566319
27	0xbc196a7c	-0.009363767
28	0x3d208cff	0.039196964
29	0x3dd7e4da	0.10541697
30	0x3d3a9e16	0.04556092
31	0x3dc58f86	0.096465155
32	0x3b51b920	0.0032001212
33	0x3d15a8c2	0.036537893
34	0xbdb266f9	-0.08711047
35	0x3dc02b93	0.09383311
36	0x3dbb671d	0.09150527
37	0xbdd07f8a	-0.10180576
38	0x3d115061	0.035477046
39	0x3cf08429	0.029359894
40	0xbd3eaae5	-0.046549696
41	0xbd712cfd	-0.058880795
42	0x3d77dbf1	0.060512487
43	0xbc9eb79f	-0.019374667
44	0xbcc9b34c	-0.024621628
45	0xbe01913f	-0.12653063
46	0x3bc4f65d	0.006010814
47	0xbd5b2f3a	-0.053511836
48	0xbdbdb214	-0.09262481
49	0xbe081929	-0.13290848
50	0x3d1569d4	0.03647788
51	0xbd9c814e	-0.076418504
52	0x3c22d483	0.009938362
53	0xbcb1d294	-0.021706857
54	0x3b0a7ef6	0.0021132804
55	0x3d807395	0.062720455
56	0xbc91d8b9	-0.017803537
57	0x3d1722a2	0.036898263
58	0xbc039c88	-0.008032925
59	0x3db6436f	0.08899581
60	0xbdb440eb	-0.088014446
61	0x3d6f4a1a	0.058420278
62	0xbc179c47	-0.009253568
63	0x3d72ae65	0.059248347
64	0xbde79203	-0.113071464
65	0x3ccf64b1	0.025316568
66	0x3dd63a81	0.104603775
67	0xbc966342	-0.018357877
68	0x3ce4a285	0.027909527
69	0xbd23103e	-0.03981041
70	0xbdf92105	-0.12164501
71	0xbd38bd1b	-0.04510222
72	0xbd2165ec	-0.03940384
73	0x3d861e7f	0.065487854
74	0xbde6f0b1	-0.11276377
75	0x3ca31184	0.019905813
76	0x3dfee976	0.12446873
77	0xbdbb5e8f	-0.09148895
78	0x3dba9bcc	0.09111747
79	0xbda151a0	-0.07876897
80	0x3d57650a	0.052586593
81	0xbd593d3c	-0.053036913
82	0x3cf74c48	0.03018774
83	0xbbbe3fa4	-0.0058059264
84	0x3d989cd9	0.07451791
85	0x3d4cf3b7	0.050037112
86	0x3beb538f	0.007181592
87	0x3b94d418	0.004541885
88	0xbd86e130	-0.0658592
89	0x3d93ec76	0.07222836
90	0x3c5899ed	0.0132202925
91	0x3d6f64d5	0.05844577
92	0xbe3e2725	-0.1856962
93	0xbd419dcb	-0.047269624
94	0x3db11c25	0.08647946
95	0x3e310a7b	0.17289154
96	0x3d8ad91b	0.06779691
97	0xbe5a7f3c	-0.21337599
98	0xbcc41d1a	-0.023939658
99	0xbdafeded	-0.085903026
100	0x3c9917e4	0.01868815
101	0xbdd834af	-0.105569236
102	0xbe1dbc8a	-0.15403953
103	0xbd6ebfbe	-0.05828833
104	0xbc9bbaf6	-0.019010048
105	0xbdb2aa71	-0.08723915
106	0xbca2f2d8	-0.019891188
107	0xbc846f9e	-0.016166504
108	0x3e0c4c52	0.13700989
109	0x3d6404c2	0.0556686
110	0x3e035435	0.12825091
111	0xbd8115cf	-0.06302988
112	0x3d4ce756	0.050025307
113	0x3dcbf033	0.09957924
114	0xbccb573a	-0.024821866
115	0xbb419297	-0.0029536837
116	0xbcc9711c	-0.024590068
117	0xbe1640c2	-0.1467314
118	0x3e227321	0.1586423
119	0x3cd6b8c6	0.026211154
120	0xbcbb0076	-0.022827368
121	0xbdafb2bf	-0.08579015
122	0x3dab1ba5	0.08354882
123	0xbdde3b9a	-0.10851212
124	0xbdb983b6	-0.09058325
125	0x3d9acc1f	0.07558464
126	0xbe1c29d0	-0.15250325
127	0x3d0431bf	0.032274004
128	0x3bffe6f2	0.0078095132
129	0xbd188ff2	-0.037246652
130	0xbd958305	-0.073003806
131	0x3db01e2c	0.08599505
132	0xbc95b264	-0.01827354
133	0x3dcaa843	0.098953746
134	0x3dd79c2e	0.10527836
135	0xbd04d2b1	-0.032427493
136	0xbdae7745	-0.085188426
137	0xbd822886	-0.063553855
138	0xbded470c	-0.11585817
139	0xbd1925b8	-0.037389487
140	0xbe2c2cf0	-0.16814017
141	0xbdbc36e6	-0.091901585
142	0x3da3d373	0.07999315
143	0xbcb216e7	-0.021739436
144	0x3d1c4ba7	0.038158085
145	0xbcbc0ee4	-0.02295632
146	0x3d923325	0.07138661
147	0xbd23db94	-0.040004328
148	0x3c457844	0.012052599
149	0xbdc28222	-0.09497477
150	0x3d0804ad	0.033207584
151	0xbd88a3a2	-0.066718355
152	0xbdd09344	-0.10184339
153	0xbd10605d	-0.03524815
154	0xbc2d16b9	-0.0105645
155	0x3d9380cb	0.072023
156	0xba7766f9	-0.00094376464
157	0x3de85a76	0.11345379
158	0x3d1a04e1	0.03760231
159	0xbd47aaeb	-0.048746984
160	0xbd91e0d2	-0.07122959
161	0xbe5b2449	-0.2140056
162	0xbabb6c37	-0.0014299218
163	0x3db2c90f	0.08729755
164	0xbe17b587	-0.14815341
165	0xbe0f540b	-0.13996904
166	0xbe84300d	-0.2581791
167	0xbdb1ff56	-0.086912796
168	0x3c36f90f	0.011167779
169	0xbe21f220	-0.1581502
170	0xbdf20fda	-0.1181943
171	0x3da3f9cc	0.08006629
172	0x3cf1a627	0.029498173
173	0x3ddcbbf6	0.10778038
174	0x3dbeac53	0.09310212
175	0xbd01996e	-0.031640463
176	0x3da08df2	0.07839574
177	0xbd0cc629	-0.034368668
178	0xbd11b470	-0.03557247
179	0x3d882c22	0.06649043
180	0xbbc4eb1d	-0.006009473
181	0xbdc60020	-0.096679926
182	0xbdadd168	-0.08487207
183	0xbdac03df	-0.08399176
184	0xbd1ae199	-0.037812803
185	0xbe34c243	-0.1765223
186	0x3d903a35	0.07042352
187	0xbc58f841	-0.013242782
188	0x3e3bae93	0.18328314
189	0x3ce6ae22	0.028159205
190	0x3d89f4ac	0.067361206
191	0xbe6f4ccb	-0.23369138
192	0xbe3e4bb2	-0.18583563
193	0xbe404526	-0.18776378
194	0xbecddadd	-0.40206042
195	0xbe2bc9b9	-0.1677617
196	0xbe5a15db	-0.212974
197	0xbbca95fc	-0.0061824303
198	0xbd595ac6	-0.053065084
199	0x3dcc680e	0.09980784
200	0xbc05d8cf	-0.008169367
201	0x3db25873	0.087082766
202	0xbca2cfee	-0.01987454
203	0x3c9c173f	0.019054053
204	0x3d4b693a	0.0496609
205	0xbce69ccc	-0.028150938
206	0x3db08ecc	0.08620986
207	0x39de41fc	0.00042392302
208	0x3d8aee40	0.06783724
209	0xbc8c86e9	-0.017154174
210	0xbd89de82	-0.06731893
211	0x3d351385	0.04420807
212	0x3cdd44a8	0.027010277
213	0xbcb8810c	-0.022522472
214	0xbe5f59f5	-0.2181166
215	0xbec02103	-0.37525186
216	0xbd1ba157	-0.037995663
217	0xbe1ed0a3	-0.15509276
218	0xbcc435b7	-0.023951394
219	0x3d48f8f8	0.04906556
220	0x3d54c6dd	0.051947463
221	0xbd41e671	-0.047338907
222	0x3d4622e4	0.048373118
223	0xbdbaa0a4	-0.09112671
224	0xbafefbfd	-0.001945376
225	0x3d3bcfad	0.045852352
226	0x3ccbf0b2	0.024895046
227	0xbceec79a	-0.029147912
228	0xbdbef5fa	-0.0932426
229	0xbdcd8880	-0.10035801
230	0x3d8fa11b	0.0701315
231	0x3e00773a	0.12545481
232	0xbf0404c6	-0.51569784
233	0x3c7288ae	0.014803095
234	0xbd7113f8	-0.058856934
235	0x3db6d769	0.08927805
236	0x3d808ef3	0.062772654
237	0xbc14d4d8	-0.009083949
238	0xbe41e3d2	-0.18934563
239	0x3d37e36d	0.044894625
240	0xbcc8d3c1	-0.024515035
241	0x3c924faf	0.017860262
242	0xbd3c4e83	-0.045973312
243	0x3dcb194b	0.099169336
244	0x3cae4341	0.021272304
245	0x3db4d652	0.08829941
246	0xbe7cfc64	-0.24705654
247	0xbe7c74e5	-0.24653967
248	0x3d8495cb	0.06473883
249	0xbc099055	-0.008396228
250	0x3d2b54be	0.041828863
251	0xbc87fb7c	-0.01659941
252	0xbd2d5463	-0.042316806
253	0xbc752302	-0.01496196
254	0x3dbd35e0	0.092387915
255	0xbbb2d439	-0.005457428

model.2.bias f4 [256]
0	0x3d08a7ad	0.033363033
1	0x3d2c4273	0.04205556
2	0xbdb38c85	-0.08767036
3	0xbcf45d42	-0.029829625
4	0xbda5410d	-0.08069048
5	0x3d15304c	0.036423013
6	0x3d4ab32a	0.04948727
7	0xbd45906f	-0.048233446
8	0x3d6aa302	0.057284363
9	0xbd55a8f0	-0.052163064
10	0x3c659262	0.014011951
11	0xbd1d02ac	-0.038332626
12	0x3d087a99	0.033320043
13	0xbc3376cc	-0.010953616
14	0x3d6da9e0	0.058023334
15	0x3cbba74b	0.02290692
16	0xbd67d282	-0.05659724
17	0xbd18ca6b	-0.037302416
18	0x3cd1167f	0.025523422
19	0xbc321dc5	-0.010871355
20	0x3c7d2543	0.015450778
21	0xbd791f77	-0.060821023
22	0x3d0d197f	0.034448143
23	0xbb905efd	-0.0044058547
24	0x3ccf06ed	0.025271857
25	0xbcc72a39	-0.024312126
26	0x3d750a1c	0.059824094
27	0x3d0cfd24	0.0344211
28	0xbc0147dd	-0.007890669
29	0xbce3918b	-0.027779361
30	0xbadd1dd8	-0.0016869856
31	0xbaf02232	-0.0018320738
32	0x3d049e00	0.032377243
33	0xbd2cf8b6	-0.042229377
34	0xbc9560df	-0.018234668
35	0x3d195aaf	0.03744
36	0x3b8431e2	0.004034267
37	0x3ccbeb21	0.024892392
38	0xbd2cf3eb	-0.042224806
39	0x3d357d95	0.044309217
40	0xbd432a8b	-0.047647994
41	0x3cb4f241	0.022088172
42	0x3968a87a	0.00022188007
43	0xbc1e33fe	-0.009655951
44	0xbd32f80e	-0.043693595
45	0x3d6d6a55	0.057962734
46	0xbd00d25a	-0.031450607
47	0x3d0ad87f	0.033897873
48	0xbc5d99a4	-0.0135254
49	0x3d80285e	0.062576994
50	0x3c90f53f	0.017695067
51	0x3da90801	0.0825348
52	0xbd113270	-0.03544849
53	0x3cfdcfea	0.03098293
54	0x3d963327	0.07333975
55	0xbca62be2	-0.020284597
56	0x3c99ca9c	0.01877337
57	0xbb45fa36	-0.0030208952
58	0x3d419ff5	0.047271688
59	0xbb881f73	-0.0041541397
60	0x3d1496b9	0.036276553
61	0x3b82721e	0.003980889
62	0xbd041a0a	-0.032251395
63	0xbc2cb960	-0.010542244
64	0x3bff83af	0.0077976803
65	0x3c0ff570	0.008786544
66	0xbbb6e19a	-0.005581093
67	0x3cf8aaca	0.030354876
68	0xbbfa25af	-0.0076338868
69	0x3d50770d	0.050894786
70	0x3d37bc42	0.04485727
71	0xbc0ccf2c	-0.0085943155
72	0xbd39a8ba	-0.045326926
73	0xbd9ca8b2	-0.076493636
74	0x3d1007bc	0.035163626
75	0xbcad574d	-0.021159792
76	0x39842929	0.0002520767
77	0x3d508fbf	0.050918337
78	0x3c5adb49	0.013357946
79	0xbcc63c57	-0.024198694
80	0xbd86a8dd	-0.06575177
81	0xbd562b6a	-0.052287497
82	0x3d6dd891	0.058067862
83	0x3d0a5f9c	0.033782586
84	0xbc4b705a	-0.012416923
85	0xbc9aa86d	-0.01887914
86	0xbd5e5ae7	-0.05428591
87	0xbd0aa39a	-0.03384743
88	0x3d345cf8	0.044033974
89	0x3d0ed93d	0.034875143
90	0xbad335fe	-0.0016114113
91	0xbd38ed27	-0.04514804
92	0x3bc52150	0.006015934
93	0xbd2d920c	-0.04237561
94	0x3c6babbf	0.014384209
95	0x3cb8967a	0.02253269
96	0x3d3fa567	0.0467886
97	0x3d0677c9	0.03282908
98	0x3cca0074	0.02465842
99	0xbc7118cd	-0.014715386
100	0xbcfbc1fd	-0.03073215
101	0x3cc95508	0.024576679
102	0xbcd905dc	-0.026492052
103	0xbdb72e3e	-0.08944367
104	0x3d612914	0.054970816
105	0xbd72639d	-0.05917703
106	0xbd31a4f3	-0.0433702
107	0xbd41b131	-0.047288124
108	0xba973f77	-0.00115393
109	0x3c1e558f	0.009663953
110	0x3c6eff2f	0.014587208
111	0xbd2b45ad	-0.041814495
112	0x3d1d31e4	0.038377658
113	0xb98d3a92	-0.00026937254
114	0x3da192a8	0.078893006
115	0x3ca7e18b	0.02049329
116	0xbc96886e	-0.018375602
117	0xbd321665	-0.04347839
118	0xbc8ba4d5	-0.017046371
119	0xbd09a1ac	-0.033601448
120	0x3d388d7c	0.045056805
121	0xbd5edb19	-0.054408167
122	0x3d568de5	0.052381415
123	0x3d411937	0.047143187
124	0xbbb1eb05	-0.005429628
125	0x3c688ef1	0.014194236
126	0x3cd3b977	0.025845272
127	0x3cab1817	0.02088551
128	0xbcc7dbaa	-0.024396736
129	0xbd5082aa	-0.05090586
130	0x3c34615b	0.0110095395
131	0x3c3c81dd	0.011505571
132	0x3d388bb3	0.045055103
133	0xbd690240	-0.05688691
134	0xbc1d1434	-0.009587336
135	0xbc293e6e	-0.010329826
136	0x3d68dee2	0.056853183
137	0xbcfe74c5	-0.03106154
138	0xbd310f36	-0.043227397
139	0x3d6977c5	0.056998987
140	0x3b5c5163	0.0033617846
141	0x3d5b986d	0.05361216
142	0xbd150f42	-0.036391504
143	0xbd1283ef	-0.035770353
144	0x3bd50fd0	0.006502129
145	0x3c648f04	0.013950113
146	0x3d38d21a	0.045122243
147	0xbca1f569	-0.019770341
148	0xbd70e6a3	-0.058813702
149	0xbc848775	-0.016177872
150	0xbc98ca8c	-0.01865127
151	0xbd71daf6	-0.059046708
152	0xbda904e5	-0.08252887
153	0xbc4813e1	-0.012211771
154	0xbd1492da	-0.03627286
155	0x3d8164c6	0.06318049
156	0x3c89cc92	0.01682118
157	0x3d2712bb	0.040789347
158	0xbcda6c22	-0.02666289
159	0xbd848b9c	-0.06471941
160	0xbd74bdb0	-0.059751213
161	0xbd013eb2	-0.03155393
162	0x3d166fd9	0.03672776
163	0x3c607453	0.013699609
164	0xbd3569b0	-0.044290245
165	0xbbc070ae	-0.0058728075
166	0xbc03ae5c	-0.008037176
167	0x3d808f74	0.062773615
168	0x3ccfab1c	0.025350146
169	0xbb81a21f	-0.003956094
170	0xbd6f0c42	-0.0583613
171	0x3d2a80ec	0.041626856
172	0x3d11381c	0.0354539
173	0xbd8b0ceb	-0.06789573
174	0x3cd6842a	0.026186068
175	0xbcad6ac5	-0.021169076
176	0xbd75f336	-0.060046397
177	0x3d60103f	0.054702993
178	0x3d389335	0.045062263
179	0x3bb3e1f0	0.0054895803
180	0xbc7555de	-0.014974086
181	0x3c5863c6	0.013207382
182	0xbd47e67c	-0.04880379
183	0x3d9ca999	0.07649536
184	0xbd092fc9	-0.033492837
185	0xbc9bbea6	-0.019011807
186	0x3c9e6e22	0.019339625
187	0xbd2a89a2	-0.041635163
188	0x3d020855	0.031746227
189	0xbc08d8e7	-0.008352495
190	0xbd1d20b8	-0.03836128
191	0x3ca9f09d	0.020744616
192	0xbd14e2d3	-0.03634913
193	0xbb898615	-0.004196892
194	0xbdaddf92	-0.08489908
195	0xbd661f4a	-0.056182183
196	0x3cd17458	0.025568172
197	0x3c4fc11f	0.012680321
198	0x3d4bd436	0.049762927
199	0xbcecc242	-0.028901223
200	0x3d960d94	0.073268086
201	0x3d1b73db	0.037952285
202	0x3d0e5467	0.03474846
203	0xbcd94ce2	-0.026525918
204	0x3d3b0873	0.045662355
205	0x3cb207b0	0.021732181
206	0xbc4badbf	-0.012431561
207	0xbbd91f25	-0.006626027
208	0xbd5d95e3	-0.05409802
209	0xbd32e8d0	-0.04367906
210	0xbc4eecb6	-0.0126296785
211	0xbd493519	-0.049122903
212	0xbd7f1890	-0.062279284
213	0xbd550902	-0.052010544
214	0x3d71315e	0.05888497
215	0x3bc9b447	0.006155524
216	0x3d076401	0.033054356
217	0xbc6a5674	-0.014302839
218	0xbca12b42	-0.019673947
219	0xbc1d5fae	-0.009605331
220	0xbd4b2cd2	-0.04960329
221	0x3d191769	0.03737584
222	0x3d1355e7	0.035970595
223	0xbc01999c	-0.0079101585
224	0xbd18d32e	-0.03731077
225	0xbdc7fff0	-0.09765613
226	0x3dcbaaf6	0.099447176
227	0xbd87844e	-0.06617032
228	0x3cd3ea74	0.025868632
229	0xbcbe8bcd	-0.023260022
230	0xbd3e2db2	-0.046430297
231	0x3ca7869b	0.020449927
232	0xbcb7343e	-0.022363778
233	0xbbce7131	-0.0063001146
234	0x3d23f96a	0.04003278
235	0x3cf8f891	0.030391963
236	0x3c361397	0.011113069
237	0xbd87976c	-0.06620678
238	0xbd1c2474	-0.038120702
239	0x3c4854f1	0.012227283
240	0x3d1a2e0a	0.037641563
241	0x3c53bebe	0.012923894
242	0xbc9c16d3	-0.019053852
243	0xbcb8c59b	-0.022555163
244	0x3d20fa1f	0.039301034
245	0x3d1e565c	0.038656577
246	0xbc9cd7a4	-0.019145794
247	0x3d90a824	0.0706332
248	0x3dcc4703	0.09974482
249	0x3d728d08	0.05921653
250	0xbd039fc0	-0.03213477
251	0x3d33fa25	0.04393973
252	0x3b2e3223	0.0026580177
253	0x3d21f3b5	0.039539058
254	0x3ca8b34f	0.020593314
255	0xbb9e8efe	-0.0048388233

model.4.weight f4 [256, 256]
0	0x3e15daf9	0.14634313
1	0xbc077f0e	-0.008270038
2	0xbdb5f53d	-0.08884666
3	0x3c221fbb	0.00989526
4	0xbcf64502	-0.030062202
5	0xbd144b49	-0.03620461
6	0x3d0c2b02	0.034220703
7	0xbe1ff358	-0.15620172
8	0xbe167495	-0.1469291
9	0xbc7782eb	-0.015106897
10	0x3cfb916d	0.030708993
11	0xbd7766f7	-0.06040093
12	0xbdf8c62a	-0.12147172
13	0xbdb92041	-0.09039355
14	0x3b933c06	0.0044932393
15	0xbcf3d6d4	-0.029765524
16	0xbd50de3c	-0.05099319
17	0xbe79216e	-0.24329159
18	0xbc23788a	-0.009977469
19	0xbbc5e508	-0.0060392655
20	0x3d3aa0fc	0.045563683
21	0xbe3589d4	-0.17728359
22	0x3db40d60	0.087916136
23	0xbdb6619f	-0.089053385
24	0xbdb9714b	-0.09054812
25	0xbcf7ac3c	-0.030233495
26	0x3d83313e	0.064058766
27	0xbbf85623	-0.0075786277
28	0x3d1fac38	0.0389826
29	0x3cd40657	0.02588193
30	0xbd4f5c9d	-0.050625432
31	0x3d2bb066	0.041916274
32	0x3c2a6eb9	0.010402375
33	0xbc829c5c	-0.015943699
34	0x3e1445f4	0.1447981
35	0x3d6cffc9	0.057861123
36	0x3d0b46fb	0.03400324
37	0xbda63259	-0.08115072
38	0x3d4ecfb5	0.050491054
39	0x3d15f5ab	0.03661124
40	0xbd978819	-0.073990054
41	0xbce3423a	-0.02774154
42	0xba8a03e0	-0.0010529719
43	0xbb9a99cf	-0.0047180424
44	0x3c8800eb	0.016602
45	0xbd228b8e	-0.03968387
46	0x3d87cca4	0.06630829
47	0x3d00694d	0.031350423
48	0xbd1b4940	-0.037911654
49	0x3cc29339	0.023751842
50	0xbe8331a9	-0.25623825
51	0xbe4a80f2	-0.19775751
52	0xbd415b90	-0.04720646
53	0xbd6a35c5	-0.057180185
54	0x3d88be02	0.06676866
55	0xbe5a1d4e	-0.21300241
56	0x3c1e9639	0.009679371
57	0xbae0f619	-0.0017163187
58	0x3dc6d860	0.09709239
59	0x3d040658	0.032232612
60	0x3cce64ed	0.02519461
61	0xbd10c569	-0.035344515
62	0x3d1f1962	0.038842566
63	0xbecb2f2f	-0.39684436
64	0xbb44485e	-0.002995036
65	0x3dc77d30	0.097406745
66	0xbd9971d8	-0.07492417
67	0x3cf05e2c	0.02934178
68	0x3d9de41a	0.077095225
69	0xbc7a268d	-0.01526798
70	0x3d47c45c	0.048771247
71	0xbde6d009	-0.11270148
72	0x3d37e9ba	0.044900633
73	0xbd7d5ed5	-0.061858017
74	0xbdc1beaf	-0.09460198
75	0xbbd7345f	-0.0065675224
76	0xb97d6cbe	-0.0002416847
77	0x3c55b529	0.01304368
78	0x3cf575a9	0.029963331
79	0xbdb43b85	-0.08800415
80	0xbe1f5923	-0.15561347
81	0x3d43fcd8	0.047848552
82	0x3da7c83c	0.081924886
83	0x3d709e7f	0.058744904
84	0xbe857883	-0.26068506
85	0xbea1e227	-0.31617853
86	0x3d65ff64	0.056151763
87	0xbbd52fab	-0.0065059266
88	0xbe2aefbb	-0.16693012
89	0xbe6ffbe1	-0.23435928
90	0x3a9ec134	0.0012112022
91	0xbc0abd5b	-0.008467997
92	0xbd3d18a8	-0.046166092
93	0x3c82d12e	0.015968885
94	0xbcf1119c	-0.029427342
95	0xbd89c215	-0.06726471
96	0x3ceeeb08	0.029164806
97	0x3ccf62fe	0.025315758
98	0xbdcfe844	-0.10151723
99	0xbd90b2cb	-0.07065352
100	0x3d092802	0.03348542
101	0xbd643ab2	-0.05572004
102	0x3d33e621	0.04392064
103	0x3cd64290	0.026154786
104	0xbdc312c9	-0.09525067
105	0xbafd303e	-0.0019316745
106	0xbd848a0c	-0.06471643
107	0xbc70e49b	-0.014702941
108	0xbea8dff3	-0.3298336
109	0x3c71b9a1	0.01475373
110	0x3bbc54a5	0.005747395
111	0xbe06fe2b	-0.13182895
112	0xbe8c4fdd	-0.2740468
113	0x3ea3ddfb	0.32005295
114	0xbd9f0432	-0.07764472
115	0x3d2141e5	0.039369483
116	0x3d6a8830	0.057258785
117	0xbc237ea1	-0.009978921
118	0x3dbce0ce	0.092225656
119	0x3c1aa85e	0.009439556
120	0x3d742b51	0.059611622
121	0xbd06f9a1	-0.03295291
122	0xbd0800bd	-0.03320383
123	0x3a609792	0.00085675076
124	0x3d109ce1	0.03530586
125	0xbef74996	-0.4829833
126	0x3da0ec0c	0.07857522
127	0x3cb3bd33	0.021940803
128	0x3a9c9955	0.0011947552
129	0x3dbf0bfa	0.09328456
130	0x3cca1c31	0.024671646
131	0x3d7d4c2a	0.061840214
132	0x3d041b52	0.032252617
133	0x3e32691a	0.17422906
134	0x3d597a0e	0.053094916
135	0x3d848876	0.0647134
136	0x3dab325a	0.08359213
137	0x3d360c62	0.044445403
138	0xbe9dbd54	-0.30808508
139	0xbe64bc43	-0.22337441
140	0x3db922b5	0.09039823
141	0x3c7b2864	0.015329454
142	0x3deccee1	0.115628965
143	0xbb684644	-0.0035442272
144	0x3c42b94b	0.011884998
145	0x3d1faecb	0.038985055
146	0x3d373d83	0.044736397
147	0xbe214cc6	-0.15751943
148	0xbdca320d	-0.09872828
149	0xbc4b1ca1	-0.012396962
150	0x3e36f159	0.17865504
151	0x3d0cff2f	0.03442305
152	0x3d0c4e34	0.034254268
153	0xbc4c904a	-0.012485573
154	0x3d94abe4	0.07259348
155	0xbb81bcaa	-0.003959258
156	0xbd95673e	-0.072950825
157	0xbc284213	-0.01026966
158	0xbe766042	-0.24060157
159	0x3dc3a671	0.095532306
160	0x3d1068c3	0.03525616
161	0xbc305675	-0.0107628
162	0xbe296da4	-0.16545731
163	0xbda853bf	-0.08219098
164	0xbd88e917	-0.06685083
165	0x3c843bcc	0.016141795
166	0xbe9ecd83	-0.31016168
167	0x3df9434b	0.12171038
168	0x3dbda117	0.09259241
169	0x3d31d519	0.043416116
170	0x3de86ef1	0.113492854
171	0xbdaaef13	-0.08346381
172	0xbd2ed299	-0.04268131
173	0xbe2d1087	-0.16900836
174	0xbe101bd8	-0.14073122
175	0xbe21b4f8	-0.1579169
176	0xbcc339da	-0.023831297
177	0xbd969688	-0.0735293
178	0xbda001a3	-0.07812812
179	0x3c896bf6	0.016775113
180	0x3a5f9643	0.00085291656
181	0x3bc6a11e	0.006061687
182	0xbd6ab804	-0.057304397
183	0x3d656e47	0.05601337
184	0xbe21ae39	-0.15789117
185	0x3d547ec5	0.05187871
186	0xbd19fb2a	-0.037593044
187	0xbe01defd	-0.1268272
188	0xbd3fb0c5	-0.04679944
189	0xbdc02911	-0.09382833
190	0x3a3de3e1	0.00072437344
191	0xbe07d769	-0.13265766
192	0xbe542cb4	-0.20720178
193	0x3c1594b3	0.009129691
194	0xbd2b7acc	-0.041865155
195	0x3e48f877	0.19626032
196	0x3d8ec4a2	0.069710985
197	0xbe2f075c	-0.17092651
198	0x3db6f88c	0.08934125
199	0xba0e8638	-0.000543687
200	0xbd0825ab	-0.033239048
201	0x3e11a366	0.14222488
202	0xbce5d124	-0.028053828
203	0xbdb14fc4	-0.08657792
204	0x3e2a18c4	0.1661101
205	0xbe0fd600	-0.14046478
206	0x3c4e75f9	0.012601369
207	0x3c63bce9	0.01390002
208	0xbd6f5567	-0.058431055
209	0xbd5a1051	-0.053238217
210	0xbd07f1d0	-0.033189595
211	0xbe697196	-0.22797236
212	0x3bc8ab8e	0.0061239665
213	0x3dd2d8b4	0.10295239
214	0xbda3af85	-0.07992462
215	0xbd4f6f8c	-0.05064349
216	0xbd4c9db2	-0.049955077
217	0x3be8fa7a	0.0071099373
218	0xbd2567e3	-0.040382277
219	0xbacda3f8	-0.0015689125
220	0xbc051c0e	-0.008124365
221	0xbe366d5f	-0.1781516
222	0x3d1bb9c1	0.038018946
223	0x3d355d09	0.04427818
224	0xbe70ef57	-0.23528801
225	0xbe2f5936	-0.17123875
226	0x3e165267	0.14679871
227	0x3d527e52	0.05139
228	0xbcb99e8a	-0.022658605
229	0xbe04dd09	-0.12974943
230	0xbd83fafa	-0.06444354
231	0xbeb750f5	-0.35803953
232	0xbe1bae71	-0.15203263
233	0x3d0adfa1	0.033904675
234	0xbb64db9c	-0.0034920936
235	0x3d09291f	0.03348648
236	0xbdc50753	-0.096205376
237	0x3e1e8bc1	0.15483
238	0xbd9c3ddf	-0.076289885
239	0xbd4e781a	-0.050407507
240	0x3d6bb7f9	0.057548497
241	0xbe07d5be	-0.1326513
242	0x3e574744	0.2102328
243	0xbdc36865	-0.09541396
244	0x3d454e0c	0.048170134
245	0x3c85ee34	0.016348936
246	0xbe056210	-0.13025689
247	0xbc9c9034	-0.01911173
248	0x3d14f564	0.036366835
249	0x3e4d0c3e	0.20024201
250	0x3cb80007	0.02246095
251	0xbd174465	-0.03693046
252	0xbd21e38a	-0.03952364
253	0x3cf7aaad	0.030232752
254	0x3cabece6	0.020986985
255	0x3d8898e1	0.06669784

model.4.bias f4 [256]
0	0x3da9e2eb	0.08295234
1	0xbd7b7996	-0.06139525
2	0x3d67cd16	0.05659207
3	0x3c96d3a1	0.01841146
4	0x3a3e6d47	0.00072642084
5	0x3d4cdc05	0.050014514
6	0xbd87e257	-0.06634968
7	0x3d8b9f5f	0.06817507
8	0x3d776424	0.060398236
9	0x3d8b8d4a	0.06814058
10	0xbc405c55	-0.011740764
11	0x3d4ccdbf	0.050000902
12	0xbbd1214b	-0.0063821427
13	0xbce00f60	-0.027351081
14	0x3ca131f2	0.019677136
15	0x3d872da4	0.06600502
16	0xbd947db4	-0.072505385
17	0x3da0758a	0.07834919
18	0x3d2bfa92	0.04198701
19	0x3bec9f58	0.0072211437
20	0xbaabfcff	-0.0013121663
21	0x3d698821	0.05701459
22	0xbc596cd5	-0.0132705765
23	0x3d20d01a	0.03926096
24	0x3cee705b	0.02910631
25	0x3c835902	0.016033653
26	0x3d72be03	0.05926324
27	0x3daca12c	0.084291786
28	0x3cdbf98e	0.026852395
29	0x3d9b0efb	0.07571217
30	0x3b8c7cfd	0.0042873607
31	0xbcfc2031	-0.030777069
32	0x3d52a29f	0.05142462
33	0x3d719713	0.058981966
34	0x3b2f8ca7	0.0026786716
35	0xbc4da8eb	-0.01255248
36	0x3d7d1e37	0.061796393
37	0xbd7a1150	-0.061051667
38	0xbcaadccd	-0.02085724
39	0x3d928344	0.07153943
40	0xbc011573	-0.007878649
41	0x3d89d278	0.06729597
42	0x3ccfce38	0.025366887
43	0x3ccb4d7d	0.024817223
44	0xbc2584ff	-0.0101025095
45	0xbbbee04f	-0.0058250795
46	0xbd0cbc48	-0.034359246
47	0xbd4cb404	-0.049976364
48	0xbc8bf8c6	-0.017086398
49	0x3d6f3405	0.05839922
50	0x3d86cf8b	0.065825544
51	0x3c1e0929	0.009645739
52	0xbc01ee11	-0.007930295
53	0xbe007e65	-0.12548216
54	0xbc45fe22	-0.012084516
55	0x3b822705	0.0039719366
56	0x3d448cc3	0.047985803
57	0x3dd6e61b	0.10493108
58	0xba6eb5d2	-0.0009106073
59	0x3c7559e6	0.014975047
60	0x3c4fb7be	0.012678085
61	0x3c9dc387	0.019258274
62	0x3cf18386	0.02948166
63	0x3d33a3cc	0.04385738
64	0x3d83745e	0.0641868
65	0xbcfbb636	-0.030726533
66	0x3d53dbcc	0.051723287
67	0xbcf17f46	-0.029479634
68	0xbd07e701	-0.033179287
69	0x3d958ebe	0.073026165
70	0xba12a75e	-0.00055943977
71	0xbd841dd0	-0.06450999
72	0xbcc0a0a8	-0.023514107
73	0xb9d2169a	-0.0004007116
74	0x3dc7e58b	0.09760579
75	0x3d9f0525	0.07764653
76	0xbcfa0992	-0.030522142
77	0xbce2bce8	-0.027677968
78	0x3d243a6f	0.04009479
79	0x3dcafef5	0.099119104
80	0x3db7358b	0.089457594
81	0x3d28c2fc	0.041201577
82	0x3d4b50ef	0.04963773
83	0x3d2e9442	0.04262186
84	0xbbe5fba8	-0.007018525
85	0x3d9c2b80	0.076254845
86	0x3d7b8efe	0.061415665
87	0x3d28ef82	0.041244037
88	0x3d392d91	0.04520947
89	0x3d9ab6e8	0.07554418
90	0xbd9371ae	-0.07199417
91	0xbcd34d7b	-0.025793782
92	0x3d885901	0.06657601
93	0x3d419082	0.047256954
94	0xbdcc6214	-0.099796444
95	0xbd242a3c	-0.04007934
96	0x3d2db2aa	0.042406715
97	0x3d32fb0f	0.04369646
98	0x3d020673	0.03174443
99	0x3d19e424	0.037571087
100	0x3d828a3a	0.06374021
101	0xbd3842bd	-0.04498552
102	0x3ce0c93e	0.02743971
103	0xbcf2a46c	-0.029619418
104	0xbb4ab9bc	-0.003093346
105	0x3db43e82	0.08800985
106	0x3d503ed7	0.05084118
107	0x3d2a914e	0.04164248
108	0x3dc53f68	0.096312344
109	0x3ce32bca	0.027730841
110	0xba8c49ae	-0.0010703111
111	0x3c0ad11e	0.008472709
112	0x3cbcb2b5	0.023034433
113	0x3ac53235	0.001504487
114	0x3b2bbb48	0.0026204158
115	0xbc23a93d	-0.00998908
116	0xbcf63ce3	-0.03005833
117	0x3d6dfa65	0.058100123
118	0xbd95eeaf	-0.07320916
119	0x3caa1932	0.020763967
120	0xbdbb38b9	-0.09141678
121	0xbc3d43f1	-0.011551843
122	0xbc7ea091	-0.015541212
123	0x3dc40ff7	0.095733576
124	0x3c72d12e	0.01482038
125	0x3d1357fa	0.035972573
126	0xbd20bba1	-0.039241437
127	0xbd077d65	-0.03307857
128	0xbda615b9	-0.08109612
129	0xbb0e209e	-0.0021686922
130	0xbd7f342e	-0.06230562
131	0x3d640ab2	0.055674262
132	0x3d486fb8	0.04893467
133	0x3a9e7d6c	0.0012091822
134	0xbdc82602	-0.097728744
135	0xbd7e85bd	-0.06213926
136	0xbce74eaf	-0.028235761
137	0x3c4c78b9	0.012479954
138	0x3cf7d637	0.030253513
139	0xbd726efa	-0.059187867
140	0xbda463ba	-0.08026834
141	0xbc913147	-0.017723693
142	0x3da5f161	0.0810268
143	0x3d502a6d	0.05082171
144	0xbcd7c6f3	-0.026339984
145	0x3d876fb7	0.06613105
146	0x3ce2a4d2	0.027666483
147	0xbd8a81ec	-0.06763062
148	0x3bf69951	0.007525601
149	0xbd8bdf73	-0.06829729
150	0xbcca8599	-0.024721907
151	0x3d0f4cbd	0.034985293
152	0xbd88c111	-0.066774495
153	0x3d028c4f	0.03187209
154	0xbd2b6a19	-0.04184923
155	0xbd68175e	-0.05666291
156	0xbd183474	-0.0371594
157	0xbcf02e56	-0.02931897
158	0x3c4012bb	0.011723216
159	0x3c0052da	0.007832253
160	0x3d64981f	0.055809136
161	0x3cd9f4d3	0.026606
162	0x3d66d439	0.056354735
163	0xbd27543a	-0.04085181
164	0x3b937044	0.004499467
165	0xbd2ba0af	-0.041901287
166	0xbbf9b2a5	-0.007620173
167	0x3c1b1797	0.0094660735
168	0x3da18896	0.0788738
169	0x3d83dcfb	0.06438633
170	0x3d6d7de4	0.057981387
171	0x3d8922c6	0.06696086
172	0x3d546472	0.051853605
173	0x3d24cb17	0.040232744
174	0xbda4e803	-0.08052065
175	0xbd9624c6	-0.07331233
176	0xbd7f55bb	-0.06233762
177	0x3dd692e7	0.10477238
178	0xbc837419	-0.01604657
179	0x3d92d64e	0.071697816
180	0xbccca9d0	-0.024983317
181	0x3d4ab0b0	0.04948491
182	0xbc836d91	-0.016043456
183	0x3d9feca5	0.07808808
184	0xbc5bd584	-0.013417605
185	0xbc4c3e89	-0.012466081
186	0x3d04298b	0.03226618
187	0xbd5eb94d	-0.054375935
188	0x3d92e272	0.07172097
189	0x3c8aa1cc	0.016922854
190	0xbc46c200	-0.012131214
191	0x3da243ff	0.079231255
192	0x3d037483	0.032093536
193	0x3b32df34	0.0027293684
194	0x3d827ea2	0.063718095
195	0x3d5c8818	0.053840727
196	0x3d5c98d0	0.05385667
197	0x3d69c58e	0.05707317
198	0xbd407d96	-0.046994768
199	0x3d47c4f5	0.048771817
200	0xbd3f53cd	-0.046710778
201	0x3d053037	0.032516684
202	0x3babd840	0.005244285
203	0x3d387692	0.045034952
204	0x3d0da494	0.034580782
205	0xbd923da0	-0.0714066
206	0xbd55151e	-0.052022092
207	0xbd1a457a	-0.037663914
208	0x3dbdaa54	0.09261003
209	0xbc28d22d	-0.010304016
210	0xbcb04864	-0.021518894
211	0xbc900748	-0.017581597
212	0x3d086f68	0.03330937
213	0x3d1a9b74	0.037745908
214	0xbd33646c	-0.04379694
215	0xbce73b40	-0.028226495
216	0xbca9dc21	-0.020734848
217	0x3cc497ba	0.02399813
218	0x3c8d552d	0.017252529
219	0x3c27a63c	0.010232504
220	0x3d8bd3b9	0.06827492
221	0x3d13d240	0.036089182
222	0xbd45401f	-0.048156854
223	0x3d02c9b2	0.031930633
224	0x3d8c13ca	0.06839712
225	0xbdaec0cd	-0.085328676
226	0xbc2f8d00	-0.010714769
227	0x3d8302e5	0.063970365
228	0xbc15443f	-0.009110509
229	0xbdaa9715	-0.08329598
230	0x3d94b2d5	0.07260672
231	0x3dd2f728	0.103010476
232	0x3d4109de	0.04712855
233	0x3d4a62d3	0.049410652
234	0xbcd33a89	-0.025784748
235	0x3c2f3c93	0.010695594
236	0xbd11b30f	-0.035571154
237	0x3e083c19	0.13304175
238	0xbcab673e	-0.020923253
239	0x3c9e8454	0.019350208
240	0x3c896d65	0.016775796
241	0xbd90759e	-0.07053684
242	0xbd269426	-0.04066863
243	0x3d0bee24	0.034162655
244	0x3d754d74	0.05988832
245	0x3caeb8e4	0.021328397
246	0xbd390dcc	-0.045179173
247	0xbcad1ad3	-0.021130955
248	0xbd361c4f	-0.04446059
249	0x3bdcf0f9	0.0067425934
250	0x3ccb9e0e	0.02485564
251	0xbda774dd	-0.08176587
252	0xbc4d670f	-0.012536778
253	0xbcdc303e	-0.026878472
254	0xbbe3f9a5	-0.00695725
255	0x3a9b23ef	0.001183627

model.6.weight f4 [16, 256]
0	0xbe6311a8	-0.22174704
1	0x3d18966c	0.03725283
2	0xbd6cc29b	-0.057802778
3	0xbe6aca44	-0.2292872
4	0xbe9313ad	-0.2872595
5	0x3cb4fc2c	0.022092901
6	0x3df6e9b2	0.120562926
7	0x3f04b57f	0.5183944
8	0xbae1565e	-0.0017191877
9	0x3ba41c9d	0.005008294
10	0xbc58f9c5	-0.013243143
11	0xbd2d6bf7	-0.04233929
12	0xbda81909	-0.082079
13	0x3cfb6fd1	0.030692967
14	0xbf2c4849	-0.672978
15	0x3de762c2	0.112981334
16	0xbcd32c57	-0.025777979
17	0xbe39aaab	-0.18131511
18	0xbe83f2cb	-0.25771174
19	0x3d210e07	0.03932002
20	0x3de50cbc	0.111840695
21	0xbe10dcbe	-0.14146706
22	0xbf3ee3a6	-0.74566114
23	0x3e3b9797	0.18319546
24	0x3cc19d9e	0.023634728
25	0xbce981b5	-0.028504232
26	0x3dc0197a	0.09379859
27	0xbccb5c3c	-0.024824254
28	0xbd1d0f23	-0.038344514
29	0xbd4622a7	-0.04837289
30	0xbdacbbb5	-0.0843424
31	0xbda1114b	-0.078646265
32	0x3e25ca87	0.1619054
33	0x3d4c4c63	0.049877536
34	0x3e0b9e4d	0.13634606
35	0x3e6ff5fa	0.23433676
36	0x3dc32398	0.09528273
37	0x3e2e23f2	0.170059
38	0xbd4ac4be	-0.049504034
39	0xbe078ba5	-0.13236864
40	0x3da95db1	0.08269823
41	0xbd1edc55	-0.038784344
42	0xbe4b43dd	-0.19850107
43	0x3e063352	0.13105515
44	0xbcbcb6ba	-0.02303635
45	0x3daf31fa	0.08554454
46	0x3b2d4757	0.0026440227
47	0x3d35257b	0.044225197
48	0xbd9073b5	-0.07053319
49	0x3d57efc0	0.052718878
50	0x3d382524	0.044957295
51	0x3caa7ec7	0.020812405
52	0xbd94f2e3	-0.072728895
53	0x3e3c5f45	0.18395717
54	0x3e306452	0.17225769
55	0x3dc443e3	0.09583261
56	0xbf5440cf	-0.8291139
57	0xbd99355c	-0.074808806
58	0xbd66299e	-0.056192033
59	0x3f5e491a	0.86830294
60	0xbd4d21f7	-0.05008122
61	0x3cbc0dca	0.022955794
62	0xbe62c3dd	-0.22145028
63	0xbcef336c	-0.029199325
64	0x3ddcdcd9	0.10784311
65	0xbf3f0a29	-0.7462488
66	0x3e649bc6	0.22325048
67	0x3d9bd1ea	0.07608397
68	0xbe7169fc	-0.23575586
69	0x3d89d8a7	0.06730776
70	0xbd44cdf5	-0.04804798
71	0x3f20806a	0.62695944
72	0xbdcc5ddf	-0.09978842
73	0x3958f1de	0.00020689468
74	0x3e9f4df2	0.31114155
75	0x3c987a38	0.018612966
76	0x3c7ec80d	0.0155506255
77	0x3dd455a5	0.10367898
78	0x3d55a080	0.052155018
79	0x3f59bd98	0.8505492
80	0x3f1ffdd8	0.6249671
81	0x3d8f861f	0.070080034
82	0x3de3d76a	0.11125071
83	0xbd0d0423	-0.034427773
84	0x3e4fa5af	0.20278047
85	0xbe7e8f1a	-0.24859276
86	0xbec0313e	-0.3753757
87	0xbdf50f9f	-0.1196587
88	0x3da92c99	0.082604595
89	0xbd914dfc	-0.070949525
90	0x3d11539c	0.035480127
91	0xbdf829d1	-0.12117351
92	0xbcbe41c7	-0.023224724
93	0xbe0b9943	-0.13632683
94	0x3c4c55c3	0.012471619
95	0xbf4b0f80	-0.79320526
96	0xbd16f300	-0.036852837
97	0x3ce2582f	0.02762994
98	0x3c645a75	0.013937582
99	0x3d2dc78f	0.042426642
100	0x3cb52d44	0.02211631
101	0x3c1ea866	0.009683704
102	0xbdc9ad03	-0.098474525
103	0xbce32ba2	-0.027730767
104	0xbecf4d09	-0.4048846
105	0xbe64ace9	-0.22331585
106	0x3e351d48	0.17686951
107	0x3d20fd1e	0.03930389
108	0x3db6b4cf	0.08921205
109	0x3d11a4e9	0.03555766
110	0xbc9078ab	-0.017635664
111	0xbe610c43	-0.21977334
112	0x3d1c2fb2	0.038131423
113	0x3d5f6194	0.054536417
114	0xbdb56953	-0.088579796
115	0x3d937572	0.07200135
116	0xbdb449a8	-0.08803111
117	0x3d5fe387	0.054660346
118	0xbd2a778b	-0.04161791
119	0xbe170dc0	-0.14751339
120	0x3daafed3	0.08349385
121	0xbfe7b7bf	-1.810295
122	0xbeef0291	-0.46681646
123	0xbde97327	-0.11398917
124	0xbef32daf	-0.4749579
125	0xbde7c3e2	-0.113166586
126	0x3e0c6e79	0.13714017
127	0xbd167bc4	-0.036739126
128	0xbbd744c0	-0.006569475
129	0x3f00306c	0.50073886
130	0xbd166514	-0.03671749
131	0xbd61fedd	-0.055174697
132	0x3d135d26	0.035977505
133	0xbdec79a7	-0.11546641
134	0x3cf36d5b	0.02971523
135	0x3cc2487e	0.023716208
136	0x3ccf1f26	0.025283407
137	0x3dd138d4	0.10215917
138	0x3e2a0c82	0.16606334
139	0x3d2d9f92	0.042388506
140	0x3d4d66b9	0.050146792
141	0xbdc6e8bd	-0.0971236
142	0x3f0e90d1	0.5568972
143	0x3f46a00a	0.7758795
144	0xbcac0fb5	-0.021003583
145	0xbdb14f53	-0.08657708
146	0xbfa816e2	-1.3131983
147	0xbdffed20	-0.124964
148	0xbda1ef62	-0.07906987
149	0xbe7a1b61	-0.24424507
150	0xbe8849e9	-0.2661889
151	0xbf017739	-0.50572544
152	0xbd89a27f	-0.06720447
153	0xbe8fb8c8	-0.28070664
154	0xbd3cf6a8	-0.046133667
155	0xbe04897b	-0.1294307
156	0x3db04860	0.086075544
157	0xbd870136	-0.06592028
158	0xbe9d30b6	-0.30701226
159	0xbeb5fa45	-0.35542503
160	0xbe6e564e	-0.2327511
161	0x3d9d530e	0.07681857
162	0xbbbef8ce	-0.0058279997
163	0xbcf1abb1	-0.029500814
164	0x3ccc9ef0	0.024978131
165	0xbc11daea	-0.008902291
166	0x3c99d620	0.01877886
167	0x3ddd2dbf	0.10799741
168	0xbe40ade4	-0.18816334
169	0x3ce45ace	0.02787533
170	0xbe6eafc3	-0.23309235
171	0xbd31e006	-0.043426536
172	0x3e3aa900	0.18228531
173	0xbe169eee	-0.14709064
174	0xbe0176de	-0.12643
175	0x3d4bbfd2	0.04974348
176	0xbbcceb49	-0.006253634
177	0xbd715099	-0.058914755
178	0x3bfd60e7	0.007732499
179	0xbd7b8e72	-0.061415143
180	0xbe711777	-0.23544107
181	0xbefa0a9c	-0.4883622
182	0xbc868ac7	-0.016423596
183	0xbe126790	-0.14297318
184	0xbec31ace	-0.38106388
185	0xbe0a92c0	-0.13532543
186	0x3cac79ec	0.02105423
187	0xbca8d2bd	-0.0206083
188	0x3e102be3	0.14079241
189	0xbd9a1b55	-0.075247444
190	0xbb39a14d	-0.0028324903
191	0xbe669aa3	-0.22519927
192	0x3f7cd350	0.9875994
193	0xbdb4976f	-0.08817946
194	0x3cb4d30f	0.022073297
195	0x3d7d3053	0.061813664
196	0xbd313c29	-0.043270264
197	0xbc6f1b6c	-0.01459394
198	0x3d3fbdb7	0.046811786
199	0xbe062370	-0.13099456
200	0xbbaedd54	-0.005336443
201	0xbdb343b6	-0.08753149
202	0xbf2259ca	-0.6341826
203	0xbd9cc3af	-0.07654511
204	0xbe49c2a0	-0.1970315
205	0xbd5d904f	-0.0540927
206	0xbef365f0	-0.4753871
207	0xbeb0bd3b	-0.3451937
208	0xbd8fb16f	-0.07016265
209	0x3c0b7b60	0.008513302
210	0xbd79c9b6	-0.060983382
211	0x3c63497c	0.0138725005
212	0xbd7576bc	-0.059927687
213	0x3d51a3a8	0.051181465
214	0x3dca7950	0.0988642
215	0x3ddf321f	0.10898232
216	0xbf081875	-0.5316232
217	0xbdea5470	-0.114418864
218	0x3d2afe73	0.041746568
219	0xbd81db96	-0.06340711
220	0xbf342c86	-0.7038044
221	0x3adca321	0.0016833284
222	0xbd1700c0	-0.03686595
223	0x3dbe53ee	0.09293352
224	0x3c85f4c0	0.016352057
225	0xbd2714af	-0.04079121
226	0x3e839c62	0.25705248
227	0x3c5d4f9d	0.013507751
228	0x3d1f8e8c	0.038954303
229	0xbd601f12	-0.05471713
230	0xbe25108d	-0.16119595
231	0x3e7fe754	0.24990588
232	0x3d8cb74d	0.06870899
233	0x3c4048d4	0.011736114
234	0xbdd433ad	-0.10361419
235	0xbcf89520	-0.030344546
236	0xbdd98284	-0.10620597
237	0xbca11f83	-0.019668346
238	0x3b2e5991	0.0026603679
239	0x3cdccc2d	0.026952827
240	0xbe3ef215	-0.18647034
241	0xbc51ad3c	-0.01279765
242	0xbcd7d90d	-0.026348615
243	0xbd394a1b	-0.045236688
244	0x3f20ae48	0.6276593
245	0x3c2d0c2a	0.010561982
246	0x3cb2d730	0.021831125
247	0xbe11b51f	-0.14229248
248	0x3c8eec75	0.017446736
249	0x3cf9cc18	0.030492827
250	0x3b8368f0	0.0040103123
251	0x3d9ca149	0.0764795
252	0x3c86880e	0.016422298
253	0x3c4b14a7	0.012395061
254	0xbd8d099f	-0.06886601
255	0xbea72c89	-0.32651165

model.6.bias f4 [16]
0	0x3cb8ff8b	0.02258279
1	0xbd2a90ea	-0.041642107
2	0xbd258c2e	-0.04041689
3	0x3d5cc389	0.053897414
4	0x3c1a8741	0.009431661
5	0xbd738ecb	-0.05946235
6	0x3df93864	0.12168959
7	0xbbc4f7a6	-0.0060109673
8	0x3bd4391f	0.006476536
9	0xbda45276	-0.08023541
10	0xbc51163c	-0.012761649
11	0xbd82153e	-0.06351708
12	0xbda4bf7f	-0.080443375
13	0x3c43ba43	0.011946264
14	0xbd237b21	-0.039912347
15	0xbd083a8c	-0.03325896
