data/checkpoints/rlgym-ppo-run-1760799561315875500/836223978/PPO_POLICY.pt (torch, 638775 bytes, 8 tensors)

model.0.weight f4 [256, 89]
000000 de 0a e9 be 5b 6a 4b 3e a4 29 a9 be aa 6b 16 bb
       -0.45516104 0.1986479 -0.33039582 -0.0022952356
000010 57 cf 3b 3c 77 25 e0 bd bb 31 b9 3c 62 72 59 3c
       0.011463008 -0.10944646 0.022606721 0.0132719
000020 a0 32 b3 bc d9 bc 87 3d c6 04 a4 bc 20 6a 96 bc
       -0.021874726 0.06627817 -0.020021807 -0.018361151
000030 da 0d 05 bd b3 bf 7a bc f0 16 4f bd 35 be c1 3c
       -0.032483913 -0.015304494 -0.050558984 0.023650268
000040 6a 7d 38 bc a5 60 36 3d 96 a2 27 bd fb b9 bb 3c
       -0.01126037 0.04452576 -0.04092654 0.02291583
000050 2a 04 89 3d 28 df 12 3c cf af 4a 3c 47 b9 b5 3d
       0.06690247 0.008964337 0.012371018 0.088732295
000060 82 33 8a bd 96 c0 a3 3c fc ac 7a bd 0d 2b a1 3d
       -0.067481056 0.019989293 -0.061200127 0.078695394
000070 14 19 ae 3d 7f fe d7 bd 4b 9f b2 3d ae bf e8 3c
       0.08500877 -0.10546588 0.08721789 0.028411712
000080 74 0a 01 3d 1b 6c e5 3c 73 cf 93 3d f0 0a 05 bd
       0.03150411 0.02800565 0.07217302 -0.032481134
000090 05 c5 d9 bd 65 a6 fc 3b 9d f2 ac bd 0f 30 c1 ba
       -0.106332816 0.0077102655 -0.08444712 -0.0014739054
0000a0 83 ca 80 bc f4 9e 87 bd 8b ea 91 bc f4 18 a4 3d
       -0.015721565 -0.06622115 -0.017812034 0.08012572
0000b0 da 1a 95 bc fe 9b 94 bb e9 0e bf bc b7 ca 17 3a
       -0.01820128 -0.0045351973 -0.02332254 0.00057904
0000c0 b9 71 ae 3d 50 22 37 3d ee 73 97 ba 4a aa 83 3e
       0.085177846 0.044710457 -0.0011554935 0.25715858
0000d0 47 92 59 bd c6 0d 4a 3f 1b b1 03 be 2b 96 ff bd
       -0.053118017 0.78927267 -0.12860529 -0.12479814
0000e0 f4 be b9 be 17 5c 88 be d3 83 95 3e 8d 1f 77 bd
       -0.36278498 -0.2663276 0.29202136 -0.060332824
0000f0 d5 b3 84 be 8b cc ab 3d ed 05 dc 3e 99 d5 3a bf
       -0.2591845 0.08388623 0.4297327 -0.72982174
000100 75 35 32 be 11 14 01 be a8 82 73 be 51 de 20 bd
       -0.17403205 -0.12605311 -0.2378031 -0.039274517
000110 04 e5 3c 3c 50 de 0c 3e 5d 5a 36 3e c9 88 9e 3d
       0.011529211 0.1375668 0.17807908 0.077409334
000120 db b5 e9 bd ed 7f f8 bb db da 07 3d 4a 12 87 3b
       -0.11411639 -0.0075836093 0.0331677 0.0041220533
000130 b5 2b f5 bb 29 fb 49 3d b5 7d 4c bb b0 29 65 bd
       -0.007482017 0.04931179 -0.0031202857 -0.05594796
000140 30 9e e2 3b 85 6e 9d be a7 dd 76 3c 93 85 19 3d
       0.00691583 -0.30748382 0.0150674945 0.037480902
000150 28 ed 18 bd db ca 4e bb ea 11 db bc 58 bd 75 3d
       -0.037335545 -0.0031554017 -0.02674194 0.059995025
000160 8b e6 10 3e 98 27 8b bd a8 bc 73 be c2 14 88 3d
       0.14150445 -0.06794661 -0.23802435 0.06644584
000170 27 c6 36 be 97 e1 c6 be 06 44 8b bd 7f 86 8f bd
       -0.17849027 -0.38843986 -0.06800084 -0.07008075
000180 a4 d4 81 3e 28 32 3f 3e 4d ec c0 3d 23 ac 14 bd
       0.25357544 0.18671477 0.09420071 -0.036296975
000190 85 c1 6e 3b d8 78 11 bd 15 a7 52 3c cc 5a 11 bd
       0.0036431265 -0.035515636 0.012857218 -0.03548698
0001a0 ce e9 d8 bc ad 9c 93 3a f7 1b 0d bd f3 78 a6 3d
       -0.026478674 0.0011261903 -0.034450497 0.08128538
0001b0 c4 7a 2b 3d 30 fe be bc 99 53 75 3d d6 24 91 bd
       0.041865125 -0.023314565 0.059894178 -0.07087104
0001c0 2f 84 19 3d 94 c9 80 bd c4 0c ec bc 08 8d 57 bb
       0.037479576 -0.06288448 -0.02881468 -0.0032890458
0001d0 00 a3 2a bd 9d 05 80 bc 2e d7 a3 3c 93 3e 40 3d
       -0.041659355 -0.015627677 0.020000067 0.046934675
0001e0 55 18 38 bd 8d 7f 06 3d f3 ed c5 3d b5 d3 85 bd
       -0.04494508 0.032836486 0.09664526 -0.065345205
0001f0 f3 18 af 3d a6 b4 93 bd a1 7c 1f 3d 40 e8 15 3d
       0.085496806 -0.0721219 0.038937215 0.036598444
000200 fd c9 89 bc c8 4d f1 3d 24 3f 6d bd 2e f9 34 3c
       -0.016819948 0.11782414 -0.057921544 0.011045737
000210 ae d2 bb bd 24 c4 c1 bd 90 2b f5 bc 7e 71 ca bd
       -0.09171043 -0.09461239 -0.029927999 -0.09884928
000220 ad 0c ee 3c 89 32 e7 bb 2e e0 68 39 98 b8 b2 bd
       0.029058779 -0.007055585 0.00022208758 -0.08726615
000230 ef 58 a6 be c6 09 13 bd c2 36 49 3e 55 89 5f 3e
       -0.32489726 -0.035897993 0.19649795 0.21829732
000240 96 19 f9 3d 2d a1 6f 3e fe e8 f8 bd 17 76 59 3d
       0.12163083 0.23401327 -0.12153815 0.053091135
000250 35 c8 c0 3c 4e d0 71 3e 31 88 1b be 3a bd 88 3e
       0.023532966 0.23614618 -0.15188672 0.26706868
000260 90 15 5d 3e 98 64 63 3d de d4 42 3e 3c c2 0b 3f
       0.21590257 0.055515856 0.19026515 0.54593253
000270 7d 34 b4 3c 00 0d ec 3d c1 55 ad bc 2b 52 7a 3e
       0.021997685 0.11525917 -0.021159055 0.24445407
000280 f2 07 63 3e 5c dc 33 3e e9 d7 cb bd b6 91 34 3d
       0.22171 0.17564529 -0.09953291 0.044084273
000290 1a c0 a7 3d 72 b2 1a bd be b8 ab bb 36 d2 35 3d
       0.08190937 -0.037767835 -0.005240529 0.044389926
0002a0 da 68 56 3e e1 1b b4 3d 1c 64 cc 3d 71 93 fc bb
       0.20938435 0.0879438 0.09980032 -0.007708006
0002b0 d2 01 98 bb f5 7c 9e bc 51 01 12 bd ac 8f 94 bd
       -0.004638889 -0.019346694 -0.035645787 -0.07253966
0002c0 96 32 f1 bc 71 df 61 bd 34 ce 4d bd 62 8f a4 3e
       -0.029443067 -0.05514473 -0.05024548 0.32140642
0002d0 4f 39 01 bc 22 a5 53 3e e5 73 9d 3d 04 35 d0 3d
       -0.007887199 0.20668462 0.07688121 0.10166362
0002e0 7c 65 d6 3c e1 79 f8 3d e4 b9 ff bd 8c 9f 42 3d
       0.026171438 0.121326216 -0.12486628 0.047515437
0002f0 5b 23 ca 3d ce 4a 3a 3c dd b3 44 bd 58 90 36 bc
       0.09870025 0.011370374 -0.048023093 -0.011142813
000300 f7 59 1f be 95 e8 3c 3d 06 a6 31 bc 8f e8 5e bd
       -0.15561663 0.046120245 -0.010842806 -0.054421004
000310 bd 28 26 3d 16 b8 6c bd f1 b5 cd 3d c4 a2 1a 3d
       0.040566195 -0.057792746 0.10044468 0.03775288
000320 62 b3 b7 bc 4b 1f 9b 3c b3 9e 07 3d 5b 6e cf bc
       -0.022424404 0.01893582 0.03311033 -0.025321176
000330 80 19 94 bd d1 0c 1f 3c aa da ee 3c 51 fb 17 3c
       -0.07231426 0.0097076455 0.029157002 0.009276227
000340 84 39 0e bd 95 c0 95 3d 15 29 93 bc c2 40 74 bc
       -0.03472282 0.07312123 -0.017963925 -0.014908018
000350 1a 29 15 3d 53 eb 5c bd 02 1b 24 3d c1 0b ff bc
       0.03641615 -0.05393536 0.04006482 -0.031133534
000360 b9 99 87 3d 9d 3c 30 bd af ed aa 3c 62 bf 9e 3c
       0.06621117 -0.043026555 0.02086529 0.019378368
000370 64 03 95 bd 02 e0 64 bd 8c c2 5f 3d e8 81 87 bc
       -0.07276037 -0.055877693 0.054628894 -0.016541436
000380 1a f1 97 3d c2 54 bd bd 46 3a 22 bd ce 2a 94 bd
       0.07419033 -0.09244682 -0.039606355 -0.07234727
000390 57 31 1d 3d 9c 9e 07 be b0 5c 08 be e9 30 90 be
       0.038377132 -0.13244098 -0.13316607 -0.28162315
0003a0 ca 53 3a be c6 9a 30 bd 13 64 8b 3e f7 7d 41 3e
       -0.18196025 -0.043116353 0.27224788 0.18895708
0003b0 be 38 d1 be 7b c9 32 3d 80 f9 1c 3d fd e1 09 3e
       -0.40863603 0.043649178 0.03832388 0.13465114
0003c0 18 2f 16 bf 5f 8b c8 bd 82 ad 06 bf 6d 86 ce 3c
       -0.5866561 -0.09792208 -0.526085 0.025210584
0003d0 e3 61 51 3e 05 40 33 3e 10 8d 80 bd 03 bf b1 3d
       0.20447497 0.1750489 -0.062769055 0.08679011
0003e0 32 b0 22 3d c1 f3 8b bc f2 b1 0c 3d 64 c3 6b bd
       0.039718814 -0.017084004 0.03434939 -0.057559386
0003f0 1e b8 3a 3d a8 63 07 bc f1 0e 4f bd 2a 57 36 3b
       0.045585744 -0.008263506 -0.05055136 0.002782295

model.0.bias f4 [256]
000000 4b 88 3a bd 3c 0f 8a 3c 32 f6 05 bd ba 20 36 bc
       -0.045540135 0.016852967 -0.032705493 -0.011116201
000010 0c c7 81 bd c0 e7 31 bd 9b 37 84 3d c2 59 ba bd
       -0.06336793 -0.043433905 0.064559184 -0.09099151
000020 54 bc 18 3d 07 3a db 3b 6f cc 3b 3d 9c d2 9c 3c
       0.03728898 0.006690267 0.04584926 0.019143395
000030 5f 3d f2 3c 0d 9f 43 3c 4a fc cc 3d 07 70 87 3d
       0.02957028 0.011939776 0.10009058 0.066131644
000040 82 d7 5b 3d 5d c5 06 3d 04 b5 72 3d b3 24 c8 3d
       0.05367232 0.032903064 0.05925466 0.09772625
000050 ea cc e3 3c 12 0f 13 3c ec c4 13 bd 68 fa 34 3b
       0.027807672 0.008975761 -0.03607647 0.0027615074
000060 c1 c3 39 3d 5d 65 ea bd b7 49 d1 bd a2 33 bc 3d
       0.0453527 -0.11445115 -0.10219138 0.09189536
000070 66 cc b2 3d 5b c5 cb 3d 29 5a bf bd 3f 32 a0 3d
       0.08730392 0.09949752 -0.093433686 0.07822084
000080 b2 3f 9e bd 17 73 40 bc 56 84 9b bd 87 0e ce 3c
       -0.07726993 -0.01174619 -0.075936005 0.025153412
000090 0e 37 83 bd f9 2f 89 3c a6 36 98 3d 89 35 c0 3b
       -0.06406985 0.016746508 0.07432298 0.005865757
0000a0 85 9d 14 3d dc 1d 67 3c 10 37 b9 3c a1 e9 0e bd
       0.036283035 0.01410624 0.022609264 -0.034890775
0000b0 d8 eb 9a 3d 30 dc 65 3d 78 fe cc 3c 83 17 27 bd
       0.07564515 0.05611819 0.025023684 -0.040793907
0000c0 64 a3 21 3c 08 59 52 3a 3f 74 83 3d 5e 5f 50 bc
       0.0098656155 0.0008024131 0.064186566 -0.01271805
0000d0 85 78 70 bd 1c 60 b1 bd c7 cd 8a bc 50 c9 40 bd
       -0.058708686 -0.086609095 -0.016943825 -0.047066987
0000e0 5f 0a d4 bd a8 5a 82 bd 32 6b 3e 3c 29 2d 50 bb
       -0.10353541 -0.063649476 0.011622237 -0.0031765199
0000f0 d5 2c 06 bd 94 82 ef bd 0f 1f ef 3a 33 a8 8c 3d
       -0.0327576 -0.11694828 0.0018243509 0.06868019
000100 11 8d 4d bd 94 79 bd 3d 71 4c 0a bd 06 23 60 3d
       -0.05018336 0.09251705 -0.033764306 0.0547209
000110 2b 58 f2 bc 02 74 de bd d1 6b 87 bd 56 8b 80 3c
       -0.029583057 -0.108619705 -0.06612361 0.01569144
000120 8a 25 61 3d 29 7d 05 be 7c 8c 91 3d 4e fc 22 3c
       0.05496744 -0.13036026 0.071068734 0.009947849
000130 63 b7 40 3d 18 f7 23 3c a3 85 6a bd 41 d9 b6 3d
       0.04704989 0.010007642 -0.057256352 0.08928157
000140 84 e3 2a bc 5e 7e fb bd bf 0a 0c 39 b9 a3 8f bd
       -0.0104302205 -0.12279962 0.00013355444 -0.070136495
000150 c7 c6 73 bd b1 bd b4 bd 9a f1 52 3c 7a ca d2 bd
       -0.05951574 -0.08825243 0.012874985 -0.102925256
000160 e9 38 44 bd a8 e2 bf bc a2 56 9d bd d9 07 cf bd
       -0.047905836 -0.023423508 -0.076825395 -0.10108919
000170 64 8d 83 bd 5b 68 53 bd 63 2c dc bd d2 a0 b7 bd
       -0.064234525 -0.051613193 -0.107506536 -0.08966221
000180 c6 48 b7 bd 90 0f 80 3d a2 ed b1 bd 32 d0 73 3c
       -0.08949427 0.06252968 -0.08687903 0.014881181
000190 7f 9b 34 bc 0a 89 a4 bd 33 c7 9e bc 26 51 f3 bb
       -0.011023401 -0.080339506 -0.019382095 -0.007425445
0001a0 7d 24 c2 3d 77 ce ee bc 19 8d a2 3d 75 43 46 3d
       0.09479616 -0.029151184 0.079370685 0.048404176
0001b0 68 0b 6d 3d 5d 13 ef 3b b7 4c 74 bd 1a 07 4a bb
       0.057872206 0.0072960095 -0.059643473 -0.0030826987
0001c0 97 32 fb bc 85 a0 1a 3d 87 b0 80 3d b8 b3 2f 3d
       -0.030663772 0.03775074 0.0628367 0.042896003
0001d0 e6 1a 97 bd 53 15 33 3a 1c ea 66 3d 81 fe bb 3c
       -0.07378177 0.00068314857 0.056375608 0.022948505
0001e0 6b f9 07 bd 78 42 74 3d 62 3d be bd 04 c1 d2 bd
       -0.033196848 0.059633702 -0.092890516 -0.10290721
0001f0 9b d6 af bd 36 15 9f 3b 38 69 ee bc f9 14 54 3d
       -0.085858546 0.0048548235 -0.029102907 0.051777814
000200 28 ff 99 bb 2d 78 7f 3c f0 c8 35 3b 44 c5 51 3d
       -0.0046996064 0.015592617 0.0027738176 0.051213518
000210 fe ce 63 3d 31 d6 96 3d 6b bc f4 ba e2 47 6f 3d
       0.055617325 0.073650725 -0.0018671876 0.058418162
000220 0d 6e 93 3d e8 f0 1e 3c 80 d3 66 3c c9 19 65 bd
       0.07198725 0.009700991 0.0140885115 -0.055932794
000230 81 15 f1 3d 85 0f fc 3b 34 e4 cc bd c7 6e 13 bd
       0.1177168 0.0076922798 -0.10004464 -0.035994317
000240 c6 ea ef bc 2e 34 68 bc a2 ec 8b bd 52 17 20 bd
       -0.029286753 -0.014172597 -0.068322435 -0.03908474
000250 40 0a d1 bd 03 e3 97 3c af af df bd 39 cf 92 3b
       -0.10207033 0.018540865 -0.10922181 0.0044802693
000260 1c 79 2e 3b e1 98 bd bd c2 dc d3 3c 28 08 3e 3d
       0.002662248 -0.09257675 0.025862101 0.046394497
000270 bd 6e 18 bd f9 62 b0 bd 29 ed c5 3d 56 b5 4f bd
       -0.037214983 -0.086126275 0.09664375 -0.050710045
000280 7c 6f bf 3c c9 20 a6 bd 29 3b aa bd 05 c1 3e bc
       0.02336859 -0.08111722 -0.08312065 -0.011642699
000290 d9 14 3c bd a8 74 59 bd 09 9d d5 bd 16 2f 24 3d
       -0.04591832 -0.053089768 -0.10430343 0.040083967
0002a0 b4 2e f7 bd 9d d4 2f bd f0 af ac bd e3 a6 c3 bd
       -0.12069455 -0.042927373 -0.08431995 -0.095533155
0002b0 0e 2a 08 3d cd b0 2a bd 67 a5 51 3d ab 7a cd bd
       0.03324323 -0.041672517 0.05118313 -0.10033163
0002c0 35 0f 8c bd 40 53 e3 3c b3 00 51 3c 56 c7 b5 3d
       -0.06838838 0.027749658 0.012756514 0.08875911
0002d0 e1 d2 44 3d 9c c0 8c bd c5 6f 9a bc 69 27 ba 3c
       0.048052672 -0.06872675 -0.018852124 0.02272387
0002e0 10 3f 31 bc 36 fb b5 3d d6 81 83 3d 5e e6 5e 3d
       -0.010818258 0.08885805 0.064212486 0.054418914
0002f0 f2 73 c7 bd 88 bc 4e bd d5 25 e8 bd b7 95 82 bd
       -0.09738912 -0.050472766 -0.11335341 -0.06376212
000300 2e 52 08 3d 54 3f 36 bd 48 4f e2 3d 1a 9a 37 3b
       0.033281498 -0.04449399 0.11050278 0.0028015436
000310 2b 94 e7 bb 6a 33 3c bd c4 71 9e bd cf 76 56 3c
       -0.0070672235 -0.04594747 -0.07736543 0.01308985
000320 08 c0 a0 3d aa a4 a9 3d 2b db d3 3c 74 08 16 3d
       0.07849127 0.0828336 0.025861343 0.036629155
000330 21 7a 40 bd c8 6f 82 bb d6 ca ae 3d b1 09 4a bd
       -0.04699147 -0.0039806105 0.08534782 -0.04932565
000340 f1 bd 51 3d e1 57 8d 3d fd 36 9e 3c a9 fd d8 bd
       0.051206533 0.06901527 0.01931333 -0.10595257
000350 86 4a 78 3d 2b 24 d7 bd 4a e2 39 3d a6 2a 60 3d
       0.060617946 -0.10504945 0.04538182 0.054728173
000360 4f 82 ad bd af 66 ba bd 83 6c c2 bd 03 90 a0 3d
       -0.0847212 -0.091016166 -0.09493353 0.07839968
000370 9e 56 7d bd 75 95 92 bd 6c c7 e9 bb 75 21 85 3c
       -0.061850183 -0.07157413 -0.0071343686 0.016251305
000380 d7 f0 27 bd bb 38 b5 bd 0a 19 ba bd 0b 0d dd 3c
       -0.041001167 -0.08848711 -0.09086807 0.026983758
000390 04 dd 4a bd da a4 bf bd 24 59 aa bd e2 27 85 bc
       -0.049527183 -0.09357615 -0.083177835 -0.01625437
0003a0 ef 95 5b bd 27 c2 4e 3a 78 5f 78 3c a3 f2 b4 3d
       -0.053609785 0.00078872073 0.01515948 0.08835342
0003b0 a0 39 b4 3d eb ea ab 3c 15 30 7b bd 5c 2f 66 3c
       0.088000536 0.020986041 -0.06132515 0.014049377
0003c0 b7 62 88 bd 4e be 87 3d ae f9 9d 3c b2 4d b1 bc
       -0.06659453 0.066280946 0.019284096 -0.021643493
0003d0 ee 42 c6 3d f7 89 bf bc 1b 66 e1 bc 75 75 14 3c
       0.096807346 -0.023381216 -0.027514508 0.009061207
0003e0 11 13 e6 3d b5 3c ba bd b7 be 38 bd ea f1 1f bd
       0.112341054 -0.0909361 -0.045103755 -0.039049067
0003f0 5d a4 86 3d d2 f4 c7 3d 15 6f ae 3d 24 1d 9d 3d
       0.065743186 0.09763493 0.08517281 0.07671574

model.2.weight f4 [256, 256]
000000 07 c7 02 be c6 01 af bc a3 ec 42 3c 0b 20 8b 3a
       -0.12771235 -0.02136315 0.011897239 0.0010614408
000010 36 6b 42 be 43 f8 55 3d 81 0f 81 bc 3e b7 04 bd
       -0.1898621 0.052238714 -0.015754463 -0.032401316
000020 cd 94 60 3d db f4 01 3d e2 41 0c bd 7b 3e 93 bd
       0.054829407 0.031727653 -0.03424252 -0.071896516
000030 d6 9e c1 bb 58 ed f9 bd 48 a6 be bc 3a a5 d9 bd
       -0.0059088273 -0.12203473 -0.023272648 -0.106272176
000040 fd 0f c1 3c fe ca 7f 3c cc e4 88 3d 44 50 dc bc
       0.023567194 0.015612362 0.066842645 -0.026893742
000050 26 59 4c bd 11 38 e8 bd 59 7e 19 bc bd 42 2d be
       -0.049889706 -0.11338819 -0.009368503 -0.1691999
000060 a0 97 d4 bd 51 20 d2 3c 8e 42 c8 3c ac cc 29 bc
       -0.10380483 0.025650175 0.024445798 -0.010363739
000070 ca 79 1f 3d d8 8a d5 3d 8a 02 3a 3d 73 34 c6 3d
       0.038934506 0.10426873 0.045412578 0.09677973
000080 a7 36 27 3b a8 63 fc 3c 3f 32 b3 bd c4 c7 c0 3d
       0.0025514753 0.030809239 -0.08749818 0.09413102
000090 64 15 b9 3d 0e a5 cb bd 41 63 11 3d 92 8f fe 3c
       0.09037283 -0.09943591 0.035495047 0.031074319
0000a0 19 05 41 bd c7 14 70 bd f1 db 77 3d c8 80 a1 bc
       -0.047124002 -0.058613565 0.060512487 -0.019714728
0000b0 4c b3 c9 bc 3f 9a ff bd 5d f6 c4 3b 8c 8a 61 bd
       -0.024621628 -0.12480592 0.006010814 -0.05506377
0000c0 8d 5b be bd cf 7f 06 be d4 69 15 3d 05 c2 9f bd
       -0.09294806 -0.13134693 0.03647788 -0.07800678
0000d0 f5 62 c4 3b 11 01 bd bc 77 88 3e 3b 75 22 7f 3d
       0.005993242 -0.023071798 0.0029073039 0.06228872
0000e0 7b 7c 9b bc 7d 93 18 3d 42 ca 13 bc 00 af b3 3d
       -0.018980255 0.03725003 -0.00902039 0.08773613
0000f0 ef 66 ae bd 1a 4a 6f 3d d0 41 18 bc d5 b6 64 3d
       -0.08515727 0.058420278 -0.009293035 0.055838425
000100 ef dd e8 bd 42 16 d7 3c 19 f6 d4 3d 81 a9 97 bc
       -0.113704555 0.02625573 0.10398502 -0.018513443
000110 5d 5a d9 3c 80 c4 29 bd b0 72 f8 bd 20 0f 34 bd
       0.026532346 -0.041447163 -0.1213125 -0.043959737
000120 c6 7d 1f bd d6 e7 7e 3d 48 93 e3 bd af 4b 98 3c
       -0.038938306 0.062232815 -0.11112076 0.018590776
000130 fd 9f fb 3d 6d 81 bb bd 3b 5e bb 3d b5 44 a1 bd
       0.12286375 -0.091555454 0.091488324 -0.07874433
000140 0a 65 57 3d 3c 3d 59 bd 63 d8 f5 3c bc a3 f5 bb
       0.052586593 -0.053036913 0.030010408 -0.0074963253
000150 93 9b 96 3d b4 a4 47 3d 04 57 05 3c cc 22 4a 3b
       0.07353892 0.048741058 0.008138422 0.0030843494
000160 55 9d 87 bd 17 1a 93 3d 49 d5 64 3c 3d b4 73 3d
       -0.066218056 0.071827106 0.013966867 0.05949806
000170 ca f0 40 be dc 1e 4b bd 1c b8 af 3d 32 2f 31 3e
       -0.18841854 -0.049589977 0.08580038 0.1730316
000180 20 ab 8a 3d e5 85 5a be 95 8c c6 bc 16 d5 ab bd
       0.06770921 -0.21340139 -0.024236957 -0.08390252
000190 e4 17 99 3c e7 7c dd bd 46 0d 1e be c0 e0 6d bd
       0.01868815 -0.10814839 -0.15434751 -0.058075666
0001a0 96 1a b0 bc fa 3c b2 bd 5f 57 a0 bc 13 37 89 bc
       -0.021497052 -0.087030366 -0.019572912 -0.016749894
0001b0 9d 76 0c 3e 90 25 6a 3d 4c 5e 01 3e c3 9d 7d bd
       0.13717122 0.05716473 0.12633628 -0.06191803
0001c0 43 85 4e 3d d5 8c cb 3d 7c 13 d2 bc ce da 6d bb
       0.050420057 0.09938971 -0.025644056 -0.0036293748
0001d0 b7 67 ef bc 65 52 18 be a9 fa 21 3e c6 b8 d6 3c
       -0.02922426 -0.14875181 0.15818276 0.026211154
0001e0 76 00 bb bc b2 3c b2 bd 6c b6 ae 3d 24 ed dc bd
       -0.022827368 -0.08702983 0.08530888 -0.107874185
0001f0 b9 ef b4 bd b0 5d 9c 3d 6f d7 1b be 5f 41 04 3d
       -0.08834786 0.07635057 -0.152189 0.032288905
000200 a0 a5 0d 3c 97 af 17 bd 07 63 95 bd 2f ac b3 3d
       0.008645445 -0.03703269 -0.072942786 0.08773076
000210 7f c9 98 bc b9 ef cd 3d 3b ee d0 3d c2 88 04 bd
       -0.018650768 0.10055489 0.10201689 -0.032356985
000220 dc 13 ae bd 82 11 85 bd 6c 89 f0 bd 7e 25 22 bd
       -0.084998816 -0.0649748 -0.11744961 -0.039586537
000230 9a 29 28 be d3 61 bc bd 55 df a1 3d 6f 56 cb bc
       -0.1642212 -0.09198346 0.07903925 -0.024821488
000240 34 9a 11 3d 66 7e c3 bc 48 33 91 3d 73 5d 2d bd
       0.03554745 -0.023863982 0.07089859 -0.04232545
000250 ed b0 37 3c 46 2c d5 bd c9 e4 06 3d a2 a3 88 bd
       0.011211616 -0.10408835 0.03293303 -0.066718355
000260 80 03 dd bd db 5c 09 bd 6f 36 13 bc 82 92 96 3d
       -0.10791683 -0.03353582 -0.008985146 0.07352163
000270 60 5e 8e ba 2e 32 ea 3d d4 41 12 3d eb aa 47 bd
       -0.0010861866 0.11435352 0.03570731 -0.048746984
000280 7f e4 91 bd ea 6e 5b be 4d 34 be b8 65 9c b0 3d
       -0.0712366 -0.21429029 -9.069648e-05 0.0862358
000290 41 83 1a be 3c 4d 0e be ea c7 84 be b6 f1 b8 bd
       -0.15089132 -0.1389665 -0.25933772 -0.09030478
0002a0 0f f9 36 3c 96 b2 24 be a1 92 f0 bd 2d 85 9c 3d
       0.011167779 -0.1608375 -0.11746717 0.07642589
0002b0 a0 be e4 3c c4 bb dc 3d 4e 8d bb 3d a0 0b ff bc
       0.027922928 0.10778001 0.09157811 -0.031133473
0002c0 a5 39 9d 3d f4 e0 0c bd 25 a1 14 bd 6f 38 85 3d
       0.076770104 -0.03439422 -0.036286492 0.065049045
0002d0 0b 90 c6 bb cb 8a c4 bd 68 d1 ad bd b2 06 b8 bd
       -0.0060596517 -0.09596785 -0.08487207 -0.08985652
0002e0 8a 22 17 bd 58 68 34 be b7 ad 8f 3d 99 33 64 bc
       -0.036898173 -0.17617929 0.07015555 -0.013928317
0002f0 a6 c8 3b 3e ed 3d ed 3c 20 4f 80 3d 88 65 70 be
       0.1833826 0.028960193 0.06265092 -0.23476231
000300 36 e0 41 be 49 9c 40 be e0 af ce be 43 52 2b be
       -0.18933186 -0.18809618 -0.40368557 -0.16730599
000310 18 cb 57 be ee 74 06 bc 2e 7d 59 bd c7 58 cb 3d
       -0.21073568 -0.008206589 -0.053097896 0.09929042
000320 0a 98 14 bc a8 23 ad 3d e3 e0 a6 bc 6f 1b 93 3c
       -0.009069452 0.084540665 -0.020370906 0.017957417
000330 90 5c 46 3d ad fd c7 bc df b4 af 3d 9d 82 d6 ba
       0.04842812 -0.024412954 0.0857942 -0.001636583
000340 77 63 8c 3d e9 86 8c bc e2 0e 88 bd ed a3 3a 3d
       0.06854909 -0.017154174 -0.06643464 0.045566488
000350 62 51 ee 3c f8 b1 c9 bc 0c 69 5d be 07 60 c2 be
       0.02909154 -0.024620995 -0.21622103 -0.37963888
000360 95 83 21 bd c1 9d 1a be 3f 99 b7 bc e7 fc 44 3d
       -0.039432127 -0.15099241 -0.02241194 0.04809275
000370 7e f2 4a 3d 2d 47 40 bd 9e 2b 45 3d 8f 4f bc bd
       0.049547665 -0.04694288 0.0481373 -0.09194862
000380 4f 9d 68 bb 64 05 2f 3d 40 fe ca 3c 96 9a 05 bd
       -0.0035494154 0.04272975 0.024779439 -0.032618128
000390 4f 4a c1 bd a5 92 ce bd af 7c 8e 3d 87 f8 00 3e
       -0.09438001 -0.10086564 0.06957375 0.12594806
0003a0 f5 03 04 bf 45 b7 5d 3c 28 b8 71 bd 6c 17 b9 3d
       -0.5156854 0.013532464 -0.059013516 0.090376705
0003b0 eb 41 81 3d f7 3b 32 bc 93 03 41 be 5a aa 24 3d
       0.06311401 -0.010878555 -0.1884902 0.040201522
0003c0 6b a7 d1 bc d1 43 a1 3c 69 06 3f bd 9b ee c9 3d
       -0.025592526 0.019685658 -0.046636973 0.098599635
0003d0 2e b7 b3 3c c2 e8 b3 3d 94 a4 7d be 79 ec 7a be
       0.021937933 0.087846294 -0.24769813 -0.2450427
0003e0 56 cd 82 3d c9 b8 0e bc 0d 8c 20 3d cb b4 82 bc
       0.06386821 -0.008711048 0.039196063 -0.01595535
0003f0 51 51 29 bd 53 31 53 bc 28 9c ba 3d fb f1 3f bc
       -0.041337315 -0.012890178 0.09111816 -0.0117154075

model.2.bias f4 [256]
000000 f3 a1 07 3d 11 ef 2b 3d ec a6 b3 bd e4 48 f4 bc
       0.03311343 0.04197604 -0.08772072 -0.029819913
000010 ad 00 a6 bd 7a 23 17 3d 66 f6 4b 3d ab 3f 44 bd
       -0.08105598 0.036899067 0.04979553 -0.04791228
000020 0c 35 6d 3d 9d b3 55 bd 74 07 65 3c 0f 82 20 bd
       0.057911918 -0.052173246 0.013978828 -0.039186534
000030 23 d9 08 3d 3d b9 3a bc e6 fb 6d 3d 88 8e bd 3c
       0.033410203 -0.011396703 0.058101557 0.023139253
000040 4f 86 66 bd 17 ba 16 bd 80 f6 c9 3c c1 ce 3b bc
       -0.05628043 -0.036798563 0.024653673 -0.011462868
000050 0c 51 80 3c 93 5e 7a bd a6 3d 0f 3d d9 d1 83 bb
       0.015663646 -0.06112535 0.034970902 -0.0040228185
000060 85 08 d2 3c ff 49 c8 bc c5 cc 74 3d 06 cf 0c 3d
       0.025638828 -0.024449347 0.059765596 0.03437712
000070 3e db f8 bb bc 8d ea bc d3 9c 02 bb 4c a2 82 ba
       -0.007594495 -0.028632037 -0.00199299 -0.0009966581
000080 11 9b 07 3d 58 a5 2a bd df 83 93 bc fe 9d 1b 3d
       0.033106867 -0.04166159 -0.018007217 0.03799247
000090 ef 58 9b 3b b1 44 c6 3c 25 b2 2e bd 73 64 34 3d
       0.0047408263 0.024202676 -0.04265036 0.04404111
0000a0 74 b1 43 bd 74 e5 b8 3c d2 d5 66 b9 92 2d 05 bc
       -0.047776654 0.02257035 -0.00022014164 -0.008128541
0000b0 35 80 33 bd e1 39 68 3d 5a d2 00 bd 13 78 0c 3d
       -0.04382344 0.056695823 -0.031450607 0.0342942
0000c0 31 12 65 bc 6c e1 7f 3d 62 6f 8f 3c 0c 8b a4 3d
       -0.013981388 0.06247084 0.017509166 0.080343336
0000d0 7d fd 0f bd 11 d0 fd 3c b7 88 96 3d 4b 15 a2 bc
       -0.035153855 0.030983003 0.07350295 -0.019785544
0000e0 f2 37 a1 3c 4e 0c 69 bb a9 5b 41 3d 99 9b 61 bb
       0.019679997 -0.0035560313 0.047206555 -0.0034425019
0000f0 23 e5 15 3d e2 96 91 3b 1e 27 05 bd 6c fc 23 bc
       0.036595475 0.0044430355 -0.03250801 -0.0100089125
000100 33 4a 11 3c cb 45 0d 3c 4a e5 c3 bb 99 09 fa 3c
       0.008867788 0.008622597 -0.005978261 0.030522155
000110 8e 7d 02 bc 58 80 50 3d ec 1b 36 3d 6a 19 02 bc
       -0.007964505 0.05090365 0.044460222 -0.0079406295
000120 64 2e 3a bd b2 4f 9d bd 5c ef 12 3d ce 16 ab bc
       -0.045454398 -0.07681216 0.035872802 -0.020884898
000130 b6 62 17 3a 50 da 50 3d e3 44 5e 3c 6a 85 c4 bc
       0.0005774902 0.05098945 0.013566229 -0.023989398
000140 83 fa 85 bd d1 d6 57 bd bd 1f 6f 3d 81 39 0b 3d
       -0.06541922 -0.0526951 0.058379877 0.033990387
000150 78 12 49 bc c8 01 a6 bc bc fd 5e bd 49 2c 0a bd
       -0.01227247 -0.020264521 -0.0544412 -0.03373364
000160 d3 13 34 3d d9 bf 0e 3d f5 93 be ba a3 21 3a bd
       0.04396422 0.03485093 -0.0014539944 -0.045442235
000170 5e 4c b5 3b c3 13 2e bd de 24 76 3c 1a b8 b4 3c
       0.0055327853 -0.042499315 0.015023438 0.022060443
000180 41 31 3f 3d 9e ee 05 3d 96 cf cd 3c e1 d1 69 bc
       0.04667783 0.032698266 0.025123399 -0.01427123
000190 d0 d5 f6 bc 73 f2 cc 3c 06 42 d1 bc 3e 2e b7 bd
       -0.03013125 0.025017953 -0.025544178 -0.08944367
0001a0 88 22 60 3d c0 57 72 bd 25 ca 30 bd a7 66 41 bd
       0.05472043 -0.059165716 -0.04316153 -0.047217038
0001b0 3e 7d 9c ba 56 21 20 3c c1 6e 6e 3c 41 e9 2a bd
       -0.001193918 0.009773573 0.014552773 -0.041726355
0001c0 01 2c 1e 3d cb 12 13 ba bf a9 a1 3d 1f f3 a9 3c
       0.038616184 -0.00056104054 0.078937046 0.020745812
0001d0 dc 46 98 bc 52 bf 36 bd 5c 4a 8c bc 84 da 08 bd
       -0.018588476 -0.04461605 -0.017125301 -0.033411518
0001e0 38 1e 35 3d 95 fa 5f bd c8 d8 5e 3d ac a8 41 3d
       0.044218272 -0.054682333 0.054405957 0.04728
0001f0 58 23 b7 bb 03 c4 6c 3c ff 39 d4 3c 6d 0e aa 3c
       -0.00558893 0.01445103 0.025906561 0.020758832
000200 18 1b c3 bc a9 37 50 bd 4c 6e 32 3c e8 e3 37 3c
       -0.02381663 -0.05083433 0.010890555 0.011223771
000210 79 58 36 3d 6b 37 6a bd a1 78 1f bc 46 5b 2a bc
       0.044517968 -0.057181757 -0.00973335 -0.010397738
000220 28 ad 68 3d 39 58 00 bd cc ff 2f bd 30 21 67 3d
       0.05680576 -0.031334136 -0.042968556 0.056428134
000230 f5 cf 5d 3b 9a 68 5c 3d d4 22 0f bd 96 2f 12 bd
       0.0033845876 0.053810693 -0.034945324 -0.035689913
000240 9e fe c8 3b 12 b2 6a 3c 89 7f 36 3d bf 9b a3 bc
       0.0061338684 0.014324682 0.04455522 -0.019971726
000250 41 24 70 bd 24 47 85 bc ea 68 96 bc 0e 90 71 bd
       -0.058628324 -0.016269274 -0.018360574 -0.058975272
000260 e5 04 a9 bd 14 3a 45 bc dd 7a 13 bd f7 1c 82 3d
       -0.08252887 -0.012037773 -0.036005843 0.06353181
000270 38 42 8a 3c 85 7b 27 3d b4 cd d8 bc 5e 88 85 bd
       0.016877279 0.04088928 -0.026465274 -0.065201506
000280 1e 35 74 bd e3 74 01 bd 17 5d 18 3d b1 93 63 3c
       -0.05962097 -0.031605612 0.037198152 0.013890193
000290 91 d5 37 bd b9 11 ba bb a1 57 06 bc b7 db 80 3d
       -0.044881407 -0.0056783822 -0.008199603 0.06291907
0002a0 6a 85 d1 3c b3 2f 7c bb ff 23 6f bd 68 57 2b 3d
       0.025576312 -0.003848058 -0.058383938 0.041831404
0002b0 21 00 12 3d 73 74 8b bd 55 e1 d0 3c 2a 3b ab bc
       0.035644654 -0.0680932 0.025498072 -0.020902235
0002c0 37 7f 77 bd c4 10 5c 3d 8c b2 36 3d 14 fc af 3b
       -0.060424056 0.053726926 0.04460387 0.005370626
0002d0 1d 23 72 bc 1b e4 62 3c 99 3f 4a bd 1c da 9b 3d
       -0.0147788795 0.01384833 -0.049377058 0.076099604
0002e0 09 7a 08 bd 15 32 97 bc 0d 7a a0 3c 43 e3 2b bd
       -0.033319507 -0.018456498 0.019589448 -0.04196478
0002f0 af 65 00 3d cf 10 ff bb 61 f4 1f bd ab 80 a9 3c
       0.031346973 -0.007783986 -0.039051417 0.020691236
000300 93 94 15 bd c7 3a 60 bb 92 df ad bd 8f f9 68 bd
       -0.036518645 -0.0034214722 -0.08489908 -0.056878623
000310 44 e5 d0 3c fd df 36 3c 3d f0 4d 3d 60 7d ec bc
       0.025499947 0.011161801 0.050277937 -0.028868377
000320 81 6c 94 3d bd 15 1b 3d 93 b8 0f 3d 2d 50 dc bc
       0.07247258 0.037862528 0.035088133 -0.0268937
000330 94 e4 3a 3d 48 e6 b6 3c c4 37 56 bc 25 1f d9 bb
       0.045628145 0.022326604 -0.013074819 -0.006626027
000340 00 63 5c bd 13 68 32 bd d5 8b 52 bc 6f 06 49 bd
       -0.05380535 -0.043556284 -0.012850721 -0.0490784
000350 7c 91 7f bd d7 90 52 bd 9f fa 73 3d 4b ed ca 3b
       -0.062394604 -0.05140766 0.059565183 0.0061928383
000360 0e 57 07 3d 9c 11 6c bc d6 bb 9f bc ae 5f 1d bc
       0.033042006 -0.014408495 -0.019498747 -0.009605331
000370 62 63 4a bd 74 e4 19 3d 89 d2 12 3d 01 15 e6 bb
       -0.049411185 0.037571386 0.035845313 -0.007021547
000380 59 8d 18 bd e3 67 c7 bd 22 2c ca 3d 4e 84 87 bd
       -0.037244175 -0.09736612 0.09871699 -0.06617032
000390 88 39 d4 3c 06 71 be bc 9e b9 3d bd f7 b2 a4 3c
       0.02590634 -0.023247253 -0.046319596 0.020104868
0003a0 12 e8 b9 bc b9 22 ce bb e0 0b 24 3d d5 8d f4 3c
       -0.022693668 -0.0062907604 0.040050387 0.029852787
0003b0 e1 d9 2b 3c 15 2d 88 bd 56 f1 22 bd a7 db 41 3c
       0.010488958 -0.06649224 -0.039780937 0.011832154
0003c0 bf 57 19 3d 0b e8 5b 3c 25 1e 97 bc 66 d4 bb bc
       0.037437197 0.013422023 -0.018446991 -0.022928428
0003d0 b7 e5 1f 3d c4 10 1f 3d 51 a1 97 bc 64 f6 8f 3d
       0.039037433 0.03883435 -0.018509539 0.07029417
0003e0 8b fa ca 3d ea b2 67 3d a1 d7 ff bc 69 f3 2f 3d
       0.099110685 0.05656711 -0.03123075 0.042956743
0003f0 ad 29 02 3b 39 81 21 3d 0c 2b a8 3c 2c 37 a9 bb
       0.0019861266 0.039429877 0.020528339 -0.0051640477

model.4.weight f4 [256, 256]
000000 5e 02 14 3e 4a e3 d1 bb 79 d3 b5 bd 90 bf 1d 3c
       0.14454028 -0.006405269 -0.08878226 0.009628192
000010 a6 31 ea bc e6 e0 13 bd d8 b7 17 3d a7 6a 1c be
       -0.028588127 -0.03610315 0.03704056 -0.1527506
000020 e4 5c 1c be ff 2b 49 bc 5a 1c fa 3c 93 16 78 bd
       -0.1526981 -0.012278556 0.030531097 -0.060568403
000030 25 cc f9 bd 45 da bd bd cb b7 8a 3b 9e 1d cd bc
       -0.121971406 -0.09270147 0.0042333356 -0.025038537
000040 47 2d 40 bd 33 23 78 be 55 a1 2c bc 7d b6 bd bb
       -0.04691818 -0.24232177 -0.010536511 -0.0057895766
000050 63 13 31 3d 60 40 37 be 6c 42 b4 3d bb 39 b3 bd
       0.04323138 -0.17895651 0.088017315 -0.087512456
000060 84 e5 b6 bd e3 b9 f4 bc 0a 7a 81 3d 87 6a 76 bb
       -0.089304954 -0.029873794 0.06322105 -0.0037600116
000070 c6 ad 2b 3d d2 fb ba 3c 68 7c 56 bd 8c 85 2b 3d
       0.04191377 0.022825155 -0.052364737 0.041875407
000080 48 7e 1f 3c a7 dd 6c bc 74 b6 14 3e b3 aa 6e 3d
       0.009734698 -0.014457143 0.14522725 0.05826826
000090 18 29 04 3d d5 34 a7 bd e3 65 4e 3d c1 2f 12 3d
       0.032265753 -0.08164374 0.050390135 0.035690073
0000a0 da 19 94 bd 1a ea ed bc 45 11 95 ba 6d 59 94 bb
       -0.07231493 -0.029042292 -0.0011372945 -0.004527262
0000b0 64 af 88 3c 36 03 1f bd a4 cc 87 3d ed 08 fd 3c
       0.016685195 -0.03882142 0.06630829 0.030888045
0000c0 08 b0 1f bd af 91 c3 3c 56 95 82 be bf 03 49 be
       -0.038986236 0.023873178 -0.2550456 -0.19630335
0000d0 4c 40 42 bd c5 35 6a bd 1f 16 84 3d cd 77 5a be
       -0.0474246 -0.057180185 0.06449532 -0.21334763
0000e0 34 0b 18 3c 7e 79 17 bb 7c 8d c5 3d f3 1f fa 3c
       0.009280015 -0.0023113186 0.09646127 0.030532813
0000f0 f2 fb ce 3c ba 50 1b bd 22 4f 1f 3d 32 bd cb be
       0.025266621 -0.037918784 0.038893826 -0.39792782
000100 fc 8b 2b bb aa 57 c7 3d 26 cf 98 bd b0 4c ed 3c
       -0.0026175966 0.097335175 -0.074613854 0.028967232
000110 de f1 9d 3d b5 c5 75 bc 05 30 52 3d 36 2b e0 bd
       0.07712148 -0.01500075 0.051315326 -0.10945742
000120 8f 72 2f 3d b3 7d 80 bd d1 7d c9 bd 9a b4 b5 bb
       0.04283386 -0.06273975 -0.09838451 -0.005545211
000130 69 a3 84 b8 f1 2b 33 3c 48 9f e7 3c d5 e3 b2 bd
       -6.324688e-05 0.010935769 0.028274193 -0.08734862
000140 6a 15 1e be 70 ce 4b 3d 0b 57 a7 3d ea 4d 70 3d
       -0.15437856 0.04975742 0.08170899 0.058668055
000150 b1 e2 84 be aa 5c a4 be 38 50 65 3d 3d 28 85 bb
       -0.25954202 -0.32101947 0.055984706 -0.0040636347
000160 0b f8 2c be 70 e8 70 be de 79 be 3b b2 ce 0c bc
       -0.16891496 -0.23526168 0.0058128675 -0.008594202
000170 73 9b 4a bd f8 18 5b 3c bb db f3 bc 13 37 8b bd
       -0.049464654 0.013372652 -0.029767862 -0.06797614
000180 27 d9 f4 3c b6 89 cf 3c 68 fa cd bd df d4 96 bd
       0.029888703 0.02533422 -0.10057527 -0.07364821
000190 37 24 04 3d bb 41 75 bd bf 46 32 3d 90 42 d6 3c
       0.0322611 -0.05987714 0.0435245 0.026154786
0001a0 3e 24 c7 bd 64 75 de 3a 0c 97 75 bd d5 99 87 bc
       -0.097237095 0.0016972241 -0.059958503 -0.016552845
0001b0 d3 10 a9 be 73 3d 45 3c 2c 89 b8 3b ee 6f 07 be
       -0.33020648 0.012038576 0.0056315865 -0.13226292
0001c0 e6 a0 8c be 93 67 a3 3e ae 54 9f bd ef 6e 1e 3d
       -0.27466506 0.31914958 -0.07779823 0.038680013
0001d0 8f be 60 3d 05 d9 37 bc 9b 57 b9 3d 54 7f ff 3b
       0.05486923 -0.011221175 0.090499125 0.007797161
0001e0 54 89 7a 3d ef 0c 09 bd 0e 1b 09 bd 78 e0 49 3a
       0.061166123 -0.0334596 -0.033473067 0.000770099
0001f0 ab 2c 1c 3d a0 f7 f6 be 6d 24 99 3d be a9 b4 3c
       0.038128536 -0.48235798 0.07477651 0.022053596
000200 e4 72 a4 ba 6a a4 c0 3d 29 f5 c7 3c c3 b1 7a 3d
       -0.0012546447 0.094063595 0.024408894 0.061204683
000210 cd 8e 13 3d 3e 3f 2f 3e 3a 2f 55 3d 3c 11 82 3d
       0.036024857 0.17113969 0.052046992 0.063509434
000220 93 06 ab 3d a1 55 2f 3d dc 53 9e be 9d 61 65 be
       0.08350863 0.04280627 -0.30923355 -0.22400518
000230 0e d9 b7 3d 48 c2 83 3c 7e 88 eb 3d c1 6b 87 bb
       0.08976947 0.016083851 0.11500643 -0.0041327183
000240 c0 22 3a 3c 35 1f 1b 3d 2e 6e 37 3d 7a 4e 21 be
       0.011360824 0.03787156 0.04478281 -0.15752593
000250 9b 7e ca bd 64 57 63 bc 6e f6 38 3e eb fe 0b 3d
       -0.09887429 -0.013875816 0.18062755 0.034178656
000260 34 4e 0c 3d 42 0c 73 bc 2c 53 92 3d fa 58 c7 bb
       0.034254268 -0.014834465 0.0714477 -0.006083605
000270 97 c3 8d bd 83 5b 2b bc ff a2 75 be 43 1e c9 3d
       -0.069220714 -0.01045883 -0.2398796 0.09820225
000280 68 2a 13 3d 90 d2 3f bc 61 57 29 be b7 40 ae bd
       0.035929114 -0.011707917 -0.16537239 -0.08508437
000290 fc be 86 bd 5d 26 6d 3c 81 12 a1 be d7 07 fb 3d
       -0.06579396 0.014474479 -0.3145943 0.12257355
0002a0 10 62 ba 3d aa a4 33 3d 30 63 e7 3d a3 57 ae bd
       0.09100735 0.043858208 0.112982154 -0.08512809
0002b0 c4 c8 39 bd 2b 43 2c be 59 d3 03 be 10 a3 1f be
       -0.04535748 -0.16822498 -0.12873591 -0.15589547
0002c0 73 61 d3 bc 44 6d 95 bd 0f 49 9f bd 59 bf 9a 3c
       -0.025803303 -0.072962314 -0.07777607 0.01889007
0002d0 e7 13 5f 3a 91 83 5d 3b 4d 7f 6e bd 69 1d 62 3d
       0.00085097406 0.0033800344 -0.058226872 0.05520383
0002e0 a1 9d 23 be a4 3b 53 3d 6a 68 1a bd e3 45 01 be
       -0.159781 0.05157055 -0.037697233 -0.12624316
0002f0 11 e7 40 bd 07 ff c3 bd b1 60 14 3a 22 5f 07 be
       -0.047095362 -0.09570127 0.000566016 -0.13219884
000300 f2 a5 54 be ac 10 03 3c cc 7a 2b bd 14 c4 4b 3e
       -0.20766428 0.00799958 -0.041865155 0.19899017
000310 95 be 8e 3d 91 33 2f be 69 93 b6 3d 01 3f 09 bb
       0.069699444 -0.17109515 0.08914835 -0.0020942094
000320 f6 59 07 bd 01 e2 0f 3e e7 e1 f3 bc fa fd b3 bd
       -0.033044778 0.14051057 -0.029770805 -0.087886766
000330 51 2a 2c 3e c6 89 0a be 7a 89 39 3c e9 bc 63 3c
       0.16813017 -0.13529119 0.011324281 0.01390002
000340 54 af 6a bd c9 cb 50 bd fe 41 f9 bc 50 32 69 be
       -0.057296112 -0.050975595 -0.030426975 -0.22773099
000350 c5 f5 1d 3c 58 61 d4 3d c7 ba a4 bd d7 8e 51 bd
       0.009641116 0.10370129 -0.080434375 -0.051161613
000360 f5 27 50 bd 0f e9 e5 3b 07 bd 27 bd f8 a3 cd ba
       -0.050819356 0.007016308 -0.040951755 -0.0015689125
000370 b7 6a 05 bc 76 e2 36 be c8 fd 08 3d 1a 41 33 3d
       -0.008143119 -0.17859825 0.03344515 0.043763258
000380 8d f4 71 be 1e d4 30 be a3 a2 16 3e 52 7e 52 3d
       -0.23628445 -0.17268416 0.14710478 0.05139
000390 05 60 c4 bc 0b 6a 06 be ed 60 85 bd 2b cc b8 be
       -0.023971567 -0.1312639 -0.06512628 -0.36093268
0003a0 55 d7 1e be 21 bf 06 3d 17 f1 a0 bb 07 e8 02 3d
       -0.1551183 0.03289712 -0.0049115526 0.03195956
0003b0 19 6a c6 bd e8 a8 17 3e 34 01 9f bd c4 37 53 bd
       -0.09688205 0.14810526 -0.07763901 -0.051566854
0003c0 10 55 67 3d 5f df 08 be f0 a2 59 3e 0b 8e c4 bd
       0.056477606 -0.1336646 0.21253562 -0.09597405
0003d0 ed 63 43 3d ab 77 7b 3c 3b 08 07 be 47 34 9f bc
       0.04770272 0.015348355 -0.13186733 -0.019434107
0003e0 b6 bb 13 3d f0 c6 4c 3e 81 d0 ce 3c 0d 58 1f bd
       0.036067687 0.19997764 0.025245907 -0.03890233
0003f0 56 ca 2b bd 39 de fc 3c 01 ab b6 3c 71 cf 86 3d
       -0.04194101 0.030867683 0.022298338 0.06582535

model.4.bias f4 [256]
000000 91 36 a9 3d 34 34 75 bd 0c a1 68 3d ef 56 98 3c
       0.08262361 -0.059864238 0.05679421 0.01859614
000010 7a 40 21 3a 57 a7 4d 3d f6 b8 87 bd ba 95 89 3d
       0.00061512704 0.050208416 -0.066270754 0.06718011
000020 91 24 73 3d 64 1b 8c 3d f2 6c 40 bc 9d 36 4c 3d
       0.059361044 0.06841162 -0.011744725 0.04985677
000030 18 11 c4 bb a8 ac e6 bc e0 e3 9e 3c 03 96 86 3d
       -0.005983483 -0.0281585 0.019395769 0.06571581
000040 b4 7d 94 bd 6b c6 9f 3d 84 d0 2e 3d 56 39 d9 3b
       -0.072505385 0.07801517 0.042679325 0.0066291494
000050 79 77 00 bb f2 e8 6a 3d e3 d8 4d bc 9a 42 21 3d
       -0.0019602461 0.05735106 -0.012563917 0.039370157
000060 ae 38 ef 3c 57 b4 83 3c 14 d2 71 3d a3 62 ad 3d
       0.029201832 0.016077204 0.059038237 0.08466079
000070 ba 45 da 3c 2e b9 9a 3d 2a 8d b2 3b 31 20 fc bc
       0.026644576 0.075548515 0.005448957 -0.030777069
000080 a9 26 44 3d 54 85 70 3d b4 46 3f 3b b0 2c 4c bc
       0.04788843 0.0587209 0.002918643 -0.012461826
000090 19 d8 7b 3d ce 13 7b bd 99 87 b1 bc c8 57 92 3d
       0.061485384 -0.061298184 -0.021671103 0.07145649
0000a0 75 7a f8 bb d1 1d 89 3d 7b bf c9 3c 2c 3f cb 3c
       -0.0075829574 0.0669514 0.024627438 0.024810396
0000b0 a7 6b 26 bc 64 97 b1 bb 9c 32 0e bd 04 b4 4c bd
       -0.010157502 -0.0054196585 -0.034716234 -0.049976364
0000c0 3b af 90 bc b3 a0 6e 3d ef 87 85 3d 1c 3a 1a 3c
       -0.017661681 0.058258723 0.06520068 0.009413268
0000d0 2c 10 e2 bb 7b f3 fe bd de 7b 5d bc 50 2b bc 3b
       -0.0068989005 -0.12448784 -0.013518302 0.005742468
0000e0 43 1f 44 3d 6e b3 d5 3d dd 55 65 ba e4 b0 69 3c
       0.047881376 0.10434614 -0.00087484514 0.014263365
0000f0 23 0d 3d 3c 52 2b 9c 3c 15 41 ef 3c 1d 58 30 3d
       0.011538777 0.019063625 0.029205838 0.04305278
000100 a6 e6 82 3d b5 0d fe bc 18 e4 52 3d 27 8b f1 bc
       0.06391649 -0.031012395 0.05148706 -0.029485298
000110 f0 bb 04 bd ed bb 94 3d ca a9 d7 b9 88 39 7a bd
       -0.032405794 0.072624065 -0.00041134498 -0.061090022
000120 7c 15 bf bc 9e b3 8b b9 c4 d5 c9 3d 47 19 9f 3d
       -0.023325674 -0.0002664597 0.09855226 0.07768493
000130 bb f2 f6 bc 77 16 e3 bc 47 b8 20 3d 1e 30 cd 3d
       -0.03014504 -0.027720673 0.03923824 0.10018943
000140 fb 1f b9 3d bd ec 29 3d ff 8a 55 3d 20 f3 31 3d
       0.09039303 0.041485537 0.05213451 0.043444753
000150 91 51 f0 bb eb 1b 9d 3d 07 e1 79 3d 87 f0 25 3d
       -0.007333942 0.076713406 0.06100562 0.040512588
000160 d0 3c 3a 3d 52 f1 99 3d ae 71 93 bd ed 1f d2 bc
       0.04546815 0.07516731 -0.07199417 -0.025649989
000170 d3 92 88 3d ab 05 41 3d 14 62 cc bd a7 68 26 bd
       0.066686295 0.047124546 -0.099796444 -0.040627148
000180 49 4f 2b 3d 71 12 34 3d 55 70 00 3d 0b e9 20 3d
       0.04182366 0.0439629 0.03135713 0.039284747
000190 57 ff 80 3d bd 42 38 bd 6d 5a dd 3c 9d d1 f1 bc
       0.06298702 -0.04498552 0.027020657 -0.029518897
0001a0 f7 14 6d bb 3b 4c b4 3d e7 09 54 3d 2e b7 2d 3d
       -0.0036175826 0.08803602 0.051767256 0.042411022
0001b0 20 33 c5 3d bd ef e5 3c 4b 77 05 bb 50 48 0d 3c
       0.09628892 0.028068418 -0.0020365294 0.008623198
0001c0 b5 b2 bc 3c 35 32 c5 3a f7 ff 5b 3b 65 53 e9 bb
       0.023034433 0.001504487 0.0033569315 -0.007120537
0001d0 88 2e f0 bc 75 90 6c 3d af ee 95 bd 48 b0 a4 3c
       -0.029319063 0.057754952 -0.07320916 0.020103589
0001e0 cb db bc bd 96 5d 34 bc 7f 11 7a bc d0 48 c2 3d
       -0.0922161 -0.011008641 -0.01526296 0.09486544
0001f0 d5 6b 76 3c ed c6 14 3d dc 5e 17 bd d7 e1 03 bd
       0.015040358 0.036322523 -0.0369557 -0.0321978
000200 b9 15 a6 bd cd 13 b4 ba 2e 34 7f bd 0b f5 64 3d
       -0.08109612 -0.0013738811 -0.06230562 0.055897754
000210 b6 5a 47 3d 79 3f e7 3a 02 26 c8 bd bd 85 7e bd
       0.048670493 0.0017642818 -0.097728744 -0.06213926
000220 b1 b6 e8 bc d8 3d 39 3c cb 30 fc 3c 8e 40 77 bd
       -0.028407427 0.011306249 0.030784985 -0.0603643
000230 ba 63 a4 bd 81 01 97 bc 59 62 a7 3d d8 56 56 3d
       -0.08026834 -0.018433334 0.08173055 0.052328914
000240 ce 93 d9 bc 87 17 87 3d dc 84 e6 3c c5 fa 82 bd
       -0.026559737 0.06596284 0.028139524 -0.06395487
000250 b0 4f 0c 3c e9 cb 8c bd cf 5d c8 bc 9a 92 0f 3d
       0.008563921 -0.0687483 -0.024458794 0.03505192
000260 38 bb 89 bd 05 cd fe 3c d6 4e 2c bd 05 f7 6a bd
       -0.06725162 0.03110362 -0.04206737 -0.057364482
000270 a6 12 18 bd f6 c5 f0 bc 34 ee 44 3c c5 9f e7 3b
       -0.03712716 -0.02939127 0.012019683 0.0070686066
000280 c7 c1 68 3d ff 7c d9 3c d5 b4 64 3d c5 8e 27 bd
       0.056825425 0.02654886 0.055836517 -0.04090764
000290 6a eb 9c 3b af a0 2b bd a9 29 f2 bb fb 78 08 3c
       0.0047888057 -0.041901287 -0.00739022 0.008329625
0002a0 37 ac a1 3d ad b1 83 3d 6d ae 6f 3d ea ec 88 3d
       0.078941755 0.06430373 0.058515955 0.06685813
0002b0 a2 e8 55 3d 43 64 25 3d f3 68 a7 bd c6 24 96 bd
       0.05222381 0.04037882 -0.08174314 -0.07331233
0002c0 c4 55 7f bd 58 98 d4 3d 30 13 88 bc 0e 76 91 3d
       -0.06233765 0.1038062 -0.016610712 0.07102595
0002d0 20 a7 f2 bc 28 2b 48 3d 9f 57 82 bc a2 fc 9f 3d
       -0.029620707 0.048869282 -0.015910922 0.07811858
0002e0 ac de 56 bc 84 f3 49 bc fe 2d 03 3d 6a 46 61 bd
       -0.013114613 -0.012326125 0.032026283 -0.054998793
0002f0 31 a6 91 3d dd 4e 85 3c f2 9b 71 bc 25 d9 a2 3d
       0.071117766 0.016272957 -0.014746653 0.07951573
000300 c5 da 05 3d 94 0c 61 3b e9 1d 83 3d e6 01 5c 3d
       0.032679338 0.0034339773 0.06402189 0.053712748
000310 46 74 5b 3d 5c e3 6b 3d cb 7b 40 bd 85 7a 48 3d
       0.053577684 0.057589874 -0.04699306 0.04894497
000320 9b 5c 39 bd 54 53 03 3d 92 e9 b0 3b cb 7d 38 3d
       -0.04525433 0.03206189 0.0053989375 0.04504184
000330 49 a2 06 3d a0 3d 92 bd 0c a1 54 bd eb bd 15 bd
       0.03286961 -0.0714066 -0.0519114 -0.036558073
000340 4f bb ba 3d 0d bd 2f bc 64 48 b0 bc f3 a5 8d bc
       0.091177575 -0.010726226 -0.021518894 -0.017291045
000350 cd aa 08 3d 14 1a 1a 3d 42 6d 32 bd 01 dd e4 bc
       0.033366013 0.037622526 -0.043561228 -0.027937414
000360 49 05 a5 bc eb 17 c8 3c 8d aa 8a 3c 33 60 13 3c
       -0.020144122 0.024425467 0.016927028 0.008995104
000370 4f 1a 8d 3d 6d 39 13 3d 9d 4f 4b bd 7d b6 02 3d
       0.068897836 0.035943437 -0.049636472 0.031912316
000380 5a 3f 8b 3d cd c0 ae bd 24 6e 29 bc a8 08 83 3d
       0.06799193 -0.085328676 -0.010341201 0.063981354
000390 28 36 16 bc 15 97 aa bd 0d a9 93 3d f5 fe d3 3d
       -0.009168185 -0.08329598 0.07209978 0.103513636
0003a0 a3 16 40 3d cd 10 4f 3d 9d 38 dc bc 43 a5 2b 3c
       0.046896588 0.05055313 -0.026882464 0.010476413
0003b0 0e 19 13 bd 6a 35 0b 3e 65 2f ac bc a0 e0 a2 3c
       -0.035912566 0.13594595 -0.021018693 0.0198825
0003c0 e6 ff 88 3c 9e 75 90 bd c1 88 26 bd 7a dc 0b 3d
       0.016723584 -0.07053684 -0.040657762 0.03414581
0003d0 d5 d1 75 3d a9 eb ad 3c cc 0d 39 bd 30 18 af bc
       0.060014565 0.021230536 -0.045179173 -0.021373838
0003e0 33 41 37 bd 0d c9 b9 3b 2f 9e ca 3c dd 74 a7 bd
       -0.044739913 0.005669719 0.024733631 -0.08176587
0003f0 34 67 51 bc 0e f4 db bc 36 09 f3 bb 1d c5 a2 3a
       -0.012780953 -0.026849773 -0.0074168695 0.0012418363

model.6.weight f4 [16, 256]
000000 0f 65 60 be 71 c3 14 3d be 19 70 bd 7e de 6d be
       -0.21913551 0.0363192 -0.0586183 -0.23229405
000010 f4 eb 91 be 80 e1 9c 3c a8 ac f6 3d 20 fb 03 3f
       -0.2850033 0.019150496 0.1204465 0.5155506
000020 aa 21 8d ba 43 51 a7 3b 9c 92 6c bc 97 9c 2e bd
       -0.0010767479 0.0051061227 -0.014439251 -0.042629804
000030 7e 95 a5 bd 81 c1 0b 3d d3 40 2c bf eb 27 e9 3d
       -0.08085154 0.034120087 -0.67286414 0.11384567
000040 57 2c d3 bc 98 ec 39 be 53 90 82 be 9d 6e 20 3d
       -0.025777979 -0.1815666 -0.25500736 0.03916799
000050 96 58 e1 3d 03 12 0f be f1 89 3e bf f3 c0 3b 3e
       0.110032246 -0.13971715 -0.7442923 0.18335323
000060 8d 39 b6 3c 67 d1 bc bc 70 cf be 3d 49 e5 d2 bc
       0.02224424 -0.02304907 0.09316909 -0.025744097
000070 6d 86 1d bd 6e b2 45 bd 05 34 ac bd 4b 11 a1 bd
       -0.038458277 -0.048265867 -0.084083594 -0.078646265
000080 a5 4c 23 3e eb 5e 46 3d e4 d4 0a 3e 15 99 74 3e
       0.15947206 0.048430365 0.13557774 0.23886521
000090 b4 99 c1 3d 9e d8 32 3e ca 0b 52 bd f6 9e 05 be
       0.09453145 0.17465445 -0.051280774 -0.1304892
0000a0 01 7c a9 3d d4 fb 1c bd 92 8a 47 be dc 87 05 3e
       0.08275605 -0.0383261 -0.19486454 0.13040107
0000b0 b1 50 b8 bc 90 fc ad 3d b2 8e 0d 3b 7b 25 35 3d
       -0.022499414 0.08495438 0.0021599946 0.044225197
0000c0 c9 6f 90 bd 41 c8 6b 3d 9e 3d 3a 3d a6 b8 a9 3c
       -0.07052571 0.057564024 0.04546892 0.02071793
0000d0 89 a5 9a bd 20 05 3d 3e e6 46 32 3e bb e5 ce 3d
       -0.075511046 0.18458986 0.17409858 0.10102411
0000e0 08 8e 53 bf d7 bb 9b bd ce fa 63 bd 01 35 5e 3f
       -0.826386 -0.07604187 -0.055659108 0.8679963
0000f0 62 0f 52 bd e4 d6 bc 3c 52 cd 63 be 8b 60 d3 bc
       -0.0512842 0.023051687 -0.22246292 -0.025802871
000100 dd 47 e3 3d f8 76 3d bf 26 12 65 3e fb 54 98 3d
       0.11097691 -0.74009657 0.22370204 0.07438084
000110 df 96 6f be 4d cc 8b 3d 3e 02 46 bd b5 1c 21 3f
       -0.23397397 0.06826077 -0.048341982 0.6293443
000120 5c 99 ca bd 68 bc 3d ba 7a 3d a0 3e cf e8 98 3c
       -0.09892532 -0.00072378526 0.31296903 0.0186657
000130 54 73 7d 3c 2f 65 d4 3d fb 56 55 3d db d5 5a 3f
       0.015469391 0.10370862 0.052084904 0.8548257
000140 cb 51 21 3f c2 1d 8e 3d f2 d5 e3 3d 33 79 09 bd
       0.6301543 0.069392696 0.11124791 -0.03356285
000150 43 9c 50 3e 0a b1 7f be b4 14 be be 88 86 f3 bd
       0.20372109 -0.24969879 -0.3712517 -0.11890894
000160 47 c0 a7 3d 1c 3d 8c bd 9c 53 11 3d 77 58 f3 bd
       0.08190971 -0.06847593 0.035480127 -0.11882108
000170 c0 71 c1 bc 54 98 0b be c3 55 4c 3c 9d e8 49 bf
       -0.02361381 -0.13632327 0.012471619 -0.78870565
000180 e4 f5 15 bd 9a 45 f2 3c 99 bf 72 3c 3d f4 41 3d
       -0.036611453 0.029574204 0.014816188 0.047352064
000190 db 73 b7 3c 66 a8 1e 3c 4f 5e c9 bd db 98 d0 bc
       0.022394111 0.009683704 -0.09832441 -0.025463512
0001a0 26 17 d0 be 4d cd 64 be dc 7c 35 3e b0 4c 26 3d
       -0.4064266 -0.22343941 0.17723411 0.04060048
0001b0 3d f2 b8 3d 78 c0 23 3d 77 ae 90 bc 91 e9 59 be
       0.09030578 0.039978474 -0.017661316 -0.21280505
0001c0 b2 2f 1c 3d 94 61 5f 3d e6 69 b4 bd 53 90 96 3d
       0.038131423 0.054536417 -0.08809261 0.073517464
0001d0 c6 bd b2 bd 42 d9 5b 3d 8b 77 2a bd 9f 35 18 be
       -0.08727603 0.05367399 -0.04161791 -0.14864205
0001e0 db 28 b6 3d 73 c0 e7 bf e0 da f0 be a9 1d e9 bd
       0.08894511 -1.8105606 -0.47041988 -0.1138261
0001f0 48 02 f0 be 0a 7f e3 bd a2 b8 0f 3e 7d 8f 14 bd
       -0.4687674 -0.11108215 0.14035276 -0.036269654
000200 c0 44 d7 bb f4 b9 01 3f 14 65 16 bd f1 e7 5c bd
       -0.006569475 0.50674367 -0.03671749 -0.053932134
000210 1d b6 12 3d 0b 00 ef bd 5b 6d f3 3c 7e 48 c2 3c
       0.035818208 -0.1166993 0.02971523 0.023716208
000220 09 4a ce 3c f7 f4 d5 3d 0b 71 28 3e d6 71 37 3d
       0.025181787 0.10447114 0.16449372 0.044786297
000230 b9 66 4d 3d 44 45 c3 bd 3d b2 0e 3f e6 a3 48 3f
       0.050146792 -0.09534696 0.5574072 0.7837509
000240 64 18 ab bc 99 ea b4 bd fd c9 a7 bf 71 20 00 be
       -0.020885654 -0.088338085 -1.3108517 -0.12512375
000250 39 6e a1 bd 0e a4 7b be df 7c 89 be 85 af 01 bf
       -0.078823514 -0.245743 -0.26853082 -0.50658447
000260 13 68 8a bd c1 be 8e be de dc 33 bd d4 15 fd bd
       -0.06758132 -0.2787991 -0.043911807 -0.12357679
000270 5d c5 b0 3d 36 01 87 bd 66 b5 9b be c0 b9 b4 be
       0.08631394 -0.06592028 -0.30411834 -0.35297966
000280 33 6f 6e be 9d ce 9d 3d e9 60 ad bb 23 da fd bc
       -0.23284607 0.07705424 -0.0052910936 -0.030987805
000290 f3 1e cf 3c ea da 11 bc 79 88 9a 3c c4 5b e1 3d
       0.025283312 -0.008902291 0.018863903 0.11003831
0002a0 87 5a 42 be 20 b9 e2 3c 71 6e 66 be f7 5c 2e bd
       -0.18979846 0.027676165 -0.22503068 -0.042569127
0002b0 44 3e 39 3e 19 af 19 be 89 a0 f9 bd d2 bf 4b 3d
       0.18090159 -0.150082 -0.12188823 0.04974348
0002c0 49 eb cc bb 20 45 6a bd f8 fe f7 3b ac 16 72 bd
       -0.006253634 -0.05719483 0.0075682364 -0.059103653
0002d0 74 ae 6b be 35 1e f7 be 80 87 8c bc fc a1 10 be
       -0.23015767 -0.48265234 -0.017154455 -0.14124292
0002e0 a8 5c c3 be 2f 11 0b be b6 80 c2 3c 7b 7b ab bc
       -0.3815663 -0.13580774 0.023743015 -0.020932904
0002f0 3d c0 0d 3e 20 ea 9b bd cd e3 99 bb 7b 73 64 be
       0.13842864 -0.07613015 -0.0046963454 -0.22309677
000300 35 54 7d 3f 49 53 b6 bd 67 ee b9 3c 72 75 7f 3d
       0.98956615 -0.08902604 0.022696687 0.062367864
000310 0b 9d 2d bd 7f e1 7c bc 76 5b 49 3d e8 a3 08 be
       -0.042386096 -0.015434622 0.04915949 -0.13343775
000320 21 49 ed bb 4f 6d b4 bd 6e d6 20 bf 18 fc 9c bd
       -0.0072413837 -0.088099115 -0.62827194 -0.076652706
000330 3e 25 48 be 4f 90 5d bd 47 b0 f2 be 6e db aa be
       -0.19545457 -0.0540927 -0.47400114 -0.33370537
000340 cc 22 8a bd e7 5a 1c 3c b6 c9 79 bd 99 94 77 3c
       -0.06744918 0.009543157 -0.060983382 0.015111112
000350 aa 2c 60 bd 06 90 48 3d 17 0d d4 3d a6 5d d9 3d
       -0.054730095 0.048965476 0.10354059 0.10613565
000360 e8 14 07 bf 05 32 f1 bd 4a e5 1f 3d 07 4d 85 bd
       -0.52766275 -0.117771186 0.039037026 -0.065088324
000370 af 35 33 bf 66 13 21 3b 16 7b 16 bd 50 4d be 3d
       -0.7000379 0.0024578213 -0.036738478 0.0929209
000380 53 18 73 3c af 14 27 bd 24 28 85 3e 88 e6 56 3c
       0.014837342 -0.04079121 0.26007187 0.013116486
000390 14 38 19 3d 12 1f 60 bd 8a 69 24 be df a4 7c 3e
       0.037406996 -0.05471713 -0.16055885 0.24672268
0003a0 01 3b 8a 3d a4 fe 12 3c 09 1b cd bd 99 f8 f5 bc
       0.06749535 0.008971844 -0.10014922 -0.030025767
0003b0 9f 25 db bd f4 15 af bc 86 8e db 3b f0 39 d9 3c
       -0.10700535 -0.021372773 0.0067003397 0.026516885
0003c0 54 1f 3f be 3c ad 51 bc 1d af a8 bc 65 ab 36 bd
       -0.18664294 -0.01279765 -0.020591313 -0.04459705
0003d0 1a b0 21 3f fc 97 26 3c 30 d7 b2 3c b2 fb 0e be
       0.63159335 0.010168072 0.021831125 -0.13963202
0003e0 75 ac b5 3c ea 1f 00 3d 1c 4f 93 3b 49 a1 9c 3d
       0.02217696 0.031280436 0.0044955146 0.0764795
0003f0 c5 ab 82 3c fc 5e 33 3c 98 08 8c bd fa 21 a3 be
       0.015951047 0.010947939 -0.06837577 -0.3186186

model.6.bias f4 [16]
000000 16 a7 b8 3c 20 70 2a bd 33 89 27 bd 3b f2 5b 3d
       0.02254061 -0.041610837 -0.040902328 0.053697806
000010 7b 43 1e 3c b0 18 6e bd d6 42 f7 3d 5e e0 bc bb
       0.009659643 -0.058129013 0.12073295 -0.0057640513
000020 6c 7d e5 3b 10 8e a5 bd 37 a2 5b bc 9a 32 81 bd
       0.007003477 -0.08083737 -0.013405374 -0.063084796
000030 14 63 a6 bd 03 cf 4c 3c 99 7c 23 bd bc 21 04 bd
       -0.081243664 0.012500527 -0.039913747 -0.032258734
