data/checkpoints/rlgym-ppo-run-1760799561315875500/836223978/PPO_VALUE_NET.pt (torch, 623393 bytes, 7 tensors)

model.0.weight f4 [256, 89]
000000 29 fe d6 3e 42 3d a5 be 5f 49 b1 3d f0 c0 31 bf
       0.41990784 -0.32273299 0.086565726 -0.69435024
000010 eb 1b 6c be e1 fb ff bd 6f bc 67 3c 7d 58 e1 bd
       -0.23057525 -0.12499214 0.014144047 -0.11003206
000020 c6 00 a3 3d d4 8a 1a bc d7 e4 88 bb d7 15 ba ba
       0.07959132 -0.009432513 -0.0041776705 -0.0014197183
000030 62 aa 41 3a 73 99 0e bd 5d b3 57 3d 3e 49 79 bb
       0.0007387755 -0.03481431 0.05266129 -0.003803804
000040 0a 0f 55 bc c6 30 de ba 3c b5 90 3d 28 73 b2 bc
       -0.013004074 -0.0016951791 0.07065818 -0.021783426
000050 6f bc ae bd 2b 24 96 3d b8 c1 0a bd e7 34 b9 3c
       -0.085320346 0.07331117 -0.03387615 0.022608234
000060 0f 33 4a bd 06 cf 22 3d 4e f6 84 3d 10 4f 21 3c
       -0.0493651 0.039748214 0.064922914 0.00984551
000070 ef 06 eb bc 53 36 ec bd 49 8d 86 3b 90 58 b1 bd
       -0.02868983 -0.11533799 0.004106198 -0.0865947
000080 40 3e c2 3c 4a f4 ec bc f6 33 81 3c 29 5b bb 3d
       0.023711324 -0.02892508 0.015771847 0.09148247
000090 8c aa 21 3d 59 f5 17 3d 05 29 cf bc 12 4a 91 bd
       0.039469287 0.037099216 -0.025288114 -0.07094206
0000a0 c5 41 85 bc 10 75 c1 3d e9 1e 08 bd b0 c5 1a 3d
       -0.016266713 0.09446156 -0.033232603 0.037786186
0000b0 f8 57 16 3d b1 50 1a 3d dc 70 c5 bd 2d c8 bf 3d
       0.036704987 0.03767461 -0.09640667 0.093643524
0000c0 50 ec 9f bd 4d bb 93 3d 29 07 37 ba 9a b8 0d 3f
       -0.07808745 0.07213459 -0.0006981963 0.55359805
0000d0 38 b6 97 3e ea 3d 27 3f e3 79 84 3d a3 c4 32 bd
       0.2963121 0.6532885 0.064685605 -0.04364456
0000e0 45 f5 9c 3d ce 2e 97 3c ec 19 33 be 60 2d b0 3c
       0.07663969 0.018454935 -0.17490357 0.021506011
0000f0 ab 2f 47 3e 35 05 51 3c c3 2d ff 3e 3d 62 18 3e
       0.19451778 0.012757589 0.498396 0.14881225
000100 35 62 63 3d e2 5a 05 bc e0 d5 a0 3d d7 8b c3 3c
       0.05551358 -0.008139344 0.078532934 0.023870392
000110 63 91 00 3c aa a6 de bd 5a df a7 3e 0d 3a 55 bd
       0.007847163 -0.108716324 0.3278759 -0.052057315
000120 87 88 36 3e 21 73 31 bc 9d 1f dd bc 47 ac b2 bb
       0.17825519 -0.0108306715 -0.026992613 -0.005452666
000130 bd ee 83 3c 9f a4 50 bd 03 e1 8a bc bd 70 37 3e
       0.01610505 -0.050938245 -0.016952997 0.179141
000140 ae 4c f4 3d 3c 61 76 3e 2b f4 be 3c 41 48 6b 3d
       0.11928688 0.2406053 0.023309788 0.057441954
000150 71 a0 69 3d 52 25 1d 3e cc f4 49 3d 44 65 d9 bb
       0.057037774 0.15346268 0.049305722 -0.0066343863
000160 9b 7c 00 3e a3 f9 8c be a1 5a 4e 3f 48 d4 08 bd
       0.12547533 -0.27534208 0.8060704 -0.033405572
000170 e5 2c 80 be 7e 8d 8e bf c4 d3 f7 bd 4a 56 33 bd
       -0.25034252 -1.113693 -0.12100938 -0.043783464
000180 ba 97 9b 3b a2 2d 4f 3e 1f 44 43 3c 59 69 86 bb
       0.004748312 0.20232251 0.011918097 -0.004101914
000190 1d 0a 24 bc 8e d7 8a 3a 05 96 89 3c 87 f5 ec 3b
       -0.010012177 0.0010592805 0.016795168 0.0072314176
0001a0 0d 9b c2 3b fb a7 50 3c 01 98 a7 3c c6 10 0c 3d
       0.0059388936 0.012735362 0.020458223 0.034195684
0001b0 9f 86 0b be be 65 9b bd 07 96 63 bd fa 1d 4c bc
       -0.13625573 -0.07587765 -0.055563 -0.012458319
0001c0 44 4c 3d 3d da 49 62 3c 73 da d1 bd 13 f5 08 3d
       0.04621531 0.013811553 -0.10246744 0.033436846
0001d0 0e 43 c7 3c 07 9c 3c bd 73 91 48 3d 79 7f 2f bc
       0.024323966 -0.046047237 0.048966836 -0.010711544
0001e0 7e d8 12 3c 41 e9 a6 bc 0d 9d d8 bc 42 fe 03 bd
       0.008962749 -0.020374896 -0.026442075 -0.0322249
0001f0 c6 51 12 be d2 3d 2c 3d b3 16 c4 bc da 9a 8f bd
       -0.14289007 0.042051144 -0.023936605 -0.070119575
000200 16 42 5c 3b 11 28 97 3d c9 98 7c bd 2e cd 00 3c
       0.0033608726 0.07380689 -0.061669145 0.007861419
000210 ef 9d 4c 3d 08 99 39 3d ce 0b 42 3d c2 2d 5d 3c
       0.049955305 0.045311958 0.04737454 0.013499679
000220 f3 1d f6 3b 18 54 8a bc ac 58 16 bd 61 a3 ba 3d
       0.0075108944 -0.016885802 -0.036705658 0.09113193
000230 60 7c 0a 3e 41 39 66 bd 34 2d e8 3e a8 89 a2 3c
       0.13524008 -0.056206945 0.45346987 0.01984103
000240 d5 63 a5 3c 7b 55 24 bd dc f9 67 bc 16 29 2d bd
       0.020189205 -0.040120583 -0.014158692 -0.04227551
000250 0a 39 00 bd 85 11 1a 3d 06 84 fb 3e fc 9c e8 3e
       -0.031304397 0.037614364 0.49124163 0.4543227
000260 5d b0 24 bc 74 71 be bc e8 67 3d 3d ca f4 da 3d
       -0.010051814 -0.023247458 0.04624167 0.10691221
000270 bd 31 3f 3b 02 08 09 3d 42 33 30 be 44 a7 2d 3d
       0.0029173933 0.033454902 -0.17207053 0.042395845
000280 b6 16 a4 bd 11 8d 9c 3c 88 aa 7f 3c 4b 19 0e bc
       -0.08012144 0.019110234 0.015604623 -0.0086730225
000290 dc be 51 3c f0 e7 28 3b d0 9b 92 3a 26 d7 ce ba
       0.012801852 0.002577301 0.0011185352 -0.0015780672
0002a0 4e 96 b8 3d a3 90 80 3e 87 d7 94 3c 75 4f 91 3c
       0.09013043 0.2511035 0.018169178 0.017738083
0002b0 a9 8b c5 ba cf 06 d0 3c 12 f6 0b be dc bf 26 3c
       -0.0015071529 0.025393872 -0.13668087 0.010177579
0002c0 5f e5 f7 ba 61 0a 2f be ad 5f 64 bf f3 ab cc bf
       -0.0018912962 -0.17093803 -0.8920849 -1.5989975
0002d0 b0 37 91 3e 4b 2b e4 bc 95 36 85 ba 9a ea ec 3c
       0.283628 -0.027852675 -0.0010163361 0.02892046
0002e0 4e c5 41 3c 60 ad 07 bc 83 b4 46 3c d5 3b ff ba
       0.011826826 -0.008281082 0.012127998 -0.0019472787
0002f0 a3 2b d7 39 4a 5a 1f 3b 8d b0 3c 3b 6e 1a e8 b9
       0.00041040507 0.002431529 0.0028791756 -0.0004427018
000300 c9 82 06 3c 66 ec 8b 3a 67 d7 39 ba 7a 54 c7 3a
       0.008209893 0.0010675311 -0.00070892874 0.0015207671
000310 d1 e1 06 3d d6 36 47 3d c7 8c 2b 3d 05 9c 30 3d
       0.0329302 0.04863628 0.041882303 0.04311754
000320 a9 27 57 3d 41 c4 86 bd c8 4a 63 3c 67 d7 d9 bd
       0.052528057 -0.06580401 0.01387281 -0.10636788
000330 65 5f 80 3d 71 8e 12 3d bc 8a 14 3a 3d 83 61 3d
       0.06268195 0.035780374 0.0005666425 0.0550568
000340 0b 2d 2a 3d 9f b1 20 3d 32 73 ea bc e0 35 5a bd
       0.041546863 0.039231893 -0.028619383 -0.053274035
000350 f2 b9 9e 3c 65 2a 2c bd 4f a9 57 3d 8a 0d 52 3c
       0.019375775 -0.042032618 0.0526517 0.012820611
000360 c2 de e3 3c 3f 49 bc ba 02 39 05 3d 8f c0 31 bc
       0.02781618 -0.0014365091 0.03252507 -0.010849132
000370 32 68 a1 bd 75 68 8d b9 56 50 6f 3c a8 52 cf bb
       -0.07881202 -0.00026971442 0.014606556 -0.006326992
000380 29 6a d5 bd d6 58 aa bd aa 25 76 bd 32 a5 4e bb
       -0.10420639 -0.08317725 -0.060094513 -0.003153157
000390 23 8a 2d bc b8 8a 82 3f c1 2c c8 3f ac b6 78 3e
       -0.010592016 1.0198584 1.5638658 0.24288434
0003a0 67 d8 19 bb 48 ab 2d bb 15 c0 be ba 07 36 63 3c
       -0.0023474933 -0.0026499797 -0.0014553095 0.013867862
0003b0 e1 20 5d bc 05 ec 2f 3c a3 c5 02 3e a1 e2 2d 3d
       -0.0134966085 0.010737424 0.12770705 0.04245246
0003c0 d9 61 13 3e 95 97 47 bb db ff 0c 3c 0e 3f 52 3b
       0.14392795 -0.003045534 0.008605923 0.003208104
0003d0 c0 2d 3c 3e bf 0e 38 bc 6c 15 61 bc 18 61 a4 3b
       0.18376827 -0.0112339845 -0.0137380175 0.0050164573
0003e0 e9 2b cd bd dc 5e 21 bc 99 7c 9d 3d 8b eb e9 3b
       -0.10018141 -0.009849276 0.07689781 0.0071386746
0003f0 f6 c8 7b 38 23 11 9b ba 84 5e 88 3b 2b 3b 93 3b
       6.0030223e-05 -0.0011830669 0.0041616578 0.0044931374

model.0.bias f4 [256]
000000 a6 68 ae 3c 7b 8e 1c be e5 f1 61 3d 50 29 ec bd
       0.021290135 -0.15288727 0.05516233 -0.11531317
000010 57 38 16 3e d9 7a af 3c 00 fe 41 3d f6 84 7e 3d
       0.1466993 0.021420883 0.047361374 0.06213852
000020 b6 f0 48 bd 95 5d b3 bd bc 6e ec bc 8b 2a 33 bd
       -0.049057685 -0.08758084 -0.028861396 -0.043741744
000030 92 46 56 3d 50 50 bf bd fb 1c de 3d 24 d5 cf 3d
       0.052313395 -0.0934149 0.10845371 0.10148075
000040 31 4c 70 bd 7d 20 cf bd 7e 9e d6 bd 28 c3 c1 3d
       -0.05866641 -0.101136185 -0.10479449 0.09461051
000050 85 54 e0 3c 07 9b 22 bc 69 f4 d5 bc e1 a9 32 3d
       0.027384052 -0.009924657 -0.02611752 0.04361904
000060 da df 35 bc 45 37 11 bd b7 29 ae bd 19 cb c1 3d
       -0.011100734 -0.0354531 -0.0850405 0.09462566
000070 a2 0f 85 3d a5 74 38 3d c0 f9 65 bd 9c 90 a3 bc
       0.06497122 0.045033116 -0.056146383 -0.019966416
000080 9f 84 8a 3d c8 1b b6 bc 09 7a 54 bd fe 40 a2 bd
       0.06763577 -0.022230044 -0.051874194 -0.079225525
000090 a2 f9 a3 bd 96 9c 5c bd 89 03 b9 bd d2 b7 61 bc
       -0.08006598 -0.05386027 -0.090338774 -0.013776736
0000a0 4c 32 d9 bd 58 19 11 3d 14 35 2a bd 20 07 22 3d
       -0.106052965 0.03542456 -0.041554525 0.039557576
0000b0 89 4d 6b bd 77 d0 cb bb 54 a5 27 3d ce b5 03 bd
       -0.05744699 -0.0062199193 0.040929154 -0.032155804
0000c0 0f 61 7f 3c 08 de 05 3d 1a 4f 2a bd aa ef ca bc
       0.015587105 0.03268245 -0.041579343 -0.024772484
0000d0 a0 ac 59 3d 68 d1 85 3d cb 20 d1 bd 19 90 a9 bd
       0.053143144 0.06534082 -0.10211333 -0.082794376
0000e0 7a 19 79 3d 41 bf 7c 3d 48 61 41 3a ec a5 85 3d
       0.060815312 0.06170583 0.0007376862 0.06525788
0000f0 08 81 33 3b 7f 56 53 3d 10 2b 28 bd 21 dc 2a 3d
       0.002739014 0.05159616 -0.041056693 0.041713838
000100 b9 d0 49 bd 0c 0b 1f bd 63 21 87 bd 85 c5 33 bd
       -0.04927132 -0.038828894 -0.06598165 -0.04388954
000110 5a ca 6e bc 13 00 a2 3c 5e e7 37 bc c4 ae 8b bd
       -0.014574612 0.019775426 -0.011224596 -0.06820443
000120 d2 5e e2 3d 46 d2 bd 3d d3 2e 44 3a 17 5b 63 bc
       0.11053242 0.09268622 0.0007483784 -0.013876698
000130 e4 e6 4b bd 64 29 a1 bc e9 51 cf bd 7a bf c9 3b
       -0.04978074 -0.019673057 -0.10123045 0.006156859
000140 b0 76 88 bd 8e 48 98 bd 90 3c 85 bc a8 d6 de bd
       -0.06663263 -0.07435714 -0.01626423 -0.10880786
000150 ea c8 29 3d ff 76 82 bd 51 da 45 3d 19 39 8e 3d
       0.041451372 -0.06370353 0.048303906 0.06944484
000160 03 2e da 3d 82 a1 77 bd e0 3a ff 3c f6 f4 c6 3d
       0.10653307 -0.06045676 0.031156003 0.09714691
000170 2c 6d 1e 3c a7 dc 5a bd c3 c0 d7 bc a7 c5 98 3c
       0.009669583 -0.053433087 -0.026337033 0.018648935
000180 78 67 a2 bd 48 8f 2f bd 4b 76 39 3d 6e d0 77 3c
       -0.07929891 -0.042861253 0.04527883 0.015125377
000190 c2 a0 52 bc 10 09 aa 3d a7 8a 4c 3a 52 71 a2 bd
       -0.01285571 0.0830251 0.0007802643 -0.079317704
0001a0 f7 65 2f 3d ab 62 bc 3c 43 30 d2 bc 0d bc 33 bd
       0.04282185 0.022996267 -0.025657779 -0.04388051
0001b0 15 e4 36 bb d9 5e 95 bd 1d bc 42 bd 69 99 8c 3d
       -0.0027906944 -0.072934814 -0.04754268 0.06865198
0001c0 ba 80 40 3c 1b 4d f7 bb 5c c9 a8 3d f5 24 cd bd
       0.011749441 -0.0075470335 0.08241531 -0.100168146
0001d0 58 30 a2 3d 49 3a 18 bd 79 e2 b8 bd d9 3c 1d bd
       0.07919377 -0.03716496 -0.09027571 -0.038388107
0001e0 a6 e3 84 3d 5a 89 8d bd d7 91 b5 bd 5d b4 f8 bc
       0.06488733 -0.06910963 -0.08865707 -0.030359441
0001f0 ff 14 da bc 18 14 de bc bc b0 d5 3b de e9 bc bc
       -0.02662134 -0.02710919 0.0065213125 -0.023060735
000200 7f 3e 20 3d 9c f0 42 3d 07 6b 85 bd b8 67 20 3d
       0.0391221 0.047592744 -0.065145545 0.039161414
000210 41 35 b6 3d fc 54 e6 bc c2 8e 8f bd 8a 32 9d bd
       0.08896876 -0.028116696 -0.07009651 -0.07675655
000220 9b 23 a7 bd 2b c3 c0 3c 92 26 32 3d e3 b8 05 3d
       -0.08161088 0.023530563 0.043493815 0.032647025
000230 2e be c0 bd 0f ff 85 bd 08 ac 8a 3d e4 4b dc bb
       -0.09411274 -0.06542789 0.067710936 -0.006722914
000240 c0 37 7d bc 8a 7e a7 3d a6 0d 21 bd c7 5e b0 3d
       -0.015455186 0.08178432 -0.039319657 0.08611827
000250 92 96 98 3c 6b e1 c6 bd b1 09 46 3d 3a 48 e4 3b
       0.018626485 -0.09710964 0.048349086 0.006966618
000260 b8 94 7b 3c 0c 0c d0 3c e1 4a 7c bd 32 d9 b6 bb
       0.0153552815 0.02539637 -0.061594848 -0.005580091
000270 d3 70 c2 3d bc e0 b8 bd f0 2a 0b 3d 37 47 43 3d
       0.09494176 -0.0902724 0.033976495 0.047675338
000280 dd dd 06 bd a6 68 59 bd 82 0f 96 bc f3 d8 31 3d
       -0.03292643 -0.053078316 -0.018317942 0.04341979
000290 ac 38 b8 3d ce e5 f8 3b f6 c0 48 bc b7 59 8c 3d
       0.08995184 0.007595754 -0.012253037 0.06853049
0002a0 9d 78 ad 3d 4d 11 42 bd 3d 15 c3 3c dc 40 62 3d
       0.08470271 -0.04737978 0.023813838 0.055237636
0002b0 a2 71 6f bd 57 37 52 bd b5 11 60 3d 61 54 3b 3c
       -0.058457978 -0.051322307 0.054704387 0.011433692
0002c0 c8 aa 70 b9 37 1e 65 3d 9a a8 0e bd 0e 2b 5e bd
       -0.00022951805 0.05593702 -0.03482876 -0.05424028
0002d0 15 b5 61 bd 13 1e f2 bd 01 b5 f7 bc 1b d7 a8 bc
       -0.055104334 -0.118221425 -0.030237677 -0.020610383
0002e0 82 c6 98 bb f9 cd de 3d 23 ca 4a 3c f8 32 8a 3c
       -0.004662336 0.1087913 0.012377295 0.016870007
0002f0 ac e9 a4 3d cf 7c 1c bc 86 b5 e9 bc 82 74 cc bd
       0.08052382 -0.009551241 -0.02852894 -0.099831596
000300 a9 ae 44 bd b5 3a dc 3c 14 7b a4 3d f1 81 ac bd
       -0.04801813 0.026883462 0.08031288 -0.08423222
000310 de 40 18 bb 53 1f cd 3d 3b c1 5a bd a2 39 a6 bc
       -0.0023232023 0.1001574 -0.053406935 -0.020291153
000320 3d 42 4f 3c 1d e4 e3 bc 59 03 07 bd 53 ae e6 3d
       0.01265007 -0.027818734 -0.032962177 0.112637185
000330 3b d3 84 bd 67 94 a5 3d 18 9d 68 3c 43 f3 2c bd
       -0.064856015 0.08084946 0.01419761 -0.04222418
000340 9e ac b1 3d 22 cf 27 3c ef 3a d5 bc 9a 0a db bb
       0.08675502 0.010242255 -0.026029078 -0.0066846134
000350 cf 85 96 3c 75 f8 00 bd ad fb ca bc 4d e6 d5 3c
       0.018374352 -0.031486947 -0.024778211 0.026110793
000360 3b 62 32 bd 17 99 60 3d fc 94 25 3d 4d 7e 59 3d
       -0.04355071 0.054833498 0.040425286 0.053098965
000370 8f e6 58 bd 9d ea 97 bd ef 81 67 3c 1c ac 8c bd
       -0.052954253 -0.07417796 0.0141301 -0.06868765
000380 b2 29 f1 bd 74 bd 30 3d 05 de 09 3d 98 48 8f 3d
       -0.11775531 0.043149427 0.033659 0.06996268
000390 25 09 33 3d d0 2b 81 ba bd 91 f6 3d 3e b2 f0 bc
       0.043709893 -0.0009854976 0.12039516 -0.029381867
0003a0 29 ca 7a 3b 6e af c9 bd 5c 89 33 3d 42 2c d6 bb
       0.003826747 -0.09847914 0.043832168 -0.0065360377
0003b0 b0 46 b3 3c ad 90 e8 3c 1b b0 94 b9 d6 f7 7d 3c
       0.021884292 0.0283893 -0.0002835997 0.015500983
0003c0 f4 9c f3 bb bc 1b c7 bd b0 b5 1e bd c7 80 8f 3d
       -0.0074344818 -0.09722087 -0.03874749 0.07006984
0003d0 6a 28 a6 bc cf 65 94 3d 2a 7a 84 bd b0 f8 2b bd
       -0.020282943 0.07245981 -0.064686134 -0.041985214
0003e0 f5 8a c6 3d ab b1 39 3d 52 29 de bd e6 83 f3 3b
       0.09694473 0.045335453 -0.10847725 0.007431495
0003f0 28 9b aa 3d 12 83 c3 3d 9d 6f 9e bd 1e 44 f8 bc
       0.08330375 0.09546484 -0.07736132 -0.030305918

model.2.weight f4 [256, 256]
000000 ab e5 bc bd ea b8 34 bb f0 01 6a be 42 9d 2b bd
       -0.09223493 -0.0027576038 -0.22852302 -0.04189802
000010 fa 26 72 3b fc e6 45 3d 27 4d 86 bd 8b be e8 bd
       0.0036949501 0.048315987 -0.065576844 -0.11364468
000020 41 a2 8b 3d d6 30 02 3d 3d aa 2d 3d 39 06 1b 3e
       0.06818057 0.031784855 0.04239868 0.15139093
000030 9c 43 bf bd e8 47 9a 3d ef f2 72 bd 6d ed 30 bc
       -0.09339067 0.07533246 -0.05931371 -0.010798794
000040 e1 2a 54 3d d1 56 e4 bc 37 b0 85 3d 78 06 5a 3d
       0.051798705 -0.027873429 0.06527751 0.053228825
000050 e5 a4 6c be 13 a1 87 3d f8 7e 30 3e 08 fb b2 3c
       -0.23109777 0.06622519 0.17235935 0.021848217
000060 15 6f 59 bd 1f 19 f9 39 a1 a1 f6 bd 12 ef 8a 3b
       -0.05308445 0.00047511698 -0.12042547 0.004239925
000070 f4 de ec 3e 0b 9e 73 3d c4 02 d9 3d ae 61 0b be
       0.4626385 0.059476893 0.105962306 -0.1361148
000080 74 a6 24 bc db 4e 62 bd 59 64 00 3e 28 27 84 bd
       -0.010049451 -0.055250984 0.1253828 -0.06452781
000090 2b 1f 49 bd 95 93 83 bd 87 a0 06 3e 10 bd 1a 3c
       -0.04910199 -0.064246334 0.13147174 0.00944449
0000a0 d8 c2 18 bf 73 18 d1 bd b1 b2 1a 3d 70 c8 ea 3c
       -0.5967231 -0.102097414 0.03776807 0.02866003
0000b0 b6 92 32 be 31 39 6e 3d 57 a0 a1 3d 02 7b e7 bd
       -0.17438778 0.05816001 0.078919105 -0.11302759
0000c0 61 fc 05 3e 2b 1f 89 bd 55 49 ec 3d 77 8a 87 3e
       0.13084556 -0.06695398 0.115374245 0.26472828
0000d0 ce 86 04 3e c8 4e 86 bd a4 df 51 3d 79 e9 16 be
       0.12942049 -0.06557995 0.05123867 -0.147375
0000e0 2b 06 f1 3b 28 67 6d 3d 3c 02 63 3d e5 a9 22 3d
       0.0073554716 0.057959706 0.055422053 0.039712805
0000f0 5f 1d 19 3e f7 27 2a bd fc 88 00 3e c2 28 01 3d
       0.1495261 -0.04154202 0.12552255 0.03153301
000100 d3 ac f4 bb 8f 66 2c bd 29 0c 58 3d 8b 1b a8 3d
       -0.0074668913 -0.042089995 0.05274597 0.082083784
000110 c3 8d 01 bd 17 4e 3f bd 4d e3 f2 bb 57 ad 0d 3e
       -0.031629335 -0.04670533 -0.0074123503 0.13835655
000120 1d ac 02 3d 66 01 99 3c fb 5d 79 3c 06 90 03 be
       0.03190242 0.018677425 0.015220161 -0.1284791
000130 6b ec 57 3e 1f e9 de bd f6 44 8b 3d 76 08 1b 3d
       0.2108628 -0.10884308 0.06800263 0.037849866
000140 15 51 76 3d 55 f5 22 3e 06 0e 89 bd 13 83 08 be
       0.06013592 0.15913899 -0.06692128 -0.13331251
000150 30 94 55 bd 0a 35 e2 bb 2b eb 23 bf 1b 15 92 3d
       -0.052143276 -0.0069032954 -0.6403071 0.07132932
000160 80 9a 59 bc 51 00 a7 bc d0 bb 8f 3d 48 20 1a be
       -0.013281465 -0.020385893 0.07018244 -0.15051377
000170 37 a3 af 3d fe 79 69 3e c7 b7 df 3c 9d e9 60 bd
       0.08576053 0.22800443 0.027309312 -0.05491029
000180 9a 8f 4c bd 28 be 05 be bf 6b 1f bd 35 72 c9 3d
       -0.049941637 -0.1306082 -0.038921114 0.098362364
000190 4c 4f 71 be fe e7 23 3e 45 3f d2 3d 90 a7 03 3d
       -0.23565406 0.16006467 0.10265974 0.032142222
0001a0 6e e7 13 3d 3d 43 30 3e 7a 68 75 be 7f 62 e9 bd
       0.03610938 0.1721315 -0.23965636 -0.1139574
0001b0 bd 8d 0b 3e 9c 53 c6 bc 1e 1b 2a 3b 84 d0 04 3e
       0.13628288 -0.02420979 0.0025956105 0.12970167
0001c0 df 03 cc 3e 90 cf f5 3c aa f8 c3 3d 2a 74 d9 3c
       0.39846703 0.0300062 0.09568913 0.02654465
0001d0 b1 bc ec 3d db 40 4f bd 49 b8 55 bd 2a aa 5c bb
       0.115594275 -0.05059896 -0.0521777 -0.0033670762
0001e0 70 d2 0b be 3a 37 c2 bd 62 19 68 be 15 42 45 bd
       -0.13654494 -0.0948319 -0.22665933 -0.048158724
0001f0 95 35 0e 3e c7 01 a8 bc 24 45 52 3c 34 e5 1d bd
       0.13887627 -0.02050866 0.012833867 -0.038548663
000200 dc c7 2e 3d 88 41 c4 bd c8 4d 3f 3c e9 e4 86 3d
       0.04267107 -0.095828116 0.011676259 0.0658663
000210 e8 86 b9 be d4 18 4a bc fc 57 3b bc c9 55 81 bd
       -0.36235738 -0.012335021 -0.011434551 -0.0631519
000220 51 b3 3d be 0f db 6d bc 40 6e 8f 3b df 94 27 be
       -0.18525435 -0.01451756 0.0043771565 -0.16365384
000230 88 d4 df bd b2 b2 0d bd be fe 09 3d ff 75 70 be
       -0.10929209 -0.034594245 0.033690207 -0.23482512
000240 16 a5 83 be ac 32 73 3a a1 4f c6 bd 7e 9c 4b 3e
       -0.25711888 0.0009277265 -0.09683157 0.19883916
000250 87 eb 1a be 4f da fc 3d dc ff d7 bc 05 07 78 3d
       -0.15128909 0.123463266 -0.02636712 0.06055357
000260 39 b2 04 3e 20 a2 68 bd a7 40 bc bd 85 8b 0d be
       0.12958612 -0.05679524 -0.09192019 -0.13822754
000270 a0 3e 11 3d 14 5c 87 3d 35 69 c8 bd 65 2d 99 bc
       0.035460114 0.066093594 -0.09785692 -0.018698404
000280 78 ac 27 be cf 90 18 be ad e9 b2 bd 28 b0 98 3d
       -0.16374385 -0.1489899 -0.08735976 0.07455474
000290 b9 04 c1 3d 7c c4 ba 3d 40 bf 56 3e 8d 54 f2 3c
       0.09424729 0.09119508 0.20971394 0.029581333
0002a0 99 43 1b 3d 4f cb c1 3c 14 7c b0 3d 29 f0 9b bd
       0.037906263 0.023656515 0.08617416 -0.07614166
0002b0 7a 95 d7 3d 59 32 92 bd 9c d2 ba 3d 38 02 33 3c
       0.10526557 -0.07138509 0.09122202 0.010925822
0002c0 ca a6 d6 bd c5 6d 2f be e4 31 a1 bd 54 70 bc 3c
       -0.10481031 -0.17131718 -0.07870844 0.023002781
0002d0 f2 29 c7 bd c3 d4 1a 3e 24 e8 a1 3a 7e f1 4f bc
       -0.09724797 0.15120225 0.0012352508 -0.012691854
0002e0 0e 95 2d 3c 65 01 f5 bd 4c 35 24 3e ae 52 82 bd
       0.010594619 -0.119631566 0.16035956 -0.06363426
0002f0 14 fa 85 3c 78 e7 be 3b 06 69 4a bc 6e 91 b6 3d
       0.016354598 0.005825933 -0.012354141 0.08914457
000300 fc 3c 24 be d5 70 16 3d 14 05 65 3d 64 c4 20 3e
       -0.16038889 0.0367287 0.055913046 0.15699917
000310 27 60 af bd 1d 75 4f 3b dc 9f 01 bd a5 79 dd bb
       -0.085632615 0.0031655498 -0.031646594 -0.006758886
000320 86 d6 d3 bd 18 fc ba 3d fa 09 9f 3c 48 22 a4 3c
       -0.103436515 0.09130114 0.019413937 0.020035878
000330 e3 55 2e be 71 99 59 be 08 eb 1c 3d e0 a4 cf bd
       -0.1702495 -0.2124994 0.03831008 -0.10138869
000340 f5 7f 73 39 cf 2f cf bd 01 e5 9a bd 58 c1 4b bc
       0.00023221954 -0.10116541 -0.0756321 -0.012436233
000350 d9 c8 04 be e3 c6 20 bd cb bf c4 3d a5 79 31 bc
       -0.12967242 -0.039252173 0.09606894 -0.010832225
000360 e1 b0 8a bc fa 39 d6 3c c5 a5 f5 3d 4c 87 14 3d
       -0.016930046 0.026150692 0.11994509 0.03626184
000370 c5 97 dc 3d 95 0d 1c bd 72 cf b0 bd 70 8b 50 3d
       0.10771135 -0.03809889 -0.08633317 0.050914228
000380 55 c8 0c 3c 7e d6 b6 3c 4d f5 49 bd 69 ef fd bc
       0.008592685 0.022319075 -0.049306203 -0.030997949
000390 8f 37 e0 3d d0 2a d1 3d 4f 0f 14 bc 78 96 71 3c
       0.10948097 0.10213244 -0.009036853 0.014745347
0003a0 99 f9 59 bb c0 b2 8d bd df ed 2e 3e 51 83 07 3e
       -0.0033260344 -0.069188595 0.17082928 0.13233687
0003b0 b2 0d d2 bc 7b 96 0b b9 81 88 3f bd 3c 8a ed bc
       -0.025641296 -0.00013312131 -0.04676104 -0.02899658
0003c0 a1 ce 96 3d 45 58 4d bc e5 50 c2 3d 93 20 e6 3c
       0.0736363 -0.012533252 0.09488086 0.028091704
0003d0 ef 20 5f bd f3 30 a9 3d e0 b9 b5 bd 5b eb c3 3c
       -0.054474767 0.082612894 -0.088733435 0.023915937
0003e0 4d 35 72 bb 1c 09 95 3d ba 8c 33 be 8d a8 37 3c
       -0.003695804 0.07277128 -0.17534152 0.011209619
0003f0 2f 18 fc bd b1 07 8d bd 36 5d 0a 3d 02 9f 81 be
       -0.123093 -0.06886233 0.0337803 -0.25316626

model.2.bias f4 [256]
000000 6f df c0 3d dd 4d cc 3c 92 e7 93 3c 19 15 8a bc
       0.094176166 0.024939472 0.018054757 -0.016855763
000010 d5 f5 a5 3d 68 7c de 3c fb 33 4a 3d ce d2 c8 3d
       0.08103529 0.02715893 0.04936598 0.09805833
000020 e4 9c 33 bd 0f 38 f3 3c c5 54 23 be 65 88 2d 3d
       -0.043850794 0.029689817 -0.15950306 0.042366404
000030 12 29 08 bd 1c 4f 27 3d bb 15 49 3d 2d 64 a9 3d
       -0.033242293 0.04084693 0.04909299 0.0827106
000040 91 aa 22 bd 08 fc 9d bc bc 94 bc bc 18 4f 80 bd
       -0.039713446 -0.019285217 -0.02302014 -0.06265086
000050 e4 d4 55 bd fd d5 d6 3c 4d 4b 37 3c 02 0b cc 3d
       -0.05220498 0.026225084 0.011187387 0.09963037
000060 ad 05 03 bd 24 c8 ef bc ac 97 a0 3d 99 7f b0 bc
       -0.031987835 -0.02927024 0.07841429 -0.021545218
000070 53 d4 ff bc c0 5c 85 bd e7 4c bf bc 6b 2f 86 3a
       -0.031229174 -0.06511831 -0.0233521 0.001023752
000080 30 16 8c bb 34 1a 1e bd 60 29 5f 3d 6b 12 a0 bd
       -0.004275106 -0.038599208 0.054482818 -0.07816013
000090 dc 4c 5a bb b1 ff 44 bd 8a 5c 78 3a e6 ba 2f bd
       -0.0033309972 -0.04809541 0.00094742386 -0.04290285
0000a0 10 c1 40 3d 70 11 2d bc 2b 80 a6 3b 6d 10 b4 3b
       0.04705912 -0.010563239 0.005081197 0.005495122
0000b0 d3 d6 9d bd 86 7f 5c bc 11 27 51 3c 05 c6 c0 bc
       -0.0770699 -0.013458138 0.012765662 -0.023531923
0000c0 87 99 56 3d 76 32 e4 3c 4f 61 50 bd 9b 50 81 bd
       0.05239251 0.027856093 -0.05087405 -0.063142024
0000d0 0c df 6a 3c 63 62 20 be eb 91 a2 bc fa 6a c4 bd
       0.014335405 -0.15662532 -0.01984497 -0.09590717
0000e0 46 80 f8 3b 64 10 9f 3d c0 07 fb ba a3 8c 88 3c
       0.0075836508 0.07766798 -0.001915209 0.016668623
0000f0 a1 9e 29 bd 4d 20 38 3d ca 9d 06 3d 3e c7 39 bd
       -0.041411046 0.04495268 0.032865323 -0.045356028
000100 68 25 b4 bc 5b ee fa bd 2b 09 5d 3d 43 b2 a4 3d
       -0.021990493 -0.12252494 0.05396382 0.08041813
000110 da 4d 8d bc de 64 40 3d 5e 68 8a 3c 1c b4 31 3d
       -0.017249037 0.046971194 0.01689547 0.043384656
000120 e1 f8 5c bd 3c 1f af 3c ba a1 bb 3c dc e3 ce bb
       -0.053948287 0.021377198 0.022904266 -0.006313784
000130 fb 65 35 3c ed f0 31 3d 29 ba 9f 3d 4c f2 e6 3c
       0.011071677 0.043442655 0.07799179 0.028191708
000140 c0 a8 38 bd 57 8b 49 bc f5 67 91 3d fb 9c cb 3d
       -0.045082808 -0.012301288 0.07099906 0.09942051
000150 f4 4a 78 bd be 0f 3a 3d 51 63 e7 3c 11 92 b5 3d
       -0.060618356 0.04542517 0.0282456 0.088657506
000160 78 b4 86 bc 94 6c 13 3c 6d 77 fa bb b0 0d f8 bb
       -0.016443476 0.008998055 -0.007643631 -0.007569991
000170 83 63 22 bd 89 6c da 3c 32 ea 1a 3d 17 8f 9e 3d
       -0.039645683 0.026663082 0.037821002 0.07742136
000180 7d 2a 12 3d 9a 52 d5 bd 34 55 d3 3c 6f 7e dc bc
       0.03568505 -0.104161456 0.025797464 -0.026915757
000190 61 0a 10 bd 22 b4 0d bd c9 49 16 3d c5 41 d8 3c
       -0.035166148 -0.034595616 0.03669146 0.026398549
0001a0 57 57 85 bd b5 7a 40 3d bc 34 bb bb 90 e4 35 3d
       -0.065107994 0.046992023 -0.0057130735 0.044407427
0001b0 4e 58 d6 ba 15 c3 cb bd 97 46 47 bc 24 c0 33 3d
       -0.0016353221 -0.09949318 -0.012162826 0.04388441
0001c0 75 3b 18 3d 69 0c 7c 3c fb 06 8c bc a9 d9 52 3d
       0.037166078 0.015383818 -0.017093172 0.05147711
0001d0 a1 de 27 bd fd c5 0c bd b3 fd 18 bc c8 72 f8 bc
       -0.0409838 -0.034368504 -0.00933783 -0.03032817
0001e0 6a 23 ec 3c 00 50 64 bd 71 cc 8a 3d cf 7d 81 ba
       0.02882548 -0.055740356 0.06777275 -0.0009879413
0001f0 7f ae 15 bc 32 64 cd bc 9f 22 af bd f9 df 6a 3c
       -0.009135841 -0.02507219 -0.08551525 0.014335626
000200 76 29 ae 3a f0 d8 e3 bc c7 83 3f bd 1c cd 19 bd
       0.0013287503 -0.027813405 -0.046756532 -0.037549123
000210 ca f2 d2 3d d0 4f cb bd 42 51 1f 3d 54 a0 a1 bd
       0.103002146 -0.099273324 0.038895853 -0.07891908
000220 25 2b 3b 3c 4d bc 93 bd ee b8 a4 bb 4b 20 30 3d
       0.011423861 -0.0721365 -0.005026928 0.042999547
000230 81 2e ce 3d fa b4 b9 bd 0c 4c 86 3d cd 33 cd 3c
       0.10067464 -0.09067722 0.065574735 0.025049115
000240 0d 9b e2 3d 2e d5 b5 3d 0d 87 60 bd 0a bb 9c 3d
       0.1106473 0.088785514 -0.054816294 0.07652862
000250 0c a7 f1 3b 42 8e 17 bd 6e 00 bd 3c 96 69 94 3c
       0.00737465 -0.037000902 0.023071494 0.018116754
000260 42 0a 1b bd 9a 67 8f bc 66 48 42 bd 1e a6 98 3d
       -0.03785158 -0.017505456 -0.047432326 0.07453559
000270 93 77 11 bc 6a bc c7 3d 9e b5 aa bd 8d b3 4f bd
       -0.008878606 0.09752734 -0.08335422 -0.050708342
000280 13 ea 40 3b b8 92 10 bd aa 3b b9 bc f7 37 7b bd
       0.0029436394 -0.035296172 -0.022611458 -0.06133267
000290 41 ed 3d 3d 34 94 48 bd 63 a4 cc b7 c2 92 bd bc
       0.04636884 -0.048969463 -2.4395244e-05 -0.023141269
0002a0 be 32 76 bb 2c 4b 10 3d b2 4c a0 3d 38 60 80 3d
       -0.0037566866 0.03522794 0.078271285 0.06268352
0002b0 9c 46 01 b9 f0 eb 30 bd b5 97 05 bd 64 7a 80 3d
       -0.00012328703 -0.043193758 -0.032615382 0.06273344
0002c0 5d 8e 07 3d 45 d2 f2 3c 90 a7 07 be 71 9e 9a 3c
       0.033094753 0.02964128 -0.13247514 0.018874379
0002d0 0d b3 d5 bc 22 94 ad 3d 9e e4 be bc 0c 07 e3 bc
       -0.026086355 0.0847552 -0.023302373 -0.027713321
0002e0 a7 fb 4f 3a c0 6a 44 bd 36 2a 54 3d 67 e0 fa bc
       0.00079339225 -0.047953367 0.051798068 -0.030624582
0002f0 45 fe 81 3d 85 32 86 bb 24 43 29 bd 5c a0 58 3d
       0.06347326 -0.004095378 -0.041323796 0.052887306
000300 bf 46 2d bd b9 c5 fb 3b 96 47 09 bd af f2 c2 bc
       -0.042303797 0.0076834825 -0.033515535 -0.023797361
000310 63 d5 21 3d f6 dc 99 3d 4a 54 0e 3d 8e 09 b4 3c
       0.039510142 0.07512848 0.034748353 0.021977212
000320 36 0b bf 3d 92 3b bd 3c ef bc 57 3d ec 7b 03 3d
       0.0932831 0.023099694 0.052670415 0.032100603
000330 47 da cb 3b 6f 2b d2 bd 78 5d 76 bc 57 14 c0 bb
       0.006221089 -0.102621906 -0.015036933 -0.0058617997
000340 b7 a3 27 bd e6 b3 a6 bb ec ee 22 3d 58 aa 79 bd
       -0.040927615 -0.0050873635 0.039778635 -0.060953468
000350 e2 60 91 3d 18 d5 53 bc 9f 60 37 bc 24 e1 c8 3c
       0.07098557 -0.0129292235 -0.01119247 0.024521418
000360 d8 be e2 bc e5 72 11 bd 88 d7 01 3d cf 29 db bc
       -0.027678892 -0.035509963 0.031699687 -0.026753334
000370 b2 d0 39 bc 8f 90 ee 3c 4e a7 16 3d 11 47 e8 bc
       -0.011341261 0.029121665 0.036780648 -0.0283542
000380 56 d1 2a 3d 0d 8d 27 bc bd 25 b4 3d 82 20 88 bc
       0.041703545 -0.0102265 0.087962605 -0.016617063
000390 0b bf e2 bc 16 ff 46 3d 71 84 50 bb f7 10 7f bc
       -0.027678987 0.048583113 -0.0031817222 -0.01556801
0003a0 aa 82 02 3d b8 35 51 3d 20 68 10 bd b0 df 13 3b
       0.031862892 0.05107662 -0.03525555 0.0022563748
0003b0 9a a1 29 bb 8f 91 3c 3d a9 20 07 3d 88 1e 2d ba
       -0.0025883676 0.046037253 0.03299013 -0.0006603976
0003c0 8e 4c 24 bc 44 1a 96 3c 9b 22 8f bd ca 00 77 3a
       -0.010028018 0.018323071 -0.06989022 0.000942242
0003d0 e4 e7 91 bc 5b c2 9d 3c 83 10 2c bd 21 3f 26 bc
       -0.01781077 0.019257715 -0.042007934 -0.010146887
0003e0 f0 8c 5b 3d 1b d2 98 bb 15 9f 77 bd 38 1c 24 bd
       0.053601205 -0.0046637184 -0.060454447 -0.040065974
0003f0 8b 37 1c 3d bf af 94 bb ce d7 2e bd 35 3d 2e bd
       0.038138907 -0.004537552 -0.042686276 -0.04253884

model.4.weight f4 [256, 256]
000000 f5 c9 1a be f6 34 03 3d 9f f5 93 be aa e5 0d 3d
       -0.15116103 0.03203293 -0.28898332 0.034642853
000010 00 19 bc bd de 23 21 bd 63 0f 50 be 4b 68 6a be
       -0.09184456 -0.039340846 -0.2031837 -0.22891347
000020 37 2c a4 bb a1 02 d6 be 54 dd 87 3c 5f 51 19 3d
       -0.0050101536 -0.4179888 0.01658503 0.037431117
000030 78 69 2f be 46 b6 0c bd ee 87 64 bd 84 e0 09 3e
       -0.17130077 -0.034353517 -0.055793695 0.13464552
000040 75 25 0f be 81 15 09 3c 23 a2 1f bd bd 48 8f bc
       -0.13979132 0.008366943 -0.038972985 -0.017490739
000050 de 3a 85 bd e3 48 1e be 9d 12 7d bd 52 bc 87 bd
       -0.06505369 -0.15457492 -0.06178533 -0.06627716
000060 62 63 1f bd 78 6f b8 3c 66 ae d4 bb e9 06 b9 3c
       -0.03891314 0.02251409 -0.0064905165 0.022586303
000070 62 ad bd be a9 85 4a 3d 7c d9 59 be 03 a6 57 be
       -0.37046343 0.049443875 -0.2127437 -0.21059422
000080 52 21 46 be 94 13 24 bd 31 87 8f 3d 0d 68 bf bd
       -0.19348648 -0.040057734 0.070082076 -0.09346018
000090 d6 17 0f bd fc 31 0c be 78 bc 8a bd 45 1f 1a 3d
       -0.03493484 -0.13690943 -0.06774229 0.037627477
0000a0 0d bb 54 be c7 2c 4d bf 0f be f0 3d a1 ed 81 be
       -0.20774479 -0.8014645 0.11755001 -0.2537661
0000b0 aa ee bc bd e0 37 82 bf a2 f0 91 be 78 95 29 3d
       -0.09225209 -1.0173302 -0.285039 0.04140231
0000c0 96 e8 58 3d 11 0a 3c bc e8 49 3b 3d 1f d7 bc 3d
       0.052956186 -0.011477009 0.04572478 0.092207186
0000d0 b5 12 6b 3d 08 d3 05 3d 38 c7 c7 3d 38 20 c3 bd
       0.057390887 0.03267196 0.09754795 -0.095276296
0000e0 f5 32 2d bd 5c 1a fe 3a 3a fb c5 bd 47 f9 0a be
       -0.042284925 0.0019386518 -0.09667058 -0.13571654
0000f0 4f cb 43 3c 41 c3 29 3b e0 bf 96 3c 96 a0 91 3c
       0.011950328 0.0025903734 0.01840204 0.017776769
000100 b7 14 63 3d e4 a3 cc bc 1f cf cd bc b3 e4 ea bc
       0.055439677 -0.024980493 -0.025123177 -0.028673505
000110 5e 78 d2 3c ee 9e 2f 3c 9f ea dd be 7d 68 85 3b
       0.025692161 0.010719044 -0.43343064 0.004071294
000120 38 08 a3 be f2 d4 25 bd 27 d6 7f 3d 99 25 32 bd
       -0.31842208 -0.040486284 0.06246009 -0.043492887
000130 13 6d 6c bd 19 47 97 3d 8c f1 8c bd 4e 62 3a 3d
       -0.05772121 0.07386608 -0.06882009 0.045503907
000140 2d 2f 5b 3d 09 c8 9c 3d 8e 49 1d 3b 08 4a 71 bd
       0.053511787 0.07655341 0.002400014 -0.058908492
000150 86 99 a1 bc 79 82 05 bd bd 82 d2 3c f8 75 19 3d
       -0.019726526 -0.03259513 0.025697106 0.03746602
000160 b3 55 38 3d 1b 04 32 3e 24 c6 9f bd 5f 02 05 3c
       0.045003604 0.17384379 -0.07801464 0.008118241
000170 b1 fd 9f 3c e0 0a 83 3d c3 af 85 bd cb 23 00 bf
       0.01953015 0.063985586 -0.065276645 -0.50054616
000180 f6 c6 ee be 2b 96 ec be 7c 71 b8 bd ff a4 d4 3c
       -0.4663617 -0.4620832 -0.090060204 0.025957583
000190 45 b2 8f be 0b c5 ff b9 af bb 2b 3d 15 9a 5d be
       -0.28065696 -0.000487842 0.041927036 -0.21640809
0001a0 1f b0 c8 3d d2 d4 c6 be 6f 6b d3 3c be 97 03 bd
       0.097992174 -0.38834244 0.025808064 -0.032127135
0001b0 e4 d4 28 3e e1 42 e3 3e e8 2b 15 3d 01 4f d7 ba
       0.16487461 0.44386962 0.036418825 -0.0016426743
0001c0 27 8f ab 3e ed 78 f7 bd 05 34 5d 3d 18 b5 00 3c
       0.33507654 -0.12083612 0.054004688 0.007855676
0001d0 2c e1 76 3c 12 48 3f 3d 53 4f 88 bd f4 54 37 3d
       0.015068334 0.04669959 -0.06655755 0.044758752
0001e0 f0 5e 5f b8 f2 b8 0d be 5c a6 93 bb 6b bd 31 3d
       -5.325576e-05 -0.13840082 -0.0045059156 0.043393534
0001f0 c9 71 40 be b4 40 e5 be b0 c6 16 bf b9 c0 dc be
       -0.18793406 -0.44775927 -0.58896923 -0.43115786
000200 ea 71 81 bd 0b 0c 54 be 13 cf 99 bc bb 14 7c bc
       -0.063205555 -0.20707719 -0.018775498 -0.015385802
000210 28 d5 94 3d 53 32 d9 3d e3 84 56 bd a0 f8 e2 3d
       0.07267219 0.10605302 -0.052372824 0.11082578
000220 5f a8 01 3d 2b 91 48 bd 9e 8f a7 bd 34 17 25 be
       0.03165471 -0.048966568 -0.0818169 -0.16122133
000230 68 76 bc be 76 bd 43 3e d7 ac e8 bc df df 11 be
       -0.36809087 0.19115242 -0.028402729 -0.14245556
000240 12 32 32 3e ae 8b 64 bd 5c c5 fc 3c 12 81 73 bc
       0.17401913 -0.05579727 0.030855827 -0.014862316
000250 f2 12 43 bd 4d 97 12 3e e8 c7 45 3c 5e 6e 22 3d
       -0.04762549 0.14315529 0.012071587 0.039656036
000260 b0 0e f0 3d ff ef 19 3d 33 32 3b bd 95 cc 2a 3c
       0.117215514 0.037582394 -0.04570217 0.010424753
000270 24 d6 09 bd 80 da 1e be d9 37 82 3b 51 bb a0 be
       -0.033651486 -0.15513039 0.0039739427 -0.3139291
000280 7d a3 15 3c e4 93 3f 3d a1 06 5b bd ae d1 77 3d
       0.009133217 0.0467719 -0.05347312 0.0605027
000290 ed bf d7 bd 6f 55 1b 3d f3 2a 76 bd 14 a1 a7 bc
       -0.10534654 0.037923273 -0.060099553 -0.02046255
0002a0 79 94 25 bd a5 1b 92 bd 1d 1a 75 3c ac 10 36 3d
       -0.040424798 -0.07134179 0.014959839 0.044449493
0002b0 ae 4a 96 be 89 2a 3f bd 30 7b 41 bd 51 ec bb 3c
       -0.2935385 -0.046671424 -0.04723662 0.022939833
0002c0 8e d0 93 bd 26 ab 31 be 23 ce c9 be 8c e6 a3 bc
       -0.07217513 -0.17350444 -0.39415082 -0.020007394
0002d0 ba 4c 64 be a3 95 1a 3d b2 69 87 3d 2a e9 81 be
       -0.22294894 0.03774036 0.06611957 -0.25373203
0002e0 15 eb 41 bc 7f 7c 4d bf 8a 4e 23 bc 49 d8 54 ba
       -0.011835833 -0.8026809 -0.009967456 -0.0008119387
0002f0 3a 29 88 3d ef 38 aa bd 50 a0 6b 3e ee d8 fb ba
       0.06648488 -0.083116405 0.23010373 -0.001921443
000300 b2 f0 84 3c 2c c9 9b bd 11 98 58 3d 6a c6 ac bc
       0.016228054 -0.0760673 0.052879397 -0.021090705
000310 25 85 93 be 46 72 72 3e 6b 1d cf bb e3 07 7c be
       -0.2881252 0.23676404 -0.0063206456 -0.24612384
000320 af db 99 be 13 61 f6 3c 96 ca 96 bd d2 80 98 bc
       -0.30050418 0.030075585 -0.07362859 -0.018616114
000330 f6 55 ef bd 43 13 0f 3e cf 33 55 3d 2b 97 83 3d
       -0.116863176 0.13972192 0.05205136 0.064253174
000340 02 99 83 bd 0f e9 15 3c 16 db b0 be d6 80 02 3d
       -0.06425668 0.009149804 -0.3454215 0.03186115
000350 e4 c6 19 3d 89 31 c2 3b 64 3c b3 3d 93 6f f5 3c
       0.037543193 0.005926315 0.08751753 0.02996043
000360 42 de 82 bd 6b 94 30 3d cf 83 2a be 71 29 1d be
       -0.063900486 0.043110292 -0.16651843 -0.1534784
000370 ba 22 ef 3c e2 bd dc 3c ad 71 aa be 83 eb 0b bc
       0.029191364 0.026946012 -0.33289853 -0.008540037
000380 bb 38 dd be 03 08 d3 3c 98 44 ce be e0 7a a3 be
       -0.43207344 0.025760656 -0.40286708 -0.31929684
000390 13 83 c5 3a 49 a7 90 3c 00 da d0 3d 8c c9 d5 be
       0.001506897 0.017657893 0.1019783 -0.4175533
0003a0 3a ac 2d 3d 84 71 40 3b b3 d4 8e be e5 ee 49 3e
       0.042400576 0.0029364536 -0.27896652 0.19720037
0003b0 df 6a d1 be d4 be 49 be f1 87 08 3c 43 20 30 3d
       -0.4090185 -0.19701701 0.008333192 0.042999517
0003c0 41 22 b3 3d c0 33 01 bf 94 e9 f9 be 2b 09 45 bd
       0.08746768 -0.5046959 -0.48811018 -0.048104446
0003d0 2f 80 42 bb 71 8f ab bc 93 6a 81 bd 6a 5a dc bd
       -0.0029678454 -0.020942422 -0.063191555 -0.107594326
0003e0 ec 77 2d bd 5d bb 97 3d ad 46 e0 bd 17 28 b0 bc
       -0.042350695 0.074087836 -0.1095098 -0.021503491
0003f0 7b c4 76 bd 7a 43 f8 3d 0f f7 8d 3c 01 63 3d 3c
       -0.060245972 0.12122245 0.01732972 0.011559249

model.4.bias f4 [256]
000000 07 d6 4d 3d ef 42 3c bd 57 8f f9 bb f8 cb 8a 3d
       0.05025294 -0.04596227 -0.0076159644 0.06777185
000010 25 8d b4 3c 8b 80 54 3c b8 6b 24 bd 2d 78 e7 ba
       0.02203996 0.0129701 -0.04014179 -0.0017659717
000020 ea 52 99 bd b4 86 b3 bb 97 de e7 bc 2d 69 d3 3d
       -0.07486518 -0.0054787043 -0.028304381 0.10322795
000030 1f e6 26 3d a8 71 e8 3b 77 f5 67 3d ad d0 22 bd
       0.040746804 0.007093627 0.056630578 -0.03974979
000040 61 ad 85 bd f8 82 05 3c aa e3 05 bd 8f 72 20 bd
       -0.0652721 0.008148901 -0.03268782 -0.03917175
000050 72 e1 50 3d 33 71 83 bc 70 33 8d 3d 61 0f 52 3d
       0.05099625 -0.016045189 0.068945765 0.051284198
000060 13 a2 fb 3c b3 3a be 3c 8f 78 f7 3a c7 95 b4 3d
       0.030716931 0.02322135 0.0018880534 0.0881763
000070 fd c9 e8 3c df be 36 3d 04 08 22 bd aa a3 40 3d
       0.028416628 0.044615623 -0.039558426 0.047031082
000080 87 1b 52 3d 6b fd 7e 3c b9 a4 cf 3c 87 8e 10 3d
       0.051295783 0.015563349 0.0253471 0.035292175
000090 7e ef b0 3d 18 b0 39 3d 58 1f d5 bc b1 55 56 3d
       0.086394295 0.04533395 -0.026015922 0.052327815
0000a0 84 71 4f 3d 4a 0c 80 bd ad db d3 3d 66 18 28 3d
       0.050645366 -0.06252344 0.10344634 0.041038893
0000b0 e1 91 ae 3c 56 8b 94 3c d6 ad 45 bd 96 a9 23 3d
       0.021309795 0.018132847 -0.048261486 0.03995665
0000c0 41 80 60 bd e2 6a db 3c 77 de 88 bd 77 c3 75 3d
       -0.054809812 0.026784364 -0.06683057 0.060000863
0000d0 5c 53 41 3d 6e 5e 65 bd a7 69 49 bb 7a 55 98 bd
       0.04719864 -0.05599826 -0.003073314 -0.07438178
0000e0 32 a9 08 3d 75 64 9e 3c 3f df d6 bc 54 15 4a 3d
       0.033364482 0.019335011 -0.026229499 0.049336746
0000f0 c7 78 f5 3b 23 10 ec 3d d2 f9 65 3d e8 7d 8a 3c
       0.0074912044 0.11526515 0.05614645 0.01690574
000100 58 61 bb bc 8b 7a 92 3d 28 29 bf bc 05 b0 88 3c
       -0.022873566 0.071522795 -0.023335055 0.016685495
000110 5d e5 f8 3d b1 6a e9 3b dd 2d be 3d f7 9e 82 bc
       0.121531226 0.0071233143 0.092860915 -0.015944941
000120 6e bb 83 bc d6 a3 fa 3c 51 cc 43 3d 62 a7 11 bd
       -0.016080584 0.030595701 0.047802273 -0.03556002
000130 da 08 1d 3e ae 5a e6 bc ae 31 c3 bc e0 d1 b9 3d
       0.15335408 -0.028119411 -0.0238274 0.090732336
000140 b3 29 0a bd ec 99 84 bd 07 ab 0f bc 2e 5a 84 bd
       -0.033731174 -0.06474671 -0.008768803 -0.06462513
000150 b1 54 b1 3d c4 19 a8 3d af 5e 96 bd ce b4 3c be
       0.08658732 0.082080394 -0.07342278 -0.18428347
000160 27 40 ad 3c 71 7a 24 3d bb 5f 53 3d 23 61 18 bc
       0.021148754 0.04015583 0.051604968 -0.009300503
000170 a6 42 b2 3d dd 57 1b 3d 52 29 c4 3c 68 11 0e 3d
       0.087041184 0.03792559 0.023945484 0.03468457
000180 1f 92 fa 3d 3f d4 d7 3c 57 f7 57 3a d1 56 ec 3d
       0.12234902 0.026346324 0.00082384556 0.115399964
000190 33 8f e2 bb 65 7c 27 3d d0 a1 93 bd d3 ec 13 bd
       -0.0069140433 0.040890116 -0.07208598 -0.036114525
0001a0 b5 e0 ad 3a e2 0f ab 3d 28 17 ab 3c 19 14 00 bc
       0.001326582 0.08352639 0.020885065 -0.007817292
0001b0 c0 8f 45 bd 43 ca 6b 3d 8c a0 fd bd b0 98 a0 bd
       -0.048232794 0.05756594 -0.123841375 -0.07841623
0001c0 4d 56 fa bc 11 ce 94 3c 88 da bf 3c 1d ee 6d 3c
       -0.03055873 0.018164666 0.023419634 0.014522103
0001d0 e5 72 94 bd 34 51 20 3c 2a a9 04 3b 61 00 88 bd
       -0.07248477 0.009784985 0.0020242431 -0.06640697
0001e0 e1 84 b6 bc 53 97 12 bd 1b 71 37 bd b9 85 d4 bc
       -0.022280158 -0.035788845 -0.0447856 -0.02594267
0001f0 ce 7e 36 bd 90 2d 81 3d 63 41 e5 bc ba da fe 3b
       -0.044554524 0.063075185 -0.02798528 0.007777539
000200 07 a2 a3 3c 1e 82 0f 3d fc 1d 8d 3d 28 b2 ca bd
       0.019974722 0.0350362 0.06890485 -0.09897262
000210 1d ff c0 bc 47 47 bb 3c 28 97 8a 3b 02 ac 11 3d
       -0.023559147 0.022861136 0.004229445 0.03556443
000220 e1 0e 9f 3d d7 a6 27 3c a7 7e d9 bc cf fa 65 bd
       0.0776651 0.010232649 -0.02654965 -0.056147393
000230 da a2 13 3d 42 9b 4b 3b 2b bb 63 bc a5 df 86 bd
       0.03604398 0.0031067883 -0.013899605 -0.065856256
000240 74 52 b6 3b 5f 6f 13 bd 94 64 eb 3c 91 7b 92 3d
       0.0055640284 -0.035994884 0.028734483 0.07152475
000250 ec a2 97 3c 47 bd 08 bd 54 70 ac 3c fa 62 9c bc
       0.018510304 -0.033383634 0.021049656 -0.019090164
000260 b2 7b 06 bd 80 3d 6c 3c 12 73 16 bd f8 b6 24 3c
       -0.03283281 0.01441896 -0.036730833 0.010053389
000270 5e 09 9e bd 14 fb e0 3b a9 fe 28 3d 15 7d e6 bc
       -0.077166304 0.0068658683 0.041258488 -0.028135816
000280 55 35 48 3b dd 31 97 3c c5 39 88 3d d1 42 a0 bb
       0.0030549366 0.018456394 0.06651644 -0.0048907776
000290 b0 40 44 3c 47 70 c8 3d 48 5c d0 3c 24 03 df 3d
       0.011978313 0.0978704 0.025434628 0.10889271
0002a0 18 7f 1f bd 1d 3b f4 bc e6 6e da bd b8 88 34 3d
       -0.038939565 -0.029813344 -0.106656834 0.044075698
0002b0 85 04 05 3c 14 6f 97 bc e6 83 af 3d 44 ff 45 3d
       0.008118753 -0.018485583 0.085700795 0.048339143
0002c0 aa 7e 57 bb d9 5e f9 3c 6c 7c d7 3d ba 54 c8 bb
       -0.0032881894 0.030440735 0.105217785 -0.006113616
0002d0 38 e9 92 3d c4 68 3d 3c 02 e9 4f 3d e2 e7 84 bd
       0.07173389 0.011560623 0.050759323 -0.06489541
0002e0 41 ce 29 bc 65 a3 aa ba 26 f9 94 bc 8b cf 2b bd
       -0.010364116 -0.0013018666 -0.01818521 -0.041945975
0002f0 86 f1 79 3d 16 af 90 bc 6e af bd bc aa 8b b3 bd
       0.06102135 -0.017661612 -0.02315494 -0.08766873
000300 08 b7 b8 3c 09 d4 8d 3c 0e d1 9e 3d a9 08 65 3c
       0.022548214 0.01731302 0.07754718 0.0139791155
000310 b3 7d 86 3d cc 24 24 3d 5d 4b b0 3c b5 df 76 bc
       0.06566944 0.040074155 0.021520311 -0.015067984
000320 00 7c f4 3c c7 cf 73 3a 17 9e 9a 3d f7 12 30 3d
       0.029844284 0.00093006756 0.075496845 0.042986836
000330 e9 a9 4c bd ef 91 1e bd b1 3a fb 3a a7 f3 ff bc
       -0.049966726 -0.038713392 0.0019167272 -0.031244112
000340 55 df 84 bd 4b 77 20 3d 59 8a bb 3d 27 b5 b8 3a
       -0.0648791 0.039176267 0.09157247 0.0014092074
000350 8c 45 97 3b e7 83 00 bc bd 6e 08 bd 58 fc 60 3d
       0.004616445 -0.007843948 -0.033308733 0.054928154
000360 72 01 72 bd 0a d7 97 bd 4c d4 89 bd 86 42 96 3d
       -0.05908341 -0.07414062 -0.067299455 0.07336907
000370 4c fd 90 bb 76 5d 3d bd 80 9e de 3d 54 41 2a 3d
       -0.0044247266 -0.04623171 0.10870075 0.041566208
000380 6d 7a 96 3d 42 ca 80 bc d2 04 35 bd 29 cf a0 3d
       0.073475696 -0.015721444 -0.04419405 0.07852013
000390 ff ac 14 3d 14 19 00 3e d2 dd f3 bc 4a fb 5f 3d
       0.036297794 0.12509567 -0.029768858 0.054683007
0003a0 88 5e 36 bd e3 b5 84 3d b7 56 cf bc d9 be 57 bd
       -0.044523746 0.06480005 -0.025309904 -0.05267224
0003b0 ec 16 c0 bc bf 8f 4e bd da 4b 72 3d 5d 99 ba 3b
       -0.02344843 -0.050430056 0.05915437 0.005694552
0003c0 62 20 3d bd 0e d1 1e 3d c1 01 08 bd 7b 86 c4 3c
       -0.04617346 0.03877359 -0.033204798 0.023989907
0003d0 1f bf 10 3d bb 1c 5e bd d3 dd 5b 3d ba 57 89 bd
       0.035338517 -0.05422662 0.053678345 -0.06706186
0003e0 1a 59 f4 3c 27 e3 aa 3c 5b 33 77 bd 92 fc 68 3d
       0.029827643 0.020860268 -0.06035171 0.056881495
0003f0 53 b4 ec bc 42 11 90 3b 3e c2 f5 3d 8b 8b 08 bd
       -0.028894579 0.0043965885 0.119999394 -0.033336204

model.6.weight f4 [1, 256]
000000 7e 8a fe be 5b 36 8f bd 10 d2 cf 3e f7 fb 06 3e
       -0.49715036 -0.06992789 0.40589952 0.13182054
000010 a4 98 01 be c9 e7 3d 3e 32 68 5c be 42 22 e5 3d
       -0.12655884 0.1854545 -0.21524122 0.11188175
000020 9e 53 cb be 27 5e c8 3b e9 0c e6 bb e4 87 96 3e
       -0.39712232 0.0061147395 -0.007020582 0.2940055
000030 40 89 73 3d ee e9 37 be ef 1f 90 3d f5 f4 25 bf
       0.059457064 -0.17960331 0.07037341 -0.648269
000040 a7 ef 76 bd 8f 39 f1 be f8 7e 61 3f a1 67 6b bd
       -0.060287144 -0.47114226 0.88084364 -0.057471875
000050 22 f1 ba 3e ab f7 d3 bc ed 5c 0c 3e d5 7d 6f bf
       0.36512095 -0.025874933 0.13707323 -0.9355138
000060 a8 3f d1 3e 29 b9 5e 3c 64 56 fe 3d a4 db 1a 3e
       0.40868878 0.01359395 0.124188215 0.15122849
000070 c6 f4 42 3f e1 32 1c 3e ff fd 01 3f 22 17 8a bd
       0.76154745 0.15253784 0.5077819 -0.067426935
000080 de 34 19 3e 53 f3 1f 3f d3 b3 59 3e 18 ce 57 3d
       0.14961573 0.6248066 0.21260004 0.05268678
000090 6f 10 81 3e d0 08 2f be 12 ff a9 ba 5f cd d4 3b
       0.2520785 -0.17093205 -0.0012969694 0.0064942087
0000a0 c5 93 b1 3d e4 08 82 bd 30 05 2c 3e eb cf 14 be
       0.08670763 -0.06349352 0.16798854 -0.1453244
0000b0 96 ad 9c be 18 f4 24 3e 61 43 00 bf ac 63 69 be
       -0.30601186 0.1610874 -0.5010281 -0.22791928
0000c0 27 c8 d5 be ac d7 5a bf fe 93 19 bc ba 82 37 be
       -0.41754267 -0.8548534 -0.009373663 -0.17920962
0000d0 77 b3 f2 be f5 5d ee ba 2c 5e bf 3d 2c 8b 64 bd
       -0.47402546 -0.001818596 0.09344134 -0.055796787
0000e0 81 95 c8 be ad 3f 6f be 6f 83 3d be 96 29 10 be
       -0.39176562 -0.23364134 -0.18507169 -0.14078364
0000f0 c6 e6 9b bd 1d 09 02 3f 49 71 0d bd e0 52 20 bd
       -0.07612376 0.50795156 -0.034531865 -0.039141536
000100 a7 e0 2a 3f c4 17 a5 3d 10 52 52 be 5d 01 74 bd
       0.6674904 0.080611736 -0.20539117 -0.059571613
000110 01 0b 24 3e 31 c6 91 3d f9 d0 33 3e 6f 3a 6f be
       0.16019823 0.0711788 0.17560185 -0.23362134
000120 f9 d3 19 3f da e0 0c 3e 37 2e c0 be 8c be 0b bf
       0.6008907 0.13757649 -0.3753526 -0.54587626
000130 74 3d 95 be d6 7e 64 3f 32 fb af bc 7b 82 40 3d
       -0.29148448 0.89256036 -0.021482084 0.046999436
000140 d5 ee 57 be f7 c7 5b 3d 90 cb 8a bd 21 f1 ad 3e
       -0.21087201 0.0536575 -0.06777108 0.3397303
000150 2a fc 9c 3e b4 25 be 3d d6 fc 81 3d ef 66 b8 3e
       0.30661136 0.09284535 0.06347053 0.36016032
000160 ae a4 ef 3d 64 3c ce 3d f2 ab 4e 3e 40 e0 a3 be
       0.11701332 0.10070112 0.2018278 -0.32007027
000170 eb 7b aa 3d b4 8d bd be 6c fc 86 3e b0 20 59 3e
       0.08324417 -0.37022173 0.26364458 0.21203876
000180 93 1f 81 3d 77 16 05 bd 72 8c 6f bd 22 ca 9d 3d
       0.063048504 -0.032492127 -0.05848355 0.077045694
000190 b8 a9 8d 3e c9 b9 52 bf 91 d9 e0 be 66 42 79 bc
       0.27668548 -0.82314736 -0.4391599 -0.0152135845
0001a0 d0 29 fc be 36 7f c1 bd db c5 8e bf f2 43 b8 3c
       -0.4925065 -0.09448092 -1.1154131 0.022493336
0001b0 40 b6 b0 be 42 82 be be 93 e6 00 bf 66 ce f6 be
       -0.34514046 -0.37208754 -0.5035183 -0.48204345
0001c0 49 b8 3b be d6 bf fe 3d 9b 92 06 bd b5 76 6a be
       -0.18332018 0.124389336 -0.032854658 -0.22896846
0001d0 a0 98 f3 be 9f a1 97 bd 65 56 83 be c5 4a 6f be
       -0.4757738 -0.07403874 -0.2565185 -0.23368366
0001e0 47 f8 09 3e 25 10 c6 be 66 10 b9 ba d0 14 b1 3e
       0.13473617 -0.38684192 -0.0014119267 0.3458619
0001f0 05 b3 83 bd b9 05 bb 3d b7 9e 03 bf c1 24 76 be
       -0.0643063 0.09131951 -0.51414055 -0.24037458
000200 cd dd 17 3d 13 56 54 be e1 41 d1 3d 80 24 a5 bf
       0.03707676 -0.2073596 0.102176435 -1.2901764
000210 a1 13 81 be 5f 4f ad 3d b4 fc a5 bf d5 6d d8 be
       -0.25210288 0.084624045 -1.2967744 -0.42271295
000220 50 01 4e 3e cd 1a b8 3d ef a8 f7 bc e7 ec 4c 3d
       0.20117688 0.08989487 -0.030231921 0.050030615
000230 15 11 84 be 58 31 43 be c6 be b6 bd 85 d1 be 3e
       -0.25794283 -0.19061792 -0.08923106 0.37269226
000240 de 04 73 3e 11 d5 fc be 21 88 2d be 19 ff 96 3e
       0.23732325 -0.49381307 -0.1694646 0.294915
000250 15 39 31 be 47 72 8e be 8c de f4 be 71 a8 77 bd
       -0.17306931 -0.27821562 -0.4782604 -0.060463373
000260 d0 c5 c0 be 78 33 9f 3e 91 51 2d be a8 76 98 3c
       -0.3765092 0.31093955 -0.16925646 0.018611267
000270 e6 1c f2 be 50 72 0f be 72 ac 84 3e 2e 0b 03 3f
       -0.47287673 -0.1400845 0.25912815 0.51188934
000280 05 1a ae 3e 4e ed c9 bc 67 51 d1 3d c1 13 2e bf
       0.34004226 -0.024649289 0.102206044 -0.6799889
000290 f8 46 68 be a9 dc b5 3d 41 31 83 3b fd a7 01 3e
       -0.22683322 0.08879978 0.0040036743 0.12661739
0002a0 0c 90 70 bd cd 64 f4 bd 2b 51 32 bf d6 7b 5d 3e
       -0.058731124 -0.11933289 -0.696551 0.21629271
0002b0 c8 f2 9d be df 06 7f bd 61 84 a3 3d 7d b2 ae 3d
       -0.3084929 -0.062262412 0.07984234 0.08530138
0002c0 60 71 16 3e 1a 24 34 be d5 aa a9 3d 11 6c 1a 3e
       0.14691687 -0.17591897 0.08284537 0.15080287
0002d0 8e fa ae 3e 41 19 81 3e 6c ec c4 3d c0 3e 05 bf
       0.34175533 0.2521458 0.096154064 -0.52048874
0002e0 7b 81 b7 3e d4 1a 06 3e 3b 85 1b 3e 1a 0c 7c be
       0.35840973 0.13096172 0.15187542 -0.24613991
0002f0 04 05 9f 3d c3 65 12 3d 0c b5 44 bd 8c f7 51 be
       0.077646285 0.03574158 -0.048024222 -0.20504588
000300 fa 46 95 be 8b ad cb 3e 92 45 18 3e 12 22 e3 3d
       -0.29155713 0.3978084 0.14870289 0.11090483
000310 29 03 54 3e 47 7d 0f 3d a1 a3 9a 3e 18 e6 e5 3d
       0.2070433 0.035031583 0.30202964 0.112255275
000320 11 ce 44 3e 3d d4 3c be 4e f0 4a be 51 97 8a 3e
       0.19219233 -0.18440337 -0.19818231 0.2706857
000330 ca d7 21 bf 42 71 e4 bc 5a 79 9b 3e bf af 7f bc
       -0.6321989 -0.027886037 0.3036602 -0.015605866
000340 6d 72 eb be f0 3b a9 3d 7f 77 c1 be b3 fb a1 bc
       -0.45985737 0.08263385 -0.3778648 -0.01977334
000350 9e d3 68 be 9d f4 65 be 21 1b dd 3a aa 70 e2 bd
       -0.22736976 -0.22456594 0.0016869047 -0.11056645
000360 36 38 0f be dd a7 36 be ff 8b a3 bc 7a 54 27 3e
       -0.13986287 -0.17837472 -0.019964216 0.16340819
000370 f6 67 4a 3e 79 b2 b5 be ca f7 53 3d e8 83 8a be
       0.1976622 -0.35487726 0.051749982 -0.2705376
000380 f2 11 92 3d ba 40 c6 3e f3 db 9f bc ea c6 b7 3d
       0.07132329 0.38721257 -0.01951406 0.08973487
000390 62 2e c5 be 01 0d 89 3e 4c 5d 3d 3c 02 a4 ed be
       -0.3851195 0.26767734 0.011557888 -0.4641419
0003a0 03 8c bb 3b 1f c9 04 3f 80 fc 29 be 76 54 ce be
       0.005723478 0.51869386 -0.16600227 -0.40298814
0003b0 f4 3a 3b 3e 58 84 39 bd fd a4 a8 3d c8 b3 8f be
       0.18284208 -0.04529223 0.08234594 -0.2806685
0003c0 36 0d a8 be 9e 73 aa 3e 9b 6d a8 be 1c 95 82 bd
       -0.3282258 0.33291334 -0.32896122 -0.063760966
0003d0 54 94 79 bf 12 86 33 3e 2e 3c ac 3e 3f 9a 8f be
       -0.97491956 0.17531613 0.33639663 -0.28047368
0003e0 0d 20 cc 3d be dd 9f be 1b f3 cb be e4 8d d0 3d
       0.09967051 -0.31223863 -0.39833912 0.101833135
0003f0 06 4c 00 bf ae 83 ce 3d 03 36 3a 3e 26 ea 14 3e
       -0.50116 0.1008371 0.18184666 0.14542446
