data/checkpoints/rlgym-ppo-run-1760737740221222700/541524988/PPO_VALUE_NET.pt (torch, 623393 bytes, 7 tensors)

model.0.weight f4 [256, 89]
0	0x3ecbe93b	0.39826378
1	0xbe155d36	-0.14586338
2	0x3e3752d7	0.17902695
3	0xbf74bebd	-0.95603544
4	0xbe065034	-0.13116533
5	0xbebbadd5	-0.3665606
6	0x3d96e6bf	0.0736823
7	0xbeafb115	-0.3431479
8	0x3d75e995	0.060037214
9	0x3cab5e4f	0.020918993
10	0xbc944e9e	-0.018103894
11	0xbb858086	-0.004074159
12	0xbbc6637f	-0.0060543413
13	0x3b58177a	0.0032972977
14	0x3cb0aaee	0.02156588
15	0x3cae86a8	0.021304443
16	0xbb30f80e	-0.002700332
17	0xbd02b70c	-0.03191285
18	0x3d923403	0.07138827
19	0xbcd6e4ba	-0.026232112
20	0xbda9b69d	-0.08286784
21	0x3d93b7d2	0.07212795
22	0xbcf97877	-0.03045295
23	0x3ccc99b8	0.024975643
24	0xbce426c8	-0.027850524
25	0x3d2843f0	0.041080415
26	0x3d809789	0.06278903
27	0xbca20190	-0.019776136
28	0xbc7ccdeb	-0.015429954
29	0xbdd69211	-0.10477079
30	0x3ca8d880	0.020611048
31	0xbda62c3e	-0.08113907
32	0x3cd05f20	0.025435984
33	0xbc210779	-0.009828442
34	0x3d4200ff	0.04736423
35	0x3db3a4b3	0.08771648
36	0x3d1bdc37	0.03805181
37	0x3d10946c	0.035297796
38	0xbc8f2514	-0.017473735
39	0xbd96e123	-0.0736716
40	0xbd0be0cb	-0.034149926
41	0x3dc55551	0.096354134
42	0xbcfd1aae	-0.03089651
43	0x3d2614ea	0.04054729
44	0x3d3d95a9	0.046285305
45	0x3d02119b	0.03175507
46	0xbdc76105	-0.09735302
47	0x3dc41bee	0.0957564
48	0xbd9ca0dc	-0.07647869
49	0x3da03853	0.07823243
50	0xbd1e0631	-0.038580123
51	0x3ef2fa68	0.4745667
52	0x3e8089b0	0.25105047
53	0x3ea68890	0.32526064
54	0x3d978155	0.07397715
55	0xbdcd209b	-0.100159846
56	0x3d9184bf	0.071053974
57	0x3da61ce5	0.0811098
58	0xbd3a5df8	-0.04549977
59	0xbd325230	-0.04353541
60	0x3db9fa1c	0.09080908
61	0xbd0ff35f	-0.035144206
62	0x3e935620	0.28776646
63	0x3d3ddd38	0.04635355
64	0x3cfd3e73	0.030913567
65	0xbdb497d8	-0.088180244
66	0x3ddb9c42	0.10723163
67	0xbc7ad420	-0.015309364
68	0xbc9211ad	-0.017830694
69	0xbd0ca7cb	-0.034339707
70	0x3ea3186e	0.31854576
71	0xbcb64fe0	-0.022254884
72	0x3d97ed11	0.07418264
73	0x3cbc4a3f	0.022984622
74	0xbd1993c2	-0.03749443
75	0xbcd40a88	-0.025883928
76	0x3ba182c6	0.0049289195
77	0x3c62e7a9	0.013849177
78	0xbcceceb7	-0.025245054
79	0x3d7b86e8	0.061407954
80	0x3e02b601	0.12764741
81	0x3e0676f8	0.1313132
82	0x3c3c1a3a	0.011480862
83	0xbc1f3ee2	-0.009719582
84	0x3cb3268f	0.021868972
85	0x3dd5915d	0.104281165
86	0x3c2cfa0e	0.010557665
87	0x3bad8a31	0.0052960147
88	0x3de97f2f	0.114012115
89	0xbea0a5bf	-0.31376454
90	0x3f2f7364	0.6853545
91	0xbe1d58da	-0.15365925
92	0xbe52ea40	-0.20597172
93	0xbf7a7b90	-0.9784479
94	0x3cc2767f	0.023738144
95	0x3e0a1a9b	0.13486712
96	0xbdb7902f	-0.08963048
97	0x3dd2e6de	0.10297941
98	0xbb0be1bd	-0.0021344267
99	0xbb0ba9f1	-0.002131101
100	0xbbf8bd38	-0.007590916
101	0xbbc54dda	-0.0060212435
102	0x3b101df7	0.0021990517
103	0xbcdfa9a0	-0.027302563
104	0x3b833210	0.0040037706
105	0xbbf96d89	-0.0076119346
106	0x3cfcbe7c	0.030852549
107	0x3d59e352	0.053195305
108	0xbe04359d	-0.12911077
109	0xbd6351ec	-0.05549805
110	0xbd200e2e	-0.039076023
111	0x3b93bc84	0.004508557
112	0x3d55f76f	0.052237924
113	0x3cebba3c	0.028775327
114	0xbdd38880	-0.1032877
115	0x3d401361	0.04689348
116	0xba60eb50	-0.0008579986
117	0xbdbe8f1e	-0.09304641
118	0x3d7b1397	0.06129798
119	0xbc136eba	-0.008998567
120	0x3c8dcd56	0.017309826
121	0x3becd05f	0.007226988
122	0x3c61e83f	0.013788282
123	0x3adde2a8	0.0016928511
124	0xbdf2dc3f	-0.11858415
125	0x3d47a24d	0.048738766
126	0x3d53f04d	0.05174284
127	0xbdc6c4d5	-0.097055115
128	0xbdca6324	-0.09882191
129	0x3d8531e4	0.065036565
130	0xbd5bc7ea	-0.05365745
131	0x3ccee12c	0.025253855
132	0x3d8ccb54	0.06874719
133	0x3cd48d99	0.025946425
134	0x3d33c665	0.043890376
135	0x3d0752a7	0.033037808
136	0x3d534c11	0.051586214
137	0xbb2c294c	-0.0026269732
138	0xbce78eb1	-0.028266283
139	0x3db4b4fb	0.08823582
140	0xbd070d4d	-0.03297167
141	0xbdcba07e	-0.09942721
142	0xbdc5d7ee	-0.09660326
143	0xbcde8507	-0.027163042
144	0x3bab8cad	0.0052352757
145	0xbd11877f	-0.03552961
146	0xbc502257	-0.0127035
147	0x3b636ff2	0.0034704176
148	0xbd011a45	-0.031519193
149	0x3e0c9cb7	0.13731657
150	0x3e14c88e	0.1452963
151	0x3e20313c	0.15643781
152	0x3d359de3	0.044340026
153	0x3bc1abfa	0.005910394
154	0x3d4a51d4	0.049394444
155	0xbdf16735	-0.11787263
156	0xbcd236b7	-0.025660856
157	0x3cd45d3f	0.02592337
158	0xbe597141	-0.21234609
159	0x3da44f4f	0.080229394
160	0x3d873535	0.06601945
161	0xbda5a453	-0.08087983
162	0xbcd8ee20	-0.026480734
163	0x3ceefe70	0.02917406
164	0xbcdbff20	-0.026855052
165	0xbc707775	-0.014676918
166	0x3c7db526	0.015485084
167	0xbc9852ef	-0.018594233
168	0x3dbf85ec	0.093517154
169	0x3e07a01f	0.13244675
170	0x3e949146	0.29017085
171	0x3bc01b46	0.0058626262
172	0xbc959a5e	-0.018262085
173	0xba96fe5b	-0.0011519896
174	0x3d9a3a1f	0.07530617
175	0xbc9faaeb	-0.01949068
176	0x3d36db90	0.044642985
177	0xbdba2f82	-0.09091093
178	0xbf388377	-0.720756
179	0xbfc4aab7	-1.5364598
180	0x3ed7fc09	0.42184475
181	0xbc844d00	-0.016149998
182	0xbd7932d2	-0.06083948
183	0x3d91a6b3	0.071118735
184	0xbcd81e29	-0.026381569
185	0x3d1a03d4	0.037601307
186	0xbcc9e969	-0.024647431
187	0xbb92f6df	-0.0044849957
188	0x3be27018	0.0069103353
189	0x3bcc35fa	0.0062320204
190	0xbaa39e78	-0.001248314
191	0xbb52c6f2	-0.0032162038
192	0xbc8b7414	-0.017023124
193	0x3b3cded1	0.0028819332
194	0xbb3ffb35	-0.0029294018
195	0x3c9294d1	0.017893227
196	0x3d5742ad	0.05255382
197	0x3d649b37	0.055812087
198	0x3d9fed11	0.07808889
199	0x3d59f7a5	0.053214688
200	0x3d9ef273	0.07761087
201	0xbd812698	-0.06306189
202	0x3c91b0a0	0.017784417
203	0xbdccdf30	-0.10003507
204	0x3d9b069e	0.075696215
205	0x3c234375	0.0099648135
206	0xbc2deef9	-0.010616058
207	0x3da35dcc	0.07976875
208	0x3d51b83b	0.051201086
209	0x3d7d0ba5	0.061778683
210	0xbca90af7	-0.020635111
211	0xbd8186df	-0.06324553
212	0x3cacacfa	0.021078575
213	0xbd2bb923	-0.041924607
214	0x3d645d96	0.055753313
215	0x3c33ec5e	0.010981647
216	0x3d313967	0.043267634
217	0xbc5199df	-0.012793033
218	0x3b7c12f1	0.0038463438
219	0xbb5e1896	-0.0033889166
220	0xbd99897b	-0.074969254
221	0x3c264898	0.010149144
222	0x3ca69129	0.02033289
223	0xbb122ec0	-0.0022305697
224	0xbde2b146	-0.110689685
225	0xbdd71b9f	-0.10503315
226	0xbd4f08af	-0.05054539
227	0x3b75511c	0.0037432378
228	0x3bc53a7f	0.006018936
229	0x3f4273cc	0.7595794
230	0x3fc5df9e	1.5458868
231	0xbce3e9a4	-0.02782137
232	0x3d10ac7a	0.035320736
233	0x3c10ee76	0.008845916
234	0x3c95431f	0.018220482
235	0x3b597de3	0.0033186607
236	0x3bcc1ea8	0.0062292404
237	0x3c173c6a	0.009230712
238	0x3e64a0c5	0.22326954
239	0xbb016bd5	-0.001974811
240	0x3c563b71	0.013075695
241	0x3af840c1	0.0018940197
242	0xbb1cba13	-0.002391462
243	0xbcd54f7b	-0.026038876
244	0x3eb6480b	0.3560184
245	0xbc11b353	-0.008892852
246	0xbc26a27c	-0.010170575
247	0x3c872e51	0.016501578
248	0xbd1a5795	-0.03768118
249	0x3dae381e	0.08506797
250	0xbb507f16	-0.003181403
251	0xbb47a795	-0.0030464877
252	0x3c541bb1	0.012946055
253	0x3c42e711	0.011895911
254	0x3b347b18	0.002753919
255	0x3aeb6d89	0.0017961721

model.0.bias f4 [256]
0	0x3cbc67e7	0.022998763
1	0xbe0d56ac	-0.13802594
2	0x3d784125	0.060609
3	0xbde08aad	-0.1096395
4	0x3e196e56	0.14983496
5	0x3caed859	0.021343397
6	0x3d69f3c8	0.057117254
7	0x3d8afe03	0.0678673
8	0xbd121ffe	-0.03567504
9	0xbd9df7c0	-0.0771327
10	0xbc9adc14	-0.01890377
11	0xbd3e6107	-0.04647925
12	0x3d5912cf	0.052996453
13	0xbda84c7c	-0.08217713
14	0x3de11c83	0.10991766
15	0x3dc7a030	0.0974735
16	0xbd23a377	-0.039950814
17	0xbdc8d376	-0.09805958
18	0xbd9fd5a6	-0.07804422
19	0x3db23cfa	0.087030366
20	0x3d06c1f1	0.0328998
21	0xbbbf1139	-0.0058309105
22	0xbcb0b2bb	-0.0215696
23	0x3d7ca872	0.06168408
24	0x3c3488c8	0.011018939
25	0xbcf834fb	-0.0302987
26	0xbdb7edbd	-0.08980892
27	0x3dcb7fa1	0.09936453
28	0x3db1241f	0.08649468
29	0x3d2e9455	0.04262193
30	0xbd6fb315	-0.058520395
31	0xbba405f7	-0.005005594
32	0x3d9ace53	0.075588845
33	0xbc189161	-0.009312005
34	0xbd59d7a8	-0.05318418
35	0xbd920f29	-0.07131798
36	0xbd909060	-0.07058787
37	0xbd817ee5	-0.06323031
38	0xbd865057	-0.06558292
39	0x3c1204bd	0.0089122625
40	0xbdca6168	-0.0988186
41	0x3d04c8c5	0.03241803
42	0xbd227be6	-0.03966894
43	0x3d298867	0.04138985
44	0xbd1fc410	-0.03900534
45	0x39d29346	0.0004016405
46	0x3d33a453	0.043857884
47	0xbd0b1d60	-0.03396356
48	0x3b9d5848	0.0048017837
49	0x3d22d769	0.039756212
50	0xbd490bd7	-0.049083557
51	0xbc6ac2cd	-0.014328671
52	0x3d823da3	0.063594125
53	0x3d962243	0.07330754
54	0xbdc0e5a7	-0.09418803
55	0xbd8cf53e	-0.06882714
56	0x3d4fb0d6	0.050705753
57	0x3d9e6d7c	0.07735726
58	0x3c0014cd	0.007817459
59	0x3d85d1ad	0.06534133
60	0x3cbeccf8	0.023291096
61	0x3d83f44c	0.0644308
62	0xbd21bb9c	-0.03948556
63	0x3d37aa1d	0.044839967
64	0xbd49d0b9	-0.04927132
65	0xbd13261e	-0.035925023
66	0xbd6d501f	-0.057937738
67	0xbd233c5f	-0.039852496
68	0xbc18834b	-0.009308646
69	0x3cb10ef7	0.021613581
70	0xbbbc19a7	-0.0057403627
71	0xbd728f17	-0.059218492
72	0x3e005618	0.12532842
73	0x3dcb527f	0.09927844
74	0x3c166dfe	0.009181498
75	0xbc081e02	-0.008307936
76	0xbc942570	-0.018084258
77	0xbc2e9092	-0.010654585
78	0xbdd14a31	-0.10219229
79	0x3c247907	0.010038621
80	0xbd780c6b	-0.060558718
81	0xbd9789c6	-0.07399325
82	0xbc6657bb	-0.0140590025
83	0xbdbfb3d6	-0.09360473
84	0x3d3a5427	0.04549041
85	0xbd8276ff	-0.06370353
86	0x3d444cac	0.047924682
87	0x3d8e1def	0.06939303
88	0x3dc393a4	0.095496446
89	0xbd821d92	-0.06353296
90	0x3d2f2242	0.04275728
91	0x3dc3ae92	0.09554781
92	0x3c85abb5	0.016317228
93	0xbd431b85	-0.047633667
94	0xbd1f4c30	-0.038891017
95	0x3c997477	0.018732293
96	0xbd955e62	-0.07293393
97	0xbd16d4c8	-0.036824018
98	0x3d8113e5	0.06302623
99	0x3cb47767	0.022029592
100	0xbc09723f	-0.008389055
101	0x3da9b0fe	0.08285712
102	0x3be1eee9	0.0068949354
103	0xbda27152	-0.079317704
104	0x3d1dde7e	0.038542263
105	0x3c0a79d6	0.0084518995
106	0xbce12508	-0.027483478
107	0xbd13af3e	-0.036055796
108	0x3b0ef147	0.0021811293
109	0xbd848c27	-0.064720444
110	0xbd11d898	-0.03560695
111	0x3d85113e	0.06497429
112	0x3c42261e	0.011849908
113	0x3b9d51e1	0.0048010205
114	0x3dbfaf30	0.09359586
115	0xbdb58b17	-0.0886442
116	0x3daae76d	0.08344922
117	0xbd0d94a2	-0.034565575
118	0xbd678890	-0.05652672
119	0xbcef1348	-0.029183999
120	0x3da0dd52	0.078547135
121	0xbdab14c6	-0.083535716
122	0xbd93cb94	-0.07216564
123	0xbcf6eba6	-0.030141663
124	0xbc96d8c7	-0.018413914
125	0xbd069eeb	-0.0328664
126	0xbb78b883	-0.0037951774
127	0xbca116e8	-0.019664243
128	0x3da1ca06	0.07899861
129	0x3d2d5ed9	0.042326782
130	0xbd7690de	-0.06019675
131	0x3d0a176e	0.03371375
132	0x3dbf68fa	0.093461946
133	0xbcc7563b	-0.02433311
134	0xbd913e14	-0.070919186
135	0xbd55e8a1	-0.052223805
136	0xbd9195e0	-0.071086645
137	0x3d3c4f3e	0.04597401
138	0x3d8507de	0.06495641
139	0x3d839400	0.06424713
140	0xbdbfab3c	-0.09358832
141	0xbd4cdfed	-0.05001824
142	0x3d8af135	0.06784288
143	0xba2e3830	-0.0006645946
144	0xbc67e5b7	-0.014153889
145	0x3db3d651	0.08781112
146	0xbd166f6c	-0.036727354
147	0x3da56d49	0.08077485
148	0x3caab801	0.020839693
149	0xbdc1b036	-0.09457438
150	0x3d367ca2	0.044552453
151	0x3c4ce3cb	0.012505482
152	0x3ccdea6e	0.025136199
153	0x3ce33c66	0.027738761
154	0xbd76492e	-0.060128383
155	0xbc0d9d6b	-0.008643488
156	0x3dd728a9	0.10505802
157	0xbda80f9d	-0.08206103
158	0x3ced6139	0.028977023
159	0x3d352fd2	0.044235058
160	0xbcbc36c8	-0.02297534
161	0xbd1cdbce	-0.03829556
162	0xbc78a0d7	-0.015175066
163	0x3d5274ba	0.05138085
164	0x3dd263ea	0.10272963
165	0x3ccdedc6	0.025137793
166	0xbcb8d821	-0.022563996
167	0x3d92898d	0.07155142
168	0x3dcb609a	0.09930535
169	0xbcc0b451	-0.023523482
170	0x3d20bf75	0.039245088
171	0x3d73070b	0.05933289
172	0xbd20a468	-0.03921929
173	0xbd593114	-0.05302532
174	0x3d28b543	0.04118849
175	0x3caa9c4e	0.020826485
176	0x3ab3ea20	0.0013726391
177	0x3d4756e6	0.048666857
178	0xbc8ce5fb	-0.017199507
179	0xbd2e8f67	-0.042617228
180	0xbd1ddc84	-0.03854038
181	0xbdc7921c	-0.09744665
182	0xbcd9dce1	-0.026594581
183	0xbc301a9f	-0.010748534
184	0xbaee894d	-0.0018198878
185	0x3ddf6ebb	0.10909792
186	0x3c69bf48	0.014266796
187	0x3c3fe46d	0.011712176
188	0x3dd54a1c	0.10414526
189	0xbc74d09e	-0.014942316
190	0xbd2820aa	-0.041046776
191	0xbdcfbe78	-0.10143751
192	0xbd37a312	-0.04483325
193	0x3d2f4743	0.04279257
194	0x3db1fbb7	0.08690589
195	0xbd9dbdaa	-0.07702191
196	0x3c596836	0.013269475
197	0x3dc2ed17	0.095178775
198	0xbd5ac13b	-0.053406935
199	0xbce40e9d	-0.027839
200	0x3bb9ec24	0.005673902
201	0xbcb36681	-0.021899464
202	0xbd20f79b	-0.039298635
203	0x3df6f792	0.12058939
204	0xbd779fa2	-0.060454972
205	0x3d941cf0	0.07232082
206	0x3c5f8923	0.013643536
207	0xbd21fa31	-0.03954524
208	0x3dca62cd	0.09882126
209	0xbc3ad130	-0.011402413
210	0xbc66c401	-0.014084817
211	0xbc73072b	-0.014833252
212	0x3ca5a4c5	0.02022017
213	0xbcbd12f0	-0.02308032
214	0xbc95aa1c	-0.018269591
215	0x3c9e8d1f	0.019354401
216	0xbd1e7442	-0.03868509
217	0x3d5a587f	0.053307053
218	0x3d3d1336	0.0461609
219	0x3d55d0a7	0.05220094
220	0xbd7bfe63	-0.0615219
221	0xbd689ac8	-0.056788236
222	0x3c4ddd40	0.012564957
223	0xbd4eb628	-0.050466686
224	0xbdda01ac	-0.1064485
225	0x3cf8cf12	0.030372176
226	0x3d2045c2	0.039129026
227	0x3da41282	0.080113426
228	0x3d2a1b77	0.0415301
229	0x3bf67927	0.0075217667
230	0x3e0558ff	0.1302223
231	0xbc9fca03	-0.019505506
232	0x3bfcc7c1	0.007714242
233	0xbdc82d23	-0.09774234
234	0x3d3fc2e2	0.046816714
235	0x3c24fa60	0.01006946
236	0x3ce77520	0.028254092
237	0x3cff5b08	0.031171337
238	0x3acc03c6	0.0015565089
239	0x3d1a7a4b	0.037714284
240	0x3cd18f28	0.025580958
241	0xbd9a092c	-0.07521281
242	0xbcbf33ab	-0.023340067
243	0x3d8b85b2	0.0681261
244	0xbc9eaa09	-0.019368188
245	0x3d9d6426	0.076851174
246	0xbd7c8b5e	-0.06165635
247	0xbd1588d2	-0.036507435
248	0x3dc9d411	0.098549016
249	0x3d468440	0.048465967
250	0xbde769bf	-0.11299466
251	0x3bd6b711	0.006552585
252	0x3d8ea708	0.069654524
253	0x3dcbb57f	0.09946727
254	0xbd7474ba	-0.05968163
255	0xbd03bb41	-0.032161

model.2.weight f4 [256, 256]
0	0xbd078ee7	-0.033095267
1	0x3c45e0ab	0.012077491
2	0xbeacd628	-0.33757138
3	0xbdb21308	-0.08695036
4	0x3cb0b997	0.021572871
5	0x3de71da9	0.11284954
6	0xbe2b223e	-0.16712281
7	0x3d87b1b4	0.06625691
8	0xbce8cac7	-0.028417004
9	0x3d36b0b2	0.044602104
10	0x3bfa87ce	0.0076455837
11	0x3e1e83e7	0.15480004
12	0xbd9725c9	-0.07380254
13	0x3ce4afbc	0.027915828
14	0x3c4ff44b	0.012692521
15	0x3c4c2a99	0.012461328
16	0x3d231677	0.039816346
17	0xbccaee9d	-0.024771983
18	0x3b916c16	0.0044379337
19	0x3dcebc79	0.10094542
20	0xbe358c2a	-0.1772925
21	0x3db055d7	0.08610123
22	0x3e3eb8fc	0.18625253
23	0x3d3bf6a1	0.0458895
24	0x3c1e74ae	0.009671373
25	0xbc25c169	-0.010116913
26	0xbd482d73	-0.04887147
27	0x3cf26b7a	0.029592264
28	0x3e89a3f2	0.26882893
29	0x3e12b709	0.14327635
30	0x3d96ecd8	0.07369393
31	0xbdac32e6	-0.084081456
32	0x3d4d91b9	0.0501878
33	0xbcb9d8c7	-0.022686375
34	0x3da24630	0.079235435
35	0xbe0ac7bc	-0.13552755
36	0x3c27d4bb	0.01024359
37	0xbd7577ef	-0.05992883
38	0x3de18807	0.11012273
39	0x3dce86b6	0.10084288
40	0xbf0b144d	-0.5432785
41	0xbd64591a	-0.055749036
42	0x3da7554f	0.08170568
43	0x3c1a561c	0.009419944
44	0x3e0426be	0.12905404
45	0x3db6ce35	0.089260496
46	0x3d350d72	0.044202276
47	0xbdc7e807	-0.097610526
48	0x3db34e31	0.08755148
49	0xbe8244ad	-0.2544302
50	0x3d9b5ffe	0.075866684
51	0x3dabe78d	0.08393774
52	0x3e096381	0.13416864
53	0xbd550629	-0.052007828
54	0x3d649236	0.0558035
55	0x3aa59217	0.0012632039
56	0xbd7eaf33	-0.0621788
57	0xbd8b9329	-0.06815178
58	0xbdbcb09b	-0.09213372
59	0x3d1c1791	0.038108412
60	0x3e0f897b	0.14017288
61	0xbc733ac5	-0.014845555
62	0x3d38a8c4	0.045082822
63	0xbb2e9378	-0.0026638191
64	0xbbf4acd3	-0.0074668913
65	0x3d91f06c	0.07125935
66	0x3e057a12	0.13034847
67	0x3ddcc22c	0.10779223
68	0x3c958719	0.018252896
69	0xbabb8296	-0.0014305885
70	0x3cb9b800	0.022670746
71	0xbcb61216	-0.02222542
72	0x3d57dae9	0.052699003
73	0x3d90be07	0.07067495
74	0x3c9e5901	0.01932955
75	0xbe31a953	-0.17349748
76	0x3e039df3	0.12853222
77	0xbd7988cd	-0.06092148
78	0x3a3983ef	0.00070768496
79	0x3d911674	0.07084361
80	0x3d934018	0.07189959
81	0x3d42b9d5	0.047540504
82	0xbda87ec9	-0.08227307
83	0xbcbe6150	-0.023239762
84	0xbdae07f7	-0.08497613
85	0xbbe2350a	-0.0069032954
86	0xbf36e765	-0.7144683
87	0xbc689d32	-0.0141976345
88	0xb98e6a49	-0.0002716354
89	0x3c9aab3f	0.018880485
90	0x3dcc9d94	0.09990993
91	0x3c7a9743	0.015294853
92	0x3da2dc2e	0.07952152
93	0x3dca0c86	0.0986567
94	0x3d69df06	0.057097457
95	0xbd612f1e	-0.054976575
96	0x3d2cfb4b	0.04223184
97	0x3c22bd9f	0.0099329045
98	0xbd289e14	-0.04116638
99	0xbd045881	-0.032310966
100	0xbe68ef35	-0.227475
101	0x3df7dffb	0.12103268
102	0x3e0726bc	0.1319837
103	0x3d03a790	0.032142222
104	0x3af1b89d	0.001844186
105	0x3e0b19d1	0.13584067
106	0xbd90dd95	-0.070735134
107	0x3d035f90	0.032073557
108	0x3e000ec2	0.1250563
109	0xbcd10dee	-0.025519338
110	0x3d6ff874	0.058586553
111	0x3e2e61c1	0.17029478
112	0x3ed09be7	0.40743944
113	0xbe3722d4	-0.1788438
114	0x3dee70c7	0.11642604
115	0x3ca431f6	0.020043354
116	0x3e06415a	0.13110867
117	0xbe293268	-0.16523135
118	0x3d4fe0c5	0.050751466
119	0xbc919b14	-0.017774142
120	0xbd7fe636	-0.062475406
121	0xbd1e4741	-0.03864217
122	0xbd9db31c	-0.07700178
123	0x3b52146b	0.0032055627
124	0x3e30c0d4	0.17261058
125	0xbc42d0d1	-0.011890606
126	0xbbc17184	-0.0059034247
127	0xbd9bec4b	-0.07613429
128	0xbc3c301a	-0.011486078
129	0xbb90fa1a	-0.0044243457
130	0xbe14a967	-0.14517747
131	0x3dbd5964	0.092455655
132	0xbe205625	-0.15657862
133	0x3c587f1f	0.013213902
134	0x3d40ae01	0.047040943
135	0xbbd4fc90	-0.0064998344
136	0xbe41e87f	-0.18936346
137	0x3db34d5c	0.087549895
138	0x3e066229	0.13123383
139	0xbd89453f	-0.06702661
140	0xbce72d56	-0.02821986
141	0xbc4e35c4	-0.012586061
142	0x3cb88ad6	0.02252714
143	0xbe6b0145	-0.22949703
144	0xbd87f944	-0.066393405
145	0x3d93b848	0.07212883
146	0xbcc0267e	-0.023455855
147	0xbd188a2f	-0.037241157
148	0xbde6b27c	-0.11264512
149	0x3db3f59c	0.08787081
150	0xbcd7dce6	-0.02635045
151	0x3d957bb7	0.07298987
152	0x3e1eb8c7	0.15500174
153	0xbdd09b9f	-0.10185932
154	0xbd72761d	-0.059194673
155	0xbe073810	-0.1320498
156	0x3d025a5f	0.031824466
157	0x3d93f142	0.07223751
158	0xbe19d8af	-0.15024064
159	0x3cc716f8	0.024302945
160	0xbe04b61b	-0.12960093
161	0xbe1d238b	-0.1534559
162	0xbe07a96a	-0.1324822
163	0x3db11f50	0.086485505
164	0x3dea8af9	0.11452288
165	0x3d25f705	0.04051878
166	0x3e197ee8	0.14989817
167	0x3d721489	0.059101615
168	0x3d908a47	0.07057624
169	0xbd4994b4	-0.04921408
170	0x3d69c55f	0.057072993
171	0xbda28548	-0.07935578
172	0x3dba08ab	0.090836845
173	0xbceac180	-0.028656721
174	0x3de954b9	0.11393113
175	0xbd50a52b	-0.050938766
176	0xbde69e0c	-0.11260614
177	0xbe0f9f6e	-0.14025661
178	0xbd93c148	-0.072146
179	0x3d83baaf	0.064320914
180	0xbd38e847	-0.045143392
181	0xbc5e799f	-0.013578801
182	0x3c38348c	0.011242997
183	0x3b90e5f9	0.004421946
184	0x3c7083a3	0.014679822
185	0xbe1da434	-0.1539467
186	0x3dfc4eb0	0.12319696
187	0xbd2e7b63	-0.04259814
188	0x3d3ccc0d	0.046093035
189	0x3c629d74	0.013831485
190	0x3c7ee596	0.015557667
191	0x3df39105	0.11892895
192	0xbde9bfd6	-0.11413543
193	0x3dda11f3	0.10647955
194	0x3b9c4fde	0.004770263
195	0x3dbaf403	0.09128573
196	0xbdf8ab6c	-0.12142071
197	0x399330ad	0.0002807429
198	0xbd019fdc	-0.031646594
199	0x3cb21f4a	0.021743435
200	0xbc7ecf30	-0.015552327
201	0x3d0b3af0	0.033991754
202	0x3de59e6e	0.11211859
203	0xbd5371d3	-0.051622223
204	0xbe079253	-0.13239412
205	0xbe9966c9	-0.2996123
206	0x3d311af1	0.043238584
207	0xbcf90500	-0.030397892
208	0x3c8bb4ce	0.017053988
209	0xbd7ed3df	-0.062213775
210	0x3c0dbbc6	0.008650726
211	0x3d2a16d1	0.041525666
212	0xbc8d47f0	-0.017246217
213	0x3c15f213	0.009151953
214	0x3dfde11a	0.1239645
215	0x3c15d069	0.009143927
216	0x3c8fb1a9	0.01754077
217	0x3c9e56ef	0.019328563
218	0x3e1e9160	0.15485144
219	0x3d156473	0.03647275
220	0x3dfc5fd2	0.12322964
221	0x3c034e8d	0.008014333
222	0xbd29a99b	-0.041421514
223	0x3d5ee30e	0.054415755
224	0x3d7b0303	0.06128217
225	0x3c59397b	0.013258333
226	0xbd9913e9	-0.07474501
227	0xbd38a410	-0.045078337
228	0x3dccfe46	0.10009436
229	0x3e062573	0.13100223
230	0xbd31ba90	-0.04339081
231	0x3d3e06cb	0.046393197
232	0xbca383ce	-0.01996031
233	0x3c9e3e45	0.019316802
234	0x3dac6880	0.08418369
235	0x3d32b690	0.043631136
236	0xbd91dfa6	-0.07122736
237	0xbd72f9bb	-0.059320193
238	0xbd90c98f	-0.07069694
239	0x3be9ea84	0.007138552
240	0x3cd06072	0.025436614
241	0x3a13792f	0.0005625663
242	0x3dff6b81	0.124716766
243	0x3ce60b04	0.028081425
244	0xbd156345	-0.036471624
245	0x3de4df5f	0.11175417
246	0xbd9d7856	-0.07688968
247	0x3d98b105	0.07455639
248	0x3cb2ae3d	0.021811599
249	0xba24653a	-0.00062711874
250	0xbd9a349d	-0.075295664
251	0x3e04c889	0.12967123
252	0xbe00e3f9	-0.12586965
253	0xbe021671	-0.12703873
254	0x3e971557	0.29508469
255	0xbe9f0c87	-0.31064245

model.2.bias f4 [256]
0	0x3dcd046d	0.1001061
1	0x3ce41747	0.02784313
2	0x3c212855	0.009836276
3	0xbc31445d	-0.010819522
4	0x3d97cda3	0.07412269
5	0x3d0c0939	0.034188483
6	0x3d451a84	0.04812099
7	0x3db16f8a	0.086638525
8	0xbd630e31	-0.055433456
9	0x3c7f8985	0.015596752
10	0xbe0b6a63	-0.13614802
11	0x3d042a2c	0.03226678
12	0xbd1472fb	-0.036242466
13	0x3d309ecb	0.043120187
14	0x3d93499c	0.07191774
15	0x3dd17565	0.10227469
16	0xbce5c846	-0.0280496
17	0xbcce81c5	-0.025208363
18	0xbcf5deee	-0.030013528
19	0xbd690006	-0.056884788
20	0xbd54d511	-0.05196101
21	0x3cb948fb	0.022617808
22	0xbc8c98fa	-0.017162789
23	0x3dacc083	0.08435156
24	0xbcf14654	-0.02945248
25	0xbca5f153	-0.020256674
26	0x3db6afa6	0.08920221
27	0xbcb8d47d	-0.02256226
28	0xb9ff6c28	-0.00048717973
29	0xbd796bdb	-0.060893875
30	0xbbc578b5	-0.0060263523
31	0x3c47a141	0.012184442
32	0x3a243c83	0.00062651205
33	0xbd1a7969	-0.037713442
34	0x3d4b90e0	0.04969871
35	0xbd11b27d	-0.03557061
36	0xbc03c8de	-0.008043496
37	0xbd4529e2	-0.048135646
38	0xb8e48a79	-0.0001089768
39	0xbd5f91f7	-0.054582562
40	0x3d05f422	0.032703526
41	0x3ab549d5	0.0013831208
42	0xbbc71b50	-0.006076254
43	0x3c47f3ee	0.012204153
44	0xbcd25113	-0.025673425
45	0xb9a2d960	-0.00031061005
46	0xb8b4b0b8	-8.615985e-05
47	0xbd01425f	-0.031557437
48	0x3d4b254c	0.049596116
49	0x3c7bfd49	0.015380212
50	0xbd81736b	-0.06320842
51	0xbd4ddcc3	-0.050259363
52	0x3d610ff1	0.054946844
53	0xbd76e6a4	-0.06027855
54	0xbc7ae253	-0.015312749
55	0xbd9d9e65	-0.07696227
56	0x3b6b0a39	0.0035864247
57	0x3d7d59b9	0.061853144
58	0xbb25cf0a	-0.0025300407
59	0x3c898e26	0.016791414
60	0xbd30779e	-0.043082826
61	0x3d4942b8	0.049135894
62	0x3d309704	0.04311277
63	0xbbcbc7d7	-0.006218891
64	0xbc5b23ea	-0.013375262
65	0xbdde8113	-0.10864463
66	0x3d2041af	0.03912514
67	0x3da76668	0.08173829
68	0xbcba6b7e	-0.022756334
69	0x3d47a681	0.048742775
70	0x3cd00ea5	0.025397608
71	0x3d1f9ce0	0.038967967
72	0xbd4dc698	-0.050238222
73	0x3d0c1e4d	0.034208585
74	0x3bc4a59c	0.0060011875
75	0x3b9fa91a	0.0048724534
76	0xbbafa87a	-0.00536066
77	0x3d4a54fd	0.049397457
78	0x3de1455f	0.109995596
79	0x3ce6f24c	0.028191708
80	0xbcd8f061	-0.02648181
81	0x3c269b8b	0.01016892
82	0x3d846770	0.06465042
83	0x3dc1edd4	0.0946919
84	0xbd51af2e	-0.051192455
85	0x3d351101	0.04420567
86	0x3d0aff75	0.03393503
87	0x3d9f6bc1	0.07784224
88	0xbc2026c7	-0.00977487
89	0x3c8d212d	0.017227734
90	0xbc6d1a88	-0.014471658
91	0xbbadfbe3	-0.0053095683
92	0xbd0e58aa	-0.034752525
93	0x3d22f765	0.039786715
94	0x3d3e5f28	0.046477467
95	0x3d99f910	0.07518208
96	0x3c919df4	0.017775513
97	0xbd7f81b8	-0.06237957
98	0x3c4a21a9	0.012337127
99	0xbcdc7e6f	-0.026915757
100	0xbd1d9e42	-0.038481005
101	0xbc1f6824	-0.009729419
102	0x3ce9023e	0.028443452
103	0x3d028380	0.03186369
104	0xbd9fbb57	-0.07799404
105	0x3d12c0ab	0.035828274
106	0x3ba7783a	0.0051107677
107	0x3d6b5260	0.057451606
108	0x3c326205	0.0108876275
109	0xbd12aaed	-0.03580754
110	0xbcf991c8	-0.030465022
111	0x3d284476	0.041080914
112	0x3d1761be	0.03695845
113	0x3cd68c89	0.02619006
114	0xbc8c06fb	-0.017093172
115	0x3d842a32	0.064533606
116	0xbd3f63ba	-0.046725966
117	0xbd2c8ad3	-0.04212458
118	0xbc1e55bd	-0.009663996
119	0xbd398806	-0.045295738
120	0x3cdd54e5	0.02701802
121	0xbd1c10ff	-0.038102146
122	0x3d7943e2	0.060855754
123	0xbbcc1cd1	-0.006229021
124	0x3cc6a1ad	0.024247015
125	0xbceeb831	-0.029140564
126	0xbd8eb9b5	-0.069690146
127	0x3c2e939e	0.010655312
128	0x3a2c426c	0.0006571177
129	0xbd0a3814	-0.033744887
130	0xbd3f83c7	-0.046756532
131	0xbc9ede59	-0.019393133
132	0x3dd230f9	0.10263247
133	0xbde6bdf7	-0.11266702
134	0x3d46e6f3	0.048560094
135	0xbd622a74	-0.055216268
136	0x3c4dc30b	0.012558709
137	0xbd81e6b2	-0.0634283
138	0xbbbb6e7c	-0.005719958
139	0x3d7e34d9	0.06206212
140	0x3db864bc	0.090035886
141	0xbd98d875	-0.07463161
142	0x3dbf4592	0.09339441
143	0x3ca158c4	0.019695647
144	0x3de89762	0.11356999
145	0x3db311d0	0.08743632
146	0xbd156bd9	-0.036479805
147	0x3d7212ee	0.059100084
148	0x3b441ba6	0.0029923706
149	0xbd380147	-0.044923093
150	0x3cbd006e	0.023071494
151	0x3c3869cc	0.011255693
152	0xbcd1b855	-0.025600592
153	0x3c000de7	0.007815815
154	0xbd159c02	-0.036525734
155	0x3d81b6de	0.06333707
156	0xbc94d321	-0.01816708
157	0x3db613c0	0.08890486
158	0xbd9932c3	-0.07480385
159	0xbd368745	-0.044562597
160	0x3bf4ef16	0.0074747903
161	0xbd4801c0	-0.048829794
162	0xbcb18817	-0.021671338
163	0xbd69e3db	-0.057102066
164	0x3d365f82	0.044524677
165	0xbd2c0118	-0.04199323
166	0xb7cca463	-2.4395244e-05
167	0x3cef58f6	0.029217225
168	0x3ca1f1c4	0.019768603
169	0x3d108e08	0.0352917
170	0x3d92e613	0.071727894
171	0x3d7c65fe	0.061620705
172	0x3c8fc2e0	0.017548978
173	0xbd0bedb6	-0.034162246
174	0xbd0597b5	-0.032615382
175	0x3d6e3471	0.05815548
176	0x3d27a407	0.040927913
177	0x3ce6606c	0.02812215
178	0xbddf183b	-0.108932935
179	0x3c91fd94	0.01782111
180	0xbc735969	-0.01485286
181	0x3dd888b9	0.10572953
182	0xbc86a896	-0.01643781
183	0xbcfcbc1a	-0.030851413
184	0x3a4ffba7	0.00079339225
185	0xbc8a6172	-0.016892169
186	0x3d94ebb7	0.072715215
187	0xbcf427ee	-0.029804196
188	0x3d18d039	0.03730795
189	0xbc254f82	-0.010089757
190	0xbcedf799	-0.029048728
191	0x3d2c1479	0.04201171
192	0xbd1f47a2	-0.038886674
193	0x3d3de6dd	0.046362747
194	0xbcf0c523	-0.029390877
195	0xbc93e934	-0.018055536
196	0x3d0ff60f	0.03514677
197	0x3d937e03	0.07201769
198	0x3ce3f238	0.02782546
199	0x3d8c1e3c	0.06841704
200	0x3dab0ebc	0.0835242
201	0x3cdc74a7	0.026911093
202	0x3d66ad7b	0.056317788
203	0x3d15d862	0.03658331
204	0x3ba2ee7d	0.0049722777
205	0xbd818744	-0.06324628
206	0xbc765d78	-0.015036933
207	0xbd10ca1c	-0.035348997
208	0xbd001163	-0.03126658
209	0xbc896571	-0.016772004
210	0x3d041d00	0.03225422
211	0xbd40d8b1	-0.047081653
212	0x3d8ad793	0.06779399
213	0x3d0cfaf6	0.034419023
214	0xbbb09215	-0.005388508
215	0x3d0359cb	0.032068055
216	0x3ca7eddc	0.020499162
217	0xbd0168ef	-0.031594213
218	0x3d17ab7d	0.03702878
219	0xbcfc623c	-0.03080856
220	0x3ca3d21f	0.019997654
221	0x3d20ea86	0.03928616
222	0x3d2a4edc	0.041579112
223	0xbc763685	-0.015027647
224	0x3d1bf6fa	0.038077332
225	0xbb4bbd62	-0.0031088223
226	0x3daa8897	0.08326834
227	0xbc8c3191	-0.017113479
228	0x3ce09426	0.027414393
229	0x3d1278c7	0.035759714
230	0xbc65f78c	-0.014036071
231	0xbc1555f0	-0.009114727
232	0x3d2ae770	0.041724622
233	0x3d556464	0.052097693
234	0xbce3044b	-0.027712008
235	0x3c93e162	0.018051807
236	0x3bd7db8c	0.0065874513
237	0x3d751fc9	0.059844766
238	0x3d15d1fc	0.03657721
239	0xbbf69ec4	-0.0075262506
240	0xbc4ceb4f	-0.012507274
241	0x3ca3d5d5	0.019999424
242	0xbd1bcc31	-0.03803653
243	0x3bcc5ff3	0.006237024
244	0xbbb9709f	-0.0056591774
245	0x3d6c8024	0.057739392
246	0xbd307327	-0.043078568
247	0xbc08e9d6	-0.008356532
248	0x3d38f653	0.045156788
249	0x3c0f0ce1	0.008731098
250	0xbda9cb04	-0.08290675
251	0xbd235cc0	-0.039883375
252	0x3ce0c132	0.027435873
253	0xbb98963f	-0.0046565826
254	0xbd260477	-0.0405316
255	0xbd1bd8f7	-0.03804871

model.4.weight f4 [256, 256]
0	0xbe1ac9f5	-0.15116103
1	0x3d0334f6	0.03203293
2	0xbe93f59f	-0.28898332
3	0x3d0de5aa	0.034642853
4	0xbdbc1900	-0.09184456
5	0xbd2123de	-0.039340846
6	0xbe500f63	-0.2031837
7	0xbe6a684b	-0.22891347
8	0xbba42c37	-0.0050101536
9	0xbed602a1	-0.4179888
10	0x3c87dd54	0.01658503
11	0x3d19515f	0.037431117
12	0xbe2f6978	-0.17130077
13	0xbd0cb646	-0.034353517
14	0xbd6487ee	-0.055793695
15	0x3e09e084	0.13464552
16	0xbe0f2575	-0.13979132
17	0x3c091581	0.008366943
18	0xbd1fa223	-0.038972985
19	0xbc8f48bd	-0.017490739
20	0xbd853ade	-0.06505369
21	0xbe1e48e3	-0.15457492
22	0xbd7d129d	-0.06178533
23	0xbd87bc52	-0.06627716
24	0xbd1f6362	-0.03891314
25	0x3cb86f78	0.02251409
26	0xbbd4ae66	-0.0064905165
27	0x3cb906e9	0.022586303
28	0xbebdad62	-0.37046343
29	0x3d4a85a9	0.049443875
30	0xbe59d97c	-0.2127437
31	0xbe57a603	-0.21059422
32	0xbe462152	-0.19348648
33	0xbd241394	-0.040057734
34	0x3d8f8731	0.070082076
35	0xbdbf680d	-0.09346018
36	0xbd0f17d6	-0.03493484
37	0xbe0c31fc	-0.13690943
38	0xbd8abc78	-0.06774229
39	0x3d1a1f45	0.037627477
40	0xbe54bb0d	-0.20774479
41	0xbf4d2cc7	-0.8014645
42	0x3df0be0f	0.11755001
43	0xbe81eda1	-0.2537661
44	0xbdbceeaa	-0.09225209
45	0xbf8237e0	-1.0173302
46	0xbe91f0a2	-0.285039
47	0x3d299578	0.04140231
48	0x3d58e896	0.052956186
49	0xbc3c0a11	-0.011477009
50	0x3d3b49e8	0.04572478
51	0x3dbcd71f	0.092207186
52	0x3d6b12b5	0.057390887
53	0x3d05d308	0.03267196
54	0x3dc7c738	0.09754795
55	0xbdc32038	-0.095276296
56	0xbd2d32f5	-0.042284925
57	0x3afe1a5c	0.0019386518
58	0xbdc5fb3a	-0.09667058
59	0xbe0af947	-0.13571654
60	0x3c43cb4f	0.011950328
61	0x3b29c341	0.0025903734
62	0x3c96bfe0	0.01840204
63	0x3c91a096	0.017776769
64	0x3d6314b7	0.055439677
65	0xbccca3e4	-0.024980493
66	0xbccdcf1f	-0.025123177
67	0xbceae4b3	-0.028673505
68	0x3cd2785e	0.025692161
69	0x3c2f9eee	0.010719044
70	0xbeddea9f	-0.43343064
71	0x3b85687d	0.004071294
72	0xbea30838	-0.31842208
73	0xbd25d4f2	-0.040486284
74	0x3d7fd627	0.06246009
75	0xbd322599	-0.043492887
76	0xbd6c6d13	-0.05772121
77	0x3d974719	0.07386608
78	0xbd8cf18c	-0.06882009
79	0x3d3a624e	0.045503907
80	0x3d5b2f2d	0.053511787
81	0x3d9cc809	0.07655341
82	0x3b1d498e	0.002400014
83	0xbd714a08	-0.058908492
84	0xbca19986	-0.019726526
85	0xbd058279	-0.03259513
86	0x3cd282bd	0.025697106
87	0x3d1975f8	0.03746602
88	0x3d3855b3	0.045003604
89	0x3e32041b	0.17384379
90	0xbd9fc624	-0.07801464
91	0x3c05025f	0.008118241
92	0x3c9ffdb1	0.01953015
93	0x3d830ae0	0.063985586
94	0xbd85afc3	-0.065276645
95	0xbf0023cb	-0.50054616
96	0xbeeec6f6	-0.4663617
97	0xbeec962b	-0.4620832
98	0xbdb8717c	-0.090060204
99	0x3cd4a4ff	0.025957583
100	0xbe8fb245	-0.28065696
101	0xb9ffc50b	-0.000487842
102	0x3d2bbbaf	0.041927036
103	0xbe5d9a15	-0.21640809
104	0x3dc8b01f	0.097992174
105	0xbec6d4d2	-0.38834244
106	0x3cd36b6f	0.025808064
107	0xbd0397be	-0.032127135
108	0x3e28d4e4	0.16487461
109	0x3ee342e1	0.44386962
110	0x3d152be8	0.036418825
111	0xbad74f01	-0.0016426743
112	0x3eab8f27	0.33507654
113	0xbdf778ed	-0.12083612
114	0x3d5d3405	0.054004688
115	0x3c00b518	0.007855676
116	0x3c76e12c	0.015068334
117	0x3d3f4812	0.04669959
118	0xbd884f53	-0.06655755
119	0x3d3754f4	0.044758752
120	0xb85f5ef0	-5.325576e-05
121	0xbe0db8f2	-0.13840082
122	0xbb93a65c	-0.0045059156
123	0x3d31bd6b	0.043393534
124	0xbe4071c9	-0.18793406
125	0xbee540b4	-0.44775927
126	0xbf16c6b0	-0.58896923
127	0xbedcc0b9	-0.43115786
128	0xbd8171ea	-0.063205555
129	0xbe540c0b	-0.20707719
130	0xbc99cf13	-0.018775498
131	0xbc7c14bb	-0.015385802
132	0x3d94d528	0.07267219
133	0x3dd93253	0.10605302
134	0xbd5684e3	-0.052372824
135	0x3de2f8a0	0.11082578
136	0x3d01a85f	0.03165471
137	0xbd48912b	-0.048966568
138	0xbda78f9e	-0.0818169
139	0xbe251734	-0.16122133
140	0xbebc7668	-0.36809087
141	0x3e43bd76	0.19115242
142	0xbce8acd7	-0.028402729
143	0xbe11dfdf	-0.14245556
144	0x3e323212	0.17401913
145	0xbd648bae	-0.05579727
146	0x3cfcc55c	0.030855827
147	0xbc738112	-0.014862316
148	0xbd4312f2	-0.04762549
149	0x3e12974d	0.14315529
150	0x3c45c7e8	0.012071587
151	0x3d226e5e	0.039656036
152	0x3df00eb0	0.117215514
153	0x3d19efff	0.037582394
154	0xbd3b3233	-0.04570217
155	0x3c2acc95	0.010424753
156	0xbd09d624	-0.033651486
157	0xbe1eda80	-0.15513039
158	0x3b8237d9	0.0039739427
159	0xbea0bb51	-0.3139291
160	0x3c15a37d	0.009133217
161	0x3d3f93e4	0.0467719
162	0xbd5b06a1	-0.05347312
163	0x3d77d1ae	0.0605027
164	0xbdd7bfed	-0.10534654
165	0x3d1b556f	0.037923273
166	0xbd762af3	-0.060099553
167	0xbca7a114	-0.02046255
168	0xbd259479	-0.040424798
169	0xbd921ba5	-0.07134179
170	0x3c751a1d	0.014959839
171	0x3d3610ac	0.044449493
172	0xbe964aae	-0.2935385
173	0xbd3f2a89	-0.046671424
174	0xbd417b30	-0.04723662
175	0x3cbbec51	0.022939833
176	0xbd93d08e	-0.07217513
177	0xbe31ab26	-0.17350444
178	0xbec9ce23	-0.39415082
179	0xbca3e68c	-0.020007394
180	0xbe644cba	-0.22294894
181	0x3d1a95a3	0.03774036
182	0x3d8769b2	0.06611957
183	0xbe81e92a	-0.25373203
184	0xbc41eb15	-0.011835833
185	0xbf4d7c7f	-0.8026809
186	0xbc234e8a	-0.009967456
187	0xba54d849	-0.0008119387
188	0x3d88293a	0.06648488
189	0xbdaa38ef	-0.083116405
190	0x3e6ba050	0.23010373
191	0xbafbd8ee	-0.001921443
192	0x3c84f0b2	0.016228054
193	0xbd9bc92c	-0.0760673
194	0x3d589811	0.052879397
195	0xbcacc66a	-0.021090705
196	0xbe938525	-0.2881252
197	0x3e727246	0.23676404
198	0xbbcf1d6b	-0.0063206456
199	0xbe7c07e3	-0.24612384
200	0xbe99dbaf	-0.30050418
201	0x3cf66113	0.030075585
202	0xbd96ca96	-0.07362859
203	0xbc9880d2	-0.018616114
204	0xbdef55f6	-0.116863176
205	0x3e0f1343	0.13972192
206	0x3d5533cf	0.05205136
207	0x3d83972b	0.064253174
208	0xbd839902	-0.06425668
209	0x3c15e90f	0.009149804
210	0xbeb0db16	-0.3454215
211	0x3d0280d6	0.03186115
212	0x3d19c6e4	0.037543193
213	0x3bc23189	0.005926315
214	0x3db33c64	0.08751753
215	0x3cf56f93	0.02996043
216	0xbd82de42	-0.063900486
217	0x3d30946b	0.043110292
218	0xbe2a83cf	-0.16651843
219	0xbe1d2971	-0.1534784
220	0x3cef22ba	0.029191364
221	0x3cdcbde2	0.026946012
222	0xbeaa71ad	-0.33289853
223	0xbc0beb83	-0.008540037
224	0xbedd38bb	-0.43207344
225	0x3cd30803	0.025760656
226	0xbece4498	-0.40286708
227	0xbea37ae0	-0.31929684
228	0x3ac58313	0.001506897
229	0x3c90a749	0.017657893
230	0x3dd0da00	0.1019783
231	0xbed5c98c	-0.4175533
232	0x3d2dac3a	0.042400576
233	0x3b407184	0.0029364536
234	0xbe8ed4b3	-0.27896652
235	0x3e49eee5	0.19720037
236	0xbed16adf	-0.4090185
237	0xbe49bed4	-0.19701701
238	0x3c0887f1	0.008333192
239	0x3d302043	0.042999517
240	0x3db32241	0.08746768
241	0xbf0133c0	-0.5046959
242	0xbef9e994	-0.48811018
243	0xbd45092b	-0.048104446
244	0xbb42802f	-0.0029678454
245	0xbcab8f71	-0.020942422
246	0xbd816a93	-0.063191555
247	0xbddc5a6a	-0.107594326
248	0xbd2d77ec	-0.042350695
249	0x3d97bb5d	0.074087836
250	0xbde046ad	-0.1095098
251	0xbcb02817	-0.021503491
252	0xbd76c47b	-0.060245972
253	0x3df8437a	0.12122245
254	0x3c8df70f	0.01732972
255	0x3c3d6301	0.011559249

model.4.bias f4 [256]
0	0x3d4dd607	0.05025294
1	0xbd2673f7	-0.040637936
2	0x3bf2a57f	0.0074049826
3	0x3d9e0957	0.07716625
4	0x3d09072f	0.033454116
5	0x3bc30534	0.005951548
6	0xbd0d3ada	-0.034479953
7	0xbbe24149	-0.0069047553
8	0xbd9b2ca1	-0.07576872
9	0xbbb386b4	-0.0054787043
10	0xbcd2fdae	-0.02575573
11	0x3dc28c90	0.094994664
12	0x3da3dfc6	0.08001666
13	0x3c0b60fc	0.00850701
14	0x3d1ae1ba	0.037812926
15	0xbd2ed34d	-0.04268198
16	0xbd52220d	-0.051302005
17	0xbbe474f8	-0.0069719516
18	0xbd05e3aa	-0.03268782
19	0xbd6b3d31	-0.057431404
20	0x3d266ede	0.040633075
21	0xbbb8762c	-0.0056293216
22	0x3d800f20	0.06252885
23	0x3db24bf3	0.087058924
24	0x3d4ee7fc	0.050514206
25	0x3c857bf0	0.01629445
26	0xbabcd2bf	-0.0014406069
27	0x3da8a658	0.082348526
28	0x3ce8c9fd	0.028416628
29	0x3cb5b125	0.022179196
30	0xbc864366	-0.01638956
31	0x3d08466f	0.033270296
32	0x3d91a5c2	0.07111694
33	0x3c7efd6b	0.015563349
34	0x3d1e1d22	0.038602002
35	0x3d335a6c	0.043787405
36	0x3db28ace	0.08717881
37	0x3d002702	0.0312872
38	0xbcd51f58	-0.026015922
39	0x3d6c6535	0.057713706
40	0x3d63b167	0.055589106
41	0xbd0fd017	-0.03511056
42	0x3db68582	0.08912183
43	0x3d310c18	0.043224424
44	0x3c9762a8	0.01847966
45	0x3bcf79c3	0.006331654
46	0xbcc8eae7	-0.024526073
47	0x3d73d049	0.059524808
48	0xbcb7f678	-0.022456393
49	0xbc2ed460	-0.010670751
50	0xbd88de77	-0.06683057
51	0x3d7ae632	0.061254688
52	0x3d41535c	0.04719864
53	0xbd59e2df	-0.053194877
54	0xbc16b216	-0.009197732
55	0xbd98557a	-0.07438178
56	0x3d258c09	0.04041675
57	0x3ca74946	0.020420682
58	0x3b9cf431	0.004789852
59	0x3d7f5aaf	0.062342342
60	0x3c61ac69	0.013774016
61	0x3de8b9e1	0.113635786
62	0x3d6bf4d7	0.057606544
63	0x3ca0329d	0.019555384
64	0xbcbb6158	-0.022873566
65	0x3d667b79	0.056270096
66	0x3c2be87e	0.010492442
67	0x3ca2f3ab	0.01989158
68	0x3deb94d5	0.11502997
69	0xbb74576e	-0.0037283557
70	0x3dcd6de5	0.10030726
71	0xbb97e657	-0.004635613
72	0x3b8ceb87	0.004300538
73	0x3d282d0c	0.041058585
74	0x3d474eb7	0.048659053
75	0xbcc2f70d	-0.023799444
76	0x3e213f45	0.15746792
77	0xbce65aae	-0.028119411
78	0xbcc331ae	-0.0238274
79	0x3d95087c	0.07277009
80	0xbb95128f	-0.0045493315
81	0xbd8499ec	-0.06474671
82	0xbb867651	-0.00410346
83	0xbd9b2256	-0.075749084
84	0x3da3569f	0.07975506
85	0x3d63e208	0.055635482
86	0xbd876cf3	-0.06612577
87	0xbe22fdb2	-0.1591709
88	0x3cac5408	0.021036163
89	0x3b7b044b	0.003830212
90	0x3cae7ec1	0.021300675
91	0xbc1fcc4b	-0.009753297
92	0x3d9bf6ae	0.0761541
93	0x3cfff55f	0.031244932
94	0x3c2e4afd	0.010637996
95	0x3cb54ca3	0.02213127
96	0x3def2af3	0.11678114
97	0x3d1dabaa	0.03849379
98	0xbc880808	-0.016605392
99	0x3ddfefae	0.10934387
100	0xbc5a24e4	-0.0133144595
101	0x3d5c5fa3	0.053802144
102	0xbd9a1601	-0.07523728
103	0xbd13ecd3	-0.036114525
104	0x3c8f3e86	0.017485868
105	0x3d9efa17	0.077625446
106	0x3bf6453c	0.0075155776
107	0xbc9a2d94	-0.018820561
108	0xbd212eb1	-0.03935117
109	0x3d83b22d	0.06430469
110	0xbe1fbe5a	-0.15599957
111	0xbdb4ed28	-0.088342965
112	0xbd3cc849	-0.046089444
113	0x3c3bcd88	0.011462577
114	0x3ccdc7e6	0.025119733
115	0x3cc77843	0.024349337
116	0xbd817f1b	-0.063230716
117	0x3cb85bf4	0.022504784
118	0x3d00f100	0.031479836
119	0xbc3100a9	-0.01080338
120	0x3c3639a9	0.011122146
121	0xbccef2be	-0.025262233
122	0xbd25c681	-0.04047251
123	0xbc3dfcc3	-0.011595908
124	0xbcdc68ed	-0.026905501
125	0x3d9131e3	0.07089593
126	0xbce54163	-0.02798528
127	0x3d0da103	0.03457738
128	0x3c796ed6	0.015224179
129	0x3d07f4eb	0.033192556
130	0x3dae78b4	0.08519116
131	0xbd0699a8	-0.03286138
132	0xbc63afc8	-0.01389689
133	0x3d0408d6	0.03223499
134	0xbba29d86	-0.004962626
135	0x3d3c60b2	0.045990653
136	0x3dc1d6e2	0.09464814
137	0x3bcd0a2a	0.006257315
138	0xbcd97ea7	-0.02654965
139	0xbd65facf	-0.056147393
140	0x3bf8243c	0.007572679
141	0x3cfe82c9	0.031068223
142	0xbbc39a32	-0.0059693092
143	0xbd0a9142	-0.033829935
144	0xba95a06a	-0.0011415605
145	0xbce29137	-0.027657134
146	0x3ceb6494	0.028734483
147	0x3d462efd	0.048384655
148	0x3cdea450	0.02717796
149	0xbc8ecb7a	-0.01743101
150	0x3cd75a05	0.026288042
151	0xbc3481f5	-0.011017312
152	0xbc8092c3	-0.015694981
153	0x3c8482e4	0.016175695
154	0xbd145de1	-0.036222342
155	0x3c24b6f8	0.010053389
156	0xbd8651ae	-0.06558548
157	0x3c9b2f90	0.018943578
158	0x3d739f50	0.059478104
159	0xbbdafaa9	-0.006682713
160	0x3ba0a4e8	0.004902471
161	0x3cc1e0ef	0.023666827
162	0x3da1869a	0.07887001
163	0xbcac8065	-0.021057317
164	0xb87d155e	-6.03398e-05
165	0x3dc9d919	0.09855861
166	0x3cdf1704	0.027232654
167	0x3de78ee1	0.11306549
168	0xbd16049c	-0.03662549
169	0xbc87893b	-0.016544929
170	0xbdc9b8cc	-0.098497
171	0x3d85edc5	0.065394916
172	0x3c8df7ec	0.017330132
173	0xbc976f14	-0.018485583
174	0x3d9c52b0	0.07632959
175	0x3d5a7e31	0.053343
176	0xbc1fab97	-0.0097455
177	0x3d356c52	0.044292755
178	0x3dbf7bbe	0.09349774
179	0xbc5a032d	-0.013306421
180	0x3d822ffd	0.06356809
181	0x3cf06369	0.029344277
182	0x3d5e2443	0.0542338
183	0xbd813301	-0.06308556
184	0xbcb5f063	-0.022209352
185	0xbcddc852	-0.02707306
186	0xbcc505dd	-0.024050647
187	0xbd1273a3	-0.03575481
188	0x3d8f7d02	0.07006265
189	0xbc7c29eb	-0.015390853
190	0xbcbdaf6e	-0.02315494
191	0xbdb62fe2	-0.08895852
192	0xbbebedbf	-0.0071999724
193	0x3ce2e97b	0.027699223
194	0x3d4115b1	0.047139827
195	0x3b161fd1	0.0022907148
196	0x3d9ed4f8	0.07755464
197	0x3d2424cc	0.040074155
198	0x3cc009c8	0.023442164
199	0x3aed1672	0.0018088354
200	0x3c3af079	0.011409872
201	0x3a73cfbf	0.0009300671
202	0x3d95d010	0.073150754
203	0x3d0dbc84	0.03460361
204	0xbd208539	-0.03918955
205	0xbd249c63	-0.040188204
206	0xbbeace51	-0.007165708
207	0xbcfff3a7	-0.031244112
208	0xbd3d5d42	-0.046231516
209	0x3cf1fd62	0.029539768
210	0x3d60a1ac	0.054841682
211	0x3c3b6d01	0.011439563
212	0x3c47abe1	0.012186975
213	0x3b963470	0.0045838878
214	0xbcb8e112	-0.02256826
215	0x3d6997b7	0.057029452
216	0xbd60b64b	-0.054861348
217	0xbd8dfbf6	-0.06932823
218	0xbd89d44c	-0.067299455
219	0x3da5a5a5	0.08088235
220	0x3c52dabf	0.012869536
221	0xbd3d2de2	-0.046186335
222	0x3dcf18e1	0.10112167
223	0x3d3a00df	0.045410987
224	0x3d9bfa51	0.076161034
225	0x3c20ffca	0.00982661
226	0xbd3504d2	-0.04419405
227	0x3d5dc00a	0.05413822
228	0x3d14acff	0.036297794
229	0x3de92d6e	0.11385618
230	0xbcf3ddd2	-0.029768858
231	0x3db12753	0.086500786
232	0xbd365e88	-0.044523746
233	0x3d84b5e3	0.06480005
234	0xbcfe04f8	-0.031008229
235	0xbd1ad509	-0.037800822
236	0xbca61bd6	-0.020276945
237	0xbd351270	-0.044207036
238	0x3d8e63f4	0.06952658
239	0x3c767b9b	0.015044118
240	0xbd1d56e8	-0.03841296
241	0x3cec0f9e	0.02881604
242	0xbd157fd7	-0.03649887
243	0x3cd45165	0.025917718
244	0x3d22e041	0.039764646
245	0xbcb3aa35	-0.021931747
246	0x3d390e9b	0.045179944
247	0xbd918824	-0.07106045
248	0x3d20209a	0.03909359
249	0x3ca8f3cf	0.02062407
250	0xbd52e06d	-0.05148356
251	0x3d7947e9	0.060859594
252	0xbc8f8047	-0.017517222
253	0xbb332339	-0.0027334227
254	0x3de9667d	0.11396501
255	0xbcebc9f9	-0.028782832

model.6.weight f4 [1, 256]
0	0xbefe8a7e	-0.49715036
1	0xbdfd06d0	-0.12354815
2	0xbd287047	-0.0411227
3	0x3e249fee	0.16076633
4	0xbdfd5c5e	-0.12371133
5	0x3e885613	0.2662817
6	0xbe656c84	-0.22404677
7	0x3df0d4a7	0.1175931
8	0xbef456d2	-0.4772249
9	0x3bc85e27	0.0061147395
10	0xbc31f6ce	-0.0108620655
11	0x3ebf865f	0.37407205
12	0x3da1241b	0.07868215
13	0xbe7d4e2d	-0.24736853
14	0x3dc3c880	0.09559727
15	0xbedee97d	-0.43537512
16	0xbdf007d7	-0.11720245
17	0xbe9a746d	-0.3016695
18	0x3f617ef8	0.88084364
19	0xbcbf886b	-0.023380479
20	0x3ee0ff11	0.439446
21	0xbd0e2c19	-0.034710024
22	0x3e2ca12c	0.16858357
23	0xbf260d17	-0.64863724
24	0x3ed81690	0.42204714
25	0xbd34f911	-0.04418284
26	0x3e0eed2e	0.13957664
27	0x3e69a589	0.22817053
28	0x3f42f4c6	0.76154745
29	0x3d8ff8c1	0.07029868
30	0x3f0651f0	0.52468777
31	0xbd4a3593	-0.0493675
32	0x3e212062	0.1573501
33	0x3f1ff353	0.6248066
34	0x3e83c195	0.2573363
35	0x3dba0e32	0.09084739
36	0x3e9f80cf	0.3115296
37	0xbe4f88cc	-0.20267028
38	0xbaa9ff12	-0.0012969694
39	0xbd5635b1	-0.052297298
40	0x3df50112	0.11963095
41	0xbe00b79d	-0.12570043
42	0x3e6b0ac5	0.22953327
43	0xbdd23159	-0.102633186
44	0xbe777970	-0.24167418
45	0x3e4a738d	0.19770642
46	0xbf0838da	-0.5321175
47	0xbe81e02f	-0.2536635
48	0xbea4f34a	-0.32216865
49	0xbeb38323	-0.35060987
50	0xbc1993fe	-0.009373663
51	0xbe4b47ed	-0.19851656
52	0xbef2b377	-0.47402546
53	0xbd8f2450	-0.06989348
54	0x3e06d3af	0.13166688
55	0xbd648b2c	-0.055796787
56	0xbeca3dca	-0.39500266
57	0xbe361beb	-0.17784087
58	0xbe05e8e9	-0.1307713
59	0xbe2ba645	-0.16762646
60	0xbdd7a577	-0.10529607
61	0x3eea5b22	0.45772654
62	0xbda35dde	-0.07976888
63	0xbce670ab	-0.028129896
64	0x3f2ae0a7	0.6674904
65	0x3de93459	0.11386938
66	0xbe700b5e	-0.23441836
67	0xbdff5043	-0.124664806
68	0x3e38cb51	0.18046309
69	0x3dd12176	0.1021146
70	0x3e05a6d5	0.13051923
71	0xbea6a14e	-0.3254494
72	0x3f1cfd49	0.6132398
73	0x3e3a14f6	0.18172058
74	0xbe93f938	-0.28901076
75	0xbf024c87	-0.5089802
76	0xbeb17676	-0.3466069
77	0x3f647ed6	0.89256036
78	0xbcaffb32	-0.021482084
79	0x3dc2a451	0.09503997
80	0xbe522343	-0.20521264
81	0x3d5bc7f7	0.0536575
82	0xbddc177a	-0.10746665
83	0x3e99b749	0.30022648
84	0x3e96fa38	0.29487777
85	0x3dd6b826	0.10484342
86	0x3d3aa4bb	0.045567255
87	0x3eee99b4	0.4660164
88	0x3e208908	0.15677273
89	0x3df8b737	0.121443205
90	0x3e019574	0.12654668
91	0xbeac1e1e	-0.33616728
92	0x3dcbd97c	0.09953591
93	0xbecd2192	-0.40064675
94	0x3eae0042	0.33984572
95	0x3e69f8a5	0.22848757
96	0x3da127e2	0.07868935
97	0xbdb96307	-0.09052091
98	0xbdb38e6b	-0.087673984
99	0x3df1b83e	0.118027195
100	0x3ea393d5	0.31948724
101	0xbf52db5b	-0.8236596
102	0xbea64f88	-0.32482553
103	0xbc794266	-0.0152135845
104	0xbef118ab	-0.47089133
105	0xbdf88dc9	-0.12136418
106	0xbeecb717	-0.46233436
107	0x3b9fab6d	0.0048727305
108	0xbebb8ae4	-0.36629403
109	0xbec01dfa	-0.3752287
110	0xbefae668	-0.4900391
111	0xbf064266	-0.52445066
112	0xbe26b5aa	-0.16280237
113	0x3e04106c	0.1289689
114	0xbcd50237	-0.026002033
115	0xbe8120ed	-0.25220433
116	0xbf26640a	-0.649964
117	0xbdfa0d0d	-0.122095205
118	0xbe2b834b	-0.16749303
119	0xbe9b6b8c	-0.3035549
120	0x3e1f4189	0.15552343
121	0xbeeb4269	-0.45949104
122	0xbc1cd25c	-0.009571638
123	0x3eb1e5f0	0.3474574
124	0xbd9dd65c	-0.077069014
125	0x3e278c3a	0.16362086
126	0xbf039eb7	-0.51414055
127	0xbec3c7a4	-0.3823825
128	0x3d6c17e1	0.05763996
129	0xbe7e93e8	-0.2486111
130	0x3e0a1357	0.1348394
131	0xbeebcf26	-0.4605648
132	0xbe893375	-0.2679707
133	0x3e31d5cf	0.17366718
134	0xbf2ab255	-0.66678363
135	0xbec98d92	-0.39365822
136	0x3e5e067a	0.21682158
137	0x3e0ea120	0.13928652
138	0xbcf7a8ef	-0.030231921
139	0x3d4cece7	0.050030615
140	0xbd900833	-0.07032814
141	0xbe64f491	-0.2235892
142	0xbe00680c	-0.1253969
143	0x3ec702ac	0.38869226
144	0x3e83d877	0.25751087
145	0xbefff1d2	-0.49989182
146	0xbe2d8821	-0.1694646
147	0x3e886f6a	0.26647502
148	0xbe3cdaf7	-0.18442903
149	0xbe40a02f	-0.18811105
150	0xbf10b74a	-0.56529677
151	0xbd78ea60	-0.060770392
152	0xbe9675d2	-0.29386765
153	0x3e95c18e	0.29249233
154	0xbe4a9bda	-0.19786015
155	0x3c9876a8	0.018611267
156	0xbf01f185	-0.50759155
157	0xbe08e8f5	-0.13370116
158	0x3e8999ca	0.26875144
159	0x3f078d31	0.52949816
160	0x3e091f55	0.13390858
161	0xbd007663	-0.031362902
162	0x3e0d5774	0.13802892
163	0xbe358dc4	-0.1772986
164	0xbe70f885	-0.23532303
165	0x3de1d419	0.110267825
166	0xbb37a717	-0.0028023177
167	0x3e0e8752	0.13918808
168	0xbd773a15	-0.060358126
169	0xbd771bf0	-0.060329378
170	0xbf4c1347	-0.79716915
171	0x3e6a205e	0.2286391
172	0xbef2f669	-0.4745362
173	0xbd7f06df	-0.062262412
174	0x3ddbb3d6	0.1072766
175	0x3de8b7ac	0.11363158
176	0x3e354b2b	0.17704456
177	0xbe4c8c4b	-0.19975393
178	0x3dfd6325	0.12372426
179	0x3e347b08	0.17625058
180	0x3ed31657	0.4122798
181	0x3e49d160	0.19708776
182	0x3e1156c0	0.14193249
183	0xbf22b7bb	-0.635616
184	0x3ec42e3d	0.38316527
185	0x3e182471	0.14857651
186	0x3e6805d7	0.22658478
187	0xbeade791	-0.33965734
188	0x3df4b8b6	0.11949293
189	0x3d140439	0.03613684
190	0xbd44b50c	-0.048024222
191	0xbe4a38dc	-0.19748253
192	0xbecc71b4	-0.399305
193	0x3ed05873	0.4069248
194	0x3e4bd2e8	0.19904673
195	0x3e08eadf	0.13370846
196	0x3e69458f	0.22780441
197	0x3d0f7d47	0.035031583
198	0x3e41ad1f	0.18913697
199	0x3e47932c	0.19489735
200	0x3e458b30	0.19291377
201	0xbe3cd43d	-0.18440337
202	0xbe67b4fd	-0.22627635
203	0x3eb84cf0	0.359962
204	0xbf10f940	-0.56630325
205	0xbe027337	-0.12739263
206	0x3ebd77d4	0.37005484
207	0xbc7fafbf	-0.015605866
208	0xbe7d36f3	-0.24727993
209	0x3df37c20	0.11888909
210	0xbebb46fa	-0.36577588
211	0xbdb43e2c	-0.08800921
212	0xbe959b87	-0.2922022
213	0xbe2ac588	-0.16676915
214	0xbd549585	-0.051900405
215	0xbe27780d	-0.1635439
216	0xbe35683b	-0.17715542
217	0xbe817385	-0.25283447
218	0xbca38bff	-0.019964216
219	0x3e5ddfb6	0.2166737
220	0x3e80327f	0.25038525
221	0xbeb5b3a1	-0.35488608
222	0x3dafc151	0.08581794
223	0xbebffc68	-0.37497258
224	0x3dda495d	0.10658524
225	0x3ecfaf12	0.40563256
226	0xbc9fdbf3	-0.01951406
227	0x3df580d0	0.1198746
228	0xbec52e62	-0.3851195
229	0x3eb864fa	0.3601454
230	0x3c3d5d4c	0.011557888
231	0xbef9fc16	-0.4882514
232	0x3bbb8c03	0.005723478
233	0x3f04c91f	0.51869386
234	0xbe613533	-0.2199295
235	0xbec140ac	-0.37744653
236	0x3e6d6603	0.23183446
237	0xbd4719f8	-0.04860875
238	0x3de17621	0.110088594
239	0xbea3ee98	-0.3201797
240	0xbea8919d	-0.32923594
241	0x3ed1024b	0.40822062
242	0xbec9a300	-0.39382172
243	0xbe0675d3	-0.13130884
244	0xbf806b70	-1.0032787
245	0x3e47e5f9	0.19521321
246	0x3e8d8127	0.27637598
247	0xbec03b3d	-0.37545195
248	0x3e0837d9	0.13302554
249	0xbde474c9	-0.111550875
250	0xbedbb0a2	-0.42908198
251	0x3e19bd78	0.15013683
252	0xbe5e8763	-0.21731333
253	0x3e1b3689	0.15157522
254	0x3e13aaaa	0.14420572
255	0x3e4489b2	0.19193152
