data/checkpoints/rlgym-ppo-run-1760480280098057400/16705876/PPO_VALUE_NET.pt (torch, 623393 bytes, 7 tensors)

model.0.weight f4 [256, 89]
00000000: de92 6fbd 9912 a3bc 65b2 813d 6c2b 56be
00000010: a932 13be 6689 1c3d 9bf2 a03d ebb7 6ebe
00000020: 342d e7bc 4ce0 2cbd d4c1 90bd 97fd 7f3d
00000030: d1c0 9c3c 6f99 8e3d 85a1 973b a764 e33c
00000040: a583 873d 822a d1bc 13f1 893d b9d8 e8bc
00000050: 86af a0bd 156b 953d 72a1 ddbc f540 dc3c
00000060: b578 14bc ef0e 163d db7e 7b3d 6f8e 0fbd
00000070: 9ef4 bfba a584 e2bd ae41 c53c 3825 a5bd
00000080: 59a4 f83c c8ff dbbc 4d5c 443d a98d ad3d
00000090: 1087 f33c daa4 483d b1f7 52bc 3bc4 55bd
000000a0: 5f63 76bd 1edc be3d 8bab f3bc 2bf3 833d
000000b0: 9b5f 303d fd36 013d a708 c3bd d26c cd3d
000000c0: 4e5a 9cbd c165 a83d 2f4f 25bd baac 0a3e
000000d0: 4526 073e 9046 a13d c261 3f3d e371 b1bd
000000e0: 48ec 1a3d ddb2 963c 43e4 b03c d769 d03a
000000f0: e341 383d 9193 99bd 40f0 813d cce9 b93d
00000100: 7403 2ebd d71a 0bbe d662 c1bc e74f 09bd
00000110: 197b 69bd db4b c63c 9de6 a1bb ce53 c3bd
00000120: 03df 263d e381 79bb 605b 9abd 7dbd 5e3b
00000130: 7098 6abd c358 2a3d edd6 debb 21d1 293c
00000140: a63e b53d cdd2 5f3d 4256 84bc 5af5 c0bd
00000150: 2ef7 05bd 8b39 a8bc 341e c8bc 51fd 943c
00000160: 280f 8c3c 355f 19be 33c4 3d3d 04e6 bebc
00000170: 3218 c6bd 62cd 47be 3a3c 47bd f9bc 6c3d
00000180: 44bc 933b c91d 1bbd 0e68 6b3d 76e0 b9bb
00000190: 37cb d63d 60ee da3a 6c91 5dbd 4305 6fbc
000001a0: 9485 5b3d 3796 61bd 85a8 6b3b edf2 a83d
000001b0: d4eb dbbd 3cdc f0bc f777 85bc 559f 2d3d
000001c0: 3fa4 a83d e0c9 413c 44e4 a6bd ba60 a13d
000001d0: 43aa d9bc e9a0 9fbd 9d42 c63d e2ae f3bc
000001e0: 66e6 3f3d cfe7 2c3d cd22 c63d 8960 253d
000001f0: b240 8ebd d73f 733d 7b74 be3b 1572 85bd
00000200: 92ab b1bd 9ce3 1a3d 3b55 dabc 8e56 583d
00000210: 33e8 be3c 33ba fb3c 98bc ae3d 47af 783d
00000220: 6a67 9a3d 98ee 703c 4b7c 4fbb 84b1 203d
00000230: 3233 78bd 0760 1fbe 9001 d4bc 4579 20bc
00000240: d78c 823d affa adbd 3ea2 39bd bee9 523d
00000250: 54f8 babd 4371 cc3b 3eac cd3d ddef 013e
00000260: 08e8 333d 7d22 593d 7091 b7bd ea75 333d
00000270: d0cb 37bd 52e1 f0ba 4dc5 7f3d 5275 05bd
00000280: 7666 e13d b0a3 863a c99c b0bc 933b 943d
00000290: 0ba9 863d 74d4 933d 2700 87bb 2525 d7bd
000002a0: 6775 2e3d ff67 be3c 1fd8 b7bb c92f 393d
000002b0: 4edb 70bc 5977 a73d 06fc cb3a 61ac 0fbc
000002c0: d039 623d 9448 8f3d 2615 493d 02e5 eebd
000002d0: aa52 293d e668 34bc 0f3a 3dbe ae51 943d
000002e0: d64f 803c c062 2abe a24c 10bc 9f88 06bd
000002f0: 7bbf f03c 686b ac3c 6dca 253d 27fd 8cbd
00000300: 7ea7 783c 4d73 f63c 7291 aa3d 719b 4fbd
00000310: 6000 903d b0ad 863d 2d65 c33d c258 8d3d
00000320: d403 aa3d 0e7f 75bd 2075 6e3d ee0f b7bd
00000330: 7f20 b23d ce39 c3bc 641a 40bd c7ee a83d
00000340: e49e a43d 3983 9a3d b993 13bb 7fef d7bd
00000350: a4e5 ff3c 0b00 c1bc bc79 8f3d 5248 a5bc
00000360: 7d2a 543d fa2c b6bd 21b0 b93a 4301 183c
00000370: 5ced 83bd 9b3f 18bd d203 313d e117 ae3c
00000380: efcc bbbd ae9d bfbd fd99 20bd e35c 2f3c
00000390: c747 61bd 143f c63d feec e33d 2141 5e3c
000003a0: ab82 b63d 1522 1d3d ca1a 12bc 38b5 193d
000003b0: 56f3 43bd 8c30 51bd e4a6 8dbd d712 543d
000003c0: c925 143c 5549 f53c 6b14 b0bc d42a 803b
000003d0: 1aa9 e2bd f43a 39bd 9923 5bbd 8ddd 9a3d
000003e0: 81dc 873c d863 82bd 5f6a f7bc 05b8 4fbd
000003f0: 41b9 503c 7cab f13c b413 f4bc 2ea9 dcbc
-0.058489673 -0.019906329 0.06332854 -0.20915002 -0.14374794 0.03821697 0.07858773 -0.23312347
-0.028219797 -0.042206094 -0.0706822 0.0624977 0.01913491 0.06962859 0.004627409 0.027757956
0.06616906 -0.025532965 0.067354344 -0.028423654 -0.078459784 0.07295815 -0.027054522 0.026886443
-0.009061982 0.036635336 0.061400276 -0.035047945 -0.0014645045 -0.11060456 0.02407917 -0.080637395
0.030351805 -0.026855364 0.047939587 0.08474285 0.029727489 0.04898534 -0.012876437 -0.052189093
-0.06015336 0.09319328 -0.029744884 0.06442865 0.043059926 0.03154658 -0.09523135 0.100305215
-0.07634412 0.08222533 -0.04035872 0.13542452 0.13198192 0.07874787 0.04672409 -0.086643
0.03782299 0.018395836 0.021593219 0.0015900683 0.04498471 -0.07498849 0.06344652 0.09077796
-0.042483762 -0.13584457 -0.023606699 -0.033523466 -0.05700216 0.024206093 -0.0049408213 -0.09537469
0.040740024 -0.0038071803 -0.0753696 0.0033987456 -0.057274282 0.041588556 -0.0068005235 0.010364802
0.0884984 0.054644395 -0.016154412 -0.09421797 -0.032706432 -0.020535251 -0.024428464 0.018187197
0.01709707 -0.14977725 0.04632969 -0.02330304 -0.09672584 -0.19511941 -0.04864142 0.057797406
0.004508527 -0.037870202 0.05747228 -0.00567251 0.10487979 0.0016703121 -0.054093763 -0.014588657
0.053594187 -0.055074897 0.00359586 0.082494594 -0.1073834 -0.029401891 -0.016292555 0.04238828
0.082344525 0.011827916 -0.08149007 0.07879777 -0.026570445 -0.07794363 0.09680674 -0.029746477
0.046850584 0.042213257 0.096746065 0.040375266 -0.069459334 0.059387054 0.0058122254 -0.065159
-0.086753026 0.03781472 -0.02665197 0.05281692 0.02330408 0.030728435 0.08532065 0.060714033
0.07539256 0.014705323 -0.0031659778 0.039231792 -0.0605957 -0.15563975 -0.025879651 -0.009794538
0.06374519 -0.0849508 -0.04532074 0.051492445 -0.09129396 0.006239088 0.10042618 0.12689157
0.043922454 0.053011406 -0.08963287 0.043813623 -0.044872105 -0.0018377698 0.06244402 -0.03258259
0.11005871 0.0010272171 -0.021559136 0.072379254 0.06575211 0.072182566 -0.004119891 -0.10505132
0.042592432 0.023242949 -0.0056104804 0.045211587 -0.014700724 0.08177061 0.001556278 -0.008769126
0.055230916 0.06996265 0.049092434 -0.116647735 0.0413386 -0.011011338 -0.18479179 0.07242142
0.015663069 -0.16639233 -0.008807333 -0.032845136 0.02938818 0.021047309 0.04047625 -0.068842225
0.015176652 0.030084277 0.08328523 -0.05068535 0.070313215 0.06576097 0.09540782 0.06901695
0.083015114 -0.059935622 0.058217168 -0.08938585 0.086976044 -0.023831274 -0.046900168 0.08248668
0.080381185 0.0754456 -0.002251847 -0.10543727 0.03123743 -0.02355959 0.07005641 -0.020176087
0.051798332 -0.08895297 0.001416687 0.009277645 -0.06441757 -0.037170034 0.043216534 0.02125162
-0.09169947 -0.09356247 -0.039209355 0.010703298 -0.055000093 0.0968 0.11129187 0.013565333
0.08911642 0.03836258 -0.00891752 0.03752634 -0.047839485 -0.05107169 -0.069165975 0.05177578
0.009042212 0.029942194 -0.021494111 0.0039113555 -0.1106741 -0.045222238 -0.053500745 0.07561789
0.016584637 -0.063667 -0.030202089 -0.050712604 0.0127394805 0.029500715 -0.029794551 -0.02693614

model.0.bias f4 [256]
00000000: 4648 ad3c 3d2a ddbd 0331 943d 24f7 9bbd
00000010: f39d c53d 5c7e 7e3c 8e5f 973d a77e 873d
00000020: 48a3 17bd c14f bbbd 3ded 40bc a10b 03bd
00000030: 5253 293d a7b5 9fbd d5af cb3d 9068 bb3d
00000040: b472 21bd ddf0 bfbd d7db 90bd 2b23 ae3d
00000050: 102e c73c 1745 1e3b d015 03bd 1908 5b3d
00000060: ae95 b83c d8e7 94bc 49ae 2abd 289a c63d
00000070: 1b6f ba3d 5ef0 bf3c ecfc 85bd 8365 d43b
00000080: 2343 603d f2d6 d93b 554f 83bd dd26 babd
00000090: e244 95bd b5f6 bebd 31bc 6dbd 504f c43c
000000a0: 80da b3bd bb40 1d3d 1d48 24bd 6049 1e3d
000000b0: 86cf 85bb 660f 35bc 6b26 5e3d eb0c 03bd
000000c0: 2e6a e0ba 8eb9 163d b6f4 2bbd a5b1 fd3b
000000d0: cda2 7e3d dce7 933d 4f51 c7bd 459c 88bd
000000e0: eb0d a33d 0cbf b33d 217c 963c ec9e a53d
000000f0: 8cc7 8f3c ed5a 8b3d d934 ffbc 926b 443d
00000100: d284 febc 583f 0cbd 1684 74bd 384c 53bd
00000110: f40e 93bc 05db fb3c 2b9c 113d aa58 77bd
00000120: 4041 fb3d e640 e43d b347 c6bc 2ddb 87bb
00000130: 9522 833c 7954 793b 875b d4bd 7216 193b
00000140: 0e80 7cbd 1397 a5bd e5ae 9ebb 5708 cfbd
00000150: 44aa 293d 666d 75bd 8b0f ca3c fb9f a13d
00000160: 79ca b43d 3fad a8bd 4ed2 103d e2c5 c93d
00000170: d5ab 293c 5bfa f3bc c402 85bd 18ae b33c
00000180: d067 9bbd 27b8 febc 6b89 763d 981e 013d
00000190: d204 6ebc 6a50 8d3d 65dc 203b d918 9bbd
000001a0: 259c 223d 3c59 65bb 9ff8 26bd 8340 0ebd
000001b0: 71c1 c1bc 99b2 75bd 3d24 07bd 4070 6a3d
000001c0: ca54 8fbc d45d 963c 1653 aa3d 7081 bbbd
000001d0: 4ef4 b33d 93d3 13bd 84b3 6ebd 554e dabc
000001e0: 31cf 9e3d 26ac 85bd 32f6 56bd 2caf 10bd
000001f0: 68e6 d5bc ad23 fabc b796 44bc f799 51bc
00000200: 9f84 a23d a8d2 163d e16d f8bc 6230 cb3c
00000210: 4395 e03d c99b b0bc 941a adbd 1fd1 2bbd
00000220: ba7c 56bd f390 8b3d 442e 8a3d 0ebd ad3d
00000230: e581 d0bd ac3b 1abd f349 b23d 0275 8d3c
00000240: 5878 c43b 5640 ab3d 0137 0dbd fc8f d73d
00000250: ebbe 693b 8773 cbbd f57d af3c daf8 f53b
00000260: 9096 323d 53a3 0dbc b4a4 6bbd 74d5 09bc
00000270: 8f42 d03d 6142 bcbd 4c1c ff3c daf3 113d
00000280: d6f8 4e3a 8620 0abd 9f92 b4bc 21f2 663d
00000290: ce69 c93d c6fc 113d c7d4 b3bc f433 3f3d
000002a0: dc1d bb3d 28f8 a1bc c6c5 363d a401 a53d
000002b0: 8ae9 66bd 7f73 7dbd f380 fe3c a6d7 293d
000002c0: 62a7 3bbc a6cc 133d 2772 b0bc 4459 22bd
000002d0: a85e 0bbd 22d7 a2bd 29d0 18bd 0f1e a2bc
000002e0: 8bbe 9d3b 0cda e13d abc7 beb9 ed8f fbbb
000002f0: 1df3 dc3d 4def cbbc 1ff2 55bd d041 cbbd
00000300: 1583 2ebd bc54 623d 7c3c c43d 4c47 b2bd
00000310: 52d6 613d 9bd8 b93d 3bc1 5abd d743 8bbc
00000320: 593b 14bc 6a47 9cbc 0c39 fdbc 6b2c a53d
00000330: 78f0 7fbd cc2d 863d b9e9 8a3c 16d7 34bd
00000340: f7f9 d73d cb3a 86bc a180 ed39 c81a 43ba
00000350: bc8c 293c cb45 243c 5c0b 9abc 2435 763c
00000360: e408 52bd 7351 803d 959a 5a3d d1ba 263d
00000370: b53b a8bd 868d 89bd 1604 4ebb edc4 63bd
00000380: be51 c7bd 1396 5c3d 6bd6 673d cf37 b03d
00000390: 8180 a73c a448 653c fee7 c93d d666 c2bc
000003a0: 558a 0e3d d7d8 c8bd 7912 6b3d 39d3 0a3c
000003b0: 149a c33c 0394 d93c 097f a13c b69d 2f3d
000003c0: 3450 f53c 6d24 85bd c75f 94bd a87d 983d
000003d0: cbee b9bc e61e 343d 4b69 d7bc 56b5 efbc
000003e0: 9cb1 b53d abb7 673d eb85 ddbd b5af ec3b
000003f0: 40c3 943d fcbb c13d 2de4 adbd 4c8a 31bd
0.021152627 -0.10799072 0.07235911 -0.07615498 0.09649267 0.015533056 0.073912725 0.06615954
-0.03702095 -0.09146071 -0.011775312 -0.031993512 0.041339226 -0.07798319 0.09945647 0.09150803
-0.03941603 -0.09372113 -0.07073181 0.085028015 0.024313956 0.0024150067 -0.032003224 0.05347452
0.02253231 -0.018176958 -0.041670118 0.09697372 0.09103223 0.023430046 -0.06542382 0.0064818277
0.054751527 0.006647938 -0.06411616 -0.09089444 -0.07288529 -0.093243994 -0.0580408 0.0239636
-0.0878191 0.03839181 -0.040107835 0.038644195 -0.0040835766 -0.011051035 0.054235857 -0.03199474
-0.0017121488 0.036798052 -0.04198142 0.007742124 0.062166978 0.07221958 -0.09732305 -0.06670431
0.07961639 0.08776674 0.018369736 0.080869526 0.017551206 0.06804452 -0.03115313 0.04795415
-0.031069193 -0.034240097 -0.05969628 -0.05158636 -0.017951466 0.030744085 0.035549324 -0.06038729
0.12268305 0.11145191 -0.02420411 -0.004146001 0.016007701 0.0038044734 -0.1036902 0.0023359326
-0.06164556 -0.08085456 -0.0048426264 -0.101090126 0.041422144 -0.059918784 0.024665615 0.07891842
0.08827681 -0.08236169 0.035356812 0.09852196 0.010355909 -0.029782465 -0.06494668 0.0219336
-0.0758816 -0.03109367 0.060189646 0.031523317 -0.014527516 0.069001034 0.0024545428 -0.07573099
0.039699692 -0.0034995815 -0.040764447 -0.034729492 -0.02365181 -0.059984777 -0.032993544 0.057235956
-0.017496485 0.018355288 0.08316629 -0.091555476 0.08786832 -0.036090445 -0.05827667 -0.02664868
0.077543624 -0.06526975 -0.052480884 -0.035323307 -0.026110843 -0.03053459 -0.011998824 -0.012793056
0.07935452 0.03682199 -0.030325832 0.024803344 0.109659694 -0.02155866 -0.08452335 -0.04194748
-0.052365042 0.06814756 0.06747106 0.08483325 -0.101810254 -0.037654564 0.08705511 0.017267708
0.0059957914 0.083618805 -0.034476284 0.1052551 0.0035666774 -0.099341445 0.021422366 0.007506472
0.04360062 -0.008644897 -0.05753012 -0.008412708 0.10168945 -0.09192348 0.031141423 0.035632946
0.0007895356 -0.033722423 -0.02204257 0.056383256 0.09834634 0.035641454 -0.021952046 0.046680406
0.091365546 -0.01977165 0.044622205 0.080569535 -0.056375064 -0.061877724 0.031067347 0.041465424
-0.011453481 0.03608384 -0.021538807 -0.03963591 -0.034025818 -0.079511896 -0.037307892 -0.019789724
0.0048139743 0.11027917 -0.00036388388 -0.0076770694 0.10788558 -0.024894381 -0.052232858 -0.09924662
-0.04260548 0.05525659 0.09581849 -0.08705005 0.055136032 0.09074517 -0.053406935 -0.017000122
-0.009047353 -0.019077022 -0.030910991 0.08065113 -0.06248519 0.06551704 0.01695715 -0.044150434
0.10545724 -0.016385457 0.000453 -0.00074426504 0.010348495 0.010026406 -0.018804245 0.015027318
-0.05127801 0.06265535 0.053370077 0.040705506 -0.08214513 -0.067164466 -0.003143554 -0.055607725
-0.09732388 0.05385406 0.05660097 0.08604395 0.020447018 0.01399437 0.09858702 -0.023730677
0.034799892 -0.09806984 0.057390664 0.008473211 0.023877181 0.026559835 0.019713895 0.042875014
0.02994547 -0.06501088 -0.072448306 0.07445842 -0.022696873 0.04397478 -0.026295325 -0.029261272
0.08871767 0.056571644 -0.108165585 0.0072230943 0.072638035 0.09459683 -0.08490787 -0.04334478

model.2.weight f4 [256, 256]
00000000: 11f5 cc3b 639e c43d c7a5 463d 9ff7 253c
00000010: 363c ecbc 84eb a43d 26de 8cbd 03d2 983d
00000020: 02fc 6b3d 6891 6d3d fcb7 5b3d b6d9 9a3d
00000030: a462 9e3d d025 6b3d efb7 b73d cd04 01bd
00000040: d825 13bd 927c 183d 69d7 213c 1edf 983d
00000050: 3839 72bc c084 913d ddf5 163d 7ac3 433d
00000060: 64d7 813c 2251 963c a239 e63c 2dab e83c
00000070: 8e2e 783d 5041 b83c 8637 9c3d 4bfd c53b
00000080: f81a 493d 4f76 e03d e157 183d 97aa 533c
00000090: 2f4f d6bc 975f 7a3d f7b0 d93c 6deb f73d
000000a0: 7d12 413d 4e37 513c 738b cd3d 995a cebc
000000b0: a2f5 a33c c7cd 443d fd6b 5fbc f7e4 88bc
000000c0: e1d8 853d ce80 00bc 6f17 a6bc 47e7 a03c
000000d0: 61bd 053e accb 043c abfb 083d 751a ed3c
000000e0: c389 ad3d ee67 463d 162b 813d 9de4 903d
000000f0: 0745 e83d 44de 723b cde8 6b3d d143 e13a
00000100: 463f c1bc dba8 9f3c bf48 c43d 82b2 b93c
00000110: 8671 2f3d 7ff7 39bc 95ec c03d 1120 0fbc
00000120: cfba 9dbb 810c ac3d 4c20 6f3d 3c73 64bc
00000130: 5bcd 46bc 341c 513c c342 803d f1c5 603d
00000140: c217 113d 5f06 653d 836f 273d ba5c 8e3d
00000150: 1d52 3b3c 7faf e5bb 091d 003d d189 55bc
00000160: 58de 8b3c e17a da3c 7096 b23d 096a f13b
00000170: fd0d 333d e671 a53d 1f38 a3bd b211 363d
00000180: 69f5 ec3c 14a2 0c3d 8dc2 49bc 9219 d4bc
00000190: a1c8 1e3d 64de ce3c 5f55 d73d cf91 033d
000001a0: 3a3d d93c c238 2b3d bd72 913b 0abb 423d
000001b0: bc36 d63c 0d6e bdbc 3a8a 513d d70b 3a3d
000001c0: af3d 9b3d 0039 00bd c4e6 ef3d aa27 f0ba
000001d0: a96d 073e fdcb 62bd 91a0 fb3c ebd1 5dbd
000001e0: ab18 52bd b50f 1e3e e839 83bb b826 d03c
000001f0: 6eb3 113d 11e1 753c 484c 833d dd90 a93c
00000200: b01d 483d 06f1 393d 8207 95bc 452e af3d
00000210: 81ef 83bc c9ac 263d 3f62 f83c 6184 2a3c
00000220: 7467 3d3d abe0 b13c 86fa 903d 4dce 8c3a
00000230: 0f1a f8bc a4bd bc3c e529 4f3d 6e1d 8b3b
00000240: 9cba 67bc 6a0f 423d 87ed 1cbc ed8c 493c
00000250: 2485 a0bd e5e0 ac3d 0bd7 1b3d 3fa6 5c3d
00000260: febf d3ba 66f2 133d 2eab 3a3d ce80 e1bc
00000270: b4bd 0b3d 43e1 5c3c 6ea8 093c 8d80 5e3c
00000280: 3c0a 61bd 8017 c1bc 84f7 2d3c b54b 923d
00000290: 61d3 613d 321b 403d 5527 233c ba53 d73d
000002a0: 62c9 9d3d cf32 333d 22cf b13d bca5 e6bb
000002b0: 9a7d 3b3d b00c 68bd 65b4 2fbb 16a8 e83c
000002c0: eb14 2f3d c784 07bd 2e78 873d 91a7 033d
000002d0: 8da4 b23c 77a7 6f3c 83fa 253d 94f2 c4bc
000002e0: ae65 0b3d 22de 93bc f839 df3b cec5 97bb
000002f0: c2d7 2e3c 86f8 1a3d c556 1d3d 507c 463d
00000300: 7dfd 5f3c 77b5 b93c 63b3 363b 19b6 9a3d
00000310: 7b97 5c3c f7fc ccbc dc9f 01bd f4ea b23c
00000320: fd61 c23b f81f 093e 66fc d73d ad89 3f3d
00000330: 994a 54bc d180 86bd db5e 983d dd2f e3bb
00000340: 6936 563d f500 f4bc 0891 313d d842 103d
00000350: 54ac f33c 3471 d43c 3267 d53d e58b 933d
00000360: daf3 a33d e116 ae3c 273b 873d 43f4 b53d
00000370: d176 923d 51c2 373d 582a c13b 77b3 e33a
00000380: ccb0 0a3d 3393 f03c 343d b23c 6438 bdbc
00000390: af54 dcbb eec4 d73d 5765 df3c 7313 2c3d
000003a0: 5550 ac3d df9f 90bd 62df e83d 4fd4 2cbc
000003b0: cabb 3fbd 9b9f ffbc 5825 1abc 466c 373d
000003c0: f4c1 8dbc 6493 ff3c 5b84 273d c819 753d
000003d0: baa5 853c cae8 99bc bc76 ce3c 25b3 8ebc
000003e0: 9ed6 f13a 8101 04bc 9237 35bd 0d62 223e
000003f0: a8c5 bfbd c768 9d3c ba17 ca3c 87aa 923b
0.0062548 0.09600522 0.04849794 0.010129838 -0.028837305 0.080527335 -0.06878309 0.074619316
0.05761338 0.058 0.053642258 0.07561056 0.07733658 0.057409108 0.089706294 -0.03149872
-0.035924762 0.037228175 0.009878018 0.07464431 -0.01478415 0.07105398 0.036855567 0.047793843
0.015849777 0.018349234 0.028103653 0.028401935 0.060591273 0.02249208 0.07627778 0.0060421578
0.049097985 0.109600656 0.037193183 0.01291909 -0.026160805 0.061126318 0.026573641 0.12105451
0.047136772 0.012769533 0.100363635 -0.025189685 0.020014588 0.048047807 -0.013636586 -0.016710741
0.06535507 -0.007843209 -0.020274846 0.019641532 0.13060524 0.0081052 0.033443134 0.02894328
0.084735416 0.04843896 0.06307046 0.070748545 0.11341291 0.003705875 0.057595063 0.0017186349
-0.023589741 0.019489696 0.09584188 0.022668127 0.042832874 -0.011350512 0.094201244 -0.008735673
-0.004813529 0.084008224 0.05838041 -0.01394349 -0.0121339215 0.012763072 0.06262734 0.05487627
0.035423048 0.05591428 0.04087783 0.0695128 0.011433152 -0.007009446 0.03127769 -0.013033346
0.017073795 0.026669921 0.087201 0.0073673767 0.043714512 0.08078365 -0.079696886 0.04445047
0.028925614 0.034334257 -0.012314451 -0.0258911 0.038765553 0.025252528 0.1051433 0.032121476
0.026518453 0.041802175 0.0044387267 0.047541656 0.026149146 -0.023123765 0.051157214 0.045421448
0.075801246 -0.03130436 0.11713937 -0.0018322368 0.13225426 -0.05537032 0.030716212 -0.05415527
-0.051293056 0.1543568 -0.0040047057 0.025409088 0.035571508 0.015007273 0.06411034 0.020698959
0.048856437 0.045395873 -0.018192057 0.08553747 -0.016105415 0.040692125 0.030320285 0.010407538
0.04624124 0.021713575 0.070790336 0.0010742635 -0.030285863 0.023039646 0.050577063 0.0042454517
-0.014143612 0.04737798 -0.009578115 0.012301666 -0.078378946 0.08441333 0.038046878 0.053869482
-0.0016155241 0.03611984 0.045573406 -0.02752724 0.034116462 0.013481441 0.008401973 0.013580454
-0.0549414 -0.023570776 0.010618094 0.07143346 0.055133227 0.046900935 0.009958108 0.105140164
0.07704426 0.043749627 0.086820856 -0.0070388 0.04577408 -0.056652725 -0.0026810404 0.028400462
0.04274456 -0.03308561 0.06614719 0.032142226 0.02180698 0.014627329 0.04052211 -0.024041452
0.034032516 -0.018050257 0.0068123303 -0.0046317345 0.010671558 0.037834667 0.038412828 0.048458397
0.013671276 0.022669537 0.002787792 0.075542636 0.01346385 -0.025022967 -0.031646594 0.02184055
0.0059320913 0.13391101 0.10546188 0.046762157 -0.012957239 -0.065675385 0.07439967 -0.006933196
0.052297983 -0.029785613 0.043351203 0.035219997 0.029745258 0.025932886 0.104200736 0.07204417
0.08005495 0.021251144 0.06603079 0.0888448 0.07151569 0.04486305 0.0058949403 0.001737221
0.033860013 0.029367065 0.0217577 -0.023098178 -0.0067239623 0.10535608 0.027270002 0.042010736
0.084137596 -0.07061743 0.11370732 -0.010548665 -0.04680995 -0.031204036 -0.0094083175 0.044780992
-0.017304398 0.031198211 0.04089771 0.05983904 0.016314376 -0.01878776 0.025203101 -0.017419407
0.0018450802 -0.008056999 -0.04424245 0.15857716 -0.09363872 0.019215 0.024669517 0.004475895

model.2.bias f4 [256]
00000000: caa3 7c3d 23d9 213c 5adc c5bb ce10 0ebd
00000010: 7845 863d 9d3d 953d 0373 723d 8caa a13c
00000020: c95f 7fbd d55d cabc d5a5 cb3c 5621 1e3d
00000030: 6da1 95bc 0e49 643d 0b06 283d 0bf8 783d
00000040: bbc9 bcbc 7966 e9bc 06d3 d6bc 194d 06bd
00000050: 0d22 18bd 0763 3cba 367b 283c 8c4e 643d
00000060: 2b36 b2bc ea8c f8bc ca60 663d c3fa 7cbd
00000070: 4589 06bd a105 11bd bc89 afbc 87bc 41ba
00000080: b66d ed3b d8c6 05bd 007d 133d 8532 f4bc
00000090: 3114 0f39 597f d9bc 1d34 95bc e2ea 5cbd
000000a0: f23d a9bb 16d4 d03c e994 823c f30d 293d
000000b0: 33da 16bc 739c 9d3c ce5c 3abc 7068 e7ba
000000c0: e761 143d c92b 19bd d2e3 61bd 9922 51bd
000000d0: a232 423d 94a2 6a3d c518 64bc f71c 32bd
000000e0: 743b e63b 41fe 8c3d 51ef a7bc 3066 303c
000000f0: 9f63 67bd 959f 893c 4d4a 4f3d 7cd3 383b
00000100: 8c6b f7bc 0f3c 28bd ff02 2c3d 06ce 6d3d
00000110: 868e 28bd d394 083d f12b 113b 8fd4 223c
00000120: 746b 3bbd 17e9 063d 7cac 0abd 75b4 2f3c
00000130: 1981 89bc b3c3 113d 1ec6 703d 7623 423d
00000140: 2a35 afbc f47f a93c 5d46 563d cc53 723d
00000150: ac12 5bbd 9bcf 7c3d 3f26 5e3d 37b5 383d
00000160: c8b4 68bc 4317 3c3c d87e 30bd fad9 20bc
00000170: 30bb aabc 7dcd 583d c72f 8c3b d8ae 723d
00000180: 7976 40bc 6e51 a1bb 8d69 52bc 5d31 97bc
00000190: 093f 90ba 0313 4c3c 77d7 b13c 0a2b 313d
000001a0: f65a b6bc cec6 073d 7ef7 b3bc 9e24 213d
000001b0: 5acd 8fbc 1cbc 2ebc 982d 15bd a4d1 513c
000001c0: 82ab 97ba e8fe 753c cd9b 87bb f00e 6f3d
000001d0: 9de5 62bd b332 32bd d31f a63a 40d8 76bd
000001e0: a052 4d3d f258 96bc 6a4e 873d 3d8d 87bc
000001f0: 6ba5 fa3b 27dc a8bc 6754 99bb 4d29 0cbb
00000200: 737f 39bb cab4 23bd 7bbb c8bc 27c8 6dbc
00000210: 8ed5 6b3d f9b8 4dbd 266f 313d ef85 5dbd
00000220: 072e 533c 7fd0 49bd 174c bfbb e180 3b3d
00000230: 4e38 763d 16ee 57bd 55cd 1e3d dcdd e13c
00000240: 7eb8 973d 50f5 483d 55ef 073d f508 c6bb
00000250: 1556 48bd 563b 0fbd f50a 843d 8bf7 c8ba
00000260: f880 cdbb eada 02bd 7ed5 06bd b748 743d
00000270: 5f78 f43b d33b 883d 644d dcbb d967 3dbd
00000280: 157e 763c 7ec6 6abd 6141 003d aa23 3cbd
00000290: 2197 303d e095 51bd 51b4 133c c8d3 0e3d
000002a0: 3977 063d bef0 073d 50d4 643d 5044 4f3d
000002b0: 41bf e83b bdfc b6bc 8124 f3bc 8d44 163d
000002c0: e63b a73c dfa2 35bc f17b 76bd d1b2 d2bb
000002d0: da70 c7bc ec59 6a3d 9e40 11bc 6bd0 0fbd
000002e0: 3b14 f13b 6991 c4bc faef 293d ba7e 07bd
000002f0: 619e 683d 5c08 b73c adee f3bc 16c6 343d
00000300: 102b 19bd 7707 493d cd06 79bd 49cc 48bc
00000310: bd20 bc3c 6a0f 4f3d a735 033c 80c0 713d
00000320: c794 523d da7e b73c a42b 033d df39 153d
00000330: 1cd3 f63b 4bec 86bd 7547 f1ba 8b95 49bd
00000340: 6954 b63c 931e 54bd c79b 19bc c96a d1bc
00000350: 77e4 663d 105f 783c 89bb e53b 792d 253d
00000360: b405 623d 14ed b8bc e027 d33c 4475 00bd
00000370: 9ba6 6a3d 1c50 53bc cd3e 363d 9d88 f53c
00000380: 60eb d6bb 096a 69bd ae72 953d 1696 0abd
00000390: b60a d33c f944 253c ec20 1ebd 1e9b 50bc
000003a0: 4208 1d3d c1f6 083d efa2 e2bc af01 4f3c
000003b0: ae60 8abb d2b8 883d a788 353a 183e 0dbc
000003c0: 85d7 febc 7b47 9fbc 4cf7 a5bc 02cf 9c3c
000003d0: 7528 c93c 2cfe 273d 9752 53bd e50c 3fbc
000003e0: 3d8c 0f3d 0864 98bc 24dc 7abc 3c84 46bd
000003f0: 4ddc 11bc f984 f4bc 78da df3b 7d0b 24bd
0.06167964 0.00987843 -0.006038231 -0.034683995 0.06556219 0.072871424 0.059191715 0.019734643
-0.062347207 -0.024702946 0.024859348 0.03860601 -0.01826545 0.055733733 0.041021388 0.060783427
-0.023045411 -0.028491246 -0.02622367 -0.03278837 -0.03714185 -0.0007186387 0.010283282 0.05573897
-0.021754345 -0.03034063 0.05624465 -0.061762583 -0.032845754 -0.03540576 -0.021427982 -0.00073904585
0.0072457446 -0.032660335 0.03600788 -0.029809246 0.00013645065 -0.026549982 -0.018213326 -0.05393494
-0.005164855 0.025491755 0.015940147 0.04127307 -0.009207296 0.01923964 -0.011374665 -0.0017655026
0.03622618 -0.037395272 -0.055148907 -0.051058386 0.04741157 0.057283953 -0.013921921 -0.043484654
0.0070261303 0.068844326 -0.020499857 0.010766551 -0.05649149 0.016799727 0.050607968 0.0028202226
-0.03020265 -0.0410729 0.041995045 0.058057807 -0.041151546 0.033345055 0.0022151435 0.009938373
-0.045756772 0.032937136 -0.0338559 0.010724177 -0.016785191 0.035587024 0.05878269 0.0473971
-0.021387655 0.020690896 0.052313197 0.059161946 -0.053484604 0.061721426 0.054235693 0.045094695
-0.014203258 0.011480155 -0.043089718 -0.009817595 -0.020841211 0.052930344 0.0042781564 0.059248775
-0.011746996 -0.0049230373 -0.012842548 -0.018456155 -0.0011005114 0.012455705 0.021709187 0.043253936
-0.02226017 0.03314858 -0.0219686 0.03934156 -0.017553974 -0.010664966 -0.036420435 0.01280633
-0.0011571499 0.015014388 -0.004138446 0.058363855 -0.055394758 -0.04350538 0.0012674279 -0.060264826
0.050127625 -0.01835296 0.06606753 -0.01654684 0.007649114 -0.02061279 -0.004679251 -0.0021386922
-0.0028304725 -0.039967336 -0.02450346 -0.014513052 0.05757671 -0.05022523 0.04331889 -0.054082807
0.012889392 -0.049271103 -0.005837928 0.045777205 0.06011229 -0.05271729 0.03877004 0.027571611
0.07408236 0.049062073 0.03318723 -0.006043548 -0.04891022 -0.034968697 0.064474024 -0.0015332563
-0.006271478 -0.031947054 -0.032918446 0.05963966 0.0074606384 0.066520356 -0.006723093 -0.046241615
0.015044709 -0.057318203 0.03131235 -0.04593245 0.043112878 -0.051168323 0.009015159 0.03486994
0.032828543 0.033188574 0.05586654 0.050602257 0.0071028774 -0.022337312 -0.029680492 0.03668647
0.020414304 -0.011086195 -0.060176793 -0.006430008 -0.024345804 0.057214662 -0.008865504 -0.035110872
0.007357148 -0.023995118 0.041488625 -0.03307984 0.056791667 0.022342853 -0.029776895 0.044134222
-0.037394583 0.049079385 -0.0607975 -0.012255737 0.02296483 0.05055181 0.008008397 0.059021473
0.051411416 0.022399355 0.03202404 0.036432143 0.0075324904 -0.06588038 -0.0018408137 -0.04921488
0.022257047 -0.05178697 -0.009375519 -0.025563614 0.056370225 0.015159383 0.0070108813 0.04032657
0.05518122 -0.022573985 0.02577585 -0.031361833 0.057287794 -0.0128975175 0.044493485 0.029972369
-0.0065588206 -0.05698589 0.07297264 -0.03383454 0.025761943 0.010087245 -0.038605615 -0.012732295
0.038337953 0.033438448 -0.027665583 0.012634679 -0.004222951 0.06675877 0.0006924965 -0.008620761
-0.031108627 -0.019443264 -0.020259522 0.019141678 0.024555424 0.04101388 -0.051592436 -0.011660789
0.03504585 -0.018602386 -0.015311275 -0.048465952 -0.008902621 -0.029848563 0.0068314634 -0.04005002

model.4.weight f4 [256, 256]
00000000: bcb8 2abd 4e18 333d 386b 64be ca47 663d
00000010: ff53 0a3c 154e a0bd fd7f 53be 9f0a 553a
00000020: efc1 193d f6c6 28bd dcd1 003d fefd 863d
00000030: 2762 a2bd 91fc 00bc 20d1 2abd 6a2b 23bd
00000040: 8922 cebd d5fe 63bd 3af5 afbc 7732 bbbd
00000050: f0de 9dbc 6087 003d 653f 0e3c 3ca6 83bd
00000060: f4af e5bc f0c5 313d 7fe3 5bbd 3d19 e63c
00000070: 5046 aebd 368a 1e3d 7efb 7ebe a6d1 9c3c
00000080: 956d 53be e67c cfbc 4189 643d dc2a 10bd
00000090: 1761 933d 4cc8 dabc f87c 00bd 121f 1a3d
000000a0: ad3f 25bd aafe febd bcca 84bd 79ac a5bd
000000b0: 4e4f 48be 75a3 87be 465d e5bd ac4f b63d
000000c0: 95c1 aa3d 56fc d53b fc37 a53d 04ff ca3d
000000d0: ddd4 103d e82f 2dbd e8c4 ec3d 5b9c 213d
000000e0: c33e 7fbd 12c2 813d 39fc f7bd 9dca 503c
000000f0: 6b8e 553d 1bbc 61bd d2b3 c8bc 6fe7 8f3c
00000100: cdd7 92bc 7758 53bd ff5c db3a 61cd 0fbd
00000110: 8d12 1e3c b8e7 353d c540 3ebe 9dfd f13b
00000120: 53f7 e4bd 9581 d73b 3c38 863d 3e4e 0abc
00000130: 6c19 97bc bc4e 8f3d a913 f6bc 1dbf 86bb
00000140: eb60 a53d 5567 223e e38e 003c c42c e2bd
00000150: 6532 41be fe6d 773c 418e dd3c d26f 31bc
00000160: 7b73 1d3c 3969 473e 71a4 72bd 6e83 873d
00000170: ea80 a63c 652e d63d fb53 60bd dd4f 91bd
00000180: 5332 81bd 2510 40bd 5c6f 97bd ffa4 d43c
00000190: 2b96 20be 6b0d 30be c174 8b3d 5ada 21be
000001a0: 0401 453d 4bab 65bd 1f5e 653d e3ff 68bc
000001b0: 57cd 323e 9a3d 513e c4b0 963d d267 a8bc
000001c0: 0d60 4f3d c8be 3f3d 3e1d 5d3d ef85 92bc
000001d0: 2a64 923d 593e b43d 5477 76bd f454 373d
000001e0: ec1c 803d 8069 14be 1a94 1d3b 7808 c63d
000001f0: 148e 9c3c 7288 4fbe 5331 093d 4799 3dbe
00000200: db75 debc 2211 3fbe 8b94 1bbd 4b61 bbbd
00000210: a5c4 3bbc c671 643d cc00 39bd 48b9 323d
00000220: 5fa8 013d eb4d b53c 9e73 2dbc 492f 92bd
00000230: 9279 44bd fda7 113e 9f63 243d 9cb7 0bbe
00000240: e997 9c3b 24ec d43c 6fc2 823c a2b5 9f3c
00000250: ea2a 82bd 8ea2 7a3d 8b9b 86bd cce6 9e3c
00000260: cc00 813d 78f0 743d 3332 3bbd 928c 553d
00000270: 864c d5bc 4071 2dbd 6405 8dbc a706 36be
00000280: 1d8e b23b 6f3b 183d 4429 79bc ef3a f5bc
00000290: a532 a0bd 815f 273d f32a 76bd 7ab5 c5bb
000002a0: 29ef 17bc a1a2 c3bd 80ad 05bd aedd a73d
000002b0: 76da 5fbc 2f2a 8d3c 8665 41bd 51ec bb3c
000002c0: 537f cebc 2afe 89b9 edc6 b5bc 2ca1 213b
000002d0: ab58 8bbe 3a68 dfbd 7a24 873d 552a cfbd
000002e0: 29d0 64bc 41b1 62be 70c2 cbbc 9619 3b3c
000002f0: 4d7f bb3d df43 84bd 1144 663e 8ccb 143d
00000300: b2f0 843c 5902 b3bc d1c5 a73d 6ac6 acbc
00000310: b10e 42bc dffb 5f3c 7062 b13c 63bd c3bd
00000320: 41f3 07bd c55a 683d 0712 d0bd 734c 8c3c
00000330: adfb 14be edfd 183d cf33 553d c6c6 ec3c
00000340: 5fd1 85bd 737b 4b3b 5fce d7bd 261e 123d
00000350: 2fd7 03bc a134 6a3d 10c3 123e 205d b23d
00000360: 3219 a9bc 551d 8e3d e4b3 b03b ef5c e2bd
00000370: 8103 e53c 73a9 663c 3e32 05be 256b 123d
00000380: 851d ddbd 4a12 783d 83aa a0bd 3824 ffbd
00000390: a019 9dbc 8ea8 4d3d 7deb b3bc d0e5 0fbe
000003a0: d774 053c 9568 673c d59f ffbd ef46 0e3e
000003b0: b12b edbd 72a0 d9bd baa3 263d 4320 303d
000003c0: af90 ecbd d5a4 abbd 52a8 8cbe ff7f 5eb9
000003d0: f59c 8ebc 2a34 9fbd 4f05 ec3c 807e ecbd
000003e0: ec77 2dbd 24bb 8b3b 839d cbbc ce5c 5d3c
000003f0: 2f2b 01bd 6bc1 543d 578b 353c 8003 84bb
-0.041680083 0.04372435 -0.22306526 0.056220807 0.008442878 -0.07827393 -0.20654292 0.0008126888
0.037538465 -0.04120537 0.031450137 0.06591414 -0.07928877 -0.0078727165 -0.041703343 -0.039836325
-0.10065181 -0.05566295 -0.021479238 -0.09140485 -0.019271344 0.031379104 0.008682107 -0.06428191
-0.028038003 0.04340166 -0.053683754 0.028088206 -0.08509505 0.038706027 -0.24900624 0.019142937
-0.20647271 -0.02532811 0.055794958 -0.035197124 0.07196253 -0.026706837 -0.03136918 0.037627287
-0.04034393 -0.12450917 -0.06483981 -0.08089537 -0.19561502 -0.26491895 -0.11199431 0.08901915
0.08337704 0.006530325 0.08067319 0.099119216 0.035359252 -0.042282015 0.115609944 0.039455753
-0.062315714 0.06335844 -0.121086545 0.012743619 0.052137773 -0.055111032 -0.024499808 0.01756641
-0.017925167 -0.05159804 0.0016736089 -0.035107974 0.009647978 0.044410437 -0.18579395 0.0073849694
-0.11179986 0.0065767267 0.065536946 -0.008441506 -0.01844474 0.06997439 -0.030038672 -0.004112138
0.08075126 0.1585973 0.007846567 -0.110436946 -0.1886688 0.015101908 0.027045371 -0.010829883
0.009610052 0.19473733 -0.059238855 0.06616865 0.020325143 0.10458068 -0.05476759 -0.07095311
-0.06308427 -0.046890397 -0.07394287 0.025957583 -0.15682285 -0.17192619 0.068093784 -0.15805951
0.04809667 -0.05607156 0.055997964 -0.014221164 0.17461143 0.20433655 0.07357934 -0.020557318
0.05062871 0.046812803 0.053982966 -0.01788613 0.07148011 0.08800954 -0.060172394 0.044758752
0.062555164 -0.1449337 0.0024044574 0.09669584 0.019110717 -0.20266894 0.033494305 -0.18515502
-0.027155807 -0.1865888 -0.03798346 -0.091494165 -0.011460458 0.055772565 -0.045166776 0.04363373
0.03165471 0.02213188 -0.010586647 -0.07137925 -0.0479675 0.14224239 0.04013407 -0.1364426
0.0047788513 0.025991507 0.015961854 0.019495789 -0.063558415 0.06119018 -0.06572636 0.019397162
0.0629898 0.05979964 -0.04570217 0.05213601 -0.026037466 -0.04234433 -0.017214485 -0.17775975
0.00544907 0.037166055 -0.015207592 -0.029935328 -0.0782216 0.040862564 -0.060099553 -0.0060335966
-0.009273329 -0.095525034 -0.032636166 0.08196579 -0.013662925 0.017232029 -0.04721596 0.022939833
-0.025207197 -0.00026320043 -0.022189582 0.0024662716 -0.27216086 -0.109085515 0.06598754 -0.10115496
-0.013965645 -0.2213793 -0.024872988 0.011419674 0.0915514 -0.06458258 0.22486903 0.03632693
0.016228054 -0.021851705 0.08192027 -0.021090705 -0.011844323 0.013670891 0.021653384 -0.09557607
-0.03319097 0.05672719 -0.101596884 0.017126298 -0.14549132 0.037351537 0.05205136 0.028903376
-0.06534075 0.0031048923 -0.10537409 0.035673283 -0.008046909 0.057179097 0.14332223 0.087091684
-0.020641897 0.069391884 0.0053925384 -0.11052882 0.027955772 0.014078486 -0.13007447 0.035746712
-0.10796646 0.060564317 -0.078450225 -0.1245808 -0.019177258 0.050209574 -0.021962876 -0.1405251
0.008145533 0.014124055 -0.124816574 0.13894247 -0.11580599 -0.10626306 0.040683486 0.042999517
-0.11551034 -0.083810486 -0.27472168 -0.00021219252 -0.017408827 -0.077736214 0.028811125 -0.115475655
-0.042350695 0.0042642523 -0.02485538 0.013510896 -0.031535324 0.05194227 0.0110805845 -0.0040287375

model.4.bias f4 [256]
00000000: 0698 103d 4f02 40bd b29a 8b3c a7d1 da3c
00000010: 4f99 fb3c 6165 aebc 7694 0bbd 16c9 2cbd
00000020: dae9 78bd c0fe 9d3b 876f d1bc 5a9c 2f3d
00000030: b6b3 563d f380 23bc dede 94bb 8518 54bd
00000040: ee97 4ebd 6bd4 013c 4c3e 70bd c14c 68bd
00000050: 723e 103c c064 2a3c e1f4 1f3c e674 a13c
00000060: eb83 253d b8bc fb3c 4509 4ebd 3d3f 8a3d
00000070: 7728 78b8 bd45 163d eb9a 0abd 4d2b 613d
00000080: 2ad9 2b3d 9cc5 b9bc 7ef2 96b9 4301 65ba
00000090: 030b e03c 2649 2a3d e7c0 80bc 3782 4f3d
000000a0: c3a3 b23c fa6f 11bd ec51 853d 3e06 283d
000000b0: 816d 9e3a 1771 a23c 360c 9dbc aa62 4b3b
000000c0: eb70 fc3b 62b8 f7bb d757 55bd 00c7 0e3d
000000d0: 21ad e6bc a2c8 44bd eedd 61bd 6b7f 4bbd
000000e0: 57a1 c93c dbdb 233c 3ead 2f3c 5445 563d
000000f0: 4952 19bc 4ab0 553d eff6 483d 3953 fc3c
00000100: 6d5b 37bd 3bd8 f43b a3a1 e43b 2801 ef3b
00000110: ec52 7a3d 045d 42bd ebb9 4a3d e247 94bc
00000120: 3b39 dcbc ab54 053d 0739 433d 9a90 a1bc
00000130: d96e 063d 51f6 66bd b65b 393b 60b4 293d
00000140: 6aeb 823b 964c 6bbd adc3 c0ba a192 21bd
00000150: 3085 dd3c 5331 743c 31a4 7fbd 4b1d 28bd
00000160: 37df 6fbc bd05 06bd 30db 12bd 5adc 953b
00000170: f681 153d 59d7 1b3d 4abd dcbc 9a6e 8abc
00000180: b456 7a3d 8a00 133d 572a 83bc 3221 753d
00000190: ce3f b1bc d7d2 5c3d a7df 6dbd 114b 83bc
000001a0: 7287 23bd 69ed 623d f56c 9d3c a5ad 80bc
000001b0: 16e2 27bd 1f44 2b3d 0b3b 8fbc 332b 0bbd
000001c0: 16d2 5fbd 4972 11bd c204 0a3d 4242 fdbb
000001d0: 601f 73bd 37b5 8c3c 0dc7 b13c 3fc3 61bc
000001e0: 0df7 a9bc d26f 5cbc b1ff 80bc e2bc d9bc
000001f0: d604 3abb 625f 3f3d bcf3 c8bb 5267 233d
00000200: f1aa 60bc a4da 8b3c 5f6e f53c ca26 40bc
00000210: 83b1 fe3c 0262 143c 1cb7 da3b 6293 82bc
00000220: 6754 8a3d 7fda eebc e95d 81bc be99 32bd
00000230: fcf2 ec3b 7198 903c 78eb 67bc 9af3 4ebd
00000240: fcd7 6cbd 64ad 10bd 60ba 5a3d c5e3 a7bb
00000250: ad05 f43c 11f0 a5bc 673c f73a 7f6d acbb
00000260: 6529 4dbc 175b 05bc e7cc 7ebd 0397 b63c
00000270: 75db 79bd 8659 223d ede2 f43c 0ebb 99bc
00000280: dbdf adbc 6e8c 113d 00f8 403d a348 5dbc
00000290: 58eb 24bd 94bf 8a3d 19b6 fa3c 2456 8e3d
000002a0: 3d06 5dbc 9a2f 293c 6d3f 43bd 3fe3 303d
000002b0: e5ec 883c be07 843b e827 2a3d 709b 973c
000002c0: d9f7 42bd d19a 343d 65f7 4c3d 4d30 40bd
000002d0: c906 bc3c d5ca 07bc 9585 853c f419 5dbd
000002e0: bcdf 8fbc fa30 57bd 49af 14bd 09f8 09bd
000002f0: 2731 653c 09a2 b9bb e079 33bc 954f 67bd
00000300: 4bfe f83c 5afe ec3b 0407 a03c 8417 29bd
00000310: 278d 893d 5156 6a3d 65fa fe3c 4bc0 97bc
00000320: a773 e03c 64f8 763c 91a2 da3c b8be a9bc
00000330: 248a 04bc e0b7 35bd 7aef ecbc 47bb 9abc
00000340: cffc 09bd c655 fcbb 6f43 353d 02fe 85bc
00000350: fae1 993c 9769 06bb 6287 aebc 2bbf 9d3c
00000360: f7bb 54bd 65db 79bd 23e6 04bd 815e 513d
00000370: b03a 20bc df70 24bd de3e 7e3d 4625 d93c
00000380: cd6a 023d b507 93bb 397c 23bd fd64 1e3c
00000390: ddcc a5bc f322 433d 9882 a0bc ef0e acbc
000003a0: 94ef c0bc 36c0 123d 1960 0abc d9f9 fdbb
000003b0: 278a 56bd 80d9 06bd 91db cd3c 54f6 f33c
000003c0: 893b 563c f921 c6bb 30f6 40bc b881 813c
000003d0: c76f 623d a8f7 4bbd f1ea 7abc 845e 80bd
000003e0: 0d17 a8bb a91c 8d3c 5baf 303d d32a 933c
000003f0: 480a f73b 3d91 fabc 3e60 7f3d 9636 34bd
0.03530123 -0.0468772 0.017041538 0.026711298 0.030712752 -0.021288576 -0.03407713 -0.042183958
-0.060769893 0.0048216283 -0.025565876 0.042873718 0.05241748 -0.009979474 -0.0045431694 -0.051781196
-0.05043786 0.00792418 -0.05865316 -0.056713823 0.008803951 0.010399997 0.0097629735 0.019709062
0.04040901 0.030729637 -0.05030181 0.06750343 -5.9165493e-05 0.0366876 -0.033839148 0.054972935
0.04195515 -0.022677235 -0.000287909 -0.0008735845 0.027349 0.041573666 -0.015716983 0.050661292
0.021806603 -0.03550718 0.06509766 0.041021578 0.0012087078 0.019829316 -0.019170862 0.003103415
0.0077038906 -0.007559822 -0.052085724 0.03485775 -0.028158726 -0.0480429 -0.05514329 -0.049682062
0.024613066 0.010001148 0.0107224565 0.05231221 -0.009357997 0.052170075 0.04906362 0.030801402
-0.044764925 0.0074720657 0.0069772764 0.007293839 0.061114237 -0.047451988 0.04949371 -0.018100683
-0.026882758 0.03255145 0.047661807 -0.019722272 0.032820556 -0.05638725 0.0028283424 0.041431785
0.0039953487 -0.057446085 -0.0014706753 -0.039446477 0.027041048 0.014904338 -0.062412445 -0.04104356
-0.014640621 -0.032720316 -0.035853565 0.004573387 0.036500894 0.03804717 -0.026945729 -0.016898442
0.061117843 0.035889186 -0.0160114 0.05984611 -0.02163687 0.05391201 -0.05807462 -0.016027005
-0.039924093 0.055402193 0.019216994 -0.0157078 -0.040987097 0.041813012 -0.017484209 -0.033976745
-0.054643713 -0.03550938 0.033695944 -0.007728846 -0.059356093 0.017176254 0.02170136 -0.01377946
-0.020747686 -0.013454394 -0.015746923 -0.026579324 -0.002838423 0.046721824 -0.006132571 0.039893456
-0.013712631 0.01707203 0.029959856 -0.011727998 0.031090504 0.00905657 0.0066746604 -0.015939418
0.0675438 -0.029156921 -0.01579185 -0.04360365 0.0072311144 0.017650815 -0.014155261 -0.050525285
-0.057823166 -0.03532161 0.053400397 -0.005123588 0.029787863 -0.020256074 0.0018862606 -0.0052620764
-0.012522076 -0.008139393 -0.06220713 0.022288805 -0.061000306 0.039636157 0.029893363 -0.018765952
-0.021224907 0.035534315 0.04711151 -0.0135060875 -0.040263504 0.06774822 0.030604409 0.06950024
-0.013490257 0.0103262905 -0.04766791 0.04318547 0.016714523 0.0040292433 0.041541964 0.018506736
-0.047599647 0.044092957 0.05004062 -0.046921063 0.022952454 -0.008288105 0.016299048 -0.05397983
-0.01756274 -0.052536942 -0.036299977 -0.03368381 0.01398877 -0.005665068 -0.01095435 -0.05647238
0.030394694 0.0072324695 0.019534595 -0.041282192 0.06716376 0.057211224 0.031125257 -0.01852431
0.027398897 0.015073869 0.026688846 -0.020720825 -0.008089576 -0.04436481 -0.028922785 -0.018888129
-0.033688363 -0.0077006547 0.044253763 -0.016356472 0.018784512 -0.0020509714 -0.02130479 0.019256195
-0.05193707 -0.061000247 -0.032446038 0.051115517 -0.009779617 -0.040146705 0.062071674 0.026507031
0.031840134 -0.0044870027 -0.03991339 0.009667632 -0.020239288 0.047640752 -0.019593522 -0.021003215
-0.02355174 0.035827838 -0.008445763 -0.0077507314 -0.052377846 -0.032922268 0.025129111 0.029780544
0.013075718 -0.0060465303 -0.011777446 0.015808925 0.05528238 -0.04979673 -0.015314803 -0.062680274
-0.005129701 0.01722558 0.043135982 0.017964756 0.0075390674 -0.030586833 0.062347643 -0.04399737

model.6.weight f4 [1, 256]
00000000: f27e 84be 0bc1 3cbc 6be2 65bd 9ca8 b83d
00000010: e214 25bd 48c0 a63d 9e56 58bd 95a7 893d
00000020: 20bb 4bbd 9e23 b53b 88ed 31bc ff1e 303d
00000030: f22a d33c a806 40bd 1557 253d 024e 7abe
00000040: a60d 75bd ce9b 67bd 46e5 973e efea dbbc
00000050: 318f af3d ab0a 2fbd 55ac 6f3d a9f7 8bbc
00000060: ee48 be3d fffb 65bd b9a6 a73d 7d2c 203d
00000070: 94a7 873e 5312 6c3d b47c 953e d731 2fbc
00000080: 5bcb 6c3d a12f 4d3d 5379 3d3d 317f 0e3d
00000090: 9ca4 403d 8fca 3bbd 8f9e 34bc 7fce c0bc
000000a0: be52 713d 1ca0 05bd b8f1 9f3d 985a 72bd
000000b0: 1272 16bc a945 8c3d 9330 42bd a57e c5ba
000000c0: 8411 09bd b0ae 1ebe 7982 853c 0776 27bd
000000d0: e5ca 6fbe bd97 87bd de17 c13c 4b4d 5abd
000000e0: bf7e b4bb 4918 39be d462 cbbc 22ac 70bd
000000f0: 705a 36bd 4c1a 883d 99b8 e2bc 1318 0cbd
00000100: 68ca a13e fc8c 003d 5b12 76bd ed9a 67bd
00000110: 85a2 cc3d f56a 8a3d 63b7 373d 4acd 9bbd
00000120: 940b 8f3e 6555 633d 9fa6 55bd a3ce e5bc
00000130: 4d5c 8cbc 0eec 9c3e bf5a 67bc 0eae 503d
00000140: dc8e 00bd b49f 623d b8ad 4abd fc56 993d
00000150: db4b b83d 2065 4b3d 2290 343d e998 573d
00000160: 752f 8f3d 2f1c 9d3d 5d49 f93c 17ff dbbc
00000170: a9bc 413d e27f 77bd 306e a63d bb7e b63d
00000180: b2fa 5c3d 2603 85bd 6ebc 79bc e631 ba3c
00000190: 7f78 963c 3ab8 0cbd 0bcf f2bc b752 42bc
000001a0: 2124 62bd 2b8f 64bc ef23 2cbd d951 4aba
000001b0: 4641 a2bc d26d 64be 958e c3bd dba4 11bd
000001c0: c3c8 75bd d18d 173d 47b3 a7bc d9a3 a4bd
000001d0: 93f1 1bbd 1646 63bd 2e9a 37bd cffd c3bc
000001e0: 523e 393d 615d b6bc dbae 9cbc 4ff8 f23d
000001f0: f994 0ebd d8e3 8d3d cd82 54be 0538 65bc
00000200: 37ce c43c 5eee 4dbd 4e68 903d 077f 16be
00000210: c625 f4bc 938f 4e3d a595 10bd 17b8 7ebb
00000220: 8075 533d 24dc 9f3d f93e 2fbd fba7 823d
00000230: 47bc e7bc e259 79bc e082 21bd e0f0 833e
00000240: 4b98 473e 54d8 8cbe 5ce7 3cbd 4085 3d3c
00000250: 7fd8 12bd 7103 6fbd e957 d9bc e205 70bd
00000260: eded 5ebd d16f 343e 1b0e b9bb 4ce4 3e3c
00000270: d064 93bc 2e7e 4cbc 87f3 903d b33a 8a3e
00000280: 2b23 743d 06ef bebc eb6f 983d 93ba 29bd
00000290: 9e45 dabd 05ac a53d 1954 f3bb 4c7e 923d
000002a0: 913b d2bc 4c89 1cbd a787 9dbc 75ea 8a3d
000002b0: b9a0 77bd a7a8 75bc c45e 963d ab4e c93d
000002c0: b788 dd3d c18a 42bd 6a4d 743d 8f33 5b3d
000002d0: caf4 d53d 4dc0 6d3d 7f1b 9f3d 4da9 1dbd
000002e0: bbe9 963c edc5 a93d 8615 ad3d 174e 89bd
000002f0: ffad 323d f22a b23c c151 23bd a48a 04bd
00000300: 3e14 80bd 2c61 f43d 67e7 8f3d e548 833d
00000310: 8bac b53d c199 533d 1ff0 873d 7e24 853d
00000320: 3e44 3b3d ffe4 77bd f856 a2bc f224 b23d
00000330: 92f3 4cbd 4465 bcbc b70d b53d a5b2 9dbc
00000340: 8b4b 3ebc caee 0a3d 357e 41be f9bd 75bd
00000350: aa55 05bc fa2b ddbc ddbc 11bd e118 91bc
00000360: 556c 0bbe 2081 4fbd 9972 60bd f3c9 9a3d
00000370: 1c89 bf3d acef 73be 2135 663d fab5 0fbd
00000380: 16b3 2a3d 39b4 553e d91c adbc b220 963d
00000390: 215a 6ebe c00b 153d b929 983c e942 58be
000003a0: c3f0 013c 0c6c 6db9 5db0 00bd 2863 c6bc
000003b0: 4aa9 cd3d 77ec 4fbd 8062 7b3d 4836 5cbd
000003c0: c0a7 5bbe f7c1 5b3d de5e 61bc b2a7 6dbd
000003d0: 8f4b 1bbd 2bda 8e3d adec a6bc 56a0 33bd
000003e0: 15db 943d 709e d2bc 1f4e 6abc 8906 b43d
000003f0: 3e55 4cbd 37ce a73d 0d5b 5b3d ff7a a43d
-0.25878102 -0.011520634 -0.056124132 0.09016535 -0.04030312 0.081421435 -0.05281698 0.06721417
-0.049739003 0.0055279275 -0.0108598545 0.04299831 0.025777314 -0.046881348 0.04036625 -0.2444382
-0.05982747 -0.05654507 0.2966711 -0.026845424 0.085722335 -0.042734783 0.058513958 -0.017085867
0.09291254 -0.056148525 0.08186097 0.039104927 0.2649504 0.057634663 0.29196703 -0.010693035
0.057811122 0.05009425 0.046258282 0.034789268 0.047031984 -0.04584747 -0.011024131 -0.023535965
0.0589168 -0.032623395 0.07809776 -0.05916843 -0.00918247 0.06849224 -0.047409605 -0.001506765
-0.03346397 -0.15496325 0.016297566 -0.040884044 -0.23417242 -0.06620739 0.023570951 -0.05329637
-0.0055082734 -0.1807567 -0.024827398 -0.05875791 -0.04451984 0.06645641 -0.027675914 -0.034202646
0.31599736 0.031384453 -0.0600761 -0.056544233 0.09991936 0.06758682 0.044852626 -0.07607515
0.2793852 0.05550136 -0.052160855 -0.028052634 -0.017133856 0.30648845 -0.014120757 0.05094724
-0.03138624 0.055328086 -0.049482077 0.07487294 0.08998843 0.049656987 0.04408277 0.05263606
0.069914736 0.07671391 0.03043049 -0.026855035 0.04729906 -0.060424693 0.08126485 0.08910891
0.05395002 -0.06494741 -0.015242679 0.022728872 0.018368004 -0.03435538 -0.029639741 -0.011860541
-0.055210236 -0.0139501495 -0.042026456 -0.0007717885 -0.019806515 -0.22307518 -0.0954868 -0.03555761
-0.060005914 0.03700048 -0.020471228 -0.08039064 -0.03807218 -0.05548676 -0.04482477 -0.023924736
0.04522545 -0.022261323 -0.019126346 0.11863767 -0.03481004 0.06928223 -0.20753022 -0.013990407
0.024024112 -0.050276153 0.070511445 -0.14696895 -0.029803168 0.05042989 -0.035298962 -0.003886705
0.05162573 0.0780566 -0.042784665 0.06379696 -0.02828802 -0.015219184 -0.039431453 0.2576971
0.19491689 -0.27508795 -0.04611908 0.011567414 -0.035850998 -0.05835289 -0.026531177 -0.05859936
-0.054426122 0.1762078 -0.0056474335 0.01165111 -0.017992407 -0.012481255 0.07077699 0.2699791
0.05960385 -0.023307335 0.07443222 -0.041437697 -0.1065781 0.08089451 -0.0074257967 0.071529955
-0.02566317 -0.038216874 -0.019229723 0.067830004 -0.06045601 -0.014993823 0.07342294 0.09829458
0.10817092 -0.047495607 0.05964414 0.053515967 0.104470804 0.05804472 0.07768916 -0.038491536
0.018421998 0.082897045 0.08451371 -0.067043476 0.043622967 0.021748994 -0.03987289 -0.03235878
-0.06253861 0.119325966 0.07026558 0.06410388 0.088708006 0.051660303 0.06637596 0.06501101
0.045719378 -0.060521122 -0.01981686 0.08698453 -0.050036974 -0.022997506 0.088405065 -0.019250223
-0.011614691 0.033919133 -0.188958 -0.059995625 -0.0081381 -0.026998509 -0.035580505 -0.017712058
-0.13615544 -0.050660253 -0.05479679 0.0755805 0.093523234 -0.23821896 0.05620301 -0.035085656
0.041674696 0.2086953 -0.02113192 0.07330455 -0.23276569 0.03638816 0.018574582 -0.21119274
0.007930937 -0.00022642332 -0.031418193 -0.024217203 0.10042055 -0.05076262 0.061373234 -0.053762704
-0.2145071 0.053651776 -0.013755528 -0.058021255 -0.037913855 0.06975206 -0.020376528 -0.04385408
0.07268349 -0.025710315 -0.014300852 0.08790309 -0.04988598 0.08193629 0.05355363 0.08031272
