data/checkpoints/rlgym-ppo-run-1760737740221222700/541625034/PPO_VALUE_NET.pt (torch, 623393 bytes, 7 tensors)

model.0.weight f4 [256, 89]
000000 6e d2 cb 3e 23 15 15 be 58 24 37 3e 9b a5 74 bf
       0.39808983 -0.14558844 0.17884958 -0.95565194
000010 fb e3 06 be 12 94 bc be e8 50 92 3d a1 be af be
       -0.13172905 -0.3683172 0.07144338 -0.34325126
000020 a5 7e 6c 3d ea d5 ab 3c fd c1 96 bc 12 b1 8e bb
       0.057737965 0.020976026 -0.018403048 -0.0043546045
000030 34 71 ca bb fa 54 5d 3b af 8e b0 3c bb 67 ad 3c
       -0.0061780456 0.0033772574 0.021552412 0.021167627
000040 cc 3e 31 bb 27 60 03 bd 17 ee 91 3d 9f f7 d7 bc
       -0.0027045486 -0.03207412 0.0712549 -0.026363192
000050 20 ff a9 bd df 6d 93 3d 16 b6 fa bc 24 80 cb 3c
       -0.08300614 0.071986906 -0.030604403 0.024841376
000060 33 08 e6 bc 93 b4 27 3d 18 52 80 3d 34 95 a2 bc
       -0.028080082 0.040943693 0.06265658 -0.019846536
000070 64 39 80 bc 5f e2 d6 bd b3 f1 a7 3c 4e 69 a6 bd
       -0.015652366 -0.104923956 0.020500993 -0.08125554
000080 1d 44 cf 3c 6b 68 23 bc c5 4b 41 3d a7 5d b3 3d
       0.025301034 -0.009973626 0.0471914 0.08758097
000090 89 46 1b 3d 32 1c 10 3d 5b 17 90 bc ee 5a 97 bd
       0.037909064 0.03518314 -0.017589262 -0.0739039
0000a0 39 23 0c bd 68 0d c5 3d e7 38 fe bc 95 e7 24 3d
       -0.03421328 0.09621698 -0.031032993 0.040259916
0000b0 24 e2 3c 3d 1a 84 01 3d e4 a9 c7 bd 37 d8 c3 3d
       0.046114102 0.031620122 -0.09749201 0.09562724
0000c0 36 d3 9c bd 58 f0 9f 3d 8c b3 1e bd 73 34 f3 3e
       -0.07657473 0.07809514 -0.038745448 0.47500953
0000d0 d0 87 80 3e 30 85 a6 3e 88 14 97 3d c0 d6 cc bd
       0.25103617 0.3252349 0.07376963 -0.10001898
0000e0 07 99 91 3d bb ca a5 3d 1c 41 3d bd 6c cd 32 bd
       0.07109266 0.080953084 -0.04620467 -0.043652937
0000f0 b8 81 ba 3d d7 6d 0f bd 2e 88 93 3e 5c ce 3c 3d
       0.09106773 -0.03501686 0.28814834 0.046095237
000100 40 f6 fc 3c f5 42 b5 bd ab b7 db 3d e0 ac 7d bc
       0.03087914 -0.08850662 0.10728391 -0.015483111
000110 1c 70 92 bc 40 8b 0c bd d0 ed a2 3e 3e 3e b7 bc
       -0.017875724 -0.034312487 0.31822062 -0.022368547
000120 5c 85 97 3d c1 56 ba 3c d7 e3 19 bd f8 a4 d6 bc
       0.07398483 0.022746446 -0.0375708 -0.02620171
000130 ae a8 9d 3b 2d 3c 5a 3c 76 a9 d0 bc 4c a6 7e 3d
       0.004811368 0.013320011 -0.02547143 0.06217031
000140 88 9b 02 3e a1 70 06 3e bc 49 40 3c 07 07 20 bc
       0.12754643 0.13128902 0.01173633 -0.0097673
000150 cd 3c b7 3c a8 e8 d5 3d ca 66 29 3c d4 80 a8 3b
       0.02236786 0.10444766 0.010339448 0.0051423106
000160 3e 8b e9 3d 24 4c a0 be 44 9c 2f 3f 2b e9 1c be
       0.114035115 -0.3130809 0.6859782 -0.15323322
000170 8f 89 53 be 63 ba 7a bf 30 ef c7 3c 60 75 08 3e
       -0.20657943 -0.97940654 0.024406046 0.13326025
000180 cd 7a b5 bd 3d 53 d3 3d b9 43 01 bb fd 6c 09 bb
       -0.08861313 0.10318611 -0.0019724204 -0.0020969503
000190 b6 9b fd bb ca 13 c4 bb d5 98 0c 3b 23 03 e0 bc
       -0.0077395095 -0.0059838044 0.00214534 -0.027345246
0001a0 8d ee 7d 3b 66 28 f6 bb 4f 8a fb 3c 1a 74 59 3d
       0.0038746924 -0.00751214 0.0307056 0.05308924
0001b0 4e 52 04 be 9f ba 63 bd 83 7d 20 bd 7e 55 90 3b
       -0.12922022 -0.055597898 -0.039182197 0.0044047227
0001c0 a4 8a 55 3d 69 c7 ea 3c c9 ba d3 bd 26 a5 3f 3d
       0.05213417 0.02865954 -0.10338361 0.046788357
0001d0 c2 9f 67 ba 03 94 be bd d8 aa 7a 3d 9a 5b 18 bc
       -0.00088357565 -0.09305575 0.061198086 -0.009299183
0001e0 e0 eb 8c 3c bf c4 e9 3b 6a 4d 60 3c da 25 d1 3a
       0.017202318 0.0071340497 0.013690332 0.0015956715
0001f0 73 09 f3 bd 77 3e 47 3d 6e f3 52 3d e8 05 c7 bd
       -0.11867037 0.048643555 0.051501684 -0.097179234
000200 7f 72 ca bd a5 1f 85 3d d8 38 5c bd e4 fd cd 3c
       -0.0988512 0.06500176 -0.053765148 0.025145479
000210 c3 8d 8c 3d 2c 2f d4 3c 20 60 33 3d cb d9 06 3d
       0.068629764 0.0259014 0.043792844 0.032922547
000220 a6 d6 52 3d fe 82 34 bb 4a ad e8 bc 4f 61 b4 3d
       0.051474236 -0.0027543898 -0.028402943 0.08807623
000230 7a 00 0a bd 39 bc cb bd e8 7d c4 bd df 57 e1 bc
       -0.03369186 -0.0994801 -0.09594327 -0.02750772
000240 3f 41 b2 3b 13 b2 12 bd 71 6b 4d bc 04 71 50 3b
       0.005439907 -0.035814356 -0.012537823 0.0031805644
000250 9e c9 00 bd ea 9b 0b 3e db ee 14 3e b9 c9 21 3e
       -0.031442277 0.13633695 0.14544241 0.15799607
000260 7b ae 32 3d 4d 37 c6 3b d9 e5 4f 3d 0d f7 f0 bd
       0.04362343 0.006049073 0.05075631 -0.11765871
000270 02 0d d2 bc ab c0 d4 3c 5f cd 5a be 05 a7 a4 3d
       -0.025640968 0.025970777 -0.21367405 0.08039669
000280 2f d9 86 3d 64 0e a6 bd fc 36 da bc bd 94 ed 3c
       0.06584393 -0.081082135 -0.026637547 0.029001588
000290 a1 f7 dc bc b9 18 74 bc e5 79 83 3c 69 11 99 bc
       -0.026973547 -0.014898472 0.016049335 -0.01868506
0002a0 40 5e be 3d 6e 61 07 3e 62 3c 94 3e 32 34 d2 3b
       0.092953205 0.1322076 0.28952318 0.0064149136
0002b0 3d 8b 93 bc 76 f7 d1 ba dc 17 9a 3d 65 17 9f bc
       -0.01801073 -0.0016019184 0.07524082 -0.019420335
0002c0 ed 47 37 3d 2a 13 bb bd ba 87 38 bf 7f 9c c4 bf
       0.04474633 -0.09134515 -0.720821 -1.5360259
0002d0 83 36 d7 3e 53 8a 80 bc c8 37 79 bd e4 55 8f 3d
       0.42033777 -0.015690958 -0.060844213 0.06998804
0002e0 61 77 e0 bc aa f8 1c 3d d6 90 df bc a4 a5 96 bb
       -0.027400674 0.038323082 -0.027290743 -0.0045973826
0002f0 3b 3f e8 3b 50 4a da 3b 47 21 84 ba c1 f2 5e bb
       0.007087616 0.006661691 -0.0010080718 -0.0034019204
000300 24 54 87 bc 16 82 4f 3b 4d 2e 1f bb 92 e3 92 3c
       -0.016519614 0.003166323 -0.0024289072 0.01793078
000310 b4 8f 58 3d af cc 65 3d ff 92 a0 3d cd 49 5b 3d
       0.05287142 0.056103405 0.07840537 0.05353718
000320 ed a8 9f 3d 2e 78 80 bd 0b f2 8f 3c 86 2c cc bd
       0.07795892 -0.062729225 0.01757147 -0.0996943
000330 1b b6 9b 3d 10 bc 2a 3c 09 dc 2d bc ac 06 a4 3d
       0.07603093 0.010420814 -0.0106115425 0.08009085
000340 30 dd 55 3d a8 58 7e 3d cd 6f a6 bc 8c f2 80 bd
       0.052212894 0.062096268 -0.020316983 -0.06296262
000350 72 09 af 3c 43 aa 2a bd 53 ac 65 3d 15 c4 39 3c
       0.021366809 -0.04166628 0.056072544 0.0113382535
000360 94 97 32 3d 64 60 54 bc b9 0f 8d 3b 5b 16 48 bb
       0.043601587 -0.012962434 0.004304853 -0.0030530903
000370 99 da 98 bd a1 42 21 3c f1 e4 a8 3c 54 9c f7 ba
       -0.07463569 0.009842546 0.02061698 -0.0018891194
000380 07 fd e1 bd 51 63 d6 bd 70 a3 4d bd 6f fd 85 3b
       -0.11034589 -0.10468162 -0.050204694 0.0040890495
000390 e7 9d c6 3b 4d c2 42 3f e6 08 c6 3f dc 96 e6 bc
       0.006061304 0.7607773 1.5471466 -0.028148107
0003a0 23 09 0c 3d 55 6e 0e 3c 3f 2d 97 3c 3a a8 48 3b
       0.0341884 0.008693297 0.018454192 0.003061785
0003b0 4a 45 d0 3b 8d 98 17 3c b6 f7 65 3e 71 2e ab ba
       0.006355916 0.0092526795 0.22457775 -0.0013060105
0003c0 52 9e 5a 3c 71 24 af 3a 11 3f 44 bb 0a 03 d3 bc
       0.013343411 0.0013362301 -0.0029944817 -0.025758285
0003d0 ce 47 b6 3e 5c 9e 15 bc 4b e3 21 bc 69 d5 8d 3c
       0.35601658 -0.009131994 -0.009880851 0.017313676
0003e0 91 50 1d bd e4 79 ae 3d 1d b6 2b bb 04 29 52 bb
       -0.038406912 0.085193425 -0.0026201077 -0.0032067904
0003f0 df 35 58 3c e7 a2 46 3c 36 e7 62 3b b4 1b a1 3a
       0.013196438 0.0121238 0.0034622676 0.0012291581

model.0.bias f4 [256]
000000 e6 47 bb 3c 70 72 0d be 14 99 79 3d 3d 7c e0 bd
       0.022861432 -0.13813186 0.060937002 -0.109611966
000010 cc c6 19 3e 26 33 ad 3c 7a 8c 69 3d c1 5d 8b 3d
       0.15017241 0.021142554 0.057018735 0.068049915
000020 03 9e 12 bd d8 7b 9e bd 56 35 9c bc 2b a0 3e bd
       -0.035795223 -0.07738465 -0.019068401 -0.046539467
000030 18 64 5a 3d 64 50 a8 bd fe 33 e1 3d 81 ee c7 3d
       0.053318113 -0.08218458 0.10996245 0.09762288
000040 78 d9 23 bd a4 54 c8 bd 58 03 a0 bd 6e 4c b2 3d
       -0.040002316 -0.09781769 -0.07813138 0.08705984
000050 ca 16 06 3d 74 80 c1 bb 08 44 b0 bc c5 74 7c 3d
       0.032736577 -0.0059052054 -0.021516815 0.061634798
000060 2e 08 34 3c 5f 26 f9 bc 67 cf b7 bd a1 41 cb 3d
       0.010988278 -0.030413805 -0.08975106 0.09924627
000070 5d ab b0 3d e9 ba 2e 3d 45 1a 6f bd 1a bc b1 bb
       0.08626435 0.04265872 -0.058374662 -0.005424035
000080 db 09 9b 3d f1 df 19 bc 1d a0 59 bd 5a 54 92 bd
       0.07570239 -0.009391771 -0.05313121 -0.07144995
000090 7e 25 91 bd cb 51 82 bd 0a da 85 bd a4 92 0c 3c
       -0.07087229 -0.06363257 -0.06535728 0.008579884
0000a0 03 03 ca bd a0 43 05 3d a8 d5 22 bd b7 53 2a 3d
       -0.09863856 0.032535195 -0.03975454 0.041583743
0000b0 fa 6a 1f bd 8c 4b 81 39 10 e7 32 3d cb bd 0b bd
       -0.03892038 0.00024661084 0.04367739 -0.034116548
0000c0 e3 d5 9b 3b 1a 6f 23 3d 18 84 48 bd b6 34 70 bc
       0.004755722 0.039900877 -0.0489541 -0.014661005
0000d0 3e ea 81 3d 01 3c 96 3d 55 0a c1 bd a7 59 8d bd
       0.06343506 0.073356636 -0.09425799 -0.069018655
0000e0 62 f5 50 3d de 19 9e 3d cf 68 0b 3c 2e 9f 85 3d
       0.051015265 0.077197775 0.008508875 0.06524502
0000f0 32 6f be 3c 10 7a 83 3d d3 a2 21 bd 40 f2 37 3d
       0.023246381 0.06419766 -0.039461922 0.044908762
000100 b9 d0 49 bd f6 ab 12 bd 9c da 6d bd a4 ba 23 bd
       -0.04927132 -0.035808526 -0.05806981 -0.039972916
000110 ff 64 14 bc 78 0a b0 3c 07 72 d3 bb 21 f5 72 bd
       -0.0090572825 0.021489367 -0.006452802 -0.059315804
000120 c6 1d 00 3e 4b 0a cb 3d 73 51 15 3c 17 68 03 bc
       0.12511358 0.099140726 0.009113657 -0.008020422
000130 55 c4 92 bc 27 2e 31 bc c9 72 d1 bd 99 9f 1f 3c
       -0.017915884 -0.010814226 -0.10226972 0.009742641
000140 28 71 77 bd e6 6d 97 bd 28 8c 64 bc 76 76 bf bd
       -0.06041065 -0.07394008 -0.0139494315 -0.093487665
000150 eb fe 39 3d ff 76 82 bd 36 5e 43 3d f2 d6 8d 3d
       0.045409124 -0.06370353 0.04769727 0.06925763
000160 03 1c c3 3d 4a 1f 82 bd 2c 21 2f 3d d3 88 c4 3d
       0.09526827 -0.06353624 0.042756245 0.0959641
000170 03 c1 85 3c b0 35 43 bd be 4a 1f bd cf c8 97 3c
       0.016327387 -0.047658622 -0.03888964 0.01852837
000180 2c a1 96 bd e8 50 15 bd 45 3b 80 3d 00 85 b5 3c
       -0.0735496 -0.03645411 0.06261305 0.022158146
000190 f9 ff 04 bc 74 ef a9 3d 7a 9e df 3b 52 71 a2 bd
       -0.008117669 0.08297625 0.006824312 -0.079317704
0001a0 a1 8c 1d 3d bd 4f 01 3c 5a 55 df bc b5 b4 13 bd
       0.038464192 0.007892546 -0.027262378 -0.036061008
0001b0 ae 20 f1 3a 27 8c 84 bd ee 72 12 bd 1a 38 85 3d
       0.001839658 -0.064720444 -0.035754137 0.06504841
0001c0 d5 6d 45 3c 84 cf 8e 3b 04 76 bf 3d 62 a2 b5 bd
       0.012050112 0.004358234 0.093486816 -0.08868863
0001d0 b2 fe aa 3d a9 aa 0d bd 54 f7 68 bd 17 14 ef bc
       0.083493605 -0.034586582 -0.056876495 -0.029184384
0001e0 aa 69 a1 3d 9b 67 ab bd 97 02 94 bd 31 f0 f4 bc
       0.07881482 -0.083693705 -0.072270565 -0.029899688
0001f0 7c 1b 98 bc 76 8e 07 bd b7 e5 66 bb 08 99 a0 bc
       -0.018567793 -0.033094846 -0.0035232136 -0.019604221
000200 d4 81 a1 3d aa 79 30 3d fc 14 77 bd 64 64 09 3d
       0.07886091 0.043084778 -0.060322747 0.033543006
000210 fc 01 bf 3d 67 a2 c8 bc 16 89 91 bd 19 0e 58 bd
       0.0932655 -0.024491502 -0.07106225 -0.05274782
000220 ae 9e 91 bd 2a d0 3b 3d df c9 84 3d e0 8b 83 3d
       -0.07110344 0.045852818 0.06483816 0.064231634
000230 bb 0e c0 bd 75 f7 4e bd c9 4c 8a 3d a7 4b 7c ba
       -0.093778096 -0.050528962 0.06752927 -0.000962431
000240 7c da 65 bc 0b d0 b3 3d f9 c8 15 bd eb 59 a4 3d
       -0.0140291415 0.087799154 -0.036568616 0.08024963
000250 4a c6 a7 3c ca ef c1 bd da b9 36 3d ce 92 4a 3c
       0.020480294 -0.09469564 0.044610836 0.0123641025
000260 aa 43 ca 3c 8f b1 e2 3c 21 87 73 bd 8d 15 0f bc
       0.024690468 0.027672557 -0.05945504 -0.008733165
000270 49 3e d7 3d 94 49 a8 bd 12 95 ec 3c ad 35 36 3d
       0.10509927 -0.08217159 0.028879676 0.044484783
000280 d0 94 bb bc 38 ab 22 bd 4f a1 77 bc d0 42 53 3d
       -0.022898108 -0.03971407 -0.015114143 0.05157739
000290 53 03 d2 3d 87 cf d1 3c 18 b3 b6 bc ad 25 92 3d
       0.1025454 0.025611652 -0.022302195 0.07136092
0002a0 0b 3f cb 3d a4 7f bf bc 5a 27 21 3d f5 1b 73 3d
       0.09924134 -0.023376293 0.03934417 0.059352834
0002b0 90 3d 20 bd 29 71 58 bd d3 2d 29 3d 00 ba a8 3c
       -0.03912121 -0.052842293 0.041303467 0.020596504
0002c0 bf 6e 3e 3a fd ab 46 3d 8f 0b 91 bc cd a6 2d bd
       0.0007264427 0.048503865 -0.017705707 -0.0423954
0002d0 18 7c 1e bd 51 e9 c6 bd c2 a1 d8 bc af 38 32 bc
       -0.038692564 -0.0971247 -0.02644432 -0.010877772
0002e0 f6 dc fd ba e7 70 df 3d 0b fa 67 3c 67 cb 3f 3c
       -0.001936822 0.10910206 0.014158736 0.01170621
0002f0 23 5b d5 3d 59 72 77 bc 2c 8c 28 bd 96 c0 cf bd
       0.104177736 -0.015102946 -0.041149303 -0.10144155
000300 a7 ad 37 bd 93 0c 30 3d 3e 7c b2 3d 31 9b 9d bd
       -0.044843342 0.04298074 0.087151036 -0.07695616
000310 2c 91 59 3c d0 e9 c2 3d 3b c1 5a bd 15 69 e6 bc
       0.013279241 0.095172524 -0.053406935 -0.028126279
000320 7e b9 af 3b ac fb b0 bc 41 c6 22 bd c7 e9 f6 3d
       0.0053626886 -0.021604382 -0.03973985 0.12056308
000330 94 e9 76 bd 61 57 93 3d 87 16 5c 3c 1a e3 20 bd
       -0.06028135 0.071944006 0.013433105 -0.03927908
000340 2b 1e ca 3d f2 fd 3a bc e1 11 69 bc 27 a2 71 bc
       0.09869035 -0.011413084 -0.014225454 -0.014748133
000350 30 99 97 3c 32 55 bd bc 76 d0 96 bc ce 27 a1 3c
       0.018505663 -0.023111913 -0.018409949 0.0196723
000360 2f fb 1d bd fc 82 5a 3d 88 e5 3d 3d 5d c9 53 3d
       -0.038569625 0.053347573 0.046361476 0.051705707
000370 e0 a5 7d bd 6a fd 68 bd 00 a4 52 3c 9c bb 4e bd
       -0.06192577 -0.0568823 0.012856483 -0.050471887
000380 f2 4d da bd 9f 76 f9 3c c4 a0 20 3d fc f5 a3 3d
       -0.10659398 0.03045207 0.039215818 0.08005902
000390 dc 3f 2b 3d 0d fc f3 3b 12 5e 05 3e 28 9a a0 bc
       0.041808948 0.0074458183 0.13024166 -0.019604757
0003a0 91 9b 02 3c 9e e1 c7 bd df bc 3e 3d b5 3c 2a 3c
       0.00797166 -0.0975983 0.04656684 0.01039045
0003b0 af a6 e8 3c a8 b7 fd 3c b3 f1 f1 3a c5 de 1a 3d
       0.028399793 0.030971363 0.0018458873 0.037810106
0003c0 d2 30 d1 3c 4f 2c 9a bd ae f5 c1 bc 2a 80 8b 3d
       0.025535975 -0.075279824 -0.02367672 0.06811555
0003d0 e7 66 a2 bc 24 7a 9d 3d 01 d5 79 bd bc 6f 15 bd
       -0.019824458 0.07689312 -0.060994152 -0.03648351
0003e0 2c ee ca 3d c2 6e 45 3d 0c 80 e7 bd 57 1f de 3b
       0.09908709 0.04820133 -0.1130372 0.0067786383
0003f0 06 57 8f 3d e4 a8 cb 3d 87 48 73 bd 44 61 05 bd
       0.0699902 0.09944323 -0.05939534 -0.032563463

model.2.weight f4 [256, 256]
000000 36 8c 06 bd b8 5b 44 3c 00 f1 ac be d6 7f b2 bd
       -0.03284856 0.011984758 -0.33777618 -0.08715789
000010 fd 64 b2 3c 67 dd e6 3d 9a 1b 2b be 80 62 86 3d
       0.02177667 0.11272698 -0.16709748 0.06561756
000020 ed 30 ef bc e0 f9 36 3d 0f 71 f7 3b 5d 4e 1e 3e
       -0.029198134 0.044671893 0.0075513194 0.1545958
000030 7f e5 96 bd dd e4 e7 3c ad d2 4b 3c f6 db 3b 3c
       -0.07367992 0.028307373 0.012440366 0.011466017
000040 e6 bd 23 3d 06 90 d1 bc a4 ac 83 3b da 15 ce 3d
       0.039976023 -0.025581371 0.004018383 0.100627616
000050 41 be 35 be ba 88 b0 3d dc f0 3e 3e ef 96 3a 3d
       -0.17748357 0.086198285 0.18646568 0.045554098
000060 f4 6b 1a 3c 76 1f 1d bc 17 ff 47 bd 7d 40 f0 3c
       0.009425152 -0.00959002 -0.048827257 0.029327625
000070 60 87 89 3e c2 c4 12 3e 13 8b 96 3d 6a 33 ae bd
       0.26861095 0.1433287 0.07350745 -0.085059
000080 0d 97 4c 3d 4f 20 bf bc e1 af a2 3d d0 c9 09 be
       0.04994874 -0.023330836 0.079437025 -0.13455892
000090 19 4c 26 3c 3a 1e 77 bd 4d 72 de 3d 43 2a ce 3d
       0.010149979 -0.06033156 0.10861645 0.100666545
0000a0 23 06 0b bf 3c 31 66 bd 0e dc a7 3d d6 63 0c 3c
       -0.5430624 -0.056199297 0.08196269 0.008568725
0000b0 ba bb 05 3e ae d9 b6 3d 28 34 32 3d 64 87 c8 bd
       0.13059893 0.08928238 0.04350677 -0.09791449
0000c0 ee 3b b3 3d bc d0 82 be 8e 90 9b 3d cb d1 ac 3d
       0.08751665 -0.25549877 0.07595931 0.08438452
0000d0 92 b9 08 3e 85 a5 55 bd f2 93 64 3d ff 99 53 3a
       0.1335204 -0.052159805 0.055805154 0.00080719584
0000e0 80 58 7f bd 6d 86 8d bd bc 62 bd bd 0c 57 1c 3d
       -0.06234026 -0.06910405 -0.09247348 0.038168952
0000f0 c4 c9 0f 3e e0 cb 6c bc f5 be 37 3d 9c e1 48 bb
       0.14041811 -0.014452904 0.044859845 -0.0030652052
000100 d3 ac f4 bb f6 b2 90 3d 99 f0 05 3e 7d cd dc 3d
       -0.0074668913 0.07065384 0.13080062 0.10781381
000110 14 98 93 3c 54 e9 a6 ba 0f 20 be 3c 20 b4 c1 bc
       0.018016852 -0.0012734332 0.023208646 -0.02364546
000120 ff 51 57 3d f7 e6 90 3d f1 e2 9d 3c 07 5f 32 be
       0.052568432 0.07075303 0.019273253 -0.17419063
000130 89 3c 03 3e 27 00 79 bd 77 c2 87 39 0b 3a 91 3d
       0.12816061 -0.06079116 0.00025894094 0.07091149
000140 a8 96 92 3d a4 26 46 3d 10 40 a9 bd a0 9d c0 bc
       0.07157642 0.048376694 -0.08264172 -0.023512661
000150 79 38 ad bd 0a 35 e2 bb a1 e6 36 bf 3e ef 73 bc
       -0.08458037 -0.0069032954 -0.7144566 -0.014888583
000160 88 96 37 ba d7 d0 9d 3c a6 ba cc 3d cf ad 84 3c
       -0.0007003327 0.019264622 0.09996538 0.01619616
000170 71 03 a3 3d 58 8c ca 3d dc 63 68 3d ee cd 61 bd
       0.07959641 0.0989005 0.05673586 -0.05512803
000180 f6 8e 2a 3d fd 54 27 3c 46 36 28 bd 39 c7 01 bd
       0.041640244 0.010213134 -0.041067384 -0.031684134
000190 b7 44 69 be 8d 82 f7 3d 0b 13 07 3e 90 a7 03 3d
       -0.22780119 0.120854475 0.13190858 0.032142222
0001a0 93 90 0f 3b 43 96 0c 3e d0 93 93 bd 46 98 ff 3c
       0.0021906241 0.13729195 -0.07205927 0.03120054
0001b0 4e d5 ff 3d ee 0d d1 bc 27 7c 71 3d e1 e3 2d 3e
       0.124918565 -0.025519338 0.05895629 0.1698146
0001c0 fe 5e d0 3e eb 52 37 be bc c7 ed 3d f1 7a a4 3c
       0.40697473 -0.17902724 0.11610362 0.020078154
0001d0 2b 02 06 3e 81 d3 29 be 44 05 51 3d 0f c5 91 bc
       0.13086765 -0.16584589 0.051030412 -0.01779416
0001e0 c8 46 80 bd bf 96 1e bd c4 b1 9e bd 24 6b 3f 3b
       -0.062635005 -0.03871798 -0.0774875 0.0029208148
0001f0 4e e0 2f 3e a6 d7 45 bc 45 a3 ce bb 51 77 9c bd
       0.17175409 -0.01207534 -0.0063060843 -0.07639945
000200 ab db 34 bc 15 46 95 bb 7e 30 15 be fa d1 bd 3d
       -0.011038701 -0.0045554736 -0.1456928 0.092685655
000210 ac cb 20 be 58 31 57 3c 7d 62 3f 3d 02 0a dd bb
       -0.15702695 0.013134323 0.046724785 -0.006745578
000220 a0 cf 42 be 62 68 b3 3d 3a 73 06 3e 28 25 8b bd
       -0.19024515 0.08760144 0.13129893 -0.06794196
000230 11 05 f3 bc 3e 50 47 bc 08 1b b6 3c 19 1d 6b be
       -0.029665502 -0.012165127 0.022229686 -0.22960319
000240 26 1b 89 bd f1 5e 93 3d 98 0b c5 bc 30 68 16 bd
       -0.06694631 0.07195843 -0.02405338 -0.036720455
000250 15 ef e5 bd 1c 3a b3 3d a9 96 d6 bc 75 b6 95 3d
       -0.11227242 0.08751318 -0.026194887 0.073101915
000260 6d dc 1e 3e cf a9 d0 bd 37 95 73 bd 89 d0 07 be
       0.15513773 -0.101886384 -0.059468474 -0.13263144
000270 5a 2e 01 3d 13 83 93 3d b1 86 1a be 60 80 c8 3c
       0.031538345 0.07202735 -0.15090443 0.024475276
000280 5b 0d 05 be c0 82 1d be d2 ab 07 be 51 89 b1 3d
       -0.12993376 -0.15381908 -0.13249138 0.08668769
000290 83 97 ea 3d fc 99 24 3d aa 8c 19 3e 6d a6 72 3d
       0.1145468 0.040185913 0.14995065 0.059240747
0002a0 c0 29 90 3d 21 62 4a bd 6a 7d 68 3d ef c1 a0 bd
       0.07039213 -0.04940999 0.05676023 -0.0784949
0002b0 e1 c1 b9 3d 00 a6 ee bc a5 f7 e8 3d 09 07 4c bd
       0.090701826 -0.02913189 0.113753594 -0.049811397
0002c0 ba 74 e7 bd 21 f2 0f be 8e 68 94 bd 87 57 83 3d
       -0.11301561 -0.14057209 -0.07246505 0.06413179
0002d0 8c 81 39 bd cd b3 6b bc 0a af 33 3c ba c4 93 3b
       -0.04528956 -0.01438613 0.0109670255 0.0045095356
0002e0 a0 d7 73 3c 17 cb 1d be de fd fb 3d 70 2f 2f bd
       0.014882952 -0.15409504 0.12304281 -0.04276985
0002f0 8e c1 3a 3d 74 6f 68 3c 80 29 80 3c 92 76 f2 3d
       0.045594744 0.014186729 0.015644789 0.11839022
000300 c0 93 e9 bd ea a8 d8 3d 60 6f 6f 3b 3c c1 ba 3d
       -0.11405134 0.10579093 0.003653489 0.09118888
000310 c2 3f f7 bd 2b e2 de b8 dc 9f 01 bd a3 60 b2 3c
       -0.12072708 -0.00010627912 -0.031646594 0.021774596
000320 8e 08 76 bc c7 30 09 3d 47 89 e3 3d e4 81 54 bd
       -0.015016688 0.033493783 0.11110168 -0.051881686
000330 6e c1 07 be 22 45 99 be a0 ae 32 3d 3f 67 f4 bc
       -0.13257381 -0.29935557 0.043623567 -0.029834388
000340 8c 98 8c 3c 09 f2 7d bd 1d 96 06 3c 15 69 2a 3d
       0.017162584 -0.0619984 0.008214501 0.04160412
000350 95 50 90 bc 62 0e 16 3c 7d 28 fe 3d b4 9c 14 3c
       -0.01761655 0.009158703 0.12410066 0.009070564
000360 be 91 8e 3c 4e b8 97 3c e3 7b 1e 3e 15 a4 15 3d
       0.01740348 0.0185205 0.15476947 0.036533434
000370 31 0a fd 3d 7c c8 0d 3c 8f b2 2b bd 82 45 5e 3d
       0.123554595 0.008653756 -0.041918334 0.054265507
000380 28 95 7a 3d 69 f5 5c 3c 4a 88 9a bd 1c b5 38 bd
       0.061177403 0.013486245 -0.07545526 -0.045094594
000390 fd 0d cd 3d 4f 28 06 3e 51 67 32 bd fd 81 3e 3d
       0.10012434 0.13101314 -0.04355556 0.046510685
0003a0 b6 41 9a bc 4e 0d a0 3c 3a 78 ac 3d 07 8d 31 3d
       -0.018830162 0.019537594 0.08421369 0.043347385
0003b0 d5 5a 92 bd 1a ac 72 bd e6 77 90 bd 1b d0 db 3b
       -0.07146231 -0.05924616 -0.07054119 0.0067081577
0003c0 27 9a cd 3c 47 6c 38 3a 08 1a ff 3d 30 29 e6 3c
       0.02509792 0.00070351776 0.12456137 0.028095812
0003d0 25 2d 15 bd 7f 4e e4 3d f0 90 9f bd fd 7b 98 3d
       -0.036420006 0.111477844 -0.077913165 0.07445524
0003e0 c6 82 ae 3c 4f 8b 14 b8 cd f1 9b bd 21 b2 03 3e
       0.021302592 -3.541569e-05 -0.07614479 0.1286092
0003f0 ae 03 01 be 4b 76 02 be e9 26 97 3e 9f d0 9e be
       -0.1259906 -0.12740438 0.29521874 -0.3101854

model.2.bias f4 [256]
000000 b4 ef cc 3d 4a 93 e3 3c 97 6e 23 3c 12 f4 31 bc
       0.10006657 0.027780194 0.009975097 -0.010861414
000010 d2 c1 96 3d 49 77 0b 3d 2c 12 45 3d 3c a6 b1 3d
       0.07361187 0.034049306 0.048113033 0.08674285
000020 4f 9d 61 bd bd 8e 80 3c 59 e1 0a be 98 06 04 3d
       -0.05508166 0.015693063 -0.13562526 0.03223285
000030 1c 51 15 bd f9 bc 30 3d c5 23 93 3d 26 21 d1 3d
       -0.036454305 0.04314897 0.07184557 0.10211401
000040 39 8a e5 bc 37 4e ce bc 49 32 f6 bc 71 f2 68 bd
       -0.028020011 -0.02518378 -0.030053275 -0.056871835
000050 4a 73 54 bd 96 b3 b9 3c 78 72 89 bc 91 9e ac 3d
       -0.05186776 0.022668641 -0.016778216 0.08428682
000060 54 46 f1 bc e5 6a a5 bc 40 8b b6 3d 0c bb b8 bc
       -0.02945248 -0.020192573 0.089132786 -0.022550128
000070 b2 2b 3e ba de 4b 7a bd f7 3e c5 bb a8 00 48 3c
       -0.0007254436 -0.06110751 -0.006019469 0.012207188
000080 4d b1 7a 3a 5f 68 1a bd 0e 67 4b 3d 93 b1 11 bd
       0.0009563163 -0.037697192 0.049658827 -0.03556974
000090 da 8b ff bb f6 3b 45 bd 7a 83 0a b9 f7 91 5f bd
       -0.007798654 -0.048152886 -0.00013209684 -0.054582562
0000a0 42 a1 05 3d 81 98 c4 3a 50 1b c7 bb 69 3f 48 3c
       0.03262449 0.0014999063 -0.006076254 0.012222149
0000b0 9c 2a d2 bc 1d b0 f9 b9 cc 86 19 39 73 85 fd bc
       -0.025655083 -0.00047624196 0.00014641433 -0.030947423
0000c0 0b a2 4b 3d 74 4b 7f 3c 5d 0d 81 bd 26 23 4e bd
       0.049715083 0.015581954 -0.06301377 -0.05032649
0000d0 46 4b 61 3d 32 f7 7a bd f5 15 7c bc 08 d0 9e bd
       0.055003427 -0.0612709 -0.015386094 -0.077545226
0000e0 60 90 79 3b 10 27 7e 3d dc f5 26 bb aa 01 89 3c
       0.003808044 0.06204897 -0.0025476133 0.016724426
0000f0 f2 8b 30 bd d1 11 49 3d 2f 38 30 3d d4 aa ca bb
       -0.043102212 0.049089257 0.04302233 -0.006184915
000100 e7 96 5a bc a9 f2 dd bd 1b f7 20 3d 96 a7 a7 3d
       -0.013341642 -0.108372994 0.03929816 0.08186261
000110 09 90 bb bc 39 f8 46 3d f5 94 cf 3c 44 62 21 3d
       -0.02289583 0.048576567 0.025339583 0.039400354
000120 b0 cd 4d bd c5 a4 0c 3d c1 07 c8 3b ce 13 99 3b
       -0.050244987 0.034336824 0.00610444 0.0046715504
000130 91 23 b0 bb c8 df 4a 3d ea da e0 3d 4c f2 e6 3c
       -0.0053753336 0.04952982 0.109792545 0.028191708
000140 37 dd d8 bc f6 48 2a 3c ab 33 84 3d 8b e7 c1 3d
       -0.026472671 0.010393372 0.064551674 0.094679914
000150 21 c9 51 bd 09 a6 35 3d 75 ff 0a 3d d3 65 9f 3d
       -0.051217202 0.044347797 0.03393503 0.07783093
000160 c3 db 20 bc 23 2f 8d 3c 11 58 6a bc 04 c4 9e bb
       -0.00981802 0.01723439 -0.014303223 -0.004845144
000170 aa 58 0e bd 29 c0 22 3d 40 4c 3e 3d 6d 37 9a 3d
       -0.034752525 0.03973404 0.046459436 0.07530103
000180 43 dd 91 3c 46 e1 7e bd ce d4 49 3c 6f 7e dc bc
       0.017805701 -0.062226556 0.012318803 -0.026915757
000190 51 2c 1c bd a8 7c 1f bc d2 95 e8 3c 0c 75 03 3d
       -0.0381282 -0.00973431 0.028391752 0.032094046
0001a0 5f 14 9f bd 25 ca 11 3d fc 2a a8 3b 39 ec 6a 3d
       -0.07767557 0.03559317 0.0051320773 0.057354186
0001b0 c5 9c 32 3c c1 e6 11 bd 1a f4 f9 bc 86 1c 28 3d
       0.010901635 -0.035620455 -0.030511905 0.041042827
0001c0 a9 45 17 3d f5 fe d5 3c fb 06 8c bc fb 1a 84 3d
       0.036931667 0.02612255 -0.017093172 0.064504586
0001d0 3f 3d 40 bd f9 39 2d bd 66 fe 1d bc b2 13 38 bd
       -0.04693341 -0.042291615 -0.009643173 -0.044940658
0001e0 44 77 df 3c aa 2d 1c bd 65 bd 79 3d ea 21 cb bb
       0.02727855 -0.038129486 0.060971636 -0.006199111
0001f0 5b b9 c5 3c 38 ab ef bc 7b 47 8f bd 4c 8f 2e 3c
       0.024136236 -0.029256448 -0.06996056 0.010654282
000200 6a 5d 55 3a c8 34 0b bd c7 83 3f bd 1b 64 9f bc
       0.0008139225 -0.033985883 -0.046756532 -0.019456914
000210 b9 03 d2 3d b8 24 e6 bd 28 29 46 3d ad e0 61 bd
       0.10254616 -0.11237472 0.048379093 -0.05514591
000220 0b c3 4d 3c d8 a1 81 bd c8 1e b5 bb 55 e0 7c 3d
       0.012558709 -0.06329697 -0.005527351 0.061737377
000230 4b 79 b8 3d 2a d1 98 bd 55 b1 be 3d e7 8c a1 3c
       0.0900751 -0.0746177 0.09311167 0.019720508
000240 ee 9f e8 3d 1b 1d b3 3d bc f9 16 bd 2b 5e 72 3d
       0.11358629 0.08745786 -0.03685926 0.059171837
000250 f7 1a 46 3b 52 2a 3a bd 6e 00 bd 3c c2 5e 36 3c
       0.0030228475 -0.045450516 0.023071494 0.01113099
000260 73 4b d2 bc a5 05 00 3c 02 9c 15 bd cd c7 81 3d
       -0.025670743 0.007813846 -0.036525734 0.06336937
000270 b1 57 95 bc 02 1a b6 3d c3 32 99 bd a6 9c 36 bd
       -0.018230291 0.08891679 -0.07480385 -0.044582985
000280 16 ef f4 3b 4f 65 47 bd 9b 61 ae bc 2d 8a 6a bd
       0.0074747903 -0.0486806 -0.021286776 -0.05726068
000290 5c 64 36 3d 0a 19 2c bd 63 a4 cc b7 3f 7d ef 3c
       0.044529304 -0.042016067 -2.4395244e-05 0.029234527
0002a0 07 3c a7 3c 99 8e 10 3d 7c b0 92 3d 04 f1 7b 3d
       0.020414365 0.03529224 0.07162568 0.061509147
0002b0 b9 db 8d 3c e1 f3 0b bd b5 97 05 bd be a9 6e 3d
       0.017316686 -0.034168128 -0.032615382 0.058267348
0002c0 72 7b 27 3d 79 2d e5 3c 41 43 dd bd 73 1b 92 3c
       0.04088921 0.027975785 -0.10803843 0.017835354
0002d0 12 23 73 bc 1a 6b d8 3d 96 a8 86 bc 1a 3a fd bc
       -0.014839904 0.10567303 -0.01643781 -0.030911494
0002e0 a7 fb 4f 3a 9c ef 8b bc 3b 9c 94 3d ce ab f7 bc
       0.00079339225 -0.017082028 0.07256361 -0.03023329
0002f0 ff b0 18 3d ae ff 26 bc 1d b0 ee bc 64 07 2c 3d
       0.03727817 -0.010192795 -0.029136712 0.041999236
000300 a2 47 1f bd 4d a8 3c 3d cb b6 f0 bc 34 e9 93 bc
       -0.038886674 0.04605894 -0.029384037 -0.018055536
000310 a6 f8 0f 3d 77 d7 93 3d 29 39 e2 3c 5d 21 8c 3d
       0.03514924 0.07218831 0.027615147 0.06842301
000320 ad 3f ab 3d d7 f9 db 3c 96 74 67 3d 53 98 15 3d
       0.083617546 0.026852531 0.05650767 0.03652222
000330 0b 86 a3 3b 7f 42 81 bd 78 5d 76 bc 5d 2b 10 bd
       0.0049903444 -0.06311511 -0.015036933 -0.035197604
000340 63 11 00 bd e0 3d 89 bc 63 62 04 3d eb 17 3f bd
       -0.03126658 -0.016753137 0.03232039 -0.04665367
000350 14 e8 8a 3d f7 fa 0c 3d af c1 b2 bb 9f 9e 03 3d
       0.06782547 0.034419026 -0.005455218 0.032133695
000360 ce d7 aa 3c 23 c9 00 bd 39 fa 17 3d 22 ef fc bc
       0.020854857 -0.03144182 0.037103865 -0.030875746
000370 d4 ac a4 3c af 68 20 3d 0b f1 2a 3d 2f a5 77 bc
       0.020101942 0.039162334 0.041733783 -0.015115066
000380 96 2f 1c 3d 31 c4 47 bb 64 75 aa 3d 6b 1d 8a bc
       0.03813132 -0.003048193 0.08323172 -0.01685973
000390 3b c1 dc 3c 82 e1 12 3d b3 3a 64 bc 1d 37 18 bc
       0.026947608 0.035859592 -0.013930011 -0.009290484
0003a0 e1 2c 2b 3d 9f 3f 55 3d 5c ce e2 bc fb 4d 96 3c
       0.041790847 0.052062627 -0.02768629 0.01834773
0003b0 ae 3d d7 3b c3 08 74 3d 0c d8 15 3d 29 9e fc bb
       0.006568632 0.05957867 0.03658299 -0.007709284
0003c0 d4 2c 4c bc 4a 05 a4 3c f1 4c 1c bd 01 97 c8 3b
       -0.01246186 0.020022053 -0.038159315 0.0061215167
0003d0 ba 1b b6 bb 8f 39 6c 3d 85 56 2f bd 36 a2 0a bc
       -0.0055575045 0.05767208 -0.04280712 -0.008461526
0003e0 e4 11 39 3d 85 cc 0d 3c c7 8e a9 bd 2f da 22 bd
       0.045183077 0.008654718 -0.08279186 -0.039758857
0003f0 b1 44 e1 3c 5d 37 8f bb e0 c7 25 bd 14 99 1b bd
       0.027498575 -0.0043706135 -0.04047382 -0.037987784

model.4.weight f4 [256, 256]
000000 f5 c9 1a be f6 34 03 3d 9f f5 93 be aa e5 0d 3d
       -0.15116103 0.03203293 -0.28898332 0.034642853
000010 00 19 bc bd de 23 21 bd 63 0f 50 be 4b 68 6a be
       -0.09184456 -0.039340846 -0.2031837 -0.22891347
000020 37 2c a4 bb a1 02 d6 be 54 dd 87 3c 5f 51 19 3d
       -0.0050101536 -0.4179888 0.01658503 0.037431117
000030 78 69 2f be 46 b6 0c bd ee 87 64 bd 84 e0 09 3e
       -0.17130077 -0.034353517 -0.055793695 0.13464552
000040 75 25 0f be 81 15 09 3c 23 a2 1f bd bd 48 8f bc
       -0.13979132 0.008366943 -0.038972985 -0.017490739
000050 de 3a 85 bd e3 48 1e be 9d 12 7d bd 52 bc 87 bd
       -0.06505369 -0.15457492 -0.06178533 -0.06627716
000060 62 63 1f bd 78 6f b8 3c 66 ae d4 bb e9 06 b9 3c
       -0.03891314 0.02251409 -0.0064905165 0.022586303
000070 62 ad bd be a9 85 4a 3d 7c d9 59 be 03 a6 57 be
       -0.37046343 0.049443875 -0.2127437 -0.21059422
000080 52 21 46 be 94 13 24 bd 31 87 8f 3d 0d 68 bf bd
       -0.19348648 -0.040057734 0.070082076 -0.09346018
000090 d6 17 0f bd fc 31 0c be 78 bc 8a bd 45 1f 1a 3d
       -0.03493484 -0.13690943 -0.06774229 0.037627477
0000a0 0d bb 54 be c7 2c 4d bf 0f be f0 3d a1 ed 81 be
       -0.20774479 -0.8014645 0.11755001 -0.2537661
0000b0 aa ee bc bd e0 37 82 bf a2 f0 91 be 78 95 29 3d
       -0.09225209 -1.0173302 -0.285039 0.04140231
0000c0 96 e8 58 3d 11 0a 3c bc e8 49 3b 3d 1f d7 bc 3d
       0.052956186 -0.011477009 0.04572478 0.092207186
0000d0 b5 12 6b 3d 08 d3 05 3d 38 c7 c7 3d 38 20 c3 bd
       0.057390887 0.03267196 0.09754795 -0.095276296
0000e0 f5 32 2d bd 5c 1a fe 3a 3a fb c5 bd 47 f9 0a be
       -0.042284925 0.0019386518 -0.09667058 -0.13571654
0000f0 4f cb 43 3c 41 c3 29 3b e0 bf 96 3c 96 a0 91 3c
       0.011950328 0.0025903734 0.01840204 0.017776769
000100 b7 14 63 3d e4 a3 cc bc 1f cf cd bc b3 e4 ea bc
       0.055439677 -0.024980493 -0.025123177 -0.028673505
000110 5e 78 d2 3c ee 9e 2f 3c 9f ea dd be 7d 68 85 3b
       0.025692161 0.010719044 -0.43343064 0.004071294
000120 38 08 a3 be f2 d4 25 bd 27 d6 7f 3d 99 25 32 bd
       -0.31842208 -0.040486284 0.06246009 -0.043492887
000130 13 6d 6c bd 19 47 97 3d 8c f1 8c bd 4e 62 3a 3d
       -0.05772121 0.07386608 -0.06882009 0.045503907
000140 2d 2f 5b 3d 09 c8 9c 3d 8e 49 1d 3b 08 4a 71 bd
       0.053511787 0.07655341 0.002400014 -0.058908492
000150 86 99 a1 bc 79 82 05 bd bd 82 d2 3c f8 75 19 3d
       -0.019726526 -0.03259513 0.025697106 0.03746602
000160 b3 55 38 3d 1b 04 32 3e 24 c6 9f bd 5f 02 05 3c
       0.045003604 0.17384379 -0.07801464 0.008118241
000170 b1 fd 9f 3c e0 0a 83 3d c3 af 85 bd cb 23 00 bf
       0.01953015 0.063985586 -0.065276645 -0.50054616
000180 f6 c6 ee be 2b 96 ec be 7c 71 b8 bd ff a4 d4 3c
       -0.4663617 -0.4620832 -0.090060204 0.025957583
000190 45 b2 8f be 0b c5 ff b9 af bb 2b 3d 15 9a 5d be
       -0.28065696 -0.000487842 0.041927036 -0.21640809
0001a0 1f b0 c8 3d d2 d4 c6 be 6f 6b d3 3c be 97 03 bd
       0.097992174 -0.38834244 0.025808064 -0.032127135
0001b0 e4 d4 28 3e e1 42 e3 3e e8 2b 15 3d 01 4f d7 ba
       0.16487461 0.44386962 0.036418825 -0.0016426743
0001c0 27 8f ab 3e ed 78 f7 bd 05 34 5d 3d 18 b5 00 3c
       0.33507654 -0.12083612 0.054004688 0.007855676
0001d0 2c e1 76 3c 12 48 3f 3d 53 4f 88 bd f4 54 37 3d
       0.015068334 0.04669959 -0.06655755 0.044758752
0001e0 f0 5e 5f b8 f2 b8 0d be 5c a6 93 bb 6b bd 31 3d
       -5.325576e-05 -0.13840082 -0.0045059156 0.043393534
0001f0 c9 71 40 be b4 40 e5 be b0 c6 16 bf b9 c0 dc be
       -0.18793406 -0.44775927 -0.58896923 -0.43115786
000200 ea 71 81 bd 0b 0c 54 be 13 cf 99 bc bb 14 7c bc
       -0.063205555 -0.20707719 -0.018775498 -0.015385802
000210 28 d5 94 3d 53 32 d9 3d e3 84 56 bd a0 f8 e2 3d
       0.07267219 0.10605302 -0.052372824 0.11082578
000220 5f a8 01 3d 2b 91 48 bd 9e 8f a7 bd 34 17 25 be
       0.03165471 -0.048966568 -0.0818169 -0.16122133
000230 68 76 bc be 76 bd 43 3e d7 ac e8 bc df df 11 be
       -0.36809087 0.19115242 -0.028402729 -0.14245556
000240 12 32 32 3e ae 8b 64 bd 5c c5 fc 3c 12 81 73 bc
       0.17401913 -0.05579727 0.030855827 -0.014862316
000250 f2 12 43 bd 4d 97 12 3e e8 c7 45 3c 5e 6e 22 3d
       -0.04762549 0.14315529 0.012071587 0.039656036
000260 b0 0e f0 3d ff ef 19 3d 33 32 3b bd 95 cc 2a 3c
       0.117215514 0.037582394 -0.04570217 0.010424753
000270 24 d6 09 bd 80 da 1e be d9 37 82 3b 51 bb a0 be
       -0.033651486 -0.15513039 0.0039739427 -0.3139291
000280 7d a3 15 3c e4 93 3f 3d a1 06 5b bd ae d1 77 3d
       0.009133217 0.0467719 -0.05347312 0.0605027
000290 ed bf d7 bd 6f 55 1b 3d f3 2a 76 bd 14 a1 a7 bc
       -0.10534654 0.037923273 -0.060099553 -0.02046255
0002a0 79 94 25 bd a5 1b 92 bd 1d 1a 75 3c ac 10 36 3d
       -0.040424798 -0.07134179 0.014959839 0.044449493
0002b0 ae 4a 96 be 89 2a 3f bd 30 7b 41 bd 51 ec bb 3c
       -0.2935385 -0.046671424 -0.04723662 0.022939833
0002c0 8e d0 93 bd 26 ab 31 be 23 ce c9 be 8c e6 a3 bc
       -0.07217513 -0.17350444 -0.39415082 -0.020007394
0002d0 ba 4c 64 be a3 95 1a 3d b2 69 87 3d 2a e9 81 be
       -0.22294894 0.03774036 0.06611957 -0.25373203
0002e0 15 eb 41 bc 7f 7c 4d bf 8a 4e 23 bc 49 d8 54 ba
       -0.011835833 -0.8026809 -0.009967456 -0.0008119387
0002f0 3a 29 88 3d ef 38 aa bd 50 a0 6b 3e ee d8 fb ba
       0.06648488 -0.083116405 0.23010373 -0.001921443
000300 b2 f0 84 3c 2c c9 9b bd 11 98 58 3d 6a c6 ac bc
       0.016228054 -0.0760673 0.052879397 -0.021090705
000310 25 85 93 be 46 72 72 3e 6b 1d cf bb e3 07 7c be
       -0.2881252 0.23676404 -0.0063206456 -0.24612384
000320 af db 99 be 13 61 f6 3c 96 ca 96 bd d2 80 98 bc
       -0.30050418 0.030075585 -0.07362859 -0.018616114
000330 f6 55 ef bd 43 13 0f 3e cf 33 55 3d 2b 97 83 3d
       -0.116863176 0.13972192 0.05205136 0.064253174
000340 02 99 83 bd 0f e9 15 3c 16 db b0 be d6 80 02 3d
       -0.06425668 0.009149804 -0.3454215 0.03186115
000350 e4 c6 19 3d 89 31 c2 3b 64 3c b3 3d 93 6f f5 3c
       0.037543193 0.005926315 0.08751753 0.02996043
000360 42 de 82 bd 6b 94 30 3d cf 83 2a be 71 29 1d be
       -0.063900486 0.043110292 -0.16651843 -0.1534784
000370 ba 22 ef 3c e2 bd dc 3c ad 71 aa be 83 eb 0b bc
       0.029191364 0.026946012 -0.33289853 -0.008540037
000380 bb 38 dd be 03 08 d3 3c 98 44 ce be e0 7a a3 be
       -0.43207344 0.025760656 -0.40286708 -0.31929684
000390 13 83 c5 3a 49 a7 90 3c 00 da d0 3d 8c c9 d5 be
       0.001506897 0.017657893 0.1019783 -0.4175533
0003a0 3a ac 2d 3d 84 71 40 3b b3 d4 8e be e5 ee 49 3e
       0.042400576 0.0029364536 -0.27896652 0.19720037
0003b0 df 6a d1 be d4 be 49 be f1 87 08 3c 43 20 30 3d
       -0.4090185 -0.19701701 0.008333192 0.042999517
0003c0 41 22 b3 3d c0 33 01 bf 94 e9 f9 be 2b 09 45 bd
       0.08746768 -0.5046959 -0.48811018 -0.048104446
0003d0 2f 80 42 bb 71 8f ab bc 93 6a 81 bd 6a 5a dc bd
       -0.0029678454 -0.020942422 -0.063191555 -0.107594326
0003e0 ec 77 2d bd 5d bb 97 3d ad 46 e0 bd 17 28 b0 bc
       -0.042350695 0.074087836 -0.1095098 -0.021503491
0003f0 7b c4 76 bd 7a 43 f8 3d 0f f7 8d 3c 01 63 3d 3c
       -0.060245972 0.12122245 0.01732972 0.011559249

model.4.bias f4 [256]
000000 07 d6 4d 3d 2a a0 26 bd 52 61 ee 3b 0e f3 9d 3d
       0.05025294 -0.040680088 0.007274785 0.07712375
000010 aa b8 08 3d cd d6 c4 3b f5 f2 0d bd cb df e1 bb
       0.033379234 0.0060070516 -0.03465553 -0.0068931333
000020 d0 5b 9b bd b4 86 b3 bb ae fd d2 bc 2d aa c2 3d
       -0.07585871 -0.0054787043 -0.02575573 0.09505115
000030 3f d1 a3 3d 6b 87 0a 3c 84 18 1b 3d 0b a0 2e bd
       0.07998895 0.008455138 0.037865177 -0.042633098
000040 5f 3a 52 bd 13 3a e6 bb aa e3 05 bd 31 3d 6b bd
       -0.0513252 -0.007025966 -0.03268782 -0.057431404
000050 72 aa 26 3d 2c 76 b8 bb 50 16 80 3d df c4 b1 3d
       0.040689893 -0.0056293216 0.06254256 0.08680128
000060 fc e7 4e 3d ce 3b 85 3c 7d e7 c5 ba ab c4 a8 3d
       0.050514206 0.016263869 -0.0015098896 0.082406364
000070 fd c9 e8 3c 25 b1 b5 3c 66 43 86 bc 6f 46 08 3d
       0.028416628 0.022179196 -0.01638956 0.033270296
000080 f8 95 91 3d 6b fd 7e 3c c5 fe 1d 3d 2b 89 33 3d
       0.071086824 0.015563349 0.038573045 0.043831985
000090 29 ab b2 3d cc 05 ff 3c 58 1f d5 bc 58 fe 6b 3d
       0.087240525 0.031130694 -0.026015922 0.057615608
0000a0 34 ce 63 3d 00 23 10 bd 28 80 b6 3d db 7d 30 3d
       0.055616572 -0.03518963 0.089111626 0.043088775
0000b0 dd e5 96 3c 4b 9d ca 3b 53 ec c9 bc 1e 58 70 3d
       0.018420154 0.0061833016 -0.024648821 0.058677785
0000c0 d7 0d b7 bc 60 d4 2e bc 77 de 88 bd 57 c5 7a 3d
       -0.022345467 -0.010670751 -0.06683057 0.061223354
0000d0 5c 53 41 3d 06 ee 59 bd ff 77 16 bc 7a 55 98 bd
       0.04719864 -0.053205512 -0.009183883 -0.07438178
0000e0 09 8c 25 3d bc cb a6 3c 11 6f 97 3b 74 02 7f 3d
       0.04041675 0.02036082 0.0046213944 0.0622582
0000f0 a3 a9 61 3c 2f bc e8 3d 68 ac 6b 3d 9d 32 a0 3c
       0.013773355 0.11364018 0.057537466 0.019555384
000100 58 61 bb bc 8e 82 66 3d ef fb 27 3c 51 d0 a2 3c
       -0.022873566 0.05627685 0.010252937 0.019874724
000110 01 9c eb 3d bd ff 74 bb ea 75 cd 3d db c8 99 bb
       0.11504365 -0.0037383877 0.10032256 -0.0046931333
000120 87 eb 8c 3b 58 3e 28 3d e3 1a 47 3d 98 2d c2 bc
       0.004300538 0.04107508 0.048609626 -0.023703381
000130 10 56 21 3e ae 5a e6 bc ae 31 c3 bc 55 09 95 3d
       0.15755486 -0.028119411 -0.0238274 0.072771706
000140 c8 7b 9a bb ec 99 84 bd 84 5f 87 bb bc 3c 9b bd
       -0.004714463 -0.06474671 -0.0041312594 -0.075799435
000150 77 6c a3 3d 5d eb 63 3d f3 6c 87 bd 55 1d 26 be
       0.079796724 0.05564438 -0.06612577 -0.16222127
000160 c4 0e ac 3c b6 ee 7b 3b af 41 af 3c 22 1f 21 bc
       0.021003135 0.0038441843 0.021393625 -0.009834083
000170 2e fd 9b 3d 48 a0 fe 3c e7 34 2f 3c ce ee b4 3c
       0.076166496 0.031082287 0.010693765 0.022086527
000180 6a 32 ef 3d cf 8d 1d 3d 88 b0 88 bc 0d f7 df 3d
       0.116795376 0.038465317 -0.01668574 0.10935793
000190 eb 27 5b bc 0e ac 5b 3d 36 12 9a bd d3 ec 13 bd
       -0.013376216 0.05363088 -0.07523005 -0.036114525
0001a0 4d 2f 8e 3c fd fd 9e 3d 2f b2 f3 3b 94 2d 9a bc
       0.01735654 0.07763288 0.0074370126 -0.018820561
0001b0 56 bc 21 bd 2d b2 83 3d 5a be 1f be fc 3d b5 bd
       -0.03948625 0.06430469 -0.15599957 -0.08849713
0001c0 d6 15 3d bd 19 1f 3c 3c e6 c7 cd 3c 2e 39 c7 3c
       -0.046163402 0.011482024 0.025119733 0.024319258
0001d0 b5 82 81 bd fa 23 b8 3c 62 98 00 3d dd 21 3d bc
       -0.063237585 0.022478092 0.031395324 -0.011543718
0001e0 05 bf 35 3c da 13 cf bc 81 c6 25 bd 61 4e 3e bc
       0.011092906 -0.02527802 -0.04047251 -0.011615367
0001f0 ed 68 dc bc 03 2f 91 3d 63 41 e5 bc f6 73 0d 3d
       -0.026905501 0.07089045 -0.02798528 0.034534417
000200 ac ab 79 3c 23 ca 07 3d 05 62 ae 3d 97 f4 05 bd
       0.015238684 0.033151757 0.085147895 -0.032703962
000210 fc 40 66 bc e8 3b 04 3d bb b4 a9 bb f0 a8 3c 3d
       -0.014053579 0.032283694 -0.0051790155 0.04605955
000220 a0 ce c1 3d ed a1 cc 3b a7 7e d9 bc cf fa 65 bd
       0.09463239 0.006244889 -0.02654965 -0.056147393
000230 34 56 f2 3b a9 0e fe 3c 12 23 c4 bb 8b c6 0a bd
       0.00739553 0.03101285 -0.005985626 -0.03388075
000240 ab da 93 ba 37 91 e2 bc 94 64 eb 3c 2a 3e 46 3d
       -0.0011280378 -0.027657134 0.028734483 0.048399128
000250 fe c4 de 3c 58 a1 8e bc c0 86 d5 3c f5 81 34 bc
       0.027193543 -0.01741092 0.02606523 -0.011017312
000260 1f f4 80 bc 12 a9 87 3c 7d 58 14 bd f8 b6 24 3c
       -0.015741406 0.016560111 -0.0362172 0.010053389
000270 a9 a0 86 bd 90 2f 9b 3c 12 86 73 3d a9 fa da bb
       -0.06573612 0.018943578 0.05945403 -0.006682713
000280 02 d7 9f 3b ef e0 c1 3c bd 71 a1 3d ab b0 ac bc
       0.004877926 0.023666827 0.07883022 -0.021080336
000290 e6 a8 11 b9 61 d9 c9 3d 04 17 df 3c e2 a0 e7 3d
       -0.00013891197 0.09855915 0.027232654 0.11309983
0002a0 9c 04 16 bd 3b 89 87 bc 0a c2 c9 bd 03 dd 85 3d
       -0.03662549 -0.016544929 -0.09851463 0.06536295
0002b0 fe 5d 8d 3c 14 6f 97 bc 25 2f 9c 3d 66 7f 5a 3d
       0.017256733 -0.018485583 0.076261796 0.053344153
0002c0 99 72 1f bc ae fd 34 3d 73 8c bf 3d 3f ca 59 bc
       -0.009731912 0.04418724 0.093529604 -0.013292848
0002d0 55 4d 82 3d 07 3c f0 3c 93 f5 5d 3d 43 3b 81 bd
       0.06362406 0.029325498 0.054189276 -0.063101314
0002e0 c9 e4 b5 bc ed 6c dc bc 5d 94 c4 bc 62 7f 12 bd
       -0.02220382 -0.026907409 -0.023996526 -0.035766013
0002f0 d2 73 8f 3d eb 29 7c bc 6e af bd bc e1 70 b6 bd
       0.07004513 -0.015390853 -0.02315494 -0.08908249
000300 9b a0 f0 bb 7b e9 e2 3c 79 0e 41 3d 9a e2 15 3b
       -0.0073433644 0.027699223 0.047132943 0.002287066
000310 fd ae 9e 3d cc 24 24 3d 40 4a c0 3c 0b 43 eb 3a
       0.0774822 0.040074155 0.023472905 0.0017949058
000320 60 5f 41 3c c5 cf 73 3a d6 bc 95 3d b4 f7 0d 3d
       0.011802524 0.00093006744 0.07311408 0.034660056
000330 46 88 20 bd 04 ae 24 bd d5 f0 e8 bb a7 f3 ff bc
       -0.03919246 -0.040205017 -0.0071087875 -0.031244112
000340 54 7b 3d bd 7d 0b f2 3c 59 b2 62 3d 67 66 3a 3c
       -0.046260193 0.029546494 0.055345867 0.011376954
000350 69 2c 47 3c 18 8d 8e 3b e6 08 b9 bc ac 45 69 3d
       0.012156584 0.004350316 -0.02258725 0.05695121
000360 bf d3 60 bd 7c 18 8e bd 4c d4 89 bd e7 87 a5 3d
       -0.054889437 -0.06938264 -0.067299455 0.08082562
000370 9d 43 51 3c 87 2e 3d bd e3 10 cf 3d 25 a2 39 3d
       0.012772468 -0.04618695 0.10110643 0.04532065
000380 23 08 9c 3d ca ff 20 3c d2 04 35 bd e0 c9 5d 3d
       0.076187395 0.00982661 -0.04419405 0.0541476
000390 ff ac 14 3d c7 4b e9 3d d2 dd f3 bc 39 88 ae 3d
       0.036297794 0.113914065 -0.029768858 0.08522076
0003a0 88 5e 36 bd e3 b5 84 3d 0e 3f fe bc 46 ee 1a bd
       -0.044523746 0.06480005 -0.031035926 -0.03782489
0003b0 a4 15 a6 bc 70 12 35 bd 69 5e 8e 3d 35 a6 75 3c
       -0.02027399 -0.044207036 0.06951601 0.01499324
0003c0 e8 56 1d bd 11 87 ec 3c c5 df 15 bd c7 0a d4 3c
       -0.03841296 0.028872998 -0.036590356 0.025884045
0003d0 a6 d0 22 3d 44 cb b3 bc 5d 3a 39 3d 9b 90 91 bd
       0.039749764 -0.02194751 0.045221675 -0.071076594
0003e0 38 4e 20 3d 52 81 a8 3c 12 f2 52 bd e7 7a 79 3d
       0.039137095 0.020569477 -0.051500387 0.060908224
0003f0 d0 d6 8f bc 82 f8 34 bb f2 6f e9 3d 11 4c eb bc
       -0.017558485 -0.0027613943 0.11398305 -0.028722795

model.6.weight f4 [1, 256]
000000 7e 8a fe be 90 90 fc bd 63 b4 26 bd 02 98 24 3e
       -0.49715036 -0.123322606 -0.040699374 0.16073611
000010 39 20 fd bd 0b 50 88 3e f4 03 65 be e3 b9 f0 3d
       -0.123596616 0.26623568 -0.22364789 0.11754205
000020 aa 50 f4 be 27 5e c8 3b ce f6 31 bc fd 8b bf 3e
       -0.47717792 0.0061147395 -0.0108620655 0.3741149
000030 56 f1 a0 3d 5e 16 7d be 22 b3 c3 3d da ec de be
       0.07858531 -0.24715564 0.09555651 -0.43540078
000040 59 67 ef bd 46 85 9a be f8 7e 61 3f 6b 88 bf bc
       -0.11689634 -0.30179805 0.88084364 -0.023380479
000050 2c 07 e1 3e 19 2c 0e bd 67 93 2c 3e c1 24 26 bf
       0.43950784 -0.034710024 0.16853105 -0.6489983
000060 90 16 d8 3e 99 2a 34 bd d6 de 0e 3e 08 97 69 3e
       0.42204714 -0.043985937 0.13952193 0.2281152
000070 c6 f4 42 3f c1 f8 8f 3d f0 51 06 3f 93 35 4a bd
       0.76154745 0.07029868 0.52468777 -0.0493675
000080 e0 f8 20 3e 53 f3 1f 3f 97 b9 83 3e 7e ef b9 3d
       0.15719938 0.6248066 0.2572753 0.09078883
000090 07 8f 9f 3e 3a 21 4f be 12 ff a9 ba 7d d8 54 bd
       0.3116381 -0.20227519 -0.0012969694 -0.05196427
0000a0 4c db f4 3d 26 8e 00 be c3 fb 6a 3e 45 85 d1 bd
       0.1195589 -0.12554225 0.22947602 -0.10230497
0000b0 e5 b2 77 be f9 33 4a 3e 6c 25 08 bf 12 fd 81 be
       -0.24189337 0.19746388 -0.531821 -0.2538839
0000c0 e3 c9 a4 be 23 83 b3 be fe 93 19 bc b1 23 4b be
       -0.32185277 -0.35060987 -0.009373663 -0.19837834
0000d0 77 b3 f2 be 3c 88 8e bd 69 c8 06 3e 2c 8b 64 bd
       -0.47402546 -0.069595784 0.13162388 -0.055796787
0000e0 ca 3d ca be 5e 00 36 be d3 2c 05 be ac 6d 2b be
       -0.39500266 -0.17773578 -0.1300538 -0.16741055
0000f0 4d 60 d7 bd 7a 66 ea 3e c0 d1 a2 bd ab 70 e6 bc
       -0.10516415 0.45781308 -0.07950163 -0.028129896
000100 a7 e0 2a 3f 65 ff e8 3d da ff 6f be c7 a5 fe bd
       0.6674904 0.11376838 -0.23437443 -0.12433963
000110 d1 c9 38 3e db 11 d1 3d 14 ae 05 3e 01 5f a6 be
       0.18045737 0.10208484 0.13054687 -0.32494357
000120 49 fd 1c 3f 57 f2 39 3e 0b d9 93 be 6e 4c 02 bf
       0.6132398 0.18158852 -0.28876528 -0.5089787
000130 01 5c b1 be d6 7e 64 3f 32 fb af bc 65 a0 c2 3d
       -0.34640506 0.89256036 -0.021482084 0.09503249
000140 98 bf 51 be f7 c7 5b 3d 2b 9c db bd b1 88 99 3e
       -0.20483243 0.0536575 -0.10723146 0.299871
000150 59 fc 96 3e 1c a5 d6 3d bb a4 3a 3d 29 c8 ec 3e
       0.294894 0.10480711 0.045567255 0.4624646
000160 78 85 20 3e 0d 9f f8 3d 25 b9 01 3e be 0e ac be
       0.15675914 0.121397115 0.12668283 -0.33604997
000170 16 a9 cb 3d 3e f0 cc be 9a 07 ae 3e 82 f3 69 3e
       0.0994436 -0.4002704 0.33990175 0.22846797
000180 2d 1c a1 3d b8 9e b8 bd 32 c5 b3 bd ac 9d f1 3d
       0.07866702 -0.09014648 -0.087778464 0.11797652
000190 e9 a8 a3 3e 17 d1 52 bf 30 db a6 be 66 42 79 bc
       0.31964806 -0.82350296 -0.32589102 -0.0152135845
0001a0 55 35 f1 be d2 fc f7 bd 27 38 ed be 6d ab 9f 3b
       -0.47111002 -0.121087685 -0.46331903 0.0048727305
0001b0 c4 55 bb be fa 1d c0 be 68 e6 fa be b0 38 06 bf
       -0.3658887 -0.3752287 -0.4900391 -0.5243025
0001c0 4a 73 26 be f8 03 04 3e 37 02 d5 bc a0 f9 80 be
       -0.16254917 0.12892139 -0.026002033 -0.2519045
0001d0 ad 37 26 bf 94 59 f9 bd f2 cc 2b be 39 28 9b be
       -0.64928705 -0.12175289 -0.16777399 -0.30304125
0001e0 a2 45 1f 3e 51 22 eb be 5c d2 1c bc 68 db b1 3e
       0.15553907 -0.4592462 -0.009571638 0.34737706
0001f0 5c d6 9d bd aa 8c 27 3e b7 9e 03 bf 0c 8b c3 be
       -0.077069014 0.16362253 -0.51414055 -0.38192022
000200 21 fe 6b 3d 3b 33 7e be 9c 07 0a 3e 0f d8 eb be
       0.057615403 -0.2482423 0.13479465 -0.46063277
000210 7b 5a 89 be de ce 31 3e 99 ef 2a bf 11 7f c9 be
       -0.26826844 0.1736407 -0.66771847 -0.39354756
000220 5e 05 5e 3e 5b 8b 0e 3e ef a8 f7 bc e7 ec 4c 3d
       0.21681735 0.13920347 -0.030231921 0.050030615
000230 19 05 90 bd 51 80 64 be 26 12 00 be 23 f8 c6 3e
       -0.07032222 -0.22314574 -0.12506923 0.38861188
000240 78 d8 83 3e d2 f1 ff be 21 88 2d be 71 74 88 3e
       0.2575109 -0.49989182 -0.1694646 0.26651338
000250 49 99 3c be e8 98 40 be 9f a9 10 bf 60 ea 78 bd
       -0.18417849 -0.18808329 -0.5650882 -0.060770392
000260 e4 56 96 be 27 cc 95 3e 6c 4e 4a be a8 76 98 3c
       -0.29363167 0.29257318 -0.19756478 0.018611267
000270 9a dc 01 bf f5 e8 08 be b4 98 89 3e 31 8d 07 3f
       -0.50727236 -0.13370116 0.26874316 0.52949816
000280 c8 1e 09 3e 63 76 00 bd 58 42 0d 3e c9 93 35 be
       0.13390648 -0.031362902 0.1379484 -0.17732157
000290 5a c5 70 be 29 c0 e1 3d 17 a7 37 bb b8 7f 0e 3e
       -0.23512784 0.1102298 -0.0028023177 0.13915908
0002a0 15 3a 77 bd f0 1b 77 bd 10 1f 4c bf b6 0d 6a 3e
       -0.060358126 -0.060329378 -0.797349 0.22856793
0002b0 d7 cd f2 be df 06 7f bd 36 93 db 3d 71 a9 e8 3d
       -0.47422668 -0.062262412 0.10721438 0.113604434
0002c0 1b 41 35 3e 92 e5 4b be 68 46 fd 3d 97 7e 34 3e
       0.17700617 -0.19911793 0.123669446 0.17626415
0002d0 b0 18 d3 3e 05 b6 49 3e 4b 50 11 3e 8c 9b 22 bf
       0.41229773 0.19698341 0.14190786 -0.63518596
0002e0 92 2e c4 3e 16 32 18 3e da ef 67 3e d0 cd ad be
       0.3831678 0.14862856 0.2265009 -0.33946085
0002f0 fe a3 f4 3d 39 04 14 3d 0c b5 44 bd b5 44 4a be
       0.119453415 0.03613684 -0.048024222 -0.19752772
000300 e8 50 cc be 73 58 d0 3e 30 c7 4b 3e 33 e1 08 3e
       -0.39905477 0.4069248 0.19900203 0.13367157
000310 94 38 69 3e 47 7d 0f 3d 34 b0 41 3e 68 7a 47 3e
       0.22775489 0.035031583 0.18914872 0.19480288
000320 e0 9c 45 3e 3d d4 3c be 7b 9e 67 be 34 54 b8 3e
       0.19298124 -0.18440337 -0.22619049 0.36001742
000330 64 0b 11 bf fd ff 01 be a2 82 bd 3e bf af 7f bc
       -0.56658006 -0.12695308 0.37013727 -0.015605866
000340 26 8c 7d be 81 a8 f3 3d 26 d8 bb be 8c a1 b3 bd
       -0.24760494 0.11897374 -0.36688346 -0.08771047
000350 fb 6d 95 be 09 a9 2a be 73 90 53 bd e3 4b 27 be
       -0.2918547 -0.16666044 -0.05165143 -0.16337542
000360 14 37 35 be d6 59 81 be ff 8b a3 bc 8b d5 5d 3e
       -0.17696792 -0.25263852 -0.019964216 0.21663491
000370 fa 1e 80 3e 94 b3 b5 be ef a8 af 3d ce b2 bf be
       0.25023633 -0.3548857 0.085771434 -0.37441105
000380 17 31 da 3d 12 af cf 3e f3 db 9f bc e5 61 f5 3d
       0.106538944 0.40563256 -0.01951406 0.119815625
000390 62 2e c5 be a0 69 b8 3e 4c 5d 3d 3c 0d 2b fa be
       -0.3851195 0.36018085 0.011557888 -0.4886097
0003a0 03 8c bb 3b 1f c9 04 3f 7f e8 60 be e4 26 c1 be
       0.005723478 0.51869386 -0.2196369 -0.37724984
0003b0 f6 48 6d 3e f8 19 47 bd 43 4a e1 3d 53 de a3 be
       0.23172364 -0.04860875 0.110004924 -0.32005557
0003c0 9d 91 a8 be 9d 09 d1 3e a7 81 c9 be bd 1a 06 be
       -0.32923594 0.40827647 -0.3935673 -0.13096137
0003d0 3d 6b 80 bf c3 cb 47 3e 57 9f 8d 3e b1 16 c0 be
       -1.0032727 0.19511323 0.2766063 -0.37517312
0003e0 1f 2d 08 3e 96 0b e4 bd 01 28 dc be a3 b3 19 3e
       0.13298462 -0.11135022 -0.4299927 0.15009932
0003f0 48 ba 5e be fb 22 1b 3e 9e a2 13 3e 31 7b 44 3e
       -0.21750748 0.15150063 0.14417502 0.19187619
