data/checkpoints/rlgym-ppo-run-1760480280098057400/16505812/PPO_VALUE_NET.pt (torch, 623393 bytes, 7 tensors)

model.0.weight f4 [256, 89]
000000 0e cd 6d bd 87 f3 b9 bc 71 a9 84 3d 51 56 54 be
       -0.058056884 -0.02269913 0.06477631 -0.20736052
000010 f6 c1 15 be cf af 18 3d 24 c0 a4 3d b4 3d 6c be
       -0.14624771 0.03727704 0.080444604 -0.23070413
000020 8f d8 d7 bc 9f 84 2e bd f7 e0 90 bd 5c 50 7d 3d
       -0.02634838 -0.042606946 -0.07074159 0.061844215
000030 6a 2f a7 3c c7 46 8b 3d e2 f8 c9 3b 69 bb f4 3c
       0.020408351 0.06800609 0.0061637023 0.02987452
000040 dd a0 8a 3d 4c d8 b8 bc 10 22 8d 3d b8 b7 db bc
       0.067689635 -0.022564076 0.068912625 -0.026821002
000050 f5 76 9d bd 54 1f 99 3d 3f aa cf bc 67 41 ee 3c
       -0.07688705 0.074766785 -0.025349734 0.02908392
000060 7e 7c e4 bb 46 7f 1c 3d 86 03 81 3d b7 02 12 bd
       -0.0069728484 0.038207315 0.062995 -0.03564712
000070 d1 d6 3e ba fd 28 df bd 66 5b d3 3c bf 40 a1 bd
       -0.0007279935 -0.1089649 0.025800418 -0.078736775
000080 a8 64 04 3d 88 ac cd bc 4f 36 4c 3d c8 b3 b1 3d
       0.032322556 -0.025106683 0.04985648 0.08676869
000090 06 8c 00 3d 3d 76 4e 3d ed b0 37 bc 94 46 51 bd
       0.031383537 0.05040573 -0.011211616 -0.0510927
0000a0 0d b6 76 bd 6e 16 c2 3d 6a a3 e6 bc 19 0b 87 3d
       -0.06023221 0.094769344 -0.028154094 0.065939136
0000b0 39 e4 37 3d f2 86 08 3d 4b 16 bf bd 88 ba d0 3d
       0.044895384 0.03333182 -0.09330424 0.10191828
0000c0 e2 f3 98 bd dd ad ab 3d 14 ca 17 bd f1 2c 04 3e
       -0.07468392 0.08382771 -0.03705795 0.12907769
0000d0 94 4b 06 3e 2a a6 a1 3d be 10 34 3d 66 7f b0 bd
       0.13114768 0.078930214 0.04396128 -0.08618049
0000e0 15 0c 18 3d d2 f2 89 3c c1 75 a0 3c 1d f0 ac 3b
       0.037120897 0.016839419 0.0195874 0.005277647
0000f0 15 41 34 3d 67 ca 91 bd dc 33 7b 3d 32 50 bc 3d
       0.04400738 -0.07118683 0.061328754 0.091949835
000100 1f fa 2e bd 6d 9d 02 be b1 57 a2 bc 86 c4 f5 bc
       -0.042719003 -0.12755366 -0.019817205 -0.030000936
000110 a8 5c 5b bd 3b 45 cc 3c 8f 2a 17 bb 21 18 c6 bd
       -0.05355516 0.024935355 -0.0023066138 -0.09672571
000120 26 1b 2d 3d a0 27 90 bb f4 af 9c bd 46 8c 98 3b
       0.04226222 -0.004399255 -0.07650748 0.004655394
000130 49 07 67 bd c5 4f 29 3d 3e d1 9b bb 6c 03 9c 3b
       -0.056403432 0.04133584 -0.004755168 0.00476115
000140 f9 6e b4 3d 66 ec 46 3d d7 e3 a3 bc e9 56 bf bd
       0.08810229 0.04856529 -0.020006103 -0.09342749
000150 ca 97 07 bd 4c 61 96 bc 27 13 b8 bc a9 56 af 3c
       -0.03310374 -0.018356942 -0.02247007 0.021403627
000160 a0 f4 8b 3c ca 14 1a be ca 14 49 3d c4 e7 bd bc
       0.01708442 -0.15046993 0.04909209 -0.023181804
000170 18 45 c6 bd 05 69 45 be 78 7a 46 bd d7 ad 66 3d
       -0.09681147 -0.19278343 -0.04845664 0.05631813
000180 4a d7 4a 3b e4 39 32 bd 1c 12 6a 3d c4 29 6c bb
       0.0030951076 -0.04351224 0.057146177 -0.0036035636
000190 db 5b d5 3d 0c 46 05 3b 69 e6 62 bd 65 db 67 bc
       0.10417911 0.002033594 -0.055395517 -0.014151429
0001a0 b2 7a 5a 3d c6 56 63 bd c4 01 3a 3b 76 69 a9 3d
       0.053339668 -0.055502675 0.00283824 0.08272068
0001b0 66 8b db bd 27 10 ef bc e0 37 85 bc 62 ce 2d 3d
       -0.107199475 -0.029182507 -0.016261995 0.04243315
0001c0 c9 15 a8 3d 47 98 3e 3c ef 79 a6 bd 13 d3 a1 3d
       0.0820728 0.011632985 -0.08128726 0.07901587
0001d0 ea d3 cb bc fa 8a 9d bd 24 cb c6 3d d9 55 f1 bc
       -0.024881322 -0.07692523 0.09706715 -0.02945988
0001e0 48 e6 3f 3d 95 75 2b 3d 6a a6 c6 3d f6 2b 25 3d
       0.046850473 0.04186018 0.0969971 0.040325128
0001f0 ad bd 8e bd fc 52 73 3d f1 5a de 3b 1e 0f 85 bd
       -0.069697715 0.059405312 0.0067857434 -0.06497024
000200 e6 43 b0 bd f3 bf 20 3d 72 91 d8 bc ee 2d 59 3d
       -0.086067006 0.039245557 -0.026436541 0.053022318
000210 ed 56 c6 3c 76 8d fb 3c fd bd ae 3d 53 a2 78 3d
       0.024211371 0.030707102 0.08532331 0.06070168
000220 2c bf 9a 3d 25 3e 73 3c 4a 73 43 bb 3b d1 1b 3d
       0.075559944 0.014846359 -0.0029823356 0.038041335
000230 cc 43 7a bd 5e 17 1f be 37 b5 d0 bc f6 f9 e4 bb
       -0.061099812 -0.15536258 -0.025477035 -0.0069878055
000240 8e 4d 86 3d 18 44 a6 bd 8f f0 38 bd 8e ca 51 3d
       0.06557761 -0.081184566 -0.04515129 0.05121856
000250 ab 55 bc bd ea 64 df 3b 9c 1f c7 3d 4b e7 03 3e
       -0.09196027 0.00681745 0.09722826 0.128812
000260 c3 8a 24 3d bd 7f 60 3d 7e bc b6 bd 9a 78 25 3d
       0.040171396 0.05480932 -0.08922671 0.040398218
000270 cc 17 37 bd 3b 10 08 bb 4f 2b 7c 3d d7 74 09 bd
       -0.04470043 -0.0020761627 0.06156474 -0.033558693
000280 17 a5 e7 3d d8 81 76 3a 70 55 c2 bc a3 c5 91 3d
       0.11310785 0.00094035035 -0.02372238 0.07117774
000290 c4 c6 83 3d 5c c7 8e 3d d3 7f 54 bb 83 64 d4 bd
       0.06434396 0.069716185 -0.0032424822 -0.103707336
0002a0 6a fa 34 3d 9e 40 c6 3c 71 41 7b 3b e8 7e 3d 3d
       0.044184126 0.024200734 0.0038338567 0.046263605
0002b0 fc cd 89 bc d3 93 a5 3d d6 c7 83 39 c4 85 f1 bb
       -0.016821854 0.08084836 0.00025135156 -0.0073706824
0002c0 42 e6 5f 3d c6 ed 8b 3d 96 59 4a 3d 19 b2 f2 bd
       0.05466295 0.06832461 0.049401842 -0.11850376
0002d0 6d 13 29 3d 7d 52 2c bc 0d fc 3e be 1a e1 92 3d
       0.04127829 -0.010517714 -0.18650837 0.07171841
0002e0 69 f0 89 3c 18 a6 29 be 7a 7d ea bb 52 86 06 bd
       0.01683827 -0.16567266 -0.0071560713 -0.03284294
0002f0 00 bf e8 3c 47 39 b1 3c a9 2b 27 3d 9f af 8a bd
       0.028411388 0.021633757 0.040813122 -0.06771778
000300 17 98 7f 3c e3 90 f9 3c a3 a2 ab 3d 98 ab 4b bd
       0.015600226 0.030464595 0.0838063 -0.04972419
000310 94 f8 8f 3d 7b ae 86 3d 5d 5a c3 3d 39 9e 8d 3d
       0.070298344 0.06576248 0.0953872 0.06914944
000320 bc 2b aa 3d f0 04 74 bd 24 90 6f 3d 9e 16 b7 bd
       0.08309123 -0.05957502 0.058487073 -0.08939861
000330 8a 1d b2 3d e6 83 ce bc 4a 62 43 bd a7 ef a8 3d
       0.086970404 -0.025209378 -0.047701158 0.08248835
000340 78 a1 a4 3d 59 e9 9a 3d 58 bb f5 ba 63 ca d7 bd
       0.0803861 0.07564039 -0.0018747849 -0.10536649
000350 1d d8 00 3d 86 71 be bc 28 a3 8f 3d c1 53 a7 bc
       0.0314561 -0.023247492 0.070135415 -0.02042568
000360 ae 3f 54 3d 52 e5 b6 bd 96 f1 a2 39 59 f2 17 3c
       0.051818542 -0.08930458 0.00031079043 0.009274089
000370 bc ef 83 bd 9b 30 19 bd 7b d1 31 3d f5 32 af 3c
       -0.0644221 -0.03739987 0.043412667 0.021386603
000380 c2 63 bb bd 27 8d bf bd 5b 67 20 bd 5c 96 2f 3c
       -0.09149887 -0.093530945 -0.039161067 0.010717001
000390 08 0a 5c bd 24 3c bd 3d 95 74 e3 3d 92 31 5d 3c
       -0.053720504 0.092399865 0.11106221 0.013500588
0003a0 57 e6 b8 3d e3 05 12 3d d6 05 04 bc 6e 4d 1b 3d
       0.09028309 0.035650145 -0.008058032 0.03791564
0003b0 ad 80 46 bd 23 ff 4d bd 41 e1 8d bd d0 6b 60 3d
       -0.04846256 -0.050292145 -0.069277294 0.054790318
0003c0 0e 39 d1 3b a5 5a 00 3d 07 86 b3 bc 46 75 ec 3b
       0.0063849753 0.031336445 -0.021914495 0.0072161285
0003d0 87 c9 db bd fd 22 37 bd 7a c1 59 bd e6 20 9b 3d
       -0.10731798 -0.0447111 -0.05316303 0.07574634
0003e0 9b ca a9 3c a7 82 88 bd 24 cb ef bc e2 e4 58 bd
       0.020726493 -0.06665545 -0.02927167 -0.052952655
0003f0 d6 0f 66 3c d9 a5 f3 3c ab 92 e0 bc ac 9a d3 bc
       0.0140418615 0.029742168 -0.027413687 -0.02583059

model.0.bias f4 [256]
000000 69 03 ba 3c f3 a6 dc bd 32 22 94 3d 86 7c 9b bd
       0.022706704 -0.107740305 0.07233085 -0.0759211
000010 a2 2d c6 3d 3a 1f 83 3c 4a ed 98 3d 99 51 8a 3d
       0.096766725 0.0160061 0.07467134 0.06753845
000020 4c 2a 17 bd 4d 3c ba bd 87 82 3e bc eb a1 01 bd
       -0.03690557 -0.09093533 -0.0116278 -0.031648558
000030 cf b0 26 3d 04 41 9f bd 47 a7 cb 3d 3c 95 bb 3d
       0.04069596 -0.077760726 0.09944015 0.091593236
000040 bc ef 20 bd 73 ba bf bd d5 e5 8f bd 3e e7 af 3d
       -0.03929113 -0.09361734 -0.07026259 0.08589028
000050 1d c0 c6 3c 96 43 2e 3b 0d 48 f6 bc 85 e2 5c 3d
       0.024261529 0.0026590577 -0.030063653 0.053926963
000060 65 33 bf 3c 6e aa 93 bc 29 64 29 bd e6 bf c6 3d
       0.023339937 -0.018025603 -0.041355286 0.097045705
000070 3c d3 bb 3d 0e eb be 3c 39 0e 84 bd 2c c1 ee 3b
       0.09171149 0.023305442 -0.06448025 0.0072862115
000080 aa 58 5e 3d 55 6b e0 3b f4 16 84 bd 21 d1 b9 bd
       0.054283775 0.0068487325 -0.064496905 -0.09073091
000090 99 b4 95 bd 89 ff be bd 54 60 6f bd 86 f0 c8 3c
       -0.07309837 -0.09326083 -0.058441475 0.024528753
0000a0 1b 41 b4 bd 4e 2d 1f 3d 16 4c 23 bd ab 10 23 3d
       -0.088014804 0.038861565 -0.039867483 0.039810818
0000b0 7c 29 82 bb d3 4e 30 bc b5 32 5c 3d 51 5d 00 bd
       -0.0039722305 -0.010760981 0.053759295 -0.031338993
0000c0 4d 98 d9 ba 78 c7 16 3d 35 2d 2d bd 75 13 07 3c
       -0.0016601175 0.036811322 -0.04227944 0.008244385
0000d0 9e 5b 80 3d 19 dd 94 3d bc ec c6 bd 32 31 8d bd
       0.062674746 0.072687335 -0.09713122 -0.06894149
0000e0 51 18 a4 3d 06 ff b5 3d 4f 2f 94 3c dd c4 a5 3d
       0.080124505 0.088865325 0.018088965 0.08094189
0000f0 8f b9 91 3c da 38 8c 3d 03 c3 ff bc ee a8 42 3d
       0.017788677 0.06846781 -0.031220919 0.047524385
000100 d2 84 fe bc 28 06 0d bd 7a ef 72 bd cb e3 50 bd
       -0.031069193 -0.0344297 -0.059310414 -0.05099849
000110 6d f4 94 bc d9 9c fd 3c 4b 0e 13 3d 10 41 78 bd
       -0.018182958 0.03095858 0.035902303 -0.060608923
000120 04 fe fb 3d 5d 8b e4 3d e1 75 c5 bc f6 1f 87 bb
       0.12304309 0.11159394 -0.02410406 -0.004123683
000130 13 2b 85 3c ca d7 58 3b 58 63 d5 bd 67 d8 35 3b
       0.016255891 0.0033087605 -0.10419339 0.0027747394
000140 91 c1 77 bd 56 c3 a5 bd 0d 68 8f bb 50 9b cf bd
       -0.060487334 -0.08093898 -0.0043764175 -0.101370454
000150 c4 bc 29 3d 66 6d 75 bd d9 e7 c9 3c 13 04 a2 3d
       0.041439787 -0.059918784 0.024646686 0.07910933
000160 9b 61 b6 3d a4 b8 a8 bd 93 1b 11 3d c2 51 c9 3d
       0.089053355 -0.082383424 0.035426687 0.09830047
000170 0b 7f 2c 3c 08 4c f4 bc 92 62 7e bd bb 7a b0 3c
       0.010528336 -0.02982141 -0.062105723 0.021542897
000180 5a 40 9c bd 3f 19 fc bc b3 dd 75 3d 25 03 01 3d
       -0.076294616 -0.030773757 0.060025882 0.03149714
000190 e5 55 73 bc a5 0d 8d 3d e8 5f 32 3b d9 18 9b bd
       -0.014852022 0.06887368 0.002721781 -0.07573099
0001a0 e6 82 25 3d 54 cb 39 bb 86 6e 25 bd db 63 0a bd
       0.040408038 -0.0028349953 -0.040388606 -0.033786636
0001b0 8f 84 c0 bc 99 b2 75 bd bb 1a 06 bd 7f fc 65 3d
       -0.023500709 -0.059984777 -0.032740336 0.056149002
0001c0 9f 51 8f bc 75 54 99 3c 5a 22 ad 3d 5e 9c bb bd
       -0.017494975 0.01871703 0.08453818 -0.09160684
0001d0 df 65 b3 3d 7e d3 13 bd 0f d9 6d bd 59 68 db bc
       0.08759665 -0.036090367 -0.05806833 -0.026783155
0001e0 ec ca 9e 3d bd 0d 85 bd ec c3 55 bd cc bc 13 bd
       0.07753548 -0.06496761 -0.0521888 -0.036068723
0001f0 27 aa d5 bc 2a 7c fd bc 43 bc 3b bc a4 9c 55 bc
       -0.026082112 -0.030942995 -0.011458459 -0.013037834
000200 bc 61 a3 3d 77 5d 18 3d fd 8c f6 bc 1a 43 cd 3c
       0.07977626 0.03719851 -0.030096525 0.02505641
000210 f7 31 e0 3d 6d 28 ad bc c6 6d ad bd 6e 3b 2a bd
       0.1094703 -0.02113744 -0.08468203 -0.041560583
000220 e5 22 55 bd c9 fa 8b 3d 2e cf 8a 3d 66 3e af 3d
       -0.05203523 0.06834943 0.06777798 0.085568234
000230 e9 30 d1 bd ed 2b 19 bd 6f 73 b2 3d 74 cf 86 3c
       -0.10214407 -0.037395407 0.087134235 0.016456343
000240 17 a3 d1 3b 32 0b ab 3d c8 e1 0d bd 04 92 d6 3d
       0.0063976157 0.08351745 -0.03463915 0.10477069
000250 02 9d 2c 3b eb 2b cc bd fc 34 ae 3c db 4c 00 3c
       0.00263387 -0.09969314 0.0212655 0.007830824
000260 3a bf 33 3d da d2 0e bc fb 4f 6b bd 50 2e 07 bc
       0.04388354 -0.008717263 -0.057449322 -0.008250788
000270 0e c3 d0 3d 9f f6 bb bd fb 62 00 3d 3c e4 17 3d
       0.10193454 -0.091778986 0.031344395 0.037082896
000280 d7 b3 1a 3a b1 5e 09 bd cf 21 b6 bc c9 74 65 3d
       0.0005901432 -0.03353757 -0.022232918 0.056019578
000290 70 60 ca 3d 4d b0 13 3d ce ec b5 bc 2f a4 40 3d
       0.09881675 0.036056805 -0.022207644 0.047031578
0002a0 45 72 bb 3d db 65 a3 bc f9 cd 37 3d c5 36 a5 3d
       0.091526546 -0.01994603 0.044874165 0.08067087
0002b0 01 0c 67 bd a0 f8 7e bd 2e 0b ff 3c 5f b1 2a 3d
       -0.056407932 -0.062248826 0.03113326 0.04167306
0002c0 04 0e 3c bc b0 e6 0f 3d 1d d0 ad bc 33 0f 23 bd
       -0.011477951 0.03513211 -0.0212174 -0.039809417
0002d0 2f ae 0c bd ef 41 a1 bd b0 dd 19 bd b8 f2 9f bc
       -0.034345802 -0.07873904 -0.037564933 -0.019524917
0002e0 2c d3 ab 3b 59 d8 e2 3d 1a a9 b3 b9 2b 3c ff bb
       0.0052436795 0.11076421 -0.0003426753 -0.007789155
0002f0 65 d4 dc 3d 5a 53 cb bc 07 4f 55 bd 7b 0d ca bd
       0.107826985 -0.024820019 -0.05207732 -0.098658524
000300 d8 f8 2f bd da a7 61 3d 04 9e c4 3d de 3e b2 bd
       -0.042961925 0.055091716 0.096004516 -0.08703397
000310 72 4d 64 3d 04 62 ba 3d 3b c1 5a bd ae f5 8d bc
       0.05573792 0.09100726 -0.053406935 -0.017329063
000320 b4 e8 17 bc 56 94 97 bc 6a 8a f8 bc da 35 a5 3d
       -0.009271789 -0.01850335 -0.030339438 0.08066912
000330 04 28 81 bd d3 80 86 3d ff 04 8d 3c 22 4a 32 bd
       -0.063064605 0.0656754 0.017214296 -0.04352773
000340 35 6e d8 3d d6 bf 86 bc ab 6e ab 39 6c 66 38 ba
       0.10567895 -0.016448896 0.00032698116 -0.0007034305
000350 bc 8c 29 3c b4 c1 28 3c 20 cc 97 bc 39 bd 6d 3c
       0.010348495 0.010300089 -0.018529952 0.014510446
000360 0c 0c 58 bd ba a0 81 3d cc 55 5b 3d 6a bf 26 3d
       -0.052745864 0.06329484 0.05354862 0.04070989
000370 fc fa a7 bd f1 d1 86 bd 38 b0 7b bb 20 ed 62 bd
       -0.08202168 -0.06583012 -0.0038404595 -0.05540192
000380 d9 dc c6 bd 29 18 5e 3d 39 14 69 3d 43 9c b0 3d
       -0.09710092 0.05422226 0.05690405 0.086235546
000390 f3 2b a7 3c e3 36 6b 3c fc 70 cb 3d 7d 05 be bc
       0.020406699 0.014356348 0.099336594 -0.023195976
0003a0 0a a7 0f 3d c8 d3 c5 bd cf cd 6e 3d c6 32 19 3c
       0.03507141 -0.09659535 0.058301743 0.009350484
0003b0 50 04 c2 3c e3 4e ea 3c ef 34 9f 3c dc bd 2d 3d
       0.023683697 0.02860207 0.01943442 0.042417392
0003c0 72 73 f7 3c 84 84 84 bd e3 d3 94 bd 87 6c 98 3d
       0.030206416 -0.06470588 -0.07266977 0.07442575
0003d0 41 6b b6 bc 72 32 34 3d 59 34 d2 bc b0 6e ed bc
       -0.02226794 0.04399342 -0.025659727 -0.028983444
0003e0 79 34 b5 3d 09 f8 67 3d d7 61 dd bd 02 71 a7 3b
       0.08847899 0.05663303 -0.10809677 0.005109907
0003f0 c6 fb 93 3d 3b da c2 3d 8f dd ad bd 15 40 31 bd
       0.07225756 0.095142804 -0.084895246 -0.043274004

model.2.weight f4 [256, 256]
000000 f8 62 c7 3b 2b 89 c3 3d 2d 9a 4a 3d 31 86 20 3c
       0.006084796 0.09547647 0.04946344 0.009797619
000010 98 6f f9 bc 69 b5 a7 3d f6 d8 96 bd 97 42 98 3d
       -0.03044872 0.08188898 -0.07365601 0.07434576
000020 ae f3 70 3d db 7d 70 3d 58 e2 57 3d c2 71 9a 3d
       0.05882614 0.058713775 0.052706093 0.07541229
000030 6f 31 9f 3d 84 ad 66 3d 96 a2 af 3d 3c 82 09 bd
       0.077731006 0.05631782 0.08575933 -0.033571467
000040 78 da 10 bd e0 d7 17 3d 73 5c 24 3c 19 aa 99 3d
       -0.035364598 0.03707111 0.010031807 0.07503147
000050 ea 74 7a bc 2f 03 92 3d 7a 39 15 3d 1a 07 47 3d
       -0.015286664 0.071295135 0.036431767 0.048590757
000060 d7 1c 84 3c d2 03 95 3c 1d 17 ec 3c 76 94 e4 3c
       0.016127033 0.018190298 0.028819615 0.027902823
000070 8c 31 79 3d fc db b0 3c 83 32 9d 3d e0 58 de 3b
       0.060838267 0.021589272 0.0767565 0.006785497
000080 e9 66 42 3d 02 f5 e0 3d 9e 9b 1d 3d 63 b9 5d 3c
       0.047461424 0.109842315 0.038478486 0.013532969
000090 7d e5 e2 bc c3 bb 7a 3d e2 fb af 3c bc eb f8 3d
       -0.02769732 0.06121422 0.021482412 0.12154338
0000a0 05 86 3f 3d d4 16 42 3c e1 6a cf 3d 72 ce d1 bc
       0.04675867 0.011846263 0.101278074 -0.025611136
0000b0 cf e6 a2 3c f9 b6 44 3d f8 b9 56 bc 3d 28 8a bc
       0.019885449 0.04802606 -0.013105862 -0.01686489
0000c0 22 bf 85 3d 68 31 ff bb 58 73 aa bc b2 f5 98 3c
       0.06530596 -0.007787872 -0.020806953 0.018671844
0000d0 9a e4 06 3e a0 75 f6 3b 29 83 0a 3d 33 54 fa 3c
       0.13173142 0.007521346 0.03381649 0.030557727
0000e0 ef a9 b0 3d 5d a0 41 3d fe 01 87 3d f1 8a 91 3d
       0.08626162 0.047272075 0.06592177 0.07106579
0000f0 05 5d e7 3d 95 c3 5d 3b 98 52 6e 3d 6f 5c ca 3a
       0.11297039 0.00338385 0.058184236 0.0015438924
000100 46 3f c1 bc 40 0f 9d 3c 61 a3 c5 3d 52 a2 bb 3c
       -0.023589741 0.01917231 0.09650303 0.022904549
000110 54 e7 35 3d b6 76 3b bc 37 46 c0 3d cc d0 31 bc
       0.044410065 -0.011441877 0.093883924 -0.010853004
000120 90 70 79 bb a0 bb ab 3d 80 f4 61 3d b3 60 64 bc
       -0.0038061477 0.08385396 0.055164814 -0.0139390705
000130 17 d1 2c bc a3 b2 46 3c b5 f8 7c 3d 8e 9d 69 3d
       -0.010547898 0.012127551 0.061760623 0.05703502
000140 ad 11 1c 3d c1 84 60 3d b0 de 2f 3d 76 b4 8e 3d
       0.038102794 0.054814104 0.04293698 0.06968014
000150 4a db 3b 3c 75 af e5 bb 32 1c 00 3d 0d 62 83 bc
       0.011465857 -0.0070094415 0.03127689 -0.016037965
000160 82 c8 8e 3c 39 4b d6 3c 2a e2 b1 3d 3d 8a e5 3b
       0.017429594 0.026158916 0.086857155 0.0070050047
000170 34 e3 34 3d e5 c8 a4 3d 7e f2 9a bd bd df 33 3d
       0.04416199 0.0804613 -0.07565783 0.043914545
000180 16 e3 ef 3c 37 bf 0f 3d a7 7a 54 bc c0 10 d0 bc
       0.029283088 0.035094466 -0.012968696 -0.025398612
000190 c4 d2 33 3d a8 55 ce 3c 9f c7 d7 3d cf 91 03 3d
       0.043902174 0.025187328 0.105361216 0.032121476
0001a0 7e 78 d2 3c 55 6a 2f 3d 06 ac a9 3b a9 d8 43 3d
       0.02569222 0.042826016 0.0051779775 0.047814045
0001b0 6e 19 d8 3c 0d 6e bd bc ef cc 4f 3d 16 24 28 3d
       0.026379313 -0.023123765 0.05073255 0.04105004
0001c0 84 53 9b 3d 7d 6d f6 bc 2a 4c e8 3d ad 5f ef ba
       0.07584289 -0.030081505 0.11342652 -0.0018262767
0001d0 af c8 05 3e 0d cc 62 bd e0 e0 f5 3c 05 66 56 bd
       0.13064836 -0.05537038 0.030014455 -0.052343387
0001e0 11 cb 50 bd 84 41 15 3e 05 72 83 bb 6d 40 c1 3c
       -0.05097491 0.14575773 -0.004011395 0.02359029
0001f0 a6 ea 0b 3d a4 4f 66 3c 45 7c 83 3d 2d 05 ad 3c
       0.034159325 0.014057074 0.06420187 0.021120632
000200 43 66 42 3d 8a d2 38 3d 66 43 95 bc 26 7b af 3d
       0.047460806 0.04512266 -0.018220615 0.085684106
000210 02 4d 8c bc 41 40 29 3d 2b 1e fe 3c c1 68 2a 3c
       -0.017126564 0.041321043 0.031020245 0.010400952
000220 88 86 3f 3d 7b 59 b7 3c b1 d4 90 3d 1f 2c bf 3a
       0.04675916 0.022381535 0.07071818 0.0014585293
000230 16 2e f5 bc 11 0a c2 3c 45 dd 4d 3d 01 f9 73 3b
       -0.029929202 0.02368644 0.050259847 0.0037227275
000240 a5 ab 66 bc 4e f9 44 3d 35 b4 20 bc ec 43 35 3c
       -0.014079009 0.048089318 -0.00980859 0.011063557
000250 8d 69 9b bd c7 e2 a6 3d 3a f4 17 3d d9 66 59 3d
       -0.075884916 0.08148723 0.037098147 0.0530766
000260 7f 9b cb ba f5 fb 14 3d 83 e1 39 3d f0 d8 db bc
       -0.0015534012 0.036373097 0.04538108 -0.026836842
000270 2a 0d 11 3d 24 97 61 3c 11 fd 01 3c a6 a8 8c 3c
       0.035412945 0.013768945 0.007933871 0.017170262
000280 0d 8a 65 bd d8 dc cf bc 2c e3 1e 3c b9 df 8f 3d
       -0.05603986 -0.025373861 0.009697717 0.070250936
000290 f3 4c 62 3d e9 94 3b 3d 7b a0 12 3c 33 8b ce 3d
       0.055249166 0.04579631 0.008949394 0.10085144
0002a0 55 ef 9d 3d 89 a1 32 3d 0d 09 b4 3d a9 a9 d6 bb
       0.077116646 0.043611083 0.08790789 -0.006550987
0002b0 ae 62 3c 3d d2 84 66 bd 93 28 1b bb c9 57 f0 3c
       0.045992546 -0.05627901 -0.0023675307 0.029338734
0002c0 63 ef 2e 3d 25 4f f2 bc 6c d7 84 3d 6e d7 04 3d
       0.042708766 -0.029578755 0.06486401 0.032432012
0002d0 fe 73 af 3c 9f 2a 6d 3c 07 a6 23 3d 6d dd bc bc
       0.021417614 0.014475494 0.039953258 -0.023054803
0002e0 14 ac 0c 3d 3e 58 9c bc fd 0d f0 3b df 96 97 bb
       0.034343794 -0.019085046 0.0073258863 -0.0046261395
0002f0 b8 32 1d 3c ac 89 1a 3d 94 15 1a 3d a7 97 47 3d
       0.009594612 0.03772895 0.037618235 0.04872861
000300 1e d7 6b 3c 35 20 b0 3c 06 34 42 3b 79 67 9a 3d
       0.01439455 0.021499733 0.002963306 0.07539267
000310 16 23 61 3c e2 24 d4 bc dc 9f 01 bd 44 91 af 3c
       0.013741275 -0.025896493 -0.031646594 0.021431573
000320 f2 7f 5a 3b 38 9c 01 3e 30 3d da 3d db 51 3d 3d
       0.0033340422 0.12657249 0.10656202 0.04622064
000330 d4 b1 92 bc 2c 7b 86 bd 26 2b 98 3d 93 c5 d6 bb
       -0.01790706 -0.06566462 0.07430105 -0.0065543144
000340 1d 29 57 3d 93 a6 f5 bc 5d 3c 31 3d 82 f7 0e 3d
       0.052529443 -0.029986655 0.043270458 0.03490401
000350 54 ac f3 3c 20 1a dc 3c 77 5b d6 3d 3a f4 95 3d
       0.029745258 0.026867926 0.10466664 0.07321973
000360 f4 41 93 3d 07 6d 9e 3c ee 74 86 3d a9 8d b6 3d
       0.07190314 0.019339098 0.06565271 0.08913738
000370 fc 7f 93 3d 05 36 3b 3d 5a e5 bd 3b 86 1d 16 3b
       0.072021455 0.045705814 0.005795163 0.002290578
000380 d0 e7 0c 3d 0b af f0 3c 5a 23 b2 3c 06 0e b5 bc
       0.03440076 0.029380342 0.021745373 -0.022101413
000390 65 16 8c bb 06 ff d8 3d 95 67 d0 3c f9 2e 31 3d
       -0.0042751306 0.10595517 0.025440017 0.043257687
0003a0 3f 8e ab 3d f6 61 84 bd c5 7a e4 3d 6c 03 14 bc
       0.08376741 -0.06463997 0.11156229 -0.009034019
0003b0 85 dd 3c bd f9 7d ea bc 2f f9 16 bc 8c 9c 32 3d
       -0.046109695 -0.028624522 -0.009214683 0.043606326
0003c0 f2 dc 8a bc d2 86 0a 3d 79 39 22 3d a7 59 72 3d
       -0.016951058 0.03381998 0.03960559 0.05916753
0003d0 bc 0d 89 3c a6 32 97 bc 00 8a d8 3c d3 29 82 bc
       0.016730182 -0.018456768 0.026432991 -0.015889084
0003e0 6f 18 c2 3a ae 4d 03 bc 06 37 39 bd b3 ff 1c 3e
       0.0014808307 -0.008014126 -0.04521849 0.15331917
0003f0 fc 40 be bd 3e 5e 9b 3c c4 8d c9 3c 76 dd 6b 3b
       -0.092897385 0.018965837 0.024603732 0.0035990155

model.2.bias f4 [256]
000000 47 59 7d 3d 49 9d 1e 3c e4 6e e4 bb 8c 89 0d bd
       0.06185272 0.009681054 -0.006971227 -0.034555003
000010 22 95 86 3d 11 86 95 3d 61 b4 71 3d 5d 5f a2 3c
       0.065714136 0.07300962 0.059009913 0.019820863
000020 80 c8 7f bd fd 21 ca bc 27 6f c8 3c 26 1c 1e 3d
       -0.06244707 -0.02467441 0.024467064 0.038601063
000030 e4 f7 91 bc 43 70 64 3d 1a 1d 28 3d 42 87 79 3d
       -0.017818399 0.055771124 0.04104338 0.060920008
000040 50 0d bc bc e3 97 e8 bc af 26 d8 bc 0c 12 05 bd
       -0.022955567 -0.028392738 -0.026385633 -0.032487914
000050 6e 5f 17 bd 60 3e 2f ba 91 5b 1c 3c 93 05 65 3d
       -0.036956243 -0.0006685015 0.0095433155 0.05591352
000060 2b 36 b2 bc 0b c5 fb bc ca 60 66 3d 23 53 88 bd
       -0.021754345 -0.030733606 0.05624465 -0.06656482
000070 65 26 06 bd f3 04 11 bd 80 86 ad bc 77 a0 1e ba
       -0.03275146 -0.03540511 -0.021182299 -0.0006051133
000080 ca 52 d8 3b 48 eb 05 bd 96 4f 13 3d 4f 90 f4 bc
       0.006601666 -0.032695085 0.03596457 -0.029853968
000090 9e e5 29 39 ad 98 d8 bc 38 47 95 bc de ea 5c bd
       0.00016202635 -0.026439989 -0.018222436 -0.053934924
0000a0 2a da a5 bb a6 bf cd 3c 85 9a 83 3c 61 93 29 3d
       -0.0050614076 0.0251158 0.016064892 0.041400317
0000b0 46 95 19 bc 5f c3 9e 3c 24 cd 39 bc 55 20 f0 ba
       -0.0093739685 0.01938027 -0.011340413 -0.0018320183
0000c0 8c 2f 14 3d 26 30 19 bd 21 34 64 bd f8 0c 51 bd
       0.036178157 -0.037399434 -0.055713776 -0.05103776
0000d0 c5 35 42 3d ee b3 6a 3d e9 93 63 bc 9c 0f 32 bd
       0.04741456 0.0573005 -0.013890245 -0.043471918
0000e0 f1 11 f8 3b f8 ae 8c 3d 50 9f a7 bc 09 2d 31 3c
       0.007570498 0.0686931 -0.020461708 0.01081396
0000f0 26 90 67 bd b2 5b 89 3c 65 82 4f 3d 8e c3 32 3b
       -0.056533955 0.016767357 0.050661463 0.0027277204
000100 c9 95 f2 bc 4c 2c 28 bd 05 cd 2b 3d 4e 82 6c 3d
       -0.029612439 -0.04105787 0.04194357 0.057741456
000110 45 e0 25 bd a7 6e 08 3d c0 29 1e 3b a0 d1 22 3c
       -0.040497083 0.03330865 0.0024133772 0.009937674
000120 ba 7d 3a bd 6a bd 06 3d b7 ff 09 bd 75 b4 2f 3c
       -0.04553006 0.032895483 -0.033691134 0.010724177
000130 29 41 89 bc a3 f6 11 3d 45 df 70 3d 4f 78 42 3d
       -0.016754704 0.0356356 0.058806676 0.047478016
000140 3d f9 ae bc 6a 12 aa 3c 36 6a 56 3d 90 ba 72 3d
       -0.02135908 0.020760734 0.052347384 0.05925995
000150 f2 bf 5a bd ea 93 7c 3d 3f 26 5e 3d 98 ae 37 3d
       -0.05340571 0.0616645 0.054235693 0.04484424
000160 87 72 69 bc 87 23 3d 3c 5d ab 31 bd e4 9f 24 bc
       -0.014248497 0.011544115 -0.043376315 -0.0100478865
000170 02 bb aa bc 38 9e 58 3d cd b8 8b 3b b8 3b 73 3d
       -0.020841125 0.052885264 0.0042639733 0.059383124
000180 74 0f 40 bc 2e be 81 bb 83 72 4b bc 69 2c 97 bc
       -0.011722434 -0.0039594388 -0.012417438 -0.018453794
000190 d0 48 81 ba 8b 8e 44 3c ca 06 b2 3c f9 77 31 3d
       -0.0009863619 0.0119968755 0.021731753 0.043327305
0001a0 08 30 b6 bc 44 ed 09 3d 7e f7 b3 bc 6f 11 21 3d
       -0.0222397 0.03367354 -0.0219686 0.039323267
0001b0 67 8d 8f bc 2a bc 2e bc bc 17 16 bd 82 ea 5c 3c
       -0.01752348 -0.010664979 -0.03664373 0.013483645
0001c0 18 f7 c5 b9 36 e8 75 3c cd 9b 87 bb 5b ec 6e 3d
       -0.00037758867 0.015008977 -0.004138446 0.058330875
0001d0 a0 11 63 bd 05 31 32 bd d3 1f a6 3a 40 d8 76 bd
       -0.05543673 -0.04350378 0.0012674279 -0.060264826
0001e0 49 8a 4d 3d ab cf 96 bc e2 65 87 3d 10 9b 85 bc
       0.050180707 -0.01840957 0.066112295 -0.016309291
0001f0 8f 83 f2 3b 37 4b a7 bc 67 54 99 bb 70 67 3a bb
       0.007400937 -0.020421607 -0.004679251 -0.0028443001
000200 ec 76 34 bb f5 cb 22 bd 7b bb c8 bc 49 5f 6d bc
       -0.0027536703 -0.03974529 -0.02450346 -0.01448805
000210 65 c7 6c 3d f9 18 4e bd 54 6f 2f 3d c6 81 5d bd
       0.057807345 -0.050316785 0.04283078 -0.05407884
000220 5a 55 54 3c 7f d0 49 bd 9f 2e c0 bb dc ed 3c 3d
       0.0129598025 -0.049271103 -0.0058649327 0.046125278
000230 b9 37 76 3d b9 57 57 bd 73 59 20 3d 71 28 e4 3c
       0.060111735 -0.052573893 0.039147805 0.027851315
000240 1e bd 97 3d c9 29 49 3d ab c0 07 3d af 0f c5 bb
       0.07409118 0.049112115 0.033142727 -0.0060138325
000250 e8 e7 44 bd c5 00 11 bd c2 9f 84 3d 92 10 fd ba
       -0.048072726 -0.035401125 0.06475784 -0.0019307307
000260 20 fb c9 bb ea da 02 bd f8 b9 06 bd a5 d2 72 3d
       -0.0061639696 -0.031947054 -0.032892197 0.059282918
000270 13 06 05 3c 46 6e 88 3d 3d 93 d8 bb 7d fe 3c bd
       0.008119124 0.06661658 -0.006609349 -0.046141136
000280 15 7e 76 3c 3b c6 6a bd a3 93 ff 3c aa 23 3c bd
       0.015044709 -0.057317954 0.031198328 -0.04593245
000290 d5 b1 2e 3d 0d bd 51 bd 6f bd 13 3c c5 c7 0c 3d
       0.042650063 -0.051205683 0.009017332 0.034370203
0002a0 94 7d 06 3d a5 23 08 3d 13 0c 65 3d ab 09 4f 3d
       0.032834604 0.03323712 0.055919718 0.05054633
0002b0 b3 df f7 3b 92 7c b8 bc 81 24 f3 bc 8d 44 16 3d
       0.007564509 -0.022520337 -0.029680492 0.03668647
0002c0 4e b3 a1 3c 79 6e 35 bc 60 7b 76 bd ec e6 ef bb
       0.01973882 -0.011073702 -0.060176253 -0.007321229
0002d0 f0 26 cc bc 8e 28 6b 3d 9e 40 11 bc 54 78 0f bd
       -0.02492091 0.057411723 -0.008865504 -0.035026863
0002e0 3b 14 f1 3b f0 f3 c0 bc 11 1b 2a 3d 26 67 07 bd
       0.007357148 -0.023553818 0.04152972 -0.033057354
0002f0 68 bf 67 3d b4 77 b8 3c df b6 f3 bc 72 65 34 3d
       0.056579024 0.022518016 -0.029750286 0.04404206
000300 10 2b 19 bd 34 02 49 3d 23 e2 78 bd 49 cc 48 bc
       -0.037394583 0.049074367 -0.060762536 -0.012255737
000310 f7 34 bc 3c 6a 0f 4f 3d 3a 49 f5 3b 7b 1e 72 3d
       0.022974474 0.05055181 0.007485536 0.0591111
000320 e2 f7 52 3d a3 36 b7 3c 1a 71 03 3d 83 e2 14 3d
       0.05150593 0.02236492 0.032090284 0.03634883
000330 d4 65 e5 3b eb 80 87 bd b4 ec 8e ba 88 bb 49 bd
       0.0070006642 -0.06616386 -0.0010904283 -0.04925111
000340 fd 92 bc 3c 55 1b 54 bd 01 30 19 bc 8a 99 d1 bc
       0.023019308 -0.05178388 -0.009349824 -0.025585908
000350 7b e4 66 3d 4d 97 75 3c 22 d9 e6 3b 56 1f 25 3d
       0.05637024 0.014989686 0.007044927 0.040313087
000360 fe a6 61 3d 88 bc b8 bc 8c 31 d3 3c 4f 18 fe bc
       0.055090897 -0.022550836 0.025780462 -0.03101745
000370 66 99 6a 3d 44 05 50 bc f9 53 37 3d 32 3e f5 3c
       0.0572752 -0.012696568 0.044757817 0.029936884
000380 f1 ff d4 bb 87 49 69 bd 52 88 95 3d 02 4c 09 bd
       -0.006500237 -0.056954887 0.07301392 -0.033519752
000390 5c 20 d4 3c 1e 5e 24 3c e5 20 1e bd c7 06 50 bc
       0.025894336 0.010032205 -0.03860559 -0.012696928
0003a0 26 10 1d 3d 61 69 09 3d c5 b8 e1 bc d8 87 4f 3c
       0.03834548 0.033547763 -0.027553925 0.012666665
0003b0 24 ad 84 bb 86 30 89 3d 9f 15 b4 3a f4 86 04 bc
       -0.0040489603 0.06698708 0.0013739354 -0.008088816
0003c0 62 b9 fe bc c5 03 9f bc d3 4c 9d bc 36 05 9d 3c
       -0.031094257 -0.019410977 -0.019201672 0.019167524
0003d0 6c b9 c9 3c 24 bd 28 3d aa 76 53 bd 89 a8 3a bc
       0.024624549 0.041196004 -0.05162684 -0.011392721
0003e0 62 59 12 3d 08 64 98 bc a5 54 7e bc ff 22 47 bd
       0.035729773 -0.018602386 -0.0155231105 -0.04861736
0003f0 6c a6 0f bc e8 67 f5 bc 46 87 e6 3b ac 0e 25 bd
       -0.008767705 -0.029956773 0.007035169 -0.040297195

model.4.weight f4 [256, 256]
000000 72 a3 2a bd 8b 31 33 3d da 48 64 be 4a 71 66 3d
       -0.04165978 0.04374842 -0.22293416 0.056260385
000010 9a 5e 0a 3c 23 4e a0 bd 54 70 53 be e1 54 5a 3a
       0.008445406 -0.078274034 -0.20648319 0.0008328688
000020 4e d9 19 3d b7 b5 28 bd 94 f0 00 3d 1d 01 87 3d
       0.037560754 -0.04118892 0.031479433 0.06592009
000030 20 62 a2 bd b6 c6 00 bc fb b2 2a bd d9 18 23 bd
       -0.07928872 -0.007859876 -0.041674595 -0.03981862
000040 80 1b ce bd ca fe 63 bd 9e af af bc c3 30 bb bd
       -0.10063839 -0.055662908 -0.021446045 -0.0914016
000050 c1 c5 9d bc 18 97 00 3d 17 82 34 3c 75 a5 83 bd
       -0.019259335 0.031394094 0.011017344 -0.06428043
000060 f4 af e5 bc fb db 31 3d 7f e3 5b bd 3d 19 e6 3c
       -0.028038003 0.04342268 -0.053683754 0.028088206
000070 2b 43 ae bd 08 90 1e 3d 9f f1 7e be 0d f3 9c 3c
       -0.08508905 0.038711578 -0.24896859 0.019158864
000080 7b 6d 53 be b6 55 cf bc 6e a9 64 3d 57 0d 10 bd
       -0.20647232 -0.025309425 0.055825643 -0.035168972
000090 a8 68 93 3d c1 a9 da bc ff 74 00 bd 12 1f 1a 3d
       0.07197696 -0.026692273 -0.031361576 0.037627287
0000a0 d5 1a 25 bd 9c fe fe bd 62 c0 84 bd a2 ac a5 bd
       -0.040308792 -0.12450907 -0.064820066 -0.08089568
0000b0 5d 34 48 be 75 a3 87 be b8 57 e5 bd 3c 58 b6 3d
       -0.19551225 -0.26491895 -0.11198372 0.08903548
0000c0 bd d0 aa 3d aa ff d6 3b 1b 47 a5 3d f3 08 cb 3d
       0.08340595 0.0065612393 0.08070203 0.09913816
0000d0 dd d4 10 3d d0 fd 2c bd 91 d2 ec 3d 35 a5 21 3d
       0.035359252 -0.042234242 0.115636 0.039464194
0000e0 b0 3e 7f bd 23 d5 81 3d d1 f5 f7 bd 7d 44 51 3c
       -0.062315643 0.06339481 -0.12107433 0.012772677
0000f0 61 a4 55 3d 39 b0 61 bd 0f 7c c8 bc 85 1e 90 3c
       0.052158717 -0.0550997 -0.024473218 0.017592678
000100 ff b7 92 bc 26 3a 53 bd 50 d8 de 3a 61 cd 0f bd
       -0.017910002 -0.051569127 0.0017001722 -0.035107974
000110 8d 12 1e 3c b3 e7 35 3d 12 2f 3e be 4b 9e f2 3b
       0.009647978 0.04441042 -0.18572643 0.007404124
000120 c6 e7 e4 bd ca 4a d8 3b 2f 38 86 3d 3e 4e 0a bc
       -0.1117702 0.0066007124 0.06553685 -0.008441506
000130 ca ea 96 bc 76 5f 8f 3d f0 e1 f5 bc c0 48 86 bb
       -0.018422503 0.070006296 -0.030014962 -0.004098028
000140 70 62 a5 3d c8 70 22 3e d1 d7 00 3c d8 fe e1 bd
       0.08075416 0.15863335 0.007863955 -0.11034936
000150 59 2c 41 be 8d ed 77 3c 41 8e dd 3c b0 6f 31 bc
       -0.18864574 0.01513232 0.027045371 -0.010829851
000160 26 c3 1d 3c 58 71 47 3e 71 a4 72 bd 7e a7 87 3d
       0.009629047 0.19476831 -0.059238855 0.066237435
000170 ea 80 a6 3c 15 47 d6 3d 31 39 60 bd ef 4b 91 bd
       0.020325143 0.104627766 -0.054742042 -0.07094561
000180 ee 26 81 bd 25 10 40 bd 1f 6f 97 bd ff a4 d4 3c
       -0.063062534 -0.046890397 -0.073942415 0.025957583
000190 04 96 20 be 4a 0d 30 be 91 7b 8b 3d 43 d3 21 be
       -0.15682226 -0.1719257 0.06810678 -0.15803246
0001a0 e5 06 45 3d 21 ab 65 bd 1f 5e 65 3d 37 dc 68 bc
       0.04810228 -0.056071404 0.055997964 -0.01421266
0001b0 48 d4 32 3e 9a 3d 51 3e b0 d1 96 3d 4f 67 a8 bc
       0.17463791 0.20433655 0.073642135 -0.020557074
0001c0 0d 60 4f 3d c8 be 3f 3d 3e 1d 5d 3d c6 66 92 bc
       0.05062871 0.046812803 0.053982966 -0.017871272
0001d0 b7 70 92 3d ed 3f b4 3d 54 77 76 bd f4 54 37 3d
       0.07150405 0.088012554 -0.060172394 0.044758752
0001e0 be 2c 80 3d 9e 5a 14 be 13 06 1f 3b a0 13 c6 3d
       0.06258534 -0.14487693 0.0024265095 0.09671712
0001f0 14 8e 9c 3c 8c 88 4f be 53 31 09 3d 2a 99 3d be
       0.019110717 -0.20266932 0.033494305 -0.18515459
000200 8e 52 de bc f1 06 3f be 8b 94 1b bd d3 55 bb bd
       -0.027138975 -0.18654992 -0.03798346 -0.09147229
000210 57 a8 3b bc bd 78 64 3d cc 00 39 bd c9 be 32 3d
       -0.01145371 0.055779207 -0.045166776 0.04363898
000220 5f a8 01 3d eb 4d b5 3c 76 fe 2c bc 51 2f 92 bd
       0.03165471 0.02213188 -0.010558715 -0.07137931
000230 53 61 44 bd 84 ad 11 3e 60 70 24 3d b4 a2 0b be
       -0.047944378 0.14226347 0.04014623 -0.13636285
000240 82 85 9d 3b 33 ec d4 3c d8 e0 82 3c c9 b6 9f 3c
       0.004807175 0.025991535 0.015976354 0.019496338
000250 ea 2a 82 bd 79 ba 7a 3d 71 9b 86 bd cc e6 9e 3c
       -0.063558415 0.06121299 -0.06572617 0.019397162
000260 cb 16 81 3d 78 f0 74 3d 33 32 3b bd a8 b2 55 3d
       0.063031755 0.05979964 -0.04570217 0.052172333
000270 e0 46 d5 bc 38 71 2d bd e1 ea 8c bc 80 06 36 be
       -0.026034772 -0.042344302 -0.017201843 -0.17775917
000280 1d 8e b2 3b e7 44 18 3d bb 2c 78 bc ef 3a f5 bc
       0.00544907 0.037175085 -0.015147383 -0.029935328
000290 cb f1 9f bd 54 6b 27 3d f3 2a 76 bd 3e 98 c4 bb
       -0.0780979 0.04087384 -0.060099553 -0.005999594
0002a0 34 ef 17 bc 46 95 c3 bd 6c 9d 05 bd 5f ee a7 3d
       -0.009273339 -0.09549956 -0.032620832 0.081997626
0002b0 f2 ac 5f bc a4 a4 8d 3c 86 65 41 bd 51 ec bb 3c
       -0.013652073 0.01729042 -0.04721596 0.022939833
0002c0 53 7f ce bc 73 5e 89 b9 6b c6 b5 bc 14 ea 59 3b
       -0.025207197 -0.00026201046 -0.02218934 0.0033251094
0002d0 8b 58 8b be 99 62 df bd 7a 24 87 3d b3 1a cf bd
       -0.2721599 -0.10907478 0.06598754 -0.10112514
0002e0 29 d0 64 bc 68 aa 62 be ce 8a cb bc 2b 61 3b 3c
       -0.013965645 -0.22135317 -0.02484646 0.011436741
0002f0 db a3 bb 3d df 43 84 bd 7e 49 66 3e 78 e9 14 3d
       0.09162112 -0.06458258 0.22488973 0.036355466
000300 b2 f0 84 3c e0 fb b2 bc df c5 a7 3d 6a c6 ac bc
       0.016228054 -0.021848619 0.08192038 -0.021090705
000310 97 c5 41 bc df fb 5f 3c b3 b7 b1 3c fd b1 c3 bd
       -0.011826894 0.013670891 0.02169404 -0.09555433
000320 e3 ed 07 bd 3b 62 68 3d 03 12 d0 bd fe 9c 8c 3c
       -0.03318585 0.056734305 -0.101596855 0.017164703
000330 b9 c4 14 be 28 15 19 3d cf 33 55 3d 29 f8 ec 3c
       -0.14528169 0.03737369 0.05205136 0.028926926
000340 a3 ce 85 bd 73 7b 4b 3b 53 c0 d7 bd 6b 25 12 3d
       -0.065335535 0.0031048923 -0.1053473 0.035680216
000350 2f d7 03 bc d8 4e 6a 3d 28 ca 12 3e c8 64 b2 3d
       -0.008046909 0.057204098 0.14334929 0.08710629
000360 c3 e5 a8 bc e1 25 8e 3d e4 b3 b0 3b 94 52 e2 bd
       -0.020617371 0.069408186 0.0053925384 -0.11050907
000370 30 39 e5 3c a6 af 66 3c 3a 32 05 be 34 71 12 3d
       0.02798137 0.014079964 -0.13007441 0.03575249
000380 19 16 dd bd e7 1b 78 3d a1 9d a0 bd f6 15 ff bd
       -0.107952304 0.060573485 -0.07842565 -0.124553606
000390 3d 39 9c bc 33 bd 4d 3d 7d eb b3 bc cb e5 0f be
       -0.019070262 0.050229263 -0.021962876 -0.14052503
0003a0 d6 a4 05 3c 96 9b 67 3c fb 8d ff bd 2c 4e 0e 3e
       0.008156976 0.014136216 -0.124782525 0.13897008
0003b0 bb 2b ed bd 72 a0 d9 bd ba a3 26 3d 43 20 30 3d
       -0.115806065 -0.10626306 0.040683486 0.042999517
0003c0 8b 62 ec bd 68 97 ab bd 5c a8 8c be f4 23 52 b9
       -0.11542233 -0.08378488 -0.27472198 -0.00020040554
0003d0 76 58 8e bc 4e 30 9f bd 3e 07 ec 3c 4f 72 ec bd
       -0.017376166 -0.07772885 0.028812047 -0.1154524
0003e0 ec 77 2d bd 24 bb 8b 3b e0 14 ca bc ce 5c 5d 3c
       -0.042350695 0.0042642523 -0.024668157 0.013510896
0003f0 f0 1a 01 bd e3 03 55 3d 04 9d 35 3c f9 ba 80 bb
       -0.03151983 0.05200566 0.011084799 -0.003928539

model.4.bias f4 [256]
000000 a6 a6 10 3d d6 01 40 bd 2e 1c 8c 3c c0 f7 da 3c
       0.03531518 -0.04687675 0.01710328 0.026729465
000010 3d a1 fb 3c a3 24 ae bc 4d 65 0b bd 95 b5 2c bd
       0.030716533 -0.021257704 -0.034032155 -0.042165358
000020 da e9 78 bd c0 fe 9d 3b 87 6f d1 bc 30 bb 2f 3d
       -0.060769893 0.0048216283 -0.025565876 0.042903125
000030 e8 df 56 3d a3 77 22 bc 5b 0a 94 bb 6d 03 54 bd
       0.052459627 -0.009916219 -0.004517836 -0.05176108
000040 57 0e 4e bd eb dc 01 3c 92 cf 6d bd c1 4c 68 bd
       -0.050306644 0.007926206 -0.058059283 -0.056713823
000050 e2 89 10 3c 79 73 2a 3c 35 00 8a 3c e6 74 a1 3c
       0.008821936 0.010403507 0.016845802 0.019709062
000060 4e 05 26 3d f6 6b fc 3c 5a f6 4d bd ad 50 8a 3d
       0.040532403 0.030813199 -0.050283767 0.06753669
000070 64 26 19 3a bd 45 16 3d 54 c7 0a bd 05 2d 61 3d
       0.00058422075 0.0366876 -0.0338815 0.054974575
000080 ef ed 2b 3d 9c c5 b9 bc b0 18 8a b9 ca 3a 5d ba
       0.041974958 -0.022677235 -0.00026339805 -0.0008439241
000090 71 42 e0 3c 3e a4 2a 3d e7 c0 80 bc 8d 22 4f 3d
       0.027375432 0.04166054 -0.015716983 0.05057006
0000a0 26 ce b2 3c ec 37 11 bd 1a 86 85 3d 6c 16 28 3d
       0.021826815 -0.035453722 0.065197185 0.04103701
0000b0 20 75 9e 3a ef b1 a2 3c b7 09 9d bc aa 62 4b 3b
       0.0012089349 0.019860236 -0.019169671 0.003103415
0000c0 32 72 fc 3b 77 6a f6 bb d7 57 55 bd 5f c9 0e 3d
       0.007704043 -0.007520016 -0.052085724 0.03486001
0000d0 b8 71 e6 bc da d3 44 bd e7 1f 64 bd 75 42 4b bd
       -0.028130397 -0.0480536 -0.055694487 -0.049623925
0000e0 19 a2 c9 3c d7 31 24 3c 31 64 2f 3c 54 45 56 3d
       0.024613427 0.010021648 0.01070504 0.05231221
0000f0 d1 e9 17 bc 6a c3 55 3d 84 14 49 3d 39 53 fc 3c
       -0.009272055 0.052188314 0.04909183 0.030801402
000100 38 21 36 bd fb 59 f6 3b a3 a1 e4 3b 89 33 ef 3b
       -0.044465274 0.0075180507 0.0069772764 0.0072998446
000110 b2 0b 77 3d 39 49 42 bd 1b d2 4a 3d d8 2d 94 bc
       0.060313888 -0.04743311 0.04951678 -0.018088266
000120 b8 96 d9 bc 60 6d 05 3d 90 a0 43 3d 24 ba a1 bc
       -0.026561126 0.03257501 0.047760546 -0.01974208
000130 1a 6f 06 3d b9 f4 64 bd 3b bc 3a 3b 7b c7 29 3d
       0.0328208 -0.05589745 0.0028493542 0.041450005
000140 b9 a8 85 3b 96 4c 6b bd cc b8 d1 ba 9f 7e 21 bd
       0.004078951 -0.057446085 -0.0016000508 -0.039427396
000150 92 ac dd 3c eb 92 74 3c 31 a4 7f bd 4b 1d 28 bd
       0.027059827 0.014927606 -0.062412445 -0.04104356
000160 1a 94 6f bc 1a f3 05 bd 30 db 12 bd a7 31 98 3b
       -0.0146227125 -0.032702543 -0.035853565 0.004644591
000170 97 9a 15 3d b6 da 1b 3d d8 97 dc bc 32 49 8a bc
       0.03652438 0.038050376 -0.026927873 -0.016880605
000180 b4 56 7a 3d d4 6e 12 3d c2 10 83 bc 12 d0 7a 3d
       0.061117843 0.035750225 -0.015999202 0.061233588
000190 ce 3f b1 bc d5 f6 5c 3d 3c df 6d bd 11 4b 83 bc
       -0.02163687 0.053946335 -0.05807422 -0.016027005
0001a0 38 87 23 bd 69 ed 62 3d 29 bf 9d 3c a5 ad 80 bc
       -0.039923877 0.055402193 0.019256191 -0.0157078
0001b0 ca f3 27 bd 79 52 2b 3d b8 08 87 bc 43 23 0b bd
       -0.04100398 0.0418267 -0.01648365 -0.033969175
0001c0 58 50 5f bd c9 5a 11 bd c2 04 0a 3d 1a e7 eb bb
       -0.05451998 -0.03548697 0.033695944 -0.0071991803
0001d0 d1 eb 72 bd 9c f5 8c 3c 0d c7 b1 3c ab be 61 bc
       -0.059306923 0.01720696 0.02170136 -0.013778369
0001e0 71 c7 a9 bc d2 8d 5b bc 03 fe 80 bc d4 08 d8 bc
       -0.020724984 -0.013400512 -0.015746122 -0.026371397
0001f0 40 01 3a bb 66 72 3f 3d f7 04 c8 bb 7a 67 23 3d
       -0.0028382093 0.04673996 -0.0061041075 0.039893605
000200 f1 aa 60 bc a4 da 8b 3c 49 96 f5 3c 9c 91 3f bc
       -0.013712631 0.01707203 0.029978888 -0.011692431
000210 db b1 fe 3c 52 ce 14 3c 8e d3 da 3b 73 92 82 bc
       0.031090667 0.009082394 0.0066780513 -0.015938973
000220 b4 c5 8a 3d c2 b5 ee bc 07 5c 81 bc be 99 32 bd
       0.0677599 -0.029139403 -0.015790952 -0.04360365
000230 fd f5 ec 3b 28 b9 90 3c 9a cd 66 bc 50 7e 50 bd
       0.0072314725 0.017666414 -0.014087105 -0.05090171
000240 61 05 6c bd ff 88 10 bd b1 be 5a 3d c5 e3 a7 bb
       -0.057622317 -0.0352869 0.053404514 -0.005123588
000250 ad 05 f4 3c 11 f0 a5 bc 67 3c f7 3a 7f 6d ac bb
       0.029787863 -0.020256074 0.0018862606 -0.0052620764
000260 71 a4 4c bc 62 23 02 bc 78 cb 7e bd 03 97 b6 3c
       -0.012490378 -0.007943006 -0.06220576 0.022288805
000270 29 b3 79 bd de 59 22 3d 63 35 eb 3c 67 1a 9c bc
       -0.060961876 0.039636485 0.02871198 -0.019055558
000280 db df ad bc 6e 8c 11 3d 61 0a 41 3d ec f7 5d bc
       -0.021224907 0.035534315 0.04712904 -0.013547879
000290 49 08 21 bd 6a c8 8a 3d 19 b6 fa 3c eb 60 8e 3d
       -0.039314542 0.06776507 0.030604409 0.069520794
0002a0 27 ab 5e bc 1d 56 29 3c 6d 3f 43 bd e5 36 31 3d
       -0.013590611 0.010335472 -0.04766791 0.043265242
0002b0 68 ed 88 3c bf 03 86 3b 5d 3c 2a 3d 50 c0 97 3c
       0.016714767 0.004089802 0.041561473 0.018524319
0002c0 9d 36 3a bd a5 0e 34 3d 03 0d 4d 3d 4d 30 40 bd
       -0.04546224 0.04395928 0.050061237 -0.046921063
0002d0 7f 47 bc 3c 8c cf 03 bc c1 ac 85 3c bf 19 5d bd
       0.02298331 -0.0080450885 0.016317727 -0.05397963
0002e0 bc df 8f bc 0d 1f 57 bd f7 9c 14 bd 5b f4 09 bd
       -0.01756274 -0.052519847 -0.036282506 -0.0336803
0002f0 74 96 65 3c 09 a2 b9 bb e0 79 33 bc 95 4f 67 bd
       0.014012922 -0.005665068 -0.01095435 -0.05647238
000300 ae 16 f9 3c c4 08 f5 3b c3 2c a0 3c 18 c7 21 bd
       0.030406322 0.0074778516 0.019552594 -0.03949651
000310 39 96 89 3d 51 56 6a 3d cf 36 ff 3c 2b 98 97 bc
       0.06718106 0.057211224 0.031154064 -0.018505177
000320 a7 73 e0 3c 9e 40 77 3c eb f4 da 3c 89 97 a9 bc
       0.027398897 0.0150910895 0.026728114 -0.02070214
000330 20 85 04 bc 52 80 35 bd f1 cb ec bc 47 bb 9a bc
       -0.00808838 -0.04431183 -0.02890584 -0.018888129
000340 4f 9c 09 bd 9f 05 fb bb be 66 35 3d 69 68 84 bc
       -0.033596333 -0.007660582 0.044287436 -0.016163068
000350 e2 f5 99 3c 97 69 06 bb 51 3b ae bc 43 bf 9d 3c
       0.018794004 -0.0020509714 -0.021268519 0.01925624
000360 bb 9f 57 bd 16 9c 79 bd 23 e6 04 bd bc 70 51 3d
       -0.052642565 -0.06093987 -0.032446038 0.051132903
000370 0e ce 1e bc a2 4c 24 bd 4b 52 7e 3d bc 25 d9 3c
       -0.009692682 -0.040112145 0.0620902 0.026507251
000380 00 86 02 3d 02 90 a6 bb 13 79 23 bd 12 b1 1e 3c
       0.031866074 -0.005083085 -0.039910387 0.009685772
000390 c5 99 a5 bc 4c 3d 43 3d 98 82 a0 bc 8e e9 ab bc
       -0.020214925 0.04766588 -0.019593522 -0.020985391
0003a0 94 ef c0 bc 36 c0 12 3d f4 a6 08 bc 62 0d fd bb
       -0.02355174 0.035827838 -0.008340586 -0.0077225426
0003b0 18 db 55 bd 47 9f 06 bd ab 02 ce 3c 3b f9 f3 3c
       -0.052210897 -0.032866742 0.025147757 0.029781928
0003c0 79 7c 56 3c fe 75 c5 bb 30 f6 40 bc 3c be 81 3c
       0.0130912 -0.0060260287 -0.011777446 0.015837781
0003d0 26 c3 62 3d e3 e3 4b bd ef ee 79 bc 0b 40 80 bd
       0.05536189 -0.049777877 -0.01525472 -0.06262215
0003e0 e5 6c a7 bb 7b 36 8d 3c 1c b0 30 3d 5a 51 93 3c
       -0.005109417 0.017237892 0.0431367 0.017983127
0003f0 e8 3b f7 3b 94 6d fa bc a7 78 7f 3d e5 21 34 bd
       0.007544983 -0.030569829 0.062370922 -0.043977637

model.6.weight f4 [1, 256]
000000 75 7f 84 be a4 c2 3c bc 97 f3 65 bd 58 fa b8 3d
       -0.25878492 -0.011521015 -0.05614051 0.09032124
000010 83 15 25 bd 33 26 a7 3d 72 5d 58 bd f4 df 89 3d
       -0.04030372 0.08161583 -0.05282349 0.06732169
000020 20 bb 4b bd 9e 23 b5 3b 88 ed 31 bc aa e0 30 3d
       -0.049739003 0.0055279275 -0.0108598545 0.043183006
000030 90 26 d3 3c 0e 1c 40 bd 14 cf 25 3d 53 4f 7a be
       0.025775224 -0.046901755 0.04048069 -0.24444322
000040 24 0e 75 bd 51 9c 67 bd 77 fa 97 3e ef ea db bc
       -0.05982794 -0.05654556 0.29683277 -0.026845424
000050 6e c8 af 3d 93 0b 2f bd 0a 9e 4b 3d a9 f7 8b bc
       0.08583151 -0.042735647 0.049711265 -0.017085867
000060 48 14 bf 3d 77 11 66 bd 82 f1 a7 3d 7e 3b 20 3d
       0.0933004 -0.056169 0.08200361 0.039119236
000070 6b bc 87 3e 53 12 6c 3d a8 9d 95 3e f0 32 2f bc
       0.2651094 0.057634663 0.29221845 -0.010693297
000080 be 6b 6d 3d a1 2f 4d 3d de 88 3d 3d 6c 83 0e 3d
       0.05796408 0.05009425 0.046273105 0.034793302
000090 5a ea 40 3d e5 28 3b bd 8f 9e 34 bc 62 b7 c0 bc
       0.047098495 -0.045693297 -0.011024131 -0.023524944
0000a0 a3 42 71 3d 7c ac 05 bd 55 27 a0 3d 9b 5c 72 bd
       0.05890144 -0.032635197 0.07820002 -0.059170347
0000b0 88 74 16 bc 95 42 8c 3d d8 30 42 bd a5 7e c5 ba
       -0.009183057 0.06848637 -0.047409862 -0.001506765
0000c0 a1 11 09 bd dc b1 1e be 79 82 85 3c b3 76 27 bd
       -0.033464078 -0.15497535 0.016297566 -0.040884685
0000d0 9d cc 6f be 00 7e 87 bd a1 ea 91 3c 64 5f 5a bd
       -0.23417898 -0.066158295 0.017812075 -0.053313628
0000e0 a5 7f b4 bb 51 19 39 be 2e 51 cb bc 22 ac 70 bd
       -0.0055083805 -0.18076064 -0.024818983 -0.05875791
0000f0 52 b4 36 bd 2d 5f 88 3d 0b c3 e2 bc 13 18 0c bd
       -0.04460556 0.06658778 -0.027680894 -0.034202646
000100 0e ec a1 3e ff 46 01 3d 5b 12 76 bd bb 9b 67 bd
       0.31625408 0.031561848 -0.0600761 -0.056545
000110 c0 0f c0 3d f9 7f 8a 3d 12 29 38 3d 79 ce 9b bd
       0.09378004 0.0676269 0.044961043 -0.07607741
000120 12 2e 8f 3e 40 ca 63 3d 89 38 56 bd 3f bf e5 bc
       0.27964836 0.055612803 -0.05230001 -0.028045295
000130 a8 5c 8c bc e4 05 9d 3e 34 67 67 bc 9a b2 50 3d
       -0.017134026 0.30668557 -0.014123727 0.050951578
000140 bf a9 00 bd b4 9f 62 3d 82 92 4a bd 6f a5 99 3d
       -0.031411882 0.055328086 -0.049456127 0.07502257
000150 a6 71 b8 3d 93 53 4b 3d 22 90 34 3d e9 98 57 3d
       0.09006052 0.04964025 0.04408277 0.05263606
000160 1e 59 8f 3d 1b 24 9d 3d 5d 49 f9 3c 66 76 dc bc
       0.0699942 0.07672902 0.03043049 -0.026911926
000170 07 37 42 3d ae 80 77 bd 8a 92 a6 3d 4f 7f b6 3d
       0.04741576 -0.060425453 0.08133419 0.08911001
000180 b2 fa 5c 3d 5f f1 84 bd c5 c4 79 bc 50 a7 5e 3c
       0.05395002 -0.064913504 -0.015244667 0.013589695
000190 7f 78 96 3c ff bd 0c bd 8e cf f2 bc b7 52 42 bc
       0.018368004 -0.034360882 -0.029639985 -0.011860541
0001a0 47 24 62 bd 2b 8f 64 bc b2 2e 2c bd 9f 52 4a ba
       -0.055210378 -0.0139501495 -0.04203672 -0.0007718
0001b0 04 29 a2 bc 56 6e 64 be 1a 08 c5 bd 35 a6 11 bd
       -0.019794948 -0.22307715 -0.09620686 -0.035558898
0001c0 5b 34 77 bd af 2c 18 3d 47 b3 a7 bc 18 5e a6 bd
       -0.060352664 0.03715199 -0.020471228 -0.08123416
0001d0 14 fd 1b bd 49 4f 63 bd 2e 9a 37 bd 46 ff c3 bc
       -0.03808315 -0.055495534 -0.04482477 -0.023925435
0001e0 35 ba 39 3d 23 83 b6 bc cc ac 9c bc cc 67 f3 3d
       0.045343596 -0.022279328 -0.019125365 0.11885032
0001f0 23 95 0e bd 71 eb 8d 3d 3b 85 54 be 4c 38 65 bc
       -0.034810197 0.069296725 -0.20753948 -0.013990473
000200 37 ce c4 3c 5e ee 4d bd 6f a4 90 3d b7 81 16 be
       0.024024112 -0.050276153 0.07062613 -0.1469792
000210 14 26 f4 bc a9 c3 4e 3d 29 96 10 bd c7 bd 7e bb
       -0.029803313 0.050479565 -0.035299454 -0.003887044
000220 1a bc 53 3d cc 1f a0 3d ba 40 2f bd fb a7 82 3d
       0.05169306 0.07818565 -0.042786337 0.06379696
000230 ca bc e7 bc 02 69 79 bc 0a 96 21 bd d9 06 84 3e
       -0.028288264 -0.01522279 -0.03944973 0.25786474
000240 f6 24 42 3e 6e da 8c be 0e e8 3c bd 40 85 3d 3c
       0.18959412 -0.275104 -0.046119742 0.011567414
000250 7f d8 12 bd 71 03 6f bd e9 57 d9 bc e2 05 70 bd
       -0.035850998 -0.05835289 -0.026531177 -0.05859936
000260 c3 f5 5e bd e5 a3 34 3e 09 19 b9 bb 4c e4 3e 3c
       -0.054433595 0.17640646 -0.0056487364 0.01165111
000270 2e 7d 93 bc c4 7e 4c bc a4 8a 8f 3d ce 5a 8a 3e
       -0.018004026 -0.012481395 0.070088655 0.27022403
000280 2b 23 74 3d 06 ef be bc 9b ad 98 3d e6 a6 29 bd
       0.05960385 -0.023307335 0.074549876 -0.041418932
000290 42 90 db bd 4b a4 a5 3d 19 54 f3 bb 14 d2 92 3d
       -0.10720874 0.08087977 -0.0074257967 0.071689755
0002a0 1b c4 d1 bc 45 8b 1c bd a7 87 9d bc 6e 5e 8b 3d
       -0.025606206 -0.038218755 -0.019229723 0.068051204
0002b0 e9 a0 77 bd 7d f3 75 bc 22 8f 96 3d d8 3a c9 3d
       -0.06045619 -0.015011665 0.07351519 0.09825677
0002c0 6e 32 c9 3d 1d 31 42 bd 0e ab 74 3d 8f 33 5b 3d
       0.09824072 -0.04741012 0.059733443 0.053515967
0002d0 1e 51 d6 3d c7 cc 6d 3d 70 2a 9f 3d 74 a9 1d bd
       0.104646906 0.05805662 0.07771766 -0.03849168
0002e0 bb e9 96 3c 7b 14 aa 3d 4b 48 ad 3d 73 4e 89 bd
       0.018421998 0.083046876 0.084610544 -0.06704416
0002f0 61 52 33 3d f2 2a b2 3c c1 51 23 bd a4 8a 04 bd
       0.043779735 0.021748994 -0.03987289 -0.03235878
000300 31 15 80 bd f4 3f f1 3d a5 f6 8f 3d a3 e8 6b 3d
       -0.06254042 0.11779776 0.070294656 0.057594907
000310 53 f2 b5 3d c1 99 53 3d 30 58 88 3d 08 5f 85 3d
       0.0888411 0.051660303 0.066574454 0.065122664
000320 3e 44 3b 3d bd e9 77 bd 13 70 a2 bc 41 47 b2 3d
       0.045719378 -0.060525645 -0.019828832 0.08704997
000330 1a f4 4c bd 39 7e bc bc ff 5d b5 3d a5 b2 9d bc
       -0.05003748 -0.023009406 0.08855819 -0.019250223
000340 fc ad 3e bc aa 1f 0b 3d ee 80 41 be 4f 4a 77 bd
       -0.011638161 0.033965744 -0.18896839 -0.0603736
000350 ed 58 05 bc fa 2b dd bc fd c4 11 bd 38 19 91 bc
       -0.008138877 -0.026998509 -0.035588253 -0.01771222
000360 8e 1e 0c be cf 8f 4f bd 99 72 60 bd 5e d9 9a 3d
       -0.1368353 -0.050674256 -0.05479679 0.07560991
000370 61 20 c0 3d ac f3 73 be 9a 9d 66 3d 34 b6 0f bd
       0.09381176 -0.23823422 0.056302644 -0.03508587
000380 d9 db 2a 3d 28 e9 55 3e 1f 23 ad bc 4e 1a 96 3d
       0.04171357 0.20889723 -0.021134911 0.07329236
000390 c0 5c 6e be c5 3d 15 3d b9 29 98 3c d4 46 58 be
       -0.23277569 0.03643586 0.018574582 -0.21120769
0003a0 c3 f0 01 3c 0c 6c 6d b9 79 4c 01 bd 14 6b c6 bc
       0.007930937 -0.00022642332 -0.03156707 -0.02422098
0003b0 38 6a ce 3d f1 03 50 bd cb c1 7b 3d 11 37 5c bd
       0.10078853 -0.05078501 0.061464112 -0.053763453
0003c0 99 a8 5b be a8 7a 5c 3d de 5e 61 bc b2 ac 6d bd
       -0.21451034 0.05382791 -0.013755528 -0.058026023
0003d0 db 6b 1b bd 7d 0d 8f 3d 40 17 a7 bc 90 ae 33 bd
       -0.037944656 0.069849946 -0.020396829 -0.043867648
0003e0 a3 1f 95 3d e7 a6 d2 bc 9e 52 6a bc bb 36 b4 3d
       0.07281425 -0.02571435 -0.014301924 0.087995015
0003f0 2f 57 4c bd 09 06 a8 3d aa 70 5b 3d 1c ad a4 3d
       -0.049887832 0.08204276 0.05357424 0.080408305
