data/checkpoints/rlgym-ppo-run-1760456897712836600/14705198/PPO_POLICY.pt (torch, 638775 bytes, 8 tensors)

model.0.weight f4 [256, 89]
00000000: e2be d2bd 755e c3bb 27d0 6ebd c62f cb3c
00000010: fec0 c1bd b3d5 4a3d 7202 73bd 742c 13be
00000020: 0c3c 1dbd 1103 443d 4da7 ddbc f2d6 6f3d
00000030: d11e cdbd 6c47 92bd bd8d babc fd1f 89bc
00000040: 13c8 a9bd f5e5 8b3d 54f5 f1bc 77df f43c
00000050: e1a9 923d 08db 8b3c 01f0 e23c fcfd c93d
00000060: e540 47bd d4e8 f53c 522a 55bd 6de1 923d
00000070: 04f9 a73d 4d5b d1bd 0c5a b63d 6b57 403d
00000080: 7d09 233d 3bf1 1a3d f38a aa3d 463d a6bc
00000090: f979 c7bd d459 2dbd d225 a0bd 4f2f a13b
000000a0: 8cba c3bc 6de6 6bbd 2ece 43bc 8004 bf3d
000000b0: eb58 09bc c694 383a 438f 87bc d121 763c
000000c0: 351e c03d 47da 723d 113f 0e3d 772b 0d3d
000000d0: 6c64 053d 32a7 233d dc71 afbb 25a4 e1bd
000000e0: ef8b 9ebd 4b9b c13d 945e 96bb 72e1 e0bd
000000f0: bdc2 f53c 144a 953d d1e3 e1bd 2e1c 8ebd
00000100: 1af6 81bd 5111 8f3b 2a5f e8bd 617e 5ebc
00000110: 73d2 eabd b228 343d 5d6a dd3d 2c36 5f3d
00000120: 8d03 7ebd c3be 93bd 9a45 543d a9be 65bc
00000130: 9a19 003d 0596 dbbd c175 5cbc 1f0e 943d
00000140: 5d9c 0e3d f1d5 523c 80e4 f43b 86b7 813b
00000150: c570 eabc fabf e1bb cdcb 46bd e36e da3d
00000160: d267 ad3d ab53 c33d 633d dcbd c0ef b73d
00000170: 17f2 0e3d 0934 653d f681 71bc d6f2 393d
00000180: 893f 1e3e 44d0 8e3d 1b92 9e3d 6f5e b2bc
00000190: 9413 be3d e9cf afbd 4ce4 8cbb e093 adbd
000001a0: ae0b 2fbd d1c6 66bd 6fb5 fb39 b9af b43d
000001b0: 97e0 3f3d 04ac b3bb f4ca 8a3d cb45 7ebd
000001c0: 3c5c 443d c7e3 aabc 017f cebc 3b6f 863b
000001d0: eaf0 abbd 505a f03b 280c f03c 3b3d a73d
000001e0: 087a 1ebd 7274 163d 10c9 ce3d 3340 42bd
000001f0: 1ba2 c23d 4436 65bd 4812 0f3d e356 173d
00000200: cc3d d43c 7711 a53d 7394 47bd 7bde af3c
00000210: 071f c3bb b60c aebd 6165 f8bc 4dc9 a7bd
00000220: fb62 1e3d 6e15 fa3a bf7a bc3b eb26 27bd
00000230: 15b4 693c e2ec 87bd 093f 103d 0df8 d03d
00000240: b7f0 2d3d 5d5b cebc cee6 9cbd 2537 56bc
00000250: 7899 99bd 1f8c a3bd a9e9 84bd a92e 88bc
00000260: 318b a73b fdce c23d 1b30 643d 835e 143e
00000270: fd59 79bd 7f97 463c 15e4 d2bd e922 5c3d
00000280: 6249 d23c 2506 b83d 368c 82bd 1c6c 803d
00000290: feb2 c63d da75 863d 0d58 9a3c ef89 d43d
000002a0: 8523 873d 610a 7b3d 7383 683c db58 b2bd
000002b0: 0b3b 943b 2dd9 ee3b 91c1 bcbd 76b6 4ebd
000002c0: ee52 afbd 49b9 89bc 114d 0d3e 48b4 913c
000002d0: 0d88 c43c c074 533d b28e 563d 5959 acbd
000002e0: 9261 b3bd b2e2 123d 72e3 acbd 2e09 393d
000002f0: 7b60 f93d a944 d4bd 18cd afbd 255f c0bd
00000300: f427 993c bc90 ba3d d3e1 9abd 695a 23bd
00000310: 7076 3d3d 027b 69bd 3b98 d23d 7df2 153d
00000320: 91c1 92bc 9935 963c cf6b 1e3d e94e cabc
00000330: 144e 90bd 3a36 833c 04ae 533c f4a2 763c
00000340: eb1f 1ebc f8c8 a13d 7cac 9abc 1801 8bba
00000350: 50ff 5e3d b802 67bd 0c63 2f3d 774b 37bb
00000360: 8260 763d a7c7 41bd 5b16 903c 7410 b23c
00000370: bd45 94bd 434c 6abd 8379 543d 3dd6 8dbc
00000380: 1c6b 9a3d 8ed0 c2bd 45ee 1dbd 06de 98bd
00000390: 96ef 6a3d ac69 7b3c 973b 39bd ead8 39bc
000003a0: b0d9 c2bd 6412 673d df88 c13b a2b7 c7bd
000003b0: 8a60 a33c 7bb0 243c 2def bbbd 7e2e 8f3d
000003c0: db0a 853d 229b 08bc 082a 9bbd 7695 753c
000003d0: 484f 0a3e cb76 ff3d 7079 33bd eb7c 95bd
000003e0: 6f19 813d 0d17 023d 7581 963d 3de5 8abd
000003f0: 29bb a13d 4a72 b4bd a3b9 96bc 4abc 0dbd
-0.10290314 -0.005962188 -0.05830398 0.024803054 -0.094606385 0.049520206 -0.059328504 -0.14372426
-0.038387343 0.047854487 -0.027057314 0.058554597 -0.100156434 -0.07142529 -0.022772664 -0.016738886
-0.08290114 0.0683097 -0.029535927 0.029891713 0.07161308 0.017072216 0.027702333 0.09862897
-0.048645873 0.030018248 -0.052042313 0.07171903 0.08201793 -0.10222492 0.08903894 0.04695837
0.03980397 0.03782771 0.08327284 -0.02029289 -0.09740061 -0.042321995 -0.07819714 0.0049189697
-0.023892663 -0.057592798 -0.011951013 0.0932703 -0.008383016 0.0007041212 -0.016547805 0.015022711
0.093807615 0.059290197 0.034728114 0.03446528 0.032566473 0.03995437 -0.0053541493 -0.11017636
-0.07741534 0.09453448 -0.0045889113 -0.109805 0.030000085 0.0728952 -0.11029781 -0.069389686
-0.06345768 0.004366078 -0.11346276 -0.013579936 -0.11465921 0.043984123 0.10811303 0.05449502
-0.062015105 -0.07214119 0.05182419 -0.014022508 0.031274416 -0.10721973 -0.013455809 0.07229256
0.03481709 0.01286839 0.0074735284 0.0039586453 -0.028618226 -0.0068893405 -0.048534203 0.10665681
0.08467068 0.09537443 -0.10753896 0.089812756 0.034898844 0.055957828 -0.014740458 0.045397602
0.15453924 0.06973317 0.07742711 -0.021773545 0.09281078 -0.085845776 -0.004299676 -0.084754705
-0.042735748 -0.05634195 0.0004800963 0.08822579 0.046845045 -0.0054831523 0.067769915 -0.06207828
0.047939524 -0.020860566 -0.025207045 0.004102615 -0.0839556 0.007334985 0.029302672 0.08165976
-0.038690597 0.036732145 0.100969434 -0.047424506 0.095035754 -0.055959955 0.034929544 0.036948096
0.025908373 0.08059972 -0.048725557 0.021468392 -0.0059546265 -0.08498518 -0.030321779 -0.08192692
0.038668614 0.0019079873 0.005751937 -0.0408086 0.014264126 -0.06636979 0.035216365 0.10203562
0.04246589 -0.02519005 -0.0766121 -0.013074671 -0.07499975 -0.0798571 -0.0648988 -0.016623812
0.0051130285 0.09512136 0.05570994 0.14489178 -0.060876835 0.01212108 -0.102974094 0.05374423
0.025669757 0.08985547 -0.06374399 0.0627062 0.09702109 0.06565447 0.018840814 0.10377871
0.06598572 0.061289195 0.014191496 -0.08708354 0.00452364 0.007289073 -0.09216607 -0.050466977
-0.085607395 -0.016811984 0.1379893 0.01778616 0.023990655 0.051625013 0.05238218 -0.08415479
-0.087588444 0.035860725 -0.08441819 0.04517477 0.12176605 -0.103646584 -0.085840404 -0.093931474
0.018695809 0.09109637 -0.07562604 -0.039881144 0.04625553 -0.057002075 0.10282942 0.036608208
-0.017914565 0.018336104 0.038677033 -0.02469583 -0.07046142 0.016017068 0.0129199065 0.0150534995
-0.0096511645 0.0789966 -0.018881075 -0.0010605184 0.054442704 -0.056399077 0.042819068 -0.0027968565
0.06015063 -0.047309544 0.017588785 0.021736361 -0.07239864 -0.057201635 0.051873695 -0.01731407
0.07539961 -0.09512435 -0.03855731 -0.074642226 0.057357393 0.015345018 -0.045222845 -0.01134322
-0.09514177 0.056414023 0.005906209 -0.09751822 0.019943494 0.010051842 -0.091764785 0.069912896
0.06496211 -0.008337768 -0.07576376 0.014989248 0.13506806 0.1247383 -0.043816984 -0.07299217
0.06303679 0.031760264 0.07348911 -0.06782005 0.07897026 -0.088108614 -0.018399065 -0.034603395

model.0.bias f4 [256]
00000000: 4800 21bd 0689 c53c 102f fbbc 0158 a2bb
00000010: 9043 9cbd f38b 02bd 42b7 963d 1b46 a0bd
00000020: acb2 333d 4678 a53c 7b48 733d 4a5b 443c
00000030: 2d6f 223d 0e01 a0ba 1494 c73d 0c57 b13d
00000040: cc07 833d 2945 b73c 82ce 533d bcb5 db3d
00000050: 69fa 2f3d 9323 263b e59d 19bd a2c8 1d3c
00000060: 76b0 453d 2a13 cebd 6680 bfbd d526 ce3d
00000070: ad4d af3d 95df c33d 1933 9abd 6050 bf3d
00000080: 779d 83bd 35a5 9ebc cc2b a5bd 2901 3fbb
00000090: 53af 78bd 266d d93a a68c 993d 060e c53c
000000a0: a702 173d b225 a43c e94f 0d3d 824b 20bd
000000b0: f61b af3d cf28 7e3d 78fe cc3c ab86 03bd
000000c0: 7af6 3e3c 99fd 983b c1b5 b03d 28dd 82bc
000000d0: 7668 4ebd f5ee 8dbd dd7d 09bc 715e 80bd
000000e0: 3538 babd f5cf 7ebd a959 573c 1fca 1b3c
000000f0: 740b 11bd 27cd e2bd b2b3 c63c a575 b93d
00000100: 40c6 67bd c002 c53d 08c3 bbbc 3537 633d
00000110: 1583 d4bc a194 c3bd 6c8d 88bd 4dcd 373d
00000120: 8987 833d 55d0 d8bd e1c7 8f3d b624 193d
00000130: 60ad 4a3d aaaa 1fbc 971f 58bd 0164 c23d
00000140: 70f5 edbb e547 ebbd e3de 313c 47cc 90bd
00000150: 290a 37bd 6886 99bd 5459 ff3c 3fca b3bd
00000160: 4aaf 2abd 04c2 91bc ca41 b7bd 32d5 c1bd
00000170: bee8 4abd 6d4f 59bd 1943 c8bd 9e2b 83bd
00000180: bdc1 a8bd 56cb 3b3d 5fdc d1bd 1088 c43c
00000190: 7b77 43bc 81ce a3bd 7798 74bc ebf6 983b
000001a0: 8041 ae3d 4446 01bd 06dd c43d 1f58 883d
000001b0: 99e9 363d e635 d63c b52f 18bd 16fa e6bb
000001c0: 1476 0fbd d1f2 503d 4e24 8f3d 9239 4e3d
000001d0: 49e0 8fbd 62d7 d73c f049 8a3d d679 823d
000001e0: 81ce 20bc 556b 833d 0be6 92bd 468f aebd
000001f0: a50d a2bd 4574 993b 1297 41bd fd92 8e3d
00000200: c4c0 873a b7a8 963c 8c14 d73b 5c4d 563d
00000210: c7e0 6c3d 2d9a 8b3d c97c 663c f607 8d3d
00000220: 8e33 db3d 925c 64bb c858 903c 6821 18bd
00000230: d98f ba3d 80f4 833c f63b e3bd df5f 60bd
00000240: 39dc 27bd 5e05 03bd c16b 90bd eefd 1dbd
00000250: 34d9 bebd 5c0f 67bc 374a c0bd 6df2 3f3d
00000260: be98 a3bc 03ab d1bd 5a43 f83c 11a4 8a3d
00000270: 7edc 26bd dbd4 94bd 87eb e23d a273 40bd
00000280: fb7d 033d b1a1 a9bd dd42 98bd fe93 02bd
00000290: 88e4 03bd a804 78bd 6d84 a9bd cf98 593d
000002a0: 9584 d6bd b2a8 3cbd 8ae2 cbbd d396 dabd
000002b0: ca21 af3c 1ad6 5cbd 7402 1d3d cd27 e5bd
000002c0: 8f18 91bd bdf4 d83c d97a 043d 157a d53d
000002d0: 4139 7a3d 679f bfbd 68f7 873c 60f5 aa3c
000002e0: 5b1a 17bd 8938 eb3d b576 8c3d ad46 3a3d
000002f0: d76b aabd 1d48 ebbc faf0 c5bd 2062 2ebd
00000300: 6bc3 af3c 2f63 3dbd 92f3 e03d aad4 2ebc
00000310: 4c6a 20bb dfd1 95bc e3f4 b2bd 1bf0 a73c
00000320: 5c34 b03d e0ef be3d f3ba f03c a3fa 4a3d
00000330: d511 1fbd 8ddb f63b 8ac7 cb3d 3977 22bd
00000340: 62dc 843d 17ed 9f3d 908c 113d 5e40 c4bd
00000350: 463f 713d b1fc bdbd 8781 343d 8962 7f3d
00000360: 076b c7bd fa83 bdbd 2755 b8bd 2aa7 af3d
00000370: efcf 5bbd da98 8dbd 49ad 88bc 3d4c 893c
00000380: f573 41bd 583b 8abd e9d9 b3bd 7a8c 313d
00000390: 05d2 99bd efa1 98bd 7f04 89bd 66c5 28bc
000003a0: 7d68 8abd 2637 e0bb 7f05 e03b 5938 c63d
000003b0: b5e0 ce3d b87d ce3c 70ce 6ebd 6669 0e3d
000003c0: 7e44 71bd f9a1 963d b020 613c 031a 71bc
000003d0: 2b10 b83d f794 1ebc 216c 3fbd 93f0 3b3b
000003e0: 7a63 e53d 8c26 91bd 39d9 12bd 4dc0 48bd
000003f0: 4c71 8e3d 2637 d83d 78c6 b83d 1567 ae3d
-0.03930691 0.02411319 -0.03066209 -0.0049543385 -0.07630074 -0.031871747 0.073591724 -0.078258716
0.043871567 0.020198952 0.059395295 0.011984656 0.039656807 -0.0012207346 0.097450405 0.08659181
0.063979715 0.022371845 0.051710613 0.107280225 0.04296342 0.0025350794 -0.037504096 0.009630354
0.04826399 -0.10062249 -0.09350662 0.10066 0.08559737 0.09564129 -0.07529277 0.09341502
-0.064265184 -0.019365886 -0.08064994 -0.0029144979 -0.060714077 0.0016588315 0.0749753 0.024054538
0.036867764 0.020037506 0.034500036 -0.03913451 0.08550255 0.062050637 0.025023684 -0.03211085
0.011655444 0.004668903 0.08628417 -0.015974596 -0.05039259 -0.06930343 -0.008391825 -0.06268013
-0.09092752 -0.062210042 0.013143935 0.009508639 -0.035411313 -0.11074286 0.024255607 0.09055642
-0.05658555 0.09619665 -0.022920147 0.05547257 -0.025941411 -0.09549833 -0.06667599 0.044873524
0.06422336 -0.10586611 0.07020546 0.037388526 0.04948175 -0.009745279 -0.0527645 0.094917305
-0.0072619244 -0.11488322 0.010856363 -0.07070213 -0.044687424 -0.07496339 0.031170525 -0.0877881
-0.041671075 -0.01779271 -0.08948095 -0.09464492 -0.049538366 -0.053054262 -0.09778423 -0.06404804
-0.08240078 0.045848213 -0.102471106 0.02399066 -0.011930342 -0.07998372 -0.014928929 0.004668107
0.08508587 -0.03156115 0.096124694 0.06657433 0.04465637 0.026148748 -0.037154872 -0.0070488555
-0.035024717 0.051012818 0.069893464 0.050347872 -0.07025201 0.02634782 0.06752384 0.063708946
-0.009814859 0.06416956 -0.071727835 -0.08523421 -0.07912759 0.00468305 -0.047263213 0.069616295
0.0010357131 0.018390996 0.0065637287 0.05231987 0.057831552 0.06816516 0.014067837 0.06886284
0.10703193 -0.0034845215 0.01762046 -0.037141234 0.09109468 0.016107798 -0.11095421 -0.05477893
-0.040981505 -0.03198754 -0.070518024 -0.038572244 -0.09318772 -0.014102783 -0.09389155 0.046862055
-0.019970294 -0.10237696 0.030305553 0.067695744 -0.04073762 -0.072671615 0.110800795 -0.046985276
0.032102566 -0.08282793 -0.07434628 -0.031879418 -0.032200366 -0.060551316 -0.08277211 0.053124245
-0.10474507 -0.046059318 -0.09955318 -0.10673299 0.021378417 -0.05391512 0.038332418 -0.11189232
-0.07084762 0.026483888 0.03234372 0.10423676 0.061089758 -0.093565755 0.016597465 0.020868957
-0.03689037 0.114853926 0.06858579 0.045477558 -0.0832135 -0.02872091 -0.09665103 -0.042574048
0.021455487 -0.046237167 0.10983957 -0.01067082 -0.002447742 -0.01828855 -0.08738115 0.020500233
0.08603737 0.09323096 0.02938602 0.049555432 -0.038835365 0.0075334967 0.099501684 -0.03966448
0.06487347 0.07808893 0.03553444 -0.095825896 0.058898233 -0.09276713 0.04406884 0.06234983
-0.09737211 -0.09253688 -0.090006165 0.08576806 -0.053665098 -0.0691392 -0.016684191 0.016759986
-0.047229726 -0.067496 -0.087817974 0.04334686 -0.07510761 -0.074527614 -0.06690311 -0.01030097
-0.06758211 -0.0068425117 0.0068365927 0.09678716 0.10101453 0.025206432 -0.058302343 0.034768485
-0.05890321 0.073551126 0.013740703 -0.014715674 0.08987459 -0.009679071 -0.04673398 0.002867733
0.11200614 -0.0708743 -0.03585169 -0.049011517 0.069552034 0.10557394 0.0902223 0.08515755

model.2.weight f4 [256, 256]
00000000: ff62 3dbd 2664 573d 48fc 4fbd 7936 15bd
00000010: a7ae 943c dcf5 553d 801c 37bd e49b 61bd
00000020: f119 05bd b450 d73c 6616 3fbd d6c1 f03b
00000030: 9a70 70bd 6269 1ebd 078f 22bd acbe 803b
00000040: 87c8 72bc 4746 d63c 8c73 843d edad 4bbd
00000050: 47e9 5f3c c5a3 80bd fa32 61bd de57 07bd
00000060: bd9c 55bb a3af 46bd f75b 15bd 78cc e4bc
00000070: 084c 83bb 7a92 aebc 585a 353d 77d9 383d
00000080: 3ba5 523b a857 143d ed20 d4bc 3be3 093d
00000090: 285a fb3c d1f5 83bd ca3e 463d 4110 74bd
000000a0: fac5 7dbd 91d5 663c 1d7e 6b3d 2f43 563c
000000b0: 54bc 4fbc ea5e 84bd 5df6 c43b 278f 343d
000000c0: a2ad 87bc e1c1 cd3b caea 95bb fe2c 56bd
000000d0: 1ff6 e13c 374b b1bc c540 d1bb b4a7 cc3c
000000e0: 20f4 0cbd ae45 1e3d 00f8 e9bc b1ad 8d3d
000000f0: 7bcc d83c ebd2 5e3d 653a f73a 5e51 d73c
00000100: 13a5 dfbc 2950 03bd 0fc9 5a3d 9a4a 5e3b
00000110: 1e81 ee3c 16c4 aabb 9638 44bd a303 80bc
00000120: 5bce 00bd 5c95 db3c 90bc 1c3c 4547 5f3d
00000130: ace1 123d 6f06 17bd 9661 203d c465 35bd
00000140: 8ac4 563d 3e5c 66bd 7b73 323c 081b 8abc
00000150: 238a 7cbd cd47 203d 02b9 79bd b1a5 07bd
00000160: 1b2a 3bbd b469 4f3d f283 443d 7031 15bd
00000170: 4e3c 85bd 4f29 35bd 4812 25bd c39d 16bd
00000180: bdae 423d 5532 f43c 9774 913c 481d 1ebc
00000190: e417 993c 2a7f 6ebd c387 f43c ef80 083b
000001a0: a5db 67bc 53e6 f6ba 12df 353c 5411 eabc
000001b0: 86e0 393d ffc8 0f3d 7417 113d 92af aabc
000001c0: e9b6 b93c b305 383d 0f65 e5bc 0a83 08bd
000001d0: 6c3d 623d 7500 80bb b394 3a3d 6d9b c13c
000001e0: 2259 10bd b7d5 3abd 3edc 6c3d 0049 e73c
000001f0: 56ea 3bbc 41a7 073d 6530 1d3c aac6 82bd
00000200: a1a2 8cbc 0081 5b3d 7cfb febc a179 e13c
00000210: df73 7fbd e6e1 063d 96d8 293d 0b8b af3a
00000220: 6c84 16bd 873d 713d 338b 25bd 11b8 81bd
00000230: acf4 c83c 88b4 08bd 0e0b e5b9 8a3b 7e3c
00000240: f6ab b0bc 099c aabc babe 61bd 6a09 f0bb
00000250: a9d8 333d 617f 69bd fdb5 20bd 59c0 bcbc
00000260: a5ad e1bc 2593 d0ba 8c23 68bc 70f8 843d
00000270: 7c00 e5bb 0a21 19bd b0e3 6c3d eaee 4fbd
00000280: 069a 58bd 177b 91bd fec9 96bc ab08 d23c
00000290: e4b0 40bd 1ed6 813d 3fb3 8dbd d7a9 febc
000002a0: 9cee a23c e83c 073d 45f2 49bc 2b70 e23a
000002b0: c5eb 163d 17e5 553d 98e9 003d 498d 0d3c
000002c0: 88bc 863c a487 e23b 49a0 9abc 9159 f6bc
000002d0: 12cc 26bd 2133 ca3c b46b 71bd 4fc4 43bd
000002e0: d5f6 f13c 7a11 1bbd 8e48 5c3d 9a59 f5bb
000002f0: 5184 6f3d d8b0 29bc fb98 c7bc e848 8abc
00000300: 3428 633d e6c9 1f3d e4fa 3dbd 4548 673c
00000310: 9d45 44bd a224 ef3b 49ac 19bd 7eca 893d
00000320: cbdb 4ebd d2ef f53c 4434 08bc 847a 873b
00000330: 5a12 843d 1928 30bc 80df ef3c b819 1e3d
00000340: 80a5 87bc 3e7d 8bbc 105a a4bd 51ed 5f3b
00000350: c628 1a3d 9211 ae3c 63bc 503c 34db d2bc
00000360: 6151 32bd 2e2f 1dbd adc6 923c 9968 7a3c
00000370: d778 06bb e6d5 573b 1d42 29bc 4e18 22bd
00000380: f57d cf3c f1e5 48bd b455 7c3c 6f2a 6abc
00000390: 6156 743b 2c79 32bc e096 9cbc b104 70bc
000003a0: 78a5 0abd f623 af3c 2a5a a1bc 9f58 323d
000003b0: e565 4abd 4769 62bc b7fb b9bb fb71 403a
000003c0: 1a00 b53b 6e2c fb3c 0453 dabc 57cd 973c
000003d0: 920c a33c 832b 3d3d 941c 433d 281e 4cbc
000003e0: 1ca0 283d 6561 3c3c 218e d4bb e909 b7bc
000003f0: 9106 833c 21b3 2abc 34e4 fb3c 3467 fabc
-0.04623699 0.052585743 -0.050777704 -0.036428902 0.018149687 0.052236423 -0.044704914 -0.05508031
-0.032495443 0.0262836 -0.04665222 0.007347326 -0.058701135 -0.03867472 -0.039687183 0.00392898
-0.014818317 0.026156558 0.06467351 -0.049726415 0.0136664575 -0.062812366 -0.054980256 -0.03304278
-0.0032594644 -0.048507344 -0.036464658 -0.02792953 -0.0040068664 -0.02131008 0.04427561 0.045129266
0.0032141942 0.036216408 -0.025894606 0.03366397 0.030682638 -0.0644337 0.048399724 -0.059585813
-0.061956383 0.014089004 0.057493318 0.013077541 -0.012679178 -0.06463416 0.006010814 0.044081833
-0.016562287 0.0062792157 -0.004575108 -0.052289 0.02758318 -0.02164231 -0.006385895 0.02498231
-0.034412503 0.03864067 -0.028560638 0.06917895 0.026464691 0.054400366 0.0018862007 0.026283916
-0.027300393 -0.03205887 0.0534144 0.0033918978 0.029114302 -0.0052113635 -0.047905527 -0.015626734
-0.031446796 0.026804619 0.009566441 0.054511327 0.03585975 -0.03687137 0.039155565 -0.044286504
0.052433528 -0.056240313 0.0108917905 -0.016858593 -0.061655175 0.039130975 -0.060967453 -0.033117
-0.04569445 0.050637916 0.047977395 -0.0364241 -0.06505643 -0.044228848 -0.040300637 -0.036771547
0.047529925 0.029809156 0.01775579 -0.009650536 0.01868815 -0.05822674 0.029849892 0.0020828804
-0.014151488 -0.0018836953 0.011100547 -0.028572716 0.045380138 0.035103794 0.035422757 -0.020835672
0.022670226 0.04492731 -0.02800229 -0.033328094 0.055234358 -0.0039063045 0.045551967 0.023633683
-0.035241254 -0.04561397 0.057827227 0.028233051 -0.011469444 0.03311849 0.009594058 -0.063855484
-0.017167391 0.05358982 -0.031125776 0.027523817 -0.062366363 0.032930277 0.041466318 0.0013392878
-0.03674738 0.058896568 -0.040415954 -0.06333936 0.024530731 -0.033375293 -0.0004368652 0.015517125
-0.021566372 -0.020826356 -0.05511353 -0.007325341 0.043907795 -0.057006244 -0.039236058 -0.023040937
-0.02754862 -0.0015912993 -0.014168631 0.06492698 -0.006988583 -0.037385024 0.057834327 -0.050764956
-0.052881263 -0.07103556 -0.018406864 0.025638899 -0.047043696 0.06339668 -0.06918954 -0.031086845
0.019889168 0.03301707 -0.012325828 0.001727586 0.03684594 0.05222043 0.031472772 0.008639642
0.01644732 0.0069131423 -0.018875258 -0.030072005 -0.04072196 0.024682583 -0.058940604 -0.047794636
0.029536644 -0.037858464 0.05378013 -0.007487488 0.058475796 -0.010357104 -0.024364939 -0.016880468
0.055458263 0.039010905 -0.046381846 0.0141163515 -0.04791795 0.007298068 -0.03751782 0.067280754
-0.05050258 0.030021582 -0.008313242 0.004134478 0.06448813 -0.0107517475 0.029281378 0.038598746
-0.016558409 -0.017027494 -0.080249906 0.0034168551 0.03763654 0.021248613 0.012740227 -0.02573929
-0.04353464 -0.038375072 0.017917002 0.015283727 -0.0020518804 0.003293389 -0.010330704 -0.03957396
0.025328616 -0.049047414 0.015401293 -0.0142923435 0.003728293 -0.010893147 -0.019114912 -0.014649556
-0.03384921 0.021379452 -0.019696314 0.043541547 -0.04941358 -0.013819045 -0.0056757587 0.0007341203
0.0055236937 0.030660834 -0.026650913 0.01853053 0.019903455 0.046184074 0.047634676 -0.012458362
0.041168317 0.01149783 -0.0064866696 -0.022343593 0.015994342 -0.010418684 0.030748464 -0.03056679

model.2.bias f4 [256]
00000000: 41ea f63c 8976 163d 61ce 61bd 9657 19bd
00000010: 7304 f8bc 9550 183d 4132 4f3d 3908 68bd
00000020: dfa8 523d 275b 17bd c6ce 82ba 9cf6 6ebd
00000030: 0fa5 3f3d f695 acbc d3c4 523d 08b2 043d
00000040: 2619 1ebd ccf8 8cbc 2858 0a3d 8ccd 403c
00000050: 9053 e23c 5254 e8bc fde4 b23c 3f60 9bbc
00000060: 1dba af3c ed2a 9abc f2d0 2a3d 2fb3 403d
00000070: e857 643c dded b0bc aba9 a3bc 076a c0bc
00000080: f512 c03c 55db 21bd bc9f 21bd 4d4b 343d
00000090: b41e 723c c7e5 c23c f2fb 0cbd 795c 063d
000000a0: 6966 6abd 5c06 383d b91b 00bb baae 8ebb
000000b0: 48ea efbc 61a3 553d 158d 99bb 2511 e43c
000000c0: 0cde 19bd ff99 873d dd53 c03c cb00 883d
000000d0: 7bc8 63bd e626 4b3d 2721 833d 8200 f6bc
000000e0: 3ce4 283d e77e 9f3c 88d3 b63c 8c2a 5dbc
000000f0: 00de aa3c b01c b43a d4dc 3cbd 7545 453b
00000100: c434 d33b b2c8 fa3c 4b91 1cbd deb9 183d
00000110: ea8b 0cbc b737 343d 523b 683d e6d0 093c
00000120: 3130 29bd 53b7 80bd 40b2 e03c 90b9 3abb
00000130: 053a e5ba 91d0 463d 5ea4 673c 7560 54bd
00000140: fe0d 3ebd 380a 5cbd 7337 4e3d aa6b fb3b
00000150: 004d bebb 24ad 85bc 0d00 70bd badf 21bd
00000160: bbc9 523d 41dc 203d 58ba 823c a26c 11bd
00000170: 2326 b1bb 8385 15bd 78ab c03c 2f11 aa3c
00000180: 7573 153d 0cee 103d e535 893c 3746 7a3b
00000190: 021e 11bd 82a0 f23c f654 50bd 1638 5abd
000001a0: 8412 2b3d f557 71bd adac 14bb 1867 42bd
000001b0: af60 6f3b fb74 1f3c 6ada 38bc 68ef 12bd
000001c0: f9e4 d03c 24c1 8f3c b0c2 413d 6bf8 403c
000001d0: 0c68 b93c 99fd 5bbd 6f3c 5c3b 2f69 aebc
000001e0: 0332 803c 3b7c 6abd c202 e53c 7171 1c3d
000001f0: 79bd 91bc 8ac1 133d 9c32 c93c 649e c53c
00000200: 4e9e dcbc 0ace 82bd 78fb e9bb 0bc3 80bb
00000210: 72f4 673d 2464 1dbd d016 19bd f1b0 f9bc
00000220: e8d6 703d 1441 39bd 287e b4bc ab74 483d
00000230: bb4b 733c 071c 9f3d 6d7f 5dbd 9a41 5fbd
00000240: 5695 93bc f4f6 783c 78f7 383d 9f93 dbbc
00000250: dc18 66bd 0030 6cbc 6c35 173c 37fc 45bd
00000260: 43b3 8abd fb64 0fbc d0cf 40bd dfe6 783d
00000270: c8ed 333d 8fe6 1d3d 10a8 b9bc fc28 65bd
00000280: 797a 28bd 313f bebc 0fa2 303d b27a 6a3b
00000290: 6f51 49bc 6393 cabc d600 babc 716c 423d
000002a0: f071 263d 290e 913b 2b11 0dbd 5056 303d
000002b0: ccf1 e53c e21e 7fbd ad90 b13c c6a0 a2bc
000002c0: 4d04 11bd e8a8 3f3d 7f73 2d3d 388e 053b
000002d0: 4506 f6bb 1b7c 383d 32ed 53bd 8987 783d
000002e0: 4c17 dbbc 9ea8 5cbc 2d63 1c3d b6ae 61bd
000002f0: b438 433d 5f8f 7c3c 9602 16bd fd4d ef3b
00000300: 51a2 ffbc a0e4 de3b 1859 84bd c9af 58bd
00000310: 37a5 fabb 60ce 0fbd ac4d be3c 5e85 b0bc
00000320: f7d9 6d3d 54ab 2b3d cd74 583d cb35 37bd
00000330: 30fe 753d 6adf b93c c731 e8bb 514d 1d3c
00000340: 0d42 3abd 2bb7 9ebc e3c2 6cbc 3275 75bd
00000350: 8b5a 4ebd a545 70bd 7255 293d aa3a ccbc
00000360: 10bf c63c 138a 64bc 64ba 24bd f237 463c
00000370: 6c24 67bd b20d da3c 1c8c b13c a206 eabb
00000380: 2d87 debc d3a0 6dbd 0afa 893d 3c54 65bd
00000390: 9df0 113d 9cb8 21bd 866c 1abd f6d4 213d
000003a0: 3ff0 8f3b 4e2f 2a3c 3339 2c3d b13c 413d
000003b0: 4456 733c 36af 89bd 8c4c 68bc 4b65 b43c
000003c0: f3b4 543d a22a 163d 46f7 3fbc 517b 9dbc
000003d0: 8f91 df3c b678 323d a063 e2bc 4cc2 173d
000003e0: 0a55 543d 2a1b 313d 9519 8d3b 7c81 b43c
000003f0: eaf6 35bc 903b 183d 27d4 3e3c 242d 1a3b
0.030140998 0.036734138 -0.05512846 -0.037437044 -0.030275559 0.037186224 0.050585035 -0.056648467
0.05143058 -0.036952164 -0.0009979836 -0.058340654 0.04678827 -0.0210676 0.051457237 0.032396346
-0.038598202 -0.01720848 0.03377548 0.011767756 0.027627736 -0.02836052 0.021837706 -0.018966792
0.02145105 -0.018819297 0.041703172 0.047045883 0.013936974 -0.021597797 -0.019978365 -0.023488058
0.02344654 -0.039515812 -0.039458975 0.044017125 0.014777828 0.023791207 -0.03441996 0.032803033
-0.057226572 0.04492794 -0.0019547774 -0.004354325 -0.029286519 0.052157763 -0.0046860077 0.027840206
-0.037565276 0.06621169 0.02347749 0.06640776 -0.055611115 0.049597643 0.06402808 -0.030029539
0.041233286 0.019469691 0.022317663 -0.0134989135 0.020857811 0.001374146 -0.046109036 0.0030101214
0.006445499 0.030613277 -0.0382245 0.03728663 -0.00857828 0.043998446 0.056697197 0.008411622
-0.041305725 -0.06284966 0.027428746 -0.0028491952 -0.0017488605 0.04853875 0.014138309 -0.0518498
-0.046400063 -0.053720683 0.05034585 0.0076727467 -0.005807519 -0.016317911 -0.0585938 -0.039520003
0.051461916 0.03927255 0.015957996 -0.03550399 -0.0054061576 -0.03650428 0.023519263 0.020760147
0.03648706 0.03538327 0.016749332 0.0038188824 -0.03542901 0.029617552 -0.050862275 -0.053276144
0.041765705 -0.058921773 -0.002268593 -0.0474616 0.0036526134 0.00973248 -0.011282543 -0.035872847
0.025499808 0.017548151 0.04730481 0.011777977 0.022632621 -0.053708646 0.0033605357 -0.02129039
0.015648847 -0.05724738 0.027955417 0.038194124 -0.017790543 0.036073245 0.024560265 0.024123378
-0.026930954 -0.06386955 -0.007140573 -0.003929501 0.056629606 -0.03842558 -0.03737527 -0.03047988
0.0587987 -0.04522808 -0.022032812 0.04893939 0.0148495985 0.07769018 -0.0540766 -0.054505922
-0.018015545 0.015195597 0.04515788 -0.02680379 -0.05617605 -0.014415741 0.009229045 -0.048336234
-0.06772473 -0.008752103 -0.047073185 0.06076705 0.043927938 0.038549956 -0.022663146 -0.05594729
-0.041132424 -0.023223491 0.0431233 0.0035778699 -0.012287482 -0.024728483 -0.022705477 0.0474667
0.040636003 0.004426737 -0.0344402 0.043051064 0.0280694 -0.06228531 0.021675432 -0.019852053
-0.035404492 0.04679194 0.042346474 0.0020378958 -0.0075080716 0.04504023 -0.05173988 0.06067613
-0.026744507 -0.013467936 0.03818052 -0.055098258 0.0476615 0.015415042 -0.03662356 0.007302998
-0.031205328 0.0068021566 -0.06462306 -0.052902017 -0.0076490897 -0.035108924 0.023230396 -0.02154797
0.058069196 0.041911438 0.052845765 -0.044729035 0.060056865 0.02268954 -0.007086012 0.009600953
-0.045473147 -0.01937445 -0.0144507615 -0.05992622 -0.050379317 -0.05866017 0.041341253 -0.024930317
0.024261028 -0.013948935 -0.04021682 0.012098299 -0.05643122 0.026617859 0.021673255 -0.007141904
-0.027164066 -0.058014702 0.06737144 -0.055988535 0.035629857 -0.039482698 -0.037701152 0.039509736
0.0043926532 0.010387255 0.042046737 0.04717702 0.01485211 -0.06722872 -0.014178406 0.022020957
0.05193038 0.03666175 -0.011716669 -0.01922384 0.027291087 0.04357215 -0.027635396 0.03705053
0.051838912 0.043238796 0.004306028 0.0220344 -0.011106232 0.03716618 0.011647261 0.002352544

model.4.weight f4 [256, 256]
00000000: 10f0 763d 7211 88bc e13c 763b f208 4abc
00000010: 825a 25bd 3cf7 0e3d 1bc8 04bd 4a83 29bb
00000020: c0a9 cebb 01c7 1ebc 34c8 3c3d ed94 89bd
00000030: 1080 32bd 52b7 f13c e7ca c43c 2b77 b6bc
00000040: 692b 95bd c83c 1f3c c484 19bd e74b 9f3c
00000050: 48a5 063d ce5e 44bd dbe5 f83b 9091 3dbc
00000060: e519 32bd 3f0c 893d 0679 1e3d 5f4f ad3c
00000070: 5e46 3b3d 36cc 053d 14dd f6bc add9 1e3b
00000080: 40d3 57bd e0c9 12bd 313d 2a3d 0ad7 8d3c
00000090: 23e4 633d 3e9e a0bd e449 593c 3aa0 133d
000000a0: d514 c2bc 681a dfbc 6501 163d fc8c 43bd
000000b0: d679 64bc 58bd 6ebd ac5f 683d 0b4f 52bb
000000c0: ae52 ea3b 3a56 97bc 9c0e 1abb c13d 85bd
000000d0: 7c7e 46bc 52a5 8ebb d396 38bd 7a67 323d
000000e0: 4bbf 8d3c 292a 50b9 72e0 923d 23b3 f43c
000000f0: e4da 65bc 58d4 0a3c 45b5 053b 1e4e 19bd
00000100: 0a75 54bd 3d27 773d 2d9d 58bd 732d 753c
00000110: b7e7 583d c05f 95bd c7b1 293d 086e 5bbd
00000120: cb2b 623c 79bf 06ba c165 efbc 2b91 5e3d
00000130: cf79 28bd ca62 29bd ce6e 1fbd 6335 80bd
00000140: b5c7 3fbd 6897 95bd c65e 893d 9c8a 083d
00000150: 104f ed3c 5cb4 3a3c 1727 2d3d 0b55 edbb
00000160: bfc8 4dbd 140b 4dbd 1ca7 423c af9e 723c
00000170: b4ac fdbc d2ff 39bd 659b 76bd f109 56bd
00000180: bf76 28bd 3322 413d 3b5e 06bd d69a 543c
00000190: 2739 1e3d 1c45 183c 24e7 e23c ff6a 3f3c
000001a0: d10d 92bd fbe2 723d 48e3 f5bc 0fb2 1b3c
000001b0: 9011 90bd 8abd 113b 5585 34bd f16b 2f3d
000001c0: f5b6 e33b e607 4f3d 73e6 4e3d e017 6c3d
000001d0: 893c 07bd 0749 ec3c a2e2 213d 7cd4 5e3d
000001e0: 506e 1e3d 07f0 62bd 26b3 5abd 8603 7a3c
000001f0: 09d4 38bd 3981 4bbd 7f77 593d 14c7 9fbb
00000200: bb39 463d 853f d53c f6a8 2f3c fe2b 543d
00000210: 1a36 6c3c be93 4c3d 3b52 5a3d d4d3 ca3c
00000220: dfff ab3a dbeb 0a3d 7912 83bc 7431 c9bc
00000230: 42e1 5e3d c049 7c3c 1d64 5c3d 6d63 be3c
00000240: 55d1 253c 0b4b 3ebd 0f83 0b3d fac5 75bc
00000250: 914b 6fbd b515 42bb 7515 643d bd5f 83bb
00000260: 2c68 0a3d ebff 993c a126 8fbb 3f2d 48bd
00000270: e11e 4a3d dd3c 823d 40bf 003d b104 823d
00000280: 114b 3c3a d7ae 03bd 953a 4fbd 5678 013b
00000290: 3857 493d db00 adbb 500e da3b 6668 7e3c
000002a0: 179f 893c b4fe 82bd fdc2 8b3c d565 1e3d
000002b0: 624b 293d 52c7 8cbb b74f 023c 1842 2fbd
000002c0: f4d7 4abd e0fe af3b 69f8 363d d081 2bbd
000002d0: 3ae3 46bd 633b 8d3b 6679 0ebb 4ba5 0a3d
000002e0: 05bd 5bbd 1564 613c 3897 3dbd 9502 4fbd
000002f0: 4240 583d 7e3e bc3c 0bfd 80bc 2eb6 f6bc
00000300: 3971 56bd f093 373d ec12 33bd 2ce0 6cbc
00000310: a066 553d 0659 213b bb9c 4e3d 5d06 be3c
00000320: ceee 53bc 635b 373d be12 6bbd 69cf 723c
00000330: 5f53 1f3d ac95 213d 4567 123d df56 3a3c
00000340: 8991 85bc 6505 43bd 0ff6 c33b fbfb e9bc
00000350: b49b 39bd 445d 573d e574 823b 65d3 17bd
00000360: 1fc8 793b f6e8 02bd d1fc 3ebd 0fac 21bb
00000370: 9297 2f3d a922 80bd 4c01 be3c a8f8 1f3c
00000380: dcdd 4cbd 9dd5 ccbc 46ad 473d 29b9 683d
00000390: aa65 6d3d bbc5 38bd 512c d83c 0d03 8bbc
000003a0: b7a4 7ebd 372b 15bd 996e 463d cf09 82bd
000003b0: 04ac 73bc 2371 6e3d 0021 363b 26e7 693d
000003c0: 95aa 353c 6898 29bc af28 2e3d 2340 0e3d
000003d0: b095 e13c 3d71 a53c 67b3 1f3d 74bd 7abd
000003e0: fefa 853d 758f fc3a f02f f33b 20a2 e33b
000003f0: e5df 8bbd dfef e0bc 6287 51bc 74b5 773d
0.060287535 -0.016609881 0.0037572908 -0.012331234 -0.040369518 0.03490375 -0.032417398 -0.0025865608
-0.006306857 -0.009691001 0.046089366 -0.067178585 -0.04357916 0.02950636 0.024022533 -0.02227362
-0.072836705 0.009719081 -0.03748013 0.019445373 0.03287247 -0.047941975 0.0075957603 -0.011570349
-0.043481726 0.06691789 0.038689636 0.021156011 0.045721404 0.032665454 -0.030134715 0.0024238632
-0.052691698 -0.035837054 0.041562263 0.017314453 0.05563749 -0.07842682 0.013262246 0.036041476
-0.023691574 -0.027234271 0.036622424 -0.047741875 -0.013945064 -0.05828604 0.056731865 -0.003209057
0.0071509695 -0.018473733 -0.0023507243 -0.06505919 -0.012115117 -0.004353204 -0.045065712 0.043555714
0.01730313 -0.00019852132 0.07171716 0.029870575 -0.014029238 0.008473478 0.0020402235 -0.037428014
-0.05186943 0.060340155 -0.05288427 0.014964449 0.052955355 -0.072936535 0.041429307 -0.05357173
0.013804386 -0.0005140226 -0.029223325 0.05433766 -0.04113179 -0.04135398 -0.03892403 -0.06260183
-0.046821315 -0.07304269 0.0670753 0.033335313 0.028968364 0.01139554 0.042273607 -0.007242804
-0.050240275 -0.050059393 0.011880662 0.014808341 -0.03096614 -0.045409985 -0.06020679 -0.052255575
-0.04112887 0.047151756 -0.03280471 0.012976369 0.038628723 0.009293821 0.027698107 0.011683225
-0.071315415 0.059298497 -0.030015603 0.009502902 -0.070346 0.0022238218 -0.044072468 0.04282755
0.0069493004 0.050544642 0.050512742 0.057639956 -0.033016715 0.028843416 0.039522775 0.05440186
0.03867942 -0.05540469 -0.053393506 0.015259629 -0.045124087 -0.049683783 0.053092476 -0.004876027
0.0483949 0.026031265 0.010721436 0.051799767 0.014417196 0.049945585 0.053301077 0.02475921
0.001312252 0.033916336 -0.01600002 -0.024559714 0.05441404 0.015398443 0.053806413 0.02324077
0.010120709 -0.046458285 0.034060534 -0.015000815 -0.058421675 -0.002961499 0.055684526 -0.0040092156
0.033790752 0.018798789 -0.0043686186 -0.048871275 0.049345855 0.06359265 0.03143239 0.06348551
0.00071828166 -0.032149162 -0.050592978 0.0019755564 0.049155444 -0.005279643 0.006654538 0.01552782
0.016799493 -0.06396237 0.017060751 0.038671333 0.041331656 -0.004296222 0.007953576 -0.04278764
-0.049522355 0.0053709596 0.044670496 -0.041871846 -0.048556544 0.004310058 -0.002173984 0.033849042
-0.05364706 0.013756772 -0.04628679 -0.05053957 0.052795656 0.022979017 -0.01574566 -0.030116167
-0.05235407 0.04481882 -0.043719217 -0.014457744 0.052099824 0.0024619712 0.05044244 0.023196394
-0.012935353 0.044764888 -0.05739092 0.014819958 0.03889787 0.03944938 0.035743017 0.011373251
-0.016304748 -0.047612567 0.00598026 -0.028562536 -0.045314506 0.05257918 0.00398122 -0.037066836
0.0038113666 -0.03196045 -0.046627823 -0.0024669205 0.042869158 -0.06256611 0.023193978 0.009763874
-0.05001627 -0.025004202 0.04874923 0.056817207 0.057958283 -0.045110445 0.02638832 -0.016969228
-0.062168803 -0.036418166 0.048445318 -0.06349527 -0.014872555 0.058213364 0.0027790666 0.057105206
0.011088033 -0.010351278 0.042519268 0.034729134 0.027537197 0.020195598 0.03898945 -0.061215833
0.065420136 0.0019268828 0.007421486 0.006946817 -0.06829814 -0.02745813 -0.012788625 0.06047578

model.4.bias f4 [256]
00000000: abf0 743d 2167 58bd 1b04 0c3d b9df b6bb
00000010: c6ed a93a 9122 313d e980 7ebd e637 2b3d
00000020: c03c 213b 3660 793d 38e4 c4bc 1b3f 533c
00000030: ab65 47bd 4d58 28bd 2cc8 3f3c 25a4 233d
00000040: 19e8 65bd b829 f83c 107a 7f3d 466d 99bc
00000050: ba33 843c 73cd 223d 1dc7 a5bc 6bb0 553d
00000060: 2560 363c 4432 afbb 8398 443c 738d ed3b
00000070: 2e9e c4bc 3cbb 783d f935 0c3d 41f4 1bbb
00000080: 34ec 10bc d514 b83c 31fa 00bc 79a5 90bc
00000090: 55d7 bd3c 955e 82bd b6db dfbc 1dd5 b43c
000000a0: a412 babc 0e34 853d 3e84 fb3c 655e 1ebb
000000b0: 47bf d1bc f097 51bc 68e3 e0bc 0217 16bc
000000c0: bed8 cabc 5a57 603d b4a6 213d 5f90 0ebd
000000d0: f476 5dbd 178e 4ebd 3182 31bd 27b1 583c
000000e0: fb31 483d 08d0 493d 6d44 3ebd 7c1b b5bc
000000f0: 118f 27bd e3ce adbc 02f7 853c 541b 153d
00000100: e150 723d 7337 55bd 0c3a 873d e636 66bd
00000110: 284e dcbc 02b6 5d3d 1cad 15bd 386c 3bbd
00000120: de43 47bd 0cb8 96ba 82ff 763d cf47 873d
00000130: 7882 efbc 1833 373c 2d9f d539 1ec5 6b3d
00000140: aaa0 423d 81dd 0b3d 7791 033d d306 493d
00000150: c49c 41bd a9da 863c 0288 613d a324 bd3a
00000160: b433 0f3d 5ed7 713d 0cc2 a6bc 7878 5bbd
00000170: 1ffe 473d fabf 4e3d 5065 8ebd faf7 22bd
00000180: 1145 0dbd e59c 043d 0d08 463c d1d9 013d
00000190: 7d38 f73c 2186 c7bb e053 233c 1a08 64bd
000001a0: 4300 1cbd 4bff 8a3d 97a3 823d d968 f13c
000001b0: 669d 6e3d c345 093d 03b7 abbc d433 663c
000001c0: 2217 2d3d 51cf 313d a70a 5cbd d420 e43b
000001d0: 0cb8 d3bc 0c1c 1b3d 59d6 31bd f1e9 053d
000001e0: 9d3b 36bd 57cd 43bd 6e5b dabc cf90 013d
000001f0: 49b5 f5ba 1bff 153d 755d 55bd 8af4 5dbd
00000200: 7e9d 42bd ff20 333c 7ecd 0bbd d882 763d
00000210: 4c60 763c b886 0d3b 4c45 7ebd cd58 13bd
00000220: 649b 44bd d59d 92bb 665a 6c3d 197d 6ebd
00000230: 29c3 48bd 4e10 62bd 7df9 fc3c 91d2 623c
00000240: 4a8b 50bd fb2e 13bc b899 8e3a 58b1 09bd
00000250: 18c9 253c c6df 7dbd a23e 33bd ae27 e13c
00000260: c021 84bd dc1c 563c 44f5 40bd 3314 76bd
00000270: 9d8d 30bd f9c9 ce3b bfe4 22bc 92df 7bb9
00000280: f72a e53c e816 233d 5473 d03c a239 6dbd
00000290: 50f6 a93c 5bdc ccbc 8037 fbbc 3343 a0bc
000002a0: a7c5 933c f198 473d 1e86 8b3d 417e dd3c
000002b0: f15f babc d105 033d 45d0 8bbd 0940 17bd
000002c0: 8dc6 01bd fd76 763d fd53 52bc 4d71 6d3d
000002d0: 9042 0c3c 0f1e 313d 0e56 1cbd 2ce4 573d
000002e0: c089 dfbc 3c2e 79bd 6bdb 663b 9b99 5ebd
000002f0: e0f9 5d3d 608c a0b9 2b24 7dbb 823f 5f3d
00000300: a5e5 77ba e361 8e3c fa92 053d d5b5 753c
00000310: 522c fe3b 9668 863d 777a 6cbd 880f 043d
00000320: de66 56bd 659a 3a3d f8de b6bc eb32 e93c
00000330: 08cd 6b3b 41d8 33bd 820b 74bd b5d9 9fbc
00000340: 59ff 8a3d 2145 46bd f62c 133d 5d88 f5bc
00000350: c01c 343b d676 0e3b 5cad 2fbd eea9 90bd
00000360: 1286 f1bc ad23 203b d528 abbc e45f fbbc
00000370: 06fc 8d3d aad5 8e3b cbb1 09bd f635 ce3c
00000380: f0b7 2f3d c486 89bd a031 8638 8644 d13c
00000390: 0863 29bd 5a23 83bd a09f 313d 3c84 7c3c
000003a0: 8449 de3c 5e1b 7e3d 3f94 13bd 375d 88bc
000003b0: c94c 20bd d436 593d ebe4 21bc 2130 a93c
000003c0: d990 83bc f4ce 5cbd a5a2 d1bc 9ed8 d9bc
000003d0: e403 4a3d 2f39 0abc 1c58 95bc 2bbb 1cbd
000003e0: 4ff6 96bc ed58 9b3c 1cf7 b4bb f6e3 8cbd
000003f0: dcc9 57bd 66a8 763c 5250 83bc 0060 e33b
0.05979983 -0.052832726 0.034183603 -0.005580869 0.0012964539 0.043245856 -0.062134657 0.041801356
0.002460286 0.06088277 -0.024034604 0.0128934635 -0.048680943 -0.041099835 0.01170544 0.039951462
-0.05612955 0.03029333 0.062372267 -0.018728863 0.016137946 0.039746713 -0.020236546 0.0521702
0.011131321 -0.0053465683 0.011999252 0.007249528 -0.024001207 0.060725436 0.03423116 -0.002379671
-0.008845378 0.022470871 -0.00787215 -0.017657029 0.023173967 -0.06365696 -0.027326446 0.022074277
-0.022713967 0.06504069 0.030702706 -0.002416515 -0.025603903 -0.012792572 -0.027452186 -0.009160759
-0.024761554 0.054770805 0.03946562 -0.03480565 -0.05406852 -0.050428476 -0.04333705 0.01322583
0.04887579 0.04927066 -0.046451975 -0.022107832 -0.040907923 -0.021216815 0.016353134 0.036403015
0.059159163 -0.052054834 0.066028684 -0.0562047 -0.026892737 0.054128654 -0.036542043 -0.045757502
-0.048648708 -0.0011498942 0.060302265 0.06605493 -0.029237017 0.011181615 0.0004074512 0.057561032
0.047516502 0.03414679 0.032121148 0.049078774 -0.047268644 0.016461687 0.055061348 0.0014430474
0.034961417 0.05904328 -0.0203562 -0.053581685 0.048826333 0.050476052 -0.069529176 -0.03978727
-0.034489695 0.03237619 0.01208688 0.031701867 0.030178303 -0.0060889875 0.009968728 -0.05567179
-0.038086187 0.067869745 0.063788585 0.02946894 0.058255576 0.033513796 -0.02096129 0.014050443
0.04225839 0.043410603 -0.053721096 0.006961921 -0.025844596 0.037868544 -0.04341731 0.032693807
-0.044490445 -0.04780325 -0.026654925 0.03163224 -0.0018746044 0.03662024 -0.05209108 -0.05418829
-0.047513478 0.01093316 -0.03413152 0.060183376 0.015037607 0.0021595191 -0.062077805 -0.03597336
-0.047999755 -0.0044743815 0.0577034 -0.05822477 -0.049014244 -0.05519133 0.030880684 0.013844148
-0.050914086 -0.008983369 0.0010879552 -0.033616394 0.010118745 -0.061980985 -0.043760903 0.027484741
-0.0645175 0.013068404 -0.047108904 -0.060077857 -0.043103803 0.006310698 -0.009942233 -0.00024020512
0.027974589 0.039816767 0.025445618 -0.05791629 0.020747334 -0.025007417 -0.030666113 -0.019563293
0.018038584 0.04872984 0.0681269 0.027037742 -0.022750827 0.03198797 -0.06826834 -0.036926303
-0.031683493 0.06017207 -0.012837407 0.05796938 0.008560792 0.043241557 -0.038168006 0.052707836
-0.027287364 -0.06083511 0.0035225998 -0.05434571 0.054193377 -0.00030622166 -0.0038626294 0.054503925
-0.0009456522 0.01738066 0.03261087 0.014996965 0.0077567482 0.06562917 -0.05773398 0.032241374
-0.052344196 0.0455574 -0.022323117 0.028466662 0.0035980362 -0.043907408 -0.059581287 -0.01951299
0.06786985 -0.04840577 0.03593155 -0.02997225 0.0027482957 0.0021738312 -0.042889938 -0.070636615
-0.029482875 0.0024435327 -0.020893494 -0.030685373 0.06932835 0.004358967 -0.033616822 0.025172215
0.042900026 -0.06715158 6.398861e-05 0.02554537 -0.04135421 -0.06403227 0.04336512 0.0154123865
0.027134664 0.062037818 -0.03603005 -0.01664601 -0.039135728 0.053030804 -0.009881238 0.020652832
-0.01606028 -0.053908303 -0.02559025 -0.026592549 0.049320117 -0.008436485 -0.01823049 -0.038264435
-0.018427996 0.018963302 -0.005522622 -0.068794176 -0.052682742 0.015054798 -0.01602951 0.0069389343

model.6.weight f4 [16, 256]
00000000: a506 32bd 4e61 683d 60eb 4e3c 5a47 87bd
00000010: f172 c03c 7324 23bc ecc2 ce3c 88bb 4f3d
00000020: c26a adbc aa52 233d 1d03 18bc 160c 11bd
00000030: 4b1a c33c 3d23 093d 566a 2ebd bca4 3a3d
00000040: 76ae 8fbc 7ec1 23bd 5d35 11bd 6636 0abc
00000050: 28d5 b33c b0b3 6b3c a179 19bd 5f69 8b3d
00000060: 6930 cd3c 88e9 36bd 936d 473d 2918 e2bc
00000070: 94f4 56bc 2750 67bd e928 08bc 7e1e 84bd
00000080: 3666 c23b b396 4f3c 08a8 61bd 87c9 193c
00000090: 2bd2 073d 050c 27bd bffc 66bc 1aed 21bd
000000a0: 6c9f 73bb dda6 99ba a4a1 083d 159c 6a3d
000000b0: 450c 563c 5215 3f3d 3ad4 723c 4006 2a3d
000000c0: c1e6 ef3b 7e2b 8dbc b836 e13c c9c3 efbb
000000d0: 1cca 38bd d2ff 593d 14a1 be3b 0ea8 393d
000000e0: 23fb a93a 7b4e 4abb 95b8 fb3a 7401 7f3d
000000f0: 4208 13bd bc4a 963c a5e5 c8bc 8455 1b3b
00000100: ff47 1bbd a864 1dbd 4d2a ff3c 2494 7d3d
00000110: 0865 19bc c878 21bc f0dc 5abc bbe2 e13c
00000120: 5cdb 1bbd 19d7 30bd eefa 873c 42ba d0bc
00000130: 761f d1bc cbe5 31bc ad91 3f3d e541 7a3d
00000140: e69a 413d f259 823d 14a7 243d f073 c8bc
00000150: ac2b 5d3d c58a 75bd a1cf a53a 485e 70bd
00000160: 4975 743c 3ef8 0f3d 9565 203d 4ea3 56bd
00000170: ef8d 11bc bef1 40bd 4cbc 033c 2316 71bd
00000180: f186 68bd ef41 0c3d 2f40 7eba a218 a9b8
00000190: ec6d 2b3d 17ae 643b 8c91 0abd e803 22bd
000001a0: 0a1c 5dbd 4854 213d fd2f 913c 2333 0e3d
000001b0: fb32 163d 0404 97bc 543e 173d c97b 013d
000001c0: bbd3 9a3c f58d 643d 417b 283d 678d f93c
000001d0: b7c6 17bd 138d 0e3c 0e3a 34bd c41b 81bd
000001e0: 53f9 d83c fd26 88bd a8fa 30bd a011 95bc
000001f0: be79 e4bc 1dc8 7fbd 6987 563d 7844 ddbc
00000200: 50f6 6a3c f319 2a3d 5cc5 11bd 1b30 89bc
00000210: 1df9 683c 998b 57bd cf03 b83c 69da 5e3d
00000220: 930c 043c 51ec d93c 633a 043d 3210 4bbd
00000230: 54b3 633d c11c 64bd a1e2 243c b08d 9f3d
00000240: 6009 2cbd b0ed 81bb f59d 4ebd 45f9 b4bc
00000250: 8b41 58bd 8ca2 5cbd 2b7a 86bd ad12 173d
00000260: b427 d63c fffe 553d 4fd9 593b bce9 8b3b
00000270: b731 1d3d 772d 64bd 5097 0f3d dccc e7bc
00000280: c5c9 4e3b c07e e2bb 0782 e8bc 0b77 b0ba
00000290: df66 193d 9aca 73bc 8795 903c c372 6a3c
000002a0: f85f 1ebd ccf4 303d ee5b 713d 0ca6 09bd
000002b0: aa7b 743d de40 8f3c 03d3 a4bc eab6 df3c
000002c0: bec1 053b e645 0dbc 3cc5 e13c f71b 5fbd
000002d0: b0a0 29bd 896c 5fbd 235b 22bd 5649 4cbd
000002e0: 3424 1abd 099f c9bb 78ad 3b3c 4694 693c
000002f0: 079a 6b3d 6c79 dcba 127e c8bc 0109 5cbc
00000300: eae2 8e3d f5dd debb adb3 1a3d 748a 3c3d
00000310: 0a61 fabc db38 cebc 80f4 c8bb adf4 20bd
00000320: e7d3 513c 1988 49bd cd58 25bc e458 46bc
00000330: a2fd 7bbd 58c6 7ebd b2ac e9bc 0e99 c03b
00000340: 390c fabc d0bf 093d 70d2 bf3b d7f4 073d
00000350: dc56 52bd 4e0b cc3c 1471 52bc df6b b43c
00000360: 1ca5 47bd 9611 d3bc 4293 3ebc 4763 093d
00000370: 96b8 623d 1971 38ba bccc 46bd 28ab 183d
00000380: 9f5a fa3b b885 63bd a986 303c 28cc b03c
00000390: 223f 043d 90d7 9fbc 81ff 2cbd 518e 1e3d
000003a0: 7945 643d d5fd fe3b c50a 263d 0ff7 e13c
000003b0: 3894 2abd 3fa4 83bc 53cc 35bc a924 f0ba
000003c0: e515 12bd d521 abbb 0a9f 3c3b 2db1 923c
000003d0: 121f e93c dd22 7c3d 8aa6 b93c e30e 6ebd
000003e0: b1a3 3abb f1cb 143b 286d 803d cb74 323d
000003f0: dd7d 4c3d aabf 4d3d 5956 afbc 299e 87bd
-0.043463368 0.056733422 0.01262936 -0.06605406 0.023492308 -0.009957421 0.02523943 0.050715953
-0.02116907 0.039873756 -0.009278086 -0.035411917 0.023816248 0.03348087 -0.04258188 0.04556726
-0.017539244 -0.03997945 -0.03545128 -0.008435821 0.021952227 0.014386103 -0.03746951 0.06807207
0.025047498 -0.044656307 0.048688482 -0.027599411 -0.013119835 -0.056472924 -0.008310535 -0.064511284
0.0059325946 0.012670207 -0.055091888 0.009386427 0.033159416 -0.040782947 -0.014098345 -0.03953276
-0.003717388 -0.0011722703 0.033357278 0.057277758 0.013064449 0.046651192 0.014821107 0.041509867
0.007321209 -0.017232653 0.027491912 -0.0073170406 -0.04511462 0.053222485 0.005817542 0.045326285
0.0012968521 -0.0030869532 0.001920479 0.062257245 -0.035896547 0.018346183 -0.024523566 0.0023702094
-0.037910458 -0.03842607 0.0311481 0.061908856 -0.009362467 -0.009855457 -0.01335834 0.027573934
-0.038050994 -0.043173883 0.016599145 -0.02547944 -0.025527697 -0.01085801 0.046769787 0.061098
0.047266863 0.06364812 0.0401984 -0.024469346 0.053996727 -0.059946794 0.0012650379 -0.058683664
0.014920541 0.03514885 0.039159376 -0.052401833 -0.008883937 -0.047105543 0.008040499 -0.058859
-0.056769315 0.034242567 -0.0009698895 -8.063136e-05 0.041852877 0.0034893805 -0.03383021 -0.039554507
-0.05398182 0.039387017 0.017723078 0.034716737 0.036669713 -0.018434532 0.036924675 0.03161219
0.01889979 0.055799443 0.04113317 0.030462934 -0.037054744 0.008700627 -0.044000678 -0.06304124
0.026486075 -0.066480614 -0.043207794 -0.01819688 -0.027890082 -0.062446702 0.05237523 -0.027010188
0.014340952 0.041528653 -0.035588607 -0.016746571 0.0142195495 -0.052623365 0.022462754 0.05440751
0.008059639 0.026601942 0.032282244 -0.049575992 0.055590943 -0.055691484 0.010063798 0.077906966
-0.04200113 -0.003965102 -0.05044361 -0.022091517 -0.05279688 -0.053865954 -0.065662704 0.036883045
0.026141979 0.052245136 0.0033241098 0.0042698067 0.03837749 -0.05570742 0.035056412 -0.028295927
0.003155337 -0.0069120824 -0.028382314 -0.0013463212 0.03745162 -0.014879847 0.017649425 0.014309588
-0.03866574 0.043202206 0.05892556 -0.03360562 0.059688248 0.017486986 -0.02012015 0.0273089
0.0020409669 -0.008622622 0.027559869 -0.05447003 -0.04141301 -0.054546867 -0.039637696 -0.049874626
-0.037632182 -0.0061529917 0.011454932 0.014256543 0.05751994 -0.0016820855 -0.024474178 -0.013429881
0.06976874 -0.0068013617 0.03776901 0.046030477 -0.03056385 -0.025173595 -0.0061326623 -0.03929584
0.012806869 -0.04920206 -0.010091973 -0.012106154 -0.06152118 -0.062200874 -0.02852473 0.0058776205
-0.030523406 0.033630192 0.0058539435 0.03319248 -0.051352367 0.024907734 -0.012844343 0.022024093
-0.048741445 -0.025765222 -0.011631789 0.033541944 0.055351816 -0.0007035896 -0.048535094 0.037272602
0.0076401974 -0.055547446 0.010774293 0.021581724 0.03228677 -0.019511968 -0.042235855 0.038709942
0.055730317 0.007781724 0.040537614 0.027583627 -0.04164526 -0.01606953 -0.011096078 -0.0018321472
-0.03566541 -0.005222539 0.0028781318 0.01790675 0.028457198 0.061556686 0.02266242 -0.058119666
-0.0028478915 0.0022704566 0.0627082 0.043568414 0.04992472 0.050231613 -0.021403478 -0.066219635

model.6.bias f4 [16]
00000000: 9306 d43b a1bb 20bd 8cee 6abd 01f3 3b3d
00000010: 4ab2 533d e6ec d83c 388e 803d 805c 1d3d
00000020: e74f 8b3d 314d 343b 5daf 723d dadf aa3c
00000030: d63f 4bbd f83e 283d aa5c c03b d13f c83b
0.0064705103 -0.039241437 -0.057356402 0.045886043 0.0516837 0.02648015 0.06277126 0.038418293
0.068023495 0.002751183 0.05924927 0.020858694 -0.049621426 0.041075677 0.0058704214 0.006111123
