data/checkpoints/rlgym-ppo-run-1760842305955113400/837174352/PPO_VALUE_NET.pt (torch, 623393 bytes, 7 tensors)

model.0.weight f4 [256, 89]
0.4231526 -0.32036558 0.083121605 -0.6905915 -0.23311698 -0.12372604 0.014275374 -0.10883549
0.07769318 -0.0037936452 -0.007719511 -0.007400486 -0.0023492968 -0.032001883 0.054492258 -0.007427527
-0.016300272 -0.0037385314 0.068877175 -0.023539562 -0.087061726 0.07158053 -0.035582393 0.020949427
-0.05170214 0.03795282 0.063300766 0.007971374 -0.030643864 -0.11709656 0.002668809 -0.08826446
0.021916939 -0.030713048 0.014024242 0.089571506 0.0376724 0.03545015 -0.027345205 -0.073036075
-0.018787479 0.09266811 -0.03550252 0.035604272 0.03493796 0.03609264 -0.0982108 0.091550976
-0.079905115 0.07020486 -0.0028928458 0.5590331 0.29805562 0.6530041 0.06216606 -0.04267236
0.07398477 0.014037239 -0.18148115 0.020206926 0.19504581 0.013381129 0.499198 0.14768851
0.055023465 -0.009394891 0.07814755 0.020834763 0.00471635 -0.10215587 0.325118 -0.0503212
0.17439832 -0.008672483 -0.028214883 -0.009307101 0.013856759 -0.044061214 -0.017950853 0.18138075
0.11978412 0.23777875 0.027262641 0.054957833 0.05876415 0.15202694 0.047586754 -0.007783452
0.114168525 -0.27113682 0.8082402 -0.03581254 -0.2516432 -1.1117033 -0.12425213 -0.04575468
0.00251691 0.20176412 0.0136965215 -0.002675668 -0.008319218 0.0018150978 0.017295409 0.013547164
0.0068693813 0.013659873 0.02044601 0.035646446 -0.13502836 -0.07471047 -0.054250434 -0.010744949
0.047852345 0.015785404 -0.10099615 0.034871344 0.026407538 -0.045307927 0.05002502 -0.0070739626
0.010106599 -0.018510625 -0.025112959 -0.03077914 -0.1414313 0.043326948 -0.02041647 -0.06919039
0.004600262 0.07482636 -0.05996306 0.008878824 0.052980393 0.046629936 0.04841228 0.014662662
0.008037715 -0.015559557 -0.03593888 0.09074941 0.13586879 -0.0550019 0.4597522 0.018880932
0.019011617 -0.048197847 -0.01690554 -0.04612674 -0.032877035 0.039750773 0.49781072 0.4535955
-0.008295766 -0.019229935 0.042186614 0.113589436 0.001158005 0.030944386 -0.17377336 0.051624026
-0.07536398 0.02597378 0.011262662 -0.006981566 0.012763 0.0020072185 0.007161612 0.001672456
0.097871095 0.24655125 0.023141583 0.023264986 0.005016553 0.027387878 -0.13582988 0.0115869315
0.0024008409 -0.18277095 -0.8920842 -1.602642 0.2856373 -0.026700541 0.0025127016 0.029079115
0.014540408 -0.007667304 0.0107047185 -0.0025710692 0.0015652161 0.0010913141 0.0023418507 0.0027178682
0.008663526 0.0010410411 -0.0033322596 0.0032811975 0.032844923 0.048574146 0.04189868 0.04295397
0.05226431 -0.06575309 0.015396303 -0.10641045 0.062735446 0.035223875 0.0023689137 0.054854833
0.043128256 0.03923827 -0.028618632 -0.05334462 0.019196335 -0.042249784 0.052523833 0.01329631
0.027667273 0.0019964983 0.031916507 -0.010858118 -0.07894976 0.0017004884 0.014607003 -0.0062348684
-0.10419678 -0.083383 -0.06018404 -0.0030190828 -0.008852659 1.022596 1.5595794 0.24201937
-0.0033909956 -0.006585074 -0.001569057 0.011441068 -0.014372655 0.012246498 0.13135636 0.039257117
0.14282386 -0.0020061096 0.0056369747 -0.002282927 0.18866302 -0.008163879 -0.013915192 0.011810535
-0.09781762 -0.009650847 0.07577827 0.0087958425 0.0029183663 -0.00059031934 0.0009534831 0.00386528
00000000: 75a7 d83e f506 a4be a93b aa3d 9bca 30bf
00000010: 38b6 6ebe 1464 fdbd 42e3 693c 24e5 debd
00000020: 9a1d 9f3d ce9e 78bb f4f3 fcbb c77f f2bb
00000030: a9f6 19bb 6814 03bd 4633 5f3d 9d62 f3bb
00000040: 2688 85bc 2602 75bb 7a0f 8d3d 0ad6 c0bc
00000050: 6b4d b2bd d098 923d d8be 11bd 229e ab3c
00000060: a0c5 53bd 6b74 1b3d d5a3 813d 5e9a 023c
00000070: d708 fbbc 52d0 efbd 2fe7 2e3b ffc3 b4bd
00000080: 278b b33c ee99 fbbc efc5 653c 4471 b73d
00000090: 604e 1a3d 2d34 113d 0d03 e0bc f093 95bd
000000a0: 33e8 99bc c7c8 bd3d 176b 11bd c9d5 113d
000000b0: 1b1b 0f3d e0d5 133d be22 c9bd 147f bb3d
000000c0: 4ba5 a3bd 91c7 8f3d e695 3dbb cb1c 0f3f
000000d0: bf9a 983e 472b 273f d7a1 7e3d 36c9 2ebd
000000e0: 5485 973d 73fc 653c 32d6 39be ff88 a53c
000000f0: 17ba 473e 863c 5b3c e196 ff3e a83b 173e
00000100: 4960 613d 07ed 19bc d30b a03d aaad aa3c
00000110: 9d8b 9a3b 1937 d1bd de75 a63e 9a1d 4ebd
00000120: 7995 323e 0817 0ebc e622 e7bc d07c 18bc
00000130: 7607 633c 8879 34bd ab0d 93bc e0bb 393e
00000140: 6051 f53d 467c 733e e755 df3c 771b 613d
00000150: adb2 703d f3ac 1b3e 54ea 423d 540c ffbb
00000160: 30d1 e93d 72d2 8abe d4e8 4e3f 2cb0 12bd
00000170: 61d7 80be 4b4c 8ebf e777 febd 4269 3bbd
00000180: bef2 243b 419b 4e3e 6067 603c 435a 2fbb
00000190: 544d 08bc 93e8 ed3a 1aaf 8d3c edf4 5d3c
000001a0: 8c18 e13b a9cd 5f3c 647e a73c 0202 123d
000001b0: e044 0abe ce01 99bd b435 5ebd 950b 30bc
000001c0: d200 443d 6450 813c 12d7 cebd 41d5 0e3d
000001d0: 9f54 d83c ce94 39bd 09e7 4c3d b3cc e7bb
000001e0: 2696 253c 98a3 97bc b1b9 cdbc 8924 fcbc
000001f0: 5ed3 10be 9977 313d 7140 a7bc b1b3 8dbd
00000200: cbbd 963b 903e 993d d39b 75bd 7d78 113c
00000210: f801 593d 08ff 3e3d f44b 463d a93b 703c
00000220: 9fb0 033c 83ed 7ebc a634 13bd d4da b93d
00000230: 3021 0b3e ac49 61bd a464 eb3e 2fac 9a3c
00000240: 40be 9b3c 1b6b 45bd 7d7d 8abc 64ef 3cbd
00000250: 12aa 06bd b5d1 223d 0ce1 fe3e ab3d e83e
00000260: f7ea 07bc 1988 9dbc dfcb 2c3d 94a1 e83d
00000270: 33c8 973a 157f fd3c a5f1 31be b773 533d
00000280: 6e58 9abd f7c6 d43c 0787 383c 9fc5 e4bb
00000290: e71b 513c 8a8b 033b f5ab ea3b 5036 db3a
000002a0: a470 c83d ee77 7c3e 6b93 bd3c 3696 be3c
000002b0: e661 a43b 8b5c e03c fd16 0bbe 1dd7 3d3c
000002c0: 6d57 1d3b 4f28 3bbe a15f 64bf 6023 cdbf
000002d0: 0d3f 923e 18bb dabc 23ac 243b 5337 ee3c
000002e0: e43a 6e3c 023e fbbb d862 2f3c 627f 28bb
000002f0: f027 cd3a 6d0a 8f3a bc79 193b 431e 323b
00000300: 76f1 0d3c 8b73 883a 0a62 5abb 5c09 573b
00000310: 6688 063d aff5 463d f39d 2b3d 81f0 2f3d
00000320: 1a13 563d 8ea9 86bd c640 7c3c b9ed d9bd
00000330: 717b 803d e946 103d c73f 1b3b 76af 603d
00000340: 41a7 303d 4fb8 203d 9f71 eabc e37f 5abd
00000350: a241 9d3c 1c0e 2dbd 3b23 573d c4d8 593c
00000360: 7aa6 e23c afd7 023b e2ba 023d 3fe6 31bc
00000370: 69b0 a1bd ece2 de3a 3652 6f3c de4d ccbb
00000380: 1f65 d5bd b5c4 aabd 8a83 76bd cedb 45bb
00000390: be0a 11bc 6de4 823f 4ca0 c73f edd3 773e
000003a0: 773b 5ebb 9bc7 d7bb d1a8 cdba 5173 3b3c
000003b0: 497b 6bbc 89a5 483c 4882 063e 12cc 203d
000003c0: 6b40 123e ef78 03bb 5fb6 b83b 299d 15bb
000003d0: e130 413e cac1 05bc 8cfc 63bc f980 413c
000003e0: 9b54 c8bd 961e 1ebc a331 9b3d 701c 103c
000003f0: 1042 3f3b a9bf 1aba 2bf3 793a a350 7d3b

model.0.bias f4 [256]
0.019496556 -0.15145089 0.05513632 -0.11583108 0.14723566 0.019914603 0.046980575 0.064154916
-0.050505206 -0.08804957 -0.032903258 -0.045664575 0.053890303 -0.09572161 0.10648658 0.10147981
-0.061783493 -0.10141769 -0.10939769 0.095257305 0.029155713 -0.010605476 -0.029526327 0.04406796
-0.009991526 -0.034830466 -0.087916166 0.09597879 0.06464133 0.04724703 -0.056925856 -0.022871768
0.066592015 -0.028574424 -0.052950993 -0.07868599 -0.08202827 -0.05341004 -0.09168557 -0.012192667
-0.10757311 0.03669113 -0.04252783 0.040132135 -0.056581344 -0.0065821963 0.041941218 -0.031944964
0.015882308 0.03347066 -0.04212761 -0.025196126 0.052234516 0.06281395 -0.102265865 -0.08697539
0.056703687 0.06386319 -0.000224234 0.06598881 0.00061029615 0.051803913 -0.04120908 0.043120224
-0.04927132 -0.039367583 -0.06540151 -0.04421465 -0.0151465945 0.019226769 -0.008669236 -0.06842976
0.110543184 0.09164985 0.00053604064 -0.014629611 -0.04961485 -0.019152476 -0.09815128 0.0066465754
-0.067479745 -0.07445262 -0.016708925 -0.10884649 0.040592674 -0.06370353 0.047629982 0.06958207
0.1086535 -0.061139688 0.03098557 0.097478986 0.010023962 -0.053954326 -0.025836354 0.017899603
-0.0815324 -0.04486252 0.04571264 0.01414258 -0.012968196 0.08394416 0.00030670766 -0.079317704
0.04164373 0.023415284 -0.026325213 -0.04327847 -0.0027264259 -0.072934814 -0.047977038 0.07086355
0.0123042185 -0.009582512 0.082080625 -0.09874229 0.078395404 -0.036907036 -0.08651212 -0.038103767
0.06539614 -0.0705083 -0.08760545 -0.029254222 -0.026606943 -0.026327217 0.006388659 -0.022485996
0.037786115 0.04857179 -0.06425917 0.039246783 0.09112496 -0.028650463 -0.07030839 -0.07774757
-0.08215257 0.025829062 0.04296118 0.029326128 -0.0928089 -0.06553006 0.06714809 -0.005771805
-0.012521482 0.08296305 -0.04083709 0.08423922 0.018518075 -0.097157955 0.048740424 0.00668782
0.016279126 0.024748728 -0.062380478 -0.0047013145 0.09538953 -0.09099268 0.034920942 0.047985595
-0.032955304 -0.052783243 -0.018597739 0.045594096 0.09022887 0.007035735 -0.013505376 0.06847275
0.08519862 -0.04775782 0.025592625 0.056185015 -0.05838761 -0.052957404 0.055139054 0.01210223
-0.0012495178 0.057295177 -0.034182046 -0.054012325 -0.05357959 -0.11878292 -0.03007677 -0.01981405
-0.0035759595 0.110180095 0.0109422775 0.015479713 0.084511004 -0.0109755015 -0.028130224 -0.1010531
-0.046522886 0.026936946 0.08030003 -0.083054006 -0.0023866126 0.10022707 -0.053406935 -0.019133221
0.014116778 -0.027167767 -0.030501593 0.112870716 -0.06367859 0.080341175 0.014416743 -0.043711603
0.08684456 0.009114701 -0.025842886 -0.006143683 0.018256696 -0.031955473 -0.025036562 0.026066212
-0.042463414 0.054313317 0.038881566 0.05295537 -0.053316675 -0.07268803 0.015049498 -0.06930728
-0.11899523 0.04317361 0.03548994 0.07109496 0.04408859 -0.0005545122 0.12374675 -0.029226856
0.0050462345 -0.0979413 0.046387065 -0.00579172 0.021100584 0.028193176 0.000997506 0.0138222575
-0.0054078368 -0.0964977 -0.039972257 0.06810314 -0.019850291 0.07195633 -0.065651335 -0.04269132
0.09848425 0.046612646 -0.10808215 0.004059167 0.081093386 0.095642075 -0.0768381 -0.030708345
00000000: 3eb7 9f3c f115 1bbe 9fd6 613d d838 edbd
00000010: f2c4 163e f323 a33c b46e 403d a763 833d
00000020: 8cde 4ebd 5553 b4bd 91c5 06bd c70a 3bbd
00000030: 14bc 5c3d b109 c4bd a315 da3d a6d4 cf3d
00000040: b010 7dbd 14b4 cfbd e50b e0bd 4316 c33d
00000050: f6d7 ee3c 97c2 2dbc 32e1 f1bc 9b80 343d
00000060: 7fb3 23bc 64aa 0ebd 640d b4bd 8790 c43d
00000070: ac62 843d 1a86 413d 162b 69bd 935d bbbc
00000080: 6561 883d e914 eabc 24e3 58bd 1f26 a1bd
00000090: 70fe a7bd 7cc4 5abd a5c5 bbbd c1c3 47bc
000000a0: 4a4f dcbd 7049 163d a931 2ebd 9861 243d
000000b0: d7c1 67bd 77af d7bb 8eca 2b3d b9d8 02bd
000000c0: 9d1b 823c 8818 093d 008e 2cbd 1b68 cebc
000000d0: dcf3 553d 9aa4 803d c470 d1bd 2720 b2bd
000000e0: 2042 683d b4ca 823d 5b20 6bb9 2425 873d
000000f0: 48fc 1f3a 5730 543d daca 28bd d59e 303d
00000100: b9d0 49bd e73f 21bd 3af1 85bd 6c1a 35bd
00000110: 6c29 78bc 7581 9d3c 6909 0ebc e724 8cbd
00000120: 7764 e23d ebb2 bb3d 1485 0c3a 09b1 6fbc
00000130: f138 4bbd a7e5 9cbc 8a03 c9bd 84cb d93b
00000140: d232 8abd 9e7a 98bd 28e1 88bc e9ea debd
00000150: 8144 263d ff76 82bd a817 433d 0b81 8e3d
00000160: ba85 de3d 9c6d 7abd 73d5 fd3c 10a3 c73d
00000170: 8b3b 243c 36ff 5cbd c3a6 d3bc 30a2 923c
00000180: 75fa a6bd c3c1 37bd 2d3d 3b3d 48b6 673c
00000190: 8e78 54bc eaea ab3d 9bcd a039 5271 a2bd
000001a0: 9e92 2a3d 69d1 bf3c f9a7 d7bc c444 31bd
000001b0: d6ad 32bb d95e 95bd 9283 44bd e920 913d
000001c0: a297 493c f8ff 1cbc e319 a83d 6639 cabd
000001d0: c58d a03d d52b 17bd 442d b1bd b212 1cbd
000001e0: 69ee 853d a866 90bd 7c6a b3bd 8da6 efbc
000001f0: cef6 d9bc 2dac d7bc f557 d13b 8d34 b8bc
00000200: 9dc5 1a3d 37f3 463d 509a 83bd 3cc1 203d
00000210: b99f ba3d 60b4 eabc d8fd 8fbd 1e3a 9fbd
00000220: 9b3f a8bd 7897 d33c 10f8 2f3d 593d f03c
00000230: 9812 bebd a034 86bd f084 893d 6921 bdbb
00000240: e726 4dbc 88e8 a93d cb44 27bd 9d85 ac3d
00000250: 38b3 973c c0fa c6bd 0aa4 473d 8025 db3b
00000260: cd5b 853c d8bd ca3c ac82 7fbd 7c0d 9abb
00000270: 965b c33d 5f5a babd 4309 0f3d 8b8c 443d
00000280: 24fc 06bd 3e33 58bd 495a 98bc e0c0 3a3d
00000290: eac9 b83d 068c e63b a745 5dbc 713b 8c3d
000002a0: 9d7c ae3d b49d 43bd a0a7 d13c 4222 663d
000002b0: d927 6fbd dde9 58bd 7dd9 613d 6f48 463c
000002c0: dcc6 a3ba 59ae 6a3d 7902 0cbd 073c 5dbd
000002d0: 4676 5bbd 7644 f3bd 8f63 f6bc 1351 a2bc
000002e0: a55a 6abb 1aa6 e13d 3d47 333c 9f9e 7d3c
000002f0: 1b14 ad3d 97d2 33bc 5b71 e6bc edf4 cebd
00000300: c88e 3ebd dfaa dc3c 5874 a43d 3818 aabd
00000310: b768 1cbb da43 cd3d 3bc1 5abd 46bd 9cbc
00000320: 0f4a 673c f08e debc 7ade f9bc c328 e73d
00000330: ec69 82bd ea89 a43d 3434 6c3c f00a 33bd
00000340: 90db b13d d455 153c 76b4 d3bc f350 c9bb
00000350: 118f 953c bee3 02bd 7a19 cdbc cf88 d53c
00000360: 1eee 2dbd a477 5e3d 4742 1f3d bbe7 583d
00000370: 9662 5abd 76dd 94bd 2b92 763c faf0 8dbd
00000380: c5b3 f3bd d0d6 303d e65d 113d 3c9a 913d
00000390: 3d96 343d af5c 11ba f06e fd3d 296d efbc
000003a0: e25a a53b 7395 c8bd 5d00 3e3d 78c8 bdbb
000003b0: 22db ac3c 60f5 e63c bfbe 823a c076 623c
000003c0: 3934 b1bb 96a0 c5bd f3b9 23bd a979 8b3d
000003d0: 149d a2bc d75d 933d 3574 86bd 18dd 2ebd
000003e0: 1cb2 c93d e7ec 3e3d 2d5a ddbd c302 853b
000003f0: 4a14 a63d fedf c33d 4b5d 9dbd 1190 fbbc

model.2.weight f4 [256, 256]
-0.09034789 0.0001918828 -0.2262453 -0.041501578 0.004479164 0.04788798 -0.0648996 -0.11178907
0.07085048 0.032311004 0.044147033 0.1534822 -0.09275942 0.07452337 -0.058724023 -0.010184848
0.05058063 -0.028346026 0.0628675 0.05596028 -0.22930287 0.06757208 0.17100304 0.023102585
-0.050243936 0.0011284336 -0.118926875 0.007046655 0.46624243 0.062600836 0.106723726 -0.13434832
-0.008183022 -0.054324426 0.1262163 -0.06319981 -0.04637614 -0.06254327 0.13251172 0.007790507
-0.59781134 -0.097503744 0.037203453 0.030150268 -0.17851295 0.05890264 0.08152738 -0.110839196
0.13071312 -0.0651674 0.11599364 0.26883945 0.13276164 -0.0663957 0.051274255 -0.14890121
0.008714438 0.061419442 0.056399737 0.04197342 0.1491723 -0.039806012 0.12722714 0.033285163
-0.0074668913 -0.041174866 0.051823013 0.082986176 -0.03135084 -0.045302946 -0.015079404 0.14180149
0.03322945 0.02076517 0.017290603 -0.13111001 0.21422023 -0.10835123 0.07414111 0.039513737
0.063119315 0.15922704 -0.06407568 -0.1331033 -0.054118846 -0.0069032954 -0.6389813 0.07169026
-0.0084944945 -0.019072061 0.06986639 -0.14990643 0.08594579 0.22942083 0.03031048 -0.051748957
-0.05117596 -0.12997757 -0.038538024 0.09862542 -0.2341806 0.16490239 0.103891015 0.032142222
0.0369275 0.17781563 -0.23445478 -0.11036953 0.1384683 -0.02420979 0.0038283018 0.13345827
0.39900973 0.034170553 0.09542065 0.0280288 0.116467215 -0.04976399 -0.055238668 -0.0027362755
-0.1365417 -0.09233413 -0.22689961 -0.047035426 0.1409154 -0.018553598 0.014178194 -0.03668056
0.044618126 -0.09315369 0.0122406855 0.06599857 -0.36338484 -0.011539217 -0.012757975 -0.06161372
-0.18209393 -0.016444385 0.008013958 -0.16092168 -0.10266892 -0.035968874 0.037778452 -0.2342509
-0.25638154 0.00322294 -0.09641036 0.20059368 -0.14900519 0.12526867 -0.026044246 0.061727334
0.12866731 -0.05553173 -0.09232744 -0.13538663 0.036181927 0.06779477 -0.0938857 -0.017976698
-0.16389422 -0.14623387 -0.086825185 0.075862475 0.095896915 0.094818555 0.21137145 0.029786892
0.039959643 0.024187345 0.087712325 -0.07624603 0.10389476 -0.07041795 0.09290811 0.010525665
-0.10595204 -0.16904181 -0.074977905 0.021617146 -0.094755724 0.15060098 0.0034940063 -0.010906235
0.014246611 -0.11790328 0.16275793 -0.061682463 0.018453103 0.00606702 -0.010394982 0.09190364
-0.15947995 0.038020916 0.057543065 0.16100615 -0.0845188 0.0061356816 -0.031646594 -0.0049947775
-0.101620324 0.08996544 0.022111082 0.021563567 -0.16850476 -0.2097983 0.03983425 -0.10066012
0.0008914243 -0.0993492 -0.07386246 -0.007013117 -0.12717955 -0.037307918 0.09555408 -0.00876858
-0.0167974 0.02947326 0.12073751 0.036970045 0.10898401 -0.039050512 -0.08486481 0.05186099
0.010023972 0.02226979 -0.04652453 -0.030292775 0.11331957 0.10152673 -0.006782833 0.016196297
-0.009077692 -0.06754971 0.1713374 0.13363186 -0.02456304 0.0021256437 -0.04304582 -0.025164094
0.06918824 -0.014295958 0.09544449 0.029655276 -0.05313836 0.08446711 -0.08684342 0.025945805
-0.002460805 0.07249975 -0.16955613 0.014482217 -0.120810464 -0.065196164 0.035742786 -0.25210455
00000000: 5108 b9bd 2634 4939 d9ac 67be 8ffd 29bd
00000010: f3c5 923b 3026 443d 15ea 84bd abf1 e4bd
00000020: 0e1a 913d 8b58 043d 85d3 343d 702a 1d3e
00000030: a7f8 bdbd b59f 983d 9a88 70bd 59de 26bc
00000040: a22d 4f3d ed35 e8bc adc0 803d 9b36 653d
00000050: 5fce 6abe 3b63 8a3d 6c1b 2f3e a241 bd3c
00000060: 96cc 4dbd f3e7 933a ef8f f3bd a0e7 e63b
00000070: 54b7 ee3e de34 803d f891 da3d 9b92 09be
00000080: 1512 06bc 4a83 5ebd d93e 013e e76e 81bd
00000090: e8f4 3dbd b016 80bd 27b1 073e 8247 ff3b
000000a0: 2a0a 19bf 0bb0 c7bd a662 183d b2fd f63c
000000b0: 19cc 36be e543 713d d4f7 a63d a9ff e2bd
000000c0: a9d9 053e 7c76 85bd 138e ed3d 53a5 893e
000000d0: abf2 073e 78fa 87bd f404 523d 8f79 18be
000000e0: 01c7 0e3c f492 7b3d 6903 673d 52ec 2b3d
000000f0: a0c0 183e a10b 23bd d547 023e 0656 083d
00000100: d3ac f4bb faa6 28bd 5e44 543d a8f4 a93d
00000110: bd69 00bd 958f 39bd 9b0f 77bc 6934 113e
00000120: 9b1b 083d b81b aa3c 06a5 8d3c b441 06be
00000130: 8c5c 5b3e 40e7 ddbd 4bd7 973d 28d9 213d
00000140: b344 813d 6a0c 233e 1c3a 83bd 3b4c 08be
00000150: b9ab 5dbd 0a35 e2bb 4794 23bf 58d2 923d
00000160: 7e2c 0bbc 033d 9cbc 1c16 8f3d 1281 19be
00000170: 5904 b03d 4bed 6a3e af4d f83c b7f6 53bd
00000180: e29d 51bd d718 05be 0cda 1dbd 20fc c93d
00000190: 0acd 6fbe 2cdc 283e d0c4 d43d 90a7 033d
000001a0: 4a41 173d 4d15 363e ea14 70be 6c09 e2bd
000001b0: a2ca 0d3e 9c53 c6bc 3fe4 7a3b 49a9 083e
000001c0: 014b cc3e 6cf6 0b3d e76b c33d a79c e53c
000001d0: 5d86 ee3d 53d5 4bbd f141 62bd 1653 33bb
000001e0: 96d1 0bbe ad19 bdbd 5f58 68be 38a8 40bd
000001f0: 204c 103e b7fd 97bc a84b 683c 5b3e 16bd
00000200: 7fc1 363d 5dc7 bebd 288d 483c 422a 873d
00000210: 940d babe fc0e 3dbc d306 51bc ab5e 7cbd
00000220: d576 3abe 60b6 86bc fa4c 033c a7c8 24be
00000230: 1544 d2bd 1954 13bd 94bd 1a3d 78df 6fbe
00000240: 7144 83be f637 533b cb72 c5bd 6e68 4d3e
00000250: d194 18be 6e46 003e be5a d5bc cdd5 7c3d
00000260: 5dc1 033e 3d75 63bd 2b16 bdbd cba2 0abe
00000270: 8033 143d fcd7 8a3d 2547 c0bd de43 93bc
00000280: e3d3 27be 55be 15be 67d1 b1bd c95d 9b3d
00000290: 9a65 c43d 3b30 c23d c271 583e a403 f43c
000002a0: b9ac 233d 8a24 c63c 85a2 b33d e126 9cbd
000002b0: c7c6 d43d 4937 90bd 9b46 be3d d773 2c3c
000002c0: 62fd d8bd 4c19 2dbe 048e 99bd 7116 b13c
000002d0: 4a0f c2bd 2537 1a3e b3fb 643b 11b0 32bc
000002e0: 9e6a 693c 4677 f1bd 04aa 263e c0a6 7cbd
000002f0: f62a 973c dacd c63b b74f 2abc fa37 bc3d
00000300: b64e 23be d2bb 1b3d 47b2 6b3d ccde 243e
00000310: 3118 adbd d40d c93b dc9f 01bd 3bab a3bb
00000320: 511e d0bd cd3f b83d 4d22 b53c 14a6 b03c
00000330: 838c 2cbe 5ed5 56be 3d29 233d e526 cebd
00000340: 79ae 693a 9877 cbbd 3445 97bd 4ace e5bb
00000350: 5b3b 02be 30d0 18bd dcb1 c33d 17aa 0fbc
00000360: b39a 89bc e871 f13c 3a45 f73d e76d 173d
00000370: 0233 df3d 6ef3 1fbd 9acd adbd 306c 543d
00000380: 963b 243c 226f b63c 8190 3ebd 8e28 f8bc
00000390: 1714 e83d 3fed cf3d 8742 debb 19ae 843c
000003a0: 9aba 14bc 8157 8abd 1273 2f3e cad6 083e
000003b0: 6e38 c9bc 624e 0b3b d050 30bd ee24 cebc
000003c0: 90b2 8d3d 9839 6abc 6778 c33d 9fef f23c
000003d0: 9ca7 59bd 18fd ac3d f7da b1bd 4c8c d43c
000003e0: 7545 21bb c07a 943d 1fa0 2dbe d246 6d3c
000003f0: 7a6b f7bd 9185 85bd 0767 123d d913 81be

model.2.bias f4 [256]
0.09564088 0.026198737 0.018203948 -0.017153865 0.08087042 0.027593786 0.050183814 0.09741383
-0.04376307 0.02909148 -0.15890406 0.042521413 -0.03334899 0.041257147 0.047741164 0.0825296
-0.03801987 -0.018826611 -0.02645099 -0.06356646 -0.050962646 0.026592152 0.011789155 0.09866742
-0.031987835 -0.030378504 0.07900257 -0.021566143 -0.031324606 -0.065089405 -0.02315578 0.001023752
-0.0044142827 -0.038482204 0.054769855 -0.08090497 -0.005734158 -0.047767296 0.0018178007 -0.044549618
0.047527693 -0.009391263 0.0042390022 0.005495122 -0.07617661 -0.014962601 0.012317367 -0.024595119
0.053876854 0.026604842 -0.05132205 -0.06232969 0.013336721 -0.15523486 -0.022729432 -0.09593262
0.00710931 0.078409195 -0.0016854464 0.016700776 -0.04151158 0.04277924 0.03273377 -0.044193204
-0.02296293 -0.12176437 0.052841086 0.08075128 -0.017521212 0.048302785 0.01592698 0.045011118
-0.053814813 0.021904178 0.023039227 -0.007241988 0.012432024 0.04389873 0.077152394 0.028191708
-0.045389753 -0.011950327 0.071981564 0.09979428 -0.059746344 0.04697664 0.0282456 0.08784458
-0.016321788 0.0074214065 -0.0076703746 -0.009577357 -0.039645683 0.027829109 0.03801027 0.07710083
0.03716427 -0.10237539 0.02444914 -0.026915757 -0.034995157 -0.03377259 0.037426602 0.028020388
-0.064724736 0.046807095 -0.004687494 0.04528988 -0.00054774026 -0.0986736 -0.009616577 0.042917408
0.03717882 0.015597761 -0.017093172 0.055260353 -0.041036885 -0.034510914 -0.009903418 -0.030473592
0.026575433 -0.057376973 0.067961544 -0.0014878085 -0.009135841 -0.024934275 -0.08708455 0.0139627
0.0010537127 -0.02816835 -0.046756532 -0.044102456 0.10218509 -0.10022902 0.039299358 -0.080038086
0.011423861 -0.073164426 -0.0052319653 0.042999547 0.09940951 -0.08965351 0.06529947 0.023913454
0.112193674 0.088729605 -0.055223197 0.076502495 0.007216366 -0.035993893 0.023071494 0.017484173
-0.039946202 -0.018354226 -0.047432326 0.07205913 -0.009096654 0.09670767 -0.085539035 -0.050897993
0.0029436394 -0.035309684 -0.022264171 -0.061106566 0.046633936 -0.048693534 -2.4395244e-05 -0.021772912
-0.0030680704 0.034510907 0.07773754 0.062662214 -0.00012328703 -0.04231099 -0.032615382 0.06277197
0.03289268 0.029191317 -0.13192363 0.018697636 -0.025726184 0.084501274 -0.023302373 -0.028203666
0.00079339225 -0.048535723 0.0524884 -0.029330187 0.0636119 -0.0039490415 -0.040202904 0.053238954
-0.042303797 0.0069238762 -0.035057597 -0.023797361 0.038572412 0.074062616 0.034132533 0.018425569
0.09342788 0.024534037 0.053166475 0.032936044 0.007317254 -0.105610065 -0.015036933 -0.0045547104
-0.040927615 -0.0064910105 0.039436392 -0.06141879 0.0711993 -0.010441284 -0.010497702 0.024819374
-0.03200007 -0.033131894 0.034182224 -0.02761305 -0.011062487 0.028507557 0.037199073 -0.02659656
0.04182008 -0.009930935 0.088400945 -0.017466683 -0.027972812 0.048484836 -0.0033973516 -0.015943725
0.032109074 0.050566033 -0.036798026 0.0015964422 -0.0013831679 0.045425676 0.03211982 -0.0009235308
-0.0065117665 0.0183113 -0.06726638 0.0011853804 -0.01714879 0.018603459 -0.041177765 -0.010885089
0.05378434 -0.006121837 -0.060641084 -0.040235963 0.037925012 -0.0045791445 -0.04263187 -0.042871404
00000000: 5edf c33d bc9e d63c 7220 953c 4386 8cbc
00000010: 649f a53d 5d0c e23c 8b8d 4d3d e780 c73d
00000020: e840 33bd 4151 ee3c bfb7 22be ef2a 2e3d
00000030: f398 08bd 41fd 283d 3d8c 433d 4705 a93d
00000040: b9ba 1bbd 443a 9abc bfaf d8bc 222f 82bd
00000050: 35be 50bd c9d7 d93c 4d27 413c 2512 ca3d
00000060: ad05 03bd 57dc f8bc 19cc a13d 7bab b0bc
00000070: 3b4e 00bd 984d 85bd 31b1 bdbc 6b2f 863a
00000080: b0a5 90bb 849f 1dbd 5b56 603d 81b1 a5bd
00000090: 9be5 bbbb a4a7 43bd 4543 ee3a a979 36bd
000000a0: 66ac 423d d0dd 19bc 54e7 8a3b 6d10 b43b
000000b0: 7c02 9cbd b225 75bc c8ce 493c b47b c9bc
000000c0: faad 5c3d 66f2 d93c 1237 52bd 6b4d 7fbd
000000d0: 4382 5a3c e3f5 1ebe 1333 babc 5278 c4bd
000000e0: 37f5 e83b 0095 a03d 32ea dcba 11d0 883c
000000f0: 0c08 2abd 4939 2f3d d813 063d ef03 35bd
00000100: c11c bcbc 995f f9bd e56f 583d ed60 a53d
00000110: a588 8fbc 24d9 453d 4c79 823c 945d 383d
00000120: ec6c 5cbd 6470 b33c c3bc bc3c 334e edbb
00000130: b0af 4b3c 28cf 333d 1302 9e3d 4cf2 e63c
00000140: 9bea 39bd 4ecb 43bc 126b 933d f260 cc3d
00000150: 95b8 74bd 946a 403d 5163 e73c dce7 b33d
00000160: 45b5 85bc 452f f33b c457 fbbb 59ea 1cbc
00000170: 8363 22bd dff9 e33c a8b0 1b3d 0ae7 9d3d
00000180: 9039 183d 30aa d1bd 9049 c83c 6f7e dcbc
00000190: 1557 0fbd 2155 0abd a34c 193d 038b e53c
000001a0: 678e 84bd ccb8 3f3d 8d99 99bb e281 393d
000001b0: 3a96 0fba 6215 cabd d98e 1dbc 2aca 2f3d
000001c0: d248 183d c08d 7f3c fb06 8cbc ae58 623d
000001d0: 4b16 28bd 515b 0dbd f241 22bc c1a3 f9bc
000001e0: b9b4 d93c 1e04 6bbd 6c2f 8b3d 9202 c3ba
000001f0: 7fae 15bc f742 ccbc 6259 b2bd cfc3 643c
00000200: bb1c 8a3a 50c1 e6bc c783 3fbd c7a4 34bd
00000210: 6b46 d13d df44 cdbd 5df8 203d 02eb a3bd
00000220: 252b 3b3c 3bd7 95bd e870 abbb 4b20 303d
00000230: 3797 cb3d 429c b7bd bbbb 853d 26e6 c33c
00000240: ccc5 e53d deb7 b53d b831 62bd 57ad 9c3d
00000250: 4477 ec3b 556e 13bd 6e00 bd3c f83a 8f3c
00000260: a19e 23bd 9a5b 96bc 6648 42bd bd93 933d
00000270: 220a 15bc ac0e c63d 172f afbd 6a7a 50bd
00000280: 13ea 403b e3a0 10bd 5a63 b6bc e14a 7abd
00000290: 3a03 3f3d df72 47bd 63a4 ccb7 1b5d b2bc
000002a0: ae11 49bb 4f5b 0d3d dc34 9f3d 0c55 803d
000002b0: 9c46 01b9 4a4e 2dbd b597 05bd 978e 803d
000002c0: 7aba 063d a122 ef3c fd16 07be c92b 993c
000002d0: b8bf d2bc 010f ad3d 9ee4 bebc 600b e7bc
000002e0: a7fb 4f3a 65cd 46bd 14fe 563d dc45 f0bc
000002f0: f546 823d f666 81bb cdab 24bd 1711 5a3d
00000300: bf46 2dbd afe1 e23b 8e98 0fbd aff2 c2bc
00000310: 1bfe 1d3d 24ae 973d 8ece 0b3d 38f1 963c
00000320: 1e57 bf3d 9bfb c83c 17c5 593d f2e7 063d
00000330: 93c5 ef3b 174a d8bd 785d 76bc ae3f 95bb
00000340: b7a3 27bd 8bb2 d4bb 0e88 213d 4592 7bbd
00000350: f0d0 913d eb11 2bbc 8efe 2bbc 0052 cb3c
00000360: 8112 03bd 4fb5 07bd a902 0c3d c334 e2bc
00000370: 6f3f 35bc ae88 e93c 0e5e 183d 07e1 d9bc
00000380: 884b 2b3d 5cb5 22bc 8e0b b53d 4a16 8fbc
00000390: 3d27 e5bc 0998 463d 1aa6 5ebb 6a9c 82bc
000003a0: ce84 033d 541e 4f3d 87b9 16bd b63f d13a
000003b0: 6a4b b5ba 4610 3a3d 1390 033d 1a19 72ba
000003c0: a860 d5bb 9401 963c f5c2 89bd c45e 9b3a
000003d0: 9f7b 8cbc 4866 983c 04aa 28bd 5f57 32bc
000003e0: f84c 5c3d b199 c8bb c962 78bd 77ce 24bd
000003f0: 4257 1b3d a60c 96bb c19e 2ebd ed99 2fbd

model.4.weight f4 [256, 256]
-0.15116103 0.03203293 -0.28898332 0.034642853 -0.09184456 -0.039340846 -0.2031837 -0.22891347
-0.0050101536 -0.4179888 0.01658503 0.037431117 -0.17130077 -0.034353517 -0.055793695 0.13464552
-0.13979132 0.008366943 -0.038972985 -0.017490739 -0.06505369 -0.15457492 -0.06178533 -0.06627716
-0.03891314 0.02251409 -0.0064905165 0.022586303 -0.37046343 0.049443875 -0.2127437 -0.21059422
-0.19348648 -0.040057734 0.070082076 -0.09346018 -0.03493484 -0.13690943 -0.06774229 0.037627477
-0.20774479 -0.8014645 0.11755001 -0.2537661 -0.09225209 -1.0173302 -0.285039 0.04140231
0.052956186 -0.011477009 0.04572478 0.092207186 0.057390887 0.03267196 0.09754795 -0.095276296
-0.042284925 0.0019386518 -0.09667058 -0.13571654 0.011950328 0.0025903734 0.01840204 0.017776769
0.055439677 -0.024980493 -0.025123177 -0.028673505 0.025692161 0.010719044 -0.43343064 0.004071294
-0.31842208 -0.040486284 0.06246009 -0.043492887 -0.05772121 0.07386608 -0.06882009 0.045503907
0.053511787 0.07655341 0.002400014 -0.058908492 -0.019726526 -0.03259513 0.025697106 0.03746602
0.045003604 0.17384379 -0.07801464 0.008118241 0.01953015 0.063985586 -0.065276645 -0.50054616
-0.4663617 -0.4620832 -0.090060204 0.025957583 -0.28065696 -0.000487842 0.041927036 -0.21640809
0.097992174 -0.38834244 0.025808064 -0.032127135 0.16487461 0.44386962 0.036418825 -0.0016426743
0.33507654 -0.12083612 0.054004688 0.007855676 0.015068334 0.04669959 -0.06655755 0.044758752
-5.325576e-05 -0.13840082 -0.0045059156 0.043393534 -0.18793406 -0.44775927 -0.58896923 -0.43115786
-0.063205555 -0.20707719 -0.018775498 -0.015385802 0.07267219 0.10605302 -0.052372824 0.11082578
0.03165471 -0.048966568 -0.0818169 -0.16122133 -0.36809087 0.19115242 -0.028402729 -0.14245556
0.17401913 -0.05579727 0.030855827 -0.014862316 -0.04762549 0.14315529 0.012071587 0.039656036
0.117215514 0.037582394 -0.04570217 0.010424753 -0.033651486 -0.15513039 0.0039739427 -0.3139291
0.009133217 0.0467719 -0.05347312 0.0605027 -0.10534654 0.037923273 -0.060099553 -0.02046255
-0.040424798 -0.07134179 0.014959839 0.044449493 -0.2935385 -0.046671424 -0.04723662 0.022939833
-0.07217513 -0.17350444 -0.39415082 -0.020007394 -0.22294894 0.03774036 0.06611957 -0.25373203
-0.011835833 -0.8026809 -0.009967456 -0.0008119387 0.06648488 -0.083116405 0.23010373 -0.001921443
0.016228054 -0.0760673 0.052879397 -0.021090705 -0.2881252 0.23676404 -0.0063206456 -0.24612384
-0.30050418 0.030075585 -0.07362859 -0.018616114 -0.116863176 0.13972192 0.05205136 0.064253174
-0.06425668 0.009149804 -0.3454215 0.03186115 0.037543193 0.005926315 0.08751753 0.02996043
-0.063900486 0.043110292 -0.16651843 -0.1534784 0.029191364 0.026946012 -0.33289853 -0.008540037
-0.43207344 0.025760656 -0.40286708 -0.31929684 0.001506897 0.017657893 0.1019783 -0.4175533
0.042400576 0.0029364536 -0.27896652 0.19720037 -0.4090185 -0.19701701 0.008333192 0.042999517
0.08746768 -0.5046959 -0.48811018 -0.048104446 -0.0029678454 -0.020942422 -0.063191555 -0.107594326
-0.042350695 0.074087836 -0.1095098 -0.021503491 -0.060245972 0.12122245 0.01732972 0.011559249
00000000: f5c9 1abe f634 033d 9ff5 93be aae5 0d3d
00000010: 0019 bcbd de23 21bd 630f 50be 4b68 6abe
00000020: 372c a4bb a102 d6be 54dd 873c 5f51 193d
00000030: 7869 2fbe 46b6 0cbd ee87 64bd 84e0 093e
00000040: 7525 0fbe 8115 093c 23a2 1fbd bd48 8fbc
00000050: de3a 85bd e348 1ebe 9d12 7dbd 52bc 87bd
00000060: 6263 1fbd 786f b83c 66ae d4bb e906 b93c
00000070: 62ad bdbe a985 4a3d 7cd9 59be 03a6 57be
00000080: 5221 46be 9413 24bd 3187 8f3d 0d68 bfbd
00000090: d617 0fbd fc31 0cbe 78bc 8abd 451f 1a3d
000000a0: 0dbb 54be c72c 4dbf 0fbe f03d a1ed 81be
000000b0: aaee bcbd e037 82bf a2f0 91be 7895 293d
000000c0: 96e8 583d 110a 3cbc e849 3b3d 1fd7 bc3d
000000d0: b512 6b3d 08d3 053d 38c7 c73d 3820 c3bd
000000e0: f532 2dbd 5c1a fe3a 3afb c5bd 47f9 0abe
000000f0: 4fcb 433c 41c3 293b e0bf 963c 96a0 913c
00000100: b714 633d e4a3 ccbc 1fcf cdbc b3e4 eabc
00000110: 5e78 d23c ee9e 2f3c 9fea ddbe 7d68 853b
00000120: 3808 a3be f2d4 25bd 27d6 7f3d 9925 32bd
00000130: 136d 6cbd 1947 973d 8cf1 8cbd 4e62 3a3d
00000140: 2d2f 5b3d 09c8 9c3d 8e49 1d3b 084a 71bd
00000150: 8699 a1bc 7982 05bd bd82 d23c f875 193d
00000160: b355 383d 1b04 323e 24c6 9fbd 5f02 053c
00000170: b1fd 9f3c e00a 833d c3af 85bd cb23 00bf
00000180: f6c6 eebe 2b96 ecbe 7c71 b8bd ffa4 d43c
00000190: 45b2 8fbe 0bc5 ffb9 afbb 2b3d 159a 5dbe
000001a0: 1fb0 c83d d2d4 c6be 6f6b d33c be97 03bd
000001b0: e4d4 283e e142 e33e e82b 153d 014f d7ba
000001c0: 278f ab3e ed78 f7bd 0534 5d3d 18b5 003c
000001d0: 2ce1 763c 1248 3f3d 534f 88bd f454 373d
000001e0: f05e 5fb8 f2b8 0dbe 5ca6 93bb 6bbd 313d
000001f0: c971 40be b440 e5be b0c6 16bf b9c0 dcbe
00000200: ea71 81bd 0b0c 54be 13cf 99bc bb14 7cbc
00000210: 28d5 943d 5332 d93d e384 56bd a0f8 e23d
00000220: 5fa8 013d 2b91 48bd 9e8f a7bd 3417 25be
00000230: 6876 bcbe 76bd 433e d7ac e8bc dfdf 11be
00000240: 1232 323e ae8b 64bd 5cc5 fc3c 1281 73bc
00000250: f212 43bd 4d97 123e e8c7 453c 5e6e 223d
00000260: b00e f03d ffef 193d 3332 3bbd 95cc 2a3c
00000270: 24d6 09bd 80da 1ebe d937 823b 51bb a0be
00000280: 7da3 153c e493 3f3d a106 5bbd aed1 773d
00000290: edbf d7bd 6f55 1b3d f32a 76bd 14a1 a7bc
000002a0: 7994 25bd a51b 92bd 1d1a 753c ac10 363d
000002b0: ae4a 96be 892a 3fbd 307b 41bd 51ec bb3c
000002c0: 8ed0 93bd 26ab 31be 23ce c9be 8ce6 a3bc
000002d0: ba4c 64be a395 1a3d b269 873d 2ae9 81be
000002e0: 15eb 41bc 7f7c 4dbf 8a4e 23bc 49d8 54ba
000002f0: 3a29 883d ef38 aabd 50a0 6b3e eed8 fbba
00000300: b2f0 843c 2cc9 9bbd 1198 583d 6ac6 acbc
00000310: 2585 93be 4672 723e 6b1d cfbb e307 7cbe
00000320: afdb 99be 1361 f63c 96ca 96bd d280 98bc
00000330: f655 efbd 4313 0f3e cf33 553d 2b97 833d
00000340: 0299 83bd 0fe9 153c 16db b0be d680 023d
00000350: e4c6 193d 8931 c23b 643c b33d 936f f53c
00000360: 42de 82bd 6b94 303d cf83 2abe 7129 1dbe
00000370: ba22 ef3c e2bd dc3c ad71 aabe 83eb 0bbc
00000380: bb38 ddbe 0308 d33c 9844 cebe e07a a3be
00000390: 1383 c53a 49a7 903c 00da d03d 8cc9 d5be
000003a0: 3aac 2d3d 8471 403b b3d4 8ebe e5ee 493e
000003b0: df6a d1be d4be 49be f187 083c 4320 303d
000003c0: 4122 b33d c033 01bf 94e9 f9be 2b09 45bd
000003d0: 2f80 42bb 718f abbc 936a 81bd 6a5a dcbd
000003e0: ec77 2dbd 5dbb 973d ad46 e0bd 1728 b0bc
000003f0: 7bc4 76bd 7a43 f83d 0ff7 8d3c 0163 3d3c

model.4.bias f4 [256]
0.05025294 -0.04578965 -0.0062334533 0.06770551 0.021677935 0.012727309 -0.04014179 -0.0024886096
-0.073962286 -0.0054787043 -0.028304381 0.1029901 0.040746804 0.0072578476 0.056655362 -0.037814345
-0.06526134 0.009821836 -0.03268782 -0.040730033 0.05077818 -0.016045189 0.06870002 0.049580015
0.030716931 0.0225888 0.0002965312 0.08792272 0.028416628 0.04381234 -0.039558426 0.046472125
0.051295783 0.015563349 0.026076976 0.035629828 0.08619167 0.046593506 -0.026015922 0.05170653
0.050698217 -0.062783115 0.10352334 0.0407955 0.01940824 0.018356847 -0.0484221 0.039767705
-0.052990675 0.026952015 -0.06683057 0.060954444 0.04719864 -0.055596046 -0.0033185978 -0.07438178
0.033364482 0.01926641 -0.025355518 0.04945763 0.0078841755 0.115023725 0.056117147 0.01690574
-0.022873566 0.07172611 -0.024851024 0.017191822 0.121285096 0.007327123 0.08968842 -0.015474923
-0.016080584 0.030831287 0.047867935 -0.036077168 0.15280476 -0.028119411 -0.0238274 0.09073273
-0.033731174 -0.06474671 -0.008559127 -0.064378 0.085784495 0.0820317 -0.07342278 -0.18586789
0.021020329 0.040015977 0.051076442 -0.008980108 0.08607867 0.037413463 0.024214689 0.034813892
0.12209967 0.025885953 0.00022346913 0.11515492 -0.0063577774 0.040890116 -0.07046245 -0.036114525
0.00015832786 0.0843103 0.020226939 -0.009588921 -0.048232794 0.05756594 -0.12007354 -0.078844
-0.029372288 0.018198434 0.023419634 0.015053562 -0.07322685 0.010093448 0.00081487006 -0.06496341
-0.022280158 -0.034356665 -0.0447856 -0.02594267 -0.044554524 0.06367717 -0.02798528 0.008436967
0.019723458 0.03506238 0.069544725 -0.10070169 -0.02301868 0.022796603 0.0023956306 0.036140896
0.0776651 0.01013765 -0.02654965 -0.056147393 0.039931703 0.0031067883 -0.013604824 -0.065856256
0.0053179404 -0.035994884 0.028734483 0.07115509 0.018581182 -0.032926604 0.021304166 -0.019090164
-0.0329639 0.014289612 -0.036504462 0.010053389 -0.077166304 0.0068658683 0.041258488 -0.028135816
0.0022459133 0.018456394 0.06529166 -0.0048086136 0.012355714 0.097885475 0.025431575 0.10752715
-0.038939565 -0.029995713 -0.1061338 0.044075698 0.0075516035 -0.018485583 0.08567936 0.04855313
-0.0035339121 0.030440735 0.10500417 -0.0064204806 0.07150646 0.012625338 0.051188692 -0.0644148
-0.011521235 -0.00080882857 -0.01844411 -0.042189483 0.06118709 -0.017661612 -0.02315494 -0.08765763
0.023044556 0.01731302 0.077884406 0.014853089 0.064452454 0.040074155 0.021694504 -0.014255961
0.02958487 0.00093006756 0.07573852 0.042845733 -0.049761232 -0.038573973 0.0016782682 -0.031244112
-0.06501726 0.039496105 0.09166683 0.001989045 0.0040143575 -0.008556796 -0.032814886 0.05523506
-0.058237337 -0.074020505 -0.067299455 0.072870605 -0.0049327253 -0.04623171 0.10877847 0.04249877
0.07412431 -0.015721444 -0.04419405 0.078747205 0.036297794 0.12487472 -0.029768858 0.056269147
-0.044523746 0.06480005 -0.024296934 -0.052486394 -0.023365898 -0.050430056 0.0594238 0.0057870704
-0.04617346 0.038509436 -0.03292831 0.024241354 0.035338517 -0.05422662 0.053246535 -0.06785581
0.03016751 0.019662132 -0.060335133 0.056769066 -0.027927052 0.004700226 0.118177585 -0.032918077
00000000: 07d6 4d3d ee8d 3bbd ff41 ccbb 30a9 8a3d
00000010: ed95 b13c 3486 503c b86b 24bd f117 23bb
00000020: 8a79 97bd b486 b3bb 97de e7bc 79ec d23d
00000030: 1fe6 263d 3dd3 ed3b 740f 683d 37e3 1abd
00000040: bda7 85bd c4eb 203c aae3 05bd 89d4 26bd
00000050: c8fc 4f3d 3371 83bc 99b2 8c3d 6a14 4b3d
00000060: 13a2 fb3c 260c b93c be77 9b39 d410 b43d
00000070: fdc9 e83c 9174 333d 0408 22bd 8e59 3e3d
00000080: 871b 523d 6bfd 7e3c 629f d53c 95f0 113d
00000090: 4285 b03d d5d8 3e3d 581f d5bc 3aca 533d
000000a0: efa8 4f3d 6f94 80bd 0b04 d43d 2f19 273d
000000b0: 08fe 9e3c 1961 963c 4056 46bd 76e3 223d
000000c0: c00c 59bd 79ca dc3c 77de 88bd 5eab 793d
000000d0: 5c53 413d aeb8 63bd d57c 59bb 7a55 98bd
000000e0: 32a9 083d 97d4 9d3c 60b6 cfbc 1594 4a3d
000000f0: a12c 013c 8f91 eb3d 18db 653d e87d 8a3c
00000100: 5861 bbbc 24e5 923d 6094 cbbc ddd5 8c3c
00000110: 5264 f83d 5d18 f03b 90ae b73d 888a 7dbc
00000120: 6ebb 83bc e591 fc3c 2b11 443d a7c5 13bd
00000130: da78 1c3e ae5a e6bc ae31 c3bc 15d2 b93d
00000140: b329 0abd ec99 84bd 953b 0cbc 9dd8 83bd
00000150: c8af af3d 3c00 a83d af5e 96bd 2754 3ebe
00000160: d332 ac3c cbe7 233d 8835 513d 4e21 13bc
00000170: 044a b03d dc3e 193d e25d c63c 0399 0e3d
00000180: 640f fa3d c70e d43c 0a53 6a39 58d6 eb3d
00000190: e754 d0bb 657c 273d 9e4e 90bd d3ec 13bd
000001a0: d004 2639 e1aa ac3d f7b2 a53c da1a 1dbc
000001b0: c08f 45bd 43ca 6b3d 1ee9 f5bd f778 a1bd
000001c0: 279e f0bc e214 953c 88da bf3c 37a3 763c
000001d0: f5f7 95bd fd5e 253c 019d 553a 890b 85bd
000001e0: e184 b6bc 93b9 0cbd 1b71 37bd b985 d4bc
000001f0: ce7e 36bd 2d69 823d 6341 e5bc 343b 0a3c
00000200: 1793 a13c 929d 0f3d 776d 8e3d b03c cebd
00000210: ac91 bcbc f1bf ba3c 0300 1d3b 7a08 143d
00000220: e10e 9f3d 6318 263c a77e d9bc cffa 65bd
00000230: 6d8f 233d 429b 4b3b c5e6 5ebc a5df 86bd
00000240: 1e42 ae3b 5f6f 13bd 9464 eb3c c3b9 913d
00000250: 9037 983c 0cde 06bd 1386 ae3c fa62 9cbc
00000260: 2805 07bd fa1e 6a3c b485 15bd f8b6 243c
00000270: 5e09 9ebd 14fb e03b a9fe 283d 157d e6bc
00000280: 2c30 133b dd31 973c a2b7 853d 9391 9dbb
00000290: 9f6f 4a3c 2e78 c83d e155 d03c 3237 dc3d
000002a0: 187f 1fbd 92b9 f5bc ae5c d9bd b888 343d
000002b0: 7173 f73b 146f 97bc a978 af3d a6df 463d
000002c0: 3599 67bb d95e f93c 6d0c d73d e562 d2bb
000002d0: fb71 923d 81da 4e3c 3cab 513d e8eb 83bd
000002e0: 90c3 3cbc 9107 54ba 1a18 97bc e1ce 2cbd
000002f0: 509f 7a3d 16af 90bc 6eaf bdbc d885 b3bd
00000300: f0c7 bc3c 09d4 8d3c dc81 9f3d 5f5a 733c
00000310: a6ff 833d cc24 243d acb8 b13c d691 69bc
00000320: f85b f23c c7cf 733a cc1c 9b3d 027f 2f3d
00000330: 6fd2 4bbd beff 1dbd 56f9 db3a a7f3 ffbc
00000340: c527 85bd abc6 213d d2bb bb3d a35a 023b
00000350: df8a 833b ce31 0cbc e768 06bd 293e 623d
00000360: 468a 6ebd 1098 97bd 4cd4 89bd 2f3d 953d
00000370: b3a2 a1bb 765d 3dbd 3fc7 de3d 3113 2e3d
00000380: 7cce 973d 42ca 80bc d204 35bd 3746 a13d
00000390: ffac 143d 51be ff3d d2dd f3bc 7a7a 663d
000003a0: 885e 36bd e3b5 843d 5d0a c7bc f9fb 56bd
000003b0: d769 bfbc bf8f 4ebd 5f66 733d 77a1 bd3b
000003c0: 6220 3dbd 12bc 1d3d d6df 06bd ce95 c63c
000003d0: 1fbf 103d bb1c 5ebd 0a19 5a3d fdf7 8abd
000003e0: db21 f73c 7b12 a13c f921 77bd ae86 683d
000003f0: 46c7 e4bc 5a04 9a3b 1707 f23d 1bd5 06bd

model.6.weight f4 [1, 256]
-0.49715036 -0.07099443 0.40535125 0.13196214 -0.12654042 0.18538572 -0.21524122 0.1115701
-0.39630726 0.0061147395 -0.007020582 0.2935759 0.059457064 -0.17883499 0.07006845 -0.64850366
-0.059516888 -0.473295 0.88084364 -0.057900067 0.364873 -0.025874933 0.13717328 -0.9346858
0.40868878 0.01371402 0.12366731 0.15107241 0.76154745 0.15439811 0.5077819 -0.06664108
0.14961573 0.6248066 0.2132055 0.052862708 0.25049755 -0.17255011 -0.0012969694 0.0070170215
0.08675547 -0.06286624 0.1678719 -0.14515221 -0.30574536 0.16165243 -0.50089884 -0.22818129
-0.42376184 -0.8518208 -0.009373663 -0.17812525 -0.47402546 -0.0017340367 0.09356352 -0.055796787
-0.39176562 -0.23415864 -0.18563843 -0.14158183 -0.07610827 0.5086069 -0.034219336 -0.039141536
0.6674904 0.0801463 -0.20302962 -0.060413737 0.16024174 0.07078661 0.17354904 -0.23347451
0.6008907 0.13793792 -0.3755671 -0.5470999 -0.2915041 0.89256036 -0.021482084 0.047299314
-0.21087201 0.0536575 -0.06744253 0.34090587 0.30585426 0.09259167 0.06347053 0.35765532
0.11664405 0.10028141 0.2016725 -0.3200086 0.08269013 -0.3702092 0.26324102 0.21188763
0.063108325 -0.031728208 -0.0584317 0.07717273 0.2770252 -0.82314736 -0.43819937 -0.0152135845
-0.49339524 -0.094532356 -1.1144294 0.02481474 -0.34514046 -0.37208754 -0.50827134 -0.48231742
-0.18331447 0.12361731 -0.032854658 -0.2291453 -0.47566193 -0.07387537 -0.2563658 -0.23584181
0.13473617 -0.3877087 -0.0014119267 0.3458619 -0.0643063 0.09220156 -0.51414055 -0.23871201
0.037196275 -0.20716727 0.10213358 -1.288916 -0.25147742 0.08445382 -1.2969577 -0.42281902
0.20117688 0.08960944 -0.030231921 0.050030615 -0.26008233 -0.19061792 -0.08901506 0.37269226
0.23734966 -0.49381307 -0.1694646 0.29445863 -0.17322858 -0.27855182 -0.47778216 -0.060463373
-0.3779062 0.3113031 -0.16900474 0.018611267 -0.47287673 -0.1400845 0.25912815 0.51188934
0.3408328 -0.024649289 0.10176495 -0.6763697 -0.22712742 0.088825345 0.004016269 0.12552625
-0.058731124 -0.11919942 -0.6946238 0.21629271 -0.3082273 -0.062262412 0.08027823 0.085059434
0.14709184 -0.17591897 0.08233975 0.15069748 0.3415576 0.24487223 0.09641506 -0.51917064
0.3545615 0.13092421 0.15197001 -0.24578597 0.07708097 0.03574158 -0.048024222 -0.20491832
-0.28991976 0.3978084 0.14859602 0.110090904 0.2066348 0.035031583 0.30169988 0.11051486
0.1919978 -0.18440337 -0.1980372 0.27022856 -0.63305813 -0.026877785 0.30345958 -0.015605866
-0.45975754 0.08237327 -0.37902677 -0.019439304 -0.22857794 -0.22440517 0.0029293762 -0.11012694
-0.1389605 -0.17799926 -0.019964216 0.16399948 0.19771773 -0.35487726 0.051683534 -0.27074054
0.071178414 0.38721257 -0.01951406 0.08953637 -0.3851195 0.2671308 0.011557888 -0.46342212
0.005723478 0.51869386 -0.16600005 -0.39941594 0.18295118 -0.04529223 0.0823684 -0.28114894
-0.3282258 0.33274856 -0.32858437 -0.06377751 -0.97491956 0.17531613 0.33584148 -0.2772104
0.099975154 -0.31347358 -0.39868262 0.10238307 -0.50197005 0.100413404 0.18045473 0.14503714
00000000: 7e8a febe 8765 91bd 338a cf3e 1521 073e
00000010: d093 01be c1d5 3d3e 3268 5cbe dd7e e43d
00000020: c9e8 cabe 275e c83b e90c e6bb 954f 963e
00000030: 4089 733d 8520 37be 0c80 8f3d 5604 26bf
00000040: fbc7 73bd b953 f2be f87e 613f 9f28 6dbd
00000050: a2d0 ba3e abf7 d3bc 2777 0c3e 9247 6fbf
00000060: a83f d13e c5b0 603c 4945 fd3d bab2 1a3e
00000070: c6f4 423f 8a1a 1e3e fffd 013f 1e7b 88bd
00000080: de34 193e 53f3 1f3f 8b52 5a3e 9186 583d
00000090: 3741 803e fab0 30be 12ff a9ba 0bef e53b
000000a0: daac b13d 04c0 80bd 9de6 2b3e c8a2 14be
000000b0: a88a 9cbe 3788 253e e83a 00bf 5ba8 69be
000000c0: 50f7 d8be ee10 5abf fe93 19bc 7766 36be
000000d0: 77b3 f2be 9e48 e3ba 3b9e bf3d 2c8b 64bd
000000e0: 8195 c8be 48c7 6fbe 0018 3ebe d4fa 10be
000000f0: a7de 9bbd 1034 023f 9329 0cbd e052 20bd
00000100: a7e0 2a3f be23 a43d ffe6 4fbe 6574 77bd
00000110: 6916 243e 92f8 903d d7b6 313e f113 6fbe
00000120: f9d3 193f 993f 0d3e 554a c0be bd0e 0cbf
00000130: 0740 95be d67e 643f 32fb afbc edbc 413d
00000140: d5ee 57be f7c7 5b3d 4f1f 8abd 378b ae3e
00000150: ee98 9c3e b4a0 bd3d d6fc 813d 991e b73e
00000160: 13e3 ee3d 5760 cd3d 3c83 4e3e 2bd8 a3be
00000170: 7159 a93d 0f8c bdbe 87c7 863e 12f9 583e
00000180: f03e 813d 70f5 01bd 1456 6fbd bc0c 9e3d
00000190: 3fd6 8d3e c9b9 52bf ab5b e0be 6642 79bc
000001a0: 4d9e fcbe 2e9a c1bd 9fa5 8ebf 4848 cb3c
000001b0: 40b6 b0be 4282 bebe 121e 02bf 4ff2 f6be
000001c0: cab6 3bbe 122b fd3d 9b92 06bd 11a5 6abe
000001d0: f689 f3be f84b 97bd 6142 83be 8480 71be
000001e0: 47f8 093e c181 c6be 6610 b9ba d014 b13e
000001f0: 05b3 83bd 2cd4 bc3d b79e 03bf ec70 74be
00000200: 1f5b 183d a823 54be 692b d13d 33fb a4bf
00000210: a6c1 80be 20f6 ac3d b602 a6bf bc7b d8be
00000220: 5001 4e3e 2785 b73d efa8 f7bc e7ec 4c3d
00000230: 8329 85be 5831 43be 874d b6bd 85d1 be3e
00000240: ca0b 733e 11d5 fcbe 2188 2dbe 48c3 963e
00000250: d562 31be 589e 8ebe dd9f f4be 71a8 77bd
00000260: ec7c c1be 1f63 9f3e 940f 2dbe a876 983c
00000270: e61c f2be 5072 0fbe 72ac 843e 2e0b 033f
00000280: a381 ae3e 4eed c9bc 246a d03d 9126 2dbf
00000290: 1794 68be 10ea b53d e89a 833b f489 003e
000002a0: 0c90 70bd d31e f4bd ded2 31bf d67b 5d3e
000002b0: f8cf 9dbe df06 7fbd ea68 a43d a433 ae3d
000002c0: 3e9f 163e 1a24 34be bea1 a83d 7150 1a3e
000002d0: a3e0 ae3e c9bf 7a3e 4275 c53d 5ee8 04bf
000002e0: 1689 b53e ff10 063e 079e 1b3e 51af 7bbe
000002f0: a1dc 9d3d c365 123d 0cb5 44bd 1cd6 51be
00000300: 5d70 94be 8bad cb3e 8e29 183e 5777 e13d
00000310: 1398 533e 477d 0f3d 6878 9a3e 9d55 e23d
00000320: 129b 443e 3dd4 3cbe 44ca 4abe 665b 8a3e
00000330: 1910 22bf cd2e dcbc 0e5f 9b3e bfaf 7fbc
00000340: 5765 ebbe 51b3 a83d cc0f c2be 2d3f 9fbc
00000350: 5610 6abe 78ca 65be c7fa 3f3b 3c8a e1bd
00000360: a94b 0ebe 7045 36be ff8b a3bc 7bef 273e
00000370: 8476 4a3e 79b2 b5be 1db2 533d 819e 8abe
00000380: fdc5 913d ba40 c63e f3db 9fbc d85e b73d
00000390: 622e c5be 5ec5 883e 4c5d 3d3c aa45 edbe
000003a0: 038c bb3b 1fc9 043f ebfb 29be 3f80 ccbe
000003b0: 8e57 3b3e 5884 39bd c4b0 a83d c1f2 8fbe
000003c0: 360d a8be 055e aa3e 363c a8be c89d 82bd
000003d0: 5494 79bf 1286 333e 6af3 ab3e 86ee 8dbe
000003e0: c6bf cc3d 9c7f a0be 2120 ccbe 37ae d13d
000003f0: 1c81 00bf 8ba5 cd3d 20c9 383e 9e84 143e
