data/checkpoints/rlgym-ppo-run-1760466173181197600/18106660/PPO_VALUE_NET.pt (torch, 623393 bytes, 7 tensors)

model.0.weight f4 [256, 89]
00000000: 7ef8 48bd c21e 9ebc e179 7b3d 5f32 59be
00000010: 2891 10be 5923 ce3c 7b97 a33d 86ee 6ebe
00000020: 21a3 87bc c4f1 3dbd 4a33 8ebd 0589 883d
00000030: 5f05 cc3c 01a5 893d 6c73 dfb9 769a df3c
00000040: c805 813d d999 d6bc 7ccf 853d ec61 ffbc
00000050: ff0a a6bd 6e07 903d 3d11 efbc eed1 d03c
00000060: d517 14bc 96f3 0c3d 5a7f 713d 92c6 16bd
00000070: 79df 14bc 97a6 e4bd 2071 9a3c 00c4 a8bd
00000080: d035 e93c 4f1f f7bc 5674 333d fbee a83d
00000090: 3331 e43c 4818 3f3d e64b 68bc 1ce6 6bbd
000000a0: b36a 74bd c072 ba3d b7fd 02bd a59d 863d
000000b0: 5fb9 273d f7df ec3c 6d63 c8bd c008 c93d
000000c0: 7ef2 a1bd 5065 a43d 38a6 18bd 3db4 1b3e
000000d0: 39a9 003e f55a a53d e01c 7c3d 6e1e cabd
000000e0: b615 5c3d 2ee6 b93c 6715 c83b c0da b43b
000000f0: 2e56 323d a469 85bd 1e7d 963d 3713 b63d
00000100: 694e 3cbd 3e35 26be c105 7fbc e7ea 51bc
00000110: 9fef 27bd 057e c83c ebb0 85bc a8e8 a8bd
00000120: 0275 353d 772f cc39 08a3 83bd dd6d 1d3c
00000130: bec3 5bbd 5c7b c93c 0b00 ce3a 4888 da3c
00000140: ed27 c83d 4861 873d bff3 2fbc bb54 b4bd
00000150: 5966 ffbc 766f 69bc 15ef 67bc da47 e33c
00000160: 1c6c 883c 216a 18be 69b1 343d e33b aebc
00000170: a742 c2bd 63fb 4bbe 9d77 20bd 5260 603d
00000180: d2cb a23a cec4 14bd 1d8e 723d ce3e c0bb
00000190: c1f1 cf3d d4cd ac3b f0b7 72bd f92c 52bc
000001a0: c87e 603d 9a38 5ebd e6ac 893b 8eb9 ad3d
000001b0: 83f2 d5bd 04ef dabc c91c 5ebc 7bbd 363d
000001c0: bed4 ad3d 4150 173c 4f68 a1bd b3e1 a63d
000001d0: b539 bbbc ea5e 95bd 10d6 c83d ce07 e7bc
000001e0: 8de4 483d f746 3b3d cc10 ca3d 89fb 353d
000001f0: c679 87bd 006f 7c3d 79b0 be3b 0248 82bd
00000200: a5f9 a5bd 0b4b 2a3d de28 c5bc ebad 613d
00000210: 2907 aa3c 1d71 083d 547a b43d f6e9 813d
00000220: 0a4d 9f3d b961 8f3c a070 78ba 81e9 233d
00000230: 9ff3 62bd 0776 12be 8ac4 cabc a368 98bc
00000240: 5880 853d d66a b6bd e6c5 22bd 1469 7e3d
00000250: 0acd b8bd 0fe0 7f3c ff06 b93d ea32 073e
00000260: 850c 2b3d 9ff8 723d 293d bfbd a711 3f3d
00000270: 21b3 52bd 98d0 3cbb 03e6 853d 196b 02bd
00000280: 7e15 a43d 7ff5 d0ba c9da a7bc 2846 943d
00000290: 9c2f 8e3d 71ba 873d 88f4 29bb ace4 d1bd
000002a0: e808 423d 3c54 e33c ac5c 67bc a142 463d
000002b0: 4cc9 62bc b2da a13d 6988 cbba 3f0e e8bb
000002c0: a849 683d ad36 863d a204 523d d759 e3bd
000002d0: 92ef 0e3d be2e 05bc e066 38be 6fef 8a3d
000002e0: a411 493c bfdd 26be da43 e7bb e765 eebc
000002f0: af92 b53c b634 e03c ec9d 0b3d cb37 87bd
00000300: 105f bc3b bf34 d13c be07 a03d 11df 5ebd
00000310: fff5 833d 498e 733d 6f3b b73d f3d7 803d
00000320: d232 9e3d 01f6 87bd 9c6a 633d 7ad8 c3bd
00000330: 046a a53d 12ee ecbc 6e99 62bd a4af 9d3d
00000340: 6228 963d 8c97 8d3d 2056 14bc 92cf e4bd
00000350: d2f9 b53c 0a43 fcbc 40eb 823d 3fbd d0bc
00000360: d50f 3d3d 0f55 c6bd 10f9 86bb bdd9 573b
00000370: 6433 90bd 6551 1ebd d863 183d 7025 743c
00000380: f389 c8bd ab49 ccbd 053b 3abd 49b1 a03b
00000390: 4cf0 6bbd 71af f93d 842b fe3d 51bc f53b
000003a0: ced0 d63d 30e7 063d bc0d bcbb cf23 143d
000003b0: 2fa7 71bd 0cd0 66bd d6fd 87bd 318b 4e3d
000003c0: 971c e23a 988f 013d c470 dcbc 5dcc 7dbc
000003d0: 309a f3bd 51c3 f5bc 321f 37bd 2fec 943d
000003e0: de7f 473b c9ab 85bd 2870 06bd b42e 44bd
000003f0: ed8b f33c 32a0 ab3c b3f1 c0bc a87e e6bc
-0.049065106 -0.019301776 0.06139553 -0.21210621 -0.14117873 0.02516334 0.07987877 -0.23333177
-0.016557278 -0.046373144 -0.06943376 0.066667594 0.024904905 0.06720925 -0.0004261987 0.027295332
0.06299931 -0.026196407 0.06533715 -0.031174622 -0.08107566 0.07032667 -0.029183025 0.025490727
-0.009038885 0.03441199 0.058959343 -0.036810465 -0.009086483 -0.11164587 0.01885277 -0.08240509
0.028468043 -0.030166296 0.04381212 0.08248707 0.027855491 0.046654016 -0.014178252 -0.057592496
-0.05967207 0.09103918 -0.031980243 0.06573037 0.040948268 0.028915389 -0.09784589 0.09816122
-0.0790758 0.08027136 -0.037267894 0.15205474 0.12564553 0.08073989 0.061550975 -0.09869085
0.053731643 0.022692766 0.006106067 0.005519241 0.04353922 -0.0651429 0.07348083 0.08890384
-0.045973215 -0.16231248 -0.015565337 -0.012812353 -0.041000005 0.024474153 -0.016319713 -0.08247501
0.04430104 0.00038945276 -0.0642758 0.009608713 -0.05365347 0.024594955 0.0015716566 0.026676312
0.0977324 0.06610352 -0.010739266 -0.088052236 -0.031176733 -0.014247766 -0.014156123 0.027744222
0.016653113 -0.14884235 0.044114504 -0.02126879 -0.09485369 -0.19920115 -0.039176572 0.05477936
0.0012420362 -0.0363205 0.05921756 -0.005866862 0.10153533 0.00527356 -0.059257448 -0.012828105
0.054808408 -0.0542532 0.0042015193 0.084826574 -0.10446646 -0.0267253 -0.013556668 0.044614296
0.08487843 0.009235443 -0.078812234 0.081485175 -0.022854665 -0.07293494 0.09806454 -0.028201964
0.049046088 0.045721974 0.09866485 0.044429336 -0.06615023 0.061629295 0.005819377 -0.06361391
-0.081042565 0.041575473 -0.024067339 0.0550975 0.020755367 0.033311 0.08812395 0.06343453
0.07778366 0.017502652 -0.00094772317 0.04001761 -0.055408116 -0.14302836 -0.02475192 -0.018604582
0.0651862 -0.08907096 -0.039739512 0.06211193 -0.09023483 0.015617385 0.090345375 0.13203016
0.041759986 0.059319135 -0.09337837 0.046647694 -0.051440362 -0.0028810855 0.06538012 -0.031840418
0.08011912 -0.0015942304 -0.020490067 0.07239944 0.069426745 0.06627358 -0.0025933105 -0.10248694
0.047371775 0.027750127 -0.014121216 0.048403386 -0.013841938 0.07903041 -0.0015528324 -0.0070817764
0.05671087 0.06553397 0.05127395 -0.1110112 0.03489644 -0.00812882 -0.18007994 0.067839496
0.012272272 -0.16295527 -0.007057649 -0.029101325 0.02216467 0.027368885 0.034086153 -0.066024385
0.005748637 0.025537847 0.07813977 -0.05441195 0.064434044 0.059461866 0.08946883 0.06291189
0.07724537 -0.066387184 0.055521592 -0.09562774 0.080768615 -0.028922115 -0.055322103 0.076995164
0.07331921 0.06913671 -0.009053737 -0.111724034 0.02221385 -0.030793685 0.063925266 -0.025480865
0.046157677 -0.096841924 -0.004119046 0.0032936179 -0.07041052 -0.038651843 0.037204593 0.014901504
-0.09791937 -0.099749885 -0.04546644 0.0049039465 -0.05760221 0.12191666 0.12410644 0.0074992557
0.10489045 0.03293532 -0.005738942 0.036166962 -0.05899733 -0.056350753 -0.06640212 0.050425712
0.0017250952 0.031631082 -0.02690924 -0.015490619 -0.11894643 -0.03000036 -0.044707485 0.07271611
0.0030441205 -0.06526906 -0.032821804 -0.047896102 0.029729808 0.02095041 -0.023552751 -0.028136566

model.0.bias f4 [256]
00000000: 6c39 9b3c 2861 d8bd a120 883d 6f1c a4bd
00000010: ee0b ed3d 840a 193c 8d14 8d3d ec8b 843d
00000020: dff1 17bd f21f bbbd e8fe 5ebc fa58 0cbd
00000030: 092f 303d 8f45 a2bd da30 d03d fb29 ad3d
00000040: bff2 25bd 329e c0bd 3213 94bd 6195 b93d
00000050: 2642 e73c a299 4d3b 4614 03bd a74a 523d
00000060: 229a a93c 6bbf 99bc 2fd3 2fbd 290a c63d
00000070: 40ad b53d 729c c53c d610 80bd dd10 d93b
00000080: 2bec 5f3d 67de 9b3b 20df 7cbd 09a5 bbbd
00000090: cfa1 a0bd da4f c0bd a2ab 6abd f0b6 bf3c
000000a0: b0e8 a7bd 6e1a 153d 2f6e 2bbd cbd0 153d
000000b0: 0bf1 b7bb c5e8 53bc 39c4 493d be68 01bd
000000c0: 7147 05ba 97fa 213d 1a81 42bd 4e9c d33b
000000d0: 42f0 7b3d c26d 923d 4ba5 ccbd f39e 87bd
000000e0: b8e7 9d3d 72ad b33d 97ec 963c 8742 933d
000000f0: a1ad 983c 5ca2 883d ee97 13bd 51cc 313d
00000100: 8c63 ffbc e1a8 14bd 7a8c 7abd 38fc 5fbd
00000110: 38bb c1bc 8eb7 f33c 6eab 153d ee9a 5cbd
00000120: 105c f93d b665 e13d 106a 48bc d32c 90bb
00000130: 2785 703c 71be 513a 1429 d5bd 5562 dcba
00000140: 99a5 84bd 6da4 8fbd dec4 f2bb 6e5b c3bd
00000150: b5b4 423d 296e 75bd de4c c63c 6801 9c3d
00000160: f973 b23d 4808 a7bd dcb7 073d 33a4 d53d
00000170: 1a45 0c3c 0c41 ffbc cdc3 84bd bb72 b13c
00000180: c13b 9ebd 43ad 05bd dd08 7a3d ebb2 fa3c
00000190: 872a 61bc 9ab8 833d a2a7 e33a d918 9bbd
000001a0: af39 3a3d 50eb 7dbb 50a6 31bd 7ea2 f7bc
000001b0: 7249 b1bc 9e99 73bd e17c 0ebd cf37 713d
000001c0: 37d2 8fbc 9aa0 9b3c 6843 a63d a1e6 bdbd
000001d0: b29f b23d 87c5 0dbd 259b 77bd 115a 0bbd
000001e0: 8201 a23d 3e9b 85bd 8c56 43bd 91bd 20bd
000001f0: ba97 e2bc 88e1 06bd ab44 47bc 8787 72bc
00000200: 9ea6 9e3d 5d7f 1f3d 0b2b 08bd f7b4 cb3c
00000210: a691 df3d 8724 b1bc e8a3 a6bd c7f4 31bd
00000220: 6a85 56bd f9a4 883d f9d8 853d 50fe a43d
00000230: c155 d0bd e070 21bd 214e b43d 94c3 8a3c
00000240: ce8b 013c 649d b03d 3975 1abd 624a d93d
00000250: e86e e7bb 4dea c8bd 10ba bc3c 41a5 cf3b
00000260: d142 353d 6e28 0bbc c98b 5abd 15f5 2fbc
00000270: 9e86 cc3d 6c40 b6bd a6ec e93c 71e3 0f3d
00000280: 2604 c739 6aff eabc 335a f5bc 7d3f 693d
00000290: 5ea4 c23d 35e6 f43c 5d2b bdbc e5c0 473d
000002a0: 1461 bd3d 2250 acbc c158 233d 28ce aa3d
000002b0: 4e60 5abd 7fa0 87bd 45a2 053d d0c6 293d
000002c0: cb86 38bc c6be 103d 0c7e b4bc 4f75 18bd
000002d0: 206f 0ebd 2abc abbd 9bdb 32bd 17a2 b3bc
000002e0: 92d4 a23b 02f0 cd3d aac9 2c3b 9005 b9bb
000002f0: 173d d03d 6ec2 c0bc 077a 4abd 0d06 d5bd
00000300: 7901 5bbd d9cf 6d3d 4000 c13d a9b2 b0bd
00000310: 09a5 563d 0c46 ba3d 3bc1 5abd 4b00 bebc
00000320: 2ea0 31bc 704b b2bc b710 08bd a66c a03d
00000330: 06e8 79bd 0761 8f3d 3766 6f3c b0be 40bd
00000340: 6f19 d23d 072b 82bc 70dd 5b3a cd90 98bb
00000350: bc8c 293c 07cb 003c 4664 a9bc 00bf 9c3c
00000360: 51ba 20bd 5269 7e3d defa 583d 85b7 233d
00000370: 267b aabd a278 8cbd 6025 9a3b e03b 68bd
00000380: c9f9 c9bd 63ba 643d 277d 593d 0b8f ae3d
00000390: 56bb aa3c 85b3 4c3c 356b cc3d 77ca c3bc
000003a0: 72e0 193d c0c7 c9bd 0f17 683d c6f9 bf3b
000003b0: c738 8a3c 0c2c d13c a4f2 823c 6650 363d
000003c0: 61fe e73c 1014 8abd 955c 8dbd 8d06 9a3d
000003d0: 051a c2bc 8777 333d 9c8d ddbc 4fd8 f5bc
000003e0: 8177 b13d 638f 663d aafa d9bd 1525 1b3c
000003f0: c76f 943d 148f c33d d0cc adbd 004a 31bd
0.01894828 -0.10565406 0.066468485 -0.08013236 0.11574541 0.009340886 0.068886854 0.064720005
-0.0370959 -0.091369525 -0.013610579 -0.034264542 0.043013606 -0.079234235 0.10165568 0.08455273
-0.040514704 -0.09405173 -0.07230224 0.09061695 0.028229784 0.003137209 -0.032001756 0.051340725
0.020703379 -0.018768033 -0.04292601 0.09669907 0.088709354 0.02412245 -0.06253211 0.0066243247
0.054668587 0.004756737 -0.061736226 -0.09162337 -0.078433625 -0.093902305 -0.057292588 0.023402661
-0.081986785 0.03640216 -0.041853126 0.036576074 -0.0056134514 -0.012933915 0.049259398 -0.03159403
-0.0005084193 0.03954562 -0.047486402 0.006457842 0.061508425 0.07149841 -0.09992465 -0.06622114
0.077102125 0.087733164 0.018423362 0.071904235 0.01863748 0.066715926 -0.036033563 0.043407742
-0.031175397 -0.036293868 -0.061169125 -0.054683894 -0.023648843 0.029750612 0.03654044 -0.05385869
0.12175763 0.11005728 -0.0122323185 -0.0043998747 0.0146801835 0.0008001095 -0.10408226 -0.0016813973
-0.06476898 -0.070137836 -0.0074087223 -0.09538923 0.047535617 -0.05991951 0.024206575 0.07617456
0.08713526 -0.081558764 0.033134326 0.10431709 0.008561397 -0.031158946 -0.064826585 0.021661153
-0.07726241 -0.03263594 0.06104361 0.030602893 -0.013743049 0.06431694 0.0017368684 -0.07573099
0.045465168 -0.0038744994 -0.0433715 -0.03022885 -0.021641467 -0.059472673 -0.034787063 0.058891114
-0.017556293 0.01899748 0.081183255 -0.092725046 0.08721866 -0.034612205 -0.06045069 -0.03402144
0.07910444 -0.06523751 -0.04768996 -0.039243285 -0.02766024 -0.032929927 -0.012162368 -0.01480282
0.077466235 0.038939822 -0.033244174 0.024866564 0.10916452 -0.021623863 -0.081367314 -0.04344633
-0.052373327 0.06672091 0.06535525 0.08056319 -0.10172606 -0.039414287 0.088039644 0.016938962
0.007906867 0.0862377 -0.03770945 0.106098905 -0.0070627816 -0.09810314 0.02303794 0.0063368385
0.044253174 -0.008493526 -0.053355966 -0.010739584 0.09986614 -0.08899006 0.028555226 0.035129014
0.0003795933 -0.028686244 -0.029950237 0.056945313 0.09504007 0.029894928 -0.023091966 0.048767943
0.09247032 -0.021034304 0.039879564 0.083401024 -0.0533145 -0.06622409 0.032625455 0.041449368
-0.011262606 0.035338186 -0.02203276 -0.03722125 -0.034773946 -0.08385499 -0.043666463 -0.021927876
0.004969188 0.100555435 0.0026365318 -0.005646415 0.10167902 -0.023530211 -0.04943278 -0.10401545
-0.0534682 0.058059547 0.09423876 -0.08627827 0.052403484 0.09095392 -0.053406935 -0.0231935
-0.0108414125 -0.021764487 -0.033219066 0.07833223 -0.06101229 0.07000928 0.014611772 -0.047056854
0.10258757 -0.015889658 0.0008387184 -0.0046559335 0.010348495 0.0078609055 -0.020677697 0.019134045
-0.039240185 0.06211216 0.05297362 0.03996994 -0.0832427 -0.068589464 0.0047041625 -0.056697726
-0.09862096 0.055841815 0.05309787 0.08523377 0.020841282 0.012493973 0.099813856 -0.023900254
0.037567563 -0.098525524 0.056662615 0.0058586327 0.016872777 0.025533698 0.01598484 0.044510268
0.02831954 -0.06742108 -0.06902424 0.07520781 -0.023694048 0.043815162 -0.027045064 -0.03001037
0.08665372 0.056289088 -0.106435135 0.00946929 0.07247882 0.09548774 -0.084863305 -0.043283463

model.2.weight f4 [256, 256]
00000000: dab9 a23c 4564 b63d 6a49 653d 358d 373c
00000010: e3e6 b0bc 644f bb3d fd1d 5fbd 40c6 b63d
00000020: 634a 803d e089 583d bed9 873d 2c9e ac3d
00000030: d48f a03d 2a25 943d 37f2 b43d 89ee a9bc
00000040: 0801 dcbc dafc 623d 2d64 bb3c 8db9 b33d
00000050: 1fab 5abc c06c a43d f274 713d ec00 3e3d
00000060: b717 c63c c990 bd3c 9485 c93c b7ca db3c
00000070: d3ad a03d 34d9 f03c 7972 a43d 829e 723c
00000080: a70c 843d d3d4 ce3d c337 693d 8b6a 8e3c
00000090: cb98 a1bb cc98 803d fbbf 9d3c 4646 f43d
000000a0: 2448 4f3d df2d 8b3c 4018 d13d 79f5 d7bb
000000b0: e440 f03c e156 6f3d 5013 613a f0a7 3abc
000000c0: 66ab 883d 97a0 29bc 4f29 5cbb 7489 1c3d
000000d0: ac8b 0b3e 1361 4f3c 9f42 083d c644 4a3c
000000e0: 142a a23d 9c3d 593d cc28 933d 2fdd a43d
000000f0: f54c f23d 4616 373c 2517 8e3d d8b1 8e3c
00000100: 5359 bfbc e9de 023d f10c c83d a82c f63c
00000110: 720e 7c3d 253a a0bb e14a d63d 656a e6bc
00000120: 00d4 583b a451 c63d ec06 8e3d 5305 67bc
00000130: 8400 ebbb e7e8 0a3d a176 613d e970 5b3d
00000140: 937b 463d 8047 7a3d a0ef 063d 2466 8c3d
00000150: 51a9 233c 8dbb e5bb f2e9 033d 28f2 483c
00000160: 3e68 ff3c b1ff f83c 9b34 bd3d 1f29 a83c
00000170: 9632 543d 3adc c03d 7566 83bd a22f 883d
00000180: 2ebd 543d 999f 473d 0897 c5ba 5f90 69bc
00000190: d143 f43c 2540 443d 2a5f d43d cf91 033d
000001a0: 4c6f 283d 2295 4e3d 13b2 b63b e343 7a3d
000001b0: 1849 f33c d990 bebc 07e9 4e3d 8889 e93c
000001c0: 69f0 9b3d 808c d0bc ad40 fe3d 339b 643c
000001d0: d40e 003e 5d1b 67bd ba2b 363d 398d 12bd
000001e0: d557 36bd a5f0 283e b357 063c 779f 763d
000001f0: da1e 0e3d 4f22 013d 453f 963d e7f6 333d
00000200: fc27 7b3d f919 5e3d cd37 97bc 6bfc a83d
00000210: 569b 1ebc 93b4 1f3d 00b3 363d 8e97 b43c
00000220: 00ef 473d ede4 103d 3038 943d 2943 493b
00000230: 4e9e 92bc e0c3 c93c d8c8 503d 573d 103c
00000240: 5d4d 5ebc a03c 8a3d 3545 173c edcb da3c
00000250: 5f0a 3abd 37e9 b63d 06d3 323d f6c2 583d
00000260: c664 333c 77ae 143d 2a1a 743d f39d 64bc
00000270: be61 323d 6e9a 473c 287a ab3c db3f d43c
00000280: 9228 1bbd dc54 d8bb b0d4 f03c 85d7 aa3d
00000290: 5bca 6a3d 1b39 863d 766e b33b 9cff d83d
000002a0: 446b ab3d 0f77 823d 50cd be3d df13 353b
000002b0: e5e7 593d 3ce4 24bd 69b9 373c 2a55 403d
000002c0: 1257 2b3d c42d c5bc 733c aa3d a9ad 493d
000002d0: 91c8 ff3c 92b9 b03c c27c 603d a077 2dbc
000002e0: 35be 323d dc54 ac3b fd20 cd3c 4c8c 343b
000002f0: 9bb3 213d 09f8 223d aa71 473d e07a 7e3d
00000300: 6b66 ed3c 3d90 d33c d646 863c 5ec2 9c3d
00000310: 3386 a63c b646 8abc dc9f 01bd ef29 323d
00000320: 93af e33b ed9a 303e 0eaf f03d 893b 2e3d
00000330: e3c1 39bc 71c1 94bd 1ad2 973d 09f1 13ba
00000340: 9a6d 6e3d 39f9 59bc 89c3 733d b4b4 5e3d
00000350: 54ac f33c 4308 fc3c f6f8 db3d 56b1 b93d
00000360: d63f 1f3d 771b 153d 39d5 993d e410 a63d
00000370: 286a a63d f6fc 623d aff8 7e3b 8fa7 b03b
00000380: 6909 1f3d 43c3 143d 0f92 033d 8983 3cbc
00000390: 0422 963b 1573 e23d c864 f83c 0cd0 673d
000003a0: 5f02 be3d 54a3 a0bd e869 0a3e fbd0 163c
000003b0: 32b4 babc 8cbe f2bc 41d8 f63b 1bc0 4b3d
000003c0: db99 6ebb aa08 193d c37b 343d 1c27 8e3d
000003d0: 34d7 793c 0b8a 9bbc ea61 2f3d c434 0fbc
000003e0: eed7 b93c deaf f03b 8ae9 d6bc 0099 093e
000003f0: f34a 8ebd 5c95 6d3c 9ad0 0a3d 61fd 9f3b
0.019864012 0.08905844 0.055978216 0.0112031 -0.02159447 0.09146002 -0.05447196 0.08924532
0.06264188 0.052865863 0.06633328 0.084286064 0.07839933 0.07233651 0.08835261 -0.020743625
-0.02685596 0.05541692 0.022874916 0.087756254 -0.0133464625 0.08028555 0.05894942 0.046387598
0.02418123 0.023140328 0.024599828 0.02683006 0.07845654 0.029400446 0.080296464 0.014808299
0.06447726 0.10099187 0.056937944 0.017384788 -0.0049315444 0.06279144 0.019256582 0.11927466
0.050605908 0.016989646 0.102097034 -0.006590542 0.029327817 0.058432464 0.00085859466 -0.0113925785
0.06673317 -0.010353229 -0.0033593958 0.038217023 0.136275 0.012657422 0.03326666 0.012345498
0.07918182 0.05303727 0.07185516 0.0805 0.11831085 0.011174744 0.06938008 0.017418787
-0.023358023 0.031950865 0.097680934 0.03005059 0.061537214 -0.004889744 0.10463501 -0.028126905
0.0033085346 0.096835405 0.06934914 -0.0141003905 -0.0071716923 0.03391352 0.055044774 0.053574476
0.048457693 0.061103344 0.032943368 0.06855419 0.009989099 -0.007010883 0.03220553 0.012264766
0.031177636 0.03039536 0.09238549 0.02052742 0.051806055 0.09417005 -0.064160265 0.0664971
0.05193823 0.04873619 -0.0015074918 -0.014255612 0.029817494 0.047912735 0.103697136 0.032121476
0.041121766 0.050435193 0.0055754273 0.061099898 0.02969794 -0.023262428 0.0505152 0.028507963
0.07614214 -0.02545762 0.1241468 0.013953018 0.12505656 -0.05642258 0.044475295 -0.03577921
-0.044517357 0.16498049 0.00819962 0.06021067 0.03469739 0.03152686 0.073362865 0.043936636
0.06131743 0.05422399 -0.018459225 0.0825127 -0.00968059 0.03899057 0.0446043 0.022044923
0.048811913 0.03537457 0.072372794 0.0030710197 -0.017897751 0.024629533 0.05097279 0.008803687
-0.0135682495 0.067498446 0.009232809 0.026708568 -0.045420047 0.08931201 0.04365828 0.052920304
0.010949319 0.036299195 0.059595264 -0.013953674 0.043550245 0.012182815 0.020932272 0.025909355
-0.037880488 -0.006601913 0.029398292 0.08341888 0.057321887 0.06553861 0.0054758145 0.105956286
0.08370069 0.06370365 0.09316504 0.0027630252 0.053199667 -0.040256724 0.011213639 0.04695622
0.041831084 -0.024069674 0.08312311 0.04923788 0.031223567 0.021572862 0.05480648 -0.010587603
0.043638427 0.0052591395 0.025040144 0.0027549444 0.039477926 0.039787326 0.048692383 0.0621289
0.0289795 0.025825614 0.0163912 0.0765426 0.020327663 -0.01687942 -0.031646594 0.043497022
0.0069484203 0.172466 0.11752139 0.042537246 -0.01133773 -0.072634585 0.074131206 -0.0005643522
0.058209993 -0.013304048 0.05951265 0.05437155 0.029745258 0.030765658 0.10740845 0.09067027
0.038879238 0.036403146 0.07511372 0.081086904 0.081257164 0.055417024 0.0038905551 0.0053910683
0.038827334 0.03631903 0.032121714 -0.01150597 0.0045816917 0.110571064 0.030321494 0.056594893
0.09277796 -0.07843652 0.13516963 0.009205098 -0.022791002 -0.029631875 0.0075331037 0.049743753
-0.0036407623 0.03736178 0.04406334 0.06941053 0.015249062 -0.018986722 0.042817988 -0.008740608
0.022685971 0.0073451838 -0.026234407 0.13437271 -0.06947889 0.014500942 0.033890344 0.0048825

model.2.bias f4 [256]
00000000: d242 913d c742 833c 00bd 8dbb e863 11bd
00000010: 7da2 883d 80e9 9a3d ca9d 6c3d 9612 a43c
00000020: cc2b 72bd 576a d2bc 5168 e73c bd47 243d
00000030: e9ac 93bc 4e0b 693d fced 253d 5fe7 8c3d
00000040: 43e1 bebc de63 dfbc 829f d0bc 5bdf 07bd
00000050: 4785 08bd d692 94ba 524d ea3b ae2f 603d
00000060: 3336 b2bc c17a 4cbc 665d 663d f2a3 68bd
00000070: fd39 08bd 1c90 00bd 2489 b6bc 268d c9b9
00000080: 4256 0e3c 1b8f febc 67cc 1c3d 375d eabc
00000090: bd7e 61b9 304c cfbc 9d13 88bc a0ae 5cbd
000000a0: 7c83 c7bb cff6 cd3c 3168 673c 7934 213d
000000b0: 2b13 3ebc 6fb7 9f3c dc5a 4fbc e29f 03bb
000000c0: f03f 193d 83de febc 99a3 2bbd f398 46bd
000000d0: cf37 423d 8b26 6c3d 13e7 66bc ba35 2cbd
000000e0: 58ed be3b ca3d 8a3d 1009 aebc 022a 343c
000000f0: 287b 65bd 6866 8a3c e8dc 483d becd 813b
00000100: cf5d c8bc 4636 2dbd f57b 2b3d ae9f 623d
00000110: 0673 35bd 8d6c 183d 412f 563b 9d17 3f3c
00000120: 77a8 40bd 832c 043d f86b 21bd 75b4 2f3c
00000130: 282f 5fbc 4b63 0f3d 19e6 703d 6bd9 503d
00000140: 5ee2 90bc 1cad a63c 891b 653d ea88 703d
00000150: 0c77 63bd 7aa9 803d 3f26 5e3d 1ed5 473d
00000160: fb73 59bc ecba 2c3c b9b8 47bd 0453 4bbc
00000170: dd8c abbc c7c8 6a3d 8c3d b13b adc5 703d
00000180: efb7 4dbc dd46 90bb 1a3c 49bc 02d2 9abc
00000190: f46f 0fbb 3214 3e3c 7206 c33c 960f 2d3d
000001a0: 6a90 acbc 4bf6 fe3c 8ef8 b3bc 0c2b 2d3d
000001b0: abf2 95bc fc5a 30bc 54a7 1bbd cbf9 193c
000001c0: e7a3 7cbc 022b 763c cd9b 87bb eb4b 6c3d
000001d0: 4676 61bd ca79 28bd b684 9cb9 40d8 76bd
000001e0: 27a7 493d c804 a9bc 4da3 863d 2fa7 febb
000001f0: 6511 273b 92e3 b1bc 6754 99bb 2069 8f3a
00000200: 6c6a 37bb ba12 1fbd 7bbb c8bc 527e 74bc
00000210: 463a 793d aafa 2ebd 1bab 343d a637 49bd
00000220: 6559 493c 38d0 49bd a28a c0bb ef76 373d
00000230: aa61 733d b349 5abd 546b 233d e14d df3c
00000240: 38cf 973d 339d 603d 4de5 103d 968e 72bb
00000250: 223c 47bd d237 06bd e44d 7d3d 1c57 53bb
00000260: ba02 febb eada 02bd 6eee 06bd 71ab 703d
00000270: 7e7c 723c 26fe 863d 62d0 b0bb fedb 42bd
00000280: bf73 3f3c 34ca 53bd 3ff7 fc3c 7c82 2ebd
00000290: 298a 383d 9b06 3ebd 8001 1a3c 6e05 183d
000002a0: 32f2 0b3d 6d1a 063d b5f4 613d e6af 503d
000002b0: c164 0b3c 584a c1bc bc12 f3bc a144 163d
000002c0: 78ff 983c acfd 46bc e19a 76bd 4496 63b9
000002d0: e97a c9bc 08f7 623d 9e40 11bc 6bc9 10bd
000002e0: 3b14 f13b 7bad c9bc 07ba 273d ad24 fabc
000002f0: d58e 523d cf52 b73c 893e f8bc b904 383d
00000300: 102b 19bd 62fd 5f3d c36d 65bd 49cc 48bc
00000310: 2d96 b43c a8f3 4e3d 033d c43b 7ea1 6e3d
00000320: b10f 4e3d ad20 ee3c 34a9 f83c 883e 1a3d
00000330: 97d8 1f3c 8aab 6dbd e467 70bc 93a3 46bd
00000340: 26fd f73c dda0 4ebd 4efc 2bbc ed1b a7bc
00000350: 90e8 663d b0db 7d3c 5476 d63b c542 393d
00000360: 3c41 623d 9971 aebc 4e51 f83c 808b 08bd
00000370: 07ab 6d3d 163f 69bc ac48 3c3d 09eb fd3c
00000380: c982 f8bb 9d30 64bd 3fa4 943d d8a9 06bd
00000390: 9866 bd3c 61c4 7e3c 3659 19bd b824 50bc
000003a0: 1dbe 2c3d 6db3 093d 5a25 e8bc 9a56 453c
000003b0: e7fe a6bb 972e 863d 9dc7 023c 75bb 9ebb
000003c0: e0c0 e5bc 586d aabc 353c 9abc 6786 b73c
000003d0: 8b45 d93c 902f 243d 43df 41bd cefa 4dbc
000003e0: 54c0 143d 0864 98bc da73 90bc cb65 58bd
000003f0: dc68 1abb dd91 febc e1c2 073c d117 2fbd
0.07092823 0.016023053 -0.004325509 -0.03549567 0.06671617 0.07564068 0.057767667 0.020028394
-0.0591238 -0.025685472 0.028247984 0.040107477 -0.018026786 0.056895547 0.040510163 0.06880068
-0.023300773 -0.0272693 -0.025466684 -0.033171993 -0.03333023 -0.0011335264 0.0071503306 0.05473297
-0.02175436 -0.012480439 0.056241415 -0.056796975 -0.033258427 -0.031387433 -0.02228219 -0.0003844287
0.008687558 -0.031074097 0.03828087 -0.028608901 -0.00021504886 -0.025304884 -0.016610915 -0.053877473
-0.006088672 0.025142102 0.014123962 0.039356682 -0.01160125 0.019496648 -0.01265594 -0.0020084311
0.03741449 -0.031111961 -0.041904066 -0.048485707 0.047416504 0.057653945 -0.014093178 -0.042043425
0.0058266334 0.067500666 -0.021244556 0.010996344 -0.056025654 0.016894534 0.049038798 0.003961294
-0.024458794 -0.042288087 0.04186626 0.055328064 -0.044299148 0.037212897 0.0032681974 0.011663345
-0.04703566 0.032269012 -0.039409608 0.010724177 -0.013622083 0.035006803 0.05881319 0.050988596
-0.017686065 0.020346217 0.055934463 0.05872432 -0.055533454 0.06282325 0.054235693 0.04878723
-0.013272281 0.0105426125 -0.04876015 -0.012409929 -0.020941192 0.057320382 0.0054089483 0.05878227
-0.01255606 -0.004402979 -0.012282396 -0.018898968 -0.0021886798 0.011601495 0.023806784 0.042251192
-0.021064956 0.031123301 -0.021969106 0.04227738 -0.01830419 -0.01076388 -0.038001373 0.009397934
-0.015419937 0.015024902 -0.004138446 0.05768959 -0.055044435 -0.041131772 -0.00029853516 -0.060264826
0.049231675 -0.020632163 0.06574116 -0.0077713947 0.0025492546 -0.02171496 -0.004679251 0.0010941364
-0.0027987016 -0.03883622 -0.02450346 -0.014922695 0.06084659 -0.04271952 0.04410849 -0.049125336
0.01228938 -0.04927084 -0.0058759013 0.04479116 0.05941931 -0.05329294 0.039897278 0.027258815
0.07412571 0.054837417 0.03537493 -0.0037011257 -0.04864133 -0.03276808 0.06184186 -0.0032247966
-0.00775179 -0.031947054 -0.032942228 0.05875725 0.014800189 0.06591444 -0.005395935 -0.047573082
0.011685311 -0.051706508 0.030879615 -0.04260491 0.045053635 -0.04639302 0.009399772 0.037114553
0.034166522 0.032740045 0.05516501 0.050949 0.008507908 -0.02359502 -0.02967202 0.036686543
0.018676504 -0.012145441 -0.060206298 -0.00021704385 -0.024594741 0.05541137 -0.008865504 -0.035348337
0.007357148 -0.024618855 0.040948894 -0.030535067 0.051405746 0.022378353 -0.030303257 0.04492638
-0.037394583 0.054685004 -0.05601288 -0.012255737 0.022044266 0.050525337 0.0059887185 0.05825948
0.050307933 0.029068315 0.03035412 0.03765729 0.009756229 -0.05802492 -0.014673207 -0.04849584
0.030272078 -0.05044638 -0.010497166 -0.020399058 0.056374133 0.015494272 0.0065448675 0.045229692
0.055237994 -0.021294402 0.030312207 -0.033336163 0.058024433 -0.014236232 0.045967743 0.030995863
-0.00758395 -0.055710424 0.0725789 -0.03287682 0.02312021 0.01554975 -0.037438594 -0.012704067
0.042173494 0.03361838 -0.028338123 0.012044573 -0.0050963047 0.06551855 0.007982162 -0.004844124
-0.028046072 -0.020804092 -0.018827537 0.022402955 0.026522418 0.04008442 -0.04733206 -0.0125720035
0.03631623 -0.018602386 -0.017633367 -0.052831452 -0.0023561036 -0.031075412 0.008286209 -0.042747322

model.4.weight f4 [256, 256]
00000000: 7bf6 2bbd 21c5 313d d321 64be abc1 643d
00000010: a2ec 073c f0a8 a1bd e073 54be 45a6 f239
00000020: 79ae 183d dfd5 29bd eba4 fe3c 30ca 863d
00000030: 9f5e a2bd 0711 01bc 0812 2cbd 931a 25bd
00000040: 14d8 cebd 0000 64bd 7e87 b4bc 5290 bbbd
00000050: 3f9d a0bc 2745 ff3c 3a5a 273b 69d1 83bd
00000060: f4af e5bc 2387 2f3d 7fe3 5bbd 7da6 473d
00000070: d8f2 aebd f54d 1d3d 3224 7fbe 3dc1 9a3c
00000080: 2b9d 53be f744 d1bc f228 633d fa6b 11bd
00000090: b016 933d 337d dcbc 74d7 00bd 121f 1a3d
000000a0: 339b 27bd 9801 ffbd 6e0d 85bd baf4 a5bd
000000b0: 2ea5 48be 75b7 87be 2fa9 e6bd 87f8 b53d
000000c0: 6539 aa3d 9448 c83b 000e a43d cb65 ca3d
000000d0: ddd4 103d 7922 2cbd 4a98 ec3d 3c52 213d
000000e0: 543d 7fbd f69d 803d 31b9 f8bd 9fc0 493c
000000f0: 4dce 543d 3398 62bd 3283 cbbc f7aa 8d3c
00000100: c9a0 95bc f3e4 54bd ad7b b73a 61cd 0fbd
00000110: 9c4a 1d3c 782a 353d e74b 3ebe ad76 e93b
00000120: 913d e5bd c225 cf3b dbfc 853d 3e4e 0abc
00000130: e2f5 98bc 4e74 8e3d c1bf f8bc 7651 8ebb
00000140: 8deb a43d 6322 223e e1e9 f63b 0b76 e3bd
00000150: 23ed 41be 476f 713c 418e dd3c 2cc0 30bc
00000160: 500a 1a3c 9cfe 463e 71a4 72bd 297e 863d
00000170: ea80 a63c 03e5 d53d 9252 61bd 8e77 91bd
00000180: 40ed 81bd 2510 40bd 8c9c 97bd ffa4 d43c
00000190: c9ec 20be bef2 2fbe 2423 8b3d bc0c 22be
000001a0: d292 443d a674 65bd 355e 653d ca36 6cbc
000001b0: d57c 323e 9c37 513e b1af 953d 8ad6 aabc
000001c0: 0d60 4f3d c8be 3f3d 3e1d 5d3d baa8 95bc
000001d0: efe0 913d f000 b43d 5477 76bd f454 373d
000001e0: 3acb 7e3d f471 15be 4904 043b 8c42 c53d
000001f0: 148e 9c3c e2f1 4fbe 5331 093d 87be 3dbe
00000200: f370 debc fdfd 3ebe 8b94 1bbd dae2 bbbd
00000210: 20d9 3dbc ce2e 623d cc00 39bd 349f 313d
00000220: 5fa8 013d eb4d b53c d5a0 31bc 5585 92bd
00000230: e44e 45bd 5e5f 113e db4b 233d d6a1 0cbe
00000240: bd5a 8a3b 7d48 d33c 164d 813c 7147 9c3c
00000250: ea2a 82bd 5ab7 793d 25ad 86bd cce6 9e3c
00000260: 458d 7f3d 78f0 743d 3332 3bbd d0d5 533d
00000270: 0a2e d7bc 3e22 2ebd 3ccd 8ebc 746f 36be
00000280: 1d8e b23b 561d 163d dbd0 80bc f3f5 d6bc
00000290: eff7 a1bd 529f 263d f32a 76bd 84bb d0bb
000002a0: 0aff 18bc a38f c4bd e740 06bd e408 a73d
000002b0: f5c9 63bc e843 873c 8665 41bd 51ec bb3c
000002c0: 537f cebc d3f3 1aba e809 b6bc 9482 e8bb
000002d0: 9e56 8bbe 0f7f dfbd 7a24 873d 3a5a d0bd
000002e0: 29d0 64bc 5fd6 62be 901a cebc 3aec 363c
000002f0: 4657 ba3d eeb2 84bd 2d0b 663e 264d 133d
00000300: b2f0 843c f986 b4bc 364c a73d 6ac6 acbc
00000310: 1ccf 47bc dffb 5f3c 54bb ae3c 5260 c4bd
00000320: 0ded 08bd 8361 663d d21a d0bd 9500 893c
00000330: 1671 15be 9548 183d cf33 553d d4fa ea3c
00000340: f8aa 86bd 43ce 68b9 e27b d8bd 24e7 103d
00000350: 2fd7 03bc 2a0d 693d 6d94 123e fb33 b13d
00000360: 9c01 acbc 23c4 8d3d e4b3 b03b 9e5b e2bd
00000370: 6b23 e33c 2f10 663c 8332 05be 0dd0 123d
00000380: e3e5 ddbd 7765 773d bd0c a1bd 79aa ffbd
00000390: 1f89 a4bc d1a3 4d3d 7deb b3bc 31ec 0fbe
000003a0: f13a 033c cdc7 623c 620e 00be 80ee 0d3e
000003b0: 76d1 edbd d10d dabd baa3 263d 4320 303d
000003c0: e0a9 ecbd 0a4f acbd f8c8 8cbe b97d a4b9
000003d0: 73bc 91bc 3799 9fbd 7377 e93c 09c4 ecbd
000003e0: ec77 2dbd 24bb 8b3b 24cb d6bc ce5c 5d3c
000003f0: 3b32 02bd ebc6 513d 89b3 343c 602b 96bb
-0.04198311 0.043400887 -0.22278528 0.05584876 0.008296164 -0.078935504 -0.20747328 0.00046281717
0.037275765 -0.04146373 0.031084498 0.06581533 -0.07928204 -0.007877595 -0.042009383 -0.040308546
-0.100998074 -0.055664062 -0.022037264 -0.09158386 -0.01960623 0.031160904 0.0025535957 -0.06436426
-0.028038003 0.042853486 -0.053683754 0.04874276 -0.085424125 0.038404424 -0.24916151 0.018890971
-0.20665424 -0.02554558 0.05545897 -0.035503365 0.07182062 -0.026915168 -0.031455472 0.037627287
-0.040919494 -0.12451476 -0.06496702 -0.081033185 -0.19594261 -0.26507154 -0.11262738 0.088852935
0.083117284 0.0061121676 0.08010483 0.09882697 0.035359252 -0.042025063 0.11552484 0.039385065
-0.062314346 0.06280129 -0.121446975 0.012313991 0.051954556 -0.05532093 -0.024842832 0.017293436
-0.018265145 -0.051976155 0.001399865 -0.035107974 0.009600308 0.044229954 -0.18583642 0.007124743
-0.111933835 0.0063216398 0.06542369 -0.008441506 -0.018671934 0.06955777 -0.030364873 -0.004343207
0.0805274 0.1583343 0.0075352048 -0.11106499 -0.18938117 0.014736003 0.027045371 -0.010788005
0.009401873 0.19433063 -0.059238855 0.06567032 0.020325143 0.10444071 -0.055010386 -0.07102881
-0.0634408 -0.046890397 -0.07402906 0.025957583 -0.15715326 -0.17182443 0.06793812 -0.1582517
0.04799158 -0.056019448 0.055998046 -0.01441736 0.17430432 0.2043137 0.07308901 -0.020854253
0.05062871 0.046812803 0.053982966 -0.018268932 0.07122981 0.08789241 -0.060172394 0.044758752
0.06220553 -0.14594251 0.0020144156 0.096318334 0.019110717 -0.20307115 0.033494305 -0.18529712
-0.027153468 -0.18651576 -0.03798346 -0.09174128 -0.011587411 0.055220418 -0.045166776 0.04336472
0.03165471 0.02213188 -0.010841568 -0.07154337 -0.04817094 0.14196536 0.039867263 -0.1373361
0.0042222426 0.025791401 0.015783828 0.019077035 -0.063558415 0.060965873 -0.065759934 0.019397162
0.062390584 0.05979964 -0.04570217 0.05171758 -0.02626707 -0.042513125 -0.017431848 -0.17815953
0.00544907 0.03664907 -0.01572459 -0.026240325 -0.07908618 0.040679283 -0.060099553 -0.00637001
-0.00933815 -0.09597709 -0.03277674 0.081559926 -0.013903131 0.016511872 -0.04721596 0.022939833
-0.025207197 -0.00059109664 -0.02222152 -0.0070956443 -0.2721452 -0.109129064 0.06598754 -0.10173459
-0.013965645 -0.22152089 -0.02515915 0.011164719 0.09098677 -0.06479441 0.224652 0.035962246
0.016228054 -0.022037016 0.08168833 -0.021090705 -0.012195375 0.013670891 0.02132956 -0.09588684
-0.033429194 0.05624534 -0.101613656 0.01672391 -0.1459392 0.037178595 0.05205136 0.028684057
-0.065755785 -0.00022202083 -0.10570504 0.035376683 -0.008046909 0.05689732 0.14314432 0.086524926
-0.020996861 0.06922176 0.0053925384 -0.11052631 0.02772685 0.014041944 -0.1300755 0.035842944
-0.10834863 0.0603995 -0.07863758 -0.12483687 -0.020084916 0.050205056 -0.021962876 -0.14054944
0.008009658 0.0138415815 -0.12505487 0.13860512 -0.11612217 -0.106471665 0.040683486 0.042999517
-0.115558386 -0.08413513 -0.27497077 -0.00031374188 -0.017790055 -0.07792895 0.02849934 -0.11560828
-0.042350695 0.0042642523 -0.026219912 0.013510896 -0.031786185 0.051215094 0.011029133 -0.0045828074

model.4.bias f4 [256]
00000000: 95e0 0f3d 5d7e 3fbd c23c 9a3c e697 da3c
00000010: 88c1 fa3c 50f9 aebc 6428 00bd 4de2 2cbd
00000020: dae9 78bd c0fe 9d3b 876f d1bc 2d81 2f3d
00000030: 05c1 563d a89a 18bc fc7b 95bb 1fc8 54bd
00000040: 7451 48bd 093a fc3b 127f 6cbd 498d 69bd
00000050: 7dc7 0f3c b1d7 3a3c bb73 303c e674 a13c
00000060: 72e9 233d 8beb 053d 2b25 4ebd 1533 8a3d
00000070: 62a6 503a bd45 163d 9d46 1fbd a92d 653d
00000080: 39c0 2b3d 9cc5 b9bc 9ed8 a0b9 f188 68ba
00000090: 29cd df3c e404 243d e7c0 80bc 888c 5a3d
000000a0: 856c b23c f912 06bd 9ead 843d 41ce 303d
000000b0: 6067 043b 3904 a23c 872a 9abc aa62 4b3b
000000c0: 9397 013c 56d5 febb d757 55bd 7eb3 103d
000000d0: ec24 e8bc 2556 3abd 9fa4 5abd dbc1 4bbd
000000e0: f869 ca3c 6c7c 1f3c b2cd 2d3c 5445 563d
000000f0: 6cc8 15bc 4194 553d a44a 483d 3953 fc3c
00000100: ebf6 47bd e411 ed3b a3a1 e43b 7150 013c
00000110: 010a 7d3d 0c76 42bd b9a2 4a3d c5f8 6abc
00000120: 5e81 f1bc c841 053d 0b25 4c3d 9e1b 9fbc
00000130: 85f7 083d 0583 6dbd 5ef3 4d3b 4599 293d
00000140: a5b8 d33b 964c 6bbd eb79 c63a e4ad 21bd
00000150: aa4a dd3c 94cc 733c 31a4 7fbd 4b1d 28bd
00000160: 8845 70bc 0223 06bd 30db 12bd 8057 ac3b
00000170: 8469 153d 843f 223d 6604 ddbc 63a8 8abc
00000180: b456 7a3d d72c 1e3d e8ad 84bc ca01 773d
00000190: ce3f b1bc a903 683d 3239 70bd 114b 83bc
000001a0: e899 23bd 69ed 623d d932 b43c 4dab 80bc
000001b0: 1494 26bd b8a8 2a3d 7138 92bc d66b 0abd
000001c0: dc30 60bd 838e 11bd c204 0a3d 5db8 d7bb
000001d0: 34d8 65bd 9b14 953c 0dc7 b13c 27b4 60bc
000001e0: 7034 aabc dbb8 2ebc 8628 4fbc 3b17 dcbc
000001f0: d38a feba 8a40 3f3d 0b59 d2bb e283 233d
00000200: f1aa 60bc a4da 8b3c d634 f53c bd7b 45bc
00000210: 9c6c 003d 5be6 133c 8951 093c 9b3c 82bc
00000220: a1d4 893d 3316 efbc 2aac 80bc be99 32bd
00000230: d662 f03b 9e76 ac3c 14b1 63bc 2743 59bd
00000240: 61d2 6ebd 1735 11bd 0c48 5b3d c5e3 a7bb
00000250: ad05 f43c 11f0 a5bc 673c f73a 7f6d acbb
00000260: 5d92 48bc 6fc1 0cbc 3dae 63bd 0397 b63c
00000270: edcd 6fbd 69dd 223d a5c4 993c a2fc c8bc
00000280: dbdf adbc 6e8c 113d 30db 403d e611 32bc
00000290: ac12 24bd 9ab1 8a3d 19b6 fa3c 7a48 8e3d
000002a0: 66bc 48bc 0353 4f3c 6d3f 43bd 5796 303d
000002b0: da63 993c adc1 913b 0b0c 2a3d c261 973c
000002c0: e41c 4fbd f966 3e3d 44de 4c3d 4d30 40bd
000002d0: f988 bb3c 93e6 12bc 2249 853c 3567 5cbd
000002e0: bcdf 8fbc b152 57bd 39cb 14bd f401 02bd
000002f0: a9d3 643c eb94 b9bb e079 33bc 954f 67bd
00000300: 198a 063d 6cab e13b 5ed4 9f3c 1c4d 22bd
00000310: 087f 893d 5156 6a3d 17bb fe3c cef9 97bc
00000320: a773 e03c 137c 7f3c 576b de3c 6bf3 a9bc
00000330: 6cd7 cfbb 43a2 26bd d327 edbc 47bb 9abc
00000340: 8479 03bd 6e13 fdbb c579 343d 275c 83bc
00000350: 70e1 9b3c 9769 06bb 7912 95bc b5da b23c
00000360: a250 65bd eb17 76bd 23e6 04bd 0940 513d
00000370: 1648 23bc 9afd 24bd c324 7e3d 1263 e63c
00000380: e157 023d d413 23bc 47d0 0abd e3fe 1d3c
00000390: 25b6 a6bc df16 433d 0f02 b7bc a0a2 acbc
000003a0: 94ef c0bc 36c0 123d 517e 9dbb 3104 c3bb
000003b0: 06b8 57bd 4980 07bd dea9 cd3c 25a3 f43c
000003c0: fc2b 513c 70e4 c6bb 30f6 40bc 1c4f 8f3c
000003d0: 271f 663d 2413 4cbd 0f3c 76bc 9aec 73bd
000003e0: 822d a9bb bd7c 8d3c cfc0 303d 2cf0 923c
000003f0: c8ec 053c afc7 fabc 0148 7f3d a451 34bd
0.035126287 -0.04675137 0.0188278 0.026683759 0.030609861 -0.021359116 -0.03128852 -0.042208005
-0.060769893 0.0048216283 -0.025565876 0.0428478 0.05243017 -0.009314217 -0.004561899 -0.051948663
-0.048905805 0.007697348 -0.05773837 -0.057019506 0.008775589 0.011403964 0.01076978 0.019709062
0.040017553 0.032695334 -0.050328415 0.067480244 0.0007959363 0.0366876 -0.0388857 0.055951748
0.041931365 -0.022677235 -0.0003067897 -0.00088705035 0.027319508 0.040043727 -0.015716983 0.053356677
0.021780262 -0.032732937 0.06478427 0.04316545 0.0020203218 0.019777404 -0.018819107 0.003103415
0.007909673 -0.0077768965 -0.052085724 0.035327427 -0.028337918 -0.04549231 -0.05337965 -0.04974542
0.024708733 0.009734254 0.010608124 0.05231221 -0.009142023 0.05214334 0.048899308 0.030801402
-0.048819464 0.0072347987 0.0069772764 0.007892714 0.06177712 -0.04747586 0.04947159 -0.014341538
-0.029480632 0.032533437 0.049840014 -0.019422349 0.033439178 -0.057986278 0.0031425576 0.041405935
0.0064612203 -0.057446085 0.0015142536 -0.039472476 0.027013142 0.014880318 -0.062412445 -0.04104356
-0.014665015 -0.03274823 -0.035853565 0.0052594543 0.03647758 0.039611354 -0.026979636 -0.016925996
0.061117843 0.03861698 -0.016196206 0.06030444 -0.02163687 0.056644116 -0.058648296 -0.016027005
-0.0399417 0.055402193 0.021996902 -0.015706683 -0.040668562 0.04166481 -0.017849179 -0.033794247
-0.054734096 -0.0355363 0.033695944 -0.006583257 -0.05611439 0.018198302 0.02170136 -0.013714827
-0.020776957 -0.01066419 -0.012643939 -0.026866546 -0.0019420035 0.04669241 -0.006419306 0.039920695
-0.013712631 0.01707203 0.02993242 -0.012053427 0.031353578 0.009027089 0.008381256 -0.01589804
0.06730009 -0.02918539 -0.015707094 -0.04360365 0.007336001 0.021052655 -0.013897199 -0.053042557
-0.0583061 -0.03545102 0.053535506 -0.005123588 0.029787863 -0.020256074 0.0018862606 -0.0052620764
-0.012241927 -0.00859104 -0.05558609 0.022288805 -0.058545996 0.039761934 0.018770525 -0.024534527
-0.021224907 0.035534315 0.047084033 -0.010868525 -0.04005687 0.06772156 0.030604409 0.069474176
-0.012251949 0.012654069 -0.04766791 0.043112125 0.01872437 0.004448137 0.04151539 0.018479232
-0.05056466 0.04648492 0.050016657 -0.046921063 0.022892462 -0.008966106 0.016270224 -0.053809363
-0.01756274 -0.052569095 -0.03632662 -0.031740144 0.013966479 -0.0056635044 -0.01095435 -0.05647238
0.032846544 0.00688689 0.019510444 -0.03962432 0.067136824 0.057211224 0.03109507 -0.018551733
0.027398897 0.015593546 0.027150793 -0.020745954 -0.006342819 -0.04068209 -0.028949654 -0.018888129
-0.03209831 -0.0077232635 0.04406144 -0.016035153 0.019028395 -0.0020509714 -0.018197285 0.021832803
-0.0559851 -0.060081404 -0.032446038 0.05108646 -0.009965917 -0.040280916 0.062046777 0.028123412
0.03182209 -0.009953458 -0.033890035 0.009643289 -0.020350525 0.047629233 -0.022339849 -0.02107364
-0.02355174 0.035827838 -0.004806318 -0.0059514274 -0.052665733 -0.033081327 0.025105413 0.02986295
0.012766834 -0.0060697123 -0.011777446 0.017493777 0.056182053 -0.04982294 -0.0150289675 -0.059551813
-0.0051628957 0.017271394 0.043152627 0.017936788 0.008174129 -0.030612795 0.062324528 -0.04402317

model.6.weight f4 [1, 256]
00000000: ee6f 84be f3d3 3abc 632f 6abd cbf9 ad3d
00000010: d28f 24bd d27c 943d 3ec8 5fbd 88ba 823d
00000020: 20bb 4bbd 9e23 b53b 88ed 31bc 10fa 1b3d
00000030: fb0b b33c 7234 3dbd 3892 143d 2233 7abe
00000040: 2489 7dbd 209d 66bd f8d5 993e dc39 dbbc
00000050: c7b2 a63d 5368 2fbd 37e7 093c a9f7 8bbc
00000060: 3993 af3d 3292 69bd 5613 9f3d 5fad 093d
00000070: 3d30 8a3e 5312 6c3d 23cb 963e 699f 35bc
00000080: 0686 5c3d a12f 4d3d 12b4 293d a85e fc3c
00000090: 60b6 293d 2e6b 2ebd 8f9e 34bc ac65 d0bc
000000a0: 6c36 5f3d d12d 0bbd 4627 963d 847e 78bd
000000b0: 5e49 3cbc 274e 753d 657f 42bd a57e c5ba
000000c0: 0e20 09bd ac80 1ebe 7982 853c 35c7 27bd
000000d0: 2eb2 6fbe e051 8dbd 4fc8 b03d 4a31 59bd
000000e0: 61c0 b2bb f4f5 38be c96b d6bc 22ac 70bd
000000f0: 710d 35bd ccc4 803d 811a e2bc 1318 0cbd
00000100: a574 a33e bad0 d63c 5b12 76bd 8885 65bd
00000110: 9789 f63d 0de7 823d c153 283d b8bc 9fbd
00000120: 01d8 903e 3ea8 4e3d 538f 5fbd 561e f5bc
00000130: 3f0b 8ebc 28cb 9e3e eefe 67bc 3310 463d
00000140: 1be7 07bd b49f 623d 2aab 52bd 7c60 903d
00000150: 74a3 ac3d 9189 3a3d 2290 343d e998 573d
00000160: 4ccb 873d 2bfa 943d 5d49 f93c 4d5e dcbc
00000170: 5af4 303d 6ce0 7cbd eb5a 9e3d ebfe ad3d
00000180: b2fa 5c3d b2e3 87bd 5e23 75bc ba5e c33b
00000190: 7f78 963c a2a5 13bd 0444 ecbc b752 42bc
000001a0: 74e8 61bd 2b8f 64bc 4498 38bd 9c4e 49ba
000001b0: 6933 afbc c658 64be 9278 c0bd f698 11bd
000001c0: 7da1 72bd 6f0f 093d 47b3 a7bc 2c5a a3bd
000001d0: b527 28bd 1068 63bd 2e9a 37bd 072e c3bc
000001e0: 3ddd 273d 5d73 c7bc de7f 6ebc ab69 e03d
000001f0: 94a0 12bd dc0e 863d a33b 54be 697b 64bc
00000200: 37ce c43c 5eee 4dbd ad3f 873d 6240 16be
00000210: 6efa f3bc 459b 363d 0cdb 14bd 4ecd 7cbb
00000220: 8678 333d fce1 973d e9ed 2fbd fba7 823d
00000230: 7072 e8bc 7a6e 93bc 008d 20bd 2366 833e
00000240: 7c1e 563e bbc9 8cbe 6abd 3cbd 4085 3d3c
00000250: 7fd8 12bd 7103 6fbd e957 d9bc e205 70bd
00000260: 97aa 5ebd 68f7 2a3e 1a06 42bc 4ce4 3e3c
00000270: 6183 a7bc 0cf6 4cbc 1712 be3c 92ad 8b3e
00000280: 2b23 743d 06ef bebc dd38 913d a14c 34bd
00000290: fd8c e1bd da2c a03d 1954 f3bb 9560 873d
000002a0: 2a5b e2bc bb14 23bd a787 9dbc 180d 813d
000002b0: 144f 81bd 2a4e 76bc e4aa 8c3d 2ef4 bf3d
000002c0: 9eb6 0d3e 1400 53bd aad0 623d 8f33 5b3d
000002d0: edb0 c03d 6647 4f3d 15ab 953d 087e 1dbd
000002e0: bbe9 963c 73a3 a23d 6db3 a53d 64d1 8ebd
000002f0: 857b 213d 462b b23c c151 23bd a48a 04bd
00000300: 2904 82bd 16a0 023e 84a9 883d 36e6 6b3d
00000310: 1e16 ae3d c199 533d 2ba1 6d3d 2daa 7b3d
00000320: 3e44 3b3d 4b6f 77bd 14a0 a6bc 8a85 a73d
00000330: 017d 52bd b02c cbbc f8d3 ad3d a5b2 9dbc
00000340: 1bd4 3bbc 4661 e63c 665d 41be 8dd7 72bd
00000350: f32c 05bc fa2b ddbc 6eec 16bd 3de0 afbc
00000360: ccea fdbd 3dbb 4ebd 9972 60bd 4fac 933d
00000370: 745d b43d 1ad0 73be 9ddb 583d 56ba 16bd
00000380: 3ae7 173d e95c 573e 6d38 e0bc 3325 8e3d
00000390: 3235 6ebe 8231 073d efab be3c 6c20 58be
000003a0: c3f0 013c 0c6c 6db9 e22d 17bd a6cd cbbc
000003b0: 207c b83d 15fc 4dbd 998f 6c3d 7956 5cbd
000003c0: 7261 5bbe e2f7 4a3d de5e 61bc 9f6d 74bd
000003d0: 9367 19bd 42b3 853d 33e0 a3bc 5f84 38bd
000003e0: bab4 883d 61c6 d2bc 39b6 6abc 6ab9 a93d
000003f0: a117 4dbd 2d04 a23d 5c75 473d 05ae 993d
-0.25866646 -0.011403072 -0.057174098 0.0849491 -0.04017622 0.0725037 -0.054634325 0.06383234
-0.049739003 0.0055279275 -0.0108598545 0.038080275 0.021856299 -0.046192594 0.036272258 -0.24433568
-0.061898366 -0.05630219 0.30046058 -0.026760988 0.08139568 -0.0428241 0.008416942 -0.017085867
0.08573002 -0.05702419 0.0776736 0.033612605 0.26989928 0.057634663 0.29451856 -0.01108537
0.053838752 0.05009425 0.041431494 0.030806854 0.041433692 -0.042582683 -0.011024131 -0.025439106
0.05449526 -0.03397924 0.073317096 -0.06066753 -0.0114921015 0.059888985 -0.047484774 -0.001506765
-0.033477835 -0.15478772 0.016297566 -0.040961463 -0.23407814 -0.06900382 0.08631956 -0.05302552
-0.0054550623 -0.18062574 -0.026174443 -0.05875791 -0.04420227 0.06287536 -0.027600529 -0.034202646
0.3192493 0.026222575 -0.0600761 -0.05603555 0.12037962 0.06391726 0.0410955 -0.07799667
0.28289798 0.050453417 -0.054580044 -0.029921692 -0.017339347 0.3101437 -0.014159901 0.048355293
-0.033179384 0.055328086 -0.051432766 0.07049653 0.08429614 0.04554135 0.04408277 0.05263606
0.06630573 0.07274278 0.03043049 -0.026900435 0.04320178 -0.061737463 0.07732185 0.08495887
0.05395002 -0.06635226 -0.0149620455 0.00596222 0.018368004 -0.03604663 -0.028841026 -0.011860541
-0.055153325 -0.0139501495 -0.045067087 -0.0007679255 -0.021386819 -0.2229949 -0.09397997 -0.035546266
-0.05923604 0.033461984 -0.020471228 -0.07976183 -0.041053493 -0.055519164 -0.04482477 -0.023825658
0.040982474 -0.024347002 -0.014556853 0.109576546 -0.03579767 0.06545803 -0.20725875 -0.013945439
0.024024112 -0.050276153 0.06603942 -0.14672998 -0.0297825 0.04458167 -0.036341712 -0.003857452
0.043816112 0.0741615 -0.0429515 0.06379696 -0.02837488 -0.017997015 -0.039196968 0.25663862
0.20910066 -0.27497658 -0.046079077 0.011567414 -0.035850998 -0.05835289 -0.026531177 -0.05859936
-0.054361906 0.1669594 -0.011842275 0.01165111 -0.020448389 -0.012509834 0.023201985 0.2728086
0.05960385 -0.023307335 0.07090924 -0.04401839 -0.110132195 0.07821055 -0.0074257967 0.066102184
-0.027631361 -0.039814692 -0.019229723 0.063013256 -0.06313911 -0.015033284 0.06868532 0.093727455
0.13839194 -0.051513746 0.05537478 0.053515967 0.09408746 0.0506052 0.07308022 -0.03845027
0.018421998 0.07941332 0.080908634 -0.06973532 0.039424438 0.02174915 -0.03987289 -0.03235878
-0.0634845 0.1275638 0.066729575 0.057592593 0.08500312 0.051660303 0.05801503 0.06144159
0.045719378 -0.06040887 -0.020340003 0.081797674 -0.051388744 -0.024801582 0.084876955 -0.019250223
-0.011464144 0.028122555 -0.18883285 -0.059287596 -0.0081283925 -0.026998509 -0.03684657 -0.02146923
-0.123982996 -0.050471533 -0.05479679 0.072106 0.08806887 -0.23809853 0.052943815 -0.036798798
0.03708575 0.21031536 -0.027370656 0.06940689 -0.2326248 0.0330062 0.023275344 -0.21106118
0.007930937 -0.00022642332 -0.03690899 -0.024878334 0.0900805 -0.050289232 0.057754133 -0.053793404
-0.21423891 0.049552806 -0.013755528 -0.059674855 -0.03745229 0.06528331 -0.020004367 -0.045048114
0.06675096 -0.02572936 -0.014325672 0.08287318 -0.050071362 0.07910953 0.048695907 0.07503895
