data/checkpoints/rlgym-ppo-run-1760464753036865300/17506482/PPO_POLICY.pt (torch, 638775 bytes, 8 tensors)

model.0.weight f4 [256, 89]
0	0xbdbf904f	-0.093536966
1	0x3cb8c2b9	0.022553788
2	0xbd8df33e	-0.069311604
3	0x3d9399e6	0.07207088
4	0xbd8827df	-0.0664823
5	0x3d50dd71	0.050992433
6	0xbdc403a0	-0.09571004
7	0xbde1417a	-0.10998817
8	0xb9789724	-0.00023707427
9	0x3d83379a	0.064070895
10	0xbd353d45	-0.044247884
11	0x3d3322b6	0.043734275
12	0xbe0266a6	-0.1273447
13	0xbd932eae	-0.07186638
14	0xbce16b4f	-0.027516989
15	0xbca492cd	-0.020089531
16	0xbda92dae	-0.08260666
17	0x3d699182	0.057023533
18	0xbd18deaa	-0.037321724
19	0x3cb9ace1	0.022665443
20	0x3d83cdbc	0.06435725
21	0x3c1e490d	0.009660971
22	0x3c9f04bf	0.019411443
23	0x3db9f703	0.09080317
24	0xbd7d10ef	-0.061783727
25	0x3cb99106	0.02265216
26	0xbd756d4e	-0.059918694
27	0x3d8ba0fc	0.06817815
28	0x3d9e0d9c	0.077174395
29	0xbde2107f	-0.11038303
30	0x3da2be62	0.07946469
31	0x3d2046b6	0.039129935
32	0x3d062ad7	0.0327557
33	0x3cf95bc4	0.030439265
34	0x3d9b01e9	0.07568724
35	0xbcedd7d9	-0.029033588
36	0xbdd8273d	-0.10554359
37	0xbd3bcb86	-0.045848392
38	0xbdb0b9da	-0.08629198
39	0x3b841304	0.004030587
40	0xbcdf2d14	-0.027243175
41	0xbd850034	-0.06494179
42	0xbc9e2f6c	-0.019309722
43	0x3db3822e	0.08765064
44	0xbc77a60a	-0.01511527
45	0xbc068a46	-0.008211678
46	0xbcc6c07b	-0.024261704
47	0x3bf2f22a	0.007414122
48	0x3db173a6	0.08664636
49	0x3d54245e	0.051792495
50	0x3cc82127	0.02442987
51	0x3d865d75	0.06560794
52	0x3d862bec	0.06551346
53	0x3c6bf690	0.014402047
54	0xbaa3a611	-0.0012485405
55	0xbdbdb4d0	-0.09263003
56	0xbd87899a	-0.06618042
57	0x3ddac794	0.10682598
58	0xbc30f811	-0.010801331
59	0xbdbf306b	-0.09335407
60	0x3c834e09	0.016028421
61	0x3d2b8efc	0.041884407
62	0xbe0d09ea	-0.13773313
63	0xbd9db507	-0.07700544
64	0xbd6c3862	-0.05767096
65	0xbb7ee8ce	-0.0038896087
66	0xbe228e11	-0.15874507
67	0xbbea6334	-0.007152939
68	0xbdeb1b10	-0.11479771
69	0x3d0f8897	0.03504237
70	0x3df43201	0.119236
71	0x3d0f8730	0.035041034
72	0xbd98179f	-0.0742638
73	0xbda759a8	-0.081713974
74	0x3d374e77	0.044752564
75	0xbcc2305a	-0.023704696
76	0x3c60a7ae	0.013711853
77	0xbddd38db	-0.1080186
78	0xbc6db039	-0.014507347
79	0x3da35396	0.07974927
80	0x3d869c18	0.06572741
81	0x3cc9f4d2	0.024652872
82	0x3c9a6aa9	0.018849688
83	0x3bacd286	0.00527412
84	0xbd1032bd	-0.035204638
85	0xbd2bf2d7	-0.041979637
86	0xbd1e3cd1	-0.038632218
87	0x3dc8546e	0.09781729
88	0x3dade78f	0.08491432
89	0x3def3c2c	0.11681399
90	0xbdfb6e6e	-0.12276922
91	0x3db68647	0.0891233
92	0x3d794cde	0.060864322
93	0xbb7a3166	-0.0038176416
94	0xbb69d279	-0.003567843
95	0x3db1f611	0.086895116
96	0x3e438d49	0.19096865
97	0x3c438992	0.011934655
98	0x3d877b2b	0.06615289
99	0xbcc66ad8	-0.024220869
100	0x3db04920	0.086076975
101	0xbd831627	-0.064007096
102	0x3bc56872	0.0060244137
103	0xbd9c766c	-0.07639775
104	0xbd4d1e25	-0.050077576
105	0xbd826b06	-0.06368069
106	0x3bed2718	0.0072373264
107	0x3db4dd80	0.0883131
108	0x3d3ef50e	0.04662042
109	0xbbb0bf68	-0.005393911
110	0x3d8af77b	0.067854844
111	0xbd780ffe	-0.060562126
112	0x3d460026	0.048339985
113	0xbc87cd01	-0.016577246
114	0xbccff0b3	-0.025383329
115	0x3b90bde5	0.0044171684
116	0xbdb8c458	-0.090218246
117	0x3b8b95c8	0.0042597987
118	0x3cf44b67	0.02982111
119	0x3da8ce8d	0.082425214
120	0xbd199411	-0.037494723
121	0x3d17e69c	0.03708516
122	0x3dce3334	0.1006836
123	0xbd3eb34d	-0.046557713
124	0x3dc559fe	0.09636305
125	0xbd5f2f6b	-0.05448858
126	0x3cf9aa97	0.030476851
127	0x3d18d4ee	0.03731244
128	0x3c933fb4	0.017974712
129	0x3d9a5039	0.075348325
130	0xbd47eee5	-0.048811812
131	0x3caebaf0	0.021329373
132	0xbc259082	-0.010105254
133	0xbdadce78	-0.084866464
134	0xbce9b237	-0.028527362
135	0xbda7839e	-0.08179401
136	0x3d1f774d	0.038932133
137	0x3ac84c0f	0.0015281456
138	0x3bbbf6fa	0.005736229
139	0xbd16489a	-0.036690332
140	0xbd6903d3	-0.056888413
141	0xbdcebc70	-0.10094535
142	0x3d712a98	0.05887851
143	0x3e2b8b4a	0.16752353
144	0x3cd46de4	0.025931306
145	0xbc754cfb	-0.014971967
146	0xbdab91a9	-0.08377392
147	0xbcc1333b	-0.023583999
148	0xbdaa2f98	-0.08309859
149	0xbd13abaa	-0.036052383
150	0xbd21d52c	-0.039509937
151	0x3c4f055c	0.012635555
152	0x3d096393	0.033542227
153	0x3daaa158	0.08331555
154	0x3d83a5e6	0.06428127
155	0x3e498277	0.19678675
156	0xbd5ee744	-0.05441977
157	0x3be2ccab	0.006921371
158	0xbd8b839c	-0.06812212
159	0x3dc88f40	0.09792948
160	0x3d482592	0.048863955
161	0x3dc12c45	0.09432272
162	0xbdb31ffd	-0.08746336
163	0x3d8295f6	0.06376259
164	0x3de30bff	0.110862724
165	0x3daebbdb	0.08531924
166	0x3d0efc85	0.03490879
167	0x3dd42f15	0.10360543
168	0x3cf07ab7	0.02935539
169	0x3d179507	0.037007358
170	0x3ce9636a	0.028489787
171	0xbde62dbf	-0.11239194
172	0x3bbaa43e	0.0056958487
173	0x3b0ac440	0.0021174103
174	0xbd3af2ec	-0.045641825
175	0xbd86017f	-0.06543254
176	0xbd9e408c	-0.07727155
177	0xbbfbd85f	-0.0076857056
178	0x3dc75f19	0.09734935
179	0x3d075036	0.03303548
180	0x3cbe90e4	0.023262449
181	0xbbade1f7	-0.005306478
182	0x3c851365	0.0162446
183	0xbd5a3475	-0.053272683
184	0xbda84db6	-0.08217947
185	0x3d07bf56	0.033141457
186	0xbdfee0d4	-0.12445226
187	0x3d1cfce8	0.038327128
188	0x3de4d1da	0.111728385
189	0xbdde6b9e	-0.1086037
190	0xbd8067f3	-0.06269827
191	0xbdaa92d0	-0.083287835
192	0x3d0eeecb	0.0348957
193	0x3db3994f	0.08769476
194	0xbda28d2c	-0.07937083
195	0xbd01e78b	-0.031714957
196	0x3d404815	0.046943743
197	0xbd6754e6	-0.05647745
198	0x3dd40a5a	0.10353537
199	0x3d185744	0.037192598
200	0xbc83b293	-0.016076362
201	0x3c9d96c1	0.019236924
202	0x3d333922	0.043755658
203	0xbcc5cb98	-0.024144933
204	0xbd8e57e9	-0.06950361
205	0x3c8082c1	0.015687348
206	0x3c34802a	0.011016885
207	0x3c8adfad	0.01695236
208	0xbbc105f3	-0.005890602
209	0x3da33991	0.07969964
210	0xbc8bdc64	-0.017072864
211	0x3ac4f30f	0.001502605
212	0x3d68c1b5	0.05682536
213	0xbd5d8175	-0.054078538
214	0x3d361e82	0.04446269
215	0xbbd14bd9	-0.0063872156
216	0x3d7ab166	0.061204337
217	0xbd61971b	-0.055075746
218	0x3c99dbaf	0.018781511
219	0x3cb67a94	0.022275247
220	0xbd92faa3	-0.071767114
221	0xbd74d3d6	-0.059772335
222	0x3d56b125	0.052415032
223	0xbc758198	-0.014984511
224	0x3d9bdee5	0.07610873
225	0xbdc0b8f6	-0.094102785
226	0xbd1bfdc9	-0.038083825
227	0xbd977b92	-0.07396616
228	0x3d80f9ae	0.062976226
229	0x3d865927	0.06559973
230	0xbd9dd28e	-0.07706176
231	0x3c549029	0.012973824
232	0xbda5f108	-0.08102614
233	0x3d3935e3	0.045217406
234	0xbaf1550f	-0.001841219
235	0xbdb4f49d	-0.08835719
236	0x3d389fbc	0.04507421
237	0xbbca0539	-0.0061651734
238	0xbd897035	-0.06710855
239	0x3db35702	0.0875683
240	0x3de74403	0.11292269
241	0xbc4722a3	-0.012154254
242	0xbd9ce5a9	-0.07660992
243	0xbc4ad8df	-0.012380808
244	0x3e3d1f5b	0.18468992
245	0x3de81bd2	0.11333431
246	0xbd51033a	-0.051028468
247	0xbd0ec71d	-0.034857858
248	0x3d76d888	0.060265094
249	0x3d365f2a	0.04452435
250	0x3da3bc71	0.07994927
251	0xbd81e39e	-0.06342243
252	0x3da01f27	0.07818442
253	0xbdb2784f	-0.08714353
254	0xbc9a0e6e	-0.018805709
255	0xbd05d251	-0.032671276

model.0.bias f4 [256]
0	0xbd3e5ae9	-0.046473417
1	0x3cc1bef9	0.023650633
2	0xbcf8f3da	-0.030389715
3	0xbc1dd30a	-0.009632835
4	0xbd954be3	-0.07289865
5	0xbd2173a6	-0.03941693
6	0x3d84bb49	0.06481034
7	0xbd9f03be	-0.07764386
8	0x3d2304f4	0.039799646
9	0x3cb16e63	0.021659082
10	0x3d6b4c0d	0.057445575
11	0x3c87f682	0.016597036
12	0x3d23c4ac	0.039982483
13	0x3c067625	0.008206879
14	0x3dc2800d	0.0949708
15	0x3da85f83	0.082213424
16	0x3d7572dc	0.05992399
17	0x3d0461f3	0.032319974
18	0x3d4b6882	0.049660213
19	0x3ddebe23	0.108761095
20	0x3d168bd6	0.03675445
21	0x3bf20741	0.0073861186
22	0xbd09b532	-0.033620067
23	0x3c1ca830	0.009561583
24	0x3d4de9bd	0.05027174
25	0xbdde5537	-0.10856097
26	0xbdd0364a	-0.10166605
27	0x3dca9429	0.098915406
28	0x3db88bd7	0.09011047
29	0x3dbc4417	0.091926746
30	0xbda25331	-0.07926024
31	0x3dbb291f	0.091387026
32	0xbd8ff784	-0.07029632
33	0xbc52571c	-0.012838151
34	0xbda921f0	-0.08258426
35	0x3c6282c4	0.013825122
36	0xbd85d08f	-0.0653392
37	0xba4ad8bf	-0.0007737986
38	0x3da9c6c7	0.08289867
39	0x3c884249	0.01663317
40	0x3d038bb7	0.032115664
41	0x3c98d690	0.018656999
42	0x3d2115ba	0.03932736
43	0xbd15eeb1	-0.036604587
44	0x3daf1b5f	0.085501425
45	0x3d7265a3	0.05917896
46	0x3cccfe78	0.025023684
47	0xbd18dddd	-0.03732096
48	0x3c0f2bd6	0.008738479
49	0x3b4bb4a2	0.0031083007
50	0x3dadeed7	0.08492821
51	0xbc8b39a2	-0.016995255
52	0xbd5ce661	-0.053930644
53	0xbd930c2c	-0.07180056
54	0xbc6fa64b	-0.01462705
55	0xbd8b3264	-0.067967206
56	0xbdb67cab	-0.08910497
57	0xbd854f10	-0.065092206
58	0x3c93dbeb	0.018049201
59	0x3bc8c223	0.0061266585
60	0xbcd4495c	-0.025913887
61	0xbde2cd27	-0.11074286
62	0x3caf27fa	0.021381367
63	0x3dac5e07	0.08416372
64	0xbd87d9c3	-0.066333316
65	0x3db3deb3	0.08782711
66	0xbcca7e34	-0.024718381
67	0x3d472d2d	0.048627067
68	0xbcd9ba3c	-0.026578061
69	0xbdcfed1a	-0.101526454
70	0xbd901420	-0.070350885
71	0x3d2421a4	0.040071145
72	0x3d7e1761	0.062034015
73	0xbde10c19	-0.109886356
74	0x3d8dbe3e	0.069210514
75	0x3d020615	0.03174408
76	0x3d59bdf9	0.053159688
77	0x3be51ba6	0.0069918213
78	0xbd53d881	-0.051720146
79	0x3dbd0745	0.09229902
80	0xbbedf570	-0.0072619244
81	0xbde44909	-0.11146743
82	0x3bc59f80	0.006030977
83	0xbd97312c	-0.07382426
84	0xbd43222f	-0.047640022
85	0xbda14799	-0.07874984
86	0x3cf4f0a1	0.029899897
87	0xbdb82b19	-0.08992595
88	0xbd3640da	-0.04449544
89	0xbcdf2acd	-0.027242089
90	0xbdc4c4e2	-0.09607865
91	0xbdc19306	-0.094518706
92	0xbd65e138	-0.05612299
93	0xbd518323	-0.051150452
94	0xbdd71c6f	-0.1050347
95	0xbd8ddbcf	-0.06926691
96	0xbdb4d2e5	-0.088292874
97	0x3d360667	0.0444397
98	0xbdb33a9f	-0.087514155
99	0x3cde70ef	0.02715346
100	0xbc43777b	-0.011930342
101	0xbda9a0d9	-0.082826324
102	0xbca66e49	-0.02031626
103	0x3bdfdccf	0.0068317424
104	0x3dc8a0e6	0.09796314
105	0xbd106c8f	-0.03525978
106	0x3dbc181e	0.091842875
107	0x3d778b0c	0.06043534
108	0x3d2962e7	0.041354086
109	0x3caa50ec	0.02079054
110	0xbd27a3e7	-0.040927794
111	0xbc032124	-0.008003507
112	0xbd1e28f5	-0.03861328
113	0x3d2fd3b5	0.04292651
114	0x3d84082b	0.064468704
115	0x3d458fe9	0.048232947
116	0xbd82206c	-0.0635384
117	0x3d113c1a	0.035457708
118	0x3d793d41	0.060849432
119	0x3d7b0f7a	0.061294056
120	0xbc7f290a	-0.015573749
121	0x3d82b414	0.063820034
122	0xbd9c12a5	-0.07620744
123	0xbdb83dbc	-0.0899615
124	0xbdada232	-0.08478202
125	0x3c123ae2	0.008925172
126	0xbd0a14ab	-0.033711117
127	0x3d86bc16	0.06578843
128	0x3bb1847f	0.005417406
129	0x3c8fcda8	0.01755412
130	0x39d61182	0.00040830305
131	0x3d48cbbe	0.04902243
132	0x3d6619df	0.056177016
133	0x3d9d56f9	0.07682604
134	0x3c55c121	0.013046534
135	0x3d881655	0.066448845
136	0x3dd4c82c	0.10389742
137	0xbbba482c	-0.005684873
138	0x3c2f1b93	0.010687727
139	0xbd208df3	-0.039197873
140	0x3dbb4945	0.091448344
141	0x3c63f139	0.013912492
142	0xbdd1dc1b	-0.1024706
143	0xbd5a6072	-0.053314634
144	0xbd2dd274	-0.042437032
145	0xbd137621	-0.03600133
146	0xbd987caa	-0.07445653
147	0xbd2d7c7d	-0.04235505
148	0xbdc3b10e	-0.09555255
149	0xbc578bbb	-0.013155873
150	0xbdcecd47	-0.10097747
151	0x3d3010ec	0.042984888
152	0xbcaf06cb	-0.021365544
153	0xbdb3daed	-0.08781991
154	0x3cefa980	0.029255629
155	0x3d83f9c6	0.06444125
156	0xbd1dcee4	-0.038527384
157	0xbdaf5cfc	-0.08562657
158	0x3ddefdbd	0.108882405
159	0xbd40b9ce	-0.047052197
160	0x3d007186	0.031358264
161	0xbdb7b4eb	-0.08970054
162	0xbda0f268	-0.07858735
163	0xbd03244f	-0.03201705
164	0xbd1a8f85	-0.037734527
165	0xbd4f83da	-0.050662853
166	0xbdb5e632	-0.08881797
167	0x3d567786	0.05236008
168	0xbddbc8bc	-0.107316464
169	0xbd3986f3	-0.045294713
170	0xbdc96a69	-0.09834749
171	0xbde9ed9d	-0.11422274
172	0x3ce00ca7	0.027349783
173	0xbd61c6e7	-0.05512133
174	0x3d361ed8	0.04446301
175	0xbdec0818	-0.11524981
176	0xbd96dce2	-0.07366349
177	0x3d25644b	0.04037885
178	0x3cf0cc86	0.0293944
179	0x3dd30ef9	0.1030559
180	0x3d4ef3a6	0.05052533
181	0xbdc29b31	-0.09502257
182	0x3cb13439	0.021631347
183	0x3c93588c	0.017986558
184	0xbd1c13fa	-0.03810499
185	0x3ddecfb0	0.10879457
186	0x3d8a4d6d	0.06753049
187	0x3d4a7914	0.049431875
188	0xbdb34bd1	-0.08754695
189	0xbd0a2bf3	-0.03373332
190	0xbdd11020	-0.10208154
191	0xbd552a99	-0.052042577
192	0x3c281c19	0.010260605
193	0xbd624b13	-0.055247378
194	0x3dd7a977	0.1053037
195	0xbbe5309b	-0.0069943196
196	0xbbc24821	-0.0059290086
197	0xbcbd15e5	-0.02308173
198	0xbdb004ad	-0.08594642
199	0x3cac3e74	0.021025874
200	0x3db9fa19	0.090809055
201	0x3db72528	0.08942634
202	0x3cd88790	0.026431829
203	0x3d35c895	0.044380743
204	0xbd0541ed	-0.032533575
205	0x3c109dcd	0.008826685
206	0x3dc74c72	0.09731378
207	0xbd168e9e	-0.036757104
208	0x3d83091b	0.06398221
209	0x3d9c5b2e	0.07634579
210	0x3ce3597a	0.027752627
211	0xbdcf9869	-0.10136492
212	0x3d8e075f	0.06935
213	0xbdc581a2	-0.09643866
214	0x3d2bfb43	0.04198767
215	0x3d6eb508	0.058278114
216	0xbdc7a037	-0.097473554
217	0xbdca107b	-0.09866425
218	0xbda89100	-0.082307816
219	0x3da4c9a3	0.08046272
220	0xbd643b4c	-0.055720612
221	0xbd9cea10	-0.076618314
222	0xbc9f88de	-0.019474443
223	0x3c9f7947	0.01946701
224	0xbd32a9b7	-0.043618884
225	0xbd8bb8ab	-0.06822332
226	0xbdb5f628	-0.08884841
227	0x3d1de1e1	0.038545493
228	0xbd5cba1d	-0.05388843
229	0xbda60da4	-0.081080705
230	0xbd699a79	-0.057032082
231	0xbc9633ad	-0.018335188
232	0xbd94e416	-0.072700664
233	0xbc203787	-0.009778864
234	0x3ad3d7e1	0.0016162359
235	0x3dc80ae7	0.097677045
236	0x3dbd0662	0.09229733
237	0x3ce2ba8b	0.027676841
238	0xbd5b6b86	-0.05356934
239	0x3d06147c	0.03273438
240	0xbd70158c	-0.0586143
241	0x3da02740	0.07819986
242	0x3c1313a8	0.008976854
243	0xbca25d96	-0.019820016
244	0x3db7aa01	0.089679725
245	0xbc1f0460	-0.009705633
246	0xbd3cebdc	-0.04612337
247	0x3be2614c	0.0069085713
248	0x3dd172fe	0.10227011
249	0xbd9c591e	-0.07634185
250	0xbd2073ee	-0.03917306
251	0xbd708110	-0.058716834
252	0x3d8daf85	0.06918243
253	0x3dca7f58	0.0988757
254	0x3daf8c73	0.085717104
255	0x3dad9221	0.084751375

model.2.weight f4 [256, 256]
0	0xbd2e5686	-0.042562984
1	0x3d744580	0.059636593
2	0xbd6aeb47	-0.057353284
3	0xbd2df165	-0.04246654
4	0x3c124fc1	0.008930148
5	0x3d55f5dc	0.052236423
6	0xbd34b37d	-0.044116486
7	0xbd5e2476	-0.05423399
8	0xbd0a1331	-0.03370971
9	0x3cebe140	0.028793931
10	0xbd4102fe	-0.047121994
11	0x3b8ad469	0.004236747
12	0xbd476f44	-0.048690096
13	0xbd34e2cf	-0.044161614
14	0xbd21ab86	-0.039470218
15	0x3bbcb78d	0.0057591856
16	0xbc81a4aa	-0.015825588
17	0x3d2c765a	0.042105056
18	0x3d7a2768	0.061072737
19	0xbd1542d0	-0.03644067
20	0x3c80395e	0.015652355
21	0xbd9ab46a	-0.075539425
22	0xbd2a4240	-0.041567087
23	0xbcf75be2	-0.03019518
24	0x3c1c8350	0.009552792
25	0xbd423f2c	-0.047423527
26	0xbd082cf4	-0.033245996
27	0xbce3df0d	-0.02781632
28	0xbbfe9c54	-0.0077701006
29	0xbc814a79	-0.015782582
30	0x3d394a57	0.04523691
31	0x3d468e0b	0.048475306
32	0xbad1aa60	-0.001599621
33	0x3d37d5fc	0.044881806
34	0xbccb52c1	-0.024819734
35	0x3d0686c3	0.032843363
36	0x3d0776e7	0.03307238
37	0xbd804502	-0.06263162
38	0x3d51e652	0.05124504
39	0xbd5f8634	-0.054571345
40	0xbd881b16	-0.06645791
41	0x3c7d7f97	0.015472314
42	0x3d86284e	0.06550656
43	0x3c56ea01	0.013117314
44	0xbc4fbc54	-0.012679178
45	0xbd927ff0	-0.071533084
46	0x3bc4f65d	0.006010814
47	0x3d577538	0.052602023
48	0xbcb1e9b0	-0.021717876
49	0x3c43455f	0.011918395
50	0x3b47c288	0.003048094
51	0xbd598e12	-0.053114004
52	0x3d277a9f	0.040888425
53	0xbc99ddc4	-0.018782504
54	0xbbde2549	-0.006779347
55	0x3cf2ee34	0.0296546
56	0xbcd9a783	-0.026569134
57	0x3d1e3e5f	0.0386337
58	0xbd1a3c00	-0.037654877
59	0x3d8a9cd9	0.067681976
60	0x3cb366bb	0.021899572
61	0x3d5ed2eb	0.054400366
62	0x3b3f3c3d	0.0029180192
63	0x3ca54d6f	0.020178525
64	0xbcfb2d32	-0.0306612
65	0xbd0a822d	-0.03381555
66	0x3d85eb92	0.06539072
67	0x3b5825cb	0.003298151
68	0x3ca1075d	0.019656831
69	0x3c1aae45	0.009440963
70	0xbd35e496	-0.04440745
71	0xbcba5314	-0.022744693
72	0xbd031f28	-0.032012135
73	0x3cdfa0d3	0.027298367
74	0xbb78bd6c	-0.00379547
75	0x3d6a7d13	0.057248186
76	0x3d032abb	0.032023173
77	0xbd598c9b	-0.053112607
78	0x3d1686e1	0.036749724
79	0xbd296fa9	-0.041366253
80	0x3d56c48a	0.052433528
81	0xbd61b41f	-0.055103417
82	0x3bed9f4c	0.0072516557
83	0xbcc4bc27	-0.0240155
84	0xbd2ed575	-0.042684037
85	0x3d22d9be	0.039758436
86	0xbd606819	-0.054786775
87	0xbd0744ec	-0.033024713
88	0xbd43d189	-0.04780725
89	0x3d4ef5f1	0.050527517
90	0x3d3e30af	0.046433147
91	0xbd788852	-0.06067688
92	0xbd7667ae	-0.06015747
93	0xbd089d39	-0.033353064
94	0xbd3a2e3d	-0.045454253
95	0xbc8b6369	-0.017015176
96	0x3d3a905d	0.04554783
97	0x3cf74ba5	0.030187437
98	0x3d2f3238	0.0427725
99	0xbc48e26b	-0.0122610135
100	0x3c9917e4	0.01868815
101	0xbd8a3288	-0.06747919
102	0x3d161cd9	0.036648605
103	0x3ca079c7	0.019589318
104	0xbd18c1ad	-0.03729408
105	0xbbc9fa99	-0.006163907
106	0x3c1c0096	0.009521624
107	0xbcead560	-0.028666198
108	0x3d26526f	0.04060596
109	0x3d14d240	0.036333323
110	0x3d4c962d	0.049947906
111	0xbc46f91a	-0.012144351
112	0x3cf079d9	0.029354976
113	0x3d373abc	0.044733748
114	0xbd079614	-0.03310211
115	0xbd071914	-0.0329829
116	0x3d8b7a48	0.06810433
117	0x3c36ff85	0.011169319
118	0x3d2ecf08	0.04267791
119	0x3cc731b0	0.024315685
120	0xbd11efa5	-0.035628933
121	0xbd28f720	-0.0412513
122	0x3d669108	0.056290656
123	0x3ce70048	0.028198376
124	0xbca210fe	-0.019783493
125	0x3d28d98e	0.0412231
126	0x3b3c8f1a	0.0028771819
127	0xbd87a836	-0.066238806
128	0xbbafb577	-0.0053622085
129	0x3d6357b9	0.05550358
130	0xbd08598c	-0.033288524
131	0x3d12e282	0.035860546
132	0xbd85da20	-0.06535745
133	0x3d3caa6d	0.04606097
134	0x3d2ed8c0	0.042687178
135	0x3c69e18d	0.014274967
136	0xbd0f0b75	-0.034923036
137	0x3d6c3698	0.057669252
138	0xbd231959	-0.039819095
139	0xbd801fe6	-0.06256084
140	0x3cc8271b	0.02443271
141	0xbd219e29	-0.039457474
142	0x3c2f06a9	0.01068274
143	0x3c783be3	0.015150997
144	0xbc9d32da	-0.019189287
145	0xbc9b7025	-0.018974373
146	0xbd62b46b	-0.05534784
147	0xba994581	-0.0011693687
148	0x3d38632a	0.045016445
149	0xbd697f61	-0.057006244
150	0xbd2b505b	-0.04182468
151	0xbc862d1e	-0.016378935
152	0xbce13cfb	-0.027494898
153	0xbbd608b1	-0.006531798
154	0xbc9a11c7	-0.018807305
155	0x3d851e8b	0.06499966
156	0xbc0f8fda	-0.008762324
157	0xbd1c8a9f	-0.038218137
158	0x3d99f171	0.075167544
159	0xbd4feeea	-0.050764956
160	0xbd57d53c	-0.05269359
161	0xbd905881	-0.07048131
162	0xbcb36e8d	-0.0219033
163	0x3cd31985	0.025769005
164	0xbd4a0752	-0.049323387
165	0x3d82a30f	0.06378757
166	0xbd865a78	-0.06560224
167	0xbcf8e38b	-0.030381938
168	0x3c88443a	0.016634095
169	0x3cb310f6	0.021858674
170	0xbbe5225c	-0.0069926213
171	0x3ae6e428	0.0017615603
172	0x3d382979	0.044961426
173	0x3d5636e1	0.05229843
174	0x3d0fdd98	0.035123438
175	0x3bfc9daf	0.007709227
176	0x3cacfcd9	0.02111666
177	0x3c2a7179	0.010403031
178	0xbc4235d6	-0.011853656
179	0xbd0512ab	-0.032488506
180	0xbd3d5753	-0.046225857
181	0x3cc97f39	0.024596797
182	0xbd677764	-0.056510344
183	0xbd437721	-0.047721032
184	0x3cf1f6d5	0.029536644
185	0xbd1f216c	-0.038850233
186	0x3d6e59cc	0.058191106
187	0xbc078325	-0.008271013
188	0x3d8569bc	0.06514308
189	0xbc67a21d	-0.014137772
190	0xbcd268a3	-0.02568466
191	0xbc7e6933	-0.015528011
192	0x3d632a4c	0.05546026
193	0x3d118945	0.0355313
194	0xbd1c0baa	-0.03809706
195	0x3cc3088b	0.023807785
196	0xbd34be37	-0.044126716
197	0x3bb2b9d6	0.0054542823
198	0xbd0b7cd9	-0.03405461
199	0x3d755bb8	0.059901923
200	0xbd4d2533	-0.050084304
201	0x3cfae9b2	0.030629013
202	0xbc0fa496	-0.008767268
203	0x3bcbb11c	0.0062161814
204	0x3d949cf3	0.07256498
205	0xbc387115	-0.01125743
206	0x3ce09593	0.027415073
207	0x3d3cfbbb	0.046138506
208	0xbc565fb8	-0.013084345
209	0xbc94f744	-0.018184312
210	0xbda9d3d7	-0.08292358
211	0xb987b369	-0.00025882878
212	0x3d833b6c	0.06407818
213	0x3c9e3a97	0.019315047
214	0x3c83bfe7	0.016082717
215	0xbccfc8cf	-0.025364308
216	0xbd325161	-0.04353464
217	0xbd338698	-0.04382953
218	0x3caffc83	0.021482712
219	0x3c17357b	0.009229059
220	0x3cc3dc91	0.023908885
221	0xbaa68205	-0.0012703544
222	0xbbf29c7b	-0.007403908
223	0xbd5f981c	-0.054588422
224	0x3c00c481	0.00785935
225	0xbd4cee22	-0.05003179
226	0x3c8ad74c	0.016948365
227	0xbc50cf11	-0.012744681
228	0xbc3b552b	-0.01143388
229	0xbc70e31f	-0.014702587
230	0xbc4f9c82	-0.012671592
231	0xbc102bda	-0.0087995175
232	0xbd03c412	-0.03216941
233	0x3cb71b7f	0.022351978
234	0xbc9f63be	-0.01945674
235	0x3d2acb06	0.041697524
236	0xbd34e6ff	-0.044165608
237	0xbc1aefdf	-0.009456604
238	0x3cb1a0c0	0.021683097
239	0xb8a2f5f6	-7.770576e-05
240	0x3c51a916	0.012796661
241	0x3d45cebc	0.04829286
242	0xbd0c3774	-0.03423257
243	0x3c8b1619	0.01697831
244	0x3c8723d2	0.016496573
245	0x3d1aa9e6	0.037759684
246	0x3d43bf83	0.04779006
247	0xbc8c12f1	-0.017098876
248	0x3d30388a	0.04302267
249	0x3c0f4f7c	0.008746978
250	0xb98e067b	-0.0002708918
251	0xbcb4b393	-0.022058284
252	0x3c2a5cea	0.010398129
253	0xbb5923bc	-0.0033132872
254	0x3ceeced2	0.029151354
255	0xbd04bddc	-0.032407627

model.2.bias f4 [256]
0	0x3cff5d35	0.031172374
1	0x3d4fbfad	0.050719906
2	0xbd6ef996	-0.058343492
3	0xbd2b5b58	-0.04183516
4	0xbd049e8d	-0.03237777
5	0x3d18b537	0.037282195
6	0x3d4a9468	0.049457937
7	0xbd4688a2	-0.048470147
8	0x3d505a75	0.050867517
9	0xbcf41397	-0.029794497
10	0x3c1e180d	0.009649289
11	0xbd7339cd	-0.059381295
12	0x3d5b3ea1	0.053526524
13	0xbcc80b08	-0.024419323
14	0x3d333ffa	0.043762185
15	0x3cf2a391	0.02961901
16	0xbd17b705	-0.037039775
17	0xbc6373d1	-0.013882593
18	0x3ce7808f	0.028259544
19	0x3c4862c1	0.012230576
20	0x3ca1c91a	0.019749213
21	0xbcb6cdc1	-0.022314908
22	0x3cb767ad	0.022388304
23	0xbc9569f4	-0.018238999
24	0x3cb8a4a9	0.022539454
25	0xbcc9f29e	-0.024651822
26	0x3d336e3c	0.0438063
27	0x3d351686	0.044210933
28	0x3c7efe94	0.015563626
29	0xbcad47a9	-0.021152334
30	0xbc82ca98	-0.015965745
31	0xbcc689c5	-0.024235616
32	0x3cb632f7	0.022241099
33	0xbcd65fc8	-0.026168719
34	0xbd39643b	-0.045261603
35	0x3d2036ba	0.03911469
36	0x3c73645e	0.014855472
37	0x3cbb2267	0.022843553
38	0xbd1c3c52	-0.038143463
39	0x3d22fb3a	0.03979037
40	0xbd77c3c4	-0.06048943
41	0x3d30597d	0.043054093
42	0xb94edd43	-0.00019728117
43	0xbbd48c2b	-0.006486436
44	0xbccb031c	-0.024781756
45	0x3d6154b6	0.055012427
46	0xbc4e0692	-0.012574809
47	0x3ceea065	0.029129216
48	0xbcdb2d5e	-0.026755031
49	0x3d7a0cdf	0.06104743
50	0x3d0086dc	0.031378612
51	0x3d7eb07d	0.06218003
52	0xbd40a954	-0.047036484
53	0x3d409f67	0.047027018
54	0x3d884d45	0.06655363
55	0xbcbc6d40	-0.023001313
56	0x3d203241	0.039110426
57	0x3c823b18	0.015897319
58	0x3cd210d6	0.025642794
59	0xbc7619c7	-0.015020794
60	0x3ca6bfa9	0.020355063
61	0xba460ee5	-0.000755532
62	0xbd3c436b	-0.045962732
63	0xbb8558ea	-0.0040694373
64	0x3b450171	0.0030060674
65	0x3d31ea02	0.043436058
66	0xbd1ff99b	-0.0390564
67	0x3d186f39	0.037215445
68	0xbc7f67f7	-0.015588752
69	0x3d24e4d9	0.04025731
70	0x3d80966c	0.06278691
71	0x3c1c769b	0.009549762
72	0xbd2ec83b	-0.042671423
73	0xbd6b5a2a	-0.057459034
74	0x3cdc252f	0.0268732
75	0x38de44f6	0.0001059863
76	0xbada1922	-0.001663957
77	0x3d83e1b0	0.06439531
78	0x3cca3c05	0.024686823
79	0xbd55fecf	-0.052244958
80	0xbd3da2c7	-0.046297815
81	0xbd610677	-0.054937806
82	0x3d3a7448	0.04552105
83	0x3c061aed	0.008185131
84	0xbbcd3b5e	-0.0062631806
85	0xbcd17a92	-0.025571141
86	0xbd7e9ada	-0.062159397
87	0xbcf93f09	-0.030425565
88	0x3d756224	0.059908047
89	0x3cf43b97	0.02981357
90	0x3c913b1d	0.017728383
91	0xbd3970e2	-0.04527367
92	0xbb8ce8fc	-0.004300235
93	0xbd1fcca6	-0.039013527
94	0x3cb03046	0.021507394
95	0x3ca4e50a	0.020128746
96	0x3d1b5c8b	0.037930053
97	0x3cd54586	0.026034128
98	0x3c8754ac	0.016519867
99	0x3baa9c7c	0.0052066427
100	0xbd136a64	-0.035990134
101	0x3cde1535	0.027109722
102	0xbd519526	-0.05116763
103	0xbd81a427	-0.06330138
104	0x3d24788f	0.040154036
105	0xbd529132	-0.051408
106	0xbc0d8a80	-0.008638978
107	0xbd51e74e	-0.05124598
108	0xba1a866d	-0.0005894665
109	0x3c6dc5ec	0.01451252
110	0xbc78d8b7	-0.015188388
111	0xbd12ef68	-0.035872847
112	0x3ce79993	0.028271472
113	0x3cd2e59b	0.02574425
114	0x3d5862a1	0.052828435
115	0x3c28f61a	0.010312581
116	0x3cba59f0	0.022747964
117	0xbd56f7d8	-0.052482456
118	0x3b7250ff	0.0036974547
119	0xbcb283f6	-0.02179144
120	0x3c4ab5e2	0.012372466
121	0xbd409f48	-0.047026902
122	0x3ce24c92	0.027624402
123	0x3cf3df4d	0.029769564
124	0xbc91bd79	-0.017790543
125	0x3cf50a06	0.029912006
126	0x3cdaa8e6	0.026691865
127	0x3cc23f42	0.023711804
128	0xbca11d9a	-0.019667435
129	0xbd87d87b	-0.06633087
130	0xbbe41035	-0.00695994
131	0xbc2252cc	-0.009907436
132	0x3d61ff0e	0.05517488
133	0xbd3bcd51	-0.0458501
134	0xbd1e123d	-0.038591612
135	0xbce6e21b	-0.028183987
136	0x3d4c1ed5	0.04983409
137	0xbd3c80e5	-0.04602136
138	0xbcec49a0	-0.0288437
139	0x3d5b27b4	0.05350466
140	0x3c83c7c8	0.016086474
141	0x3da3ea0c	0.08003625
142	0xbd5c990f	-0.053856906
143	0xbd5f419a	-0.054505922
144	0xbc9d8445	-0.01922811
145	0x3c8bd3dd	0.017068798
146	0x3d24c901	0.040230755
147	0xbcfe364c	-0.03103175
148	0xbd6618dc	-0.05617605
149	0xbc75de94	-0.01500668
150	0x3bfb3dd4	0.0076672826
151	0xbd429ad7	-0.047510948
152	0xbd888b1d	-0.06667159
153	0xbbec4dac	-0.0072114076
154	0xbd47fd97	-0.048825826
155	0x3d77ea60	0.06052625
156	0x3d488261	0.048952464
157	0x3d2983b3	0.041385364
158	0xbcafc648	-0.021456853
159	0xbd723751	-0.059134785
160	0xbd14c765	-0.03632297
161	0xbcbe4e9a	-0.02323084
162	0x3d2ec5ed	0.042669225
163	0x3b8e44ba	0.004341689
164	0xbc2f0ee0	-0.010684699
165	0xbc6bfb49	-0.014403173
166	0xbca250b1	-0.019813867
167	0x3d3e4ae4	0.04645814
168	0x3d207dd8	0.039182514
169	0x3b772685	0.0037712168
170	0xbd2aaace	-0.0416668
171	0x3d162e85	0.03666546
172	0x3ce2753d	0.027643794
173	0xbd7f1ee2	-0.06228531
174	0x3cc358ed	0.023846114
175	0xbcace488	-0.021105066
176	0xbd11c051	-0.035583798
177	0x3d3b9b11	0.04580218
178	0x3d21a136	0.039460383
179	0x3a254329	0.0006304258
180	0xbbe76f57	-0.0070628333
181	0x3d1e49ff	0.038644787
182	0xbd72dd9f	-0.059293386
183	0x3d5b407c	0.053528294
184	0xbcc32088	-0.023819223
185	0xbc553fcc	-0.013015699
186	0x3d18a671	0.037268106
187	0xbd6bef28	-0.057601124
188	0x3d242431	0.040073577
189	0x3c774c65	0.0150938975
190	0xbd1e873c	-0.03870319
191	0x3bfe0a87	0.00775272
192	0xbd20f1e5	-0.03929319
193	0xba452b35	-0.0007521392
194	0xbd8528d0	-0.06501925
195	0xbd6a4dce	-0.057203107
196	0xbb8946a0	-0.0041893274
197	0xbd1f949f	-0.038960095
198	0x3ccf76a9	0.025325136
199	0xbc73508f	-0.01485075
200	0x3d66b894	0.05632837
201	0x3d117282	0.035509594
202	0x3d5f683a	0.054542758
203	0xbd6ae1d1	-0.05734426
204	0x3d6c7700	0.057730675
205	0x3cab677a	0.020923365
206	0xbbea9168	-0.007158447
207	0x3c0a9543	0.008458438
208	0xbd3bea35	-0.045877654
209	0xbc8fe30a	-0.017564315
210	0xbc81c293	-0.01583985
211	0xbd757d01	-0.059933666
212	0xbd5ba586	-0.053624652
213	0xbd649532	-0.055806346
214	0x3d3b84aa	0.045780815
215	0xbce53977	-0.027981503
216	0x3cc7a144	0.02436889
217	0xbc76e16f	-0.015068396
218	0xbd26d932	-0.040734477
219	0x3c56f7a2	0.013120564
220	0xbd3854e0	-0.045002818
221	0x3cd2536c	0.025674544
222	0x3cadbfc0	0.021209598
223	0xbc06d921	-0.0082304785
224	0xbcbbccb1	-0.022924753
225	0xbd859dfa	-0.06524272
226	0x3d865372	0.06558885
227	0xbd65543c	-0.055988535
228	0x3d0c9cde	0.034329288
229	0xbd04f93c	-0.03246425
230	0xbd306231	-0.043062393
231	0x3d21ebd9	0.039531562
232	0x3ba4ca04	0.005028965
233	0x3c580e91	0.013187067
234	0x3d1eaca7	0.038738873
235	0x3d4598d5	0.048241455
236	0x3c91a496	0.017778676
237	0xbd897d91	-0.06713403
238	0xbc8a0199	-0.016846465
239	0x3c540c06	0.01294232
240	0x3d4f2182	0.050569065
241	0x3d207635	0.03917523
242	0xbc538624	-0.0129104
243	0xbc6b37f2	-0.0143566
244	0x3cf4eba1	0.029897513
245	0x3d09a0f7	0.033600774
246	0xbca456ec	-0.020060979
247	0x3d0bfff1	0.03417963
248	0x3d548527	0.051884796
249	0x3d2ecfa5	0.042678494
250	0xbb0ca466	-0.0021460294
251	0x3ca78821	0.020450654
252	0xbc54d4c7	-0.012990183
253	0x3d23abbb	0.039958697
254	0x3c60544b	0.013691972
255	0x3bdd0e25	0.006746071

model.4.weight f4 [256, 256]
0	0x3d83c8a4	0.064347535
1	0xbb5045ae	-0.0031779814
2	0x3b25b5af	0.0025285294
3	0xbc47ddf6	-0.012198916
4	0xbd29b9fd	-0.041437138
5	0x3d05a17c	0.032624707
6	0xbd3504bb	-0.044193964
7	0xbc2e5534	-0.010640431
8	0xbba4bc8c	-0.0050273594
9	0x3bcde0d5	0.0062829056
10	0x3d825576	0.06363957
11	0xbd8ed602	-0.069744125
12	0xbd4be28c	-0.0497766
13	0x3ccd6a0d	0.025074983
14	0x3cc0fe42	0.02355874
15	0xbcb7d4de	-0.02244037
16	0xbd931c50	-0.071831346
17	0x3b9d701b	0.004804624
18	0xbd27f865	-0.04100837
19	0x3cb1fc2a	0.021726687
20	0x3d06a953	0.032876324
21	0xbd3fb4b8	-0.046803206
22	0x3bfaaff1	0.0076503684
23	0xbc7140a0	-0.01472488
24	0xbd34de16	-0.04415711
25	0x3d8bcff4	0.06826773
26	0x3d09f3c0	0.033679724
27	0x3c93ef99	0.018058585
28	0x3d1dede3	0.038556945
29	0x3cff0ecd	0.031134987
30	0xbcef7103	-0.029228693
31	0x3b219004	0.002465249
32	0xbd64d6fc	-0.055869088
33	0xbc22ee7c	-0.009944554
34	0x3d295298	0.041338533
35	0x3c91d3ac	0.017801128
36	0x3d525b21	0.05135644
37	0xbda443f0	-0.080207705
38	0x3c4e2bc2	0.012583675
39	0x3cce4a67	0.025181962
40	0xbcc214d5	-0.023691574
41	0xbd0abdd9	-0.03387246
42	0x3d01ee87	0.031721618
43	0xbd519bed	-0.051174093
44	0xbca1c630	-0.019747823
45	0xbd759178	-0.059953183
46	0x3d802801	0.0625763
47	0xba513141	-0.00079800567
48	0xbc19b241	-0.009380878
49	0xbca7018a	-0.020386476
50	0xbb83dee7	-0.0040243748
51	0xbd8724d7	-0.065988235
52	0xbd0139de	-0.031549327
53	0xbbf19c24	-0.0073733497
54	0xbd4b5007	-0.049636867
55	0x3d367560	0.04454553
56	0x3c87db87	0.016584171
57	0xbb68b1cc	-0.0035506366
58	0x3d959e38	0.073055685
59	0x3d04169b	0.03224812
60	0xbc71da21	-0.014761479
61	0x3c16e29c	0.009209301
62	0xbaa1ab63	-0.0012334402
63	0xbd18c533	-0.03729744
64	0xbd60d47c	-0.05489014
65	0x3d59a1be	0.053132765
66	0xbd59770c	-0.053092048
67	0x3c01e7e2	0.00792882
68	0x3d6092c3	0.054827463
69	0xbd9b3c3d	-0.07579849
70	0x3d399841	0.045311216
71	0xbd6cc0cf	-0.057801064
72	0x3c5ea611	0.013589398
73	0xbbb6355d	-0.0055605606
74	0xbcef6819	-0.029224442
75	0x3d63e5d4	0.055639103
76	0xbd31d8d2	-0.043419667
77	0xbd201883	-0.039085876
78	0xbd1c63fa	-0.038181283
79	0xbd7fdf9f	-0.06246912
80	0xbd5c62b8	-0.053805083
81	0xbd951be3	-0.072807096
82	0x3d8a4893	0.06752124
83	0x3d033111	0.032029215
84	0x3cd47dba	0.025938857
85	0x3c3c25e9	0.011483648
86	0x3d3d8556	0.046269737
87	0x3c470cb7	0.012149028
88	0xbd847467	-0.064675145
89	0xbd4aa5cb	-0.04947452
90	0x3c4e606e	0.012596233
91	0x3c735880	0.014852643
92	0xbcf3ff07	-0.029784692
93	0xbd388ddd	-0.045057166
94	0xbd772874	-0.060341313
95	0xbd76c67e	-0.06024789
96	0xbd26e857	-0.04074892
97	0x3d3d7a94	0.046259478
98	0xbd1a15e2	-0.037618525
99	0x3bcc9ddf	0.0062444056
100	0x3d1d49ad	0.03840034
101	0x3c544c34	0.012957621
102	0x3cced41b	0.025247624
103	0x3c2b791f	0.010465889
104	0xbd979c64	-0.07402876
105	0x3d8cbc75	0.06871883
106	0xbd078f9d	-0.033095945
107	0x3c25455b	0.010087336
108	0xbd947daf	-0.07250535
109	0x395ed0a1	0.0002124929
110	0xbd3558f5	-0.04427429
111	0x3d2f6bf1	0.04282755
112	0xbc0a999c	-0.008459475
113	0x3d717fff	0.058959957
114	0x3d4d141f	0.050068017
115	0x3d6c6b0d	0.05771928
116	0xbd08b299	-0.03337345
117	0x3d0f418f	0.03497463
118	0x3d1cf15d	0.03831612
119	0x3d5e561a	0.05428133
120	0x3d2dd603	0.042440426
121	0xbd539137	-0.05165216
122	0xbd63d9ab	-0.055627506
123	0x3c5fd503	0.013661626
124	0xbd38d409	-0.045124087
125	0xbd5ec514	-0.054387167
126	0x3d218b99	0.03943977
127	0x3ba412f8	0.005007144
128	0x3d0ac091	0.033875052
129	0x3cd80276	0.026368361
130	0x3c047149	0.00808365
131	0x3d52f604	0.05150415
132	0x3c6d599a	0.014486695
133	0x3d5ae17b	0.05343769
134	0x3d59ccea	0.053173937
135	0x3c9da614	0.019244231
136	0x3a04756b	0.0005052897
137	0x3d0afdf1	0.033933584
138	0xbc9132ac	-0.017724358
139	0xbcbbe96c	-0.022938453
140	0x3d577fcb	0.052612107
141	0x3c756208	0.014976986
142	0x3d2d790a	0.04235176
143	0x3cbe636d	0.02324077
144	0x3c285b20	0.010275632
145	0xbd56c3de	-0.052432887
146	0x3ce8a530	0.02839908
147	0xbc864fdd	-0.016395504
148	0xbd6f4b91	-0.058421675
149	0xbbb5a77f	-0.0055436487
150	0x3d63f76f	0.055655893
151	0xbbcba785	-0.0062150382
152	0x3d086ab2	0.033304878
153	0x3c831a2f	0.016003696
154	0x3bd183ec	0.0063939
155	0xbd5fd67f	-0.05464792
156	0x3d3dc2cb	0.046328347
157	0x3d81558b	0.06315144
158	0x3cc732ee	0.024316277
159	0x3d91ffbd	0.07128856
160	0x3b25f410	0.0025322475
161	0xbd384ec0	-0.044996977
162	0xbd659ae6	-0.056055926
163	0x3b27f06c	0.002562548
164	0x3d4a29fd	0.04935645
165	0x3c5c8176	0.0134586
166	0x3ae30415	0.0017319942
167	0x3c7e8546	0.015534705
168	0x3c890fd9	0.01673119
169	0xbd8e37e4	-0.06944254
170	0x3c9ca930	0.019123644
171	0x3d1b520d	0.037920047
172	0x3d28be48	0.04119709
173	0xbb8cc752	-0.004296222
174	0x3c532fa8	0.01288978
175	0xbd36bfb3	-0.044616412
176	0xbd4a5a0f	-0.049402293
177	0x3bbccb6a	0.0057615535
178	0x3d4621d8	0.04837212
179	0xbd2b7da6	-0.041867875
180	0xbd1b3bf0	-0.037898958
181	0x3b0459b4	0.0020195069
182	0xbb1e1050	-0.002411861
183	0x3d0a4ff8	0.03376767
184	0xbd53a69d	-0.051672567
185	0x3c3e45dc	0.011613335
186	0xbd497c95	-0.049191076
187	0xbd4f6d56	-0.05064138
188	0x3d576e13	0.05259521
189	0x3cb37e87	0.021910919
190	0xbc813377	-0.01577161
191	0xbd083638	-0.033254832
192	0xbd5b3bef	-0.053523954
193	0x3d34e2d9	0.04416165
194	0xbd32f8eb	-0.043694418
195	0xbc7ba80d	-0.015359891
196	0x3d510de0	0.051038623
197	0x3b1e6350	0.0024168082
198	0x3d3fda02	0.046838768
199	0x3cb49ab4	0.022046424
200	0xbc87ce67	-0.016577912
201	0x3d334a8d	0.04377227
202	0xbd6b54c1	-0.057453874
203	0x3c6d09e7	0.014467693
204	0x3d1183e3	0.035526168
205	0x3d210aa7	0.0393168
206	0x3d11f29f	0.035631772
207	0x3c5e75cc	0.01357789
208	0xbc9b8646	-0.018984925
209	0xbd4b09dd	-0.049569953
210	0x3c134f3a	0.008991057
211	0xbce9fec9	-0.028563874
212	0xbd42bf2f	-0.047545608
213	0x3d42aaaa	0.04752604
214	0xbac77c40	-0.0015219525
215	0xbd188a9b	-0.03724156
216	0x3b6f8aaa	0.0036551156
217	0xbd0ef1a6	-0.034898423
218	0xbd3ce72e	-0.046118908
219	0xbb60811c	-0.0034256643
220	0x3d186a55	0.03721078
221	0xbd88c988	-0.06679064
222	0x3cbe3950	0.023220688
223	0x3bd28f86	0.0064258007
224	0xbd6290d7	-0.05531391
225	0xbcca5c9a	-0.024702359
226	0x3d370e5b	0.044691425
227	0x3d68b929	0.056817207
228	0x3d66a06b	0.05630533
229	0xbd5537d4	-0.052055195
230	0x3cbd21a2	0.023087326
231	0xbc8b1555	-0.016977945
232	0xbd5174e3	-0.051136862
233	0xbd28faa0	-0.04125464
234	0x3d3de307	0.04635909
235	0xbd847a2f	-0.06468617
236	0xbb31b0d7	-0.0027113461
237	0x3d6e8e98	0.058241457
238	0xbade672e	-0.0016968006
239	0x3d64d7dc	0.055869922
240	0x3baddf93	0.005306193
241	0xbc2d1da1	-0.010566146
242	0x3d11c1c8	0.035585195
243	0x3d12426d	0.03570788
244	0x3cd263b7	0.025682313
245	0x3ca2e803	0.019886022
246	0x3cd60428	0.026125029
247	0xbd832bfa	-0.06404872
248	0x3d8321ec	0.064029545
249	0x3b9c0fee	0.004762641
250	0x3bfc96ea	0.00770842
251	0x3c0dfde4	0.008666489
252	0xbd947108	-0.072481215
253	0xbcc2d433	-0.023782825
254	0xbc887583	-0.016657596
255	0x3d71e4d1	0.059056107

model.4.bias f4 [256]
0	0x3d761e82	0.06008769
1	0xbd5bc5f0	-0.053655565
2	0x3d1d0f1c	0.038344488
3	0xba28e304	-0.00064425194
4	0x3ac24961	0.0014822894
5	0x3d200178	0.0390639
6	0xbd8e3a6c	-0.06944737
7	0x3d500993	0.05079038
8	0x3c35cbc9	0.011095949
9	0x3d936376	0.07196705
10	0xbc9fb676	-0.019496184
11	0x3c889184	0.01667095
12	0xbd4ea099	-0.050446127
13	0xbcc4da42	-0.024029855
14	0x3c43e6e7	0.011956907
15	0x3d09358f	0.033498343
16	0xbd65e819	-0.05612955
17	0x3d05ea9f	0.032694455
18	0x3d74c100	0.05975437
19	0xbcc5fd13	-0.024168527
20	0x3bbbac3d	0.0057273195
21	0x3d0e586b	0.03475229
22	0xbc9c6889	-0.019092815
23	0x3d44da8d	0.04805999
24	0x3c48338f	0.012219324
25	0xbc6feaa4	-0.014643345
26	0x3c137a42	0.0090013165
27	0x3c45d651	0.012075023
28	0xbc8b72bb	-0.017022481
29	0x3d8d8b44	0.069113284
30	0x3cec7c43	0.028867846
31	0xbb4839ee	-0.0030552107
32	0xbc632d6e	-0.013865812
33	0x3c9ba790	0.019000798
34	0xbc008861	-0.007845015
35	0xbcc2e7ba	-0.023792136
36	0x3cdb76f1	0.026790114
37	0xbd8eabf2	-0.0696639
38	0xbcf46348	-0.029832497
39	0x3c978610	0.018496543
40	0xbcae04f1	-0.02124259
41	0x3d792e70	0.060835302
42	0x3cdaf42d	0.02672776
43	0xbaf0773c	-0.0018346081
44	0xbcc0b38c	-0.023523115
45	0xbc549b0d	-0.01297642
46	0xbd03ead6	-0.03220638
47	0xbc9b8e40	-0.018988729
48	0xbcec4088	-0.028839365
49	0x3d551cc3	0.052029382
50	0x3d1f1d73	0.038846444
51	0xbce2f79f	-0.027705966
52	0xbd669410	-0.056293547
53	0xbd7deaee	-0.061991625
54	0xbd3fddc0	-0.046842337
55	0x3aed77bf	0.0018117352
56	0x3d38bf00	0.045104027
57	0x3d3f2429	0.046665344
58	0xbd51b63b	-0.05119918
59	0xbca13386	-0.019677889
60	0xbd2bbf6b	-0.041930597
61	0xbca98efa	-0.02069806
62	0x3cc5f22e	0.024163332
63	0x3d0c1ef8	0.03420922
64	0x3d5ab6ca	0.053396977
65	0xbd542472	-0.05179257
66	0x3d7fa05d	0.062408794
67	0xbd6770e8	-0.05650416
68	0xbcdc4e28	-0.026892737
69	0x3d6436b1	0.05571622
70	0xbd07c078	-0.033142537
71	0xbd5198d5	-0.051171143
72	0xbd56500e	-0.05232244
73	0xbb5069a7	-0.0031801255
74	0x3d8914d1	0.066934235
75	0x3da31a39	0.07963986
76	0xbc8f3a7b	-0.01748394
77	0x3c10a8a3	0.008829269
78	0x39dec6be	0.00042491214
79	0x3d687384	0.05675079
80	0x3d4ec465	0.050480265
81	0x3d02a991	0.031899992
82	0x3d038a69	0.03211442
83	0x3d479462	0.048725493
84	0xbd1d0446	-0.038334154
85	0x3c355b27	0.011069096
86	0x3d52de2f	0.051481422
87	0xbb8a3ba3	-0.004218535
88	0x3d131882	0.035912044
89	0x3d6a591b	0.057213884
90	0xbce60fb8	-0.028083667
91	0xbd5ec095	-0.05438288
92	0x3d2a0790	0.04151112
93	0x3d5f878e	0.054572634
94	0xbd8e6550	-0.069529176
95	0xbced6037	-0.028976543
96	0xbd209c04	-0.039211288
97	0x3d05f578	0.0327048
98	0x3afb2225	0.0019159956
99	0x3d19142d	0.037372757
100	0x3cedb3ad	0.02901634
101	0xbc004f1f	-0.007831364
102	0x3c140ce0	0.009036273
103	0xbd8732a8	-0.06601459
104	0xbd258fdf	-0.04042041
105	0x3d8ba16e	0.068179
106	0x3d84db73	0.06487169
107	0x3d01c8fd	0.031685818
108	0x3d3a997b	0.045556527
109	0x3d18e4c0	0.037327528
110	0xbcae8236	-0.021302324
111	0x3caf6750	0.021411568
112	0x3d2d1722	0.04225839
113	0x3d314452	0.043278046
114	0xbd64c9d5	-0.055856545
115	0x3c1cac7b	0.009562607
116	0xbce1655b	-0.02751415
117	0x3d3555c2	0.04427124
118	0xbd3d934f	-0.046283063
119	0x3ce7967b	0.028269997
120	0xbd331204	-0.043718353
121	0xbd29f080	-0.041489124
122	0xbce4eee4	-0.027945943
123	0x3d059efb	0.03262232
124	0x3b8bd154	0.004266897
125	0x3ce251be	0.027626868
126	0xbd555d75	-0.05209108
127	0xbd73d86e	-0.059532575
128	0xbd429d7e	-0.047513478
129	0x3c84a680	0.016192675
130	0xbd2dc07f	-0.042419907
131	0x3d4c2277	0.049837556
132	0x3cc65a88	0.02421309
133	0x3b0421fa	0.0020161853
134	0xbd7e6988	-0.06211236
135	0xbd2ad244	-0.04170443
136	0xbd4ff7a3	-0.050773274
137	0xbb9440fe	-0.0045243492
138	0x3d4b22bb	0.04959367
139	0xbd68eb0e	-0.05686479
140	0xbd48c329	-0.049014244
141	0xbd78e14f	-0.060761746
142	0x3cf33bbb	0.029691568
143	0x3c21e0f1	0.00988029
144	0xbd75598a	-0.059899844
145	0xbc42f47a	-0.011899108
146	0x3b81ce9f	0.0039613987
147	0xbd28f1e9	-0.04124633
148	0x3be1a8df	0.006886586
149	0xbd8c6ecb	-0.068570696
150	0xbd346af5	-0.044047315
151	0x3d18c32e	0.037295513
152	0xbd835f4e	-0.06414662
153	0x3c3604fa	0.011109585
154	0xbd32b36f	-0.043628152
155	0xbd44bef3	-0.048033666
156	0xbce6dd5b	-0.028181722
157	0x3b3d12d5	0.0028850336
158	0x3aca42ff	0.0015431343
159	0x3c6c711a	0.014431262
160	0x3ce52af7	0.027974589
161	0x3d3a57d4	0.045493916
162	0x3c96fcf1	0.018431159
163	0xbd7ce5d0	-0.061742604
164	0x3cff8f71	0.031196328
165	0xbccc702c	-0.024955831
166	0xbca8362b	-0.020533642
167	0xbc8605e1	-0.016360225
168	0x3ce863ca	0.028367896
169	0x3d02e02f	0.03195208
170	0x3d8247a5	0.06361321
171	0x3cda70be	0.026665088
172	0xbcbd8cfb	-0.023138514
173	0x3d098bd0	0.0335806
174	0xbd8bd045	-0.06826834
175	0xbd2f563a	-0.04280684
176	0xbd01c68d	-0.031683493
177	0x3d85d821	0.06535364
178	0xbc924afa	-0.017858017
179	0x3d7ec3e2	0.062198527
180	0xbb967b0c	-0.004592305
181	0x3d5e871d	0.054328073
182	0xbd1c8fb3	-0.03822298
183	0x3d4ca2d5	0.049959976
184	0xbcdbd7c5	-0.026836285
185	0xbd87e514	-0.0663549
186	0x3c1199ca	0.008886764
187	0xbd71e63a	-0.05905745
188	0x3d65ae76	0.056074582
189	0xb9e15309	-0.0004297721
190	0xbc03aa37	-0.008036188
191	0x3d682042	0.05667139
192	0xba98ad8d	-0.0011648402
193	0x3c872d67	0.016501142
194	0x3cb2c724	0.021823473
195	0x3bb8dc06	0.005641463
196	0x3c1d5cfa	0.009604687
197	0x3d8cace4	0.06868914
198	0xbd6c7a77	-0.05773398
199	0x3d17dd5e	0.037076347
200	0xbd5de77f	-0.05417585
201	0x3d204964	0.03913249
202	0xbc486241	-0.012230457
203	0x3cffba63	0.031216806
204	0x3a98b8b4	0.0011651726
205	0xbd3469b3	-0.044046115
206	0xbd8080fe	-0.06274603
207	0xbc9b8f0c	-0.018989109
208	0x3d932e0f	0.07186519
209	0xbd442f03	-0.047896396
210	0x3d07f79e	0.03319513
211	0xbceeeed2	-0.029166613
212	0xbb18ea43	-0.002333299
213	0x3abd025d	0.001442026
214	0xbd3f3dfe	-0.04668998
215	0xbd907f3c	-0.07055518
216	0xbcd975f3	-0.0265455
217	0x3ae5992b	0.0017516961
218	0xbcab28d5	-0.020893494
219	0xbcc3f314	-0.02391962
220	0x3d92b23f	0.07162904
221	0x37a6ed75	1.9899317e-05
222	0xbcc75d35	-0.024336437
223	0x3cb465cc	0.022021197
224	0x3d39a2a3	0.045321118
225	0xbd902755	-0.07038752
226	0xba86f998	-0.0010297773
227	0x3cbac79a	0.022800256
228	0xbd34d5b5	-0.04414912
229	0xbd8344d6	-0.06409614
230	0x3d48c573	0.049016427
231	0x3c7b6380	0.015343547
232	0x3cee6953	0.029102957
233	0x3d822be5	0.063560285
234	0xbcf44516	-0.029818099
235	0xbcc347c7	-0.023837937
236	0xbd2bf78e	-0.041984133
237	0x3d370119	0.04467878
238	0xbc554454	-0.013016779
239	0x3c722150	0.01477845
240	0xbc8fce71	-0.017554494
241	0xbd72a48d	-0.05923896
242	0xbcd1a2a5	-0.02559025
243	0xbceb9df9	-0.02876185
244	0x3d328e7a	0.043592907
245	0xbc298c16	-0.0103483405
246	0xbc95581c	-0.01823049
247	0xbcf4ff2b	-0.02990683
248	0xbca99ecb	-0.020705601
249	0x3c9b58ed	0.018963302
250	0xbc08ea2a	-0.00835661
251	0xbd8d6c39	-0.069054075
252	0xbd45fb22	-0.048335202
253	0x3c4a4fb8	0.012348108
254	0xbc1cde60	-0.009574503
255	0x3c4b58c6	0.012411302

model.6.weight f4 [16, 256]
0	0xbd2f28bf	-0.042763468
1	0x3d67d5ef	0.056600507
2	0xbbf58024	-0.007492082
3	0xbd8b18cc	-0.06791839
4	0x3c2737bd	0.01020616
5	0xbc9d7a8e	-0.019223478
6	0x3cc803fe	0.024415966
7	0x3d5783f6	0.052616082
8	0xbca67784	-0.020320661
9	0x3cba3383	0.02272964
10	0xbcaa2b9a	-0.020772744
11	0xbd09d093	-0.033646178
12	0x3cc5889d	0.024112994
13	0x3c208482	0.009797217
14	0xbd2f4f9e	-0.04280054
15	0x3d391c67	0.045193102
16	0xbc8fae76	-0.017539244
17	0xbd2cce0c	-0.04218869
18	0xbd2304ad	-0.03979938
19	0x3c02c5d7	0.007981739
20	0x3cb65cd6	0.022261064
21	0x3cc1e0bc	0.023666732
22	0xbd4e058b	-0.050298255
23	0x3d757056	0.059921585
24	0x3cc8bd13	0.02450422
25	0xbd59d406	-0.053180717
26	0x3d5696da	0.052389957
27	0xbd20b2f3	-0.03923316
28	0xbc5022fb	-0.0127036525
29	0xbd659606	-0.056051277
30	0xbc9c2de3	-0.01906485
31	0xbd82fe3a	-0.06396146
32	0x3ba4d120	0.0050298125
33	0x3c46c112	0.0121309925
34	0xbd5dc8fd	-0.054146755
35	0xbb49da65	-0.003080034
36	0x3d1740c8	0.036927015
37	0xbd30b17e	-0.04313802
38	0xbccc822c	-0.024964415
39	0xbd301724	-0.04299082
40	0xbbfb0c32	-0.007661366
41	0xbc509d90	-0.012732878
42	0x3d018e6d	0.03162997
43	0x3d648100	0.055787086
44	0x3c0ebfe6	0.008712744
45	0x3d3f2e53	0.046675038
46	0x3aa37834	0.0012471736
47	0x3d237718	0.0399085
48	0xbb62f3d5	-0.0034630198
49	0xbcfad0a4	-0.030617066
50	0x3d6bad32	0.05753822
51	0xbbf2fdfe	-0.007415532
52	0xbd3949ee	-0.04523652
53	0x3d541b08	0.05178359
54	0x3b1bf5bf	0.00237976
55	0x3d5f46fc	0.054511055
56	0xbc0d6c42	-0.008631768
57	0xbb63ed53	-0.0034778907
58	0x3b4dfb63	0.0031430356
59	0x3d5c9424	0.053852215
60	0xbd12bb9b	-0.035823446
61	0x3ce85cdc	0.028364591
62	0xbcaa34c1	-0.020777108
63	0xbb6db296	-0.0036269776
64	0xbd2dc381	-0.042422775
65	0xbd4b1cfa	-0.04958818
66	0x3cb6f28f	0.022332458
67	0x3d7bc84a	0.061470307
68	0xbc196508	-0.009362467
69	0xbc847062	-0.01616687
70	0xbbf2bc39	-0.007407692
71	0x3cac01af	0.020996897
72	0xbd4cfb5c	-0.050044402
73	0xbd322612	-0.043493338
74	0x3c9d0d71	0.019171448
75	0xbd29ed25	-0.041485924
76	0xbd1e936c	-0.03871481
77	0xbc66c83b	-0.014085825
78	0x3d3f8d8d	0.046765853
79	0x3d6baa88	0.05753568
80	0x3d30ff32	0.043212123
81	0x3d82937a	0.06375785
82	0x3d24ad92	0.040204592
83	0xbcd065eb	-0.025439223
84	0x3d74997a	0.05971668
85	0xbd719fef	-0.058990415
86	0xbbc92fc7	-0.0061397287
87	0xbd56b4a5	-0.05241837
88	0x3c3d5c0b	0.011557589
89	0x3d0c013f	0.034180876
90	0x3d1c3ef6	0.03814598
91	0xbd5474f7	-0.05186936
92	0xbc0df3f1	-0.008664117
93	0xbd6d20cd	-0.05789261
94	0x3c03bc4c	0.008040499
95	0xbd9b1d36	-0.07573931
96	0xbd66ffc3	-0.056396257
97	0x3d04ee82	0.03245402
98	0xbb060099	-0.0020447134
99	0xbcaced69	-0.0211093
100	0x3d671c85	0.056423683
101	0x3b7df398	0.003874993
102	0xbd362ead	-0.044478107
103	0xbd226e49	-0.039655957
104	0xbd870bd2	-0.065940514
105	0x3cca0952	0.024662647
106	0x3c542203	0.012947562
107	0x3d0833a1	0.033252362
108	0x3d082c5f	0.03324544
109	0xbd0924db	-0.033482414
110	0x3d160733	0.03662796
111	0x3c2f43e3	0.010697338
112	0x3c9ad3bb	0.01889979
113	0x3d643a46	0.055719636
114	0x3cd6c0ac	0.02621492
115	0x3cc7d47e	0.024393316
116	0xbd2f0c79	-0.042736504
117	0x3bdd7d00	0.006759286
118	0xbd341f9b	-0.043975454
119	0xbd6f90a9	-0.058487568
120	0x3c809aa2	0.015698735
121	0xbdbf9700	-0.09354973
122	0xbd745045	-0.059646863
123	0xbc8f8b0c	-0.017522357
124	0xbd415515	-0.04720028
125	0xbd7bfb46	-0.06151893
126	0x3d568769	0.05237523
127	0xbce0c9ef	-0.02744004
128	0x3c6af650	0.014340952
129	0x3d1b9330	0.037982166
130	0xbd4475f3	-0.047964048
131	0xbc97e8de	-0.018543657
132	0x3c8d3e8a	0.017241735
133	0xbd550792	-0.052009173
134	0x3cb7eec8	0.022452727
135	0x3d544eb0	0.051832855
136	0x3c910946	0.017704617
137	0x3cdff504	0.027338512
138	0x3ca79f0c	0.020461582
139	0xbd79e4db	-0.06100927
140	0x3d63b354	0.055590943
141	0xbd5057ae	-0.050864868
142	0x3bd62f98	0.0065364353
143	0x3d8e9105	0.06961254
144	0xbd4c09ad	-0.049813915
145	0xbc2db18a	-0.010601411
146	0xbd7e4713	-0.0620795
147	0xbc81c40d	-0.015840555
148	0xbd636477	-0.055515733
149	0xbd6c7fe0	-0.05773914
150	0xbd866931	-0.065630324
151	0xba2b61a7	-0.00065376837
152	0x3c6754f2	0.014119374
153	0x3d15ece8	0.036602885
154	0xbc969a65	-0.018384168
155	0xbcbaa43f	-0.022783397
156	0x3c8fd436	0.017557245
157	0xbd66c0f8	-0.056336373
158	0x3c6870ee	0.014187081
159	0xbd2472d8	-0.040148586
160	0x3b4ec9c5	0.003155337
161	0xbcc63e6f	-0.024199693
162	0xbce60113	-0.028076684
163	0x39107411	0.00013776148
164	0x3cab7f78	0.020934805
165	0xbc742121	-0.014900477
166	0x3cb39b59	0.021924661
167	0x3c5b8ef0	0.013400778
168	0xbd0bbfe4	-0.034118548
169	0x3d2c1833	0.042015266
170	0x3d5063a3	0.05087627
171	0xbd0cf34a	-0.034411706
172	0x3d7473a3	0.059680592
173	0x3b26cfd7	0.0025453472
174	0xbca4d303	-0.02012015
175	0x3ce52727	0.02797277
176	0x3b05c1be	0.0020409669
177	0xbc273997	-0.010206602
178	0x3ce77908	0.028255954
179	0xbd694d6c	-0.0569586
180	0xbd2dbb13	-0.042414736
181	0xbda24dec	-0.07925019
182	0xbd21ac1e	-0.039470784
183	0xbd5d46bb	-0.054022532
184	0xbd365803	-0.04451753
185	0x3be1e79a	0.006894064
186	0xbc06978a	-0.008214841
187	0x3c4a3abb	0.012343104
188	0x3d672226	0.05642905
189	0xbadd0175	-0.0016861396
190	0xbcb7bf35	-0.022430042
191	0xbcb04553	-0.021517431
192	0x3d82340b	0.06357583
193	0xbc692ca7	-0.014231837
194	0x3d1142da	0.035464145
195	0x3d05952a	0.032612957
196	0xbc9d9c2b	-0.019239506
197	0xbd232d42	-0.039838083
198	0xbbc8f480	-0.0061326623
199	0xbd267130	-0.040635288
200	0x3c601cf1	0.013678775
201	0xbd63eef5	-0.05564781
202	0xbd4969a6	-0.04917302
203	0xbce7a639	-0.028277503
204	0xbd883957	-0.06651562
205	0xbd7efee6	-0.06225481
206	0xbcf11047	-0.029426707
207	0xbbfd88fb	-0.0077372766
208	0xbd0ba244	-0.034090295
209	0x3c71db7c	0.014761802
210	0x3bb9222c	0.0056498256
211	0xbb025b6d	-0.001989092
212	0xbd40dc3a	-0.047085024
213	0x3ce85e62	0.028365318
214	0xbcb22c15	-0.021749536
215	0x3cb41455	0.021982351
216	0xbdc6c723	-0.09705951
217	0xbccec8cb	-0.02524223
218	0xbc3e9342	-0.011631789
219	0x3d34842f	0.044071373
220	0x3d2ab4c2	0.04167629
221	0xb9c89f07	-0.00038265457
222	0xbd3f35ba	-0.046682097
223	0x3d131207	0.035905864
224	0x3bc028e7	0.005864251
225	0xbd453474	-0.048145726
226	0x3b5135b6	0.0031922883
227	0x3cb1858c	0.021670125
228	0x3cead912	0.02866796
229	0xbc9fb039	-0.01949321
230	0xbd2c7a16	-0.042108618
231	0x3d1e8e82	0.038710125
232	0x3d5b1837	0.05348989
233	0x3a5d342d	0.0008438256
234	0x3ca1c20d	0.019745851
235	0x3cb7eb76	0.022451144
236	0xbd3dd884	-0.046349064
237	0xbc886e23	-0.01665408
238	0xbcc633e5	-0.024194667
239	0xbb170f24	-0.0023049796
240	0xbd167dc7	-0.036741044
241	0xbba9988c	-0.0051756557
242	0x3b3c9f0a	0.0028781318
243	0x3c937432	0.017999742
244	0x3ccd6adc	0.025075369
245	0x3d78861b	0.060674768
246	0x3cb9a68a	0.02266242
247	0xbd9c6ccc	-0.07637939
248	0xbc92c7f8	-0.017917618
249	0x3b14cbf1	0.0022704566
250	0x3d848531	0.06470717
251	0x3d325a05	0.04354288
252	0x3d5706ac	0.052496597
253	0x3d56e445	0.05246379
254	0xbca6964e	-0.020335343
255	0xbdb4c752	-0.0882708

model.6.bias f4 [16]
0	0x3bd6939e	0.006548359
1	0xbd04cd7e	-0.032422535
2	0xbd67d0b3	-0.056595515
3	0x3d48673d	0.04892658
4	0x3d32ebbb	0.04368184
5	0x3c8f0a3b	0.017460933
6	0x3d8abb6b	0.067740284
7	0x3d10b9ac	0.03533332
8	0x3d72c996	0.05927428
9	0xbb9ce2da	-0.004787785
10	0x3d704c4f	0.058666524
11	0x3c3c91c1	0.01150936
12	0xbd5e1b18	-0.054225057
13	0x3d008d3d	0.031384695
14	0xba9facfa	-0.0012182288
15	0x3b898201	0.004196406
