data/checkpoints/rlgym-ppo-run-1760498429643267200/250679050/PPO_VALUE_NET.pt (torch, 623393 bytes, 7 tensors)

model.0.weight f4 [256, 89]
0	0x3e6bdc94	0.23033363
1	0xbdaa33c8	-0.08310658
2	0x3df248c2	0.11830284
3	0xbf061524	-0.5237601
4	0xbd6497cb	-0.055808824
5	0xbc2bfa19	-0.01049664
6	0x3d76cf97	0.060256567
7	0xbde1116f	-0.10989653
8	0xbca8d218	-0.020607993
9	0x3b9461ac	0.004528245
10	0xbc88a83f	-0.016681788
11	0x3c9901fe	0.018677708
12	0x3c8fd0db	0.017555645
13	0xbc52515b	-0.0128367795
14	0x3c6e09ab	0.014528672
15	0x3d0a374c	0.03374414
16	0x3c24368c	0.010022771
17	0xbc1aabba	-0.009440357
18	0x3d97ea9b	0.07417794
19	0xbcd28a54	-0.025700726
20	0xbda02fdf	-0.07821631
21	0x3d97c4de	0.07410596
22	0xbcaa23c9	-0.020769017
23	0x3cfdf922	0.031002585
24	0xbc8c9d9e	-0.017165001
25	0x3d3605b9	0.04443905
26	0x3d8755a7	0.06608134
27	0xbc852a78	-0.016255602
28	0xbc8bac8c	-0.01705005
29	0xbdcfbe66	-0.101437375
30	0x3d258611	0.04041106
31	0xbd9e12e8	-0.0771845
32	0x3d00158e	0.031270556
33	0xbca8d72d	-0.020610416
34	0x3d3fade4	0.046796694
35	0x3db576ad	0.08860526
36	0x3d178c3b	0.03699897
37	0x3d70988b	0.058739226
38	0xbc20b9e7	-0.009809948
39	0xbd73b808	-0.059501678
40	0xbd3d7fc1	-0.046264414
41	0x3dcc3c3e	0.09972428
42	0xbcc5ed71	-0.024161072
43	0x3d6438ed	0.05571835
44	0x3d4e5428	0.050373226
45	0x3d1d998e	0.03847652
46	0xbdc212ef	-0.094762675
47	0x3dc9183e	0.09819077
48	0xbd976d6e	-0.07393919
49	0x3daa8d91	0.08327783
50	0xbc801242	-0.015633706
51	0x3ed0b4c5	0.40762916
52	0x3e70b44b	0.23506276
53	0x3e9e2a29	0.3089154
54	0x3dc6ad19	0.097009845
55	0xbde6a371	-0.11261643
56	0x3e236b42	0.15958884
57	0x3d9cd1be	0.07657193
58	0xbd55ac45	-0.052166242
59	0xbd22ed86	-0.0397773
60	0x3e04a7ed	0.12954684
61	0xbc742123	-0.014900479
62	0x3e9637a9	0.2933934
63	0x3d874ddd	0.06606648
64	0x3da5dcc2	0.08098747
65	0xbe094060	-0.13403463
66	0x3d84afda	0.064788535
67	0xbc76f3ae	-0.015072746
68	0xba56e304	-0.000819728
69	0x3d0b08bd	0.03394388
70	0x3d425cd9	0.047451828
71	0xbdaa523b	-0.083164655
72	0x3d8629f7	0.06550973
73	0xbc9eecad	-0.019399965
74	0xbd65d348	-0.056109697
75	0x3c45ccf0	0.012072787
76	0x3c446067	0.011985875
77	0x3b3c577a	0.0028738664
78	0xbbeccd24	-0.007226603
79	0xbb8d7a30	-0.0043175444
80	0x3da3106e	0.07962118
81	0x3d324c06	0.043529533
82	0x3bc87033	0.006116891
83	0xbd039711	-0.03212649
84	0x3cefee89	0.029288547
85	0x3d72d7ea	0.059287943
86	0x3cce4720	0.0251804
87	0xbbda10bb	-0.0066548265
88	0x3d713c97	0.058895674
89	0xbebd1c51	-0.36935666
90	0x3e36c641	0.17849065
91	0xbe067f75	-0.13134558
92	0xbe86ae18	-0.26304698
93	0xbef5f862	-0.48041064
94	0x3ddf697c	0.109087914
95	0x3db1ffe6	0.08691387
96	0x3da3cd44	0.07998136
97	0x3e351553	0.17683916
98	0x3d5a393f	0.05327725
99	0xbd38cb72	-0.045115896
100	0x3cdf0170	0.027222365
101	0xbcd9ba8d	-0.026578212
102	0xbc48d605	-0.0122580575
103	0xbd06adc7	-0.03288057
104	0x3d0ce23d	0.034395445
105	0xbc141bcd	-0.009039831
106	0x3d00229a	0.031283
107	0x3da1cd6b	0.079005085
108	0xbddf0d2f	-0.108911864
109	0xbd073415	-0.033008654
110	0xbca740ad	-0.020416582
111	0x3cea84cc	0.028627776
112	0x3d9efaae	0.07762657
113	0x3d166898	0.036720842
114	0xbda19b15	-0.07890908
115	0x3d8f4cf5	0.069971
116	0xbcad110a	-0.021126289
117	0xbda3a458	-0.079903305
118	0x3daada3c	0.08342406
119	0x3c846743	0.01616252
120	0x3d432c74	0.047649816
121	0x3d044050	0.032287896
122	0x3d847326	0.06467275
123	0x3d121dd8	0.035672992
124	0xbdb846e2	-0.08997895
125	0x3d5da699	0.054113958
126	0x3cba89df	0.02277082
127	0xbd928d9f	-0.07155918
128	0xbd9e3924	-0.077257425
129	0x3d26282d	0.04056566
130	0xbcfb8b9c	-0.03070622
131	0x3d39bed7	0.045348015
132	0x3d25b289	0.040453468
133	0x3ce64443	0.028108722
134	0x3d8e46c9	0.06947095
135	0x3d6b82cd	0.05749779
136	0x3d933b63	0.071890615
137	0x3c851976	0.016247492
138	0xbc133ed6	-0.008987149
139	0x3d86f4e7	0.0658968
140	0xbd70ac80	-0.05875826
141	0xbe0464d0	-0.12929082
142	0xbd8de830	-0.06929052
143	0xbc5c3c36	-0.01344209
144	0xbbb8a61c	-0.005635036
145	0xbc30d685	-0.010793333
146	0xbd61a1ff	-0.055086132
147	0x3cba15ed	0.022715533
148	0xbd5768e2	-0.05259026
149	0x3c8fc897	0.017551703
150	0x3daf5ea4	0.08562973
151	0x3e1b2a17	0.15152775
152	0x3c8f87a1	0.017520728
153	0x3be9e918	0.0071383826
154	0xbd27f47f	-0.041004654
155	0xbc23092d	-0.009950918
156	0xbd620bb0	-0.055186927
157	0xbb3580b7	-0.0027695128
158	0xbe08c717	-0.13357197
159	0xbc99e94d	-0.018788004
160	0x3d716edd	0.058943618
161	0xbd7a2dda	-0.061078884
162	0xbc061ccd	-0.008185578
163	0x3d8c8cf7	0.068628244
164	0xbcd0e29a	-0.025498677
165	0xbac5b7ab	-0.0015084645
166	0xbb7a9e7d	-0.003824144
167	0xbd13ef3f	-0.036116835
168	0x3dbb770e	0.09153567
169	0x3d8cd00c	0.06875619
170	0x3ddaceaa	0.10683949
171	0x3d35b62a	0.04436318
172	0x3c3db7aa	0.011579433
173	0x3d25620d	0.04037671
174	0x3d9102dd	0.07080624
175	0x3c88cd70	0.016699523
176	0x3d569684	0.052389637
177	0xbbf181fa	-0.0073702307
178	0xbe0c1da3	-0.1368318
179	0xbf0b7b61	-0.54485136
180	0x3ef5c753	0.48003635
181	0xbd79008f	-0.06079155
182	0xbe08d5dc	-0.13362831
183	0x3e3fd90d	0.18735142
184	0xbc8e4d78	-0.017370924
185	0xbd3dd0b8	-0.046341628
186	0xbd2aedcb	-0.041730683
187	0x3ae190f5	0.0017209338
188	0x3849ac6f	4.8082726e-05
189	0x3a89afb8	0.0010504639
190	0x3aa3563e	0.0012461615
191	0xba0f924e	-0.0005476818
192	0xbc0af8dd	-0.008482185
193	0x38006355	3.061009e-05
194	0xbac21fad	-0.0014810466
195	0x3b062895	0.0020470966
196	0x3d4416ba	0.047873236
197	0x3d4eb2e8	0.050463587
198	0x3d97d09b	0.07412835
199	0x3d477bc0	0.048702
200	0x3d94089b	0.07228204
201	0xbd9624b7	-0.073312216
202	0x3a3c632b	0.0007186408
203	0xbdd8858b	-0.10572346
204	0x3d8f3921	0.06993318
205	0x3ab73393	0.0013977162
206	0x3bd68fd5	0.006547908
207	0x3d99aa4a	0.07503183
208	0x3b81d0b3	0.0039616465
209	0x3d719c3f	0.0589869
210	0xbcc6c083	-0.024261719
211	0xbda3541c	-0.07975027
212	0x3c957f5d	0.018249208
213	0xbd36834f	-0.04455882
214	0x3d562818	0.05228433
215	0x39acdc19	0.00032970382
216	0x3d171f30	0.036894977
217	0xbca53197	-0.020165248
218	0x3c639f47	0.013892955
219	0xbc11eb68	-0.008906223
220	0xbda5aae9	-0.08089239
221	0x3b3a0dad	0.00283895
222	0x3cb9416c	0.022614203
223	0xbbc7183e	-0.006075888
224	0xbde81481	-0.11332036
225	0xbde06f69	-0.1095875
226	0xbd5e5909	-0.05428413
227	0xba7ad78b	-0.00095688616
228	0xbc0e5b14	-0.008688707
229	0x3f55617e	0.83351886
230	0x3f8510ef	1.0395793
231	0x3cf06a45	0.029347548
232	0x3a847e96	0.0010108526
233	0xbbc18c00	-0.005906582
234	0xbb62984e	-0.0034575644
235	0x3aef2d44	0.0018247743
236	0xbc66ffdf	-0.01409909
237	0xb96aeb71	-0.00022403688
238	0x3d99398d	0.0748168
239	0x3dc768c0	0.09736776
240	0x3d36ed2d	0.044659782
241	0x3be9ce0a	0.0071351575
242	0x3b5828eb	0.0032983373
243	0xb9989208	-0.000291005
244	0x3dbcbabd	0.09215305
245	0x3c2bdd77	0.010489813
246	0x3bd23656	0.0064151688
247	0x3de3281e	0.11091636
248	0xbdb2ba73	-0.087269686
249	0xbdbf3556	-0.09336345
250	0x3c6a9d6d	0.01431976
251	0x387c2a4b	6.012087e-05
252	0xbba0f348	-0.004911814
253	0x3b556373	0.0032560497
254	0x3b393d90	0.0028265454
255	0xbaa999e2	-0.0012939537

model.0.bias f4 [256]
0	0x3cdc7743	0.026912337
1	0xbde9bad7	-0.1141259
2	0x3d614224	0.054994717
3	0xbdead205	-0.11465839
4	0x3dba83a6	0.09107141
5	0x3c748692	0.014924662
6	0x3d8cac05	0.068687476
7	0x3da8aa0a	0.082355574
8	0xbd1bff4e	-0.038085274
9	0xbdb5352d	-0.08848033
10	0xbce48cfe	-0.027899262
11	0xbd47d420	-0.048786283
12	0x3d5cc2ed	0.053896833
13	0xbdbac5b4	-0.0911974
14	0x3de3f959	0.11131544
15	0x3daf022c	0.08545336
16	0xbd349092	-0.044083185
17	0xbdc1a1a6	-0.0945466
18	0xbda399e2	-0.07988335
19	0x3dc06e39	0.09396023
20	0x3d0e4a3a	0.034738757
21	0xbbcd13e4	-0.0062584747
22	0xbca9a9c5	-0.020710835
23	0x3d44cb79	0.04804561
24	0x3caa5722	0.020793501
25	0xbce5a0a6	-0.028030705
26	0xbd882509	-0.06647689
27	0x3dc6f313	0.097143315
28	0x3d70bb8e	0.058772616
29	0x3d2ed90a	0.042687453
30	0xbd86c123	-0.06579807
31	0x3c23956a	0.009984354
32	0x3d80e361	0.06293369
33	0xbb9fc943	-0.004876287
34	0xbd2e9347	-0.042620923
35	0xbda49bc0	-0.080375195
36	0xbd89f864	-0.0673683
37	0xbdcc345b	-0.099709235
38	0xbd820608	-0.063488066
39	0x3c7e9eba	0.015540773
40	0xbdb8cc7c	-0.09023377
41	0x3d47ce9a	0.048781015
42	0xbd3f33fa	-0.046680428
43	0x3d37aaa0	0.044840455
44	0xbd15c75a	-0.03656707
45	0xbc9b3e69	-0.018950658
46	0x3d7e4016	0.062072836
47	0xbd054d39	-0.03254435
48	0xbbeab93d	-0.0071631954
49	0x3d2c4177	0.04205462
50	0xbd4305b4	-0.04761286
51	0x3ba0999c	0.004901124
52	0x3d85efee	0.065399036
53	0x3d824527	0.06360846
54	0xbdd35cc1	-0.10320426
55	0xbd84229e	-0.06451915
56	0x3d7d291e	0.06180679
57	0x3db6c613	0.089244984
58	0x3bac19da	0.005252105
59	0x3d766e23	0.06016363
60	0x3c9d2902	0.019184593
61	0x3d585fc7	0.052825715
62	0xbd3c8d18	-0.046032995
63	0x3d470932	0.048592754
64	0xbd49d0b9	-0.04927132
65	0xbd2fdff5	-0.04293819
66	0xbd8a8b07	-0.067647986
67	0xbd55a26d	-0.052156854
68	0xbcb52996	-0.022114556
69	0x3c429459	0.011876189
70	0x3c3111bd	0.010807452
71	0xbd63b3b4	-0.0555913
72	0x3dd7fe6f	0.10546576
73	0x3dc7697c	0.097369164
74	0x3a8d615a	0.0010786459
75	0xbc4f420a	-0.012650022
76	0xbac15f35	-0.0014753105
77	0xbb765d35	-0.0037592177
78	0xbdaf8b03	-0.08571436
79	0x39c6e740	0.00037937798
80	0xbd93c4ad	-0.07215247
81	0xbd81a43b	-0.063301526
82	0xbbbf9b26	-0.0058473526
83	0xbdc49c53	-0.09600129
84	0x3d2dcbdb	0.04243074
85	0xbd8276ff	-0.06370353
86	0x3d21e70c	0.039526984
87	0x3d9d56b5	0.07682554
88	0x3dc0d660	0.09415889
89	0xbd960bb5	-0.07326452
90	0x3d049847	0.032371785
91	0x3d960956	0.073259994
92	0x3bfaee26	0.007657784
93	0xbd186a3d	-0.03721069
94	0xbd8aaefe	-0.06771658
95	0x3ca1dac2	0.019757632
96	0xbd8ee2ff	-0.0697689
97	0xbd41aabb	-0.047281962
98	0x3d7247d7	0.059150543
99	0x3d078593	0.03308637
100	0xbbc4d803	-0.006007196
101	0x3d963b47	0.07335525
102	0xbbafac90	-0.005361147
103	0xbda27152	-0.079317704
104	0x3d2cef17	0.0422202
105	0x3c444e03	0.01198149
106	0xbd13fc61	-0.03612936
107	0xbd0f19de	-0.03493678
108	0xbbf5f5f3	-0.007506126
109	0xbd848c27	-0.064720444
110	0xbd1ca034	-0.03823872
111	0x3d835260	0.06412196
112	0xbc6327d9	-0.013864481
113	0x3ca02c57	0.019552393
114	0x3db29619	0.08720035
115	0xbdc3b1af	-0.09555375
116	0x3d98d2b2	0.07462062
117	0xbca3ccfd	-0.019995207
118	0xbd84f9ab	-0.06492933
119	0xbcf8c45a	-0.030367065
120	0x3db83ef7	0.089963846
121	0xbd8842a8	-0.06653339
122	0xbd7802d1	-0.06054956
123	0xbd1e4257	-0.038637485
124	0xbccac24f	-0.024750857
125	0xbcc8ddee	-0.024519887
126	0xbb443725	-0.0029940095
127	0xbcd3b472	-0.025842879
128	0x3d738ea7	0.059462216
129	0x3d2e979e	0.042625062
130	0xbd44ac11	-0.048015658
131	0x3c67576e	0.014119966
132	0x3dd4fe06	0.104000136
133	0xbcdf68af	-0.027271597
134	0xbd8d1102	-0.068880096
135	0xbd7e8944	-0.062142625
136	0xbd8d8cf1	-0.06911648
137	0x3d2d8e08	0.04237178
138	0x3d52ba41	0.051447157
139	0x3d982d22	0.074304834
140	0xbddb8941	-0.107195385
141	0xbd4d05d6	-0.050054394
142	0x3d881910	0.06645405
143	0x3bc52d94	0.006017396
144	0x3c30040e	0.010743154
145	0x3d9eb981	0.07750226
146	0xbd37f9dc	-0.04491602
147	0x3dc118f0	0.094285846
148	0x3c14167b	0.009038563
149	0xbdc08e35	-0.09402124
150	0x3cd9aa7e	0.026570555
151	0x3c6f23b2	0.014595913
152	0x3cc17ce9	0.023619132
153	0x3bd96995	0.006634901
154	0xbd9d5dc3	-0.07683899
155	0xbc1dd988	-0.009634383
156	0x3dc88ff8	0.09793085
157	0xbda67bc2	-0.08129074
158	0x3cd49b0e	0.025952842
159	0x3d205322	0.03914178
160	0xbc857a22	-0.016293589
161	0xbd0c35ba	-0.034230925
162	0xbca906cd	-0.020633126
163	0x3d49afac	0.0492398
164	0x3dcaa829	0.09895355
165	0x3ccd756b	0.025080403
166	0xbd067ac2	-0.032831915
167	0x3d4ca98e	0.049966387
168	0x3db07e34	0.08617821
169	0xbc84c919	-0.016209172
170	0x3cef3cc8	0.029203787
171	0x3d755d4a	0.05990342
172	0xbd315d17	-0.043301668
173	0xbd8226a0	-0.063550234
174	0x3d18d779	0.037314866
175	0x3ca39524	0.019968577
176	0x39de0987	0.00042350238
177	0x3d41247b	0.04715393
178	0xbce88c59	-0.028387235
179	0xbd60f0e3	-0.054917227
180	0xbd1e2115	-0.03860577
181	0xbdbf73e3	-0.093482755
182	0xbd380246	-0.044924043
183	0xbc820cd1	-0.015875252
184	0x3bdca183	0.006733121
185	0x3dcb047c	0.09912965
186	0x3bde7ed1	0.00679002
187	0x3c30f01a	0.010799432
188	0x3dde65a8	0.10859233
189	0xbcd5f9a1	-0.026120009
190	0xbd4e661c	-0.050390348
191	0xbdd64d70	-0.10463989
192	0xbd5271c4	-0.051378027
193	0x3d74a520	0.059727788
194	0x3db128de	0.08650373
195	0xbdaa5f61	-0.08318973
196	0x3cdb225d	0.026749784
197	0x3dbf1d80	0.093317986
198	0xbd5ac13b	-0.053406935
199	0xbd0e0479	-0.034672234
200	0xbad284b5	-0.0016061278
201	0xbc914bcd	-0.01773634
202	0xbce1e867	-0.027576638
203	0x3dd28c00	0.10280609
204	0xbd87d04e	-0.06631528
205	0x3d9e7476	0.07737057
206	0xbb197010	-0.0023412742
207	0xbd3bab02	-0.045817383
208	0x3db500e2	0.08838059
209	0xbc16f814	-0.00921442
210	0xbc3d3a8d	-0.011549604
211	0xbc249ded	-0.010047418
212	0x3c85db63	0.016339963
213	0xbb634673	-0.0034679442
214	0xbcce82a0	-0.025208771
215	0xbab688cc	-0.0013926267
216	0xbd307396	-0.04307898
217	0x3d6697c9	0.056297097
218	0x3cdc3493	0.026880538
219	0x3d5802e3	0.052737128
220	0xbd986a54	-0.074421555
221	0xbd6cfe31	-0.057859603
222	0xbc7c37b4	-0.01539414
223	0xbd5e6f61	-0.054305438
224	0xbddf3379	-0.108984895
225	0x3d1f0306	0.038821243
226	0x3d370847	0.04468563
227	0x3d90f004	0.07077029
228	0x3d13c957	0.036080685
229	0x3b089fab	0.0020847123
230	0x3dde23bc	0.108466595
231	0xbd304ef7	-0.043044057
232	0x3cd52be9	0.026021915
233	0xbdd14e53	-0.10220017
234	0x3d5b9d89	0.053617034
235	0x3c46a713	0.012124795
236	0x3c96fbd3	0.018430626
237	0x3c89177b	0.01673483
238	0x3b2eecab	0.0026691358
239	0x3d578a51	0.052622143
240	0x3ca3b4e0	0.019983709
241	0xbdaabbeb	-0.08336624
242	0xbd90e587	-0.07075029
243	0x3d886005	0.06658939
244	0xbd0a9fcd	-0.033843804
245	0x3d3b7ba4	0.04577221
246	0xbd0bf553	-0.034169506
247	0xbcf2246b	-0.029558381
248	0x3dccde45	0.10003332
249	0x3d51637a	0.05112026
250	0xbdc83459	-0.097756095
251	0x3bc0db55	0.0058855214
252	0x3d877895	0.06614796
253	0x3dc15915	0.09440819
254	0xbdbd8d30	-0.09255445
255	0xbd204a65	-0.03913345

model.2.weight f4 [256, 256]
0	0xbd08e9da	-0.033426143
1	0xbb93a390	-0.004505582
2	0xbe0fa78d	-0.1402876
3	0xbdb7c19e	-0.089724764
4	0xbcf1a551	-0.029497774
5	0x3dee3504	0.11631206
6	0xbd9d0c5a	-0.076683715
7	0x3debafd2	0.115081444
8	0xbcc5d10e	-0.024147537
9	0x3bcbd870	0.0062208697
10	0x3ba06614	0.004894981
11	0x3dc7f6e2	0.09763886
12	0xbe169676	-0.14705834
13	0xbc880999	-0.016606139
14	0xbc329548	-0.010899849
15	0xbd7e6c57	-0.06211504
16	0xbad25a65	-0.0016048668
17	0x3d246048	0.040130883
18	0x3d13fe9b	0.036131483
19	0x3d68f128	0.05687061
20	0xbe3f2af2	-0.18668726
21	0x3d09ee09	0.033674274
22	0x3e104b4c	0.14091223
23	0x3bb75d09	0.0055958075
24	0x3d255238	0.040361613
25	0x3b5b1836	0.003343118
26	0xbca82ab9	-0.020528184
27	0x3d365c53	0.04452164
28	0x3df920bd	0.121644475
29	0x3e3fc757	0.18728386
30	0x3d8bd2fe	0.06827353
31	0xbde33111	-0.11093343
32	0xbc04f16b	-0.008114199
33	0xbcc127d4	-0.023578562
34	0x3dcaa4e2	0.0989473
35	0xbd42cd13	-0.047558855
36	0x3bd404ea	0.0064703124
37	0x3d83b375	0.06430713
38	0xbc9864e3	-0.018602794
39	0x3d899f37	0.06719821
40	0xbe8958b3	-0.26825485
41	0xbc24ef34	-0.010066796
42	0x3db4d6d2	0.08830036
43	0xbab0db5f	-0.0013493112
44	0xbc5d6c05	-0.013514523
45	0x3cef66bc	0.029223792
46	0x3d91273a	0.0708756
47	0xbe0f1660	-0.13973379
48	0x3e2891ef	0.16461919
49	0xbc77ac55	-0.015116771
50	0x3e103e79	0.14086331
51	0x3d677bb5	0.05651446
52	0x3e2f5d22	0.17125371
53	0xbd9fa2aa	-0.077946976
54	0x3ca19621	0.019724907
55	0x3d2396ae	0.03993862
56	0x3ceb1e2e	0.028700914
57	0x3d292f69	0.04130498
58	0xbd42d9dd	-0.047571052
59	0x3dfdd47f	0.12394046
60	0x3dc72852	0.09724487
61	0xbcac9f21	-0.021071972
62	0x3d7d3b80	0.06182432
63	0x3cb9e505	0.022692213
64	0xbbf4acd3	-0.0074668913
65	0x3d2d41d0	0.04229909
66	0x3dd3307b	0.10311981
67	0x3d53c335	0.051699836
68	0x3d400a90	0.046885073
69	0x3ccdb29b	0.02510958
70	0x3d747865	0.05968513
71	0xbdd63ccc	-0.10460815
72	0x3af8c1f8	0.0018978706
73	0x3d5c12d1	0.053728882
74	0xbb99cf88	-0.004693929
75	0xbdd5bfec	-0.10436997
76	0xbb9060ed	-0.0044060857
77	0x3c0cb640	0.008588374
78	0xbd22c34d	-0.039737035
79	0x3d92f95c	0.07176468
80	0x3cbf8172	0.023377154
81	0x3e04d344	0.12971216
82	0xbd522e8b	-0.051313918
83	0xbd752a04	-0.059854522
84	0x3d9f64d3	0.077829026
85	0xbbe2350a	-0.0069032954
86	0xbeeea5d0	-0.4661088
87	0xbd22a59f	-0.03970873
88	0x3b0453d5	0.002019157
89	0x3d515a29	0.051111374
90	0x3d644f5e	0.055739753
91	0x3ca5c7dd	0.020236904
92	0x3d1d2847	0.03836849
93	0x3e0bf040	0.13665867
94	0x3d0309fc	0.031991944
95	0xbd417c69	-0.047237787
96	0x3dd518b0	0.104050994
97	0xbcf3174b	-0.029674193
98	0x3b0f757a	0.002189009
99	0xbca421db	-0.020035675
100	0xbe45869f	-0.19289635
101	0x3dccf6fa	0.100080445
102	0x3dc92b11	0.098226674
103	0x3d03a790	0.032142222
104	0xbc9ca9d5	-0.019123951
105	0x3c611cf9	0.013739818
106	0xbcfa514c	-0.030556343
107	0x3d5498f9	0.0519037
108	0xbd8919ca	-0.06694372
109	0xbcd10dee	-0.025519338
110	0x3cb69581	0.022288086
111	0x3e34891c	0.17630428
112	0x3eba6295	0.36403337
113	0xbe20f367	-0.1571785
114	0x3da554cc	0.08072814
115	0xba8e31d3	-0.0010848589
116	0x3d876605	0.066112556
117	0xbe5bd3be	-0.21467492
118	0x3c9a3f8c	0.01882913
119	0x3c1abfbf	0.00944513
120	0xbd75b54a	-0.059987344
121	0x3d4ae01d	0.049530137
122	0xbd2fae88	-0.042891055
123	0xbc385f15	-0.011253138
124	0x3c94c007	0.018157972
125	0xbc4f0b15	-0.0126369195
126	0xbc30c369	-0.010788777
127	0xbd38bf3c	-0.04510425
128	0x3d0eace5	0.034832854
129	0x3c87cdd4	0.016577639
130	0xbd5c089b	-0.053719144
131	0x3cfbf56b	0.030756673
132	0xbda2e6d9	-0.07954187
133	0x3b42a543	0.0029700554
134	0x3d1f6cf9	0.038922284
135	0x3ce81986	0.028332483
136	0x3cb85abf	0.022504209
137	0x3c7b8081	0.015350462
138	0x3dba34cb	0.09092101
139	0xbd5a4ce7	-0.053295996
140	0xbd3078ca	-0.043083943
141	0x3bed4ec7	0.007242057
142	0x3a690b67	0.0008889944
143	0x3b46ee46	0.0030354424
144	0xbd53325a	-0.05156169
145	0x3dbac7a6	0.09120111
146	0xbb929c3b	-0.0044741905
147	0xbd8c8f55	-0.06863276
148	0xbe1175d3	-0.14205103
149	0x3d1667c4	0.036720052
150	0xbc891674	-0.01673434
151	0x3c5bde89	0.013419756
152	0x3d08a538	0.03336069
153	0xbda3a834	-0.079910666
154	0x3d119053	0.03553803
155	0xbdb66232	-0.08905448
156	0xb9d3288c	-0.00040275266
157	0x3c285ac2	0.010275545
158	0xbe10d66b	-0.14144294
159	0xbc3de497	-0.011590145
160	0xbdd2394b	-0.10264834
161	0xbd1a186a	-0.03762094
162	0xbdbb3bf9	-0.09142298
163	0x3dc14789	0.094374724
164	0x3d58da9d	0.05294286
165	0x3dfde175	0.12396518
166	0xbcccdb25	-0.02500684
167	0x3ceb8140	0.028748155
168	0x3d9cd0e8	0.07657033
169	0xbd11804c	-0.035522744
170	0x3dad37cf	0.0845791
171	0xbcd622b1	-0.026139589
172	0x3c235c9b	0.009970809
173	0xbd8e9615	-0.069622196
174	0x3d9d31d3	0.07675519
175	0x3dd43291	0.10361207
176	0xbe09e072	-0.13464525
177	0xbdec3580	-0.11533642
178	0x3db25a83	0.0870867
179	0x3c8a87a8	0.016910389
180	0xbdbc58fc	-0.0919666
181	0x3c6ce13a	0.014457995
182	0xbd37b6ec	-0.044852182
183	0x3a595992	0.000829124
184	0x3cf08b6f	0.029363362
185	0xbdf34bd4	-0.118796974
186	0x3e40c65b	0.18825667
187	0xbd767685	-0.060171623
188	0x3d081206	0.033220313
189	0xbda68468	-0.08130723
190	0x3c2aaef2	0.010417687
191	0x3e01e4ab	0.12684886
192	0xbe0cecc6	-0.13762197
193	0x3c8f61c8	0.01750268
194	0x3cf13000	0.029441833
195	0x3d8d0305	0.068853416
196	0xbd24e154	-0.040253952
197	0x3bc05b4a	0.0058702575
198	0xbd019fdc	-0.031646594
199	0xbd2ad01c	-0.041702375
200	0xbd023642	-0.031790026
201	0x3da3b30f	0.07993137
202	0x3e0a5b44	0.13511378
203	0xbc8cfaa9	-0.017209368
204	0xbe42bfe4	-0.19018513
205	0xbe85547b	-0.26041016
206	0x3d04eca0	0.032452226
207	0xbdb3aa35	-0.08772699
208	0x39c8584f	0.00038212768
209	0xbd2e204a	-0.042511262
210	0xbd119ee8	-0.035551935
211	0xbdd05a76	-0.10173504
212	0xbd509f71	-0.050933305
213	0x3c10d791	0.008840458
214	0x3daac4fd	0.08338354
215	0x3db62d6f	0.088953845
216	0x3c54168b	0.012944828
217	0xbc884497	-0.016634269
218	0x3d784f4f	0.06062251
219	0x3d34501f	0.044021722
220	0x3dc57205	0.09640888
221	0x3d2ce726	0.042212628
222	0xbe4e456a	-0.20143667
223	0x39fac894	0.00047833158
224	0x3b00da8a	0.001966151
225	0x3cc05c8b	0.023481628
226	0xbdae3442	-0.08506061
227	0xbd1eaa9d	-0.03873693
228	0x3d980b37	0.07424014
229	0x3e1e4155	0.1545461
230	0xbc0c6bd0	-0.008570626
231	0x3b8e1312	0.0043357695
232	0x3da0d314	0.0785276
233	0x3d297859	0.041374538
234	0x3de6206a	0.11236651
235	0x3d2a3d09	0.041562114
236	0xbd6f59f8	-0.05843541
237	0xbe0c0b0f	-0.13676094
238	0xbd8d888e	-0.06910811
239	0xbb52d3b5	-0.0032169644
240	0xbc939144	-0.018013604
241	0x3d6e7eaa	0.058226265
242	0x3c938aec	0.018010579
243	0x3d24e027	0.04025283
244	0xbd83ee2f	-0.06441914
245	0x3ad1d79f	0.0016009695
246	0xbd291edd	-0.0412892
247	0x3d2ff4e8	0.04295817
248	0x3cb75504	0.022379406
249	0x3d090e51	0.03346092
250	0xbd881662	-0.06644894
251	0x3dd62fa2	0.10458304
252	0xbdb1ddb3	-0.08684864
253	0xbe14e07b	-0.14538758
254	0x3e85da21	0.26142982
255	0xbea5a288	-0.32350564

model.2.bias f4 [256]
0	0x3d54bf8d	0.05194049
1	0x3ca516ed	0.020152533
2	0x3b7461d7	0.0037289762
3	0xbd109b5a	-0.035304405
4	0x3d7906eb	0.060797613
5	0x3d3eb9b3	0.046563815
6	0x3d5853ac	0.05281417
7	0x3d240e8d	0.04005294
8	0xbd6d81a9	-0.05798498
9	0xbb8d6b52	-0.004315772
10	0xbd3dec7a	-0.0463681
11	0x3ce5babc	0.028043143
12	0xbcb32897	-0.02186994
13	0x3d8b83d4	0.068122536
14	0x3d2bada2	0.041913636
15	0x3d96d385	0.07364563
16	0xbcf96a9a	-0.03044634
17	0xbca3a133	-0.019974327
18	0xbcae3553	-0.021265661
19	0xbd2d3db3	-0.04229517
20	0xbd218468	-0.039432913
21	0x39808d2e	0.0002451925
22	0x3ae2bd35	0.001729882
23	0x3d489777	0.048972573
24	0xbcd83baa	-0.026395638
25	0xbc8a0dd2	-0.016852293
26	0x3d8c74e9	0.06858236
27	0xbd345c34	-0.044033244
28	0xbd1e9c77	-0.038723435
29	0xbd868a67	-0.06569367
30	0xbd09740d	-0.03355794
31	0xbb60c35b	-0.0034296128
32	0x3b0f1f3e	0.002183869
33	0xbcdab326	-0.026696753
34	0x3d181a31	0.037134353
35	0xbd1f9d47	-0.03896835
36	0xbcaca779	-0.021075951
37	0xbd2c9ba0	-0.042140603
38	0xbb9fd121	-0.004877225
39	0xbd5f91f7	-0.054582562
40	0xbb8dea03	-0.004330875
41	0x3cdbc461	0.02682704
42	0x3c113cad	0.008864564
43	0x3d08b372	0.033374257
44	0xbbb1c1d4	-0.0054247174
45	0x3c5cc7c1	0.013475359
46	0xbb654cf4	-0.0034988495
47	0xbd26bcae	-0.040707283
48	0x3d23ade1	0.039960746
49	0xbd1729f3	-0.03690524
50	0xbd6a4c2a	-0.057201542
51	0xbd533270	-0.051561773
52	0x3d65fcea	0.0561494
53	0x3d2ddaf6	0.042445146
54	0x3d189db5	0.037259776
55	0xbd59dc5e	-0.053188674
56	0xbc67b4d9	-0.014142239
57	0x3d84e757	0.06489437
58	0xbcbe58c2	-0.023235682
59	0x3c8efcff	0.017454622
60	0xbd662567	-0.056188013
61	0x3c4255d2	0.0118612815
62	0x3d2ee3f8	0.042697877
63	0xbb54c25b	-0.0032464478
64	0xbd2c963a	-0.042135455
65	0xbdbd4c76	-0.092430994
66	0x3d3b4b70	0.04572624
67	0x3d4f2761	0.050574664
68	0xbd3fe4fb	-0.046849232
69	0x3d800268	0.06250459
70	0x3c5040ca	0.012710759
71	0x3c447bfe	0.011992453
72	0xbd4e0275	-0.050295312
73	0x3cede280	0.029038668
74	0xbd1e0d0d	-0.038586665
75	0x3c86662e	0.016406145
76	0xbc4e74aa	-0.012601057
77	0x3d469875	0.048485238
78	0x3d72e202	0.05929757
79	0x3d17831d	0.036990274
80	0xbc607eb9	-0.013702088
81	0x3d7079c0	0.05870986
82	0x3d66e596	0.056371294
83	0x3d7518ce	0.05983811
84	0xbd89f217	-0.06735628
85	0x3d6e7002	0.058212288
86	0x3d2a4a6e	0.041574888
87	0x3d7c9d45	0.06167342
88	0xbc340355	-0.010987123
89	0x3d1fb8b6	0.038994513
90	0xbd487ca8	-0.048947006
91	0xbc853e64	-0.016265102
92	0xbd0e58aa	-0.034752525
93	0x3d664e19	0.056226823
94	0x3bdd487f	0.006753027
95	0x3d77f9d0	0.060540974
96	0x3b45420c	0.0030099181
97	0xbd4c69bb	-0.04990552
98	0xbc7eab8d	-0.015543831
99	0xbca9af33	-0.020713424
100	0xbc39a127	-0.011329926
101	0x3c02ab69	0.007975438
102	0x3c655ef5	0.01399969
103	0x3d1240de	0.035706393
104	0xbcc7d739	-0.024394618
105	0x3cc461d9	0.023972439
106	0x3c79c957	0.015245757
107	0x3d67d2ec	0.056597635
108	0x3c427ac4	0.01187009
109	0xbd34912d	-0.044083763
110	0xbd24c512	-0.040227003
111	0x3c9f4a44	0.019444592
112	0x3bb311d6	0.0054647727
113	0x3ce1ff13	0.02758745
114	0xbc5c6564	-0.013451908
115	0x3d5a63df	0.0533179
116	0xbd68b69b	-0.05681477
117	0xbd08abaa	-0.033366837
118	0xbc97ff2b	-0.01855429
119	0xbd76d840	-0.060264826
120	0x3d105b42	0.03524328
121	0xbcdad6cb	-0.02671375
122	0x3d84d154	0.06485239
123	0xbc0ac2a4	-0.0084692575
124	0x3b6d1c11	0.003618006
125	0xbcfc908a	-0.03083064
126	0xbd90b2f1	-0.0706538
127	0xbb8c9230	-0.004289888
128	0xbc76e16a	-0.015068391
129	0xbd23d68a	-0.039999522
130	0xbd1bdd5a	-0.038052894
131	0xbd09954c	-0.033589646
132	0x3da3e282	0.08002187
133	0xbda55656	-0.08073108
134	0x3cf413a2	0.029794518
135	0xbda7bd2e	-0.0819038
136	0x3c1d9d69	0.009620049
137	0xbd6f68c6	-0.05844953
138	0xbc3684ce	-0.011140062
139	0x3d39917c	0.04530476
140	0x3d8daa6a	0.069172695
141	0xbd6638a9	-0.05620638
142	0x3d120472	0.03564877
143	0x3cbc0d77	0.02295564
144	0x3d8991a5	0.067172326
145	0x3d835379	0.064124055
146	0x3af0b447	0.0018364274
147	0x3c9f5e93	0.019454276
148	0xbd25a920	-0.040444493
149	0xbd0f19af	-0.034936603
150	0x3d262420	0.040561795
151	0xbc72d9a3	-0.014822396
152	0xbcdf159a	-0.02723198
153	0xbc937678	-0.018000826
154	0xbd159c02	-0.036525734
155	0x3d5c5649	0.053793225
156	0xbce90ad3	-0.028447544
157	0x3d91c5ea	0.07117827
158	0xbd3a4e47	-0.045484807
159	0xbd3a0eb1	-0.045424167
160	0x3bf4ef16	0.0074747903
161	0xbd57ceb2	-0.052687354
162	0xbb1bed1d	-0.0023792454
163	0xbd319bd9	-0.04336152
164	0x3d162d35	0.036664207
165	0xbd5299ef	-0.051416334
166	0x3beb76f7	0.0071858126
167	0x3cebacfa	0.028769005
168	0x3d3c06a8	0.045904785
169	0x3ce6d5e3	0.028178161
170	0x3d53cafc	0.051707253
171	0x3d4a1485	0.049335975
172	0xbb29a089	-0.002588304
173	0xbce9deb9	-0.028548585
174	0xbd0597b5	-0.032615382
175	0x3d159eb4	0.036528304
176	0x3ca18dad	0.019720877
177	0xbc1ec249	-0.009689876
178	0xbdecd5ee	-0.11564241
179	0xba907974	-0.0011022524
180	0xbd052865	-0.032509226
181	0x3d94112d	0.072298385
182	0xbc3d33f1	-0.011548028
183	0xbd068fb5	-0.032851893
184	0x3a4ffba7	0.00079339225
185	0xbd17c9e2	-0.037057765
186	0x3d4adfd5	0.04952987
187	0xbd105f4b	-0.03524713
188	0x3d25efeb	0.040512007
189	0xbc18454f	-0.009293868
190	0xba9886b8	-0.0011636829
191	0x3d199c97	0.03750285
192	0xbd1f47a2	-0.038886674
193	0x3d85f327	0.06540518
194	0xbd4d0678	-0.050054997
195	0xbc93e934	-0.018055536
196	0x3c5e8fb4	0.013584066
197	0x3d737480	0.059437275
198	0x3c75ca2f	0.015001818
199	0x3d6dd767	0.05806675
200	0x3d6ac169	0.057313357
201	0x3cfaabd3	0.03059951
202	0x3c8b0311	0.016969236
203	0x3d0777e7	0.033073332
204	0x3c17c053	0.009262162
205	0xbd7ca4c5	-0.061680574
206	0xbc765d78	-0.015036933
207	0xbd5f6225	-0.054536957
208	0xbc4a07cd	-0.012330961
209	0xbd043ba2	-0.032283433
210	0x3c08591c	0.008322027
211	0xbcfa3bdc	-0.030546121
212	0x3d6af329	0.0573608
213	0x3c910312	0.01770166
214	0x3c95fb30	0.018308252
215	0x3d213545	0.039357442
216	0x3ce3f2c2	0.027825717
217	0xbc3c0859	-0.0114766
218	0x3d073458	0.033008903
219	0xbd1e6f0e	-0.03868013
220	0x3d452c71	0.048138086
221	0xbc8939b1	-0.016751142
222	0x3d1acd90	0.037793696
223	0x3b0b93e3	0.0021297864
224	0x3c56668b	0.013085972
225	0xbce5b87f	-0.028042076
226	0x3d947c34	0.07250252
227	0xbd02f8a9	-0.031975422
228	0x3c851b57	0.016248388
229	0x3d189732	0.037253566
230	0xbcc63d2e	-0.024199095
231	0xbcad9ef5	-0.02119396
232	0x3d5103e7	0.051029112
233	0x3ceadd0c	0.028669856
234	0xbd13b2f5	-0.03605934
235	0xbc043cf7	-0.008071176
236	0xbc76cbab	-0.015063207
237	0x3d6ae2ff	0.057345387
238	0x3c25edda	0.010127509
239	0xbcda11cb	-0.026619812
240	0xbd38f79e	-0.04515802
241	0xbba6aa49	-0.0050862175
242	0xbc9eaf1d	-0.01937061
243	0x3cefb1a0	0.029259503
244	0x3cb87e5b	0.022521188
245	0x3d2b1472	0.041767545
246	0xbd523eb3	-0.051329326
247	0xbcddb0d4	-0.027061857
248	0x3cb87d8d	0.022520805
249	0xbc516acb	-0.012781809
250	0xbcd5ada7	-0.02608378
251	0xbd14dad2	-0.036341496
252	0xbc1789ca	-0.00924916
253	0xbca83848	-0.02053465
254	0xbd4f7bcf	-0.050655182
255	0xbd324995	-0.043527205

model.4.weight f4 [256, 256]
0	0xbe30ab75	-0.17252906
1	0x3d736c86	0.059429668
2	0xbe927761	-0.28606704
3	0x3d53b620	0.05168736
4	0xbdc8a3be	-0.09796856
5	0xbd322b70	-0.043498456
6	0xbe376af2	-0.1791189
7	0xbe6234ca	-0.2209045
8	0x3ca0015f	0.019531904
9	0xbed3dcdd	-0.41379443
10	0x3c87dd54	0.01658503
11	0x3d61645c	0.05502735
12	0xbe31086b	-0.17288367
13	0xbd08b568	-0.033376127
14	0xbb927542	-0.0044695446
15	0x3e22a5ce	0.15883562
16	0xbe06ef75	-0.13177283
17	0x3ba22364	0.0049480665
18	0xbd718fcf	-0.058975037
19	0xbd074cc2	-0.033032186
20	0xbd3c3f05	-0.045958538
21	0xbe104b39	-0.14091195
22	0xbd4d139d	-0.050067533
23	0xbc479d6a	-0.0121835265
24	0xbd1f6362	-0.03891314
25	0x3d11becc	0.03558235
26	0x3c9b59bf	0.018963693
27	0x3d190933	0.03736229
28	0xbe68c48f	-0.22731231
29	0x3d4a85a9	0.049443875
30	0xbe7ad34e	-0.24494669
31	0xbe7f041e	-0.24903914
32	0xbe4759c4	-0.19467837
33	0xbd1196d3	-0.035544228
34	0x3d87a828	0.0662387
35	0xbdaab1a0	-0.083346605
36	0xbd5b2a75	-0.053507287
37	0xbe1cec07	-0.15324412
38	0xbd2c990a	-0.042138137
39	0x3d1a1f45	0.037627477
40	0xbe1c1404	-0.1524201
41	0xbf4c1dbd	-0.79732877
42	0x3e08d464	0.1336227
43	0xbe82a716	-0.255181
44	0xbdb9da72	-0.09074868
45	0xbf82588c	-1.0183272
46	0xbe85a511	-0.26102498
47	0xbc2c57e4	-0.010519002
48	0x3d83289e	0.064042315
49	0x3bb64f89	0.0055636805
50	0x3d6e87f0	0.05823511
51	0x3de75554	0.11295572
52	0x3d438e26	0.047742985
53	0x3d0877be	0.03331732
54	0x3de28a32	0.11061515
55	0x3badf19e	0.005308344
56	0xbd2d32f5	-0.042284925
57	0x3ce25f6b	0.02763339
58	0xbdc4cde1	-0.09609581
59	0xbe02ef2f	-0.12786554
60	0x3cfdd2f5	0.030984381
61	0xbd90d984	-0.07072738
62	0x3d7f381e	0.062309377
63	0x3c523a60	0.0128313005
64	0xbccee8b8	-0.025257453
65	0xbccca3e4	-0.024980493
66	0xbb41bf87	-0.0029563622
67	0xbceae4b3	-0.028673505
68	0x3cd2785e	0.025692161
69	0x3cf1dfdd	0.029525692
70	0xbeda9ae4	-0.42696297
71	0x3c8c82f9	0.017152296
72	0xbe9da999	-0.30793455
73	0xbc69f4e5	-0.014279579
74	0x3d7fd627	0.06246009
75	0xbd02915a	-0.0318769
76	0xbd9e42d7	-0.077275924
77	0x3d8bf195	0.068331875
78	0x3d9cd121	0.07657076
79	0x3d3a6257	0.04550394
80	0x3d880480	0.06641483
81	0x3dbe3a64	0.09288481
82	0x3cb56ebc	0.022147529
83	0xbdf73e8c	-0.12072477
84	0xbdfcd5ed	-0.123454906
85	0xbc636995	-0.013880153
86	0x3cd282bd	0.025697106
87	0x3d23888d	0.039925147
88	0x3d315513	0.043294024
89	0x3e43b5d9	0.19112338
90	0xbd9fc624	-0.07801464
91	0x3c91ab4a	0.017781872
92	0x3c9ffdb1	0.01953015
93	0x3da7fa6e	0.082020625
94	0xbd19d946	-0.037560724
95	0xbefbbd8f	-0.4916806
96	0xbeddbc05	-0.4330751
97	0xbee9d631	-0.45671228
98	0xbd9c0ba0	-0.07619405
99	0x3cd4a4ff	0.025957583
100	0xbe8ccfc9	-0.27502277
101	0x3b80c26d	0.0039294274
102	0x3d2e3790	0.042533457
103	0xbe5dcf6c	-0.21661156
104	0x3d9f64a5	0.07782868
105	0xbec56855	-0.38556162
106	0x3d31aef6	0.043379746
107	0xbcd22e08	-0.025656715
108	0x3e41be4c	0.18920249
109	0x3efd1953	0.49433383
110	0x3d47131e	0.048602216
111	0x3cee5940	0.029095292
112	0x3dba1b02	0.090871826
113	0xbde5753c	-0.11204001
114	0x3d5d3405	0.054004688
115	0xbd61708d	-0.055038977
116	0x3cb9e6ba	0.022693027
117	0x3da30203	0.07959368
118	0xbd884f53	-0.06655755
119	0x3d3754f4	0.044758752
120	0x3d5f82f9	0.054568265
121	0xbe0b1bbf	-0.13584803
122	0xbb93a65c	-0.0045059156
123	0x3d753d9f	0.05987322
124	0xbe41e806	-0.18936166
125	0xbf038bb2	-0.51385033
126	0xbf14923b	-0.5803563
127	0xbf01cf8f	-0.50707334
128	0xbd5fda9f	-0.054651853
129	0xbe518afb	-0.20463173
130	0xbc99cf13	-0.018775498
131	0xbcf57919	-0.02996497
132	0x3d6f5478	0.058430165
133	0x3dd711ce	0.10501443
134	0xbd5684e3	-0.052372824
135	0x3e01ecd4	0.12687999
136	0x3d01a85f	0.03165471
137	0xbd04d047	-0.03242519
138	0xbd00793b	-0.031365614
139	0xbe258176	-0.16162667
140	0xbeacda39	-0.3376024
141	0x3e5ceeca	0.21575466
142	0x3d243ad0	0.04009515
143	0xbe0cb631	-0.13741376
144	0xbcd5d679	-0.026103245
145	0xbd2bbce9	-0.041928206
146	0x3d0335a2	0.03203357
147	0x3c72e0a5	0.014824067
148	0xbd4312f2	-0.04762549
149	0x3ddd0ccc	0.107934564
150	0x3c45c7e8	0.012071587
151	0x3d43cb4f	0.047801312
152	0x3e1f283a	0.15542689
153	0x3bd144a7	0.006386358
154	0xbd3b3233	-0.04570217
155	0x3ce8b912	0.02840856
156	0xbb4e82e4	-0.0031511122
157	0xbe0a3c05	-0.13499458
158	0x3b8333f1	0.0040039946
159	0xbeb52654	-0.35380805
160	0x3c15a37d	0.009133217
161	0x3d4fa82a	0.050697483
162	0xbd618873	-0.05506177
163	0x3db4f1ff	0.088352196
164	0xbdc1902b	-0.09451326
165	0x3d2cbfc6	0.042175077
166	0xbd762af3	-0.060099553
167	0xbc8da447	-0.017290248
168	0xbcbdff5c	-0.023193054
169	0xbd803a64	-0.06261137
170	0x3c9cfe9a	0.019164372
171	0x3d3ce73b	0.046118956
172	0xbe961d28	-0.2931912
173	0xbd19921a	-0.03749285
174	0xbd417b30	-0.04723662
175	0x3cbbec51	0.022939833
176	0xbd93d08e	-0.07217513
177	0xbd390bb1	-0.045177165
178	0xbeedfbe2	-0.46481234
179	0xbbba90f1	-0.005693548
180	0xbeb464ae	-0.35233063
181	0x3d5a6849	0.05332211
182	0x3d8769b2	0.06611957
183	0xbe2fdbb9	-0.17173661
184	0xbc41eb15	-0.011835833
185	0xbf4f3bb2	-0.8095046
186	0x3cfe3d82	0.031035189
187	0xbcd82266	-0.02638359
188	0x3d8ae98d	0.067828275
189	0xbdaa38ef	-0.083116405
190	0x3e7c06f4	0.24612027
191	0x3cb0c124	0.021576472
192	0x3c84f0b2	0.016228054
193	0xbd35beb2	-0.044371314
194	0x3d48c15c	0.049012527
195	0xbcacc66a	-0.021090705
196	0xbe8b0659	-0.2715328
197	0x3e76da2d	0.24106665
198	0x3ad81b88	0.0016487697
199	0xbeb73e87	-0.35789892
200	0xbe7a38cf	-0.24435733
201	0x3d32a028	0.04360977
202	0xbdd16eeb	-0.10226234
203	0xbb363eed	-0.0027808503
204	0xbdcfc2fd	-0.10144613
205	0x3e0ea76c	0.13931054
206	0x3d5533cf	0.05205136
207	0x3db35cf1	0.087579615
208	0xbd839902	-0.06425668
209	0x3d10fe84	0.035398975
210	0xbea13318	-0.31484294
211	0x3d0aaecf	0.033858117
212	0x3d27534f	0.040850934
213	0xbcf734ee	-0.030176606
214	0x3dc9506f	0.098297946
215	0x3d7be6ec	0.06149952
216	0xbd82de42	-0.063900486
217	0x3d5227d9	0.051307533
218	0xbe1cd706	-0.153164
219	0xbe25d7af	-0.16195558
220	0x3ca961c2	0.020676497
221	0x3db10d35	0.08645097
222	0xbeac2d99	-0.33628538
223	0xbc0beb83	-0.008540037
224	0xbed2f7e9	-0.41204765
225	0x3d55a500	0.05215931
226	0xbec96692	-0.39336067
227	0xbea3475d	-0.31890383
228	0x3b4c6c04	0.0031192312
229	0x3cf66c8c	0.030081056
230	0x3ddc37db	0.10752841
231	0xbede4b05	-0.4341661
232	0x3c0d5821	0.008626969
233	0xbc622d30	-0.013804719
234	0xbe7c0777	-0.24612223
235	0x3e6eec5a	0.23332348
236	0xbed0fb05	-0.40816513
237	0xbe4afad1	-0.19822241
238	0x3d05338a	0.032519855
239	0x3d302043	0.042999517
240	0xbd242a14	-0.04007919
241	0xbef667de	-0.4812612
242	0xbef4aa38	-0.47786117
243	0xbd137d68	-0.03600827
244	0xbaf36288	-0.0018568793
245	0x3cc87457	0.024469538
246	0xbd0955fa	-0.03352926
247	0xbded2a46	-0.11580329
248	0xbd2d77ec	-0.042350695
249	0x3d84d6e8	0.064863026
250	0xbdbeeaf9	-0.09322161
251	0xbda5fde3	-0.08105066
252	0xbd27c8ce	-0.040962987
253	0x3e0e9e49	0.13927568
254	0x3c8df70f	0.01732972
255	0x3cdf4cf8	0.027258381

model.4.bias f4 [256]
0	0x3d8cdd23	0.06878116
1	0xbcec3c84	-0.02883745
2	0x3c86d11c	0.016457133
3	0x3d00cada	0.031443454
4	0x3d25da3d	0.04049133
5	0xbd1bcd5f	-0.038037654
6	0xbd109f1f	-0.035308
7	0xbd1c411c	-0.03814803
8	0xbd78e9da	-0.060769893
9	0xbb08e0b1	-0.002088588
10	0xbcd2fdae	-0.02575573
11	0x3d5109d3	0.05103476
12	0x3d4ae78a	0.04953722
13	0xbc95fb2d	-0.018308247
14	0xbbac07e3	-0.0052499636
15	0xbd45d3a5	-0.048297543
16	0xbd57885c	-0.052620277
17	0xbbcf2e01	-0.0063226228
18	0xbd659efa	-0.056059815
19	0xbd6b9d17	-0.05752286
20	0x3c8dbeed	0.017302955
21	0x3ac6dfa1	0.0015172848
22	0x3cf7d327	0.030252052
23	0x3d4b145c	0.049579963
24	0x3d0fc3b7	0.035098758
25	0x3cebb865	0.02877445
26	0xbd53b436	-0.051685534
27	0x3d532d78	0.051557034
28	0x3c4422b1	0.011971162
29	0x3cb5b125	0.022179196
30	0xbce60abe	-0.028081294
31	0x3d2178de	0.03942191
32	0x3d629fdb	0.05532823
33	0xbcbc97b2	-0.023021553
34	0xbc4610f6	-0.012089005
35	0x3bd5b80c	0.0065221842
36	0x3d59869b	0.053106885
37	0x3d1ada35	0.037805755
38	0xbcd51f58	-0.026015922
39	0x3d65c5b3	0.056096744
40	0x3ccffb78	0.025388464
41	0xbd3f2810	-0.046669066
42	0x3d65d07e	0.056107037
43	0x3d1aaa2f	0.037759956
44	0x3cff6d57	0.031180067
45	0x3a1ecd3e	0.0006057805
46	0xbcb48f8e	-0.022041108
47	0x3d808e42	0.062771335
48	0x3b1d0f7d	0.002396553
49	0x3c8266ce	0.015918162
50	0xbd7226cb	-0.059119027
51	0x3d3fd391	0.046832625
52	0x3d6e5d4b	0.05819444
53	0xbd31dc70	-0.043423116
54	0xbd24b074	-0.04020734
55	0xbd4dcee9	-0.050246153
56	0x3d9439ab	0.07237562
57	0x3d2af9da	0.041742183
58	0x3c08df61	0.008354039
59	0x3d9aa7df	0.0755155
60	0x3cc1150d	0.023569608
61	0x3dac2760	0.08405948
62	0x3d4a001a	0.049316503
63	0x3ca0329d	0.019555384
64	0xbd243f0b	-0.040099185
65	0x3cb2ef52	0.021842632
66	0x3cceceb1	0.025245043
67	0x3c2a1cbc	0.010382827
68	0x3da52290	0.08063233
69	0xbd29a9a9	-0.041421566
70	0x3d7a3221	0.061082963
71	0xbc8a2d73	-0.016867375
72	0xbca68f69	-0.020332055
73	0x3c7812ac	0.0151411705
74	0x3d44c7ff	0.048042294
75	0xbd00010f	-0.03125101
76	0x3da85737	0.0821976
77	0xbd4a0538	-0.049321383
78	0xbc802357	-0.015641851
79	0x3d3694d9	0.044575546
80	0xbae597a8	-0.001751651
81	0xbd738774	-0.05945535
82	0x3b3a2bb4	0.0028407397
83	0xbd60d31e	-0.054888837
84	0x3d1a56ce	0.03768044
85	0x3c7bff18	0.015380643
86	0xbd876cf3	-0.06612577
87	0xbe0e70c9	-0.13910212
88	0xbc3601bf	-0.011108815
89	0xbcfd00a7	-0.0308841
90	0xb9b6caae	-0.00034864753
91	0xbc15dee5	-0.0091473805
92	0x3d0e0882	0.034676082
93	0x3cbb58d0	0.022869498
94	0xbcb9836a	-0.02264567
95	0xbb9c711f	-0.0047742273
96	0x3da9b675	0.08286754
97	0x3d0ad189	0.033891235
98	0x3c9c8e1e	0.019110736
99	0x3da2c349	0.07947404
100	0xbd6faa47	-0.058512
101	0x3d3bb54c	0.045827195
102	0xbd3e0f81	-0.046401504
103	0xbd0ca462	-0.034336455
104	0xbbd5867a	-0.006516275
105	0x3d9d6e53	0.07687058
106	0x3b2c17c9	0.0026259294
107	0xbc977704	-0.018489368
108	0xbd2ffc01	-0.04296494
109	0x3d9d02d3	0.07666554
110	0xbd9b4e25	-0.07583264
111	0xbda7cc2f	-0.08193242
112	0xbd38fe45	-0.045164365
113	0xbcefddf0	-0.029280633
114	0x3cd9f9ef	0.026608435
115	0x3d3f9f91	0.046783034
116	0xbd902764	-0.07038763
117	0x3cb29b21	0.021802487
118	0x3d3ca557	0.046056118
119	0xbd50cc60	-0.050976157
120	0xbc48fe93	-0.0122677265
121	0xbca22e53	-0.01979748
122	0xbc6bf1d5	-0.014400919
123	0xbd23b53f	-0.03996777
124	0xbc018d54	-0.00790723
125	0x3cdc257d	0.026873345
126	0xbbfc41cc	-0.0076982733
127	0x3d0cb57d	0.03435277
128	0xbc903622	-0.017603938
129	0x3d03be4b	0.0321639
130	0x3d245516	0.040120207
131	0xbcb92fff	-0.022605894
132	0x3cab280e	0.020893123
133	0xbc24068c	-0.0100113265
134	0xbc116a4c	-0.008875441
135	0x3d0db05b	0.034592014
136	0x3d907483	0.07053473
137	0xbcb349be	-0.021885749
138	0xbcd97ea7	-0.02654965
139	0xbd4b4165	-0.049622912
140	0x3a5a1d62	0.00083204184
141	0x3c81f151	0.015862139
142	0xbc496d29	-0.012294092
143	0xbd418b87	-0.047252204
144	0xbd221422	-0.03956998
145	0xbc475772	-0.012166845
146	0x3d011175	0.03151079
147	0x3c86af4b	0.016441008
148	0x3d20abee	0.039226465
149	0xbcca02ca	-0.024659533
150	0x3cd046b9	0.025424348
151	0xbc3481f5	-0.011017312
152	0xbc856526	-0.016283583
153	0xbc582b8a	-0.013193974
154	0xbd20f93d	-0.039300192
155	0x3c24b6f8	0.010053389
156	0xbd8d00db	-0.06884929
157	0x3ce86da1	0.028372588
158	0x3d25fdc5	0.040525217
159	0xbcbdb9b2	-0.023159835
160	0xbcb6b9ca	-0.022305388
161	0x3d10d2e1	0.03535736
162	0x3d4f3081	0.050583366
163	0xbce530b7	-0.02797733
164	0xba9142b5	-0.0011082502
165	0x3d9015bf	0.07035398
166	0x3cf9b920	0.030483782
167	0x3d9eda6c	0.077565044
168	0xbd0845bf	-0.03326964
169	0xbc514c12	-0.012774484
170	0xbd680bdf	-0.056651946
171	0x3d2db597	0.042409506
172	0xbaab3449	-0.0013061847
173	0xbba499ed	-0.005023232
174	0x3d2f8331	0.042849723
175	0x3ca8c76d	0.020602906
176	0xbd2c746f	-0.042103227
177	0x3d37362b	0.044729393
178	0x3d5465ca	0.051854886
179	0xbd49cdfe	-0.049268715
180	0x3d03169c	0.032003984
181	0xbc81a9d0	-0.015828043
182	0x3cba0e33	0.022711849
183	0xbd8d8fe8	-0.069122136
184	0xbce9fb08	-0.028562084
185	0xbd46ba91	-0.048517767
186	0xbd6b71f4	-0.05748172
187	0xbd1f0fed	-0.038833547
188	0x3cb32944	0.021870263
189	0xbbddf6ca	-0.0067738043
190	0xbcbdaf6e	-0.02315494
191	0xbd82b2b4	-0.06381741
192	0x3c6a9f9b	0.0143202795
193	0x3c35884c	0.011079859
194	0x3bb0e9ce	0.0053989654
195	0xbcf23329	-0.02956541
196	0x3d37b2e5	0.04484834
197	0x3d40aa59	0.047037456
198	0x3c01767f	0.007901787
199	0xbd0feb0a	-0.03513626
200	0x3d10f042	0.035385378
201	0x3c4ca353	0.012490111
202	0x3dafcb71	0.08583725
203	0xbc0937cc	-0.008375119
204	0xbd00bdfc	-0.031431183
205	0xbd40a26d	-0.0470299
206	0xbd29d0d7	-0.04145893
207	0xbcfff3a7	-0.031244112
208	0xbd502c39	-0.050823424
209	0xbadab1a6	-0.0016685023
210	0x3cffdb72	0.03123257
211	0x3c00432b	0.007828514
212	0x3c724543	0.014787021
213	0x3d0c8445	0.03430583
214	0xbc98781b	-0.018611958
215	0x3bc74788	0.0060815252
216	0xbd431bf4	-0.04763408
217	0xbda8aef4	-0.08236495
218	0xbd2a437f	-0.041568276
219	0x3d370840	0.044685602
220	0xbcc18cdd	-0.02362674
221	0xbd006505	-0.03134634
222	0x3d8f0cfc	0.069848984
223	0xbb82ba26	-0.003989476
224	0x3d1ff976	0.039056264
225	0xbaf02226	-0.0018320724
226	0xbd26facb	-0.04076652
227	0x3c61088d	0.013734949
228	0x3d3ab486	0.045582317
229	0x3d8a6f1a	0.06759472
230	0xbcf3ddd2	-0.029768858
231	0x3cc88be4	0.024480768
232	0xbcceb114	-0.025230922
233	0x3cb1870e	0.021670844
234	0xbc3a1d84	-0.011359576
235	0xbd168f36	-0.03675767
236	0xbd85a9f1	-0.065265544
237	0xbd2a85a2	-0.04163135
238	0x3d0468e1	0.032326583
239	0x3d1bcb5e	0.038035743
240	0xbbc6427f	-0.0060504074
241	0x3b288a9e	0.0025717388
242	0xbccf826b	-0.025330743
243	0x3c3374f4	0.010953177
244	0x3d580c1a	0.052745916
245	0xbd90a59e	-0.07062839
246	0xbb921eba	-0.0044592293
247	0xbd90c407	-0.07068639
248	0x39762609	0.00023474557
249	0x3cc841ba	0.024445403
250	0x3ce73654	0.028224148
251	0x3cd698e8	0.026195958
252	0xbc47bbf3	-0.012190807
253	0xbcf5412c	-0.029938303
254	0x3d9db1ee	0.07699953
255	0xbd853377	-0.06503957

model.6.weight f4 [1, 256]
0	0xbf0584b9	-0.52155644
1	0xbdb303f5	-0.08740989
2	0xbd057402	-0.032581337
3	0x3e011995	0.12607415
4	0xbdcfa06b	-0.10138019
5	0x3e39da74	0.1814974
6	0xbc86c949	-0.016453402
7	0x3d9604d1	0.073251374
8	0xbd4bbb20	-0.049739003
9	0x3bbaf01a	0.005704892
10	0xbc31f6ce	-0.0108620655
11	0x3ea5a190	0.32349825
12	0x3d1e5cc2	0.03866268
13	0xbde7216e	-0.11285673
14	0x3d5433d5	0.051807243
15	0xbf005bdf	-0.50140184
16	0xbd189a57	-0.037256565
17	0xbe1aebfc	-0.15129083
18	0x3f06b8f3	0.5262596
19	0xbcbf7fdb	-0.023376396
20	0x3ec9143c	0.3927325
21	0xbd245229	-0.040117417
22	0x3e1f764d	0.15572472
23	0xbe336443	-0.17518716
24	0x3e65236d	0.22376795
25	0xbd149b58	-0.03628096
26	0x3dbf993c	0.09355399
27	0x3e1b1d7f	0.1514797
28	0x3ee5eb94	0.44906294
29	0x3d8ff8c1	0.07029868
30	0x3ec4eb1b	0.3846062
31	0xbd53c4b8	-0.051701277
32	0x3de2b571	0.110697635
33	0x3d4cfac9	0.050043855
34	0x3e4a522b	0.19757907
35	0x3d5ada1c	0.05343066
36	0x3e8a5426	0.27017325
37	0xbc412feb	-0.01179121
38	0xbaa9ff12	-0.0012969694
39	0xbc87efa6	-0.016593765
40	0x3d8d6ac1	0.06905127
41	0xbd8311a8	-0.06399852
42	0x3e2dcfef	0.16973852
43	0xbd0fbf59	-0.035094593
44	0xbd33bfb3	-0.04388399
45	0x3e18b55c	0.14912933
46	0xbb4282be	-0.002967998
47	0xbdf8129a	-0.12112923
48	0xbe100c2d	-0.14067145
49	0xbeb99eb0	-0.3625388
50	0x3c22c299	0.009934091
51	0xbdc7b0d4	-0.09750524
52	0xbef72081	-0.48266986
53	0xbd56777e	-0.05236005
54	0x3df346b9	0.11878724
55	0xbd58f934	-0.052972034
56	0xbed4ad8d	-0.4153866
57	0xbe5249cb	-0.20535962
58	0xbbe992ca	-0.0071280943
59	0xbe0375e5	-0.12837942
60	0xbdcfcd86	-0.10146622
61	0x3e983a63	0.29732046
62	0xbb792ccf	-0.0038021093
63	0xbce670ab	-0.028129896
64	0x3ed4f795	0.4159514
65	0x3d886703	0.06660273
66	0xbe24ee99	-0.16106643
67	0xbd3adaff	-0.045619007
68	0x3e2d6cdb	0.16936056
69	0x3da138a4	0.078721315
70	0x3db88870	0.090103984
71	0xbd3558d6	-0.044274174
72	0x3ed89b48	0.4230597
73	0x3e04fc24	0.12986809
74	0xbd42f3b9	-0.047595713
75	0xbdf40588	-0.119151175
76	0xbea3f893	-0.32025585
77	0x3ee21fdf	0.4416494
78	0xbcda2366	-0.026628207
79	0x3d7eaf3c	0.062178835
80	0xbc13db57	-0.009024463
81	0x3d619282	0.05507136
82	0xbcfc88db	-0.030826977
83	0x3e16464a	0.1467525
84	0x3e85f5f9	0.26164225
85	0x3d80c045	0.062866725
86	0x3d3aa4bb	0.045567255
87	0x3ee40266	0.4453308
88	0x3dddddfa	0.10833354
89	0x3d9bddc2	0.07610656
90	0x3db4984f	0.08818113
91	0xbd923874	-0.07139674
92	0x3d6e4db6	0.05817958
93	0xbd498ce6	-0.049206637
94	0x3e960ce0	0.29306698
95	0x3e5dccf3	0.21660213
96	0x3d7544d7	0.059880104
97	0xbd01fd44	-0.031735674
98	0xbd5d1f2a	-0.0539848
99	0x3dd5f294	0.10446659
100	0x3e2ac942	0.16678336
101	0xbdb38033	-0.087646864
102	0xbd913377	-0.07089894
103	0xbc969f6f	-0.01838657
104	0xbdf53d9c	-0.11974642
105	0xbdbbaa3f	-0.09163331
106	0xbe390a72	-0.18070391
107	0x3ba3e094	0.005001137
108	0x378c1d79	1.6703025e-05
109	0xbec35749	-0.3815253
110	0xbebff4ae	-0.37491363
111	0xbee2a632	-0.44267422
112	0xbe333d9e	-0.17503974
113	0x3dae6f2e	0.085172996
114	0xbcd930f3	-0.026512599
115	0xbe6c5374	-0.2307871
116	0xbcb0b582	-0.021570925
117	0xbd3bd4b2	-0.04585714
118	0xbd8989b8	-0.06715721
119	0xbd89295e	-0.06697343
120	0x3dbeb5e6	0.09312038
121	0xb9a66cf5	-0.00031743167
122	0xbc540148	-0.012939759
123	0x3e9aef0d	0.30260506
124	0xbd08acc6	-0.033367895
125	0x3dd258bb	0.1027083
126	0xbeb4003b	-0.35156426
127	0xbdf411bf	-0.11917447
128	0x3cf34c58	0.02969949
129	0xbd40986b	-0.047020357
130	0x3dcac46b	0.09900745
131	0xbea0a286	-0.31373996
132	0xbdc2d6ab	-0.09513601
133	0x3e080d6b	0.13286369
134	0xbd978d95	-0.074000515
135	0xbe1cdd34	-0.15318757
136	0x3e34b4c2	0.17647079
137	0x3dbc176c	0.09184155
138	0xbcf7a8ef	-0.030231921
139	0x3d5b43ce	0.05353146
140	0xbd822036	-0.063538
141	0xbb95996b	-0.004565408
142	0xbc4c1290	-0.0124555975
143	0x3eb0b561	0.3451338
144	0x3e7d69db	0.24747412
145	0xbf039d85	-0.5141223
146	0xbe2dcb57	-0.16972099
147	0x3e75f9b3	0.24021034
148	0xbe209ffd	-0.1568603
149	0xbd5e162f	-0.054220375
150	0xbe8297d8	-0.25506473
151	0xbd78ea60	-0.060770392
152	0xbe2525d6	-0.16127715
153	0x3e8315d2	0.25602585
154	0xbd901006	-0.07034306
155	0x3c9876a8	0.018611267
156	0x3b81b564	0.003958391
157	0xbe1036ea	-0.14083448
158	0x3e6dbad8	0.23215806
159	0x3ebc0a78	0.36726737
160	0x3ddaee45	0.106899776
161	0xbcbc7bf1	-0.023008319
162	0x3da5a025	0.08087186
163	0xbde543b4	-0.11194554
164	0xbe60b660	-0.2194457
165	0x3daf5c18	0.08562487
166	0xbbf24a98	-0.007394146
167	0x3dcf5694	0.10123935
168	0xbd81b8ee	-0.06334101
169	0xbd7c6313	-0.061617922
170	0xbe991488	-0.29898477
171	0x3e40759b	0.18794863
172	0xbdc5af3a	-0.096525624
173	0xbd90eb91	-0.07076181
174	0x3da5601d	0.08074973
175	0x3dc3da4b	0.095631205
176	0x3e2bab86	0.1676465
177	0xbcfddebf	-0.030990003
178	0x3d9a7489	0.075417586
179	0x3e16eef1	0.14739586
180	0x3eb5a97a	0.35480863
181	0x3e1b4494	0.15162879
182	0x3dc71cab	0.09722265
183	0xbd9a3577	-0.07529729
184	0x3dcd376e	0.10020338
185	0x3e079d03	0.13243489
186	0x3e0f6ae0	0.14005613
187	0xbe48fabd	-0.19626899
188	0x3d8fae06	0.07015614
189	0x3cac8cbe	0.021063205
190	0xbd44b50c	-0.048024222
191	0xbcf1e66a	-0.029528815
192	0xbe1e454f	-0.15456127
193	0x3eb046b5	0.34428945
194	0x3e119f47	0.14220916
195	0x3dd5f324	0.10446766
196	0x3e22fb88	0.15916264
197	0x3d32ac4e	0.043621354
198	0x3e015735	0.12630923
199	0x3e146706	0.14492425
200	0x3d0d7b0a	0.034541167
201	0xbb4dc885	-0.0031400037
202	0xbe567edf	-0.20946835
203	0x3e9ea21a	0.3098305
204	0xbdf7581f	-0.12077355
205	0xbbc9e2d7	-0.0061610746
206	0x3ea28a31	0.31746057
207	0xbc7fafbf	-0.015605866
208	0xbdbe910e	-0.09305011
209	0x3d8e1da9	0.06939251
210	0xbe990636	-0.2988755
211	0xbd9489b5	-0.07252828
212	0x3b8e07fc	0.004334448
213	0xbdbdfe26	-0.092769906
214	0xbc6430b2	-0.0139276255
215	0xbd8eadf9	-0.069667764
216	0xbe1120d7	-0.14172684
217	0xbda6f1e4	-0.08151606
218	0xbd657444	-0.056019083
219	0x3e1fea82	0.15616801
220	0x3e4a3a77	0.19748865
221	0xbeb24980	-0.348217
222	0x3d834438	0.06409496
223	0xbdecfe42	-0.11571933
224	0x3d8647f9	0.065566964
225	0x3e9ae809	0.30255154
226	0xbcc44f36	-0.023963552
227	0x3dae57ba	0.08512826
228	0xbee51db7	-0.44749233
229	0x3e9b6494	0.30350173
230	0x3c3d5d4c	0.011557888
231	0xbef1fea8	-0.472646
232	0x3ba4e3ef	0.0050320546
233	0x3bb4e8d4	0.0055209193
234	0xbe228fc3	-0.15875153
235	0xbe99ae71	-0.300159
236	0x3e42a8ed	0.19009753
237	0xbd482f3c	-0.04887317
238	0x3dace2e0	0.084417105
239	0xbdfc87e2	-0.12330605
240	0xbe944bdf	-0.28964135
241	0x3eb820af	0.35962436
242	0xbe7e5c37	-0.24839865
243	0xbcad6f25	-0.021171162
244	0xbd905e73	-0.07049265
245	0x3e04706c	0.1293351
246	0x3d8543b0	0.06507051
247	0xbd13e577	-0.036107507
248	0x3dbccd96	0.092189
249	0xbdd5827a	-0.10425277
250	0xbde3c298	-0.111211
251	0x3de76cdb	0.113000594
252	0xbdcbccd3	-0.099511765
253	0x3dcfc355	0.101446785
254	0x3dc50522	0.0962012
255	0x3df5fca4	0.12011078
