data/checkpoints/rlgym-ppo-run-1760498429643267200/250679050/PPO_POLICY.pt (torch, 638775 bytes, 8 tensors)

model.0.weight f4 [256, 89]
-0.13284144 0.26437622 -0.2885271 -0.02341248 -0.05442251 -0.30119467 -0.07728173 -0.08290061
-0.06474441 0.06534285 0.011731975 -0.050857488 -0.058582205 -0.07708174 -0.17080387 0.00039224984
-0.055211447 0.050763287 -0.042478018 0.01886873 0.059277914 0.0042503723 0.013150804 0.08516069
-0.06453389 0.017453328 -0.06475331 0.0656593 0.04772248 -0.11349983 0.09208302 0.031957727
0.0274323 0.023867447 0.06491901 -0.03435026 -0.11042066 -0.021872044 -0.095952086 -0.025487764
-0.029450368 -0.069288 -0.02524138 0.07798779 -0.024038527 -0.016733255 -0.027634611 0.0006361203
0.08165465 0.041805755 0.015470713 0.16153325 -0.027752202 0.028977009 -0.0007960145 -0.11212459
-0.33306563 0.05250824 -0.001321268 -0.10200229 -0.15820344 0.06334488 0.1558932 -0.36417732
-0.06699757 0.060781963 -0.270254 -0.078959905 -0.034472074 0.04647138 0.14627431 0.14588498
-0.0532477 -0.09163896 0.0112645235 -0.0047996035 0.0166507 0.027597949 -0.015152738 0.14600982
0.023663895 0.0854389 0.0025850516 0.014541031 -0.08790138 -0.06545249 -0.029202355 0.100782394
0.028206466 0.080722585 -0.044389002 0.18278582 0.028130533 -0.16992973 0.21860828 0.065653
0.24986182 0.18268988 0.02750018 -0.064945854 0.053134907 -0.052920792 0.030799702 -0.10702116
-0.055574816 -0.07128657 -0.0012382349 0.086760715 0.045454532 -0.004950059 0.06597568 -0.0638307
0.047418144 -0.021395154 -0.025731841 0.0023824845 -0.054520298 0.004216127 0.025122808 0.07971629
-0.036414668 0.035735942 0.09875252 -0.04494659 0.09120228 -0.061507948 0.0364231 0.035679713
0.017046414 0.11478624 -0.052896086 0.019830637 -0.013104005 -0.08463873 -0.02900219 -0.09129752
0.034486257 -0.0008686447 0.0045665395 -0.043598544 -0.15598997 -0.11688705 0.056747124 0.23044878
0.039458945 0.06404433 -0.08638291 -0.029937418 -0.038258683 0.020170692 -0.14559783 -0.055437144
0.12198098 0.09732077 0.21354312 0.4074972 -0.040614292 0.0050131367 -0.11461626 0.14271921
0.13062772 0.11651693 -0.050182965 0.02119748 0.08183324 0.053674698 -0.029319212 0.11073773
0.052683722 0.112151995 0.015780821 -0.1132876 0.006857953 -0.05331493 0.02030225 -0.06945811
-0.05754732 -0.057708167 0.09518703 0.25541505 0.017084021 0.13556947 0.056924075 -0.10348034
-0.16202824 0.107653104 -0.018583177 0.05212127 0.10689949 -0.08632458 -0.033058412 -0.07300336
-0.15925497 0.06385847 -0.05431618 -0.049360827 0.038260896 -0.064501144 0.09603452 0.029427908
-0.02530384 0.0111976005 0.015712116 -0.032390144 -0.078156374 0.007577095 0.010931985 0.008713764
-0.012477292 0.07068846 -0.025225144 -0.009409741 0.049904782 -0.062344946 0.035715677 -0.0041398774
0.053184595 -0.05277336 0.012998136 0.013962499 -0.07968444 -0.08108116 0.04604823 -0.023874741
0.067068666 -0.10339732 -0.046054058 -0.08137335 0.04632045 0.0718758 -0.09158066 -0.123656936
-0.23261945 0.04958569 0.028549818 0.010102142 -0.012527596 0.023235796 -0.07518819 0.0757425
-0.34859934 0.08819217 -0.2201146 0.24373738 0.19635579 0.16367418 -0.06547975 -0.0871261
-0.021221198 0.050864562 0.042411435 -0.11362072 0.079165325 -0.07915136 -0.045673553 -0.04486303
00000000: 9607 08be 525c 873e d3b9 93be 87cb bfbc
00000010: 23ea 5ebd 3036 9abe e245 9ebd ccc7 a9bd
00000020: b898 84bd 79d2 853d 7837 403c f14f 50bd
00000030: e5f3 6fbd 08dd 9dbd 36e7 2ebe e2a6 cd39
00000040: 6625 62bd 2aed 4f3d 6efd 2dbd 9892 9a3c
00000050: 66cd 723d b546 8b3b 7876 573c ba68 ae3d
00000060: 582a 84bd 48fa 8e3c 629d 84bd 6278 863d
00000070: a678 433d 9972 e8bd 0696 bc3d 1be6 023d
00000080: b4b9 e03c aa85 c33c 42f4 843d dcb2 0cbd
00000090: 3a24 e2bd 002d b3bc 8782 c4bd b7cb d0bc
000000a0: e641 f1bc dee6 8dbd 03c7 cebc 10b8 9f3d
000000b0: 72ec c4bc 2e14 89bc fb61 e2bc 50c1 263a
000000c0: 8e3a a73d 833c 2b3d e078 7d3c f968 253e
000000d0: 9658 e3bc 3161 ed3c a1ab 50ba 94a1 e5bd
000000e0: 9487 aabe e112 573d 662e adba 94e6 d0bd
000000f0: 1500 22be f6ba 813d 78a2 1f3e 7375 babe
00000100: 0636 89bd 82f6 783d bb5e 8abe bbb5 a1bd
00000110: 9732 0dbd c658 3e3d efc8 153e df62 153e
00000120: 431a 5abd 35ad bbbd d68e 383c fe45 9dbb
00000130: 0c67 883c 1815 e23c 3143 78bc 9983 153e
00000140: c9da c13c 97fa ae3d f869 293b 813d 6e3c
00000150: a405 b4bd f40b 86bd c739 efbc 0067 ce3d
00000160: 3f11 e73c e251 a53d 3ed1 35bd 352c 3b3e
00000170: 0172 e63c 0f02 2ebe d9da 5f3e 1475 863d
00000180: c7db 7f3e 0e13 3b3e 0f48 e13c 5502 85bd
00000190: fda3 593d 79c3 58bd a84f fc3c e92d dbbd
000001a0: 6ba2 63bd b1fe 91bd 454c a2ba 9aaf b13d
000001b0: 882e 3a3d 1b34 a2bb 421e 873d acb9 82bd
000001c0: 8739 423d e444 afbc 95cb d2bc 7523 1c3b
000001d0: ad50 5fbd 7027 8a3b 59ce cd3c 4b42 a33d
000001e0: 8c27 15bd da5f 123d c33e ca3d ea19 38bd
000001f0: 43c8 ba3d c2ef 7bbd 6330 153d e424 123d
00000200: eca4 8b3c 0c15 eb3d 91a9 58bd dc73 a23c
00000210: 2eb2 56bc 1257 adbd 0096 edbc 32fa babd
00000220: 7641 0d3d c2b5 63ba e9a2 953b 6394 32bd
00000230: d6bb 1fbe 7a62 efbd ac6f 683d c4fa 6b3e
00000240: b49f 213d ac29 833d 86e9 b0bd 513f f5bc
00000250: 23b5 1cbd 023d a53c 9917 15be 0f12 63bd
00000260: 2ad1 f93d 1d50 c73d 0cab 5a3e 79a3 d03e
00000270: 2c5b 26bd 3d45 a43b eebb eabd fc24 123e
00000280: 46c3 053e 6ea0 ee3d a78c 4dbd 56a6 ad3c
00000290: 3098 a73d 00da 5b3d d82e f0bc 77ca e23d
000002a0: e3ca 573d f2af e53d c846 813c 5403 e8bd
000002b0: aeb8 e03b c260 5abd e750 a63c 0e40 8ebd
000002c0: bdb6 6bbd 665f 6cbd 6bf1 c23d c3c5 823e
000002d0: caf3 8b3c b9d2 0a3e 3829 693d 80ed d3bd
000002e0: bbea 25be 3b79 dc3d bf3b 98bc 1d7d 553d
000002f0: 1fee da3d f1ca b0bd 4268 07bd c982 95bd
00000300: bc13 23be 3bc8 823d a57a 5ebd 942e 4abd
00000310: 75b7 1c3d 2d19 84bd bfad c43d cc12 f13c
00000320: 004a cfbc 2476 373c b2b6 803c 87ab 04bd
00000330: 7310 a0bd 4849 f83b 121c 333c 2dc4 0e3c
00000340: 8e6d 4cbc 1cc5 903d f6a4 cebc 502b 1abc
00000350: f568 4c3d 6a5d 7fbd 9a4a 123d cfa7 87bb
00000360: 17d8 593d e128 58bd 22f6 543c f7c2 643c
00000370: 9831 a3bd e10d a6bd 129d 3c3d f694 c3bc
00000380: 4c5b 893d f9c1 d3bd 2ea3 3cbd 12a7 a6bd
00000390: 83ba 3d3d 9f33 933d a48e bbbd d93f fdbd
000003a0: cb33 6ebe 5d1a 4b3d 4fe1 e93c 7483 253c
000003b0: 8c40 4dbc ff58 be3c 44fc 99bd e21e 9b3d
000003c0: 9d7b b2be 199e b43d b965 61be 4b96 793e
000003d0: 7e11 493e 349a 273e 3f1a 86bd 2b6f b2bd
000003e0: 14d8 adbc 5c57 503d 9db7 2d3d fbb1 e8bd
000003f0: 6e21 a23d 1c1a a2bd 3114 3bbd 4cc2 37bd

model.0.bias f4 [256]
-0.050591733 0.022432776 -0.038813915 -0.015249159 -0.069037184 -0.043433905 0.07498582 -0.08965588
0.035011206 0.008007373 0.04584926 0.025350839 0.032142926 0.008763528 0.10881563 0.06332221
0.05100265 0.04067992 0.05274088 0.11014375 0.031935327 0.00812343 -0.037086785 0.0087539945
0.05677203 -0.113822795 -0.09794899 0.09022353 0.08537948 0.09438035 -0.08589877 0.0899852
-0.068852656 -0.021776307 -0.074821286 0.0128505975 -0.0692141 0.009749894 0.08580708 0.002686173
0.03464769 0.019676741 0.027914524 -0.03791433 0.0798135 0.061653376 0.025023684 -0.04698501
0.016591677 0.01186558 0.073140845 -0.011597831 -0.058157418 -0.08034916 -0.013218039 -0.05081492
-0.085996 -0.0838607 0.016609881 -0.00042505199 -0.028909862 -0.11694828 0.010892939 0.07373644
-0.04572708 0.09297583 -0.034267057 0.0691761 -0.022253323 -0.1012435 -0.06458337 0.033933453
0.052838415 -0.11732372 0.07484731 0.022373755 0.04753737 0.0013730322 -0.059232216 0.08862468
-0.006369689 -0.12279962 0.0050331615 -0.0731715 -0.06036768 -0.08559155 0.021146782 -0.095837
-0.056031317 -0.026228268 -0.07693193 -0.09595789 -0.06917274 -0.049230628 -0.11592634 -0.088034324
-0.08721327 0.06409084 -0.08743658 0.02580095 -0.011930342 -0.07918273 -0.009551609 0.004026338
0.10379363 -0.03676872 0.086296886 0.053482287 0.066629976 0.022233456 -0.051971946 -0.0031349072
-0.03518622 0.03221254 0.067701966 0.045671187 -0.059640713 0.012263564 0.05675618 0.052629776
-0.028327655 0.06995992 -0.08382027 -0.09417845 -0.08267731 0.013467445 -0.024156034 0.052822497
0.0073938267 0.01650099 0.0067216083 0.051758677 0.055869818 0.066891104 0.0046445443 0.06834887
0.087880865 0.0053999973 0.010871438 -0.046511225 0.109271415 0.010266295 -0.10213556 -0.040348403
-0.039434582 -0.018151322 -0.07155391 -0.039384793 -0.08900307 -0.016051687 -0.10429358 0.035557367
-0.0059813126 -0.08123155 0.021294085 0.0530769 -0.037603702 -0.08772185 0.111576565 -0.04887765
0.024202088 -0.082201555 -0.08596027 -0.012464054 -0.040962324 -0.049007468 -0.093469374 0.046160568
-0.11625285 -0.042041615 -0.08289883 -0.0961849 0.03459728 -0.06006314 0.046223998 -0.092131086
-0.067316316 0.03719551 0.019881576 0.09106987 0.04971308 -0.088694304 0.003627271 0.026783641
-0.019994924 0.082070865 0.06278164 0.055416673 -0.09020651 -0.031725425 -0.10986879 -0.049587287
0.02952181 -0.05651544 0.12120586 -0.009772545 -0.00024275412 -0.04481658 -0.08930879 0.019234898
0.07600075 0.083781436 0.02477914 0.037330054 -0.036345944 0.007046295 0.087765634 -0.035277363
0.05217106 0.072780155 0.023920551 -0.1061524 0.05020716 -0.10458654 0.039083228 0.05438822
-0.080112666 -0.08583434 -0.08625152 0.08221371 -0.06266485 -0.074471116 -0.013589014 0.016868293
-0.037776593 -0.07579322 -0.091506 0.03422081 -0.045620054 -0.08074357 -0.06088802 -0.012717157
-0.04680868 -0.007761088 -0.0016739162 0.09154915 0.097376235 0.024165718 -0.0591978 0.023245284
-0.05692153 0.071107246 0.0024073727 -0.024794275 0.09201762 -0.012705302 -0.028407529 0.008780355
0.110778615 -0.093016796 -0.03813077 -0.052508328 0.048719537 0.10969613 0.081851214 0.07516365
00000000: 4739 4fbd f1c4 b73c 57fb 1ebd 9cd7 79bc
00000010: 5e63 8dbd c0e7 31bd 2a92 993d 819d b7bd
00000020: e967 0f3d 5b31 033c 6fcc 3b3d 90ac cf3c
00000030: 4da8 033d e794 0f3c bbda de3d 13af 813d
00000040: 28e8 503d fd9f 263d d206 583d 0c93 e13d
00000050: 9ece 023d 2318 053c 50e8 17bd ea6c 0f3c
00000060: ca89 683d ed1b e9bd 7b99 c8bd 1dc7 b83d
00000070: 70db ae3d 7c4a c13d b2eb afbd 294a b83d
00000080: 9f02 8dbd 3a64 b2bc e73b 99bd 508b 523c
00000090: 1fc0 8dbd 05be 1f3c 9fbb af3d 810a 303b
000000a0: bcea 0d3d 1e31 a13c 00ad e43c 0e4c 1bbd
000000b0: 4375 a33d 4088 7c3d 78fe cc3c 5b73 40bd
000000c0: 45eb 873c da67 423c deca 953d d404 3ebc
000000d0: 7936 6ebd 1a8e a4bd 7990 58bc 4e23 50bd
000000e0: ac1e b0bd 29bf abbd 7211 883c 83d9 deb9
000000f0: 60d4 ecbc 9482 efbd 4c78 323c 2103 973d
00000100: 524c 3bbd 1d6a be3d 9d5b 0cbd 33ac 8d3d
00000110: 9a4c b6bc c158 cfbd 4944 84bd cefd 0a3d
00000120: 186d 583d 6b47 f0bd 8c49 993d 2a49 b73c
00000130: 8cb6 423d 51f7 b33a 7b9d 72bd db80 b53d
00000140: d3b8 d0bb 5e7e fbbd 38ed a43b f0da 95bd
00000150: 1a44 77bd 9f4a afbd 043c ad3c 3046 c4bd
00000160: 1881 65bd aadc d6bc 7d8e 9dbd 9285 c4bd
00000170: 70aa 8dbd 0ea6 49bd ca6a edbd 574b b4bd
00000180: df9c b2bd 0f42 833d f311 b3bd 845c d33c
00000190: 7b77 43bc 8e2a a2bd 5a7e 1cbc 5fef 833b
000001a0: c191 d43d cc9a 16bd 6cbc b03d 3e10 5b3d
000001b0: 4c75 883d f022 b63c 89e0 54bd 0473 4dbb
000001c0: 6d1f 10bd 4cf1 033d 54a7 8a3d b611 3b3d
000001d0: d249 74bd 1eed 483c 2b79 683d 5292 573d
000001e0: 660f e8bc 2647 8f3d f6a9 abbd a2e0 c0bd
000001f0: b952 a9bd 8fa6 5c3c e0e2 c5bc 675c 583d
00000200: ea47 f23b 162d 873c f040 dc3b e800 543d
00000210: c0d7 643d 34fe 883d 4331 983b 7efa 8b3d
00000220: e2fa b33d 76f2 b03b 1e1e 323c 8e82 3ebd
00000230: b1c9 df3d f633 283c 732c d1bd 5e44 25bd
00000240: 2886 21bd 15b2 94bc db8a 92bd f351 21bd
00000250: 3e47 b6bd d47e 83bc df97 d5bd 9aa4 113d
00000260: e3fe c3bb ba5c a6bd ef70 ae3c 2a67 593d
00000270: 5706 1abd 83a7 b3bd 4182 e43d ee33 48bd
00000280: 7543 c63c 4a59 a8bd f00b b0bd 0836 4cbc
00000290: 1cc8 27bd 0ebc 48bd df6c bfbd dd12 3d3d
000002a0: f915 eebd d433 2cbd ddc6 a9bd 97fc c4bd
000002b0: e1b5 0d3d c404 76bd 6055 3d3d 39af bcbd
000002c0: 23dd 89bd 525a 183d b0de a23c d782 ba3d
000002d0: f19f 4b3d 5ca5 b5bd 82b7 6d3b 5e69 db3c
000002e0: 65cc a3bc c514 a83d a993 803d 98fc 623d
000002f0: 31be b8bd 85f2 01bd e302 e1bd 0a1c 4bbd
00000300: b9d7 f13c bc7c 67bd c73a f83d 061d 20bc
00000310: d08b 7eb9 9791 37bd 87e7 b6bd 8192 9d3c
00000320: 48a6 9b3d 9a95 ab3d 9ffd ca3c 66e7 183d
00000330: 7cdf 14bd 9be4 e63b 78be b33d ff7e 10bd
00000340: 52b1 553d c30d 953d 08f5 c33c 6e66 d9bd
00000350: 06a6 4d3d 7831 d6bd bc15 203d 2fc6 5e3d
00000360: 1c12 a4bd eac9 afbd a3a4 b0bd a95f a83d
00000370: 6e56 80bd 5084 98bd 75a4 5ebc 602f 8a3c
00000380: a1bb 1abd 7a39 9bbd 7f67 bbbd 1f2b 0c3d
00000390: 18dc 3abd e35c a5bd b765 79bd 9f5b 50bc
000003a0: 75ba 3fbd ba50 febb 4f67 dbba 1f7e bb3d
000003b0: 316d c73d 2ff7 c53c 6479 72bd e56c be3c
000003c0: 8d26 69bd ada0 913d 03c5 1d3b 5d1d cbbc
000003d0: bc73 bc3d e629 50bc e8b6 e8bc 7adb 0f3c
000003e0: e6df e23d 977f bebd 032f 1cbd f912 57bd
000003f0: 238e 473d 5da8 e03d 9ca1 a73d 66ef 993d

model.2.weight f4 [256, 256]
-0.12931481 0.052006904 -0.051685445 0.0028062474 -0.054806378 0.052238714 -0.054384127 -0.03245282
0.0250173 0.06924859 -0.03424252 -0.022661824 -0.12856542 -0.06314395 -0.015436707 0.03013383
-0.0046725417 0.013330858 0.06846701 -0.068688676 0.027561313 -0.06082253 -0.04237677 -0.05627312
-0.050654758 -0.041809324 -0.021170093 -0.037747797 0.025909526 0.01752248 0.06093763 0.06721643
0.016028099 0.04426258 -0.06670932 0.027469987 0.054334585 -0.085516945 -0.037086412 -0.14154577
-0.05036308 -0.096921295 0.060512487 0.0025179412 -0.011644239 -0.08601778 0.006010814 0.013201358
0.0015870127 -0.029397754 0.017143695 -0.04416724 0.056278512 -0.0024485486 -0.050138094 0.018822981
-0.04840801 0.05343442 -0.10293523 0.07118745 -0.016378624 0.058420278 0.017367892 0.09758047
-0.08895164 -0.005929387 0.109204955 0.03045266 0.035076264 -0.023440575 -0.080859825 0.0040154755
-0.021391114 0.0024338139 -0.06781455 0.06650837 0.06422255 -0.17491007 0.06840292 -0.06298158
0.05260402 -0.053036913 0.00028656697 -0.046565715 0.016705753 0.05312121 -0.03891485 -0.051946823
-0.03125483 0.051369444 -0.004260087 0.02693286 -0.08314933 -0.027247995 -0.049259357 0.070866026
0.025773289 -0.12975402 -0.090190955 0.02533842 0.01868815 -0.090585776 -0.015639499 0.041406512
-0.11614692 0.011435427 0.00037660374 0.0016859396 0.093973346 0.05930856 0.07866573 -0.034516353
-0.049084757 0.06438895 -0.07248122 -0.082275964 0.061491787 0.24422657 0.03583581 0.018519392
-0.022827368 -0.08377602 0.076801986 0.048298143 -0.05264932 0.08852009 -0.0017853918 -0.029892305
0.0076484703 0.05781206 -0.06132763 -0.019195769 -0.040131778 0.06873048 0.06310447 0.008839639
-0.02733925 0.114594266 -0.0023382327 -0.03936608 -0.07512212 -0.079129815 0.030379722 -0.009396042
0.002017041 -0.0537055 -0.02033202 0.014878301 0.036619652 -0.057023358 -0.0147997 -0.07155459
-0.04644687 -0.01965407 4.9291266e-05 0.06729556 -0.03452121 -0.029250488 0.09302527 -0.04874663
-0.064107545 -0.1818441 0.01998672 0.027832117 -0.1153531 -0.074884444 -0.16379568 -0.049915083
0.011167779 -0.16820604 -0.053694855 0.03305318 0.086772546 0.051355116 0.062231507 -0.10879523
0.03327376 0.012183926 0.0140377665 -0.028189255 -0.05122788 -0.00923517 -0.06709649 -0.1322825
0.008767133 -0.03284889 0.053085595 -0.01174516 0.09043176 -0.004981878 -0.021049418 -0.100165516
0.045673072 0.010796904 -0.1466526 -0.043205496 -0.10992843 0.019751847 -0.035405643 0.016745428
-0.06786954 0.059202608 0.0046840655 0.0043382607 0.085995965 -0.040101565 0.046315312 0.03805389
0.007617536 -0.017154174 -0.06358089 0.05062323 0.095877245 0.019461378 0.005809638 -0.0052407957
-0.23132442 -0.027601227 0.0020045245 0.0071668937 0.03921579 -0.053223934 0.047825135 -0.08437082
0.025478652 -0.035277773 0.015916957 0.0014974367 -0.098052345 0.004750029 -3.220864e-05 -0.012663204
-0.18203683 0.008569902 -0.10230652 0.072823144 -0.03025093 -0.1138281 -0.1270104 0.014862061
-0.009594222 0.06649355 -0.056255717 0.040273808 -0.007108396 0.026321983 0.017678525 -0.107381195
0.04682892 0.02595725 0.006472324 -0.056605753 0.03349649 -0.014653539 0.03775701 -0.04875955
00000000: 1a6b 04be 3105 553d 1eb4 53bd 05e9 373b
00000010: a77c 60bd 43f8 553d e4c1 5ebd 40ed 04bd
00000020: 15f1 cc3c 34d2 8d3d e241 0cbd 4aa5 b9bc
00000030: a7a6 03be 9e51 81bd 3eea 7cbc 39db f63c
00000040: 1f1c 99bb ac69 5a3c 6f38 8c3d a6ac 8cbd
00000050: 43c8 e13c 0c21 79bd 4493 2dbd a57e 66bd
00000060: 5d7b 4fbd 4140 2bbd e76c adbc 6f9d 1abd
00000070: 3740 d43c 4e8b 8f3c bc99 793d c5a8 893d
00000080: 5c4d 833c ae4c 353d e59e 88bd bd08 e13c
00000090: f18d 5e3d 8223 afbd ece7 17bd 60f1 10be
000000a0: 8449 4ebd ac7e c6bd f1db 773d 0b04 253b
000000b0: 7ac7 3ebc 172a b0bd 5df6 c43b 824a 583c
000000c0: 4f03 d03a 8fd3 f0bc ef70 8c3c b5e8 34bd
000000d0: 4c84 663d d477 20bb 9a5d 4dbd a732 9a3c
000000e0: 7a47 46bd 0dde 5a3d b5cf d2bd baca 913d
000000f0: 772c 86bc 1a4a 6f3d 1c47 8e3c 45d8 c73d
00000100: 472c b6bd 4e4b c2bb d9a6 df3d db77 f93c
00000110: 21ac 0f3d 7306 c0bc d699 a5bd 4094 833b
00000120: 6b3c afbc 9f80 1f3b 5be2 8abd 8a35 883d
00000130: 1d87 833d a01b 33be d516 8c3d 7dfc 80bd
00000140: 5077 573d 3c3d 59bd 5e3e 9639 b1bb 3ebd
00000150: 81da 883c a095 593d 2e65 1fbd 31c6 54bd
00000160: 1105 00bd c468 523d 3398 8bbb 4da2 dc3c
00000170: 324a aabd 3037 dfbc 2ec4 49bd 3522 913d
00000180: 8122 d33c 3dde 04be 09b6 b8bd 8592 cf3c
00000190: e417 993c 0985 b9bd 681e 80bc e099 293d
000001a0: 70de edbd a85b 3b3c e672 c539 bffa dc3a
000001b0: 1975 c03d 88ed 723d 801b a13d 0561 0dbd
000001c0: 190d 49bd 5bde 833d 0971 94bd 4d80 a8bd
000001d0: d0de 7b3d 8816 7a3e 92c8 123d fbb5 973c
000001e0: 7600 bbbc c392 abbd 5c4a 9d3d 46d4 453d
000001f0: d0a6 57bd 054a b53d cf03 eaba b5e0 f4bc
00000200: 05a0 fa3b 57cc 6c3d ae32 7bbd 7240 9dbc
00000210: 3861 24bd 91c2 8c3d eb3c 813d 22d4 103c
00000220: 90f6 dfbc 66b0 ea3d 093d 19bb 543e 21bd
00000230: a0d9 99bd d00e a2bd e5de f83c dbf1 19bc
00000240: 5530 043b 4cfa 5bbd 568f a6bc 1ec4 733c
00000250: 7dfe 153d 5391 69bd 717a 72bc 368b 92bd
00000260: 133f 3ebd 9201 a1bc 18be 4e38 41d2 893d
00000270: 1d66 0dbd b89e efbc 0884 be3d 8caa 47bd
00000280: d14a 83bd 5735 3abe 31bb a33c 2e00 e43c
00000290: 3f3e ecbd 045d 99bd 0eba 27be c273 4cbd
000002a0: 0ff9 363c 343e 2cbe 23ef 5bbd c562 073d
000002b0: ceb5 b13d be59 523d 77e6 7e3d 09d0 debd
000002c0: 114a 083d 179f 473c a9fe 653c 27ed e6bc
000002d0: 53d4 51bd 1c4f 17bc e269 89bd 1075 07be
000002e0: 05a4 0f3c 8f8c 06bd 4870 593d c66e 40bc
000002f0: 4934 b93d 063f a3bb d46f acbc 9423 cdbd
00000300: b013 3b3d 7fe5 303c 192c 16be 3ff8 30bd
00000310: 2822 e1bd a0ce a13c 8205 11bd b52d 893c
00000320: 2fff 8abd 6f7e 723d ca7c 993b f827 8e3b
00000330: a71e b03d 8a41 24bd 20b5 3d3d 65de 1b3d
00000340: 869c f93b e986 8cbc b336 82bd 4e5a 4f3d
00000350: 4a5b c43d 786d 9f3c c75e be3b fbba abbb
00000360: 4fe0 6cbe f81b e2bc 575e 033b 43d8 ea3b
00000370: bca0 203d 5701 5abd 4ae4 433d 9cca acbd
00000380: 9bb8 d03c 6d7f 10bd 4764 823c a345 c43a
00000390: abcf c8bd 22a6 9b3b c417 07b8 5479 4fbc
000003a0: dd67 3abe c668 0c3c 1586 d1bd 4d24 953d
000003b0: ccd0 f7bc b51e e9bd 040f 02be 0080 733c
000003c0: 1531 1dbc c52d 883d 656c 66bd 26f6 243d
000003d0: 8ced e8bb 33a1 d73c 8ed2 903c acea dbbd
000003e0: aecf 3f3d 4ca4 d43c ca15 d43b 6fdb 67bd
000003f0: 9e33 093d 6615 70bc 18a7 1a3d 18b8 47bd

model.2.bias f4 [256]
0.037341375 0.050511245 -0.06704333 -0.026283525 -0.03296216 0.036456507 0.04769605 -0.048407428
0.047043633 -0.03152459 0.013788727 -0.062156755 0.043445226 -0.035006735 0.060903076 0.023531927
-0.030189559 -0.020962046 0.029851744 0.007338282 0.02383911 -0.036704864 0.035842028 -0.011368082
0.02162026 -0.024547491 0.04097552 0.037118968 0.0120410565 -0.0259684 -0.0114695355 -0.008424676
0.018688496 -0.02356398 -0.037831455 0.060857516 -0.012824133 0.02099639 -0.04149248 0.02708251
-0.06499779 0.038565837 0.0077273985 -0.0015995547 -0.03283409 0.04401118 -0.024051238 0.021632202
-0.031041283 0.060844805 0.027343689 0.056130566 -0.038144797 0.040449917 0.05643388 -0.02676571
0.03743999 0.016523898 0.02069004 -0.0015268368 0.020392846 -0.0029559832 -0.03657235 1.569873e-05
0.004697655 0.03209926 -0.019090878 0.03996238 -0.013272573 0.05450003 0.059523307 0.007381807
-0.034603156 -0.068052016 0.029900214 0.0005074838 -0.0017228314 0.07117024 0.016110213 -0.064729504
-0.066638775 -0.060724102 0.043895002 0.01774878 -0.010369762 -0.019322671 -0.049533494 -0.025945518
0.048270702 0.040455066 0.00044283643 -0.03973586 0.010518022 -0.032472055 0.022014197 0.019218188
0.034233496 0.04638895 0.016659014 -0.006990048 -0.04219051 0.03179841 -0.038003102 -0.073440425
0.021828072 -0.044273674 -0.022070158 -0.051398803 -0.011180137 -0.0018298004 0.008258328 -0.044527307
0.03470546 0.010026808 0.051241927 0.016873594 0.01003539 -0.055556163 -0.0043314868 -0.032773085
0.03282558 -0.042565346 0.019096974 0.03594454 0.004721622 0.01776256 0.015937345 0.032013174
-0.009726492 -0.050839905 -0.004708937 0.0013288349 0.044358596 -0.054498404 -0.03467575 -0.024642605
0.04872908 -0.039710212 -0.018534536 0.046987038 0.016702995 0.08065508 -0.042500515 -0.046822328
-0.010961027 0.009078978 0.044550218 -0.029965097 -0.055976346 -0.0133712655 3.5501027e-05 -0.05821392
-0.079982586 -0.003637702 -0.033490267 0.052241836 0.03258354 0.03940379 -0.027470393 -0.06830268
-0.04409324 -0.020754999 0.038942534 0.014271143 -0.022165012 -0.016286045 -0.015792755 0.0559287
0.037356477 -0.004805791 -0.045993995 0.04534813 0.023310248 -0.048572883 0.028733397 -0.01645923
-0.040630978 0.034582354 0.043080926 0.013239166 -0.020358495 0.02737538 -0.04728712 0.061298262
-0.02093586 -0.016393406 0.03256592 -0.069083415 0.038462657 0.012162188 -0.017963082 0.0050765127
-0.04123298 0.00957876 -0.07172997 -0.059908897 -0.0009071356 -0.0069676125 0.028556675 -0.010372857
0.053222805 0.04847613 0.053372465 -0.03808258 0.050233666 0.023530185 -0.00077747606 -0.004682557
-0.043913294 -0.018320292 -0.014481907 -0.064483374 -0.05637116 -0.054486673 0.04291367 -0.00869844
0.03077389 -0.013827324 -0.031693514 -0.0026106148 -0.046317622 0.026149757 0.03306064 -0.009505838
-0.04127909 -0.059455823 0.065910175 -0.057784975 0.03299608 -0.033388514 -0.04654709 0.037498254
-0.009417621 0.0048629455 0.042872015 0.04373572 0.014297051 -0.07561904 -0.026520975 0.0017720407
0.049958963 0.036114503 -0.009787718 -0.010046605 0.02143365 0.026501317 -0.015425856 0.03890244
0.086695135 0.021564594 -0.014795553 0.017093858 -0.007564038 0.034489363 0.0117286155 0.00056342024
00000000: 45f3 183d e1e4 4e3d 034e 89bd 8c50 d7bc
00000010: 5403 07bd 6b53 153d ef5c 433d de46 46bd
00000020: d3b0 403d ee1f 01bd 1dea 613c 1598 7ebd
00000030: 9ff3 313d 3963 0fbd 8175 793d 07c6 c03c
00000040: 1850 f7bc 99b8 abbc a58b f43c f975 f03b
00000050: 3d4a c33c d757 16bd 17cf 123d 3141 3abc
00000060: f91c b13c d217 c9bc f2d5 273d 0f0a 183d
00000070: da47 453c afbb d4bc b8ea 3bbc a707 0abc
00000080: 9e18 993c 3f09 c1bc 28f5 1abd bb45 793d
00000090: 501c 52bc 9f00 ac3c 05f4 29bd 24dc dd3c
000000a0: 901d 85bd 36f7 1d3d 1e36 fd3b 26a8 d1ba
000000b0: 0a7d 06bd 1145 343d 1a07 c5bc 0436 b13c
000000c0: 4a4a febc 6738 793d dfff df3c 2ae9 653d
000000d0: b83d 1cbd d0ae 253d 3627 673d c343 dbbc
000000e0: ad5a 193d 205d 873c 297e a93c 2420 c8ba
000000f0: e60e a73c 2bb9 41bb e3cc 15bd c4b0 8337
00000100: c9ee 993b 837a 033d 7964 9cbc 98af 233d
00000110: 3575 59bc 6c3b 5f3d b6ce 733d 16e3 f13b
00000120: 0abc 0dbd db5e 8bbd 4bf1 f43c a908 053a
00000130: a1d0 e1ba b4c1 913d 91f9 833c e790 84bd
00000140: e979 88bd d6b9 78bd 3fcb 333d e465 913c
00000150: efe5 29bc 944a 9ebc a2e3 4abd b28b d4bc
00000160: 80b7 453d 36b4 253d 802c e839 12c2 22bd
00000170: c853 2c3c 6b01 05bd 1e57 b43c 766f 9d3c
00000180: 6c38 0c3d 5702 3e3d 7c78 883c c60c e5bb
00000190: f5cf 2cbd 0d3f 023d 24a9 1bbd ef67 96bd
000001a0: c9d0 b23c 5058 35bd 7acc b4bc 8d87 52bd
000001b0: e52c 37bc ead5 efba f04d 073c 4462 36bd
000001c0: 5027 0e3d 7b47 243c 0ee3 513d 7e3a 8a3c
000001d0: 7a6b 243c dc8e 63bd 25ef 8dbb 123d 06bd
000001e0: 1e74 063d 0059 2ebd 4271 9c3c 953a 133d
000001f0: d6b7 9a3b ca82 913c 098f 823c 3f20 033d
00000200: dd5b 1fbc 813d 50bd 6d4d 9abb 4d2c ae3a
00000210: 5cb1 353d b839 5fbd 2908 0ebd 4adf c9bc
00000220: 2598 473d 2da7 22bd bdd5 97bc 7b75 403d
00000230: b8d4 883c 7e2e a53d 0515 2ebd c5c8 3fbd
00000240: e195 33bc febf 143c 4a7a 363d 5d79 f5bc
00000250: 7447 65bd 2713 5bbc f0e6 1438 b871 6ebd
00000260: e9cd a3bd 8366 6ebb 172d 09bd 89fb 553d
00000270: 5176 053d de65 213d 9709 e1bc 47e2 8bbd
00000280: 1d9b 34bd 6306 aabc 3582 1f3d 83d1 693c
00000290: 6693 b5bc 506a 85bc cf5f 81bc 7e15 653d
000002a0: 1b03 193d e679 9dbb 3364 3cbd f6be 393d
000002b0: 22f5 be3c 5cf4 46bd 4d62 eb3c 82d5 86bc
000002c0: ab6c 26bd 3aa6 0d3d a075 303d 16e9 583c
000002d0: dcc6 a6bc 5542 e03c 24b0 41bd e313 7b3d
000002e0: ae81 abbc 774b 86bc d863 053d 9b7b 8dbd
000002f0: 058b 1d3d ea43 473c 5027 93bc e058 a63b
00000300: eae3 28bd 3bf0 1c3c 2ae7 92bd 0863 75bd
00000310: d7cc 6dba 9250 e4bb b0ef e93c eaf2 29bc
00000320: 2800 5a3d e88e 463d 169d 5a3d 7bfc 1bbd
00000330: d1c1 4d3d 60c2 c03c 89cf 4bba 2370 99bb
00000340: 6dde 33bd 7014 96bc 8545 6dbc dc0f 84bd
00000350: 72e5 66bd 6b2d 5fbd 3fc6 2f3d e783 0ebc
00000360: 8619 fc3c 008c 62bc 0fd1 01bd d916 2bbb
00000370: 8cb7 3dbd 0438 d63c 986a 073d 60be 1bbc
00000380: 4314 29bd f387 73bd eafb 863d f0af 6cbd
00000390: e626 073d 65c2 08bd 29a8 3ebd c597 193d
000003a0: 5e4c 1abc 5859 9f3b 919a 2f3d 3a24 333d
000003b0: 2e3e 6a3c 28de 9abd 8442 d9bc d243 e83a
000003c0: c5a1 4c3d cdec 133d aa5c 20bc 849a 24bc
000003d0: 9f95 af3c 4a19 d93c bbbc 7cbc 2a58 1f3d
000003e0: 388d b13d 3ba8 b03c 0c69 72bc 6b08 8c3c
000003f0: c0db f7bb b844 0d3d 6129 403c 7eb2 133a

model.4.weight f4 [256, 256]
0.117571704 0.00962285 0.02711116 0.0009958837 -0.035761856 -0.05137251 -0.010263063 -0.014787487
-0.10984173 0.031889763 0.023842225 -0.05847401 -0.13908024 0.028445782 -0.004455048 -0.01352542
-0.06195418 -0.07443899 -0.015631482 0.03996562 0.014387149 -0.07929877 0.041772295 -0.014202689
-0.012824198 0.025995992 0.06287628 0.036582887 0.00495277 0.031758413 -0.06476966 0.028630955
-0.015787212 -0.023946466 0.06653188 0.058211416 0.045032162 -0.06848272 0.057170883 -0.008731985
-0.04540632 -0.0061825165 -0.042452972 -0.02644968 0.010782939 -0.03496927 0.06630829 0.0038382718
0.040215887 -0.0009986069 -0.068161175 -0.087176554 -0.040748257 -0.024902951 -0.036076244 -0.16586892
-0.011010953 0.011928667 0.098994955 0.015141222 -0.011379304 -0.053272806 0.03115205 -0.2471805
-0.031206958 0.059718516 -0.04855219 0.030543873 0.067069836 -0.037127864 0.015156014 -0.08931894
0.033123937 -0.09405492 -0.083234295 0.064217046 -0.029123694 -0.056708924 0.0044963094 -0.06333289
-0.07762417 0.04677817 0.0867538 0.023558063 -0.018769173 -0.09624679 0.05423268 -0.03303241
-0.22352648 -0.10846425 0.020911377 -0.02257339 -0.07806603 -0.07562255 -0.04439931 -0.0966203
-0.025965579 -0.003386091 -0.06719325 -0.058683813 0.054429945 -0.07498759 0.041928153 0.035666134
-0.088403985 0.0307897 -0.013759392 0.02640273 -0.17649314 -0.025261628 -0.0071191434 0.060518164
-0.13934033 0.18426667 -0.06310638 0.0042061945 -0.009578703 0.06201184 0.04449872 0.03901991
-0.024665207 -0.1037793 -0.026926978 -0.05438975 -0.0048087477 -0.10169859 0.087715164 0.022683637
0.03746309 0.09911875 0.017832218 0.056565117 0.013261695 0.122562334 0.08203981 0.01287475
0.02554139 0.028993381 -0.22250673 -0.13541684 0.072299466 -0.0070631388 0.11070541 0.040128805
0.00417584 -0.023266016 0.047490437 -0.10068614 -0.11341712 -0.049584273 0.063498504 0.012417161
0.034298476 0.06499508 -0.044836145 -0.068620615 0.06364695 0.07877516 -0.13722242 0.080679104
0.032652147 -0.010525094 -0.03792057 -0.043451473 0.06161924 -0.027686061 -0.15246631 0.02657701
-0.005150157 -0.045581788 0.14455369 0.011457001 -0.0070192083 -0.08040388 -0.055888165 -0.07076956
-0.037636086 -0.016994216 -0.0063741105 -0.0071477336 -0.08671478 0.0019648806 -0.0558246 0.039489966
-0.16267833 0.02941794 -0.0668726 -0.044033997 0.0013111774 -0.100142494 -0.0068029324 -0.06209431
-0.14299059 0.022927977 -0.041778933 -0.011969678 0.068670936 -0.13367882 0.092284225 -0.04887743
-0.027687253 0.08300741 -0.024212528 -0.025086941 -0.08441513 -0.058286037 0.02911585 0.010043327
-0.028090188 -0.050534762 -0.07858706 -0.028983276 -0.052558698 0.07979589 -0.06236353 -0.07718351
-0.024138698 -0.0110095665 -0.04212793 -0.0021363492 -0.0050007785 -0.12686354 0.04888793 0.008344891
-0.06428491 -0.12738515 0.07344443 0.053631425 -0.011863753 -0.16656195 -0.0125698615 -0.08609866
-0.042515557 -0.037456363 0.019932836 -0.10347126 -0.099353544 0.06872226 -0.007642624 0.004475643
-0.04658393 -0.052683 0.15847269 -0.01794868 0.0349064 -0.03690776 -0.12170452 -0.03424175
0.012754998 0.034173496 -0.057988074 -0.036704604 -0.09043794 -0.010673198 -0.059567533 0.059237868
00000000: 6fc9 f03d 29a9 1d3c 3918 de3c 5088 823a
00000010: 067b 12bd fb6b 52bd 6826 28bc 3747 72bc
00000020: b3f4 e0bd d79e 023d c550 c33c 7282 6fbd
00000030: 0d6b 0ebe 2107 e93c a7fb 91bb b999 5dbc
00000040: abc3 7dbd 7873 98bd 980d 80bc fdb2 233d
00000050: 14b8 6b3c 6567 a2bd 6d19 2b3d 65b2 68bc
00000060: 961c 52bc 8cf5 d43c 47c5 803d f0d7 153d
00000070: d94a a23b 1c15 023d f5a5 84bd 778b ea3c
00000080: 2f54 81bc 612b c4bc de41 883d 186f 6e3d
00000090: a573 383d ab40 8cbd 042c 6a3d 9a10 0fbc
000000a0: fafb 39bd b596 cabb 2be3 2dbd 00ad d8bc
000000b0: edaa 303c f03b 0fbd a4cc 873d 848b 7b3b
000000c0: 6ab9 243d b0e3 82ba 1698 8bbd 9f89 b2bd
000000d0: a5e7 26bd 4601 ccbc afc4 13bd 8bd9 29be
000000e0: 4967 34bc 7570 433c debd ca3d e312 783c
000000f0: 4370 3abc 9634 5abd 9532 ff3c e31c 7dbe
00000100: bca5 ffbc 679b 743d a9de 46bd 2537 fa3c
00000110: e95b 893d 6313 18bd ee50 783c d9ec b6bd
00000120: f7ac 073d de9f c0bd be76 aabd 3a84 833d
00000130: d094 eebc 9e47 68bd c755 933b adb4 81bd
00000140: 6cf9 9ebd 779a 3f3d faab b13d d7fc c03c
00000150: cfc1 99bc 091d c5bd 1623 5e3d fe4c 07bd
00000160: 20e4 64be 8122 debd 564e ab3c d4eb b8bc
00000170: 15e1 9fbd ffdf 9abd 0ddc 35bd dde0 c5bd
00000180: c4b5 d4bc 2ee9 5dbb 9d9c 89bd 705e 70bd
00000190: eff1 5e3d 1893 99bd dbbc 2b3d a716 123d
000001a0: 260d b5bd ae3a fc3c 136f 61bc 8a4a d83c
000001b0: 9eba 34be 79f1 cebc b447 e9bb e5e1 773d
000001c0: 3baf 0ebe 67b0 3c3e eb3d 81bd 1ed4 893b
000001d0: feef 1cbc 2100 7e3d 4a44 363d 57d3 1f3d
000001e0: b00e cabc 3e8a d4bd f795 dcbc c9c7 5ebd
000001f0: b392 9dbb 5a47 d0bd 02a4 b33d 09d3 b93c
00000200: e672 193d c5fe ca3d df14 923c d3b0 673d
00000210: 9547 593c f601 fb3d 7d04 a83d 9ef0 523c
00000220: 2d3c d13c 8783 ed3c ced8 63be b6aa 0abe
00000230: be11 943d e771 e7bb 85b9 e23d 1a5e 243d
00000240: 7cd5 883b 5f98 bebc 5585 423d 8934 cebd
00000250: 3c47 e8bd e118 4bbd 810b 823d 5971 4b3c
00000260: 8f7c 0c3d 241c 853d 1ba6 37bd f788 8cbd
00000270: 5559 823d df54 a13d 0984 0cbe 163b a53d
00000280: 42be 053d 7271 2cbc 9952 1bbd 2cfa 31bd
00000290: 7564 7c3d e1cd e2bc 2120 1cbe 08b8 d93c
000002a0: a6c2 a8bb f8b3 3abd e205 143e 25b6 3b3c
000002b0: 6301 e6bb caaa a4bd fdea 64bd a2ef 90bd
000002c0: 4c28 1abd 7437 8bbc eadd d0bb 8937 eabb
000002d0: 8597 b1bd 3ac5 003b 56a8 64bd 3bc0 213d
000002e0: 2695 26be e4fd f03c 80f4 88bd fe5c 34bd
000002f0: d0db ab3a 8217 cdbd 22eb debb 9a56 7ebd
00000300: 206c 12be 74d3 bb3c 6320 2bbd 781c 44bc
00000310: 59a3 8c3d 1ae3 08be 83ff bc3d b333 48bd
00000320: 61d0 e2bc caff a93d 5a59 c6bc 2183 cdbc
00000330: d7e1 acbd 57bd 6ebd 5d84 ee3c c48c 243c
00000340: 651d e6bc 8afd 4ebd 41f2 a0bd 566e edbc
00000350: ca47 57bd 076c a33d e770 7fbd 6312 9ebd
00000360: 85be c5bc 7861 34bc 568e 2cbd fe01 0cbb
00000370: 92dd a3bb 84e8 01be b63e 483d 02b9 083c
00000380: cfa7 83bd 4171 02be 096a 963d a0ac 5b3d
00000390: 3060 42bc 378f 2abe d2f1 4dbc 7f54 b0bd
000003a0: cb24 2ebd d86b 19bd 304a a33c bde8 d3bd
000003b0: df79 cbbd 42be 8c3d fa6e fabb 6aa8 923b
000003c0: cace 3ebd 21ca 57bd aa46 223e 1c09 93bc
000003d0: 03fa 0e3d 972c 17bd 3840 f9bd 1441 0cbd
000003e0: 57fa 503c 82f9 0b3d e784 6dbd 9157 16bd
000003f0: 8737 b9bd a3de 2ebc 16fd 73bd 68a3 723d

model.4.bias f4 [256]
0.06428053 -0.06323532 0.032910217 -0.009158925 -0.006341099 0.042378634 -0.03683358 0.0625916
0.016588164 0.06861459 -0.019109067 0.021447672 -0.008872753 -0.020380884 0.013454736 0.05592022
-0.06674771 0.028281987 0.043237545 -0.023012286 0.010530969 0.032633085 -0.027181461 0.0360461
0.01791066 0.004826297 0.04693854 0.031220011 -0.0032417888 0.06946957 0.039451312 -0.030777069
-0.00824416 0.03201966 -0.025898704 -0.020131769 0.04026245 -0.05724145 -0.030418722 0.029722681
-0.027077837 0.06987254 0.03905501 0.008555267 -0.024819631 -0.01871182 -0.027940283 -0.030542247
-0.025911067 0.05954262 0.03067002 -0.01180401 -0.05526335 -0.08582695 -0.039846677 -0.0059672403
0.04677811 0.033489008 -0.026069121 0.0028941142 -0.012721108 -0.017958943 0.037086997 0.025328439
0.06616405 -0.04414627 0.07162205 -0.04100555 -0.0073249727 0.061737165 -0.017274017 -0.031174319
-0.05861845 0.00225246 0.073149 0.082825296 -0.019164601 -0.0073419744 0.025905225 0.07428902
0.054188263 0.026565164 0.029440291 0.049605396 -0.022234512 0.031622756 0.034750838 -0.009733251
0.035978578 0.053772707 -0.04923678 -0.064967 0.059084974 0.060902063 -0.08813227 -0.03695452
-0.0067221345 0.044164505 0.033770207 0.08121815 0.041341152 -0.023870166 0.026647013 -0.06108412
-0.028795082 0.07259785 0.059411142 0.04146976 0.054621957 0.045544825 -0.024875982 0.025494738
0.026222792 0.03397119 -0.027313361 -0.010372213 -0.024211511 0.047751132 -0.061867442 0.04665106
-0.08346419 -0.036163367 -0.022948531 0.059091486 0.00904476 0.03167356 -0.041693382 -0.027909359
-0.05961329 0.0165372 -0.033703096 0.06018119 0.03319187 0.008249968 -0.08051358 -0.05722712
-0.03270977 0.003057072 0.065107204 -0.069836706 -0.069093585 -0.0342958 0.051912703 0.029230006
-0.07990078 -0.0077671884 0.012361382 -0.030080399 0.010001515 -0.06393791 -0.027267316 0.03634206
-0.08255442 0.010813524 -0.045665428 -0.04346 -0.022787474 -0.011521255 0.00022089646 0.0058702924
0.009742286 0.046630763 0.027063016 -0.07392765 0.031650595 -0.029861543 -0.013798329 -0.0047194194
0.008776478 0.043890756 0.069330685 0.03842429 -0.007295602 0.042207934 -0.039689753 -0.053957306
-0.047442075 0.07775525 -0.029412227 0.06048209 0.012930613 0.056829482 -0.047714613 0.055574268
-0.031471524 -0.06254818 0.0040615955 -0.08808136 0.07094056 -0.004401283 -0.01796303 0.055000868
0.032704607 0.021988537 0.040750254 0.011783312 0.027302803 0.07115143 -0.052159943 0.04328876
-0.06344317 0.04048297 -0.007362631 0.038322717 0.006771322 -0.050932057 -0.04770271 -0.023999589
0.08016279 -0.032956246 -0.013043022 -0.045905266 -0.017395262 -0.007272884 -0.04229742 -0.052590076
-0.022010738 -0.004781049 -0.0046462608 -0.007873247 0.06283572 0.019602468 -0.051845793 0.007953819
0.053288657 -0.079856925 -8.518557e-05 0.042270374 -0.02509104 -0.07315954 0.05036308 0.032840528
0.050327986 0.05726088 -0.033457022 -0.04328644 -0.030388812 0.08552315 -0.015678344 0.038341377
0.004184389 -0.06689228 -0.00041809885 0.014602126 0.0729038 -0.0031467183 -0.028506452 -0.016996995
-0.015555641 -0.0015546066 0.01415453 -0.076993 -0.026363567 -0.014132072 -0.007991234 0.01636813
00000000: 83a5 833d 8581 81bd ddcc 063d 510f 16bc
00000010: fec8 cfbb 3895 2d3d cfde 16bd 0630 803d
00000020: e7e3 873c ce85 8c3d 9e8a 9cbc 07b3 af3c
00000030: 065f 11bc d0f5 a6bc 4171 5c3c 9a0c 653d
00000040: 06b3 88bd a0af e73c da19 313d 4384 bcbc
00000050: 168a 2c3c 45aa 053d a8ab debc 13a5 133d
00000060: 60b9 923c ea25 9e3b a042 403d 1cc1 ff3c
00000070: 3174 54bb 1046 8e3d b397 213d 3120 fcbc
00000080: 8312 07bc 0c27 033d 8529 d4bc 61eb a4bc
00000090: 3dea 243d 0376 6abd af30 f9bc fb7c f33c
000000a0: 57d2 ddbc 5619 8f3d 25f8 1f3d 642b 0c3c
000000b0: 8a52 cbbc 8849 99bc 05e3 e4bc bc33 fabc
000000c0: 7243 d4bc f6e2 733d b23f fb3c 9b65 41bc
000000d0: d35b 62bd 0ac6 afbd 4536 23bd d788 c3bb
000000e0: 679a 3f3d c52b 093d e98e d5bc 2eab 3d3b
000000f0: 326c 50bc a21e 93bc 89e8 173d 967d cf3c
00000100: 0481 873d b8d2 34bd 95ae 923d 70f5 27bd
00000110: 5306 f0bb 1ce0 7c3d 3d82 8dbc 4961 ffbc
00000120: e619 70bd 029e 133b 25cf 953d 4fa0 a93d
00000130: 15ff 9cbc f294 f0bb 3237 d43c d724 983d
00000140: 83f4 5d3d 309f d93c c42c f13c 072f 4b3d
00000150: 2725 b6bc dd86 013d e556 0e3d 3778 1fbc
00000160: 465e 133d c540 5c3d 81ac 49bd 6b0d 85bd
00000170: 1603 723d 7174 793d b17e b4bd 9f5d 17bd
00000180: 5a45 dcbb d7e5 343d a152 0a3d b455 a63d
00000190: 5755 293d 5e8b c3bc d64a da3c 5833 7abd
000001a0: aae3 ebbc 2eae 943d 1959 733d 32dc 293d
000001b0: 46bb 5f3d 368d 3a3d b7c8 cbbc 57da d03c
000001c0: 2ed1 d63c 6025 0b3d 45c0 dfbc 37f0 29bc
000001d0: 3857 c6bc b196 433d b768 7dbd 2f15 3f3d
000001e0: 46ef aabd 0a20 14bd 8ffe bbbc ea09 723d
000001f0: 7930 143c 23bc 013d aec6 2abd 2ba2 e4bc
00000200: 112d 74bd 0679 873c 420c 0abd 8d80 763d
00000210: 33f4 073d e02a 073c 4ee4 a4bd fc66 6abd
00000220: aefa 05bd 2859 483b ed56 853d 8c06 8fbd
00000230: f080 8dbd c179 0cbd 6aa2 543d c473 ef3c
00000240: 05a3 a3bd e683 febb 6587 4a3c 2b6b f6bc
00000250: 65dd 233c e1f1 82bd b55f dfbc 69db 143d
00000260: 4b12 a9bd 352b 313c ac0b 3bbd 1d03 32bd
00000270: ccac babc a5c3 3cbc 71a0 6739 955b c03b
00000280: 1c9e 1f3c e6ff 3e3d 42b3 dd3c 6167 97bd
00000290: 0ea4 013d 32a0 f4bc 6312 62bc 5ca5 9abb
000002a0: 37cb 0f3c cbc6 333d 3ffd 8d3d ca62 1d3d
000002b0: f20f efbb 3ae2 2c3d b991 22bd 5602 5dbd
000002c0: 9f52 42bd 253e 9f3d e9f1 f0bc 11bc 773d
000002d0: ecda 533c 08c6 683d 6670 43bd d8a1 633d
000002e0: 49e8 00bd 4319 80bd 2217 853b 0064 b4bd
000002f0: 4949 913d a338 90bb 3427 93bc 9748 613d
00000300: 44f5 053d 4e21 b43c bde9 263d cb0e 413c
00000310: 21aa df3c d7b7 913d aaa5 55bd 8e4f 313d
00000320: 7eee 81bd 79d1 253d 3a42 f1bb 48f8 1c3d
00000330: f7e1 dd3b 229e 50bd eb63 43bd c99a c4bc
00000340: 642c a43d 21fd 06bd 66b2 55bc 2907 3cbd
00000350: 8280 8ebc 5f51 eebb 0f40 2dbd b168 57bd
00000360: dd4f b4bc 59aa 9cbb a93f 98bb cbfe 00bc
00000370: 04b0 803d 5b95 a03c 415c 54bd bc50 023c
00000380: 3545 5a3d 078c a3bd a8a5 b2b8 b323 2d3d
00000390: ba8b cdbc abd4 95bd 8449 4e3d ca83 063d
000003a0: b824 4e3d 628a 6a3d 3b0a 09bd 1f4d 31bd
000003b0: f5f1 f8bc c326 af3d df6f 80bc d90b 1d3d
000003c0: 331d 893b d2fe 88bd 4734 dbb9 c13d 6f3c
000003d0: 964e 953d 2c39 4ebb 5d86 e9bc 483d 8bbc
000003e0: 16dd 7ebc f1c3 cbba 67e8 673c 82ae 9dbd
000003f0: 68f8 d7bc 358a 67bc aaed 02bc 7516 863c

model.6.weight f4 [16, 256]
-0.0799897 0.055985298 -0.09309008 -0.17060383 -0.05365518 -0.045653377 0.0700931 0.2947869
-0.012972681 -0.0890724 -0.015597139 -0.035771478 -0.06908085 -0.025163565 -0.36061355 0.0812083
-0.025786834 -0.1453312 -0.1528462 -0.033644117 0.058339078 -0.12115267 -0.15247208 0.098761044
0.046129443 -0.048978392 0.056616843 -0.035752412 0.012430095 -0.045701787 -0.018249042 -0.078646265
0.054813325 0.05080689 -0.048670728 0.08806905 0.039930873 0.21075119 -0.17462829 -0.17130624
-0.018179119 -0.076064445 0.045748193 0.11821071 0.009617199 0.026265403 -0.03032694 0.035697993
-0.03754544 0.105260335 0.02796289 0.05365498 -0.042033907 0.05973591 -0.031943288 0.056712963
-0.18020652 -0.0023009467 -0.02148284 0.42430437 -0.035351552 0.028332364 -0.048796453 -0.06832675
0.14099605 -0.120486155 0.059161108 0.10998692 -0.10996557 0.067517996 0.039915387 0.30104822
-0.04263704 -0.096520126 0.06543799 -0.028175354 -0.036942013 -0.018218694 0.08513904 0.29014736
0.30700043 0.06410818 0.019534752 -0.0071900305 0.1731912 -0.18580431 -0.12237692 -0.115171134
0.06736151 -0.055899832 0.035482436 -0.03799366 -0.05536576 -0.15981087 0.019477133 -0.20064683
0.010193983 0.107249126 -0.0044997167 0.028440623 0.025571456 0.0127033265 -0.04942457 -0.038071934
-0.24120562 0.05437036 0.038325284 0.11519714 0.012124321 -0.00655962 0.0072335475 -0.019575045
0.017593447 0.056982476 0.0049657635 -0.0049884696 -0.060207233 0.07084053 -0.042740416 -0.14323284
0.085407935 -0.3113567 -0.15426475 -0.031498663 -0.0635572 -0.09881077 0.06250401 -0.035250563
-0.0026729 0.1310353 -0.04526889 -0.04832273 0.045689154 -0.023836644 0.020026531 0.055669732
0.056317005 0.0920396 0.10483844 -0.13870043 0.051314212 -0.025945151 0.26309207 0.30835396
-0.042495366 0.0094128875 -0.24672063 -0.089412026 -0.102648035 -0.14846435 -0.058838725 -0.10353852
-0.029746879 -0.083738856 -0.057450436 -0.05656724 0.048512034 -0.0611299 -0.041472796 -0.13202082
-0.055746693 -0.022912716 -0.023739276 0.01034702 -0.0044572093 -0.013155986 0.041894965 0.05350283
-0.0365864 0.032674313 0.054405715 -0.020380862 0.0043188264 -0.14441887 -0.031704225 0.04779892
0.0022536262 0.026606565 0.033567246 -0.091430545 -0.0014505634 -0.1710557 -0.11380756 -0.059505153
-0.16576397 -0.07271506 -0.036319938 0.029320097 0.13391541 0.008458485 -0.015213457 -0.17189027
0.42480293 -0.026750833 0.017996833 0.040600494 -0.0131689925 -0.045912314 -0.037981357 -0.062918074
0.014600713 -0.11761946 -0.11208509 -0.11814475 -0.09024971 -0.058468614 -0.062312394 0.0017222724
-0.059834085 0.027053842 -0.059513446 0.024719149 -0.058932 0.012606795 0.03368369 0.05265883
-0.21207458 -0.035774596 -0.012919109 0.12447646 -0.05055351 0.019769104 -0.030440582 0.051071048
0.06312574 -0.04144722 0.26059908 0.018039335 0.06064113 -0.016289648 -0.11929479 0.08935621
0.119292654 -0.061586577 0.02367544 0.044466827 -0.12399763 -0.03287146 0.047480505 -0.0150619205
-0.08172615 -0.012672091 -0.03197682 -0.032706235 0.45781186 0.057142835 0.009009779 -0.08223165
-0.034453355 0.004777235 0.045523506 0.0656323 0.04978218 0.082738735 0.0052847303 -0.13527048
00000000: a4d1 a3bd d750 653d 03a6 bebd c5b2 2ebe
00000010: 89c5 5bbd 09ff 3abd f98c 8f3d 4fee 963e
00000020: 5e8b 54bc 976b b6bd 248b 7fbc 1d85 12bd
00000030: 437a 8dbd d223 cebc 57a2 b8be 8a50 a63d
00000040: e93e d3bc b4d1 14be b783 1cbe 6ace 09bd
00000050: f5f4 6e3d e41e f8bd a421 1cbe 3b43 ca3d
00000060: 3af2 3c3d 919d 48bd 10e7 673d 1f71 12bd
00000070: 99a7 4b3c cc31 3bbd 047f 95bc 4b11 a1bd
00000080: f083 603d e31a 503d f55a 47bd 8c5d b43d
00000090: 8e8e 233d 29cf 573e c2d1 32be e76a 2fbe
000000a0: 60ec 94bc adc7 9bbd 7562 3b3d 7518 f23d
000000b0: 7591 1d3c 8b2a d73c 3470 f8bc 0f38 123d
000000c0: 3fc9 19bd bb92 d73d 6e12 e53c 53c5 5b3d
000000d0: bf2b 2cbd a4ad 743d f7d6 02bd da4b 683d
000000e0: 0f88 38be 7bcb 16bb c8fc afbc 6c3e d93e
000000f0: cacc 10bd 4619 e83c cade 47bd e5ee 8bbd
00000100: 4561 103e 72c1 f6bd eb52 723d d340 e13d
00000110: a135 e1bd e046 8a3d 517e 233d fe22 9a3e
00000120: 2da4 2ebd 58ac c5bd 5a04 863d 00d0 e6bc
00000130: 8250 17bd 5f3f 95bc 615d ae3d 328e 943e
00000140: 292f 9d3e 264b 833d 5807 a03c 599a ebbb
00000150: 0959 313e 7c43 3ebe c0a0 fabd d8de ebbd
00000160: d5f4 893d 39f7 64bd 0856 113d 3d9f 1bbd
00000170: 35c7 62bd 76a5 23be 828e 9f3c 5d76 4dbe
00000180: aa04 273c 6ea5 db3d 5c72 93bb 4ffc e83c
00000190: 3b7b d13c 9d21 503c 6b71 4abd 51f1 1bbd
000001a0: 9bfe 76be 74b3 5e3d f9fa 1c3d 7aec eb3d
000001b0: 17a5 463c 15f2 d6bb 6507 ed3b d85b a0bc
000001c0: 2220 903c 7566 693d d8b7 a23b 5176 a3bb
000001d0: dc9b 76bd d714 913d 9310 2fbd a1ab 12be
000001e0: 5bea ae3d 256a 9fbe 94f7 1dbe be04 01bd
000001f0: 472a 82bd 4d5d cabd 1a02 803d e562 10bd
00000200: d22b 2fbb 1e2e 063e df6b 39bd 0eee 45bd
00000210: 8d24 3b3d 1145 c3bc ae0e a43c f205 643d
00000220: a9ac 663d 427f bc3d 89b5 d63d 7c07 0ebe
00000230: da2e 523d ed8a d4bc 01b4 863e 92e0 9d3e
00000240: 9f0f 2ebd 8338 1a3c 55a4 7cbe a71d b7bd
00000250: 2239 d2bd 0a07 18be e000 71bd 010c d4bd
00000260: baaf f3bc 477f abbd 2651 6bbd 0db3 67bd
00000270: 8eb4 463d 5963 7abd 61df 29bd 7730 07be
00000280: a556 64bd 73b3 bbbc df78 c2bc 8c86 293c
00000290: c80d 92bb 348c 57bc 0e9a 2b3d c925 5b3d
000002a0: 9fdb 15bd 80d5 053d 87d8 5e3d c4f5 a6bc
000002b0: f184 8d3b 8ae2 13be 4adc 01bd cdc8 433d
000002c0: 93b1 133b 03f6 d93c cf7d 093d f03f bbbd
000002d0: d520 beba 3a29 2fbe f013 e9bd adbb 73bd
000002e0: 08be 29be a2eb 94bd 37c4 14bd b330 f03c
000002f0: 1f21 093e 7595 0a3c dd41 79bc 0104 30be
00000300: c57f d93e 9024 dbbc 186e 933c b44c 263d
00000310: c2c2 57bc 8d0e 3cbd 5792 1bbd 31db 80bd
00000320: d437 6f3c 79e2 f0bd de8c e5bd e0f5 f1bd
00000330: d7d4 b8bd c97c 6fbd 483b 7fbd dfbd e13a
00000340: 9614 75bd 05a0 dd3c 5fc4 73bd d07f ca3c
00000350: ae62 71bd bb8c 4e3c e9f7 093d c9b0 573d
00000360: 142a 59be 6288 12bd acaa 53bc 84ed fe3d
00000370: 3311 4fbd d1f2 a13c 875e f9bc e02f 513d
00000380: 1148 813d 8fc4 29bd 3e6d 853e 3ac7 933c
00000390: d562 783d de71 85bc d450 f4bd 6300 b73d
000003a0: b54f f43d 3542 7cbd fff2 c13c d922 363d
000003b0: 78f2 fdbd 39a4 06bd eb7a 423d 46c6 76bc
000003c0: 0a60 a7bd 9a9e 4fbc 20fa 02bd f9f6 05bd
000003d0: 5166 ea3e 9b0e 6a3d c19d 133c 1169 a8bd
000003e0: f61e 0dbd 5a8a 9c3b db76 3a3d 3a6a 863d
000003f0: 66e8 4b3d ed72 a93d 882b ad3b 5884 0abe

model.6.bias f4 [16]
0.02807488 -0.035805438 -0.059141047 0.05397772 0.021956528 0.010087494 0.096300006 0.017361581
0.018361967 -0.06579375 0.040455032 -0.01154493 -0.063628756 0.03192529 0.0067781596 -0.0010167168
00000000: 4afd e53c b9a8 12bd e23d 72bd be17 5d3d
00000010: 2dde b33c 0446 253c f038 c53d e039 8e3c
00000020: d66b 963c e0be 86bd 2db4 253d f226 3dbc
00000030: cb4f 82bd 18c4 023d 531b de3b 5b43 85ba
