data/checkpoints/rlgym-ppo-run-1760498080835186700/141145224/PPO_POLICY.pt (torch, 638775 bytes, 8 tensors)

model.0.weight f4 [256, 89]
000000 eb b6 da bd ea c9 8d 3e bf 44 a7 bd 57 20 ea 3d
       -0.1067942 0.2769311 -0.08167409 0.114319496
000010 c2 0a 91 bc 84 9a 3c bd 6e 30 c3 bd 04 e6 8a bd
       -0.017705325 -0.046045795 -0.095307216 -0.06782153
000020 55 87 f9 bd 26 1f 95 3d 80 20 0a bd 2f 98 5b bd
       -0.12184016 0.07281332 -0.0337224 -0.05361193
000030 5a 1b bb bd d0 cc da bd 43 73 e6 bd 71 51 1b 3c
       -0.09136076 -0.10683596 -0.11252453 0.009479866
000040 49 62 87 bd 0a b0 93 3d ae 29 05 bd 35 59 df 3c
       -0.06610543 0.07211311 -0.032510452 0.027264217
000050 b2 fd 8c 3d 3c 69 6a 3c 2e 13 b2 3c 7c 19 c1 3d
       0.06884326 0.014307316 0.021737661 0.09428689
000060 c9 d4 6f bd d2 37 d9 3c 7e 58 62 bd 19 87 94 3d
       -0.058552537 0.026515875 -0.055260174 0.0725233
000070 66 f7 95 3d 68 95 d5 bd 1f cb b7 3d 40 41 30 3d
       0.07322578 -0.104288876 0.08974289 0.043030977
000080 9f 38 18 3d d9 25 08 3d 0d 8e 9c 3d eb 1b cc bc
       0.037163373 0.03323922 0.076442815 -0.024915656
000090 af 0f cb bd f1 0f e1 bc 02 13 ae bd 42 e4 f0 ba
       -0.09915101 -0.027473422 -0.08499719 -0.0018378573
0000a0 c3 ec a0 bc 4d 8e 74 bd c0 1e 81 bc 20 2f c1 3d
       -0.019644147 -0.05970602 -0.015761733 0.094328165
0000b0 fa ec 58 bc 5a 58 c7 bb 07 26 98 bc e3 f1 13 3c
       -0.013240093 -0.0060835304 -0.01857282 0.009029838
0000c0 25 00 ba 3d 59 6e 53 3d 79 4c 14 3d a9 50 1d 3e
       0.09082059 0.051618908 0.036205743 0.153628
0000d0 d7 3f a6 bc 5e 86 2d 3d 0c 59 8d bc c1 8c d5 bd
       -0.020294113 0.04236447 -0.017254375 -0.10427237
0000e0 af 45 aa be ca fa 89 3d a7 7a 23 3c 15 2c ca bd
       -0.3325629 0.06737287 0.009977973 -0.09871689
0000f0 87 29 db bd a6 b6 86 3d da c3 61 3c 05 22 b9 be
       -0.1070128 0.06577806 0.013779605 -0.36158767
000100 8f 5d c8 3c 7e d5 87 bd 69 f1 7f be b3 63 16 bd
       0.024458675 -0.06632517 -0.24994434 -0.036716174
000110 c7 1d 33 bd 53 6c 4c 3d 49 58 14 3e 7b 08 be 3d
       -0.04372957 0.049907994 0.14486803 0.09278961
000120 db 50 1e bd 82 65 8b bd 58 fe 30 3c c3 f8 11 3d
       -0.03865133 -0.068064705 0.010802828 0.03563763
000130 84 81 49 bc f1 31 5c bd 86 a3 9d bc 2f 77 e2 3d
       -0.012298945 -0.053758565 -0.019243013 0.11057889
000140 d3 e2 16 3d be 7a de 3d c2 ef 0e 3d bc e3 88 bd
       0.03683741 0.10863255 0.03489662 -0.06684062
000150 b8 7d 19 bd b2 ff 9d bd 35 bc 38 bd b3 f5 c0 3d
       -0.03747341 -0.07714786 -0.045101363 0.094218634
000160 a7 c4 91 3b e3 00 78 3d 23 b8 d6 bd c2 a9 01 3e
       0.0044484916 0.06054772 -0.1048434 0.12662414
000170 ea 61 7e 3d 85 c6 13 bd 7d 91 13 3e ef c4 b5 3d
       0.062105097 -0.036077995 0.14410968 0.08875453
000180 dc 4e 59 3e 64 7d ef 3d cd ad aa 3d c1 67 4f bd
       0.21221489 0.11693838 0.08333931 -0.050636057
000190 9a ce 7f 3d 32 23 82 bd cd dd 9d 3c 96 c0 fa bd
       0.06245289 -0.06354369 0.019270802 -0.12243764
0001a0 b8 ea 39 bd 7e 26 e6 bc 5b 69 66 3a 3e 5f b6 3d
       -0.04538986 -0.028094526 0.0008789503 0.08904885
0001b0 8c 0b 40 3d 79 d4 4e bb d9 2e 8a 3d 44 c3 7c bd
       0.046886012 -0.003155975 0.06747217 -0.061709657
0001c0 c1 da 49 3d cf 85 8a bc 21 28 c6 bc ad 63 8d 3b
       0.049280886 -0.016909508 -0.024189057 0.004314861
0001d0 58 fe b5 bd 37 a7 ec 3b 81 30 ed 3c a5 58 ab 3d
       -0.08886403 0.007222082 0.028953793 0.08366517
0001e0 c5 f1 12 bd 58 5b 11 3d dd ac d4 3d c6 d8 2e bd
       -0.0358751 0.035487503 0.103845336 -0.0426872
0001f0 d6 37 c6 3d 8e a3 67 bd 99 c4 07 3d ba 92 1b 3d
       0.096786186 -0.056552462 0.033146475 0.037981726
000200 d7 de c0 3c e2 3d 98 3d 31 17 4d bd 1b f7 b2 3c
       0.023543758 0.07433678 -0.050070945 0.021846345
000210 ee 6a d9 bb be 1c aa bd 51 c3 e1 bc 5e 99 b2 bd
       -0.0066350615 -0.083062634 -0.027558954 -0.08720659
000220 19 50 20 3d c8 67 a9 3a f3 14 f5 3b 0b 5c 2c bd
       0.039138887 0.0012924606 0.007479304 -0.042079967
000230 96 50 1e be f9 d0 eb bd c5 07 71 3d ac 29 76 3e
       -0.15460429 -0.11514468 0.0588453 0.24039334
000240 b5 01 6c 3d 89 75 a0 3c 8a 97 b0 bd e3 59 24 bd
       0.057618815 0.019587295 -0.08622654 -0.040124785
000250 b7 c1 2d bd c6 de 87 3c ad c0 ea bd fe af 85 bd
       -0.04242107 0.016585719 -0.11462531 -0.065277085
000260 78 79 b9 3d b8 0d 5d 3d 06 fe 65 3e 2e b7 8b 3e
       0.090563715 0.05396816 0.22460184 0.27288193
000270 8c 28 97 bc ca 9c b6 bc c6 ff d5 bd 39 6c 0b 3e
       -0.018451951 -0.02229156 -0.104491755 0.13615502
000280 82 35 e7 3d 05 fc bf 3d 6c 99 bd bd 47 a9 1d 3d
       0.11289503 0.09374241 -0.092577785 0.038491514
000290 57 34 87 3d bd df a5 3d 82 45 f2 3c 63 1d e1 3d
       0.0660178 0.08099315 0.02957416 0.10991933
0002a0 69 0c d2 3c 3a 36 a9 3d 70 69 3a bd f5 6b 6b bd
       0.025640683 0.08262296 -0.04551071 -0.057476003
0002b0 7d df c3 3c 6e 83 d2 bc d1 83 c0 bb 86 9e 3f bd
       0.023910278 -0.025697436 -0.0058750887 -0.04678204
0002c0 56 5c 66 bd 07 da af bd 2d 35 f0 3d be a3 6f 3e
       -0.056240402 -0.08586507 0.117288925 0.23402306
0002d0 37 d5 2c 3d 52 0c bf 3d c1 82 a3 3d 26 ec 39 bd
       0.042195525 0.09328522 0.07983924 -0.045391224
0002e0 bc 8f 2c be da 5b 46 39 d6 fb 3a 3d 45 c2 6f 3d
       -0.16851705 0.00018916969 0.045650326 0.05853488
0002f0 32 31 f9 3d 56 97 aa bd 06 44 e7 bc be 9a 9a bd
       0.121675864 -0.08329646 -0.028230678 -0.07549046
000300 a4 73 c0 bd b9 6d 8f 3d 50 af 77 bd 69 78 39 bd
       -0.09397057 0.0700335 -0.060469925 -0.045280848
000310 19 cd 2d 3d 1d e5 77 bd 56 27 cd 3d ea c3 08 3d
       0.042431924 -0.060521234 0.10017268 0.033389963
000320 36 46 ad bc 97 e5 75 3c de f4 bc 3c 24 ad e7 bc
       -0.021151643 0.015008352 0.02306598 -0.028280802
000330 b8 a0 97 bd d0 76 59 3c a5 32 83 3c 4c bb 51 3c
       -0.074037015 0.013272956 0.01601536 0.012801003
000340 b2 4f 2a bc a2 2f 99 3d 06 b5 ae bc c1 75 ae bb
       -0.010394977 0.07479788 -0.021326553 -0.005324096
000350 7a db 5d 3d 41 6d 6e bd 74 e4 22 3d 2e 59 b9 bb
       0.054164387 -0.05820966 0.03976865 -0.005656383
000360 63 1f 6c 3d 69 af 41 bd 57 9d 8c 3c 46 cf 93 3c
       0.05764712 -0.047286425 0.01716487 0.018043172
000370 c1 c7 9a bd ba 97 90 bd da 4a 4d 3d d8 c1 a2 bc
       -0.07557631 -0.070601895 0.050120212 -0.019867823
000380 72 0b 92 3d fd ea ca bd 07 0a 2c bd 00 40 9e bd
       0.07131089 -0.09908102 -0.04200175 -0.07727051
000390 b8 81 51 3d 66 ff a3 3d 1f 05 bf bd 4e 7d ab bd
       0.0511491 0.08007698 -0.09327149 -0.08373509
0003a0 54 c6 4e be 99 0e 45 3d 47 93 93 bc a6 86 a7 bd
       -0.20192844 0.048109625 -0.018014563 -0.08179979
0003b0 9c b6 40 3d b6 61 d0 3c ba b8 63 bd e3 e6 b1 3d
       0.04704915 0.025437217 -0.05559609 0.08686616
0003c0 2d 2e 8e be 8e 62 66 3c c0 0f 79 be 09 27 7b 3e
       -0.27769604 0.014061583 -0.24322414 0.2452661
0003d0 a8 b1 51 3e 06 b8 26 3e 7d 64 80 bd 05 53 1a bd
       0.20477927 0.16281137 -0.062691666 -0.03767683
0003e0 35 4d 44 bb 70 12 78 3d 70 82 22 3d b7 35 ca bd
       -0.0029953246 0.06056446 0.039675176 -0.098735265
0003f0 d8 27 9d 3d 50 75 41 bd 3c 42 c3 bc 62 72 3d bd
       0.07673615 -0.04723102 -0.023835294 -0.046251662

model.0.bias f4 [256]
000000 5d b8 29 bd eb 83 c3 3c 6c 57 0e bd 0e ed 36 bc
       -0.04143559 0.023866614 -0.03475134 -0.011164917
000010 91 ee 87 bd c0 e7 31 bd 0d d9 8a 3d 40 93 b7 bd
       -0.066373 -0.043433905 0.067796804 -0.089636326
000020 6f d2 13 3d 28 ab ab 3c 6f cc 3b 3d fd 13 d1 3c
       0.036089357 0.020955637 0.04584926 0.025522226
000030 43 21 0e 3d 6a 14 36 3c 57 04 c9 3d 61 64 93 3d
       0.03469969 0.0111132655 0.09815281 0.0719688
000040 5a de 55 3d c6 24 3a 3d 7c c1 5b 3d 75 ee e2 3d
       0.052214004 0.045445226 0.053651318 0.11080638
000050 b7 85 f4 3c 66 ef 19 3c 21 fe 22 bd 77 0d d7 3b
       0.029848916 0.009395456 -0.039793137 0.0065628844
000060 64 36 5e 3d fa f0 e2 bd dd 46 ca bd 51 29 bd 3d
       0.05425109 -0.11081119 -0.09876797 0.09236396
000070 26 a6 b0 3d e4 5e b6 3d 44 5b a3 bd 7c 43 b9 3d
       0.0862544 0.08904818 -0.07976392 0.09046075
000080 df f6 89 bd 26 e5 9b bc 86 d1 8e bd 73 7c 14 3c
       -0.0673654 -0.019030165 -0.06973557 0.009062874
000090 24 0c 92 bd 5f 04 1b 3c a7 59 b8 3d 87 55 b8 3b
       -0.07131222 0.009461491 0.09001475 0.00562543
0000a0 a3 21 16 3d 06 d8 88 3c 00 ad e4 3c 28 68 29 bd
       0.036653172 0.01670457 0.027914524 -0.041359097
0000b0 01 bf a3 3d e6 26 62 3d 78 fe cc 3c 00 3b 35 bd
       0.079954155 0.055212878 0.025023684 -0.04424572
0000c0 c2 1e 11 3c 6d 90 40 3c 9d 1e 9b 3d 72 b8 9b bc
       0.008857431 0.011753184 0.075741984 -0.019008849
0000d0 5d c7 5c bd 55 53 9c bd 13 90 85 bc 82 ef 61 bd
       -0.053901065 -0.07633082 -0.016304052 -0.055160053
0000e0 cd 10 b9 bd 2a ca a0 bd 98 6a 97 3c a2 bd d3 3a
       -0.090364076 -0.0785106 0.018483445 0.0016154537
0000f0 5a 3a ee bc a3 53 e9 bd 18 a4 44 3c 23 bc 9b 3d
       -0.029080559 -0.113929056 0.012002014 0.076042436
000100 bc c9 6a bd 9a d8 bd 3d 26 ce da bc 6b bf 90 3d
       -0.057321295 0.09269829 -0.026709627 0.0706776
000110 d1 57 d1 bc 9d 7d d4 bd e1 77 72 bd a5 75 0c 3d
       -0.02555457 -0.10375521 -0.059196357 0.034291882
000120 cf f9 74 3d d7 95 ed bd 21 50 96 3d 35 73 ea 3c
       0.05980855 -0.11600845 0.07339502 0.028619388
000130 87 1b 4a 3d b5 02 b2 3b ad 98 5b bd 15 ea b6 3d
       0.04934266 0.0054324516 -0.0536124 0.08931366
000140 d3 b8 d0 bb 5e 7e fb bd 1b f6 df 3a 4b be 9d bd
       -0.006369689 -0.12279962 0.0017086895 -0.07702311
000150 aa cd 4b bd 22 58 b2 bd 3b ee f0 3c 6f db c6 bd
       -0.049756683 -0.08708216 0.029410472 -0.097098224
000160 da de 83 bd f0 35 06 bd 71 d7 9f bd c2 79 c2 bd
       -0.0643899 -0.032766283 -0.07804764 -0.0949588
000170 8e 97 7f bd 02 98 50 bd 2b c9 e7 bd a0 dd a5 bd
       -0.062400393 -0.050926216 -0.113176666 -0.08098912
000180 c5 a1 b1 bd c5 8e 8a 3d e6 96 c3 bd 86 5c f6 3c
       -0.08673433 0.067655124 -0.09550266 0.030073415
000190 7b 77 43 bc 57 04 a4 bd 60 90 f6 bc 77 01 42 3c
       -0.011930342 -0.0800864 -0.03009814 0.01184117
0001a0 dc 92 d2 3d f1 7f 09 bd 50 44 b4 3d 56 c7 50 3d
       0.102819175 -0.03356928 0.08802092 0.05097135
0001b0 ea 72 16 3d c1 57 8e 3c 28 a0 3b bd b5 8b 8f bb
       0.036730684 0.017375829 -0.045807034 -0.004380668
0001c0 85 0e 37 bd b5 e3 0b 3d 23 2c 96 3d fb 7b 53 3d
       -0.04469158 0.034152705 0.07332637 0.05163191
0001d0 67 7e 6b bd 96 85 6e 3c 30 6c 7d 3d 0d ea 81 3d
       -0.057493594 0.014558217 0.061870754 0.0634347
0001e0 87 94 b9 bc b1 c3 a3 3d a9 62 a6 bd 14 9c c2 bd
       -0.022653831 0.079963095 -0.08124287 -0.09502426
0001f0 46 9d a9 bd fb 76 5c 3c 98 be 04 bd dc a4 5d 3d
       -0.08281951 0.0134561015 -0.032408327 0.0541123
000200 c4 6d 1c 3c 5a cb 8b 3c 6f 24 69 3b f5 1c 3a 3d
       0.009547655 0.017064739 0.0035574695 0.04543777
000210 a5 a8 67 3d 90 9e 83 3d 10 18 6f 3b 92 87 89 3d
       0.056557316 0.06426728 0.0036482848 0.06715311
000220 13 a4 b9 3d 67 31 b4 3b 3e 89 04 3c 34 1c 46 bd
       0.09064498 0.0054990533 0.008089362 -0.04836674
000230 a9 62 e0 3d b3 fb 93 3c f9 c3 d9 bd ed c8 25 bd
       0.10956318 0.018064355 -0.10633082 -0.04047482
000240 d5 11 28 bd 15 6c b1 bc 0f 24 aa bd be 3d 2a bd
       -0.04103263 -0.021657983 -0.08307659 -0.04156279
000250 d2 5c c8 bd e4 7e 83 bc 69 10 d2 bd 3b af 47 3d
       -0.09783329 -0.016051717 -0.10257036 0.048751097
000260 c6 34 1e bc 09 68 af bd 11 a2 b5 3c 53 70 5b 3d
       -0.009656137 -0.08564765 0.022172006 0.053573918
000270 54 e8 07 bd 24 43 b5 bd 30 e0 dd 3d 5c 64 47 bd
       -0.03318055 -0.08850697 0.10833776 -0.048679695
000280 33 64 e2 3c fb 3b a8 bd 8b 21 a9 bd 7d b4 59 bc
       0.02763567 -0.08214565 -0.08258351 -0.013287661
000290 61 ac 2c bd 46 ea 44 bd 38 19 c4 bd f7 b6 2f 3d
       -0.04215658 -0.048074983 -0.095751226 0.0428991
0002a0 f9 15 ee bd 92 f2 3a bd ad 85 a6 bd 60 1c de bd
       -0.11625285 -0.04564149 -0.081309654 -0.10845256
0002b0 3b 5f d9 3c 99 04 76 bd 6d 38 34 3d 04 ad c8 bd
       0.026534667 -0.06006298 0.043999124 -0.09798625
0002c0 fc a3 88 bd 81 26 1b 3d 38 a6 a5 3c 8a 69 c3 3d
       -0.066719025 0.037878517 0.02022086 0.09541614
0002d0 92 a5 59 3d f9 e7 9b bd 46 04 4a 3c 14 0f e9 3c
       0.053136416 -0.07612605 0.01233012 0.028449573
0002e0 ab 3c 8c bc c0 09 b5 3d 6e 8e 67 3d 81 cc 61 3d
       -0.017118772 0.0883975 0.056532316 0.05512667
0002f0 c6 ad bf bd bf a0 08 bd 99 4c db bd ca 18 47 bd
       -0.093593165 -0.033356424 -0.10707969 -0.048607625
000300 41 60 e3 3c a6 ae 5e bd 30 8c d4 3d bb 43 16 bc
       0.027755858 -0.054365776 0.10378301 -0.009171422
000310 8a 9a 29 bc 02 73 e0 bc 14 36 b4 bd 47 be 8e 3c
       -0.010351786 -0.02739859 -0.08799377 0.017424716
000320 92 6e ab 3d 7a 73 b0 3d 00 36 ba 3c bc c8 22 3d
       0.08370699 0.086157754 0.022730827 0.039742216
000330 09 e0 18 bd d0 32 89 3b 59 d6 b6 3d 9a 61 1a bd
       -0.03732303 0.0041869655 0.08927602 -0.037690736
000340 3d 2b 78 3d 41 e3 95 3d d0 f6 d4 3c 8c a9 dc bd
       0.06058811 0.07318736 0.025996596 -0.10774526
000350 8d d3 81 3d 1c a4 e1 bd e7 c0 07 3d bf 4b 49 3d
       0.06339178 -0.110176295 0.03314295 0.049144503
000360 ee a1 b1 bd 8b f9 b9 bd b1 16 ab bd c6 a4 9b 3d
       -0.08673464 -0.090808 -0.083539374 0.075997874
000370 d4 b4 7c bd 93 4f 92 bd 1d 84 8d bc fd 26 8d 3c
       -0.06169589 -0.07144084 -0.01727491 0.017230505
000380 33 e9 26 bd ae 89 93 bd 3e 6a b4 bd cd d1 0c 3d
       -0.04074974 -0.07203995 -0.088093266 0.03437977
000390 56 9e 51 bd 94 52 9e bd 9b 1c 85 bd 41 bd b6 bc
       -0.05117639 -0.07730594 -0.06499597 -0.02230704
0003a0 20 c7 59 bd 87 d8 12 bc 5b 6c f7 3b 70 bf ba 3d
       -0.053168416 -0.008962757 0.007550759 0.09118545
0003b0 b5 e6 b2 3d 49 dc fc 3c da 69 68 bd b1 85 e9 3c
       0.0873541 0.030866759 -0.056741573 0.028506132
0003c0 80 f4 77 bd 20 fc 9a 3d 94 05 2e 3c 91 11 af bc
       -0.060535908 0.0756762 0.010621447 -0.021370681
0003d0 9f c8 b1 3d 70 87 14 bc b0 c0 23 bd ad 82 1b 3c
       0.086808436 -0.009065494 -0.039978683 0.009491605
0003e0 d6 22 d6 3d 8a 35 c0 bd 43 c3 20 bd 3f 62 42 bd
       0.10455863 -0.09385212 -0.039248716 -0.047456976
0003f0 fb a4 7b 3d 71 f3 e2 3d 20 ad aa 3d 43 cd 9e 3d
       0.061436635 0.11081589 0.08333802 0.07753994

model.2.weight f4 [256, 256]
000000 56 55 fb bd 03 70 57 3d 1a 5c 45 bd fb 68 ea 3b
       -0.12272136 0.052597057 -0.048183538 0.007153628
000010 e1 9a 66 bd 43 f8 55 3d c7 1a 61 bd 40 ed 04 bd
       -0.056300048 0.052238714 -0.054957177 -0.03245282
000020 23 b4 b3 3c f1 5a 9e 3d e2 41 0c bd 92 34 1c bc
       0.021936482 0.077321894 -0.03424252 -0.009534018
000030 81 64 0a be a3 e0 84 bd 3e c4 4c bd 3a 3e d8 3c
       -0.13514902 -0.064881586 -0.04999184 0.02639686
000040 60 e4 6e 3b da 17 9c 3c 4c bb 8d 3d 6a 91 42 bd
       0.003645204 0.019054342 0.0692049 -0.04750196
000050 6d 5f db 3c 26 2f 92 bd 24 20 40 bd 6f f6 67 bd
       0.026778901 -0.07137899 -0.04690565 -0.0566315
000060 58 ae 41 bd 12 03 0e bd 4f 92 fd bc 4c e7 0e bd
       -0.047285408 -0.034670897 -0.030953554 -0.03488855
000070 3e 78 d3 3c 43 3e c9 3b 09 11 81 3d ec ab 8a 3d
       0.025814172 0.0061414554 0.06302077 0.06771073
000080 8e 81 7b 3c 84 6d 27 3d e7 8a 8b bd b0 a7 ac 3c
       0.015350712 0.040875927 -0.06813603 0.021076053
000090 ab 14 30 3d 7f 59 46 bd 1c 23 b3 bc 49 73 9a bd
       0.04298846 -0.048425194 -0.021867327 -0.0754152
0000a0 bb d8 31 bd 8d cd c2 bd f1 db 77 3d bb 61 81 3b
       -0.04341958 -0.09511862 0.060512487 0.003948418
0000b0 4c b6 3e bc 06 ea af bd 5d f6 c4 3b 79 f1 c0 3c
       -0.011640143 -0.08589558 0.006010814 0.023552643
0000c0 d0 1e 82 bc 11 b8 ed bc 50 a8 81 3c 14 9e 1e bd
       -0.015883833 -0.029018434 0.015827328 -0.038724974
0000d0 47 da 3e 3d d9 4d 03 3c 50 b6 76 bd d4 61 5b 3d
       0.046594884 0.008014166 -0.06023246 0.053560093
0000e0 c2 3c e0 bc 7d d7 64 3d 6c eb bc bd 09 ad 99 3d
       -0.027372722 0.05586957 -0.09224591 0.07503707
0000f0 b6 8b f7 bc e8 4b 6f 3d c6 dc ad 3c f0 d4 bd 3d
       -0.030217987 0.058422 0.021223437 0.0926913
000100 df 52 8b bd da 39 2a bc 0c 1f c2 3d 99 d8 10 3d
       -0.06802916 -0.010389769 0.09478578 0.035362814
000110 07 1f 21 3d 6a 63 83 bc 7f 9f 9c bd 56 16 2b bc
       0.03933623 -0.016038615 -0.07647609 -0.010442337
000120 c5 2c 92 bc 3a f3 3c 3d f3 4a 8b bd 45 7d 72 3d
       -0.017843613 0.046130396 -0.06801405 0.059201498
000130 6a 82 7b 3d ab df 3e be f6 a0 8d 3d e3 85 8e bd
       0.06140367 -0.1864001 0.069154665 -0.069591306
000140 50 77 57 3d 3c 3d 59 bd a4 85 a1 3b f0 12 40 bd
       0.05260402 -0.053036913 0.0049292613 -0.04689306
000150 4a 19 80 3c 98 ae 57 3d c8 1c 24 bd 03 f6 24 bd
       0.015637059 0.05265674 -0.04006651 -0.040273678
000160 a5 d1 f8 bc 18 6e 73 3d 35 9f 07 bd 3d bf c4 3b
       -0.030373404 0.059431165 -0.033110816 0.0060042427
000170 2d 05 99 bd a3 cf f9 bc af bf 1b bd 09 68 0f 3d
       -0.0747169 -0.030494517 -0.0380246 0.035011325
000180 0d d8 f7 3c e7 c4 f3 bd 8c 6d 8f bb eb fc 04 3d
       0.030254388 -0.119027905 -0.0043770727 0.032467764
000190 e4 17 99 3c a8 e1 9b bd 60 05 dd 3c 64 8c 2b 3d
       0.01868815 -0.076114 0.026980102 0.041881934
0001a0 90 6a fa bd e0 e1 1e 3c df e9 b6 3b 27 28 a5 3a
       -0.122273564 0.0096974075 0.005582079 0.0012600467
0001b0 cc c6 62 3d 7d 03 41 3d fb 02 ab 3d 69 54 f0 bc
       0.05536537 0.047122467 0.08350178 -0.029337125
0001c0 3e a4 96 bd 24 7d 54 3d 1d 0c 9a bd 06 ec 8b bd
       -0.073555455 0.051877156 -0.07521842 -0.06832127
0001d0 b6 79 91 3d 92 80 72 3e d2 24 1f 3d 87 0c 76 3c
       0.07103293 0.23681858 0.038853474 0.015017635
0001e0 ca c2 ef bc f0 da 9b bd db cc 9f 3d 1d c0 46 3d
       -0.029267687 -0.076101184 0.07802745 0.048523057
0001f0 e6 a3 23 bd ab 7d a5 3d f8 73 8c bc ba 92 09 bd
       -0.039951228 0.0808061 -0.017145142 -0.033587195
000200 d8 0d be 3b 3d 5f 6e 3d 3e 45 38 bd cd 70 a4 ba
       0.00579999 0.058196295 -0.04498791 -0.0012545824
000210 7c 06 25 bd 1f 1a 7f 3d ee e7 5b 3d 08 27 a0 3c
       -0.040289387 0.06228077 0.053687982 0.019549862
000220 9b 3f e5 bc 4c 31 cc 3d c3 de 5a 3c aa b2 0d bd
       -0.027984431 0.0997034 0.013358775 -0.034594215
000230 c4 a5 86 bc da 6d 93 bd 6f 77 0a 3d 90 8c ee bc
       -0.016436465 -0.07198687 0.033805307 -0.02911976
000240 55 51 bd 3b 66 49 53 bd 49 b5 f5 bc b1 2d b4 3c
       0.005777518 -0.05158367 -0.02999367 0.021994444
000250 3f 26 5d 3d 53 91 69 bd 73 0e 79 bc 84 06 84 bd
       0.053991552 -0.057023358 -0.015201199 -0.06446555
000260 94 49 40 bd 7f ad a1 bc 24 27 69 bb 9e 53 90 3d
       -0.04694517 -0.01973605 -0.0035576308 0.07047199
000270 cd a5 f9 bc 1f d5 b2 bd c1 0d b5 3d 95 eb 47 bd
       -0.030474568 -0.08732056 0.08840514 -0.048808653
000280 e7 2a 82 bd 38 20 33 be 75 e6 ea 3c 32 3a bb 3c
       -0.06355839 -0.17492759 0.028674344 0.022854898
000290 0f e5 b8 bd 80 76 70 bd 78 a4 1b be ee ee 03 bd
       -0.090280645 -0.05870676 -0.15199459 -0.032210283
0002a0 0f f9 36 3c 5e e7 03 be 71 0b 80 bd 96 6b 61 3d
       0.011167779 -0.12881228 -0.06252182 0.055034243
0002b0 8b fa 8c 3d be 59 52 3d 7f f1 8d 3d 79 a1 7d bd
       0.06883725 0.051355116 0.06930827 -0.06192157
0002c0 a2 82 0f 3d 97 cb 03 3d a7 d3 c5 3b 33 c7 16 bd
       0.03503669 0.03217658 0.006037194 -0.036811065
0002d0 ac 2a 2c bd 86 e1 22 bb 13 d9 67 bd 45 72 07 be
       -0.042032883 -0.002485366 -0.056603502 -0.13227184
0002e0 5e a0 a6 3b 8f 92 00 bd a9 d9 5f 3d b5 0f 42 bc
       0.005085035 -0.03138977 0.054650936 -0.011844565
0002f0 3a 1d a0 3d 2b 95 08 bc 84 4a 9c bc 66 d3 58 bd
       0.078180745 -0.008336346 -0.0190785 -0.05293598
000300 59 81 93 3d 4d 02 2f 3c 3f c6 0c be 91 07 6b bd
       0.072024055 0.010681701 -0.137475 -0.057380263
000310 8f 59 91 bd 11 7f e6 3c 88 38 11 bd 64 5d 98 3c
       -0.0709716 0.028136762 -0.035454303 0.01859922
000320 d7 a1 0a bd 9f f1 75 3d b5 b8 50 3b 1f 92 49 3b
       -0.03384575 0.06004488 0.0031848375 0.003075726
000330 52 aa ab 3d 17 01 1f bd b6 df 50 3d b0 64 33 3d
       0.083820954 -0.0388194 0.050994597 0.043797195
000340 17 3f 12 3c e9 86 8c bc 7f a9 44 bd e1 e5 64 3d
       0.008926175 -0.017154174 -0.048013207 0.055883292
000350 10 fb c6 3d f9 c1 aa 3c db ee d9 3c c2 08 85 bb
       0.09715855 0.020844446 0.026603153 -0.004059882
000360 10 3e f9 bd 7b 04 07 bd 4c d4 c3 ba 92 38 9e 3c
       -0.121700406 -0.032963257 -0.0014940589 0.019314084
000370 71 5e 17 3d e8 5c 40 bd 21 fb f6 39 27 86 bc bd
       0.0369553 -0.046963602 0.00047107882 -0.09205275
000380 53 ce 88 3c 14 2c 14 bd 81 94 90 3c ba 97 a6 39
       0.016699946 -0.03617485 0.017648937 0.00031775032
000390 54 73 d8 bd d7 e9 4b 3b 62 e9 a6 3a d8 38 47 bc
       -0.10568872 0.0031114721 0.0012734348 -0.012159549
0003a0 cb f1 36 be 59 36 27 3c 2e 0d c8 bd 1e d4 6b 3d
       -0.17865674 0.010205829 -0.09768139 0.057575338
0003b0 ac 89 21 bd 1f e7 d7 bd 60 d8 ce bd b3 fb 85 3c
       -0.039437935 -0.1054213 -0.10099864 0.016355371
0003c0 4a c1 40 3c 04 df 85 3d 58 8d 65 bd 01 e2 21 3d
       0.011764834 0.065366775 -0.056043 0.039522175
0003d0 a1 4f f5 b9 84 7a 9f 3c 59 69 90 3c 91 16 aa bd
       -0.0004678937 0.0194676 0.017628359 -0.083050855
0003e0 90 d7 e2 3c 9a 4e da 3c 0e 38 bd 39 fc 1e 6c bd
       0.027690679 0.026648808 0.00036090653 -0.057646737
0003f0 62 bd 58 3d 5f 3a 42 39 fa 01 09 3d 2a 03 61 bd
       0.052914985 0.00018523027 0.03344915 -0.054934658

model.2.bias f4 [256]
000000 9e 1d 1e 3d 6b cf 62 3d 19 0e 79 bd 97 02 e1 bc
       0.038602464 0.05537359 -0.06080446 -0.027467055
000010 7a 8c 07 bd 18 92 20 3d c1 ab 3c 3d 91 ab 3a bd
       -0.033092953 0.039201826 0.046062235 -0.045573775
000020 fe fc 4f 3d b9 72 ba bc 8a 58 9c 3c 1d b6 6f bd
       0.05077838 -0.022759782 0.019085187 -0.058523286
000030 13 7b 56 3d 79 dd c7 bc 1e bc 6a 3d 8e 5f d8 3c
       0.052363466 -0.024397599 0.05730831 0.026412752
000040 e5 9a d9 bc d4 0f 84 bc 0a a8 07 3d 80 71 18 3c
       -0.026563117 -0.016120829 0.03311924 0.009304404
000050 a0 2a ad 3c 60 64 d1 bc 1e d2 04 3d 3e bf 07 bc
       0.02113849 -0.025560558 0.032426946 -0.008285342
000060 6b c9 c4 3c 86 77 a4 bc 37 21 29 3d 47 5c 38 3d
       0.024021825 -0.020076524 0.04129144 0.045009878
000070 84 ef 9d 3c 87 b2 ee bc db 93 0e bc 81 c2 93 bc
       0.019279249 -0.029137863 -0.008702244 -0.018037083
000080 17 09 a2 3c 22 12 b7 bc 23 63 18 bd 47 f1 7f 3d
       0.019779725 -0.022347514 -0.03720392 0.06248596
000090 8d b0 9f 3b f1 51 c9 3c a9 26 12 bd 26 ce 2f 3d
       0.0048733414 0.024575206 -0.0356814 0.042921208
0000a0 68 ae 84 bd 6a bb 0b 3d 11 aa dc 3a ee d9 9c b9
       -0.06478578 0.03411428 0.0016835352 -0.0002991701
0000b0 41 f4 dd bc 52 3f 44 3d 9d 96 a5 bc 7c e8 d4 3c
       -0.027094008 0.04791195 -0.02021342 0.025989763
0000c0 f3 31 80 bc e4 78 8b 3d 87 b3 ce 3c b9 2f 82 3d
       -0.015648818 0.068101674 0.02523209 0.063567586
0000d0 11 d5 2b bd ae 1a 4c 3d 1b e1 81 3d 23 f3 cd bc
       -0.041951243 0.04983013 0.063417636 -0.02514035
0000e0 96 57 22 3d ef 7e 7d 3c 0c 13 e6 3c bb 90 aa ba
       0.03963431 0.015472158 0.028085254 -0.0013013104
0000f0 44 d9 99 3c 8c cd 53 3b e9 d7 16 bd c5 d8 29 3b
       0.018780358 0.003231856 -0.036827 0.0025916558
000100 99 cd a3 3b e3 1f 24 3d 02 12 8a bc 8c 20 25 3d
       0.0049988744 0.040069472 -0.01685429 0.040314242
000110 82 d1 64 bc 98 47 62 3d aa 41 85 3d e7 89 4d 3c
       -0.013965966 0.05524406 0.06506665 0.0125450855
000120 65 01 1a bd c0 09 51 bd cc f6 20 3d 3a a3 45 bb
       -0.037598986 -0.05103469 0.039297864 -0.0030157105
000130 bc 8e 0e 3b 42 18 93 3d 98 03 99 3c 9c 1e 81 bd
       0.0021752557 0.07182361 0.018678471 -0.063046664
000140 7c 1a 2f bd 20 d9 6c bd 06 df 3f 3d ea ff 10 3c
       -0.042749867 -0.057824254 0.04684355 0.008850077
000150 f2 9a e1 bb c4 b6 a3 bc 2f fa 57 bd 04 57 ca bc
       -0.006884926 -0.01998461 -0.052728828 -0.024699695
000160 c5 28 53 3d 5d c4 30 3d a3 d2 fc 3a d9 ef 38 bd
       0.051552553 0.043156017 0.0019288849 -0.04515061
000170 d6 c2 b6 3b 24 c9 c8 bc d4 bd d4 3c 8c d3 b4 3c
       0.0055774255 -0.024509974 0.025969423 0.02207353
000180 14 4b 1a 3d 3f af 18 3d af d4 6e 3c 0d 5d bb 3b
       0.037669256 0.037276503 0.014577075 0.0057178796
000190 8e 46 2b bd 3c ce 0b 3d 7d 75 22 bd be 3e 93 bd
       -0.041815333 0.034132227 -0.039662827 -0.071897015
0001a0 51 8e 20 3d 00 1c 3c bd a7 f8 6c bc 35 cc 67 bd
       0.039198224 -0.04592514 -0.01446358 -0.05659123
0001b0 fb dd bc ba b5 ea 3d 3c 7c 09 b8 3b 0d 7c 4b bd
       -0.0014409417 0.011591603 0.005616365 -0.04967885
0001c0 8f 9f 0f 3d 04 73 1b 3c 22 77 6b 3d 32 02 b6 3c
       0.035064276 0.009487871 0.05748666 0.022217844
0001d0 7f 91 ad 3c fa e4 59 bd 78 e7 4a 3a e8 66 d1 bc
       0.021187542 -0.053196885 0.000774018 -0.025561765
0001e0 f2 a8 fa 3c ee 93 30 bd 64 dd e3 3c 50 a1 1b 3d
       0.030598138 -0.043109827 0.027815528 0.037995636
0001f0 a9 fd aa bb 4a 3b 0f 3d 35 15 a2 3c 01 c1 c2 3c
       -0.005218227 0.03496865 0.019785503 0.023773672
000200 62 7d 20 3b f7 63 4b bd df d5 fa ba 4b c6 2b ba
       0.0024488796 -0.04965588 -0.0019137225 -0.000655268
000210 d5 7e 73 3d de 71 75 bd ee 37 f4 bc ee c1 9c bc
       0.05944713 -0.059923045 -0.029811826 -0.019135442
000220 03 3e 55 3d 77 20 58 bd 12 bb 71 bc f2 90 5a 3d
       0.052061092 -0.052765336 -0.014754074 0.053360887
000230 94 d8 81 3c a2 b3 a2 3d 6d 0c 3f bd de d8 76 bd
       0.015850343 0.079444185 -0.04664271 -0.060265414
000240 b1 48 b6 bb c5 ad 8b 3c 50 e2 33 3d 60 9f a8 bc
       -0.0055628647 0.017050633 0.043917 -0.020583808
000250 9f cc 49 bd c9 b9 90 bc f8 e8 34 3c 49 03 4f bd
       -0.049267408 -0.017666714 0.011041872 -0.050540242
000260 2a 5a a5 bd 4a 4c 82 bb 33 a6 eb bc d8 fc 63 3d
       -0.08073838 -0.0039763795 -0.028765773 0.055661052
000270 dd e7 2a 3d 04 ae 1f 3d f6 46 bc bc 7a 60 75 bd
       0.04172503 0.038984314 -0.022983056 -0.05990646
000280 ce cb 22 bd 78 80 b6 bc e9 97 1f 3d 0e 00 2d 3c
       -0.039745145 -0.022278056 0.038963232 0.010559095
000290 73 46 81 bc a7 38 42 bc 75 34 41 bc ad e6 4b 3d
       -0.015780663 -0.011854327 -0.011792292 0.049780536
0002a0 93 62 3b 3d 84 b3 fb 3a df 47 18 bd d7 5e 3e 3d
       0.045748305 0.001920328 -0.037177917 0.046477165
0002b0 0c 3e df 3c 78 d5 38 bd 51 84 23 3d 29 e5 81 bc
       0.027251266 -0.045125455 0.03992111 -0.015856342
0002c0 c4 c3 25 bd 4e f3 20 3d e1 a4 2a 3d 7c 13 a3 3c
       -0.0404699 0.039294533 0.041661147 0.019906752
0002d0 5a cb 08 bc 30 b9 04 3d b4 2d 42 bd 40 d2 86 3d
       -0.008349264 0.03240317 -0.047406867 0.06583071
0002e0 b0 00 b0 bc 4e 1e 2e bc ec 4b 27 3d 9b 7b 8d bd
       -0.021484703 -0.010627342 0.04084389 -0.069083415
0002f0 8b 10 05 3d b5 c7 7a 3c 34 32 c3 bc 16 d9 ad 3b
       0.03248648 0.015306403 -0.02382765 0.0053054197
000300 26 81 06 bd 44 ca 22 3c 93 fd 92 bd f9 0d 73 bd
       -0.03283801 0.009935919 -0.07177272 -0.059339497
000310 f2 ed 18 3b f5 a2 05 bc d5 a0 cf 3c c0 b5 9e bc
       0.0023335186 -0.008156528 0.025345245 -0.019373775
000320 27 8c 60 3d 94 a5 1a 3d 13 8f 43 3d 2a 0d 18 bd
       0.05482116 0.037755564 0.047743868 -0.03712193
000330 90 bd 6b 3d 02 55 eb 3c ec b9 cc 3b 23 70 99 bb
       0.057553828 0.028727058 0.0062477496 -0.004682557
000340 7a 3c 32 bd 45 dd 81 bc 97 13 57 bc bf 0b 84 bd
       -0.043514706 -0.01585258 -0.013127229 -0.06447553
000350 f5 cd 56 bd 3b 1e 66 bd e4 0f 45 3d 1c bd cc bb
       -0.05244251 -0.056181174 0.048110858 -0.0062481295
000360 6e 80 0b 3d 85 4c 4d bc 72 e4 11 bd ec fb a8 3a
       0.034058027 -0.012530451 -0.035618253 0.0012892461
000370 a0 05 3f bd 9a 24 c9 3c f2 2f 24 3d ad 02 fa bb
       -0.046636224 0.024553586 0.040084787 -0.0076297135
000380 a6 c4 b6 bc f7 f1 5e bd c9 8d 85 3d 6c f2 29 bd
       -0.022310566 -0.054429974 0.06521184 -0.041490957
000390 57 b8 0c 3d 8a 14 fb bc 1c 2a 30 bd 78 c6 33 3d
       0.034355488 -0.030649442 -0.04300891 0.043890446
0003a0 ac 88 61 bb 74 0d 61 3c 03 bb 1e 3d 0d 50 2f 3d
       -0.0034413738 0.013736118 0.038752567 0.04280095
0003b0 12 89 bf 3c 87 23 85 bd f4 f5 8d bc f0 ef 98 3c
       0.02338079 -0.06500917 -0.017329194 0.018669099
0003c0 16 ed 5b 3d 52 89 09 3d 99 2b 4b bc 9a 30 86 bc
       0.0536929 0.033578224 -0.012400531 -0.016380597
0003d0 86 a0 de 3c 48 47 ed 3c 16 ed a0 bc 41 cc 1a 3d
       0.027176153 0.028964654 -0.019644301 0.037792448
0003e0 ef 34 ad 3d f8 65 de 3c c7 f5 94 bb d9 f6 af 3c
       0.08457362 0.027148232 -0.0045459005 0.02148001
0003f0 21 03 e7 bb fc 80 3a 3d 39 8d 31 3c 81 20 d5 3b
       -0.0070499335 0.045533165 0.010836893 0.006504119

model.4.weight f4 [256, 256]
000000 a9 3a f7 3d d8 9c 95 3c 50 46 ee 3c 55 74 a0 3b
       0.120717354 0.018263265 0.029086262 0.0048966804
000010 eb 5b 28 bd c8 c2 04 bd 37 ec 21 bc 3c 70 92 bc
       -0.041103285 -0.03241232 -0.009882978 -0.017875783
000020 22 1b d2 bd c8 a4 21 3d c9 09 3b 3d 6b 98 65 bd
       -0.102590814 0.03946379 0.04566363 -0.05605356
000030 ab d8 08 be df 63 13 3d 6e e6 aa bb a3 33 34 bc
       -0.13363902 0.035983916 -0.0052154576 -0.010998639
000040 63 8b 77 bd 51 50 8a bd d4 4b 70 bc f7 1a 2c 3d
       -0.060435664 -0.067536004 -0.014666516 0.042017903
000050 af 34 f8 3c e5 dc 94 bd 76 26 1e 3d 3c 52 03 ba
       0.030298559 -0.07268695 0.038610898 -0.00050095073
000060 bd 99 85 bc 8d 26 cb 3c cf 4d 85 3d 33 25 23 3d
       -0.01630866 0.024798656 0.065089814 0.039830398
000070 76 d3 95 3c c9 2b 3f 3d 8f cc 75 bd 48 e2 3b 3d
       0.018289309 0.046672616 -0.060009535 0.045870095
000080 e3 ee 1c bd 74 9b 89 bc 2a d4 89 3d 1c d0 88 3d
       -0.038313758 -0.016797759 0.0672992 0.06680319
000090 cb 74 3a 3d 0b 51 87 bd 44 c3 78 3d c6 e9 09 bc
       0.04552154 -0.066072546 0.060733095 -0.008417552
0000a0 36 6b 09 bd 6c 5e d1 bb d8 89 5b bd a9 90 c1 bc
       -0.03354951 -0.00638943 -0.053598255 -0.02362855
0000b0 56 4c 3f 3c b6 fd 02 bd c3 de 87 3d c2 81 05 3c
       0.011675915 -0.03198024 0.06634285 0.008148612
0000c0 58 fa 1a 3d 15 30 1c bb 02 67 a4 bd 91 18 87 bd
       0.037836403 -0.002383237 -0.0802746 -0.065964825
0000d0 af 83 2b bd 41 8e f0 bc 5d 7b 1c bd 0e dd 04 be
       -0.04187363 -0.029364707 -0.038203586 -0.1297495
0000e0 b2 1e ba 3c 6a 6f 81 3c 4d 50 cb 3d 42 09 65 3d
       0.022719715 0.015800197 0.099274255 0.055917032
0000f0 7d c5 22 bc d2 16 2b bd 16 e9 fc 3c 83 a7 23 be
       -0.00993478 -0.04176981 0.030872863 -0.1598187
000100 66 ad f3 bc 99 1a ac 3d ca b9 40 bd 7b 4b 0a 3d
       -0.029745769 0.084035106 -0.047052182 0.03376339
000110 4d 41 93 3d e5 2f 17 bd 95 9e 56 3c a7 d1 bb bd
       0.071901895 -0.03691091 0.013099332 -0.091708474
000120 1b 5b 25 3d b2 d9 c3 bd 25 e1 49 bd 0e 19 82 3d
       0.040370088 -0.095630065 -0.04928698 0.06352435
000130 20 85 fa bc 9c c6 0e bd de 3c 07 3a 7d 0c 82 bd
       -0.030581057 -0.034857377 0.0005158911 -0.06350038
000140 c5 6e 7b bd d4 ca e3 3b 82 c1 a6 3d dd 1b 27 3d
       -0.061384935 0.006951669 0.081423774 0.040798057
000150 18 8e 53 3c ed c6 7f bd 5a c0 67 3d 97 f2 f5 bc
       0.012912296 -0.06244557 0.056579925 -0.030022902
000160 3c e3 18 be 64 81 b1 bd 56 4e ab 3c 23 59 56 3a
       -0.14930433 -0.086672574 0.020911377 0.00081767346
000170 5d 59 35 bd 3e 33 89 bd 98 b5 33 bd 15 a9 ba bd
       -0.044274677 -0.06699227 -0.043874353 -0.09114281
000180 ff 4d 05 bd 0a fa 7b b9 c5 b8 c4 bc f4 bc 26 bd
       -0.032545086 -0.00024030372 -0.024013886 -0.040707543
000190 f2 c4 5f 3d d2 25 02 bd 4a 1f 35 3d dc f1 11 3d
       0.05463118 -0.03177435 0.044219293 0.035631046
0001a0 d1 71 b2 bd 8d 1e 31 3d 8b 3d a1 bc 5a 79 eb 3c
       -0.08713115 0.043242026 -0.019682666 0.028744388
0001b0 32 f6 3e be 1b 19 de bc 5a 7a 2f bc 09 81 5c 3d
       -0.18648604 -0.02711158 -0.010710323 0.053833995
0001c0 5b ba fa bd 74 59 07 3e c4 a5 61 bd 55 a4 13 b8
       -0.12242576 0.13217717 -0.055089727 -3.5200577e-05
0001d0 ac 7a f5 bb b0 d7 84 3d d6 d2 49 3d 8e 31 d2 3b
       -0.0074914303 0.064864516 0.049273334 0.006414599
0001e0 ed 40 ae 3b 05 33 b4 bd 13 e3 d8 bc a9 aa 32 bd
       0.0053177984 -0.08798794 -0.026475465 -0.043619785
0001f0 59 74 c7 bc cf 8b ce bd 23 f8 ac 3d d1 c6 58 3c
       -0.024347471 -0.1008526 0.08445766 0.013230995
000200 5f d3 33 3d 13 2f c9 3d d5 0b a0 3c bd f6 6d 3d
       0.04390275 0.09823432 0.019536892 0.058096636
000210 1c 49 e9 3c 29 e6 8c 3d b2 7b be 3d a1 e4 f9 3b
       0.028477244 0.06879837 0.09300937 0.0076261316
000220 21 8f 83 3c 76 fd 0c 3d be 6f 2d be 46 21 f7 bd
       0.01605946 0.034421407 -0.16937158 -0.12066893
000230 32 23 9e 3d 76 ab a3 3c 4c 69 ee 3d 45 f6 ba 3c
       0.07721557 0.01997922 0.116411775 0.022822509
000240 d8 02 10 3b 2e 3b 87 bc 2b 34 50 3d d2 1d c6 bd
       0.0021974351 -0.016507711 0.050831 -0.096736565
000250 1d ef ce bd bb 50 4f bb b8 c7 73 3d f9 31 a7 b9
       -0.10104201 -0.0031633812 0.05951664 -0.00031889955
000260 88 f1 0c 3d 2c 66 7b 3d 18 7d a9 bc 61 57 07 bd
       0.03441003 0.061376736 -0.020689532 -0.033042315
000270 5f 7b 93 3d fc ca a5 3d ba 96 87 bd c4 66 a5 3d
       0.072012655 0.08095357 -0.06620546 0.080762416
000280 59 13 32 3d b9 f2 1f bc bf 83 11 bd 62 f8 1e bd
       0.043475483 -0.009762459 -0.035526033 -0.038811095
000290 ef 37 84 3d bd 7e cc bc e6 4f 08 be d1 04 42 3d
       0.06455981 -0.024962777 -0.13311729 0.047367875
0002a0 e6 b1 f9 3c 20 f7 3e bd 7e 65 a5 3d f8 78 7a 3c
       0.030480336 -0.046622396 0.08075999 0.01528763
0002b0 51 f0 94 3b 48 89 97 bd 75 38 9d bd 02 0e ab bd
       0.0045452495 -0.07399231 -0.07676784 -0.08352281
0002c0 f3 45 e6 bc b4 3f c4 bb 8b 13 0d bd 14 2a 84 3c
       -0.028109526 -0.0059890393 -0.034442466 0.016133346
0002d0 2f 06 9b bd c4 d1 0d 3c c7 cb b3 bc c9 dc 31 3d
       -0.07569539 0.008655969 -0.021947755 0.043423448
0002e0 de f4 d7 bd 1b d0 0f 3d 74 76 82 bd fe 5c 34 bd
       -0.105447516 0.035110574 -0.063702494 -0.044033997
0002f0 15 72 9b 3c 37 54 bc bd 19 d4 58 bb 24 23 19 bd
       0.018975297 -0.0919575 -0.0033085404 -0.03738703
000300 c9 21 0b be a6 d5 eb 3c 63 20 2b bd dc dd 71 bc
       -0.13587107 0.028788399 -0.041778933 -0.014762368
000310 35 dc 98 3d a1 23 c7 bd 1e f7 c5 3d bf 40 14 bd
       0.07463876 -0.097235925 0.096662745 -0.03619456
000320 55 43 20 bc 0a 18 a2 3d 95 27 b0 bc 6b d5 36 bd
       -0.009781678 0.07914741 -0.02150325 -0.044637125
000330 fc fa 80 bc 61 09 54 bd f7 1f 00 3d c4 8c 24 3c
       -0.015744679 -0.051766757 0.031280484 0.010043327
000340 90 e3 cc bc 61 74 28 bd ba 81 8f bc 56 6e ed bc
       -0.025010854 -0.041126613 -0.017517913 -0.028983276
000350 2e dd 31 bd 85 f1 ad 3d ca 0e 08 bd cd 82 a1 bd
       -0.043423824 0.08493332 -0.03321723 -0.078862764
000360 a4 3e a1 bc b1 26 16 bc 54 e7 0b bd f3 75 1f bb
       -0.01968319 -0.009164498 -0.03415616 -0.0024331778
000370 10 d8 26 bb e4 93 00 be 66 f2 3f 3d bf 9d 84 3c
       -0.0025458373 -0.12556416 0.04686203 0.0161885
000380 a1 83 f8 bd 52 f8 17 be 49 54 8c 3d 8d 01 47 3d
       -0.12134481 -0.1484082 0.068520136 0.048585463
000390 d6 19 c3 3c 6c b2 27 be 97 07 f6 bc 87 4b bd bd
       0.02381603 -0.16376656 -0.030032916 -0.09242921
0003a0 e2 0b f7 bc 9d ed 2a bd 2a 71 2c 3d 30 42 bd bd
       -0.030157033 -0.041730512 0.04210011 -0.0924114
0003b0 0f ed d2 bd 74 35 ae 3d 59 09 19 bd 3c cd ca 3b
       -0.102991216 0.08506289 -0.03736243 0.0061890166
0003c0 1c e7 23 bd 1a ef 0b bd 3a 4f 00 3e c4 b5 9e 3c
       -0.040015325 -0.034163572 0.12530223 0.019373782
0003d0 a9 b2 03 3d ae 35 b7 3c 5d 20 a1 bd cf d0 03 bd
       0.032152805 0.022364464 -0.07867501 -0.032181557
0003e0 b4 9d 78 3d 0c 94 ec 3b b0 f7 7e bc 14 22 66 bd
       0.060697272 0.007219797 -0.015561983 -0.056184843
0003f0 44 0d ac bd 1d c9 9b bc 7d f9 c7 bd 78 02 88 3d
       -0.08400968 -0.019016797 -0.09764383 0.06641096

model.4.bias f4 [256]
000000 0b 2d 8d 3d 13 0e 5e bd f3 97 11 3d fa 9d 0b bc
       0.06893357 -0.05421264 0.0355453 -0.008521551
000010 fd 7c 3e bb 88 50 42 3d ce 30 f9 bc a1 50 6f 3d
       -0.0029066198 0.04744008 -0.03041878 0.058426503
000020 bf 79 0e 3c a1 3c 8c 3d 32 13 59 bc 6e b8 92 3c
       0.008696019 0.068475015 -0.013249205 0.017910209
000030 cb 27 86 bc e4 67 ad bc a6 4f 3b 3c 01 fa 0a 3d
       -0.016376397 -0.021167703 0.011432564 0.03392983
000040 80 c7 7f bd 6a 95 fe 3c 13 09 6d 3d 43 11 c6 bc
       -0.062446117 0.031077106 0.057869982 -0.024178153
000050 74 39 94 3c 5a 4d 16 3d f8 d7 b1 bc d2 3d 80 3d
       0.018093802 0.036694862 -0.021709427 0.06261791
000060 e9 f0 ca 3b 15 d2 5d ba 26 be 1a 3d 76 7d bd 3b
       0.0061932695 -0.00084617856 0.037778996 0.0057827784
000070 91 7a 7c bc 0b 33 89 3d 1e 42 2d 3d f1 2f 9d bc
       -0.0154100815 0.06699189 0.042299382 -0.0191879
000080 89 20 32 bc 18 0d f0 3c cd 6c 8c bc c2 38 86 bc
       -0.010872015 0.029303119 -0.017141724 -0.016384486
000090 fc 6b 86 3c 79 55 6d bd cc d9 f1 bc 8f ef 00 3c
       0.016408913 -0.05794284 -0.029522799 0.007869615
0000a0 6a aa f1 bc 18 df 89 3d c3 f9 24 3d 6c 66 10 3c
       -0.029500205 0.06732005 0.040277254 0.008813482
0000b0 7d a3 b7 bc bf 15 3c bc a9 7d be bc 67 02 e1 bc
       -0.022416824 -0.011479794 -0.023253279 -0.027466966
0000c0 51 71 e3 bc 49 b4 73 3d c4 67 16 3d 68 60 c5 bc
       -0.027763994 0.059498105 0.036720052 -0.024093822
0000d0 f8 f8 51 bd 6e 1d 8d bd 51 38 4f bd e9 4e a7 ba
       -0.051262826 -0.06890379 -0.050590817 -0.0012764606
0000e0 39 a4 55 3d 65 d9 27 3d 96 5c dd bc d9 85 b4 3b
       0.052158568 0.040978808 -0.027021687 0.00550912
0000f0 0b 5a df bc 9f 7b a7 bc bd e1 00 3d d6 77 12 3d
       -0.027264616 -0.02044469 0.03146528 0.035758816
000100 4e 36 85 3d 86 25 41 bd 69 f1 95 3d a1 cd 11 bd
       0.065044984 -0.047154926 0.07321436 -0.035596494
000110 8d d7 02 bd 44 43 79 3d 65 d3 9a bc 6a 91 0b bd
       -0.031943846 0.060855165 -0.018899629 -0.034074225
000120 d9 3b 58 bd 43 dd 76 bc e5 22 95 3d d2 f1 aa 3d
       -0.05279145 -0.015067401 0.07282046 0.08346905
000130 8c 38 28 bc 5c 8c 71 3a e0 08 5e 3c aa 3d 9a 3d
       -0.010267388 0.00092143356 0.013551921 0.07531293
000140 b7 0c 55 3d 17 3f de 3c 20 eb e9 3c fe c5 46 3d
       0.05201408 0.027129693 0.0285545 0.048528664
000150 10 99 b4 bc 0c ec 54 3c 1c a3 4a 3d 0e 09 00 3c
       -0.022045642 0.012995731 0.04947196 0.007814659
000160 82 fb 25 3d 66 e6 66 3d 44 24 07 bd 7c 7e 6d bd
       0.04052306 0.05637207 -0.03299357 -0.057981953
000170 6b a2 35 3d 24 8a 71 3d 71 a3 9c bd c5 a2 da bc
       0.044344347 0.05896963 -0.076483615 -0.026688943
000180 94 a6 14 bc 5f b5 31 3d 2d ee 01 3d d2 a4 2e 3d
       -0.009072918 0.04338586 0.031721283 0.042637654
000190 07 54 20 3d d5 b1 93 bc 33 91 81 3c 21 91 60 bd
       0.039142635 -0.018029133 0.015816307 -0.054825906
0001a0 d4 6b 1f bd 89 36 9f 3d b7 33 82 3d 0b 6f 23 3d
       -0.038921192 0.07774074 0.0635752 0.03990082
0001b0 7c 14 55 3d 15 2e 3b 3d b8 b8 f7 bc 2b 45 cc 3c
       0.05202149 0.045698244 -0.030239448 0.024935326
0001c0 2a 6d 20 3d 6b 9e 23 3d 43 fb cf bc 4a c0 2e 39
       0.039166607 0.039946 -0.025388366 0.00016665566
0001d0 30 ce cf bc f3 a3 54 3d fe f1 66 bd 1a fd 5c 3d
       -0.025366873 0.051914167 -0.056383125 0.053952314
0001e0 60 94 6d bd 0a 0d 2b bd ec 6e ac bc 6a 37 e2 3c
       -0.05800283 -0.041760482 -0.021048985 0.027614314
0001f0 d1 5b 57 3c 12 3a 99 3c b2 41 57 bd 74 1f e1 bc
       0.013144449 0.018704448 -0.052552886 -0.027480818
000200 c2 1f 74 bd 0b 8e 9f 3c 5e 4c 35 bd 98 95 8d 3d
       -0.0596006 0.019476911 -0.044262283 0.06913298
000210 e6 f4 e5 3c a7 68 d0 3b b1 c6 93 bd b8 b6 30 bd
       0.028070878 0.006360132 -0.07215632 -0.043143004
000220 6a bb 1a bd 64 db b4 3b 7c b8 8d 3d 70 37 87 bd
       -0.03777639 0.0055193175 0.06919953 -0.06602371
000230 74 17 84 bd 2d f4 14 bd 19 fe 4c 3d 57 20 01 3d
       -0.06449786 -0.036365677 0.050047014 0.031524982
000240 20 39 91 bd ca eb 75 bc e0 9a 17 3c 84 20 1d bd
       -0.07090974 -0.01500983 0.009253234 -0.038361087
000250 a5 a7 5d 3c 44 e6 88 bd 4e c1 fb bc c3 b2 1d 3d
       0.013528739 -0.06684545 -0.030731823 0.03850056
000260 dd 23 a5 bd 4d 66 5c 3c 40 30 19 bd 2a 1a 25 bd
       -0.08063481 0.013452125 -0.03739953 -0.040308155
000270 5a 83 84 bc 08 79 d1 bb 70 20 9a 3b ff 51 1e 3c
       -0.016175915 -0.006392602 0.004703574 0.009663104
000280 e3 2f c3 3c d9 ff 48 3d 58 15 c0 3c af 5b 90 bd
       0.023826545 0.04907212 0.023447677 -0.07048737
000290 67 76 0a 3d f0 58 d6 bc e3 3d 91 bc 85 4f 0e bc
       0.033804324 -0.026165456 -0.017729705 -0.008685951
0002a0 44 07 90 3c 8c 1f 34 3d 2f 83 94 3d 56 46 fe 3c
       0.01758159 0.043975398 0.07251584 0.031039398
0002b0 43 89 d5 bc a9 d5 39 3d f8 67 95 bd 87 6c 49 bd
       -0.026066428 0.045369778 -0.07295221 -0.049175765
0002c0 53 6a 1b bd d9 4a 9d 3d 9d a1 af bc 0e 51 3f 3d
       -0.037943196 0.07680292 -0.021439368 0.04670816
0002d0 0e 37 e4 3b 1b be 68 3d 4c 70 21 bd f1 0d 66 3d
       0.006964571 0.056821924 -0.039413735 0.05616564
0002e0 04 c5 00 bd 24 6a 83 bd 83 da 66 ba 51 cc a1 bd
       -0.03143789 -0.06416729 -0.00088063645 -0.079002984
0002f0 a4 f8 90 3d af 18 35 3c b9 61 fc bb e9 84 57 3d
       0.070786744 0.011053248 -0.007702079 0.052616987
000300 db 54 e0 3c fe 20 bd 3c d8 cc 2b 3d 46 bc 0b 3c
       0.027384212 0.023087021 0.0419434 0.008528775
000310 3c e5 ad 3c 8b 69 92 3d ba 88 79 bd d7 89 1b 3d
       0.021227472 0.07149037 -0.06092141 0.03797325
000320 cb 8c 69 bd 7f a0 39 3d 89 83 f3 bb 08 33 0f 3d
       -0.057019036 0.045319077 -0.0074314517 0.034960777
000330 d2 21 e1 3a b4 76 39 bd 81 5e 47 bd 22 0a cf bc
       0.0017176217 -0.04527922 -0.04867411 -0.025273386
000340 65 3a 87 3d 0c bf 69 bd 8d e5 0f 3c 08 76 28 bd
       0.06602935 -0.057066962 0.0087827565 -0.04112819
000350 5d 19 1b bc ae 90 be bb eb 83 28 bd 7a 30 4e bd
       -0.009466496 -0.005815587 -0.04114143 -0.0503392
000360 0c d2 c1 bc 44 ec 40 bb d8 23 31 bc 23 1f 22 bc
       -0.023659728 -0.00294377 -0.0108117685 -0.009895119
000370 34 62 95 3d aa d3 90 3c 68 eb 47 bd 3f d6 7d 3c
       0.072941214 0.017679054 -0.048808485 0.015492975
000380 9e ed 55 3d 71 75 9f bd 02 1f a3 bb 8a 40 35 3d
       0.052228563 -0.07786072 -0.0049780617 0.044251002
000390 92 ba e0 bc fd 3f 93 bd f2 5b 3c 3d 73 3f 2c 3c
       -0.027432714 -0.07189939 0.045986123 0.010513174
0003a0 9b 79 31 3d 51 83 74 3d e5 19 c0 bc 5d 59 0f bd
       0.043328863 0.059695546 -0.023449847 -0.034997333
0003b0 2b 5c f4 bc 00 fb 94 3d 87 46 58 bc 29 ac 7f 3c
       -0.029829105 0.07274437 -0.013200409 0.015605011
0003c0 f5 71 3d 3b d2 fe 88 bd 70 0a ae bc a3 ff 23 3b
       0.0028907035 -0.06689228 -0.021245211 0.0025024198
0003d0 58 d8 95 3d ee 76 dc ba fe a4 b7 bc 53 99 9c bc
       0.07316655 -0.0016820112 -0.022417542 -0.01911608
0003e0 8f 17 6c bc a8 52 8c 3c a6 5b 07 3c c5 f6 92 bd
       -0.014409914 0.017129257 0.008261597 -0.07175974
0003f0 aa 89 d9 bc cf d6 c6 3b c7 9a 59 bc d6 a0 84 3c
       -0.026554901 0.0060680876 -0.013281531 0.016189974

model.6.weight f4 [16, 256]
000000 0b 77 57 bd e4 a6 63 3d 96 0a ac bd d2 99 06 be
       -0.052603763 0.05557908 -0.084004566 -0.13144615
000010 18 8a 29 bd aa 18 26 bd 79 f3 82 3d f1 be 84 3e
       -0.041391462 -0.040550865 0.06394095 0.25926927
000020 e5 75 de 3b 58 6c 37 bd 32 35 b3 bc 76 f7 98 bc
       0.0067889565 -0.04478106 -0.021875951 -0.018672686
000030 11 07 8f bd 5b a4 99 bc 74 30 89 be fe 14 3b 3d
       -0.0698377 -0.018755129 -0.2679478 0.045674317
000040 bc 40 e2 bc 04 8e d8 bd 94 51 df bd a9 6e 8b bc
       -0.027618758 -0.10573962 -0.10904232 -0.01702054
000050 4b 2e 85 3d 27 74 0d be ca 55 df bd 9e e2 e1 3d
       0.0650297 -0.1381384 -0.10905035 0.11029552
000060 18 93 9e 3d 9d 23 98 bc af 53 96 3d b8 53 74 bd
       0.077429 -0.01857167 0.0734018 -0.059650153
000070 7f be db 3c eb 36 d5 bc e4 e2 5b bb 72 d3 9f bd
       0.026824234 -0.026027163 -0.0033551985 -0.07804002
000080 73 78 6f 3d 2e f2 9e 3d eb b2 6e bd 2f f4 04 3d
       0.05846448 0.07761036 -0.0582761 0.032459434
000090 64 7a e8 3c 7b 4c 48 3e ed ce df bd 6d e8 0b be
       0.028378673 0.19560425 -0.1092814 -0.13662882
0000a0 e5 c8 4e 3c 30 ea 62 bd 40 a4 21 3d 6a ac 1c 3e
       0.012621139 -0.05539912 0.03946328 0.15300146
0000b0 da 9f 6e 3c ee 47 28 3d 4e 87 d5 bc 2e 6a 3a 3d
       0.014564479 0.041084222 -0.026065495 0.045511417
0000c0 04 e9 11 bd c3 85 81 3d 67 18 6a 3d f0 72 a1 3d
       -0.03562261 0.06324341 0.05715218 0.07883251
0000d0 bd 80 92 bc 15 f7 a3 3d e6 e3 b7 3c f6 ec 33 3d
       -0.017883653 0.080061115 0.022447538 0.043927155
0000e0 3d d4 9d bd 0e 36 4b bb d0 d8 83 bc 20 3b cc 3e
       -0.07706497 -0.003100756 -0.016094595 0.3988886
0000f0 ec 7d 32 bc 0a 29 69 3d ce 32 96 bc 09 c5 0a bd
       -0.01089428 0.056923904 -0.018334772 -0.033879314
000100 34 44 e3 3d 57 6d 04 be 1b 2c 80 3d f4 38 ed 3d
       0.11096993 -0.12932335 0.062584125 0.115831286
000110 07 7b 21 bc 7b e2 ab 3d 9f 0d 38 3d 0b 2c 96 3e
       -0.009855992 0.08392807 0.044934865 0.29330477
000120 72 93 fa bc 2d ce 26 bd 53 cb a0 3d 96 53 88 bd
       -0.030587886 -0.04072397 0.07851281 -0.06656568
000130 53 31 1f bd b8 74 9c bc 0a 94 54 3d 46 c7 69 3e
       -0.0388654 -0.019098625 0.051898994 0.22829923
000140 3d e0 6b 3e 82 a1 80 3d 95 e3 26 3d 93 9a 16 3c
       0.23034759 0.06280805 0.040744383 0.009192127
000150 5d 7e 32 3e 8d 9f 19 be 85 c8 8a bd 90 75 d0 bd
       0.17431016 -0.1500227 -0.06776527 -0.10178673
000160 c4 f7 9b 3d 5d 29 7d bd 9e af 19 3d 19 f8 53 bd
       0.07615617 -0.061807025 0.037520997 -0.051750276
000170 cc 76 33 bd 6c 5d 0e be 23 ff a0 3c 19 37 38 be
       -0.043814465 -0.13902825 0.019652909 -0.17989768
000180 91 8f f6 3c 13 74 ef 3d c0 a3 17 bd 72 71 b4 3c
       0.030097755 0.11692061 -0.0370214 0.022026751
000190 6a c1 76 3d 2c f8 88 3c 49 b8 21 bd 37 d1 0e bd
       0.060243048 0.0167199 -0.03948239 -0.03486749
0001a0 6a a6 48 be 3d a7 0e 3d a5 05 9c 3c 92 62 06 3e
       -0.19594732 0.03482746 0.01904566 0.13123539
0001b0 8c 1d 16 3d 9f 8e 88 bb 65 89 2a 3d 34 11 8c bc
       0.03664927 -0.0041673924 0.041634936 -0.017098047
0001c0 f8 4d 9f 3c a1 13 5d 3d da 55 b2 3c 7e c4 0b 3d
       0.019446358 0.053973798 0.021769453 0.034122936
0001d0 75 70 4d bd 8d 5f c5 3d a7 ee 2f bd c7 3f 0b be
       -0.050156076 0.096373655 -0.042952206 -0.13598548
0001e0 39 fd 03 3e af 7e 64 be bd 47 14 be 53 2c 92 bc
       0.12889566 -0.22313951 -0.14480491 -0.017843401
0001f0 53 c1 b1 bd f1 28 87 bd b7 45 54 3d 92 2f a7 bc
       -0.08679452 -0.06599606 0.051824298 -0.020408425
000200 b0 2d 2f bb 70 55 b5 3d 57 70 20 bd 16 87 3b bd
       -0.0026730113 0.088541865 -0.039169636 -0.045783125
000210 a8 ae 9d 3d 17 e2 a0 bb 89 aa 26 bb 00 15 6c 3d
       0.07699329 -0.0049097645 -0.0025431237 0.057637215
000220 5a e2 ab 3d f3 90 f6 3d 13 61 e5 3d 82 14 37 be
       0.083927825 0.120393656 0.11200156 -0.17878917
000230 79 cb 55 3d 36 5a 9c bb ea 7a 5f 3e 44 62 90 3e
       0.052196 -0.004771496 0.21824232 0.2819997
000240 41 fb 19 bd bd ba ca 3a 5c d2 26 be 6d b1 ac bd
       -0.03759313 0.0015467029 -0.16291183 -0.08432279
000250 56 0d 09 be 9e aa 30 be 8b f2 9c bd 6a 38 cf bd
       -0.13383994 -0.17252585 -0.07663449 -0.10118182
000260 8f 5b 16 3d ee c5 eb bc 72 51 95 bd 58 63 3d bd
       0.03670841 -0.028780904 -0.07290925 -0.04623732
000270 0e 2f 07 3d 3d 68 79 bd 19 66 40 bd 70 c1 cd bd
       0.03300386 -0.060890425 -0.046972368 -0.10046661
000280 5d 91 25 3b 1f 0e 4a bd ae 7e a7 bc 52 f3 2a 3c
       0.0025263645 -0.049329873 -0.020446148 0.010433989
000290 a8 dc 3e bb 27 52 71 bc ea a5 88 3d c4 01 b0 3d
       -0.002912322 -0.014729059 0.066722706 0.08594087
0002a0 03 e6 1c bd e4 cb 89 3d 81 cf 45 3d e0 71 96 ba
       -0.038305294 0.06728342 0.048293594 -0.0011478029
0002b0 52 ab 79 3d 00 cb 9c bd 0d 7f 02 bc e2 33 52 3d
       0.0609544 -0.07655907 -0.007964862 0.05131901
0002c0 c1 01 5a 3c ca 3b 60 3d 15 75 01 3d cf 24 6e bd
       0.013306082 0.05474452 0.0316058 -0.058140572
0002d0 7a 98 8a bc 2f 95 2b be 6a 57 25 bd fb d1 81 bd
       -0.01691841 -0.16756128 -0.040366568 -0.06338879
0002e0 37 70 04 be 54 92 a3 bc e0 72 26 bd c9 6c e5 3c
       -0.12933432 -0.019967236 -0.040636897 0.028005974
0002f0 85 4a 1d 3e ff 19 43 3c d4 47 a9 bc 9e 44 a0 bd
       0.15360458 0.011908053 -0.020664133 -0.07825588
000300 fc 41 b3 3e a0 9a 8e bc 28 90 c1 3c 56 00 b2 3c
       0.3501128 -0.017407715 0.02362831 0.021728676
000310 a6 df 96 bb 45 4c 66 bd 04 2f b5 bb 4a 93 aa bd
       -0.0046042977 -0.05622508 -0.0055292863 -0.083288744
000320 40 5d 75 3c de d6 c2 bd c3 61 ed bd f2 63 fe bd
       0.014975846 -0.09513639 -0.11590912 -0.12421407
000330 17 a2 03 be 79 9d 72 bd ef c9 98 bd f5 bc a4 bc
       -0.12854801 -0.05923221 -0.07460391 -0.020109633
000340 a6 67 9e bd cd e3 c7 3c 27 c1 35 bd 76 b2 cc 3c
       -0.07734613 0.024400616 -0.044373658 0.02498744
000350 96 a3 55 bd 68 f9 8f 3c f8 68 26 3c 4e d7 89 3d
       -0.05215796 0.01757498 0.010156862 0.06730519
000360 51 d8 4e be 9d ae 0e bd 41 b2 e1 bb 97 9e fe 3d
       -0.20199706 -0.034834493 -0.0068877046 0.12432592
000370 de 66 5e bc 19 49 59 3d 37 7e 50 bd 03 32 37 3d
       -0.01357433 0.053048227 -0.050901618 0.04472543
000380 e4 3f c0 3d f2 95 3d bd 1c 0c 75 3e c2 f9 40 3d
       0.09387186 -0.046285577 0.239304 0.047113188
000390 4c 74 ca 3d ba 71 85 bc da 12 b8 bd 9b 6c 12 3d
       0.09885463 -0.01628958 -0.08987971 0.035748105
0003a0 e1 89 0c 3e 52 7b 1d bd 30 50 dc 3b 13 ce 99 3c
       0.13724472 -0.038447686 0.0067234263 0.018775022
0003b0 cb e2 d8 bd 92 0e 04 bd c6 52 52 3d 98 ba 09 bb
       -0.10590132 -0.032240458 0.05134847 -0.002101576
0003c0 38 a7 48 bd 9a 9e 4f bc 17 bb 92 bb 34 3d da bc
       -0.048987597 -0.012672091 -0.0044778693 -0.026640512
0003d0 5e cf c1 3e da 63 65 3d 5c 00 67 3c 0f c7 d1 bd
       0.3785352 0.05600343 0.014099207 -0.102430455
0003e0 e2 a9 40 bd a0 2d 98 3b 53 97 28 3d 2e b0 38 3d
       -0.047037013 0.004644111 0.04115994 0.045089893
0003f0 51 6c 93 3d 0b 37 97 3d a1 0c dc 3c 54 0c 11 be
       0.07198394 0.073835455 0.02686149 -0.14164859

model.6.bias f4 [16]
000000 0a e1 13 3d 8a f8 0e bd ff 0e 35 bd fd fa 02 3d
       0.036103286 -0.034904994 -0.044203755 0.031977642
000010 69 79 51 3d 8c 48 2b 3c 90 07 aa 3d b4 44 12 3d
       0.051141176 0.010454308 0.08302224 0.03571005
000020 56 5b 30 3d 87 0f 04 bd d2 38 65 3d 8d e9 48 bb
       0.043055855 -0.03224137 0.05596239 -0.0030656785
000030 e2 6c 67 bd 70 7d 28 3d bb 86 a5 3c 2e f6 c3 3b
       -0.056500323 0.04113525 0.020205846 0.0059802746
