data/checkpoints/rlgym-ppo-run-1760498080835186700/141545404/PPO_POLICY.pt (torch, 638775 bytes, 8 tensors)

model.0.weight f4 [256, 89]
00000000: 3cd7 dabd 22b2 8d3e f684 a7bd a00c ea3d
00000010: e051 91bc 42db 3cbd 9e03 c3bd 1800 8bbd
00000020: fba6 f9bd 040b 963d 4de5 0abd 80dc 5abd
00000030: 0080 bcbd 1064 dabd eb95 e6bd 82f0 1a3c
00000040: 120c 87bd 3245 933d dd04 06bd 54cb dd3c
00000050: 3e93 8c3d 1595 663c ac73 b03c 8bb9 c03d
00000060: e5e9 70bd b28f d73c 6f18 63bd e81b 943d
00000070: c99a 953d 6001 d6bd b155 b73d b269 2f3d
00000080: c364 173d d54e 073d c820 9c3d b786 cdbc
00000090: 337c cbbd 48cb e2bc 567f aebd 57fa 03bb
000000a0: ec74 a2bc 355e 75bd 7ac5 82bc b3c3 c03d
000000b0: 581e 5cbc ec36 cdbb bee3 99bc 1e53 103c
000000c0: 5e97 b93d bf98 523d c657 133d 8715 1d3e
000000d0: b082 a5bc 6147 2c3d 8a73 8cbc b0d5 d5bd
000000e0: 3468 aabe 02a6 893d 6a55 213c dd53 cabd
000000f0: 1d15 dbbd 42a8 863d 7202 573c 9b07 b9be
00000100: 3967 c53c 362d 87bd 700f 80be 02d5 14bd
00000110: bf5e 33bd 536c 4c3d 4054 143e a203 be3d
00000120: fecc 1fbd a31d 8cbd 1537 303c 6941 103d
00000130: 059a 41bc cab8 5cbd 5e74 9ebc 3fe4 e13d
00000140: d208 173d 2356 dc3d 41ea 0e3d b0c7 87bd
00000150: 2ac6 19bd 8311 9ebd 3ae8 36bd 1d91 c03d
00000160: c8c4 913b 9600 783d 9fce d6bd 4ba4 013e
00000170: c585 7e3d c61f 14bd 7f91 133e c9e2 b53d
00000180: 2353 593e 6d69 ef3d 179a aa3d 6bd5 4fbd
00000190: 8897 7e3d 9953 82bd d93f 9d3c 479d fabd
000001a0: c928 3abd 1f89 e4bc d47d 533a 5c3b b63d
000001b0: 20c3 3f3d 9de4 52bb f608 8a3d 6903 7dbd
000001c0: 9896 493d 3a67 8bbc c7b4 c6bc e943 8b3b
000001d0: b822 b6bd c862 ea3b 50ab ec3c 5f2e ab3d
000001e0: 103b 13bd 1b15 113d ba85 d43d ee28 2fbd
000001f0: c117 c63d 27ed 67bd 1c6c 073d 6e41 1b3d
00000200: 5d63 c03c ef19 983d a45c 4dbd eb67 b23c
00000210: 00f5 dbbb 633d aabd 1846 e2bc c6bf b2bd
00000220: 0901 203d f313 a03a 81cd f23b cdaf 2cbd
00000230: 1cd5 1dbe c140 ebbd 44bd 703d be24 763e
00000240: 2c35 6b3d f918 a03c c0cd afbd 4465 23bd
00000250: 4c76 2ebd 6efb 883c 51ef eabd 4bad 86bd
00000260: 02df b93d b004 5e3d acbb 653e 4987 8b3e
00000270: 7515 97bc ba3e b8bc c6ff d5bd 85ea 0a3e
00000280: 0bdc e63d 74cf bf3d 279d bdbd 9a1f 1e3d
00000290: b544 873d a193 a63d a265 ee3c 00ee e03d
000002a0: cd67 d23c 2350 a93d b0e0 3dbd 3eb9 6abd
000002b0: c781 c83c 0fa1 d0bc 49de cbbb 8327 3fbd
000002c0: b8b2 66bd 07da afbd b532 f03d 3d9f 6f3e
000002d0: a478 2c3d 7509 bf3d f17d a33d 42e3 39bd
000002e0: 5089 2cbe bb6f 4039 14da 3a3d a701 703d
000002f0: c9f1 f83d fb03 abbd 8a5f eabc 4153 9abd
00000300: 1151 c0bd 5b3c 8f3d 3091 77bd 0821 3abd
00000310: 4952 2d3d 6364 78bd 83e8 cc3d 6247 083d
00000320: d141 aebc 6df5 733c 7ebf bb3c f8a5 e8bc
00000330: 1bdf 97bd 4368 573c b52d 823c b9c8 4f3c
00000340: 3777 2cbc f9f1 983d b7ac afbc 015a b2bb
00000350: 2c5c 5d3d 97e6 6ebd 2468 223d 0291 bdbb
00000360: 4ca3 6b3d d92e 42bd 1a7e 8b3c f3d8 923c
00000370: f205 9bbd fce2 90bd 18cf 4c3d 68b1 a3bc
00000380: 25cc 913d 1e2b cbbd 2789 2cbd 937e 9ebd
00000390: f4db 503d cbd1 a33d d8bf bebd dfd0 abbd
000003a0: 4dae 4ebe 2e94 443d 4e86 94bc 306a a7bd
000003b0: 1041 413d bd4e cf3c c53e 63bd 66e0 b13d
000003c0: 5f74 8ebe 92ae 673c 5852 79be a3db 7a3e
000003d0: 4d79 513e d2ae 263e 78b3 80bd 0553 1abd
000003e0: d180 41bb 6497 773d a2b3 213d 629d cabd
000003f0: 0154 9d3d 3270 43bd 0d6e bfbc 987c 3dbd
-0.10685584 0.27674967 -0.08179657 0.11428189 -0.017739236 -0.046107538 -0.09522174 -0.06787127
-0.12190052 0.0732632 -0.033910085 -0.05343294 -0.092041016 -0.10663617 -0.11259063 0.009456756
-0.06594099 0.07190932 -0.03271948 0.027074493 0.06864022 0.01407363 0.021539532 0.094103895
-0.05881681 0.026313636 -0.055443224 0.07231885 0.073049136 -0.10449481 0.08951891 0.04282541
0.03696133 0.033034164 0.0762344 -0.025088651 -0.099357985 -0.027684823 -0.08520381 -0.0020138228
-0.019831143 -0.059904296 -0.015963305 0.09412327 -0.013434969 -0.0062626507 -0.018785354 0.008808879
0.09062074 0.0514152 0.03597238 0.15340243 -0.020203918 0.04206026 -0.017144937 -0.10441148
-0.33282626 0.067211166 0.009847024 -0.09879277 -0.106973864 0.065750614 0.013123142 -0.36138615
0.024097072 -0.0660042 -0.25011778 -0.036335953 -0.04379153 0.049907994 0.14485264 0.09278037
-0.039013855 -0.0684159 0.01075532 0.03521863 -0.011816506 -0.053887166 -0.019342598 0.110298626
0.036873646 0.10758617 0.03489137 -0.06629884 -0.0375425 -0.07718184 -0.044655062 0.09402678
0.004448507 0.060547434 -0.104886286 0.12660329 0.06213929 -0.036163114 0.14410971 0.088811465
0.2122312 0.1169003 0.083301716 -0.05074064 0.06215623 -0.06363601 0.019195484 -0.122370295
-0.045449052 -0.027897416 0.0008067761 0.08898041 0.046816945 -0.0032179721 0.067399904 -0.06177083
0.049215883 -0.017016996 -0.024256123 0.004250039 -0.08893341 0.007152889 0.028890282 0.08358454
-0.035945 0.03542052 0.10377069 -0.042763643 0.096724994 -0.05662265 0.033062086 0.037904195
0.02348488 0.074268214 -0.050137177 0.021778068 -0.006712556 -0.0831249 -0.027621314 -0.08727984
0.039063487 0.0012212977 0.007409752 -0.042159844 -0.15413326 -0.1148696 0.058774248 0.24037454
0.057423756 0.019543158 -0.085841656 -0.039891496 -0.042593285 0.016721454 -0.11471427 -0.06576022
0.090757385 0.05420369 0.22434872 0.27251652 -0.018442849 -0.022490848 -0.104491755 0.13566025
0.112724386 0.093657404 -0.0925849 0.038604356 0.06604902 0.08133627 0.029101197 0.10982895
0.025684262 0.08267238 -0.046356857 -0.057305567 0.024475945 -0.025467424 -0.006221567 -0.04666854
-0.056322783 -0.08586507 0.117284216 0.23400588 0.04210724 0.09327976 0.07983006 -0.045382746
-0.16849256 0.0001835217 0.04561813 0.058595326 0.12155492 -0.083503686 -0.02861001 -0.07535411
-0.09390462 0.06993934 -0.060441196 -0.045441657 0.0423148 -0.06064261 0.100052856 0.0332712
-0.021271618 0.014890057 0.022918459 -0.028399453 -0.07415601 0.0131474165 0.015890935 0.012682133
-0.01052647 0.074680276 -0.021444662 -0.005442858 0.05404298 -0.058325376 0.039650097 -0.0057851085
0.05752878 -0.04740796 0.017027903 0.017925715 -0.07569493 -0.07074544 0.050002187 -0.019982055
0.071190156 -0.09920333 -0.042122986 -0.07738986 0.050991014 0.07998999 -0.09313935 -0.083894484
-0.20183678 0.047992878 -0.018130448 -0.081745505 0.04718119 0.0253061 -0.055479784 0.08685379
-0.2782316 0.014140742 -0.24347818 0.24497847 0.20456429 0.16277626 -0.06284231 -0.03767683
-0.0029526243 0.06044711 0.03947795 -0.098933 0.07682038 -0.04771442 -0.023367906 -0.0462614

model.0.bias f4 [256]
00000000: cb8c 2abd 59f6 c23c b4d3 0ebd 02e6 37bc
00000010: 54fe 87bd c0e7 31bd 4b67 8a3d 4093 b7bd
00000020: 13c3 133d dd71 ad3c 6fcc 3b3d 2389 d03c
00000030: 7b2c 0e3d 4133 353c e705 c93d 409f 933d
00000040: c979 553d 7b90 393d 8a00 5c3d 64dd e23d
00000050: 2613 f53c b5b4 1a3c b913 24bd 63ac d83b
00000060: 5749 5e3d a64c e3bd 8228 cabd d821 bd3d
00000070: 43ab b03d bf9c b53d 1863 a3bd 9249 b93d
00000080: 2879 89bd f542 9cbc a3c9 8ebd 528e 143c
00000090: 2a8d 92bd cbe8 1a3c e365 b83d 87b6 b73b
000000a0: b66a 163d de7d 883c 00ad e43c 3b6b 29bd
000000b0: 01bf a33d 352a 623d 78fe cc3c 8153 35bd
000000c0: 98ef 0f3c fbcc 3f3c 9d1e 9b3d 26fc 9dbc
000000d0: dd94 5cbd 2943 9cbd 1793 85bc a824 62bd
000000e0: 5911 b9bd bfdc a0bd 177c 973c f81f db3a
000000f0: e5c1 edbc a353 e9bd 380f 453c e9c9 9b3d
00000100: c793 6abd 5eee bd3d b2b9 dabc b418 913d
00000110: dd3a d1bc 7f8d d4bd 9887 72bd a389 0c3d
00000120: 4bdf 743d e592 edbd 3945 963d 15a5 ea3c
00000130: 0a18 4a3d e4be ac3b 92d4 5bbd 15ea b63d
00000140: d3b8 d0bb 5e7e fbbd 55b0 e53a f7db 9dbd
00000150: 8c07 4bbd fb9d b2bd 11a6 f23c acd9 c6bd
00000160: 60df 83bd e720 07bd 8ef3 9fbd 2577 c2bd
00000170: 41fc 7fbd ae5d 50bd 0bc5 e7bd d1b2 a5bd
00000180: 2eb0 b1bd 8981 8a3d fc96 c3bd 1443 f83c
00000190: 7b77 43bc c6e0 a3bd 6b5c f6bc 6029 413c
000001a0: 18a8 d23d f5dc 08bd 7b33 b43d 3ef8 503d
000001b0: ea72 163d d93a 8e3c fb12 3bbd 8bb0 90bb
000001c0: 2300 37bd 8c36 0c3d 492f 963d 2514 543d
000001d0: 9446 6bbd 036a 6e3c 6de2 7d3d 8083 813d
000001e0: 8794 b9bc 0015 a43d ce89 a6bd f000 c3bd
000001f0: caaf a9bd e81e 5d3c c0bc 04bd 169b 5d3d
00000200: 14c9 1c3c 2b88 8b3c 1f49 703b 9e79 393d
00000210: 6479 673d 4eb3 833d 89ad 623b 1494 893d
00000220: 4fbd b93d f010 b43b 2cde 043c fca8 45bd
00000230: d86c e03d 0872 923c a9ab d9bd 23c7 25bd
00000240: 1c0b 28bd 3500 b2bc 9d3a aabd f3a4 2abd
00000250: e061 c8bd e47e 83bc 9718 d2bd 0e88 473d
00000260: 6825 1ebc 644b afbd 0c65 b53c 9c6a 5b3d
00000270: 4ae5 07bd fc55 b5bd c1f3 dd3d 5c64 47bd
00000280: 0a6b e33c 8551 a8bd 9014 a9bd 96fd 59bc
00000290: c7e3 2cbd 35ea 44bd b70f c4bd 78e3 2e3d
000002a0: f915 eebd 733a 3bbd fd02 a7bd fc5d debd
000002b0: ff73 d93c 9904 76bd 2f0c 343d 89a2 c8bd
000002c0: 15ae 88bd a628 1b3d d6bc a53c 515c c33d
000002d0: a11a 593d 246b 9cbd eda9 4a3c 84f8 e83c
000002e0: 7469 8cbc f7f5 b43d 8087 673d d1c3 613d
000002f0: 8e70 bfbd f8ce 08bd c1b2 dbbd 501d 47bd
00000300: 2261 e33c 9cad 5ebd 0091 d43d 0472 17bc
00000310: ade9 29bc 37a6 e1bc 1428 b4bd 35ca 8e3c
00000320: 3711 ab3d 8e63 b03d 0a1b bb3c ef1f 233d
00000330: fc0e 19bd 63f9 893b 95d6 b63d 966a 1abd
00000340: 5525 783d 41e3 953d cf80 d53c d3f4 dcbd
00000350: f6e5 813d 1bb2 e1bd 26df 073d c17d 493d
00000360: cfa1 b1bd 191b babd 0914 abbd 3fbd 9b3d
00000370: fa78 7cbd bb64 92bd 616a 8ebc d219 8d3c
00000380: 5012 26bd 6acc 93bd c630 b4bd c683 0e3d
00000390: 3ea7 51bd 39e2 9dbd aa14 85bd 78e0 b7bc
000003a0: dfc6 59bd eff5 0fbc 4f4a f73b 41cd ba3d
000003b0: ece9 b23d 1dd7 fc3c 427e 68bd 7a2a ea3c
000003c0: 82b4 77bd 220c 9b3d a631 2c3c ac25 b0bc
000003d0: ea67 b13d f272 14bc 3958 24bd d8d2 1a3c
000003e0: e364 d53d 153f c0bd 66bd 21bd a362 42bd
000003f0: f46f 7b3d beff e23d 6d9d aa3d 75b1 9e3d
-0.041638177 0.023799108 -0.034869865 -0.011224272 -0.06640306 -0.043433905 0.06757983 -0.089636326
0.03607471 0.021172458 0.04584926 0.025456017 0.03471039 0.011059583 0.09815579 0.07208109
0.052118097 0.045303803 0.05371145 0.11077383 0.029916357 0.009442498 -0.04005787 0.006612347
0.05426916 -0.11098604 -0.098710075 0.09234971 0.086264156 0.088677876 -0.07977885 0.090472355
-0.06712562 -0.019074896 -0.06972053 0.009067135 -0.07155831 0.009454916 0.09003808 0.0056064758
0.03672286 0.01666158 0.027914524 -0.04136203 0.079954155 0.055216033 0.025023684 -0.04426909
0.008785151 0.011706586 0.075741984 -0.019285273 -0.053852905 -0.07629997 -0.01630549 -0.05521074
-0.09036512 -0.07854604 0.018491788 0.0016717901 -0.02902312 -0.113929056 0.012027554 0.07606871
-0.057269838 0.092739806 -0.026699875 0.0708479 -0.025540764 -0.10378551 -0.059211344 0.034310948
0.05978326 -0.116002835 0.07337422 0.02864317 0.04933933 0.0052717794 -0.05366952 0.08931366
-0.006369689 -0.12279962 0.0017523865 -0.077079706 -0.049567744 -0.08721539 0.029620202 -0.09709486
-0.0643909 -0.032990362 -0.07810126 -0.09495381 -0.062496427 -0.05087059 -0.1131688 -0.08090747
-0.08676182 0.06762988 -0.09550282 0.030305423 -0.011930342 -0.080018565 -0.030073365 0.01178965
0.102859676 -0.033413846 0.087988816 0.051017992 0.036730684 0.017362045 -0.045672398 -0.004415577
-0.044677865 0.034231707 0.07333238 0.051777024 -0.057440355 0.014551642 0.061983515 0.0632391
-0.022653831 0.08011818 -0.08131753 -0.09521663 -0.08285482 0.013496138 -0.03240657 0.05410298
0.009569425 0.017032703 0.0036664677 0.045282 0.05651225 0.06430684 0.0034588298 0.06717697
0.09069311 0.005495183 0.0081096105 -0.04825686 0.1095826 0.01787664 -0.10628445 -0.040473115
-0.04102622 -0.021728614 -0.08311961 -0.041661214 -0.09784293 -0.016051717 -0.102585964 0.048713736
-0.009652473 -0.085593015 0.02214291 0.053568467 -0.03317765 -0.08854291 0.10837508 -0.048679695
0.027761001 -0.082186736 -0.08255875 -0.0133050885 -0.042209413 -0.04807492 -0.0957331 0.0426974
-0.11625285 -0.04571004 -0.08154867 -0.1085777 0.026544569 -0.06006298 0.04395693 -0.09796626
-0.066738285 0.037880562 0.020231646 0.09539092 0.05300391 -0.07637623 0.012369615 0.028438814
-0.017140128 0.088359766 0.056525707 0.055118386 -0.0934764 -0.033400506 -0.10727454 -0.04861194
0.027756277 -0.054364786 0.10379219 -0.009243492 -0.010370654 -0.027545078 -0.08796707 0.017430404
0.08352893 0.086127385 0.022840042 0.039825376 -0.037367806 0.0042106374 0.08927647 -0.037699305
0.060582478 0.07318736 0.026062397 -0.10788884 0.0634269 -0.11020299 0.033171795 0.049192194
-0.08673441 -0.090872 -0.08353431 0.07604455 -0.06163881 -0.07148119 -0.01738471 0.017224226
-0.040544808 -0.07216723 -0.08798365 0.034793638 -0.051184885 -0.07709164 -0.06498082 -0.022445902
-0.053168174 -0.0087866625 0.0075467 0.0912118 0.08736023 0.030864293 -0.056761034 0.028584708
-0.06047488 0.075706735 0.010509884 -0.021502338 0.08662398 -0.009060608 -0.0401232 0.009449683
0.10419633 -0.09387032 -0.039487265 -0.04745735 0.061386064 0.11083935 0.08330808 0.07748691

model.2.weight f4 [256, 256]
00000000: 4144 fbbd af63 573d f15a 45bd d56c ea3b
00000010: 4092 66bd 43f8 553d 9900 61bd 40ed 04bd
00000020: 96b3 b33c d164 9e3d e241 0cbd 34d2 1bbc
00000030: 715f 0abe 7cb6 84bd abcd 4cbd ca3f d83c
00000040: d43a 6f3b b90d 9c3c bfbb 8d3d b984 42bd
00000050: 4888 db3c ac24 92bd 581d 40bd 71f6 67bd
00000060: 46ad 41bd a900 0ebd c871 fdbc 0fe0 0ebd
00000070: 656f d33c de9a c93b 5112 813d 1cb0 8a3d
00000080: ae95 7b3c fe6e 273d d48a 8bbd cca3 ac3c
00000090: ec20 303d 874b 46bd 6bf4 b3bc 2a73 9abd
000000a0: e4ce 31bd 22cc c2bd f1db 773d 5d5b 813b
000000b0: 4cb6 3ebc bfe5 afbd 5df6 c43b 6af9 c03c
000000c0: 221c 82bc b6ae edbc 50a8 813c 1f97 1ebd
000000d0: f1e7 3e3d 0f4e 033c fa99 76bd e971 5b3d
000000e0: c862 e0bc 5bdb 643d 1df2 bcbd 6fad 993d
000000f0: 9581 f7bc e84b 6f3d ccdf ad3c 02d6 bd3d
00000100: 454a 8bbd dee3 29bc 5826 c23d 40f4 103d
00000110: 3621 213d 4362 83bc 639b 9cbd 25db 2abc
00000120: 8f37 92bc 54f4 3c3d cc4e 8bbd c283 723d
00000130: 5783 7b3d a5d4 3ebe 3ca3 8d3d d581 8ebd
00000140: 5077 573d 3c3d 59bd 8af3 a13b 2b15 40bd
00000150: 971c 803c 04b6 573d d80e 24bd e8fa 24bd
00000160: 91d1 f8bc 346d 733d 27a8 07bd 9d59 c53b
00000170: 5c02 99bd 3ebc f9bc 3aaf 1bbd 933a 0f3d
00000180: 36cd f73c 46c5 f3bd 447d 8fbb ba10 053d
00000190: e417 993c d9de 9bbd c801 dd3c 9e99 2b3d
000001a0: 585f fabd 5009 1f3c 78e8 b63b e053 a73a
000001b0: d1c6 623d 9105 413d 0809 ab3d 8f54 f0bc
000001c0: 38a5 96bd f78e 543d 0909 9abd eeeb 8bbd
000001d0: 8c7f 913d ff7e 723e 5126 1f3d b2ee 753c
000001e0: cac2 efbc b6d2 9bbd 31cb 9f3d f9ca 463d
000001f0: 17a0 23bd 0d83 a53d 6375 8cbc be93 09bd
00000200: c952 be3b 0c5e 6e3d 8830 38bd 744b a4ba
00000210: 56fe 24bd 961c 7f3d bdf6 5b3d 0b35 a03c
00000220: a23b e5bc 0934 cc3d 31eb 5a3c 0bb0 0dbd
00000230: afaa 86bc c871 93bd 6c82 0a3d 4f8f eebc
00000240: 727c bd3b 3940 53bd 53b3 f5bc cf0e b43c
00000250: 8548 5d3d 5391 69bd 77e8 78bc b7fb 83bd
00000260: 5846 40bd 8699 a1bc f539 69bb b253 903d
00000270: 1b9a f9bc a1db b2bd f00f b53d 95eb 47bd
00000280: 3c2b 82bd 4221 33be d4fe ea3c 8f41 bb3c
00000290: 05da b8bd 2887 70bd 0aa6 1bbe 8be2 03bd
000002a0: 0ff9 363c 6dce 03be 0202 80bd 6988 613d
000002b0: 4dfd 8c3d be59 523d 86f5 8d3d 5e9b 7dbd
000002c0: e291 0f3d 3bd5 033d d5e2 c53b 3dc7 16bd
000002d0: 152f 2cbd 2569 17bb e2df 67bd b485 07be
000002e0: 0272 a73b 9393 00bd 85d9 5f3d 7f0a 42bc
000002f0: de21 a03d f0a1 08bc 904c 9cbc 1ed6 58bd
00000300: 4683 933d fce4 2e3c 36c6 0cbe f9fa 6abd
00000310: 355b 91bd 4888 e63c 5838 11bd 4292 983c
00000320: 5998 0abd a4f1 753d ac83 503b 6516 4a3b
00000330: 52aa ab3d 5ef6 1ebd f7e4 503d 0d65 333d
00000340: 1f4d 123c e986 8cbc aaa2 44bd 1adb 643d
00000350: 24f2 c63d 0ae9 aa3c cfef d93c 03f7 84bb
00000360: 103e f9bd 81e1 06bd ae45 c3ba f853 9e3c
00000370: 9364 173d 3958 40bd 1ff9 fc39 1690 bcbd
00000380: c5bc 883c 0629 14bd 3997 903c 703e a839
00000390: 8a6e d8bd 111e 4c3b 1062 a63a 434a 47bc
000003a0: 7af0 36be af42 273c e804 c8bd 57dc 6b3d
000003b0: bc85 21bd 7fdf d7bd a7d7 cebd 60f8 853c
000003c0: 83ef 403c abe4 853d 8779 65bd ace5 213d
000003d0: 3451 f6b9 c570 9f3c 2261 903c 510f aabd
000003e0: f392 e33c d84d da3c 3d91 c139 c01e 6cbd
000003f0: 9fd1 583d 9935 4639 cd03 093d 8d09 61bd
-0.12268878 0.0525853 -0.04818243 0.007154087 -0.05629182 0.052238714 -0.05493221 -0.03245282
0.02193622 0.07734073 -0.03424252 -0.009510566 -0.1351297 -0.06480119 -0.050000828 0.026397604
0.003650357 0.019049512 0.06920575 -0.047489855 0.026798382 -0.07135901 -0.046902984 -0.05663151
-0.047284387 -0.0346686 -0.030938044 -0.034881648 0.025809953 0.006152495 0.06302322 0.067718714
0.015355511 0.040877335 -0.06813589 0.021074198 0.043000147 -0.048411872 -0.021967134 -0.07541497
-0.043410197 -0.095115915 0.060512487 0.003947659 -0.011640143 -0.085887425 0.006010814 0.02355643
-0.015882555 -0.029013973 0.015827328 -0.03871834 0.046607915 0.008014216 -0.060205437 0.05357543
-0.027390853 0.055873256 -0.09225867 0.07503783 -0.030213157 0.058422 0.021224879 0.092693344
-0.06801275 -0.010369269 0.0947997 0.035389185 0.039338313 -0.016038066 -0.07646825 -0.010428225
-0.017848758 0.046131447 -0.06802139 0.059207685 0.061404552 -0.18635805 0.069159 -0.06958357
0.05260402 -0.053036913 0.004942362 -0.046895187 0.015638633 0.052663818 -0.04005322 -0.040278345
-0.030373367 0.059430316 -0.033119347 0.0060226456 -0.07471153 -0.030485269 -0.038008906 0.03496797
0.03024922 -0.11902861 -0.0043789465 0.032486655 0.01868815 -0.07610864 0.026978388 0.041894548
-0.122252166 0.00970681 0.0055819117 0.0012766086 0.055365387 0.04712445 0.08351332 -0.029337196
-0.07355732 0.051894154 -0.075212546 -0.068321094 0.07104406 0.23681258 0.0388549 0.015010523
-0.029267687 -0.07608549 0.078024276 0.048533414 -0.039947595 0.080816366 -0.017145818 -0.033588164
0.0058082086 0.05819516 -0.044968158 -0.0012534694 -0.040281616 0.06228312 0.053702105 0.019556543
-0.027982537 0.099708624 0.013361738 -0.034591716 -0.01643881 -0.071994364 0.033815786 -0.02912107
0.0057826573 -0.05157492 -0.029992735 0.021979718 0.05402424 -0.057023358 -0.015192143 -0.06444495
-0.046942085 -0.019726526 -0.0035587524 0.070472136 -0.030468991 -0.08733297 0.088409305 -0.048808653
-0.063559026 -0.17493156 0.028685965 0.02285841 -0.09025959 -0.058722645 -0.15200058 -0.03219847
0.011167779 -0.12871714 -0.06250383 0.05506173 0.06884251 0.051355116 0.069315955 -0.061915748
0.035051234 0.032185774 0.0060390034 -0.036811102 -0.04203709 -0.0023103443 -0.056609996 -0.13234597
0.0051100263 -0.031390738 0.054650802 -0.011843323 0.0781896 -0.00833939 -0.019079477 -0.052938573
0.07202773 0.010674711 -0.13747486 -0.057368252 -0.070974745 0.028141156 -0.035454124 0.018624429
-0.033836696 0.0600449 0.0031816764 0.0030836102 0.083820954 -0.038809173 0.050999608 0.04379754
0.00892952 -0.017154174 -0.04800669 0.055873014 0.097141534 0.020863075 0.026603607 -0.0040577664
-0.121700406 -0.0329299 -0.0014898086 0.019327149 0.03696115 -0.046959136 0.00048250795 -0.0920717
0.016691575 -0.036171935 0.017650234 0.00032089977 -0.10567959 0.003114585 0.001269402 -0.0121637015
-0.17865172 0.01020877 -0.09766561 0.05758318 -0.03943418 -0.10540675 -0.10099726 0.016353786
0.011775854 0.065377556 -0.0560241 0.039525673 -0.00046981277 0.019462952 0.017624442 -0.083037026
0.027780032 0.026648447 0.0003692004 -0.057646513 0.052934285 0.00018902718 0.03345089 -0.05494075

model.2.bias f4 [256]
00000000: cd20 1e3d fddc 623d 2442 79bd 33d3 dfbc
00000010: fe63 07bd fc5d 203d e4f3 3c3d 0474 3abd
00000020: a110 503d 7c61 babc 148f 9c3c 2dab 6fbd
00000030: ce5b 563d 3a4e c8bc e5a9 6a3d b6b9 d73c
00000040: 7d79 d8bc 49a0 84bc b3bd 073d 52ef 173c
00000050: 82da a83c bf71 d1bc 0611 053d ffa9 07bc
00000060: 0dfa c43c 0c1d a4bc 5810 293d dc4b 383d
00000070: 62af 9c3c 07b5 eebc db9a 0ebc 3e3b 93bc
00000080: 3189 a23c 120f b7bc 6b61 18bd dd05 803d
00000090: 07c2 9f3b 7583 c93c d157 12bd ddae 2f3d
000000a0: 68ae 84bd 5237 0b3d fb6d e43a a38b 7eb9
000000b0: 6307 debc 960f 443d 9d96 a5bc e5c2 d43c
000000c0: c1bb 83bc 5f39 8b3d 789b cd3c 9420 823d
000000d0: 303e 2cbd 5ded 4b3d d3dd 813d e006 cebc
000000e0: b148 223d 375b 7e3c 9bcc e43c e8bd aaba
000000f0: ca5c 9b3c 2f35 583b 9905 17bd 9ea0 253b
00000100: d337 a53b 2d20 243d 6ea6 89bc f556 253d
00000110: 07f1 65bc 4aad 623d 2c42 853d e884 4e3c
00000120: 89fe 19bd 48e4 50bd 8bd2 203d 6c33 50bb
00000130: 881b 123b 181f 933d 85fb 983c 9c1e 81bd
00000140: 0c5b 2fbd 57ce 6cbd 17c1 3f3d 6ae7 103c
00000150: 7fc2 e3bb d2ae a3bc e6b0 57bd 43da c9bc
00000160: 653d 533d abac 303d a3d2 fc3a 75d8 38bd
00000170: 0b38 b73b b523 c9bc 29c3 d43c c081 b43c
00000180: 9528 1a3d 0031 193d ecf0 6d3c 4196 b93b
00000190: 6da6 2bbd 99cb 0b3d d808 22bd be3e 93bd
000001a0: b52f 213d 431d 3cbd a5f5 6dbc 60f3 67bd
000001b0: d3dc c3ba a251 3f3c 3e0b b93b 0d7c 4bbd
000001c0: 6a37 0f3d d66e 1b3c 2508 6b3d 3630 b73c
000001d0: df2c ad3c e805 5abd 0c11 473a 020e d2bc
000001e0: 7aa3 f93c d0e3 30bd 722d e43c a7aa 1a3d
000001f0: ac33 abbb 3f11 0f3d 42e7 a13c fcbe c23c
00000200: 71f4 533b 0777 4bbd 84ff f7ba a999 edb9
00000210: 4f4e 733d a86c 75bd 3b6a f7bc 1a71 9cbc
00000220: 4437 553d 7720 58bd b3a5 72bc 2f6b 5a3d
00000230: d211 823c 69a3 a23d ea67 3fbd ded8 76bd
00000240: da11 b9bb d8ab 8b3c d70f 343d f753 a9bc
00000250: eaae 4abd 1f45 91bc cabf 343c 2b2e 4fbd
00000260: 2a5a a5bd 1182 84bb 03ba ebbc b3f1 633d
00000270: 34f8 2a3d efc1 1f3d 0f70 bdbc 4d8e 75bd
00000280: 51b9 22bd 8bb7 b6bc f2a3 1f3d 1ade 2c3c
00000290: 495b 81bc bb17 42bc 3272 42bc 1fe7 4b3d
000002a0: 0c6f 3b3d 420b f83a 0b4e 18bd a966 3d3d
000002b0: 0505 df3c 27c6 38bd f584 233d edba 81bc
000002c0: 33e7 25bd 5610 213d f850 2b3d 2f1c a33c
000002d0: 7f39 09bc 281a 053d ba14 42bd 6ca7 863d
000002e0: 1e9d afbc 3c00 2ebc 0a74 273d 9b7b 8dbd
000002f0: b10e 053d fd9b 7b3c f14e c1bc 14c7 aa3b
00000300: b484 06bd 327f 243c 93fd 92bd ad13 73bd
00000310: 2373 113b c324 09bc a29c cf3c fc03 a0bc
00000320: 6828 603d 2c7a 1a3d 5068 433d f620 18bd
00000330: 3776 6b3d 9e42 eb3c 118e cc3b 2370 99bb
00000340: 9f31 33bd bd1c 82bc b58e 59bc bf0b 84bd
00000350: 5471 56bd ee35 66bd 64e9 443d 9c7a cdbb
00000360: 6189 0b3d ebac 4cbc 8895 11bd 74fb a83a
00000370: bcf7 3ebd f3d1 c93c 8e20 243d 8b87 fcbb
00000380: 151a b7bc 6418 5fbd 3fa6 853d 2412 27bd
00000390: 208b 0c3d 4642 fbbc a0a6 30bd c7ab 333d
000003a0: 7e79 61bb f231 613c 238a 1e3d d66e 2f3d
000003b0: 2ea6 bf3c a0fd 84bd 3960 8dbc 9506 993c
000003c0: 9a47 5c3d 269b 093d 9e18 4bbc f41a 86bc
000003d0: 0251 de3c ceeb ee3c 71e1 a0bc e765 1a3d
000003e0: 2e94 ac3d bd5c de3c bbe6 93bb 250f b13c
000003f0: 04fa e0bb cf67 3a3d 71c9 2f3c a334 d63b
0.0386055 0.055386532 -0.060854092 -0.027322387 -0.033054344 0.03915213 0.04613103 -0.045520797
0.05079711 -0.022751562 0.019111194 -0.058512855 0.052333646 -0.024451364 0.05729093 0.026333671
-0.026425118 -0.016189711 0.033139896 0.009273367 0.020612005 -0.025566934 0.032486938 -0.008280276
0.024045015 -0.020033382 0.041275352 0.04499422 0.019126598 -0.029139055 -0.008703913 -0.017972585
0.019840809 -0.022346053 -0.03720228 0.06251118 0.004875425 0.024598816 -0.03572828 0.042891372
-0.06478578 0.033988304 0.0017427796 -0.00024275346 -0.027103132 0.047866426 -0.02021342 0.02597184
-0.016080739 0.06798052 0.025098547 0.0635387 -0.042051494 0.049786914 0.06341138 -0.025149763
0.039620105 0.015524677 0.027929595 -0.0013026567 0.018965144 0.0032990684 -0.036870573 0.0025272737
0.005042055 0.040069748 -0.016802993 0.04036613 -0.014034516 0.055341043 0.06506762 0.0126049295
-0.03759626 -0.050998956 0.03926329 -0.003176893 0.0022294242 0.07183665 0.018674621 -0.063046664
-0.04281144 -0.05781397 0.046815004 0.008844236 -0.006950676 -0.019980822 -0.052658938 -0.024640208
0.051572222 0.04313342 0.0019288849 -0.045128305 0.0055913976 -0.02455316 0.025971966 0.022034526
0.03763636 0.037400246 0.014522772 0.0056636636 -0.041906763 0.034129713 -0.039559215 -0.071897015
0.039352138 -0.045926344 -0.014523898 -0.056628585 -0.001494313 0.011677178 0.005647092 -0.04967885
0.034964956 0.009486875 0.057380814 0.022361856 0.02113956 -0.05322829 0.0007593788 -0.025641445
0.03047346 -0.04318601 0.027853701 0.037760403 -0.0052246656 0.034928557 0.019763593 0.02377271
0.0032341743 -0.04967406 -0.0018920754 -0.00045318648 0.059400853 -0.059918076 -0.030202022 -0.0190969
0.05205466 -0.052765336 -0.014810014 0.053324874 0.015877638 0.07941324 -0.04672996 -0.060265414
-0.00564788 0.017049715 0.04396042 -0.02066992 -0.049483217 -0.017733155 0.011032054 -0.05058114
-0.08073838 -0.0040438254 -0.02877522 0.055650424 0.04174061 0.03900331 -0.023124723 -0.05995016
-0.039727513 -0.022304317 0.03897471 0.010551 -0.015790598 -0.011846478 -0.011868047 0.04978096
0.0457602 0.0018924254 -0.037183803 0.046240482 0.027224073 -0.045110848 0.03992172 -0.015836203
-0.040503692 0.03932222 0.041825265 0.0199109 -0.008375525 0.032495648 -0.047383048 0.06574902
-0.021437224 -0.010620173 0.040882148 -0.069083415 0.032484714 0.015357015 -0.023597213 0.0052117202
-0.0328414 0.010040091 -0.07177272 -0.059344936 0.002219387 -0.008370581 0.025343243 -0.01953315
0.054726034 0.03771417 0.047706902 -0.03714081 0.057485785 0.028718289 0.0062425216 -0.004682557
-0.043748494 -0.015882844 -0.013278653 -0.06447553 -0.052354172 -0.056203775 0.04807414 -0.0062707197
0.03406656 -0.012492399 -0.035542995 0.0012892322 -0.046622977 0.024636244 0.04007011 -0.0077065877
-0.022351304 -0.05446662 0.065258496 -0.040788785 0.034312367 -0.03067125 -0.043127656 0.04386499
-0.003440469 0.013744818 0.038705956 0.04283031 0.02339467 -0.06493688 -0.017257797 0.018679896
0.053779222 0.033595227 -0.012396006 -0.016370274 0.027138237 0.029165175 -0.019638749 0.037694838
0.084267005 0.02714383 -0.004513589 0.021613667 -0.0068657417 0.045509156 0.01072918 0.0065370365

model.4.weight f4 [256, 256]
00000000: ef3a f73d de9c 953c 0741 ee3c 996d a03b
00000010: ea60 28bd f6d0 04bd 75fd 21bc 0792 92bc
00000020: 5326 d2bd d4a4 213d c909 3b3d 8a9d 65bd
00000030: 14d9 08be 445b 133d 0ce6 aabb 0839 34bc
00000040: c28b 77bd f352 8abd 3053 70bc 8d1a 2c3d
00000050: c71f f83c 2cdd 94bd af23 1e3d 9b50 03ba
00000060: 8ca6 85bc 7f19 cb3c d34c 853d af22 233d
00000070: 2fc0 953c 6a29 3f3d bfcd 75bd 5be2 3b3d
00000080: 1ceb 1cbd 809b 89bc a6d3 893d 20d0 883d
00000090: c474 3a3d a752 87bd dbb8 783d bff5 09bc
000000a0: 366b 09bd ec7b d1bb 3e82 5bbd 5393 c1bc
000000b0: 5e47 3f3c 55fe 02bd c3de 873d c57a 053c
000000c0: bcf9 1a3d a686 1cbb 6863 a4bd c519 87bd
000000d0: a183 2bbd 7e8d f0bc 507e 1cbd e0e2 04be
000000e0: 7f20 ba3c af6f 813c ee4f cb3d e208 653d
000000f0: d4dd 22bc fd19 2bbd b9e6 fc3c 82a7 23be
00000100: 6bb0 f3bc 5e1a ac3d 2fba 40bd 9e49 0a3d
00000110: f53f 933d 3a31 17bd 898d 563c f6df bbbd
00000120: 3b56 253d 43e1 c3bd 25e1 49bd 4b19 823d
00000130: 0c8a fabc 9cc6 0ebd 11d4 063a 7d0c 82bd
00000140: 398f 7bbd da3d e33b d2bc a63d 4d1b 273d
00000150: ca8c 533c 12c8 7fbd febf 673d e5fd f5bc
00000160: 45e3 18be 6281 b1bd 564e ab3c 335e 563a
00000170: 2859 35bd 3e33 89bd 11c2 33bd 70aa babd
00000180: d051 05bd edbc 7bb9 0fc0 c4bc efc5 26bd
00000190: 12c4 5f3d 4326 02bd dd1c 353d dcf1 113d
000001a0: dc6e b2bd 8d1e 313d 1340 a1bc dd74 eb3c
000001b0: daf9 3ebe a707 debc c681 2fbc 0981 5c3d
000001c0: 23ba fabd 7359 073e 6ca9 61bd 716a 1fb8
000001d0: a07e f5bb 41d7 843d e3d3 493d ec08 d13b
000001e0: 9340 ae3b f432 b4bd a9e4 d8bc 16c1 32bd
000001f0: dc73 c7bc a78e cebd 5ef5 ac3d b7c6 583c
00000200: 768d 323d 072b c93d 2804 a03c f3f3 6d3d
00000210: aa40 e93c 9de6 8c3d 6878 be3d 4daf f93b
00000220: 7386 833c 76fd 0c3d be6f 2dbe 7322 f7bd
00000230: 8a22 9e3d 6d9a a33c 8468 ee3d 45f6 ba3c
00000240: 3561 0f3b 093b 87bc 8834 503d e323 c6bd
00000250: f7f5 cebd 1bb1 4fbb aab7 733d 6b2b adb9
00000260: 88f1 0c3d b060 7b3d 1a7d a9bc 7459 07bd
00000270: 4a7b 933d 5ac9 a53d 7dbb 87bd 4467 a53d
00000280: 5e13 323d 99fa 1fbc 1a8b 11bd 01fd 1ebd
00000290: 3437 843d bd7e ccbc d54f 08be e604 423d
000002a0: e2b1 f93c adfa 3ebd 1c61 a53d e57a 7a3c
000002b0: 9762 943b 4589 97bd d140 9dbd f512 abbd
000002c0: f844 e6bc ab35 c4bb de16 0dbd 172a 843c
000002d0: fa07 9bbd 5ad5 0d3c 2dcd b3bc c0d9 313d
000002e0: 6bf5 d7bd 3ccc 0f3d ae7c 82bd fe5c 34bd
000002f0: 1572 9b3c 6853 bcbd e5d6 58bb ed2c 19bd
00000300: 582a 0bbe bdd5 eb3c 6320 2bbd c9dd 71bc
00000310: 95db 983d 9723 c7bd 35f7 c53d 3f41 14bd
00000320: 4e81 20bc 2118 a23d 442c b0bc 97ef 36bd
00000330: 7509 81bc 5e09 54bd af19 003d c48c 243c
00000340: d9f1 ccbc ee7b 28bd 458c 8fbc 566e edbc
00000350: 3adc 31bd 38f1 ad3d ba0e 08bd 0784 a1bd
00000360: 9d52 a1bc 512d 16bc 2ee7 0bbd f375 1fbb
00000370: 3d5d 27bb de94 00be daf1 3f3d d384 843c
00000380: 7388 f8bd b6fe 17be 6452 8c3d 3564 473d
00000390: e623 c33c c4b3 27be f007 f6bc 8a4b bdbd
000003a0: d00b f7bc bef0 2abd a071 2c3d e940 bdbd
000003b0: 26ee d2bd 7c35 ae3d 4708 19bd 9b84 ca3b
000003c0: 3cfd 23bd 77ee 0bbd cc4e 003e e2b5 9e3c
000003d0: 31ae 033d ae35 b73c 9f29 a1bd 71d1 03bd
000003e0: d19d 783d 6a94 ec3b a2f7 7ebc d527 66bd
000003f0: 8d11 acbd 15d8 9bbc e0f9 c7bd 4601 883d
0.120717876 0.018263277 0.029083742 0.0048958776 -0.04110805 -0.032425843 -0.009887089 -0.017891897
-0.10261216 0.039463833 0.04566363 -0.056058444 -0.13364059 0.03597571 -0.005215412 -0.010999925
-0.060436018 -0.067541026 -0.014668271 0.04201751 0.03028859 -0.07268748 0.03860825 -0.00050092646
-0.016314767 0.02479243 0.06508794 0.039828 0.018280117 0.046670355 -0.060010668 0.045870166
-0.038310155 -0.016797781 0.06729822 0.06680322 0.045521513 -0.066075616 0.060723167 -0.008420407
-0.03354951 -0.0063929465 -0.053591006 -0.02362982 0.01167473 -0.03198083 0.06634285 0.008146946
0.03783582 -0.0023883968 -0.08026773 -0.06596712 -0.041873578 -0.029364344 -0.0382064 -0.12977171
0.022720573 0.015800325 0.09927355 0.055916674 -0.009940583 -0.04177283 0.030871736 -0.15981868
-0.029747209 0.08403467 -0.04705256 0.033761613 0.07189933 -0.03691218 0.013095268 -0.091735765
0.04036544 -0.0956445 -0.04928698 0.063524805 -0.030583404 -0.034857377 0.00051432947 -0.06350038
-0.061415885 0.0069348635 0.08141483 0.04079752 0.012911985 -0.06244666 0.056579582 -0.030028293
-0.14930446 -0.08667256 0.020911377 0.0008177489 -0.04427448 -0.06699227 -0.043886248 -0.091145396
-0.032548726 -0.00024007606 -0.024017362 -0.040716108 0.054630347 -0.03177477 0.04421698 0.035631046
-0.08712551 0.043242026 -0.019683873 0.028742248 -0.18649998 -0.027103258 -0.010712093 0.053833995
-0.12242534 0.13217716 -0.055093214 -3.8007685e-05 -0.0074919015 0.06486369 0.049274337 0.0063792374
0.0053177564 -0.08798781 -0.026476221 -0.043641172 -0.024347238 -0.100858025 0.084452376 0.013230971
0.04359194 0.0982266 0.019533232 0.058093976 0.028473217 0.068799235 0.093003094 0.0076197744
0.016055321 0.034421407 -0.16937158 -0.120671175 0.077214316 0.019971097 0.116410285 0.022822509
0.0021878008 -0.016507642 0.050831348 -0.096748136 -0.10105508 -0.0031691256 0.059501328 -0.0003302948
0.03441003 0.061371505 -0.020689536 -0.033044294 0.0720125 0.080950454 -0.066275574 0.08076337
0.0434755 -0.009764337 -0.03553305 -0.038815502 0.06455842 -0.024962777 -0.13311704 0.047367953
0.030480329 -0.04662578 0.08075163 0.015288089 0.0045283544 -0.07399229 -0.076783784 -0.08353225
-0.028109059 -0.005987843 -0.034445636 0.016133351 -0.07569881 0.008656824 -0.021948421 0.043420553
-0.10544857 0.035106882 -0.06371437 -0.044033997 0.018975297 -0.09195596 -0.0033087071 -0.03739636
-0.13590372 0.028788442 -0.041778933 -0.01476235 0.07463757 -0.09723585 0.096662916 -0.036195036
-0.009796454 0.079147585 -0.021505482 -0.044662084 -0.01575158 -0.051766746 0.031274494 0.010043327
-0.025017666 -0.041133814 -0.01752294 -0.028983276 -0.043422915 0.084932745 -0.03321717 -0.0788651
-0.019692713 -0.009166078 -0.034156017 -0.0024331778 -0.0025537752 -0.12556788 0.046861507 0.016176617
-0.121354006 -0.14843258 0.06851652 0.04867955 0.023820829 -0.16377169 -0.030033082 -0.092429236
-0.030157 -0.041733496 0.04210055 -0.09240896 -0.102993295 0.08506295 -0.03736141 0.0061803586
-0.040036425 -0.034162965 0.12530059 0.019373838 0.032148544 0.022364464 -0.07869267 -0.03218216
0.06069738 0.007219841 -0.01556197 -0.05619033 -0.08401785 -0.019023934 -0.09764457 0.06640868

model.4.bias f4 [256]
00000000: 1a2c 8d3d 130e 5ebd b7a4 113d ff29 0dbc
00000010: 4d5b 41bb b320 423d a544 f9bc 172b 6f3d
00000020: e7fb 0c3c f330 8c3d f254 5abc dfb8 923c
00000030: 00c4 87bc 0f57 adbc 7698 393c 1afa 0a3d
00000040: 80c7 7fbd fd66 fe3c 8060 6d3d ae20 c6bc
00000050: b74b 943c 7951 163d 3e18 b2bc 4d37 803d
00000060: 9bf0 ca3b 8b50 44ba b0bd 1a3d 954b 543a
00000070: 507e 7cbc d037 893d 1a80 2d3d f12f 9dbc
00000080: 8715 32bc c881 ef3c cd6c 8cbc 7a5d 86bc
00000090: fc6b 863c e33c 6dbd 10c9 f1bc 03cc 003c
000000a0: 4cc6 f0bc a2d5 893d dbf5 243d 9e2f 103c
000000b0: 3417 b9bc 9f3a 3abc 0135 bebc 6702 e1bc
000000c0: df89 e3bc a4d1 733d c467 163d 78b2 c5bc
000000d0: d5fc 51bd 6f1d 8dbd 5138 4fbd 644c a7ba
000000e0: 3573 553d 65d9 273d 9d22 ddbc aba6 b53b
000000f0: 345a dfbc d276 a7bc 66e0 003d 5278 123d
00000100: 1747 853d 9040 41bd bef5 953d 34bd 11bd
00000110: 8dd7 02bd 486a 793d 2e06 9bbc 2241 0bbd
00000120: d93b 58bd 7da5 76bc bb0b 953d 52c4 aa3d
00000130: c62e 28bc e6f1 703a 5a09 5e3c 843c 9a3d
00000140: d217 553d 173f de3c 20eb e93c 06c6 463d
00000150: 7dab b4bc 00eb 543c 85c5 4a3d 684f 013c
00000160: dcfa 253d 4bd0 663d 4424 07bd 7c7e 6dbd
00000170: 7567 353d 5299 713d 71a3 9cbd 5bf7 dabc
00000180: b6d8 14bc 3fbe 313d 8c8a 013d 7a40 2f3d
00000190: 2054 203d d5b1 93bc 5432 853c 1f91 60bd
000001a0: 61c0 1fbd 4f28 9f3d dd16 823d 3083 233d
000001b0: 4214 553d 8c55 3b3d b8b8 f7bc 21f6 cb3c
000001c0: 2a6d 203d 619e 233d bcfa cfbc 24a6 ad39
000001d0: 319b cfbc fab1 543d fef1 66bd fe6d 5d3d
000001e0: c180 6bbd 1430 2bbd 35b5 acbc 6a37 e23c
000001f0: 9619 573c 123a 993c b241 57bd 484f e1bc
00000200: c21f 74bd 2657 9f3c 5e4c 35bd af8a 8d3d
00000210: 1fe7 e53c 108e d13b b1c6 93bd b8b6 30bd
00000220: 5e9e 1abd 9e25 b53b d3c2 8d3d 4667 87bd
00000230: 7417 84bd d8f3 14bd a0b6 4c3d 223f 013d
00000240: 2039 91bd caeb 75bc c6db 153c 4e2b 1dbd
00000250: 8c0d 5d3c 3ce2 88bd 6757 fcbc 1b70 1d3d
00000260: dd23 a5bd 59ba 5c3c 938e 19bd 191e 25bd
00000270: 2a8f 84bc 0879 d1bb 529b 983b 600a 1e3c
00000280: e32f c33c b6ec 483d 7515 c03c af5b 90bd
00000290: 0b9b 0a3d f058 d6bc 513b 91bc debd 0dbc
000002a0: 4407 903c e314 343d 6076 943d a960 fe3c
000002b0: 4389 d5bc 6a80 393d 37b7 94bd 876c 49bd
000002c0: 536a 1bbd 2c52 9d3d 4f63 aebc 3db7 3f3d
000002d0: f3f2 e33b 85b3 683d 4c70 21bd 1513 663d
000002e0: fee3 00bd 246a 83bd d522 71ba 51cc a1bd
000002f0: 84ec 903d 6a89 323c b961 fcbb ea72 573d
00000300: cfe7 e03c c728 bd3c 7ccb 2b3d 46bc 0b3c
00000310: faec ad3c c767 923d ba88 79bd 3e86 1b3d
00000320: cb8c 69bd 289c 393d 00ef f3bb 7336 0f3d
00000330: f5f3 c33a b476 39bd a75d 47bd af90 cebc
00000340: b60c 873d 0cbf 69bd 8de5 0f3c 0876 28bd
00000350: 5d19 1bbc ae90 bebb 7f54 28bd f11d 4ebd
00000360: 97e5 c1bc 44ec 40bb 2824 31bc af5f 23bc
00000370: ab53 953d c2d7 903c 68eb 47bd 8fc0 923c
00000380: ebf2 553d 7175 9fbd d403 a2bb 943f 353d
00000390: 4dba e0bc fd3f 93bd af5b 3c3d 733f 2c3c
000003a0: bd82 313d 9ae4 743d 8f00 c0bc 5d59 0fbd
000003b0: 263d f4bc c4e5 943d 6cec 56bc 29ac 7f3c
000003c0: 2b6b 3d3b d2fe 88bd 7c98 abbc f09f 233b
000003d0: 5ae7 953d 2177 d6ba 11a5 b7bc 60aa 9cbc
000003e0: 7e29 6bbc a852 8c3c 61a2 073c c5f6 92bd
000003f0: 3351 d9bc 62d5 c63b ba9c 59bc e099 843c
0.06893177 -0.05421264 0.035557475 -0.00861597 -0.0029503882 0.047394466 -0.03042824 0.058390703
0.00860498 0.06845274 -0.013325917 0.017910419 -0.016572952 -0.021159677 0.011327853 0.03392992
-0.062446117 0.031054968 0.057953358 -0.024185505 0.01810251 0.036698792 -0.021740075 0.06260548
0.006193233 -0.00074888085 0.037778556 0.0008098421 -0.015410975 0.067000985 0.042358495 -0.0191879
-0.01086939 0.02923669 -0.017141724 -0.016401995 0.016408913 -0.057919394 -0.02951482 0.00786114
-0.02939143 0.067302 0.04027353 0.008800415 -0.022594072 -0.011366515 -0.023218634 -0.027466966
-0.027775703 0.0595261 0.036720052 -0.024132952 -0.05126651 -0.0689038 -0.050590817 -0.0012763855
0.052111823 0.040978808 -0.026994044 0.00554355 -0.027264692 -0.0204424 0.031464003 0.035759278
0.065077 -0.047180712 0.07322262 -0.03558083 -0.031943846 0.060892373 -0.018923845 -0.033997662
-0.05279145 -0.015054104 0.07277628 0.083382264 -0.010265058 0.0009191319 0.013552034 0.07531074
0.05202467 0.027129693 0.0285545 0.048528694 -0.022054428 0.0129954815 0.049504776 0.007892467
0.04052244 0.056350987 -0.03299357 -0.057981953 0.044288117 0.05898411 -0.076483615 -0.026729276
-0.009084871 0.043394323 0.03162627 0.0427861 0.039142728 -0.018029133 0.01625935 -0.0548259
-0.039001826 0.0777136 0.06352017 0.039920032 0.052021272 0.04573588 -0.030239448 0.024897637
0.039166607 0.039945964 -0.025388114 0.00033120916 -0.025342556 0.051927544 -0.056383125 0.054059975
-0.057495836 -0.041793898 -0.0210825 0.027614314 0.013128659 0.018704448 -0.052552886 -0.027503625
-0.0596006 0.019450735 -0.044262283 0.069112174 0.028064309 0.006395109 -0.07215632 -0.043143004
-0.037748687 0.005528166 0.069219254 -0.06611495 -0.06449786 -0.03636536 0.049978852 0.03155435
-0.07090974 -0.01500983 0.009146636 -0.038371377 0.013491999 -0.06683776 -0.030803395 0.03843699
-0.08063481 0.013472163 -0.037489485 -0.040311906 -0.016181547 -0.006392602 0.0046571875 0.009646028
0.023826545 0.04905387 0.023447732 -0.07048737 0.033839267 -0.026165456 -0.01772848 -0.008651225
0.01758159 0.04396523 0.07249141 0.03105195 -0.026066428 0.04528848 -0.07261508 -0.049175765
-0.037943196 0.07681689 -0.021287588 0.04680561 0.006956452 0.05681183 -0.039413735 0.05617054
-0.03146743 -0.06416729 -0.0009198611 -0.079002984 0.07076362 0.01089702 -0.007702079 0.052599825
0.027454285 0.023090733 0.041942105 0.008528775 0.021231163 0.071487 -0.06092141 0.03796982
-0.057019036 0.045314938 -0.0074442625 0.034964036 0.0014950024 -0.04527922 -0.0486733 -0.025215475
0.06594221 -0.057066962 0.0087827565 -0.04112819 -0.009466496 -0.005815587 -0.041096207 -0.050321523
-0.023669047 -0.00294377 -0.010811843 -0.009971543 0.07291349 0.017681006 -0.048808485 0.017914085
0.052233618 -0.07786072 -0.004944304 0.044250086 -0.027432585 -0.07189939 0.045985874 0.010513174
0.043337572 0.059788324 -0.023437766 -0.034997333 -0.029814314 0.07270387 -0.013117891 0.015605011
0.0028902988 -0.06689228 -0.020946734 0.0024967156 0.073195174 -0.0016362407 -0.022417577 -0.01912421
-0.014353154 0.017129257 0.00827846 -0.07175974 -0.026527977 0.0060679177 -0.013281995 0.016186655

model.6.weight f4 [16, 256]
00000000: 116f 57bd e4a6 633d 8739 adbd a024 06be
00000010: ceb6 2bbd 6f04 28bd 943f 823d df50 843e
00000020: 6307 de3b bee3 37bd 7d0a b6bc b7f6 98bc
00000030: 5d18 8fbd 60e6 9dbc 1e58 89be 0915 3b3d
00000040: bc40 e2bc a213 d8bd 6b0c dfbd 1070 8bbc
00000050: 6130 853d 6574 0dbe c0ee dfbd 31df e13d
00000060: 2b93 9e3d 6511 9dbc c453 963d e0de 54bd
00000070: 66bf db3c 8c1c d5bc 8aeb 63bb 72d3 9fbd
00000080: 4caa 6f3d fc92 9e3d ebb2 6ebd 9fa6 023d
00000090: 647a e83c 03a8 473e e965 e0bd 01e7 0bbe
000000a0: 005f 503c c7e2 62bd dc5e 213d e968 1c3e
000000b0: 99d2 643c 9e65 283d e90e dabc 2e6a 3a3d
000000c0: f2a8 13bd 2245 803d 6818 6a3d c72a a13d
000000d0: 51e6 91bc 37f7 a33d e6e3 b73c f8ec 333d
000000e0: 460e 9ebd 0e36 4bbb 92fc 82bc b1ed cb3e
000000f0: 9b78 32bc 5457 693d e931 96bc 56cc 0abd
00000100: a55c e13d 89e7 04be f60c 7f3d 7949 ed3d
00000110: 077b 21bc 5ee2 aa3d 9f9e 373d 1dcd 953e
00000120: 7293 fabc 5bcd 26bd 9c9b a03d 1e5c 88bd
00000130: 74f9 1fbd 7a71 9dbc 0794 543d e107 693e
00000140: 70fa 6a3e 82a1 803d 95e3 263d ca9a 163c
00000150: 941a 323e 8d9f 19be b2f5 8abd fa24 d0bd
00000160: 23f6 9b3d 1c76 7dbd 9eaf 193d 19f8 53bd
00000170: 95f2 32bd 3849 0ebe 23ff a03c f663 38be
00000180: 925a f63c 7645 ee3d e0d9 19bd b5b5 b13c
00000190: d6c1 763d 2cf8 883c 0cc8 26bd 37d1 0ebd
000001a0: 6bbb 48be bc7b 0c3d 925d 993c d5ea 053e
000001b0: 961d 163d 0582 93bb 6589 2a3d 6ec5 8fbc
000001c0: f84d 9f3c 9b13 5d3d 134a b23c 5aa4 0a3d
000001d0: b4c9 4cbd 4858 c53d a7ee 2fbd b933 0bbe
000001e0: 5e8d 033e beac 64be 3de3 14be 532c 92bc
000001f0: e2de b2bd f128 87bd b745 543d 305b a6bc
00000200: b02d 2fbb 66bb b43d 5770 20bd 4d35 3dbd
00000210: 369b 9d3d 41e8 9ebb 77aa 26bb 0015 6c3d
00000220: 67ef ab3d 19f6 f53d 6608 e53d 6626 37be
00000230: 79cb 553d 5c51 9cbb 45b2 5e3e e01c 903e
00000240: 41fb 19bd bdba ca3a df2e 27be b798 acbd
00000250: 1757 09be 4bb1 30be d7f3 9cbd 1f7c d0bd
00000260: 8f5b 163d 1b08 eebc 5d75 96bd 26c2 3ebd
00000270: a328 053d 3d68 79bd b401 43bd 213c cebd
00000280: 5d91 253b 641c 4bbd 947e a7bc 52f3 2a3c
00000290: eeb0 3fbb 2752 71bc f2b6 883d 918f af3d
000002a0: 0fe6 1cbd 8bb9 893d fef5 433d 6022 97ba
000002b0: 52ab 793d e648 9dbd 4127 fbbb e233 523d
000002c0: c101 5a3c cc4d 5f3d 9180 013d 28e4 6ebd
000002d0: ff7e 8fbc 220c 2cbe 6a57 25bd 2e88 82bd
000002e0: a863 04be 5492 a3bc 71df 28bd c96c e53c
000002f0: 0cf4 1c3e 944a 3a3c d447 a9bc a0d3 a0bd
00000300: 13d9 b23e 360e 8fbc 435c c13c 5600 b23c
00000310: d1e9 96bb 755e 66bd 042f b5bb 123a aabd
00000320: 405d 753c 3a35 c3bd ea5e eebd 0692 febd
00000330: af29 04be 799d 72bd b4d7 98bd 77db a9bc
00000340: e8df 9ebd cde3 c73c 27c1 35bd 76b2 cc3c
00000350: 96a3 55bd 68f9 8f3c f77c 1c3c b3ed 893d
00000360: bb49 4fbe 9dae 0ebd e6af e1bb bbc3 fd3d
00000370: 8d4d 65bc 2773 593d 377e 50bd a16e 2a3d
00000380: 60de bf3d f295 3dbd f940 743e b30c 413d
00000390: 388a ca3d ba71 85bc c912 b8bd 9b6c 123d
000003a0: 7764 0c3e b4e7 1cbd 26cc ca3b 13ce 993c
000003b0: 92a9 d8bd e108 04bd 18e7 4f3d 98ba 09bb
000003c0: 99a5 48bd 9a9e 4fbc 88f1 8abb 530e dabc
000003d0: 416a c13e fb0f 663d 4d00 673c bacc d2bd
000003e0: be96 42bd a02d 983b 6b0b 293d 2eb0 383d
000003f0: 228e 933d ee36 973d 4ffc db3c f988 11be
-0.052596156 0.05557908 -0.08458238 -0.13099909 -0.041922383 -0.041019853 0.06359783 0.2584295
0.006775783 -0.044894926 -0.022221798 -0.01867233 -0.06987069 -0.01927489 -0.2682504 0.045674358
-0.027618758 -0.1055062 -0.108910404 -0.017021209 0.06503368 -0.13813932 -0.1093421 0.110288985
0.07742914 -0.019173333 0.07340196 -0.051970363 0.026824664 -0.026014589 -0.0034777843 -0.07804002
0.058512017 0.07742879 -0.0582761 0.031897184 0.028378673 0.19497685 -0.10956938 -0.1366234
0.012717962 -0.055392053 0.039397106 0.15274395 0.013966226 0.041112535 -0.026618438 0.045511417
-0.03604979 0.06263186 0.057152182 0.07869487 -0.017810019 0.08006137 0.022447538 0.043927163
-0.07717566 -0.003100756 -0.015989576 0.39829782 -0.010893012 0.05696805 -0.018334346 -0.033886276
0.11003999 -0.12978949 0.06226822 0.115862794 -0.009855992 0.08343957 0.044829007 0.29258052
-0.030587886 -0.040723186 0.0784218 -0.06658195 -0.039056256 -0.019219149 0.051898982 0.22756912
0.22947097 0.06280805 0.040744383 0.009192178 0.17392951 -0.1500227 -0.06785144 -0.10163303
0.07615306 -0.061880216 0.037520997 -0.051750276 -0.043688376 -0.13895118 0.019652909 -0.18006882
0.030072484 0.11634342 -0.037561297 0.02169309 0.06024345 0.0167199 -0.040718123 -0.03486749
-0.19602744 0.03429769 0.018721376 0.13077863 0.03664931 -0.0045015835 0.041634936 -0.017550196
0.019446358 0.053973775 0.021763837 0.033848144 -0.049997047 0.09635979 -0.042952206 -0.1359395
0.12846896 -0.22331521 -0.1453981 -0.017843401 -0.08733918 -0.06599606 0.051824298 -0.020307153
-0.0026730113 0.08824806 -0.039169636 -0.04619341 0.0769562 -0.004849464 -0.0025431195 0.057637215
0.08395272 0.1200983 0.111832425 -0.17885742 0.052196 -0.004770441 0.21747692 0.2814703
-0.03759313 0.0015467029 -0.16326474 -0.084275655 -0.13412128 -0.17255132 -0.07663696 -0.10179924
0.03670841 -0.0290566 -0.07346604 -0.046571873 0.032509457 -0.060890425 -0.047609046 -0.100700624
0.0025263645 -0.049587622 -0.0204461 0.010433989 -0.0029249745 -0.014729059 0.06675519 0.08572305
-0.03830534 0.06724843 0.04784202 -0.001153063 0.0609544 -0.0767992 -0.0076645915 0.05131901
0.013306082 0.054517552 0.03161675 -0.058323056 -0.017516611 -0.16801503 -0.040366568 -0.063736305
-0.12928641 -0.019967236 -0.041228715 0.028005974 0.15327471 0.01137032 -0.020664133 -0.07852864
0.3493124 -0.017462831 0.023603564 0.021728676 -0.00460551 -0.056242425 -0.0055292863 -0.08311857
0.014975846 -0.095316365 -0.11639197 -0.124301955 -0.12906526 -0.05923221 -0.07463017 -0.020734532
-0.077575505 0.024400616 -0.044373658 0.02498744 -0.05215796 0.01757498 0.009551278 0.06734791
-0.2024297 -0.034834493 -0.006887424 0.12390848 -0.01399554 0.053088333 -0.050901618 0.04160941
0.093685865 -0.046285577 0.2385291 0.04713125 0.098896444 -0.01628958 -0.08987958 0.035748105
0.137102 -0.038306907 0.006188887 0.018775022 -0.10579218 -0.03223503 0.050757498 -0.002101576
-0.04898605 -0.012672091 -0.0042402185 -0.026618158 0.37776378 0.056167584 0.014099193 -0.10292955
-0.04750704 0.004644111 0.041270655 0.045089893 0.07204844 0.07383524 0.026853709 -0.14212407

model.6.bias f4 [16]
00000000: 20d0 133d 6df8 0ebd 4e84 35bd dafa 023d
00000010: 7979 513d b248 2b3c 9007 aa3d bb44 123d
00000020: 975b 303d ae0a 04bd e738 653d dbe9 48bb
00000030: ea6c 67bd 977d 283d 1e87 a53c eef6 c33b
0.036087155 -0.034904886 -0.04431563 0.031977512 0.051141236 0.010454344 0.08302224 0.035710078
0.043056097 -0.032236747 0.05596247 -0.0030656967 -0.056500353 0.041135397 0.02020603 0.005980364
