data/checkpoints/rlgym-ppo-run-1760498080835186700/141245258/PPO_VALUE_NET.pt (torch, 623393 bytes, 7 tensors)

model.0.weight f4 [256, 89]
000000 bd 52 cb 3d a2 e2 e2 bd c2 45 28 3e 8f ec da be
       0.099278904 -0.11078383 0.1643286 -0.42758605
000010 20 b0 b3 bd d1 3d 96 3d 81 87 98 3c 1c ff 77 be
       -0.087738276 0.07336009 0.0186193 -0.2421841
000020 c2 46 1a bd 30 85 84 3a 7d ff 35 bd 17 3c bc 3c
       -0.037665136 0.0010110494 -0.044433106 0.022977872
000030 7c ff 9b 3c f6 62 b4 bb 1b 89 27 3d 10 84 3c 3d
       0.019042723 -0.005504961 0.04090224 0.046024382
000040 4a 15 2c 3c 31 a5 19 3b b6 13 99 3d 79 87 cd bc
       0.010503123 0.002344441 0.07474463 -0.025089012
000050 29 d1 a1 bd 84 b2 99 3d fc 0f aa bc 58 4f 01 3d
       -0.07901222 0.07504752 -0.020759575 0.03156981
000060 b3 dc 2d bc 4b b3 39 3d 9e 2f 88 3d 76 86 47 bc
       -0.010611701 0.045337003 0.06649707 -0.012178054
000070 48 ba b2 bc 52 13 d0 bd 0c 4b 0d 3d 46 73 99 bd
       -0.021817341 -0.10159935 0.0344954 -0.0749269
000080 79 aa fe 3c d1 ac a3 bc 41 f4 35 3d cb c5 b5 3d
       0.031087147 -0.019979866 0.04442239 0.08875617
000090 8a 63 14 3d 39 7d 79 3d 89 79 0d bc 8b b1 80 bd
       0.03622774 0.060910437 -0.008634933 -0.06283864
0000a0 0a 60 33 bd 57 19 cd 3d 6f 77 bf bc e1 f8 7e 3d
       -0.04379276 0.10014599 -0.02337238 0.06224907
0000b0 0b 14 48 3d b3 e5 21 3d 86 fc c1 bd 1e 44 cc 3d
       0.04884724 0.0395257 -0.09471993 0.0997393
0000c0 1e 15 95 bd 6d 9e ae 3d 6e ea c5 bb 0e 2a bc 3e
       -0.072794184 0.08526311 -0.006039909 0.36750835
0000d0 81 09 5e 3e 74 6e 86 3e 87 b3 e8 3d d6 a1 e6 bd
       0.21683313 0.26256144 0.11362367 -0.112613365
0000e0 69 d7 55 3e 45 8e ce 3d 2f 16 a5 bd 31 51 0d bd
       0.20882954 0.100857295 -0.08060872 -0.03450126
0000f0 4c c3 1a 3e bd b9 cc bc e3 10 79 3e 4d ae ea 3d
       0.15113562 -0.02499091 0.24322848 0.114590265
000100 52 d2 91 3d 4b 2c ea bd e1 c9 5c 3d 79 5c 88 bc
       0.071201935 -0.114342295 0.053903464 -0.016645657
000110 bf 02 3c ba d0 79 ab bd 37 c1 6b 3d 1f 9d 8c bd
       -0.000717204 -0.08372843 0.05755731 -0.06865906
000120 60 9d 64 3d 32 85 c6 bc 30 45 84 bd 68 19 40 3a
       0.055814147 -0.024233434 -0.06458509 0.00073280046
000130 4d 74 ac bb 84 f9 07 bd 0b b5 6d bc 51 46 0a 3d
       -0.0052628876 -0.03319694 -0.014508496 0.033758465
000140 54 21 a7 3d 7a fb 42 3d e3 ad fc 3c 35 dc 1e bd
       0.08160654 0.047603108 0.030844634 -0.038784225
000150 49 a8 e4 3c 90 93 22 3d 0a ab 92 3c 68 68 32 39
       0.027912276 0.039691508 0.017903823 0.00017014297
000160 85 5e 88 3d 82 bb 19 be 34 09 f6 3d ee fc ed bd
       0.06658653 -0.15012935 0.12013474 -0.11620508
000170 b9 68 51 be 35 23 d2 be 23 6f ed 3d 8d 2f e0 3d
       -0.20450105 -0.41042486 0.11593463 0.109465696
000180 e9 01 d8 3c 88 fe cb 3d 36 f2 90 3d 39 d7 56 bd
       0.026368098 0.09960657 0.07077448 -0.052451346
000190 40 7c fd 3c c8 9f 2d bd 43 b6 e2 bc 4e cf 66 bd
       0.030943036 -0.042388707 -0.0276748 -0.056350045
0001a0 8d a3 14 3d 49 a1 fd bc 49 cc 79 bb 68 4a 91 3d
       0.036288787 -0.030960696 -0.0038116148 0.0709427
0001b0 4a e8 ef bd 9c 52 17 bd 7c 81 cf bc 82 01 01 3d
       -0.117142275 -0.036944017 -0.025330298 0.03149558
0001c0 fe 76 90 3d 27 80 9a ba ee 19 c0 bd a4 6d 8b 3d
       0.07053946 -0.001178746 -0.09379946 0.06808022
0001d0 0d b5 3f bd 57 21 c5 bd 19 7f ae 3d 4d 14 26 bd
       -0.046803523 -0.096255 0.08520336 -0.040546704
0001e0 e7 e7 14 3d 5b be 14 3d 6a 4a ae 3d 85 33 10 3d
       0.03635397 0.03631435 0.08510287 0.035205383
0001f0 b3 04 a1 bd fd 80 45 3d 53 37 35 bc 36 ae 99 bd
       -0.078622244 0.048218716 -0.011060554 -0.07503931
000200 04 f6 d8 bd 7b c0 94 3c f4 10 1c bd 45 59 28 3d
       -0.10593799 0.018158188 -0.038102105 0.04110076
000210 39 84 ec 3b ce ec ab 3c b4 fb 94 3d eb 1a 50 3d
       0.0072179106 0.02098694 0.07274571 0.05080692
000220 56 1e 8b 3d 05 28 8f 3b d2 b5 60 bc 55 61 d8 3c
       0.067928955 0.0043687844 -0.013715224 0.026413599
000230 ee 84 ed bd d9 51 0f be 29 13 93 bd 95 2f f3 3c
       -0.1159762 -0.13996066 -0.07181389 0.029685775
000240 3a b9 09 3d 0f 76 40 bd 3c ad c8 bd 84 ca 2b bd
       0.03362391 -0.04698759 -0.09798667 -0.04194118
000250 73 1c cc bd 04 31 09 3d 38 80 c9 3d 4a fb 70 3d
       -0.09966364 0.03349401 0.09838909 0.058833398
000260 f8 da 6d 3d 7b 38 85 3d 5a be fc bd 9d 84 06 bc
       0.058070153 0.065049134 -0.12340994 -0.008210328
000270 56 6c 8e bd 17 e3 b7 bc b1 cf a7 bd 1f e7 04 bc
       -0.06954257 -0.022447152 -0.08193911 -0.008111744
000280 7a 0e a1 3d cd d1 cc bc be d2 2e bd 22 57 95 3d
       0.07864089 -0.025002385 -0.04268145 0.0729201
000290 80 47 d2 3b 9e 5f 5e 3d 9d 79 78 bc 11 74 bb bd
       0.006417215 0.054290406 -0.015165714 -0.09152997
0002a0 f4 a0 b8 3d 97 5c 41 3d a6 02 e6 bb fe 0e c6 3c
       0.09015074 0.04720744 -0.0070193587 0.02417707
0002b0 30 25 80 bc 1c ed 9c 3d 96 8b 0d bd 3f 04 26 bb
       -0.015642732 0.076624125 -0.034556948 -0.002533212
0002c0 47 36 56 3d 06 ca cd bd 2a 9b d3 bd a7 47 b2 be
       0.052297857 -0.100482985 -0.103323296 -0.3482029
0002d0 61 a1 7d 3e 82 16 76 bd 00 1a 4b be 5d 9c 59 3e
       0.24768592 -0.06008006 -0.19834137 0.21251054
0002e0 ac 57 53 3c f9 d7 1b bd c4 89 2f bd fb 63 30 bb
       0.012899321 -0.038047764 -0.042855993 -0.0026915062
0002f0 36 f4 18 3b 78 07 06 3a ae c0 5b bb 6e 2a 0b bb
       0.002333892 0.0005112807 -0.0033531594 -0.0021235007
000300 d7 04 ea 3b ae 97 95 b9 14 f2 94 3b ba 28 b5 3b
       0.0071416902 -0.00028532505 0.0045454595 0.0055285366
000310 9d b5 4a 3d d2 fb 53 3d d4 e9 99 3d e8 fb 4c 3d
       0.049489606 0.051753826 0.07515302 0.050044924
000320 b2 ce 97 3d e8 c1 94 bd 2f 7f 44 bc 02 64 d7 bd
       0.07412471 -0.07263547 -0.011993214 -0.10517122
000330 32 c3 92 3d c7 89 e1 3b 9a 44 3d bb e1 48 9b 3d
       0.07166137 0.0068828794 -0.002888 0.0758226
000340 d1 52 aa 3b 25 23 76 3d ce 1a b7 bc 35 c4 aa bd
       0.0051978608 0.06009211 -0.022351649 -0.08338205
000350 e4 73 9f 3c b4 76 2c bd a0 2e 58 3d d8 ab 50 3c
       0.01946444 -0.04210539 0.05277884 0.012736283
000360 31 c4 20 3d 0c 48 22 bd f0 5c b8 3c 59 d0 f5 bb
       0.039249603 -0.03961949 0.022505254 -0.0075016436
000370 f4 ff a1 bd c2 e8 05 bb 72 2b b6 3c c6 29 bf bb
       -0.07910147 -0.0020432924 0.022237513 -0.005833837
000380 25 76 e5 bd 90 9f de bd 86 cd 5b bd 93 94 4f 39
       -0.11204175 -0.10870278 -0.0536628 0.00019796407
000390 1e 06 e0 bb 12 14 3d 3f 5b a3 5d 3f ef 8c 06 3d
       -0.0068366667 0.7385875 0.86577386 0.03284925
0003a0 3c a5 1b 3c 92 85 4b 3c cf 7b 50 3c da 5e 00 3c
       0.009499844 0.012421982 0.012724831 0.007835114
0003b0 d6 07 0c bc 69 f2 5a bc e9 a7 ed 3d cb 66 01 3e
       -0.00854679 -0.013363459 0.11604292 0.12636869
0003c0 d5 dc 8b 3d 73 74 8b 39 28 eb 7f bc b8 93 96 ba
       0.0682923 0.00026598907 -0.01562003 -0.0011488115
0003d0 82 22 f2 bd 6a 96 69 3c 71 eb 50 bb 62 5a 1a 3d
       -0.11822988 0.014257053 -0.0031878615 0.037683852
0003e0 fb 2a 44 bd 47 14 1a be b9 80 f9 bc 9f 32 5d 3b
       -0.047892552 -0.15046798 -0.030456888 0.0033752096
0003f0 b8 44 b5 bb 41 9b 68 bb dc c0 09 3b 82 8c 6c 3b
       -0.0055318736 -0.003549293 0.0021019494 0.0036094491

model.0.bias f4 [256]
000000 d3 5b e5 3c d3 bf f5 bd c0 95 67 3d 07 eb b8 bd
       0.027997887 -0.11999478 0.056539297 -0.09029203
000010 a8 cf bd 3d ec 86 09 3b d1 b2 97 3d 83 05 93 3d
       0.09268123 0.002098496 0.074071534 0.07178786
000020 6b 96 0b bd cd 0c c4 bd bc 14 5b bc 64 0c 34 bd
       -0.034078997 -0.09572754 -0.013371643 -0.04395713
000030 ca 3e 42 3d 43 c5 a9 bd 82 7d d7 3d 5a 4d ae 3d
       0.04742316 -0.08289578 0.105219856 0.085108474
000040 bf c0 40 bd bb c0 c0 bd 4b a4 9d bd de d9 b0 3d
       -0.047058817 -0.094117604 -0.07697352 0.08635305
000050 c1 bb 05 3d 9a c6 8c bc 50 ee be bc 1a 19 37 3d
       0.03264976 -0.017184544 -0.023306996 0.044701673
000060 6e f9 c0 3c 17 ed d7 bc d0 33 59 bd 40 8d b8 3d
       0.023556437 -0.02635817 -0.053027928 0.09011316
000070 fc 58 9b 3d ec bb f2 3c 2e d2 a1 bd 49 96 69 3c
       0.07585332 0.029630624 -0.07901417 0.014257022
000080 0c c4 53 3d a7 a4 f8 bb 40 19 a3 bd be a2 a0 bd
       0.051700637 -0.0075879875 -0.079638004 -0.078435406
000090 19 f1 99 bd 4c 56 cf bd 2a 81 7e bd 30 07 86 3c
       -0.07516689 -0.10123882 -0.0621349 0.01636085
0000a0 43 5b b4 bd 6d 49 08 3d d9 c4 4c bd 51 28 2c 3d
       -0.08806469 0.03327315 -0.049992416 0.042030636
0000b0 a8 f5 8f bc 53 7b 9d bc ac 86 53 3d eb d9 07 bd
       -0.017573193 -0.019223845 0.051642105 -0.033166807
0000c0 77 5c f6 3b fb 7f 2f 3d af 33 65 bd ca cf 35 3a
       0.007518347 0.04284666 -0.055957492 0.0006935565
0000d0 60 ee 77 3d ae 83 8b 3d ab 50 d7 bd c9 1d 85 bd
       0.060530066 0.06812225 -0.10513433 -0.06499822
0000e0 9e de 96 3d bb 48 b7 3d 3b fc 50 3c 74 22 63 3d
       0.073666796 0.08949419 0.012755449 0.05545278
0000f0 3d 49 0b 3c bf ad 65 3d b3 a8 2b bd f6 8c 3b 3d
       0.008501348 0.0560739 -0.04190893 0.045788728
000100 6b ee ee bc 0b 99 1f bd dd 77 8c bd 32 29 7e bd
       -0.02916642 -0.038964313 -0.068587996 -0.062051006
000110 d3 40 a1 bc 5b aa 4f 3c 1c 14 6a 3c fa 7f 46 bd
       -0.01968423 0.012674893 0.014287021 -0.04846189
000120 48 cf eb 3d 8c 30 cd 3d 8e 4f b6 bb 30 52 d6 3c
       0.11514145 0.10019025 -0.005563683 0.026162237
000130 ee 51 6a 3b ea ab 73 bb bf 9f c8 bd 14 7d f4 bb
       0.00357544 -0.0037181326 -0.09796094 -0.0074611995
000140 bf 37 91 bd d3 c7 67 bd 70 d4 5a bc 5b c3 b8 bd
       -0.07090711 -0.05658705 -0.013356313 -0.09021636
000150 00 b5 38 3d d4 49 77 bd b2 12 29 3d 42 d2 9d 3d
       0.04509449 -0.060373142 0.041277595 0.07706119
000160 3f 96 a1 3d 2a d2 9f bd 84 0f ae 3c 4d 0a a5 3d
       0.07889985 -0.078037575 0.021247633 0.08058605
000170 04 09 83 3a 7b 07 55 bd 3a 55 8c bd 14 e8 84 3c
       0.0009997194 -0.052009087 -0.06852193 0.016223945
000180 1f d7 be bd f6 97 1f bd a6 b5 41 3d de a9 02 3d
       -0.09318375 -0.03896328 0.047292374 0.03190028
000190 8c 04 fb bb 61 6b 8a 3d a9 49 9d bb 10 15 a3 bd
       -0.007660454 0.06758762 -0.0048000407 -0.07963002
0001a0 ff f7 15 3d 08 81 e1 3b 13 24 ec bc a0 d4 f7 bc
       0.03661346 0.006881837 -0.028825795 -0.030252755
0001b0 6d 4e 0d bc a4 ec 84 bd 94 ff 2e bd 0b 4e 7f 3d
       -0.008624655 -0.06490448 -0.042724207 0.062330287
0001c0 47 dc 28 bc 51 fa 8d 3c 4a 7c ac 3d f8 cd c8 bd
       -0.010306424 0.017331274 0.08422144 -0.098049104
0001d0 ec 87 96 3d 57 a8 a4 bc b3 3a 82 bd 01 bf 01 bd
       0.07350144 -0.020099802 -0.06358852 -0.031676296
0001e0 11 57 ac 3d 36 03 87 bd 7f f7 71 bd 21 af 45 bd
       0.08415044 -0.06592409 -0.05907392 -0.04826272
0001f0 c8 6b aa bc d3 51 12 bd 9a 50 9c bb 90 4c 59 bc
       -0.020803347 -0.035722565 -0.0047703506 -0.013262883
000200 4f 62 8b 3d b2 d1 22 3d f5 85 50 bd 7c 67 be 3c
       0.0680586 0.039750762 -0.050909 0.023242705
000210 f3 92 dd 3d 7c 8f 13 bd 60 66 9c bd f0 eb 77 bd
       0.10819044 -0.03602551 -0.07636714 -0.060527742
000220 4d 7c 92 bd 7f 46 78 3d 8b c1 62 3d 8f 3e 8e 3d
       -0.07152615 0.060614105 0.05536036 0.06945526
000230 92 e6 d3 bd 71 7f 42 bd 92 15 8b 3d 77 bd 9f 3b
       -0.10346712 -0.04748482 0.067912236 0.004874881
000240 89 8b b5 ba 06 69 96 3d 7e 6a 27 bd 37 de c2 3d
       -0.0013850789 0.073442504 -0.040873043 0.0951504
000250 d4 38 93 3c d8 57 ca bd 8e 06 da 3c 4f a3 6f 3b
       0.017971434 -0.09880036 0.026614454 0.0036565845
000260 95 55 aa 3c e5 23 44 3c bf b9 7c bd 4b 39 93 bc
       0.020792762 0.011971449 -0.06170058 -0.017971655
000270 3c c3 ce 3d 7e b8 c0 bd 5f b6 03 3d 2b c1 25 3d
       0.10095832 -0.09410189 0.032156345 0.040467422
000280 2a bc 22 bc 0f 7e 16 bd 5e e3 d6 bc 48 f9 41 3d
       -0.009932557 -0.036741313 -0.026231464 0.047356874
000290 91 3f bd 3d f1 07 ae 3c 6f 78 17 bd 42 31 44 3d
       0.0924064 0.021244021 -0.03698009 0.04789854
0002a0 b2 da 9a 3d 5b db 93 bc ca b9 03 3d 26 17 9c 3d
       0.07561244 -0.018048933 0.032159604 0.07621603
0002b0 33 89 63 bd 1b 9f 8d bd 24 ec e1 3c 85 e9 c0 3c
       -0.055550765 -0.069151126 0.027578421 0.02354885
0002c0 08 fe 6b b8 fd 9d 34 3d ac 9d e7 bc d2 5c 26 bd
       -5.626495e-05 0.044095982 -0.028273426 -0.040615864
0002d0 47 89 1d bd 72 70 c1 bd c9 bf 2f bd 32 67 df bc
       -0.038460996 -0.09445275 -0.04290751 -0.027270887
0002e0 4f 21 06 3a 1b 23 ce 3d 1e 42 a6 3b 1b 72 0b bc
       0.00051166577 0.100652896 0.0050737998 -0.008511092
0002f0 66 61 d6 3d f5 55 d1 bc fa a7 3a bd f9 b6 d0 bd
       0.10467796 -0.025553683 -0.04557035 -0.10191149
000300 6a e0 58 bd 98 30 70 3d f8 c9 a4 3d 0c b4 cc bd
       -0.052948393 0.058640093 0.08046335 -0.09995279
000310 91 cc 10 3d bf db b4 3d 3b c1 5a bd a7 5d cc bc
       0.03535134 0.08830976 -0.053406935 -0.024947
000320 d4 74 10 bb 85 11 99 bc b4 c5 25 bd 89 2e ac 3d
       -0.0022042291 -0.018685112 -0.040471748 0.084073134
000330 c1 1f 84 bd bc 59 aa 3d 1e fa e6 3b 1a 2a 23 bd
       -0.06451369 0.08317897 0.0070488593 -0.039835073
000340 4b d8 bf 3d 1c 02 71 bc 81 ac 95 bb ca c5 85 3a
       0.093674265 -0.014709976 -0.004567683 0.001020604
000350 ce 90 fc 3c b3 0d 4a bc ab 81 cd bc de 2c 55 3b
       0.030830767 -0.012332368 -0.025086245 0.0032527964
000360 80 56 09 bd 62 4c 7e 3d b1 c2 17 3d 34 41 12 3d
       -0.03352976 0.062084563 0.037050907 0.035706714
000370 14 33 c3 bd 6a d9 79 bd fe 6f 38 ba 6b 8b 6a bd
       -0.09531227 -0.060998358 -0.0007035731 -0.057261866
000380 78 1f db bd a3 83 2c 3d 9d 2d 40 3d f1 16 9c 3d
       -0.106993616 0.042117726 0.0469185 0.07621563
000390 d9 7f fb 3c 8e 3f 26 bb a6 ad d6 3d f8 bf 12 bd
       0.030700611 -0.0025367471 0.104823396 -0.035827607
0003a0 74 ee aa 3c ac 49 ca bd 4a ce 69 3d fc 10 5c 3c
       0.020865656 -0.09877333 0.0570815 0.013431784
0003b0 7b b3 83 3c 0b 85 2e 3c 0a 58 c9 3b ab eb 24 3d
       0.016076794 0.010651837 0.0061445283 0.040263813
0003c0 be ff 39 3c 41 25 84 bd 21 f2 81 bd e2 28 a2 3d
       0.011352478 -0.06452418 -0.063450105 0.07917954
0003d0 50 bb de bc 41 a6 3f 3d 7a 1d e8 bc 35 68 10 bd
       -0.027188927 0.04678941 -0.028334368 -0.03525563
0003e0 b6 76 a8 3d ee 11 31 3d b2 8d e3 bd 75 85 45 3c
       0.08225767 0.04322999 -0.111110106 0.012055744
0003f0 bd 04 8c 3d 6f 54 c2 3d 46 3f b1 bd 9b af 09 bd
       0.06836841 0.09488761 -0.086546466 -0.033614736

model.2.weight f4 [256, 256]
000000 e3 50 61 bd a6 4c 0c 3d eb 46 4c be 38 64 43 bd
       -0.05500878 0.034252785 -0.19948928 -0.047702998
000010 bc df c7 bd 12 8c c4 3d f2 4c 4f bd 2a 67 c5 3d
       -0.09759471 0.09597029 -0.05061049 0.096388176
000020 54 e9 28 bd cb 50 38 3c 3d 63 da 3c 7a 9a b5 3d
       -0.041238144 0.011249731 0.026658649 0.08867355
000030 52 b2 09 be 20 53 0d 3c 31 43 37 bc 12 2f c3 bd
       -0.1344693 0.008625776 -0.011185453 -0.09530462
000040 be 88 72 bc 3c ac 28 3d 3f bf 25 3d 2c bc 45 3d
       -0.01480311 0.04117988 0.04046559 0.048275158
000050 8f 1f b0 bd a5 cf 41 3d 38 07 d8 3d c6 83 bb 3c
       -0.08599769 0.047317166 0.10548252 0.022889983
000060 36 c8 e0 3b e0 03 aa bb e1 93 33 bc 73 e0 3e 3d
       0.0068598045 -0.00518845 -0.01096055 0.04660077
000070 eb 69 10 3e f1 bf 19 3e 03 d9 83 3d 46 64 cb bd
       0.14102904 0.15014626 0.06437876 -0.09931235
000080 79 31 c8 bc 6d bc 19 3d d2 f8 8e 3d 86 51 fa 3b
       -0.024437653 0.037533212 0.069810525 0.007639113
000090 e4 d2 87 bc 59 be 83 3d 53 a7 6e bd 82 a9 99 3d
       -0.016580053 0.0643279 -0.05826504 0.07503034
0000a0 80 7b cd bd 78 a5 7e 3b 83 ff a2 3d 1a a9 2f bd
       -0.100333214 0.0038855951 0.07958891 -0.042885877
0000b0 e0 cd 5a 3a e8 b0 1e 3d 4a 6e 8b 3c fb 9b f8 bd
       0.0008346718 0.03874293 0.017020363 -0.12139126
0000c0 55 ef da 3d 07 f7 33 bb 78 3b ae 3d 4c 32 17 3d
       0.1069018 -0.0027460472 0.085074365 0.0369132
0000d0 eb d2 08 3e 65 f7 ba bd 38 8e 64 3b 72 47 6c 3d
       0.13361709 -0.09129218 0.0034874808 0.057685323
0000e0 0a 7d 2b 3d 5d 7f cd 3b a6 83 0f be 5c 0c b4 3d
       0.041867293 0.0062712864 -0.14015064 0.0879142
0000f0 5b 50 ac 3d 89 d1 41 bc 43 f1 94 bc 10 85 f5 3a
       0.08413764 -0.011829742 -0.018181449 0.0018731672
000100 6c 38 e5 bc 39 56 32 3d 9d b2 9a 3d 5c 69 0d 3d
       -0.027981006 0.04353926 0.07553599 0.034524307
000110 3b 20 cf 3c 17 27 40 bb 23 e4 82 3d f8 f9 af bd
       0.025283923 -0.0029320174 0.0639117 -0.085926
000120 a5 a6 8f 3c 4c 4a 62 3d 75 7d 32 3b 47 2e 5b 3b
       0.017535517 0.055246636 0.0027235423 0.0033444331
000130 2e 0d b2 3c 76 71 51 bc 4c 22 1e bc 83 14 52 3d
       0.0217348 -0.012783399 -0.009651732 0.051289093
000140 34 81 e8 bb 24 6d 09 3d 15 ae ec bc d1 99 b6 bc
       -0.0070954803 0.03355135 -0.028891603 -0.022290142
000150 63 a9 e5 3c 2f c4 f7 bb 1a 18 07 bf 7b 00 97 bd
       0.028034871 -0.0075612287 -0.5277115 -0.073731385
000160 91 a4 c3 3c da 4c a1 3c e2 9b 5c 3d 04 7b 2f bc
       0.023882182 0.019689966 0.0538596 -0.010710482
000170 2f 2c 18 3d c2 8a db 3d 59 a0 b8 3c e9 e1 dd bc
       0.03715151 0.10719825 0.022537397 -0.027085261
000180 f3 1f cd 3d 6c bb bb 3c dd c6 c7 bc 92 10 6e bd
       0.100158595 0.022916518 -0.024386818 -0.05812127
000190 a6 c3 5c be 77 5a c9 3d 6b eb e0 3d 12 6a 03 3d
       -0.21559009 0.09831708 0.109824024 0.03208358
0001a0 8e 90 a4 bc fb 30 a4 bc c8 6a 56 bd d2 d5 0a 3d
       -0.02008846 -0.020042887 -0.05234793 0.03389532
0001b0 0a 5e b6 bd ee 0d d1 bc e9 19 c9 3c 4e 4b 28 3e
       -0.08904655 -0.025519338 0.024548488 0.16434976
0001c0 b8 65 a7 3e fd 6d f1 bd 68 de aa 3d f5 e6 e1 bc
       0.32694793 -0.11788557 0.08343202 -0.02757595
0001d0 bc 61 bd 3d ea 4e 70 be 4a 5b b6 3c bb 2c ec bc
       0.09247157 -0.23467603 0.022260327 -0.028829923
0001e0 39 3e c5 bd df 03 ee 3d e3 7b 4e bd 2b 37 06 3b
       -0.09631009 0.11621832 -0.050411116 0.002047966
0001f0 51 ff af bc e6 aa 9d bc dc 0d 87 bb ea 6d 83 bd
       -0.021484049 -0.01924653 -0.004121525 -0.06417449
000200 ef 00 7d bc f8 6e 7f 3d bb bb 64 bd 29 2a 64 ba
       -0.015442117 0.062361687 -0.055843096 -0.0008703792
000210 c1 0f 9b bd a3 14 4b 3c 5d a4 a2 3c 2d 10 ea 3c
       -0.07571364 0.012395057 0.019853765 0.028572166
000220 76 01 3b 3d 3b ba d1 3c 64 94 7d 3d 9d e2 5e bd
       0.04565569 0.025601497 0.061909094 -0.054415334
000230 b4 d9 9f bd 5d 0f 52 3c 2d c0 1b 3d 21 4c 88 bb
       -0.078051955 0.012821046 0.03802507 -0.004159466
000240 78 20 5e bb 1b ac 6c 3d e3 48 3e bc d5 96 aa bc
       -0.0033893865 0.05778132 -0.011614057 -0.020823875
000250 db c9 05 be 8f 5c 9f 3c 36 68 00 bd 56 be f3 3b
       -0.13065283 0.019453315 -0.031349383 0.0074384613
000260 e9 ad d8 3a d0 f3 e5 bd 8a 49 b5 3c a0 36 ca bd
       0.0016531321 -0.11228144 0.022129793 -0.098737
000270 a0 0c 84 3a bf 8e 31 3b 33 b3 5b bd 8d a1 d6 bd
       0.0010074563 0.002709314 -0.053637695 -0.10480032
000280 ae 23 75 bd ad 6f e4 bc f2 fb ea bd ed 1f 89 3d
       -0.05984848 -0.027885282 -0.11473836 0.066955425
000290 b8 c0 39 3d 15 5d 90 3d 17 fa 85 bc 0d 5f f0 3b
       0.045349807 0.07049004 -0.016354604 0.0073355497
0002a0 1e e4 88 3d 08 d0 b4 bc 75 61 8d 3d 7a 98 bc bc
       0.06684135 -0.022071853 0.06903354 -0.023021925
0002b0 eb 74 48 b9 44 30 ce bd f5 52 20 3d b5 f2 57 3d
       -0.00019117042 -0.100678 0.039141614 0.052721698
0002c0 9f 6f 0e be 5b 11 e4 bd b3 95 b5 3d d8 e8 81 bb
       -0.13909768 -0.11136123 0.088664435 -0.0039645247
0002d0 b0 29 0d bd bc 47 c3 bc ad cf 4e bd f0 9b d0 39
       -0.034463584 -0.023837917 -0.050491024 0.00039789034
0002e0 35 a8 1c 3d 19 e7 3a be 50 50 20 3e af 6d 86 bd
       0.038246352 -0.1825222 0.15655637 -0.06563889
0002f0 cb cf 4b 3c b9 dd 88 3c 55 dd 97 3c 01 5b e1 3d
       0.012439678 0.016707288 0.018538157 0.11003686
000300 94 d1 af bd cf e1 8e 3c 44 1e 82 3d 88 5a 80 3d
       -0.08584896 0.017441658 0.06353429 0.062672675
000310 3a a9 f3 bc 48 c6 78 bc dc 9f 01 bd fe 1f 0a 3d
       -0.02974378 -0.015183993 -0.031646594 0.033721916
000320 8e da 94 bd 50 ac 84 3d d5 02 00 3e b3 62 6c bc
       -0.072682485 0.064781785 0.1250108 -0.014427829
000330 e3 3f 6c be 01 ac 87 be 4e 84 0f 3d 3c ad 54 bd
       -0.23071246 -0.26498416 0.035038285 -0.05192302
000340 5d 9e 05 3c cd 4c 63 bd 00 de e8 3b 45 a3 98 bd
       0.0081554325 -0.055493165 0.0071065426 -0.07453016
000350 06 c8 7b 3c f2 e4 86 3c d8 77 da 3d 78 31 ad 3d
       0.0153675135 0.016466592 0.1066739 0.08456701
000360 37 f0 2a bb ff eb c4 3a 22 e4 1e 3d a4 91 c4 3c
       -0.002608312 0.0015023946 0.038791783 0.023995228
000370 cd da 98 3d 7a 30 5b 3b d4 fc 1d be ca 2b e5 bb
       0.07463608 0.0033445642 -0.15428478 -0.0069937455
000380 38 9d 5d 3c 0f ae 9d 3d 91 36 44 bd cd f5 04 bd
       0.013526253 0.07699215 -0.0479036 -0.032460976
000390 bb 68 b0 3d 50 73 de 3d d3 b8 21 bd 0b 7d 0f 3d
       0.08613726 0.10861838 -0.039482903 0.03503136
0003a0 fb 5c 9a 3d fe 63 30 bd 29 84 98 3d 3c 4d 88 3c
       0.07537266 -0.04306411 0.074470825 0.01663839
0003b0 86 e2 b1 bd 79 88 80 be 2e 7d 61 bd fa 01 c0 3b
       -0.08685784 -0.2510412 -0.05505102 0.0058596106
0003c0 1b fd c4 bc e0 74 33 3d 60 ce e5 3c f1 fe 62 3c
       -0.024046471 0.043812633 0.028052509 0.013854728
0003d0 73 94 ff bc 2b 5f 71 3d f2 f3 00 bd 2b bd 28 3d
       -0.031198716 0.05892865 -0.031482644 0.04119603
0003e0 cb 0c 2a bc 28 1a 6d bc 34 cf 90 bd 5c 92 09 3e
       -0.010379027 -0.014471568 -0.07070771 0.13434738
0003f0 4a 96 bb bd 09 42 40 be be 5b 59 3e e7 23 a8 be
       -0.09159525 -0.1877519 0.21226403 -0.3283989

model.2.bias f4 [256]
000000 83 1b 25 3d 9c f3 4b 3c c0 2a ab bb 0b 53 25 bd
       0.04030944 0.012448218 -0.005223602 -0.0403624
000010 c9 a0 73 3d 23 5a 56 3d d6 42 76 3d b0 de 53 3c
       0.05947951 0.052332055 0.060122333 0.012931511
000020 8c 1b 60 bd 87 bc ee bc 05 bf 13 3c 40 17 25 3d
       -0.05471377 -0.029142631 0.009017711 0.040305376
000030 b1 f0 b5 bc d7 64 74 3d 07 e6 1f 3d 20 e0 81 3d
       -0.022209497 0.05966648 0.03903773 0.063415766
000040 c9 14 e1 bc c4 a4 b5 bc 17 7c ca bc 3e 5f 22 bd
       -0.027475731 -0.022173293 -0.024717374 -0.03964161
000050 2e 42 00 bd 9a ae f5 ba c6 11 d4 3b 8a 82 55 3d
       -0.031313114 -0.0018744052 0.0064718453 0.052126445
000060 16 b7 db bc 1b c4 8b bc ee 9e 9b 3d bd c6 4d bd
       -0.0268207 -0.017061284 0.07598673 -0.05023836
000070 10 67 0b bd bd b8 01 bd 04 57 1a bd 0f b3 7f bb
       -0.034033835 -0.03167032 -0.03768064 -0.003901664
000080 99 b7 e1 3b 3c 22 ea bc bd c5 0a 3d d5 6c f4 bc
       0.0068883416 -0.028580777 0.033879984 -0.029837051
000090 8c 5d f9 bb 7d 89 2d bd b7 b9 58 bc f7 91 5f bd
       -0.0076100286 -0.042367447 -0.013227872 -0.054582562
0000a0 c5 47 da bb 57 75 f0 3c 30 b0 d5 3b dd 99 06 3d
       -0.0066613876 0.029352827 0.0065212473 0.03286158
0000b0 38 d8 0f bb df 2c 75 3c 73 96 a3 bc 6d 83 89 bc
       -0.0021948945 0.014964311 -0.0199692 -0.016786302
0000c0 9b 8a 0c 3d 05 44 37 bd e4 1e 3e bd 61 37 55 bd
       0.034311872 -0.044742603 -0.04641618 -0.052054767
0000d0 ea 3d 1e 3d f2 16 2a 3d 4e 18 11 3c 84 2a 69 bd
       0.038633265 0.04152579 0.008855892 -0.05692531
0000e0 43 d8 17 3b 87 4c 88 3d af 85 b5 bc 5e 6d cc 39
       0.0023169674 0.066552214 -0.022158472 0.00038991397
0000f0 9a c6 52 bd 5f dc 57 3c fd 53 42 3d c4 82 15 3b
       -0.051458932 0.013175099 0.04744338 0.0022813538
000100 39 7d 1e bd 3b c0 3e bd 84 18 22 3d 3d bc 69 3d
       -0.03869364 -0.046570044 0.03957416 0.057064284
000110 7c dc 31 bd 04 61 0e 3d 49 98 ae 3b e0 30 bb 3b
       -0.04342316 0.03476049 0.0053282124 0.0057126135
000120 f0 ef 4b bd 61 2d fe 3c 2a 70 32 bd 9a 65 b4 3c
       -0.04978937 0.031027498 -0.043564 0.022021104
000130 08 c2 69 bc d0 92 ed 3c 2d 5f 62 3d db 76 46 3d
       -0.014267452 0.02900067 0.055266548 0.048453193
000140 01 e1 66 bc 14 54 1c 3d 8c a5 64 3d ee 5f 6c 3d
       -0.014091731 0.03816612 0.05582194 0.057708673
000150 b4 bd 6b bd 8d 2a 77 3d 1f 96 29 3d a9 1f 51 3d
       -0.057553962 0.060343314 0.041402932 0.051055584
000160 00 07 88 bc 9b 26 b2 3c 38 0e 45 bd 7e ac 1e bc
       -0.0166049 0.021746924 -0.048109263 -0.00968468
000170 aa 58 0e bd 69 f1 65 3d 19 66 54 3b 7a 23 68 3d
       -0.034752525 0.05613843 0.0032409488 0.056674458
000180 97 59 52 bc b8 ea 1a bd 95 98 78 bc 33 af a9 bc
       -0.012838743 -0.0378215 -0.015173097 -0.020713424
000190 e3 13 06 bc aa ed 28 3c d3 f1 ae 3c e5 86 26 3d
       -0.008183452 0.01031057 0.021355545 0.04065599
0001a0 4a 4f 53 bc c8 94 c4 3c f2 c5 a8 bc aa 74 31 3d
       -0.012897322 0.023996726 -0.0206022 0.04332415
0001b0 71 8b b4 3a f6 7b 73 bc 4f 9a 23 bd 01 b0 95 3c
       0.0013774467 -0.014861098 -0.039942082 0.018272402
0001c0 a9 ad 3d 3c 98 ad af 3c ae fe b3 bb 3c f7 4c 3d
       0.011577048 0.02144508 -0.0054930067 0.05004047
0001d0 65 25 61 bd e0 56 19 bd 34 80 b0 bc 40 d8 76 bd
       -0.054967303 -0.037436366 -0.021545507 -0.060264826
0001e0 69 b4 3f 3d 90 32 7c bc 6b 0d 79 3d ac d2 40 bc
       0.046802912 -0.015392914 0.060803812 -0.011768978
0001f0 dd 4d ce 3a 3e 47 1d bd 9a ec 4a bd 21 c2 22 b7
       0.0015739758 -0.03839802 -0.049542047 -9.701152e-06
000200 78 f8 ab 3b 71 1b 07 bd da 58 01 bd 36 0c 78 bc
       0.0052481256 -0.032985155 -0.031578876 -0.01513963
000210 b1 12 71 3d db 8e 3a bd b7 85 19 3d a9 c6 86 bd
       0.058855716 -0.045546394 0.037481036 -0.0658086
000220 69 9d 1d 3c 90 09 34 bd 1b b3 8f bb df b6 27 3d
       0.009620049 -0.043954432 -0.0043853647 0.040945884
000230 be 6f 69 3d a2 a9 3e bd a4 aa 1a 3d af f1 ed 3c
       0.05699133 -0.046548493 0.03776039 0.029045908
000240 b6 1c 8f 3d 15 c0 6d 3d 76 1e 18 3d 59 d0 2f bc
       0.06987898 0.05804451 0.037138425 -0.010730826
000250 88 d2 21 bd ca f7 3f bd 8c 9b 66 3d 7a f4 51 bc
       -0.03950742 -0.04686717 0.056300685 -0.012814635
000260 28 d2 2e bc f2 5f ba bc c9 02 11 bd 95 36 58 3d
       -0.010670222 -0.022750828 -0.035403047 0.05278643
000270 4d b6 09 3c 20 ed 8b 3d 8d ae 16 bd ab 3e 59 bd
       0.00840528 0.068323374 -0.03678756 -0.05303828
000280 ec 5c 21 3c 22 45 5c bd 7c a9 db 3c ff 59 22 bd
       0.009848814 -0.053776868 0.026814215 -0.03963661
000290 e0 53 33 3d ba 1f 4c bd f7 76 eb 3b c5 dd e1 3c
       0.04378116 -0.049834944 0.0071858126 0.027571568
0002a0 33 75 1c 3d b5 8c ea 3c 6f c1 4f 3d 06 70 49 3d
       0.038197707 0.028631547 0.050721582 0.0491791
0002b0 48 26 03 3a 93 fd b3 bc 29 4e fc bc b4 9e 15 3d
       0.0005002958 -0.0219715 -0.030798988 0.036528304
0002c0 5a 88 85 3c 04 76 41 bc 32 58 99 bd 80 a4 7c ba
       0.016300369 -0.011807922 -0.07487525 -0.00096375495
0002d0 98 ba 9c bc 34 9a 74 3d 02 dc 15 bc a1 85 3a bd
       -0.019131944 0.059717372 -0.009146692 -0.045537595
0002e0 a7 fb 4f 3a 18 c1 e7 bc fe 82 23 3d 4d f3 20 bd
       0.00079339225 -0.028290316 0.039919846 -0.03929453
0002f0 32 7b 52 3d da 1a d9 3b 5f 46 62 bc 84 98 30 3d
       0.05138702 0.0066255154 -0.013810723 0.0431142
000300 02 a1 1c bd 65 fa 46 3d be 85 6c bd 34 e9 93 bc
       -0.038239487 0.04857864 -0.057744734 -0.018055536
000310 87 19 ae 3c 4f 06 56 3d 92 a7 17 3b 84 b0 5d 3d
       0.021252407 0.05225211 0.0023140651 0.054123417
000320 4a 91 4c 3d df da dd 3c 7f cc ee 3c 49 0b 07 3d
       0.049943246 0.027081905 0.029150246 0.032969747
000330 ab fe 4b 3c 72 9b 70 bd 78 5d 76 bc 70 ad 44 bd
       0.012450854 -0.058741994 -0.015036933 -0.048016965
000340 61 01 88 3c 35 64 f1 bc 4f 0c 6a bc 31 04 9c bc
       0.01660222 -0.029466728 -0.014285161 -0.019044967
000350 64 a0 5e 3d 30 43 2d 3c c5 2b 13 3b df 8b 31 3d
       0.05435218 0.010575101 0.0022456509 0.043346282
000360 74 6c 20 3d fb c1 61 bc bb 83 49 3c 0d 2d 12 bd
       0.03916593 -0.013779159 0.012299473 -0.035687495
000370 ef ee 57 3d 61 4f 9d bc 59 de 03 3d 9a 13 82 3c
       0.0527181 -0.01920289 0.03219447 0.015878487
000380 85 cf e3 bb 51 0a 51 bd 27 7c 8c 3d 03 56 0f bd
       -0.0069522285 -0.05103523 0.06859618 -0.034994137
000390 fb ff 93 3c a7 6e ba 3c eb d6 e6 bc 72 3f 7d bc
       0.018066397 0.022757841 -0.028178653 -0.015457021
0003a0 34 fe 3f 3d b9 bf ea 3c dc 3b 25 bd 5f 99 95 3b
       0.046873286 0.028655874 -0.04034029 0.0045654024
0003b0 44 a5 3b bc 81 89 6f 3d 12 06 1d 3c 51 66 d3 bc
       -0.011452977 0.058480743 0.009583967 -0.025805624
0003c0 89 09 0c bd fe af b9 bc c6 4f 9a bc b4 f3 a3 3c
       -0.03418878 -0.022666927 -0.018836867 0.020013668
0003d0 25 90 d1 3c 44 20 3b 3d a0 8d 70 bd 48 06 b2 bc
       0.025581429 0.045685068 -0.058728814 -0.02173151
0003e0 cb 75 ba 3c e2 58 97 bc dd a8 9c bc e7 49 2c bd
       0.022761246 -0.018475 -0.019123489 -0.042062666
0003f0 fb 12 58 bc 05 0f 23 bd f9 78 d1 bb c2 ac 38 bd
       -0.013188119 -0.039809246 -0.006392595 -0.04508663

model.4.weight f4 [256, 256]
000000 1b db 0b bd 86 19 36 3d 99 2b a0 be f1 82 80 3d
       -0.034144502 0.044457935 -0.31283262 0.06274975
000010 2b 06 1a 3d 0a d1 1e bd 94 46 5a be 16 71 c9 bc
       0.03760354 -0.038773574 -0.21315986 -0.024590056
000020 ab aa b5 3c c1 0e 37 bd a9 12 6b bb 9f df 95 3d
       0.022176107 -0.044691805 -0.0035869277 0.07318043
000030 3d 71 49 bd 04 51 5a bd fd 83 7b bc fb 49 57 bb
       -0.049180258 -0.05329992 -0.015351293 -0.0032850492
000040 6b 12 00 be 05 13 d7 bc cc f8 fc bc 2c 43 97 bd
       -0.12507026 -0.026254186 -0.030880354 -0.07385859
000050 0d 5c a2 bc ee 3c 37 3c 00 6c 70 bd 13 c3 31 3c
       -0.019819284 0.01118396 -0.058696747 0.010849732
000060 62 63 1f bd c7 a2 2f 3d bd 16 f7 3b 61 5b 24 3d
       -0.03891314 0.042879846 0.0075405524 0.04012621
000070 5c 97 3a bc 8f 76 7e 3d 61 32 80 be ad 2a 30 bb
       -0.011388626 0.062124785 -0.25038436 -0.0026880905
000080 85 97 80 be c9 ca 49 bd 75 48 85 3d 65 21 50 bd
       -0.251156 -0.049265657 0.06507961 -0.050813098
000090 b1 b7 7f 3d 71 7f 12 bd bc ec fc bc 45 1f 1a 3d
       0.06243104 -0.03576607 -0.030874602 0.037627477
0000a0 82 2c 08 bd 9c 58 82 be 3e d3 41 3e b8 f0 9c bd
       -0.03324557 -0.2545823 0.18928239 -0.07663101
0000b0 ce 60 5d be 1b 2d ea be a0 e2 61 be fa 4c c4 3d
       -0.2161896 -0.45737538 -0.22059107 0.095849946
0000c0 87 1f 8f 3d 9f 6f ee 3c 6d 65 a7 3d 16 6c 07 3e
       0.06988435 0.02910596 0.08173642 0.13224825
0000d0 b0 f7 a2 3d a8 46 71 3d 23 49 fd 3d c8 81 51 3d
       0.07957399 0.058905274 0.12367465 0.05114916
0000e0 81 ae 58 bd 5d f6 35 3d 76 7c 69 bd 9d d8 af 3b
       -0.052900795 0.044424403 -0.05700346 0.0053663985
0000f0 2f 35 39 3d 17 20 09 bc c0 b5 40 3d dd f6 a1 3c
       0.045216735 -0.008369467 0.04704833 0.019771034
000100 a0 d4 6d bc 5c b8 0e bd 93 19 01 3c bb 59 05 bd
       -0.014516026 -0.034843788 0.0078796325 -0.032556277
000110 c9 0c d3 3c ae 74 44 3d 5e 61 d8 be 67 25 f4 3b
       0.025762932 0.047962837 -0.42261785 0.007450748
000120 91 f0 80 be 5c ef da bb d6 bb 86 3d 65 a6 87 bb
       -0.25183538 -0.006681366 0.065787956 -0.004139709
000130 25 d0 fc bc eb 02 f0 3d 2f 7d 2f 3d 40 1f ac 3d
       -0.03086097 0.117193066 0.042843994 0.08404398
000140 1a bd a1 3d f3 cc bb 3d 37 11 fe 3c 02 1d 9f bd
       0.078973964 0.0916995 0.031014068 -0.07769205
000150 46 cf 14 be 24 57 3f ba bd 82 d2 3c 68 be 2f bc
       -0.14532194 -0.0007299057 0.025697106 -0.010726549
000160 c2 bf 38 3d 2f 2b 50 3e f6 48 72 bd c0 86 3c 3d
       0.04510475 0.20328973 -0.059151612 0.046026945
000170 b1 fd 9f 3c 44 9a bf 3d f4 eb 18 bd 7e 3a 92 bd
       0.01953015 0.09355596 -0.037334397 -0.07140063
000180 9b 7e 80 bd 39 74 08 be 62 43 69 bc ff a4 d4 3c
       -0.06274148 -0.13325585 -0.014237257 0.025957583
000190 43 dd 02 be f3 d6 b7 bd 2c 23 fc 3d 77 bc 4d be
       -0.12779717 -0.08976545 0.12311396 -0.20091425
0001a0 3b 3a c7 3d 98 ad c6 bd 1b 88 52 3d 50 b9 ad bc
       0.097279035 -0.09701079 0.05139933 -0.021206528
0001b0 e3 80 70 3e 12 80 6e 3e 5b 7f 6e 3d 28 cb b0 3d
       0.23486666 0.23291042 0.058226924 0.08632499
0001c0 a8 34 92 3d ff b5 d7 3b 3e 1d 5d 3d 1f 2f 30 bd
       0.0713895 0.006582975 0.053982966 -0.04301369
0001d0 e1 2b 15 3d e4 c5 36 3e 4e ff 42 bc f4 54 37 3d
       0.0364188 0.17848927 -0.01190169 0.044758752
0001e0 ed f2 9f 3d 13 77 2e be 57 50 e0 3b 87 9a be 3d
       0.07810006 -0.1703761 0.0068455148 0.093068175
0001f0 6c b5 cc bc b9 13 91 be 3c 07 59 3d 55 02 98 be
       -0.024988852 -0.2833536 0.052985415 -0.2968928
000200 d6 56 8a bc 50 d5 44 be 96 3c a5 ba 6c 7a 7d bc
       -0.01688711 -0.19221997 -0.0012606557 -0.015471082
000210 78 85 b9 3b e2 cb c9 3d 47 25 26 bd 06 c7 10 3e
       0.0056616627 0.09853341 -0.040562894 0.14138421
000220 5f a8 01 3d 12 ec 34 bd 4c ef 14 bd ba 2c 63 ba
       0.03165471 -0.044170447 -0.036361024 -0.00086660276
000230 21 77 08 bd 72 08 2f 3e cf 44 a3 3d 1a d7 0d be
       -0.033316735 0.17093065 0.079721086 -0.13851586
000240 8c 4d 22 3c 21 3c 73 3c a3 53 c7 3c 86 ca d9 3c
       0.009906184 0.014845879 0.024331873 0.026585829
000250 ff 6b 8b bd 57 a0 00 3d ed 69 5a 3d 56 1f 44 3d
       -0.06807708 0.031402912 0.053323675 0.047881447
000260 dc d0 f6 3d 82 cd dd 3c 33 32 3b bd e1 20 3a 3d
       0.120515555 0.027075533 -0.04570217 0.045441512
000270 9b 8c 7d bb 80 82 60 3d e9 01 1e 3b f6 e1 57 be
       -0.0038688544 0.054811954 0.0024110025 -0.21082291
000280 4e f3 2d 3c d9 a7 89 3d e2 c8 e0 bc 57 a2 9f 3d
       0.01061709 0.067214675 -0.027439538 0.07794636
000290 cb c3 e8 bd ed fa 71 3d f3 2a 76 bd 66 05 3b bc
       -0.113654695 0.059077192 -0.060099553 -0.011414861
0002a0 a0 48 06 bc ef c5 94 3c aa 41 e5 3c c9 01 96 3d
       -0.008196026 0.018160788 0.027985413 0.07324559
0002b0 f8 e0 6e bc 72 8c 97 bc c1 a8 41 bd 51 ec bb 3c
       -0.014580004 -0.018499587 -0.047280077 0.022939833
0002c0 49 13 10 bd 0a 4d bf 3c 7e d3 8c bd 72 e6 b7 bb
       -0.03517464 0.023352165 -0.068762764 -0.005612188
0002d0 b0 e3 a1 be 71 3d 5b 3b 10 ad 87 3d fb 6d 3a bd
       -0.31619024 0.003345337 0.06624806 -0.04551504
0002e0 15 eb 41 bc c4 db a4 be b8 af 44 3c 96 02 4a 3d
       -0.011835833 -0.32198918 0.012004785 0.049318872
0002f0 d8 8b 9a 3d 2c 87 66 bd 6c a8 87 3e 92 53 bd 3c
       0.07546204 -0.056281254 0.26495683 0.023111138
000300 b2 f0 84 3c 9a 14 00 bc 81 8d b1 3d 6a c6 ac bc
       0.016228054 -0.007817412 0.08669568 -0.021090705
000310 fe 2d bd 3d 13 7c 3a 3e 6a 1e 0e 3c 41 b5 d4 bd
       0.09237288 0.18211393 0.008674243 -0.10386134
000320 15 8e fe bb c2 32 52 3d 41 b3 24 bd 13 28 d6 ba
       -0.0077684023 0.051317938 -0.040210012 -0.0016338847
000330 d3 58 e2 bd ca 25 4e 3d cf 33 55 3d 37 14 8b 3d
       -0.11052098 0.050329007 0.05205136 0.06790965
000340 1a 51 84 bd 89 77 04 3e 8f ac 93 bd 50 51 37 3d
       -0.064607814 0.12936224 -0.07210647 0.04475528
000350 b9 f3 b7 3d 7b a0 23 3d 80 7a a6 3d cd 71 96 3d
       0.08982033 0.039947968 0.08128834 0.073459245
000360 43 87 83 bd 89 aa 84 3d 53 a6 84 bc 53 b8 5f bd
       -0.064222835 0.064778395 -0.01619259 -0.054619145
000370 7b 02 e8 3c 42 de e7 3d 55 d1 08 be 7f d1 e9 3c
       0.028321495 0.11321689 -0.13361104 0.028542278
000380 3d 7d f4 bc 71 98 92 3d 91 69 6b bd c1 0e 60 be
       -0.029844875 0.07157982 -0.057473723 -0.21880628
000390 4a 00 0b 3e 25 df 00 3d d2 f9 d1 3d be 76 e3 be
       0.13574329 0.031462807 0.102527276 -0.4442653
0003a0 2c e9 36 bc aa 33 4e 3d a4 b6 01 be d8 f3 1c 3e
       -0.011163991 0.05034224 -0.12667328 0.15327394
0003b0 61 cb df bd 1a ce ae bd e9 2e a8 3d 43 20 30 3d
       -0.10927463 -0.085354045 0.082120724 0.042999517
0003c0 53 e8 97 bd 16 8e 0f be 37 25 c1 be a8 37 a0 bc
       -0.07417359 -0.14019045 -0.37723705 -0.019557789
0003d0 c6 a9 89 bc 8b 41 95 3c c0 5c 00 ba 77 28 ed bd
       -0.016804587 0.01821973 -0.00048966333 -0.11579984
0003e0 ec 77 2d bd 60 df db 3d 66 5a ab bd 85 4d 1a bc
       -0.042350695 0.10735965 -0.083668515 -0.009417896
0003f0 78 8e e6 3a ed c6 0b 3e 99 22 fa 3c 58 bf 73 3d
       0.0017590066 0.13650103 0.030534076 0.05950865

model.4.bias f4 [256]
000000 3e 9a 43 3d 81 e2 37 bd 98 37 84 3c aa be d4 3c
       0.04775452 -0.044893745 0.01613979 0.025969822
000010 da b2 f4 3c a5 1f 17 bd c9 64 03 bd 65 12 2b bd
       0.02987044 -0.036895413 -0.032078538 -0.04176559
000020 da e9 78 bd b9 d0 9f ba ae fd d2 bc 09 f9 d2 3c
       -0.060769893 -0.0012192942 -0.02575573 0.025753515
000030 0d 7a 6e 3d a9 76 76 bc ea 6b 8b ba b7 13 03 bd
       0.058221865 -0.015042939 -0.0010637019 -0.032001223
000040 7e b8 51 bd a6 b9 ab ba 62 3c 39 bd f0 3c 69 bd
       -0.051201336 -0.0013101592 -0.0452236 -0.05694288
000050 4b c0 d7 bb e7 95 ed 3b 6e 6f f4 3c 2f 84 6c 3c
       -0.0065842024 0.007250536 0.02983829 0.014435812
000060 b9 a1 ff 3c fa 0a 0b 3d 72 8f 40 bd b2 4e 57 3d
       0.031205045 0.033946015 -0.0470118 0.052565284
000070 73 47 65 3c 45 0e 16 3d b6 8b 03 bd 67 1d 66 3d
       0.013994086 0.036634702 -0.03211566 0.056180384
000080 e2 f8 1e 3d b2 97 bc bc f0 a4 16 bc a2 3d d9 3b
       0.038811572 -0.023021553 -0.009194598 0.0066296617
000090 cd 28 aa 3c 15 50 24 3d f4 d0 86 bc de 99 57 3d
       0.020771408 0.040115435 -0.016457058 0.052636974
0000a0 aa 1e d3 3c 79 36 41 bd 18 b4 6d 3d 3c 5b 20 3d
       0.025771458 -0.04717109 0.05803308 0.039149508
0000b0 61 f9 ae 3c ef c1 82 3b d7 b9 91 bc 14 88 15 3b
       0.021359148 0.003990404 -0.01778881 0.0022816705
0000c0 c8 79 8b 3b 44 03 40 3c 2f ec 6f bd cf 88 0a 3d
       0.004256461 0.011719529 -0.05857485 0.033821877
0000d0 db 96 0e bd 67 5d 2e bd b6 82 2f bd e7 b7 4d bd
       -0.034811836 -0.042569544 -0.042849265 -0.05022421
0000e0 3a 58 b1 3c d9 44 d2 3c e3 fd 0f 3c b0 c5 72 3d
       0.021648515 0.025667595 0.008788559 0.05927056
0000f0 df 15 91 39 2f a5 59 3d db eb 51 3d fb 7e c3 3c
       0.0002767285 0.053136047 0.05125032 0.02386426
000100 08 88 2c bd eb 3e 19 3c 60 93 10 3c 1a 62 db 3b
       -0.042121917 0.00935338 0.008824199 0.006695044
000110 b0 9c a4 3d e8 3a 29 bd a1 c5 64 3d 85 6e 9b bc
       0.08037698 -0.041315943 0.055852536 -0.018973598
000120 08 57 b9 bc f5 72 7a 3c 81 86 41 3d 38 5c 01 bd
       -0.022624508 0.015286197 0.047247414 -0.031582087
000130 68 d4 ff 3c 0f 3e 43 bd 3f 45 32 bb 6f f0 43 3d
       0.031229213 -0.047666606 -0.0027201918 0.047836717
000140 58 8c 5e 3b 74 87 73 bd 9e 07 76 3b 20 fc 4e bd
       0.0033958163 -0.05945535 0.0037541161 -0.050533414
000150 eb ec bb 3c 4c ba 91 3c fb 26 80 bd 53 28 0f bd
       0.02294012 0.017789029 -0.06257435 -0.034950566
000160 9c 99 98 bc e2 48 ed bc 93 61 19 bd 3e e7 bb b9
       -0.018627934 -0.028965417 -0.03744657 -0.00035839708
000170 36 9e 1e 3d 6d 69 19 3d c5 a1 27 bd 44 aa 83 bc
       0.0387251 0.037454057 -0.04092576 -0.0160724
000180 d4 b2 a8 3d 6d db 1d 3d 56 85 7a bb 57 65 9a 3d
       0.08237234 0.03853934 -0.0038226447 0.0753886
000190 e6 0d 05 bd 44 d0 4c 3d 63 08 66 bd 61 92 9d bc
       -0.032483958 0.050003305 -0.056160342 -0.019234838
0001a0 7a 61 28 bd d6 54 6c 3d e9 84 93 3c ef fd 93 bc
       -0.041108586 0.057698093 0.018007712 -0.01806542
0001b0 88 01 2f bd 6c 04 0e 3d 4f 84 b7 bc 1b 4c 17 bd
       -0.04272607 0.034672186 -0.022401957 -0.036937814
0001c0 43 bb 37 bd 39 a5 02 bd ef f9 d9 3c fa a2 31 3b
       -0.04485632 -0.03189585 0.026608435 0.0027105198
0001d0 09 9d 65 bd 31 5d 98 3c b7 b0 83 3c 40 86 ed bc
       -0.056057964 0.018599125 0.016075475 -0.02899468
0001e0 0d ef 8c bc 46 85 28 bc 99 07 54 bc 62 33 0e bd
       -0.017203832 -0.010285681 -0.012941265 -0.03471697
0001f0 a7 cd 0a bc 63 b5 09 3d 03 ff 2c bc ba de 1b 3d
       -0.008471883 0.03362025 -0.010558846 0.038054205
000200 9c 11 4e bc 4e 0c 9d 3c 33 0e 05 3d 0e ab 92 3a
       -0.012577441 0.019170906 0.032484245 0.0011189894
000210 de d0 d2 3c c2 43 16 bc 02 95 80 3b 9a 4f 6f 3c
       0.025734361 -0.009171428 0.003924013 0.014606381
000220 74 54 6a 3d 25 89 f4 bc a7 7e d9 bc b8 69 43 bd
       0.057209447 -0.029850552 -0.02654965 -0.047708243
000230 7b ee c8 3b 0b 19 a3 3c bf f7 59 bc e1 dc 62 bd
       0.0061319447 0.019909402 -0.013303696 -0.055386428
000240 c3 79 1a bd da ae 14 bd 10 64 0c 3d d7 2f 93 3c
       -0.037713777 -0.036299564 0.034275115 0.017967148
000250 fb 20 c5 3c ca 02 ca bc 95 9b ab 3c 23 6d 1e bc
       0.024063578 -0.024659533 0.02094821 -0.009669575
000260 e0 34 98 bc c5 27 39 bc 9f 99 8c bd de 17 93 3c
       -0.0185799 -0.011300986 -0.068652384 0.017955717
000270 29 08 79 bd 42 20 03 3d cc 57 fb 3c b3 94 a2 bc
       -0.060798798 0.032013185 0.030681513 -0.019846296
000280 af c1 ae bc e1 d2 10 3d 05 be 49 3d bb 15 39 bc
       -0.02133259 0.03535736 0.049253482 -0.011296685
000290 36 ce 15 bd 42 11 94 3d 20 b9 f9 3c b2 b7 97 3d
       -0.03657361 0.07229854 0.030483782 0.07408084
0002a0 64 cb b1 bc f9 d3 04 3c 5e 07 43 bd a8 4d ea 3c
       -0.02170343 0.008107179 -0.047614448 0.028601483
0002b0 37 78 9b 3c 0d 69 dd bb de 19 3d 3d 47 e5 be 3c
       0.018978221 -0.006756908 0.046167247 0.023302687
0002c0 de b8 31 bd 34 af 3d 3d 6d c8 5a 3d bb 04 19 bd
       -0.043389194 0.046309665 0.053413797 -0.037358027
0002d0 f1 a0 9a 3c 3a a9 37 bc fe 47 94 3c 92 31 7c bd
       0.018875571 -0.01120978 0.018100735 -0.06157071
0002e0 ad 06 a4 bc 44 e7 49 bd b8 7c 67 bd ab dd 0e bd
       -0.020022715 -0.049292818 -0.056515425 -0.034879368
0002f0 71 dc 9d 3c 0c 6b d5 bb 8c dc 7a bc 5e 50 90 bd
       0.019270154 -0.006513005 -0.015311372 -0.07046579
000300 cd bc b5 3c 52 20 ad 3b 92 5a c8 3b d3 0a da bc
       0.022184754 0.005283394 0.0061143124 -0.02661649
000310 e6 f6 38 3d 32 ac 69 3d 7d f5 1c 3c e9 4b f8 bc
       0.045157336 0.057048984 0.009580013 -0.030309634
000320 35 27 da 3c be 9d 91 3c a2 68 03 3d 7a 11 e7 bc
       0.026630023 0.017775413 0.032082208 -0.028206576
000330 ec 58 a6 bc 13 4e 31 bd 5d 74 37 bd a1 f0 ef bc
       -0.020306073 -0.043287348 -0.044788707 -0.029289545
000340 b8 88 33 bd a6 30 64 bb 67 77 4d 3d d1 79 29 bc
       -0.043831557 -0.0034819036 0.0501627 -0.010343985
000350 e7 5c a0 3c d1 84 79 3c 18 79 9c bc e9 ba 80 3c
       0.01957555 0.01522942 -0.01910071 0.015714126
000360 6a 56 5f bd 98 05 9a bd 7f 43 2a bd 24 bf 36 3d
       -0.05452577 -0.07520598 -0.041568276 0.04461588
000370 45 c7 9e bc 9f 2f 33 bd de 86 86 3d 2a 10 ff 3c
       -0.019382128 -0.043746587 0.065686926 0.031135637
000380 50 eb 11 3d b5 ee a7 bb cb fa 26 bd bb f2 7c 3c
       0.035624802 -0.0051248916 -0.04076652 0.015438731
000390 e1 93 a8 bc 96 0f 1e 3d 2e 86 ab bc 8c e0 77 bc
       -0.020578327 0.038589083 -0.020938005 -0.01512922
0003a0 0c 39 c5 bc e2 e2 e3 3c 34 5b 91 bc 25 d1 47 bc
       -0.024075054 0.027818147 -0.017743684 -0.01219586
0003b0 81 2f 7d bd 0f 0e 24 bd 0e 24 b0 3c 9b d0 c5 3c
       -0.06181288 -0.04005247 0.021501567 0.024147322
0003c0 49 9e 11 3d a1 8d d2 bc 11 25 ae bc 01 18 8f 3c
       0.035551343 -0.0257023 -0.021257909 0.0174675
0003d0 67 47 45 3d db 9c 87 bd 39 e4 83 bc 5c c2 76 bd
       0.048163798 -0.06621715 -0.016100036 -0.06024395
0003e0 08 05 31 bc 64 00 40 3c 77 eb 14 3d 16 bb bb 3c
       -0.010804422 0.011718843 0.03635737 0.022916358
0003f0 7a f9 11 bc bf 6d cc bc 47 d5 82 3d 19 ea 74 bd
       -0.0089095775 -0.024954675 0.06388336 -0.059793565

model.6.weight f4 [1, 256]
000000 3e de ac be 8c c4 9e bd 73 3a 83 bd 10 0f ff 3d
       -0.33763307 -0.07752332 -0.06407633 0.12454045
000010 11 7a 2a bd 79 07 3a 3e 81 53 91 bd 1e 36 bc 3d
       -0.041620318 0.18166913 -0.07096005 0.091900095
000020 20 bb 4b bd 1e 9d bf 3b ce f6 31 bc 32 e9 c6 3d
       -0.049739003 0.0058475873 -0.0108620655 0.09712447
000030 9d c9 3e 3d 73 c9 d2 bd 91 e0 82 3d 4f a2 a3 be
       0.046578992 -0.1029233 0.06390489 -0.3195977
000040 53 c5 9b bd 2f 8a ea bd 18 cb 0a 3f ef 31 db bc
       -0.07605996 -0.11452138 0.54216146 -0.026757209
000050 f0 8c 18 3e e9 df 33 bd c2 09 25 3e a9 f7 dd bb
       0.14897513 -0.04391471 0.16117004 -0.006773908
000060 fd 68 4c 3e 6b 68 7f bd aa a0 ce 3d d9 94 1b 3e
       0.19961925 -0.06235544 0.10089238 0.151935
000070 47 b1 f5 3e 5b 08 6c 3d 81 41 d5 3e 7c 11 13 bd
       0.47986814 0.057625156 0.41651538 -0.035905346
000080 e3 0c a9 3d c9 fa 4c 3d 05 d2 18 3e 1c 45 6a 3d
       0.08254411 0.050043855 0.14923866 0.057194814
000090 2c bc a8 3d 75 2b 77 bd b0 f3 2a bc 4f 6b 07 bd
       0.08239016 -0.06034418 -0.010434076 -0.03306132
0000a0 45 82 a4 3d a0 d7 7a bd 40 21 2e 3e 3c b6 8e bd
       0.080326594 -0.061240792 0.17004871 -0.06968352
0000b0 ab 39 da bc 51 93 19 3e 86 66 48 bd fa 4f 11 b9
       -0.026638826 0.14997603 -0.0489259 -0.00013858071
0000c0 e6 3f fb bd 2c 7e 74 be 63 72 25 3c 8f 54 d5 bd
       -0.12268047 -0.23876256 0.010098073 -0.10416519
0000d0 53 ba 7f be 74 09 a8 bd 95 21 08 3e bb fa 58 bd
       -0.24973421 -0.08204928 0.1329406 -0.05297349
0000e0 2a f8 e0 bb 40 36 80 be 1f ee 30 bd 0f 3b eb bd
       -0.006865521 -0.2504139 -0.04319584 -0.11485874
0000f0 89 2c 99 bd a8 8f de 3d 04 a0 22 bd 2b bf 04 bd
       -0.074791975 0.10867244 -0.039703384 -0.032408874
000100 cb ff e9 3e 38 f1 87 3d 43 f2 dc bd 9f ed 8a bd
       0.45702967 0.06637806 -0.10788395 -0.06783604
000110 b3 f4 32 3e d8 93 b3 3d 1b 32 8f 3d bd dc b4 bd
       0.17476158 0.08768433 0.06991979 -0.08831165
000120 6f b5 e2 3e 3e 37 05 3e b0 b5 8f bd a8 10 a0 bd
       0.44279048 0.13009354 -0.07017076 -0.07815677
000130 7f 6a 8b bc 1c 61 f0 3e d8 45 74 bc 6f 93 88 3d
       -0.017018555 0.4694909 -0.01490923 0.06668746
000140 0d 62 2e bd 82 92 61 3d 6c 42 70 bd 1c 7d 16 3e
       -0.042573977 0.05507136 -0.058657095 0.14696163
000150 d7 32 01 3e 99 4e 8b 3d 6a 03 34 3d 1b d0 18 3e
       0.1261705 0.06802101 0.04394857 0.14923136
000160 b3 32 c2 3d 37 eb c5 3d a8 52 5a 3d 69 a3 82 bd
       0.09482326 0.09664004 0.053301483 -0.06378824
000170 a9 d4 8a 3d b3 eb ad bd 9d b1 07 3e b4 ec f2 3d
       0.06778843 -0.08492222 0.13251348 0.11861554
000180 79 a2 81 3d ae 4c 98 bd 22 a0 e9 bc d7 ce ec 3d
       0.06329817 -0.074365005 -0.02851874 0.11562889
000190 ab 87 e0 3b 8d 78 98 bd dc 7c 6c bd b5 30 ca bc
       0.0068521104 -0.07444868 -0.057736263 -0.024681428
0001a0 09 3f 64 bd f7 cc 92 bd 38 3a 02 be 24 d6 a7 3b
       -0.055724178 -0.07168 -0.12717521 0.005121963
0001b0 1d 7f 0d bd 1b 27 62 be a7 37 8d be 0a fa 10 bd
       -0.034545053 -0.2208523 -0.27581522 -0.035394706
0001c0 ff 4c f7 bd ed eb 73 3d f3 30 d9 bc 01 5e 44 be
       -0.12075233 0.05955117 -0.026512599 -0.19176485
0001d0 31 ff 5d bd 9c ad 97 bd 47 b2 13 bd 94 be 2a bd
       -0.054198448 -0.0740616 -0.03605869 -0.041685656
0001e0 8d cf 80 3d 80 51 0a bd fe a6 64 bc 75 b5 53 3e
       0.06289587 -0.03376913 -0.01395583 0.20674689
0001f0 e0 9a 10 bd f1 92 d5 3d 79 27 86 be c8 93 cc bd
       -0.03530395 0.104284175 -0.2620199 -0.099891245
000200 b0 08 08 3d 3c ce c8 bc 3a f7 cc 3d 72 77 79 be
       0.03321141 -0.024512403 0.10008092 -0.24361971
000210 01 d8 90 bc 14 a7 08 3e 25 61 6b bd 4f 26 6d bd
       -0.017681124 0.13344985 -0.05746569 -0.057897862
000220 63 42 1f 3e 18 e5 da 3d ef a8 f7 bc 04 21 5c 3d
       0.15552668 0.106882274 -0.030231921 0.053742424
000230 71 b9 e4 bc 45 39 11 bd 2b d5 74 bd bf e1 b0 3e
       -0.027920457 -0.035455007 -0.059773605 0.3454723
000240 76 e2 7d 3e ed f0 b6 be a1 b4 2f be 6f 6b 76 3e
       0.24793419 -0.35730687 -0.17158748 0.2406442
000250 96 6a 48 bd 2f 16 5e bd 76 c5 7b be b5 1b 85 bd
       -0.048929773 -0.054220375 -0.24587044 -0.06499425
000260 1f cf 07 be e7 3c 83 3e dd 20 4b bd 23 76 07 3c
       -0.13262604 0.25632402 -0.049591888 0.008267912
000270 d6 32 23 bd 6e 0a 0f be f2 b4 56 3e 8a 8f c4 3e
       -0.039843403 -0.13968822 0.20967463 0.38390762
000280 68 f3 73 3d f1 7b bc bc 8d 69 c0 3d 6d 21 56 bd
       0.059558302 -0.023008319 0.09395132 -0.05227797
000290 e2 08 37 be 3a a1 ce 3d 98 4a f2 bb 49 d2 cb 3d
       -0.17874482 0.10089345 -0.007394146 0.09952218
0002a0 2b eb 80 bd d2 4a 4f bd d2 fb 57 bc 4e a1 25 3e
       -0.06294855 -0.050608464 -0.013182597 0.16174814
0002b0 e4 08 a7 bd 00 26 8f bd 97 64 bc 3d bb cf e8 3d
       -0.081559926 -0.0698967 0.091988735 0.113677464
0002c0 e4 0a 33 3e e6 89 82 bd 4f 62 a5 3d f3 94 28 3e
       0.17484623 -0.06373958 0.080753915 0.1646307
0002d0 b1 6f 7e 3e 68 8f 1c 3e 09 6a d1 3d 78 3b 87 bd
       0.24847294 0.1528908 0.10225303 -0.0660314
0002e0 cc 88 ed 3b 41 a9 e8 3d d0 01 10 3e a1 e8 1f be
       0.0072489735 0.113604076 0.14063191 -0.15616085
0002f0 8d 14 8c 3d b1 01 ad 3c ea 14 53 bd 3d 45 93 bc
       0.06839857 0.02111897 -0.051533617 -0.017977351
000300 11 c2 9a bd 59 b5 90 3e a1 0e 12 3e 9a ea b9 3d
       -0.075565465 0.28263357 0.14263393 0.0907795
000310 8f 63 23 3e fd 4a 53 3d 65 ed 01 3e 42 2d 15 3e
       0.15955947 0.051585186 0.12688215 0.14568046
000320 d9 b5 3a 3d 54 05 80 bd de ab 2f be c0 95 05 3e
       0.04558358 -0.06251016 -0.17155406 0.13045406
000330 68 b6 a4 bd 0c d8 28 bd e8 0a 10 3e c7 09 84 bc
       -0.08042604 -0.041221663 0.1406666 -0.016117943
000340 6c 26 47 bd 5a a5 71 3d 3c 9d 75 be bd fc c3 bd
       -0.048620626 0.058995582 -0.23985761 -0.095696904
000350 00 9c d2 bc 9a 9f 65 bd c4 0d 32 bd 48 1a 69 bd
       -0.025709152 -0.05606041 -0.04347016 -0.05690983
000360 47 b2 27 be 8e 62 7f bd 44 74 65 bd 25 f9 1f 3e
       -0.16376601 -0.06234985 -0.056019083 0.15622385
000370 83 c4 4b 3e 4a 94 8c be bd d6 92 3d e6 1a 87 bd
       0.19899182 -0.27456886 0.07169864 -0.06596927
000380 59 1b 85 3d 92 96 a2 3e 36 4f c4 bc e8 d9 c0 3d
       0.06499357 0.317555 -0.023963552 0.09416562
000390 e5 31 85 be bf b2 ae 3d 20 b9 96 3c c2 2b 95 be
       -0.2601463 0.08530187 0.018398821 -0.29134947
0003a0 ee 67 bf 3b ff b8 e5 3b cd 7b d6 bd 28 c2 dc bd
       0.005841247 0.0070105786 -0.10472832 -0.1077922
0003b0 51 e7 42 3e 02 c6 4a bd 96 64 ae 3d f5 13 c4 bd
       0.19033553 -0.04950524 0.08515279 -0.09574119
0003c0 57 e6 99 be 97 d1 e5 3d df 5e 35 be 7a 4a 7c bd
       -0.30058548 0.11221617 -0.17711972 -0.061594464
0003d0 5c a3 ad bd 39 5e 05 3e 86 78 bf bc 8b 8d 6e bd
       -0.08478424 0.13024224 -0.0233729 -0.058240455
0003e0 39 53 d8 3d 46 18 a8 bd 8b 06 31 bc 81 23 ed 3d
       0.105627485 -0.08207755 -0.010804783 0.115790375
0003f0 6a ac 93 bd 04 74 d5 3d 2c ee a6 3d cf f3 f7 3d
       -0.0721062 0.10422519 0.081508964 0.1210705
