data/checkpoints/rlgym-ppo-run-1760737740221222700/541324900/PPO_POLICY.pt (torch, 638775 bytes, 8 tensors)

model.0.weight f4 [256, 89]
00000000: 42ce a8be fb27 943e b5f6 babe fe0b c83d
00000010: 354a 27be 0eb5 6abe e63e d03c 291f c6bb
00000020: dd40 0d3d df3d 213d 35d7 e43c ee97 cdbc
00000030: dada f6bc 645e 1dbd fb69 00be ac0a 8b3c
00000040: 36bf 263b 1e05 753d 80e2 23bd d149 b33c
00000050: 34bf 803d 43e2 e73b a8a5 783c a16e b83d
00000060: 7f30 7cbd dcb8 a53c bb2c 7bbd add3 9e3d
00000070: 4133 aa3d 414c dcbd 9612 d73d 9b99 f73c
00000080: 5e50 fb3c c7f4 963c 3fd0 893d 14b7 f2bc
00000090: 4f22 d6bd e195 eebb f508 bbbd 285c 193c
000000a0: 001c babc aede 86bd b664 9ebc d44e 953d
000000b0: a99d a8bc 885b 32bc 0aee ccbc a56b 5d39
000000c0: d651 ad3d 4f09 423d e8da 8f3c 56d3 8f3e
000000d0: a2c1 913c 564b 473e ce8d 58bd 2bf3 15be
000000e0: cc60 9cbe e735 0bbd 28dc bc3d 8314 b1bd
000000f0: da8a 11be 4ac8 883d fab9 b23e 0bb0 f6be
00000100: d837 48be c1ba ddbd bb6c 7abe be7d 80bd
00000110: f8a8 3bbc 0a2b 213e ed54 773e 5038 043e
00000120: f2a4 f0bd 1591 e6bc 260e ac3c 807c 263c
00000130: c3c6 c73c f8e2 333c 64d8 7bbb 7e5b acbd
00000140: d098 6c3d 12da 71be a9f2 9dbc 0fb1 ac3c
00000150: 322a c5bc b9f2 85bd 0ba0 04bd c0be b83d
00000160: 90e7 6e3d 8a9d ea3d 81de 1abe 5b72 083e
00000170: c121 163d 6e4a a0be 051e 7bbe a6c8 743c
00000180: 84c7 623e 5be5 8a3e 019e 673d 3625 51bd
00000190: a632 cd3c aba3 1bbd 4932 be3c 9bf4 20bd
000001a0: 6286 debc 36f6 b8bc 2379 60bb 604f a63d
000001b0: 394e 253d f47a 3abc 2d53 743d 7100 92bd
000001c0: f26d 1b3d 0240 bebc ac7f f9bc bea4 51bb
000001d0: 698d 86bd 9685 8abc 4728 a53c 5d2d 5f3d
000001e0: f5b8 37bd b50b fb3c 4eea bf3d 18d9 6bbd
000001f0: d9e6 ad3d cd3a 95bd f916 0f3d 6a56 063d
00000200: 03bc 3bbc 45c9 bc3d 0d89 72bd a2b8 4e3c
00000210: a834 b9bc 11ba c5bd ab27 1cbd ba6e c8bd
00000220: 6f3c e03c bab1 cdbb f753 6cbb 68ab 53bd
00000230: 4645 9dbe dab9 b03b c981 bb3d e3f2 813e
00000240: 9a7d 113d 1027 193e 7c6a a5bd d3b9 67bd
00000250: c12c e7bc 4f4d 4a3e 8119 46be 6199 253e
00000260: 1d32 5e3e 039a e93d e982 6a3e 1e04 f13e
00000270: 8a73 a4bc d396 843d 2982 d3bd fcef b73e
00000280: 6d19 813e 4b89 1e3e 7002 98bb ab8e 683d
00000290: 194d bb3d cad3 303d 736f 5bbd 46d1 ad3d
000002a0: 1d6e ce3d afe2 183e c1e7 a73d fdfb 61bd
000002b0: d3fa 8b3c ff3d 59bb 183c 5abd 2bab babd
000002c0: fb64 45bd 174c b8bc 9efe e63c b8c7 9b3e
000002d0: 4215 273a 64ad a53d 1ffc a53c d689 2bbe
000002e0: 5117 31be 7c27 693c 3ea8 9cbc ebee 453d
000002f0: 8a5e e13d db61 3dbd d7c8 76bd 837b 0cbd
00000300: 120b 8abe f74e 263d d34e 36bd 7fae 4cbd
00000310: c0ac 203d 6367 82bd 7652 c53d 202d f83c
00000320: 1abb dfbc c892 4c3c 9c2d a33c 05fd 04bd
00000330: 3279 9dbd 3255 20bb ae35 0f3d f95c 183c
00000340: 249a c3bc 2c38 8f3d 4a4e c7bc 86fe 44bc
00000350: 7b16 3b3d db32 7bbd 77b6 183d ed18 b5bc
00000360: 66d5 593d 9c7b 0fbd 0e98 d93b 9051 6b3c
00000370: feeb 9fbd c8c3 a3bd 25e4 493d d179 b3bc
00000380: 0f51 8b3d 32a6 d5bd 3dab 3bbd 3cc8 a4bd
00000390: 7067 223d b70f 4ebd a846 f5bd e080 41bd
000003a0: 85cf 36be 44b6 003d 9420 683e 3fea 153d
000003b0: 8d8d 55be c33b 4a3d 047b b13d 257d f63d
000003c0: 7298 13bf b2f4 753d 63ac e9be 8f8f 173e
000003d0: 2f60 813e 254c 303e 128d 88bd 3838 e8bb
000003e0: bd84 4f3b 737e 6b3d 06df 2f3d 4058 d9bd
000003f0: d6e2 bd3d 3872 c43c 7d6f 7bbd 704a 8e3c
-0.32969862 0.28936753 -0.36516348 0.09767912 -0.16336901 -0.2292063 0.025420617 -0.006046195
0.034485687 0.039365645 0.02793465 -0.02509686 -0.030133653 -0.038420096 -0.12540428 0.016972862
0.002544356 0.059819333 -0.04001093 0.021885784 0.06286469 0.007076533 0.015176214 0.09005476
-0.061569687 0.02022975 -0.061321955 0.07755218 0.08310557 -0.10756732 0.10501592 0.030224612
0.03067797 0.018427266 0.06729173 -0.029628314 -0.104557626 -0.0072810506 -0.09132568 0.009360351
-0.02271843 -0.065854415 -0.019335132 0.07290426 -0.02058299 -0.010886081 -0.02501585 0.00021116303
0.084628746 0.04737216 0.017560437 0.28090924 0.017792527 0.19462332 -0.05286961 -0.14643542
-0.305426 -0.033986952 0.09221679 -0.086464904 -0.14213124 0.06678827 0.34907514 -0.48181185
-0.19552553 -0.10826636 -0.2445554 -0.062739834 -0.0114538595 0.15739074 0.2415349 0.12912107
-0.11750211 -0.028145352 0.02100284 0.010161519 0.02438677 0.010979407 -0.003842854 -0.08415888
0.05776292 -0.23618343 -0.019280748 0.021080522 -0.024067972 -0.06540436 -0.03237919 0.09020758
0.058326304 0.114558294 -0.15123941 0.13324873 0.036653284 -0.31306785 -0.2452317 0.014940416
0.22146422 0.2712811 0.05654717 -0.051060878 0.025048565 -0.037997883 0.023217337 -0.039295774
-0.027163688 -0.02257834 -0.003425189 0.08120608 0.040357802 -0.011381853 0.059649635 -0.071289904
0.03794665 -0.02322388 -0.030456387 -0.0031989063 -0.065699406 -0.016909402 0.020160807 0.05448662
-0.044854123 0.03064523 0.09370862 -0.057580084 0.08491296 -0.07286606 0.034934018 0.032797255
-0.0114584 0.092180766 -0.059212733 0.012617262 -0.022608116 -0.0965463 -0.038123768 -0.097867444
0.027372567 -0.00627729 -0.003606079 -0.051677138 -0.30716914 0.005393249 0.09155614 0.2538062
0.035520174 0.14956307 -0.08076951 -0.0565737 -0.028219583 0.19756053 -0.19345666 0.1617179
0.21698804 0.114063285 0.22901501 0.47073454 -0.020074625 0.0647408 -0.103275605 0.3592528
0.2521471 0.1548206 -0.0046389624 0.056776684 0.091455646 0.043170728 -0.053573083 0.08487181
0.10079596 0.14930223 0.081985004 -0.055171955 0.017087376 -0.0033148525 -0.053279966 -0.09114679
-0.048192006 -0.02249722 0.028197583 0.3042581 0.0006373712 0.08089712 0.020261822 -0.16751799
-0.17294051 0.014230605 -0.019123193 0.048323553 0.1100436 -0.0462359 -0.06025013 -0.034297477
-0.2696157 0.04060265 -0.044508766 -0.0499711 0.039227247 -0.06367376 0.09634869 0.030294955
-0.027310897 0.012486167 0.01991921 -0.03246786 -0.07689132 -0.0024464843 0.034963302 0.00929951
-0.02387721 0.06993136 -0.024329323 -0.012023574 0.045675736 -0.061327796 0.037283387 -0.022106612
0.05318203 -0.035029992 0.006640441 0.014362708 -0.07808684 -0.07996327 0.04928984 -0.021908673
0.0680257 -0.1043209 -0.045817602 -0.08046004 0.039649427 -0.050307956 -0.11976367 -0.047242045
-0.178526 0.031423822 0.22668678 0.036600348 -0.20854779 0.0493734 0.086660415 0.12035588
-0.5765449 0.060047813 -0.45639333 0.14800857 0.25268695 0.17216547 -0.06667532 -0.00708678
0.0031664812 0.05749364 0.0429373 -0.106125355 0.09271781 0.023980245 -0.06138562 0.017369479

model.0.bias f4 [256]
00000000: f590 3fbd 625e 843c f85b 1abd 90e4 8fbc
00000010: 67cc 8cbd c0e7 31bd dbba 9a3d fd96 b7bd
00000020: 7aee fd3c ec2f 023b 6fcc 3b3d 22ef c03c
00000030: 744f 0f3d e11a 673c 2083 db3d 3974 653d
00000040: 6d32 593d d3f9 183d 96b1 5f3d efe1 d03d
00000050: bd6e ef3c 0f3b 903b 93fc 06bd fd96 5e3b
00000060: 0439 4c3d 3efc eabd d43b c5bd 651e c73d
00000070: e25c a53d 7f1e c13d 833a bfbd 06ee b63d
00000080: edca 8ebd 0826 a2bc 814e 96bd de18 bd3c
00000090: 21c5 87bd 1ddd 9a3c 7b83 b33d 138b 093c
000000a0: ccd9 1f3d 3641 3e3c 00ad e43c 86b8 1cbd
000000b0: 4375 a33d ce17 743d 78fe cc3c 6da1 1bbd
000000c0: 58b6 bd3c fbf6 133c 675e 953d 9d3f 14bc
000000d0: 27d3 5ebd cc11 b1bd 94d9 73bc bb16 46bd
000000e0: 5863 c2bd 181c a4bd 7dee 623c 0bec 08bb
000000f0: 9de1 efbc 9482 efbd f830 9c3b 4286 9f3d
00000100: 95ed 4ebd 0d0d ba3d 3c89 16bd 2698 7e3d
00000110: 6dbb a3bc 38f7 dfbd 3c14 87bd 7c0e 403c
00000120: 49fb 573d b90a fdbd 1dc4 983d 4f25 9b3c
00000130: b0de ec3c 2243 d83b 5b9a 7dbd ae32 b93d
00000140: 66e3 2abc 5e7e fbbd 19c8 99bb 7851 8ebd
00000150: cece 7fbd 15cc aabd 40b9 6d3c 58cc cfbd
00000160: c397 5bbd ad34 babc af1f 96bd be19 c0bd
00000170: 75d1 8bbd 5a2f 45bd b1d9 d1bd aee3 c0bd
00000180: 8a19 b3bd 8853 883d 5d44 acbd 322e af3c
00000190: 7b77 43bc f7d7 a3bd 5286 80bc d469 0d3b
000001a0: 6364 cd3d fe19 f8bc 5c7e b53d 4fda 3c3d
000001b0: 5acb 883d 5107 b73c 9e0b 68bd 2f69 3dbb
000001c0: 2bdc 00bd 2c13 383d 81ba 6f3d 2de3 543d
000001d0: 80b9 89bd 0f04 553b 5390 773d b1c4 c73c
000001e0: 660f e8bc 9190 903d 1204 bcbd 63c5 babd
000001f0: 0ad1 a4bd f21f 303c 8abb b7bc f8a5 5c3d
00000200: 250a 8a3b 1704 4b3c e6f5 3d3c 4b43 5b3d
00000210: a75c 413d 3748 6c3d 4986 073b dca4 723d
00000220: a1ff b13d 950d 233c 241f 3a3c cb3f 55bd
00000230: 1eee f63d a82e 663c 0a29 d9bd 0674 32bd
00000240: 6a7e 25bd 8a71 80bc 3f30 88bd d061 39bd
00000250: c822 c1bd 9c09 71bc 487b d6bd e95f 953b
00000260: 684f 5a3b cd8d a4bd 838d fa3c 87f7 5f3d
00000270: b708 17bd 9b62 aebd 42a1 d03d 33b2 4fbd
00000280: 745b bf3c 6ab2 a8bd 0784 a7bd 09d4 19bc
00000290: e935 13bd f134 57bd 6e4f c1bd 80e7 383d
000002a0: f915 eebd 1c7c 38bd d0fb a9bd 582f c2bd
000002b0: ff86 173d 20c1 6dbd c8ad 413d 0c29 b6bd
000002c0: b323 8bbd 80a9 243d 8646 8a3c 116a ab3d
000002d0: 9080 4a3d f343 9dbd 3e6b 9bbc 5bca cc3c
000002e0: 0d8b 30bc 2a17 ad3d 2b91 7f3d 633c 4f3d
000002f0: f388 babd 28b2 46bd 2c21 e4bd db69 60bd
00000300: 2d34 053d 9797 53bd 9268 f83d d3b0 10bb
00000310: c395 01bb 2161 1abd 561d 9dbd 82a1 993c
00000320: 1e01 bf3d 1514 a73d 75c3 ae3c 2038 fe3c
00000330: 749e 39bd c779 893b abc6 a73d 42dd 2ebd
00000340: 720e 593d e157 8d3d 6f13 e83c cc7d cfbd
00000350: 4a7b 6b3d 1a99 d5bd 653d 1a3d ca0d 613d
00000360: a646 a5bd e674 b2bd 3fd5 a9bd d3e5 ae3d
00000370: 607f 7dbd 64ce 87bd a76a 04bc 7d22 9c3c
00000380: ada9 32bd b5dc a0bd 5580 b4bd a4c4 d73c
00000390: a19b 4bbd 86b5 cdbd efc4 9cbd 8bb5 4fbc
000003a0: 04f3 45bd 5fe2 8cbb 523a c73b edec be3d
000003b0: eacd c03d 6866 fd3c 9e94 7abd 779d 993c
000003c0: e2a5 82bd 91be 883d 302c 743c 67fa a0bc
000003d0: 2f9b be3d 9056 65bc 49b5 46bd 2985 123c
000003e0: eea3 da3d 1b90 aebd ca18 35bd 9b35 3ebd
000003f0: c7aa 593d 39f6 d23d 2b74 a63d c628 a53d
-0.0467691 0.016158286 -0.037685364 -0.017565042 -0.06874924 -0.043433905 0.07555171 -0.089643456
0.030997504 0.001986499 0.04584926 0.023551527 0.03498788 0.0141055295 0.107183695 0.05601904
0.053026605 0.037347626 0.05461272 0.101993434 0.029227609 0.0044015716 -0.032955717 0.0033964508
0.04985906 -0.11473893 -0.09630552 0.09722594 0.080743566 0.09429645 -0.09337332 0.08932118
-0.06972299 -0.019793525 -0.07339192 0.023083147 -0.06629396 0.018904263 0.08765312 0.008394974
0.039026067 0.011612227 0.027914524 -0.038261913 0.0798135 0.059593014 0.025023684 -0.037995744
0.023158237 0.009031053 0.072933964 -0.00904837 -0.05440059 -0.086459726 -0.014883418 -0.04836152
-0.094916046 -0.08013171 0.013850805 -0.0020892646 -0.029282385 -0.11694828 0.0047665797 0.077892795
-0.050519545 0.090845205 -0.03675197 0.06215682 -0.019986833 -0.10935825 -0.06595656 0.011722203
0.05272988 -0.12355561 0.07459281 0.018938689 0.02891478 0.0065997997 -0.061914783 0.090428695
-0.010430193 -0.12279962 -0.004693043 -0.06949133 -0.062453084 -0.08339707 0.014509499 -0.10146397
-0.053611528 -0.022730196 -0.07330262 -0.0937991 -0.0682706 -0.04814086 -0.102465995 -0.094184265
-0.087451056 0.06656557 -0.08411477 0.021384332 -0.011930342 -0.080001764 -0.015689049 0.002157797
0.10028913 -0.030285832 0.08861992 0.046106633 0.06679411 0.022342356 -0.056651704 -0.0028901806
-0.03145997 0.04494016 0.058527473 0.051974464 -0.067248344 0.003250364 0.060440373 0.024385782
-0.028327655 0.07058824 -0.09180464 -0.0911968 -0.080476835 0.010749804 -0.022428293 0.053869218
0.004212635 0.012391112 0.011594271 0.053530972 0.0472075 0.057686057 0.0020679405 0.059239253
0.086913355 0.009951969 0.011359964 -0.05206279 0.12057136 0.01404921 -0.10603531 -0.04356768
-0.04040376 -0.01567914 -0.06649827 -0.045259297 -0.09430462 -0.014711764 -0.10472733 0.0045585525
0.003331149 -0.08034859 0.030585056 0.05467942 -0.036873545 -0.08514901 0.101870075 -0.050707053
0.023359038 -0.08237155 -0.08179479 -0.009388932 -0.035940085 -0.052540723 -0.09438978 0.04514265
-0.11625285 -0.045040235 -0.082999825 -0.09481686 0.036993977 -0.058045506 0.04728487 -0.08894548
-0.067939185 0.04020071 0.016879331 0.0836984 0.049439013 -0.07678976 -0.018972035 0.024998834
-0.01077534 0.08451684 0.062394302 0.0505947 -0.09108152 -0.048509747 -0.111391395 -0.05478845
0.03252046 -0.05165824 0.1212932 -0.0022078052 -0.0019773103 -0.037690286 -0.07671611 0.01875377
0.09326385 0.08158127 0.021333436 0.031032622 -0.04531713 0.004195425 0.0819219 -0.042691477
0.05299229 0.06901527 0.02832958 -0.10131416 0.057490624 -0.104295924 0.037656207 0.05494479
-0.08070116 -0.08713703 -0.082926266 0.08539929 -0.061889052 -0.06631163 -0.0080820685 0.019059414
-0.043618847 -0.078545965 -0.0881354 0.026338883 -0.049708966 -0.100443885 -0.076547496 -0.012677561
-0.04832746 -0.0042994465 0.0060799504 0.09322534 0.09414275 0.03093262 -0.06117689 0.018751843
-0.06379296 0.06676973 0.014903113 -0.019650651 0.09306943 -0.013997689 -0.04851273 0.008942881
0.10675798 -0.0852358 -0.044213094 -0.04643784 0.05314138 0.103008695 0.08127626 0.080644175

model.2.weight f4 [256, 256]
00000000: 28a9 f1bd 0b38 5d3d 2f8b 3ebc cc47 73bd
00000010: 3623 1cbe 43f8 553d 6d41 ac39 40ed 04bd
00000020: 74ba 943d f69d 683d e241 0cbd 753f 4ebd
00000030: 8438 41bd e850 03be 1f68 78bb 1990 1fbc
00000040: 9d39 0a3d 52f0 803c 425d 863d d5b5 63bd
00000050: dae8 cabc 6169 ebbd c8b7 15bd 675c 0fbe
00000060: 07d7 05bd 8435 903c 54d9 0e3d 0043 04bb
00000070: f420 333c 86de b33d ba09 283d 383a d53d
00000080: af09 b13b 8f46 f9bc a337 bbbd 9871 f73d
00000090: 7d6f 9c3d f622 9ebd 55f8 063d 844c 8dbc
000000a0: 3fe5 4dbd b235 08bd f1db 773d 7987 7abc
000000b0: 7ac7 3ebc 56ba bcbd 5df6 c43b d281 a1bd
000000c0: 607e 9e3c 28d2 48bd d469 153d e4af 98bc
000000d0: 8536 363c a99e 64bd 90f7 313b e1a6 773d
000000e0: 2c85 a4bc c76c c23c 91cd 29bd 4298 a23d
000000f0: ee6f 58bd 1a4a 6f3d 48b2 8b3c b67a 4c3d
00000100: 4d9c 2cbe 493a 303d f2f7 103e 0eda 45bb
00000110: b44c 243d 2175 ba3c 24b5 0ebe 22ef 30bd
00000120: 664d 5bbc 698c d23c 8a29 e6bd c084 a33c
00000130: 9383 083d 446e 3abe 4e24 dd3d 8031 0cbd
00000140: 0a65 573d 3c3d 59bd 364b dc3b 0454 0ebd
00000150: fc11 633d b60f 2e3d 9bb1 dbbc 0f9b 393b
00000160: ff90 923b 22f7 a13d d4d2 4b3d 2e56 3c3d
00000170: ed9c f3bd 09d2 e6bc 2498 993d e86e d73d
00000180: 77ca 823d 7939 50be 8969 81bc ae23 e2bc
00000190: e417 993c a338 ebbd 7196 c7bd 4aa9 c13b
000001a0: 9f32 b7bc c237 f1bd 601d a7bc d6fc aabc
000001b0: ab24 343e 106f 253d 378f d23d d916 9cbd
000001c0: d68f d73b 98e9 7c3d b72f 31bd bdad ddbc
000001d0: b7d7 7d3d 002c 4b3e 7faa 213e d4b8 d63c
000001e0: 7600 bbbc fab6 43bd 4658 973d 5748 06bd
000001f0: 35d2 14bd 1d06 b33d 6657 88bd 0dbd fc3c
00000200: 0942 093d 4351 733d 81b5 3dbd 3c79 423d
00000210: 9e3c ab3c 849d e33d 40fe 033e 7e68 8c3c
00000220: 3e90 b5bd 7a02 4dbd 17df bcbd b56d 2abd
00000230: 15d4 c6bd 286b 98bd bec1 9a3d 1a02 90bc
00000240: 9f56 8b3b 443d 00bd 8813 b03d 6a10 f2bc
00000250: 6ce7 7f3c 5391 69bd f152 2d3d a2a3 88bd
00000260: ead3 bdbb 7204 30bd a208 18bd d1fa b13d
00000270: 8c79 74bb 702f bc3d 92d7 ad3d dcaa 47bd
00000280: 83fb 89bd c362 5bbe 6b02 9d3c 6912 5b3d
00000290: 6b0d 29be 2628 5abd 8cf2 7dbe 5eb2 4abd
000002a0: 0ff9 363c 78f2 6bbe 4cc4 47bd 5021 903d
000002b0: f088 be3d be59 523d 5b16 e13d 2cd9 4ebd
000002c0: ebe3 8c3d 19c3 6dbc 7fd7 10bc 18c5 fd3c
000002d0: 8b0d 11bd b413 e0bd cab4 d1bd 4073 30be
000002e0: f906 a03c 1d02 16be 505a 683d 868c d4bc
000002f0: 40e9 3c3e e371 4d3d 7f0c 093d c605 58be
00000300: 8b4c 06be e1ea fcbd 8d75 81be ef0d 14be
00000310: 05bf fdbd 85ac 55b9 3fea 76bd 4085 fd3d
00000320: 9f00 f43b eddf 973d 20eb ffbc f501 8b3c
00000330: 8d26 823d c172 d13c 7004 b93d 0065 5ebb
00000340: bd8c 853d e986 8cbc 8a61 5fbd adc7 1c3d
00000350: 6e2b d13d d5e7 81bc 7c0b 18be ab50 21bb
00000360: bd71 50be dba9 b3bd 2ae6 8ebc 0d7b 113d
00000370: f6a1 793d 3f08 6ebc ca0f 8d3d 7ec8 f1bd
00000380: 8f6c 8bbc d499 393b 889f 773c adc7 b6bc
00000390: 8526 babd c5f3 cabc 50d1 683d 56bc 983d
000003a0: 9812 b2be 6338 973c 2ce5 81bd 8515 533d
000003b0: 5182 de3c 82f2 33bc 8517 27be 71b0 253c
000003c0: 9abc 923c 5572 7d3d 6d1e 57bd 91f6 bb3d
000003d0: 1a47 ba3b fd18 763d 90ba cabd 920b 2abe
000003e0: 060d b63d b3f7 803c 20d4 b03c ff4b 45bb
000003f0: b04d aabd 0172 3cbc 93f3 f73c 1b3d 66bd
-0.11799842 0.054008525 -0.011629864 -0.059394643 -0.15247807 0.052238714 0.00032855142 -0.03245282
0.072621256 0.05679127 -0.03424252 -0.050353486 -0.047173038 -0.12823832 -0.0037903858 -0.009738945
0.03374635 0.015739594 0.06560756 -0.05559333 -0.024769235 -0.11494709 -0.03655222 -0.14000092
-0.03267577 0.017603643 0.03487523 -0.0020181537 0.01093315 0.08782677 0.0410249 0.10411495
0.0054027657 -0.030429153 -0.09141471 0.12082213 0.07638452 -0.07721512 0.03295167 -0.0172484
-0.050267454 -0.033254333 0.060512487 -0.015291088 -0.011644239 -0.09215228 0.006010814 -0.078860894
0.01934737 -0.049028546 0.03647788 -0.018638559 0.011121397 -0.055815373 0.0027155615 0.060461883
-0.020083033 0.02373351 -0.04145581 0.07939197 -0.05284112 0.058420278 0.017052785 0.049921714
-0.16856499 0.043024335 0.14157084 -0.0030189785 0.040112212 0.02276093 -0.13936287 -0.043196805
-0.013385152 0.025701718 -0.11238392 0.019960761 0.033328604 -0.18206125 0.1079794 -0.034226894
0.052586593 -0.053036913 0.006722833 -0.034748092 0.055437073 0.042495452 -0.026818087 0.0028321182
0.0044728513 0.07908465 0.04976161 0.045980625 -0.118951656 -0.028176324 0.07499722 0.105192006
0.06386273 -0.20334424 -0.015797393 -0.027604904 0.01868815 -0.11485412 -0.09745491 0.0059100734
-0.022363005 -0.11778213 -0.02039975 -0.020872515 0.17592113 0.04038912 0.10281222 -0.07621545
0.006578426 0.06174621 -0.043258395 -0.027060384 0.0619733 0.19841003 0.15787695 0.02621118
-0.022827368 -0.047781922 0.07389884 -0.032783832 -0.03633328 0.087414004 -0.06657295 0.030851865
0.03351024 0.05940367 -0.046315674 0.0474789 0.020902928 0.11114028 0.12889957 0.01713967
-0.08865403 -0.05005119 -0.092222385 -0.04160853 -0.0970842 -0.074423134 0.07556485 -0.017579127
0.0042522694 -0.031308427 0.08597475 -0.029548842 0.01561914 -0.057023358 0.042315427 -0.066718355
-0.0057930844 -0.04297299 -0.037117608 0.086904176 -0.0037303893 0.091887355 0.084883824 -0.04874693
-0.06737425 -0.21424393 0.019166192 0.053484354 -0.16509025 -0.053260945 -0.24799556 -0.04948651
0.011167779 -0.23041713 -0.048771188 0.07037604 0.093034625 0.051355116 0.10990592 -0.05050008
0.068794094 -0.014511847 -0.008840441 0.03097777 -0.035413306 -0.10941258 -0.10239561 -0.17231464
0.019534575 -0.14649244 0.056726754 -0.025945913 0.18448353 0.05015744 0.033459183 -0.21095952
-0.13115136 -0.12349487 -0.25284997 -0.1445844 -0.1238995 -0.00020377531 -0.06028199 0.12378931
0.007446363 0.07415757 -0.031240046 0.016968707 0.06355009 0.025567414 0.090340495 -0.0033934712
0.06520984 -0.017154174 -0.05453638 0.038276363 0.10213362 -0.015857616 -0.14848131 -0.0024614732
-0.20355888 -0.08772632 -0.017443735 0.03551774 0.060945474 -0.014528333 0.06887777 -0.11805819
-0.017019538 0.0028320448 0.015113719 -0.02231201 -0.09089378 -0.024774441 0.05684024 0.07457797
-0.3477981 0.018459504 -0.06342539 0.051534194 0.02716175 -0.010983111 -0.16317566 0.010112868
0.017912198 0.061876614 -0.05251925 0.09177888 0.0056847455 0.060082424 -0.09898865 -0.16605976
0.08889203 0.015743112 0.021585524 -0.0030105112 -0.08315599 -0.01150179 0.030267512 -0.05621062

model.2.bias f4 [256]
00000000: d62c 113d 1856 243d cef2 b1bd cb8a c3bc
00000010: 91ab 68bd f0f6 f13c bb00 653d 6931 4dbd
00000020: 45f6 623d 51a5 28bd 5a89 a83c c8bf 3ebd
00000030: 82c5 063d 7af8 edbc f6bf 623d c6a1 c43c
00000040: 2478 2dbd 29c8 0dbd 6515 bf3c 8d7b 0dbb
00000050: 1d2b a13c a0f0 65bd 1d64 0a3d 387d b23b
00000060: d243 873c fddc 2cbd bf82 323d 8e25 2a3d
00000070: 68e0 d5ba f868 06bd 4d18 2bbc 3775 cdba
00000080: 5e5a 993c 6300 30bd 089d fdbc a487 3a3d
00000090: aa59 78ba 8a04 8a3c e543 1ebd b2ad 343d
000000a0: 3c1a 85bd 7719 c43c 89d9 a93b 68c6 43bb
000000b0: 532e 04bd 4e4f 6f3d b307 c5bc 2fdf ab3c
000000c0: 85d7 cdbc fc05 8b3d b5f2 e43c f9eb 503d
000000d0: 1ab8 19bd 6bc9 203d 3dc7 863d 9060 d6bc
000000e0: 3273 033d a785 48bb 8570 113d e997 24ba
000000f0: 36c2 263d 8e17 eb3a 6515 0fbd cd28 97bb
00000100: dfb4 9f3c e6f7 ae3c e119 14bc b256 0e3d
00000110: 4117 ec39 0667 7a3d 81ae 5d3d eec0 7b3b
00000120: 6073 1ebd 153c 7fbd 4daf ec3c 942c a1bc
00000130: 42a9 9abb 32d2 523d 17ec e33a 692c 2ebd
00000140: df9c 89bd a989 88bd a821 413d 2e92 bd3c
00000150: 355f d1bc 26bd 93bc b27e 67bd 8827 b4bc
00000160: 9623 4b3d 4872 0f3d b4f9 05bc acca 36bd
00000170: 6eea 043c 8f29 15bd 1220 a13c a4f6 803c
00000180: cf24 1a3d f93b 1a3d 5180 6f3c 93a9 683b
00000190: a5b9 03bd 5e7b c23c a7bf 15bd 1eda a4bd
000001a0: 1b0a d63c 7cd8 7cbd dd88 ddbc 1cb3 25bd
000001b0: 8997 3abc 20fb fe3b 0c33 523c 37b2 40bd
000001c0: 97ba 113d b8d3 6738 35b9 6d3d 1188 783c
000001d0: fb77 3cbc b1bf 07bd 6c2e 60bc 2abb 1ebd
000001e0: 5bb8 3a3d d788 59bd f69a 5a3d f66e 373d
000001f0: c1f3 ddb9 80a4 2ab9 6d22 7d3c 522b de3c
00000200: 0dce 5dbc 563b 63bd 79dc 9ebb d2cd e03a
00000210: eba3 233d c97f 5bbd bb9f 78bc a10c c2bc
00000220: c20b 643d b23b d5bc ab65 b3bc 3c39 243d
00000230: 786d 923b 504d 803d 92b5 e2bc 2c97 14bd
00000240: 2863 2e3b 9d79 073b 87a4 1d3d 0470 c0bc
00000250: 3a56 74bd ad1e aebc d3e0 65bc e80d 75bd
00000260: 642a a8bd 38b9 08bc 1eae 11bd 93ae 7f3d
00000270: 4fe4 0d3d 4db6 373d e338 f7bc 5c05 8bbd
00000280: ebde 58bd b9bf c6bc d795 013d e9f4 1a3c
00000290: 513c 10bd 2ff8 45bb 8a24 51bc e6fa 693d
000002a0: 3afd 2b3d 4b95 3dbc c862 34bd 6161 2a3d
000002b0: a7fe 013d 8f29 64bd dd4c 093d 0d18 7bbc
000002c0: 17b7 39bd b9b8 283d d084 193d 85db 8b3b
000002d0: 5126 7ebc e782 bd3c 575e 25bd 4222 6d3d
000002e0: 3bed e8bc 30df c9bc b13b b63c 171e 8dbd
000002f0: dad2 033d 2179 343c 2219 03bd f01e a33c
00000300: c555 fabc 86db e7b9 baa5 abbd 051f 30bd
00000310: d441 7b3c 19a9 733b f479 4e3d 9375 94bc
00000320: efe6 843d 288c 323d d925 3c3d 7d4d e2bc
00000330: 7d90 3f3d 2f55 c03c 5ff8 80bc 2370 99bb
00000340: a7dc 77bd 3bc4 08bd 988c 13bb 5d9e 5abd
00000350: 982c 6abd 8155 10bd 2310 323d 1792 aa3a
00000360: c846 063d ef0f 2ebc aef4 d0bc 284c 25bc
00000370: bd0a 55bd 9bdd b73c ced9 043d 72f6 06bc
00000380: 6eef 0ebd 9854 a6bd 08e7 b73d 4e84 87bd
00000390: 6c60 d43c 3757 0dbd 1385 76bd 50b8 f83c
000003a0: 631d 75bc e72c a5bb 8548 173d 95ee 123d
000003b0: 5a3c 5e3c eea4 95bd 06a3 0fbd 9951 983b
000003c0: 75a4 0a3d 5216 b53c 9be0 77bc ef70 b3bc
000003d0: 89d5 053d 848b 043d 03ef 9cbc 0667 7b3d
000003e0: 3d83 bc3d ec95 4c3d b860 20bc 6df7 0e3d
000003f0: deb8 3b3a 861d 0f3d 02f5 9b3c 51c0 da3b
0.03544315 0.040121168 -0.086888894 -0.023869893 -0.056804243 0.029536694 0.0559089 -0.05009595
0.055410642 -0.041173283 0.020573307 -0.046569616 0.032903202 -0.029049147 0.05535885 0.02400292
-0.042350903 -0.034614716 0.023325631 -0.0021588535 0.019673878 -0.05613768 0.03378688 0.005447056
0.016511831 -0.04220294 0.04358172 0.04153972 -0.0016317489 -0.03281495 -0.0104428055 -0.0015675192
0.018719848 -0.04296912 -0.030958667 0.045539513 -0.000947381 0.016847868 -0.038638968 0.04411096
-0.064991444 0.023937924 0.005183403 -0.0029872898 -0.03227074 0.05842524 -0.024051523 0.020980446
-0.025127182 0.06788251 0.027947763 0.05100629 -0.03752909 0.039254587 0.065809704 -0.026169091
0.03209228 -0.003059724 0.035507698 -0.000627874 0.040712558 0.0017936097 -0.034932513 -0.004613018
0.019495426 0.021358442 -0.009039373 0.034750648 0.00045030753 0.061133407 0.054121498 0.0038414556
-0.03868425 -0.062313158 0.028892184 -0.019674577 -0.004719884 0.05146999 0.0017389086 -0.04252282
-0.06719374 -0.066668816 0.047151238 0.023140993 -0.025558094 -0.018034529 -0.05651731 -0.021991506
0.049594484 0.035021096 -0.00817721 -0.044626877 0.008112533 -0.036416586 0.019668613 0.015742607
0.03763276 0.03765485 0.014617995 0.0035501465 -0.032159466 0.023740467 -0.036559727 -0.08049415
0.026127866 -0.061729893 -0.0270428 -0.040454015 -0.011388668 0.0077814013 0.012829553 -0.04704496
0.035578337 5.527187e-05 0.058037955 0.0151691595 -0.011503215 -0.033141796 -0.013682943 -0.038752712
0.04558597 -0.053109016 0.05337044 0.044783555 -0.00042334016 -0.00016273744 0.015450102 0.027120266
-0.013537896 -0.05547651 -0.0048480597 0.0017151183 0.039951246 -0.053588662 -0.015174801 -0.023687663
0.055675276 -0.026029442 -0.021899065 0.040093645 0.004468616 0.06264746 -0.02767447 -0.03627698
0.0026609395 0.0020671852 0.038486984 -0.023490913 -0.059652545 -0.021254862 -0.014030653 -0.059827715
-0.0821121 -0.008344941 -0.03556644 0.062422346 0.03464156 0.04485159 -0.030178493 -0.067881316
-0.052946966 -0.024261342 0.03163704 0.009457805 -0.035213772 -0.0030207743 -0.012765059 0.05712404
0.041989543 -0.011571239 -0.044039518 0.041596774 0.031736996 -0.055703696 0.03352057 -0.015325558
-0.045340624 0.04119179 0.037480175 0.004268112 -0.015512065 0.023133708 -0.040373173 0.057894
-0.028433433 -0.024642557 0.02224526 -0.06890505 0.032183506 0.0110152075 -0.03200639 0.019912213
-0.030558476 -0.0004422331 -0.08381219 -0.042998333 0.015335519 0.0037179647 0.050409272 -0.01812247
0.064893596 0.043590695 0.04593453 -0.02762484 0.046768654 0.023478119 -0.015743433 -0.004682557
-0.060513165 -0.033390265 -0.002251422 -0.053373683 -0.057171434 -0.035237793 0.04347242 0.0013013509
0.032782346 -0.010623916 -0.025507297 -0.010088958 -0.052012194 0.022444537 0.032434277 -0.008237468
-0.034896307 -0.08121604 0.089796126 -0.06617032 0.025924884 -0.034507003 -0.060185503 0.030361325
-0.01496062 -0.005040753 0.036934394 0.03587206 0.013564194 -0.073068485 -0.03506758 0.004648399
0.033848245 0.02210537 -0.015129234 -0.021904437 0.032674346 0.032359615 -0.019156938 0.061377548
0.09204719 0.049947664 -0.009788685 0.034903932 0.0007161031 0.034940265 0.019037727 0.006675758

model.4.weight f4 [256, 256]
00000000: 4629 043e d685 373d 1064 cc3c e341 cd3b
00000010: 581a c53c 52e5 05bc 7161 d83c 7477 2dbd
00000020: 38fb d7bd 346b 013d 771f 8b3d 4c83 96bd
00000030: f772 10be f2f0 5dbb da17 3838 46e7 81bc
00000040: 451b 5abd 72ea 3ebe f2d8 c1bc 1086 81bc
00000050: f85f 7a3c 03b0 8bbd 7f43 583d d6ac dabd
00000060: 9e76 a5bd da7f e33c ac41 503d 4f08 1abb
00000070: a766 db3c 8fb9 c53d e709 e1bd fe40 353c
00000080: c326 53bc a07e 99bd c92c a03d c924 a13d
00000090: 5396 a83d f3b1 d3bd e589 183d dac5 b83c
000000a0: bf20 3abd e0c3 d4bc 47fb b1bc b838 92bc
000000b0: bf3a e53c 9a02 85bd a4cc 873d 9b27 093b
000000c0: 64e6 21bd 14a7 aabc 1719 62be e4f4 0abe
000000d0: 2d91 89bd 4214 3dbd 91ad 76bc 196b 5dbe
000000e0: 4a75 09bc 61f5 13bd fdab ae3d fad8 5abc
000000f0: 55f6 003c ae1b 5abd e636 f43c 7bbb a7be
00000100: 746f 02bd 8597 d13d 1c41 96bd 0502 723b
00000110: 9102 703d 4dfc ecbc 3dbc b93c b683 1dbe
00000120: 0405 9f3c b7b5 5f3c cfc6 42bd e101 ddbd
00000130: 64d5 adbc 9b6d 933c ed6c bbbd efd5 b4bd
00000140: 7447 2fbe 3807 f33d 4303 b73d e4cb 243d
00000150: 874a 45be 549d 8cbe edd5 523d 8e39 cebc
00000160: 22ee 58be 3828 29be 2824 a83c a5ba a13c
00000170: f491 96bd 5a64 bb3c 11df 4ebd 2184 62bd
00000180: 772a b3b9 0e92 9a3c 0842 38bd 3143 98bd
00000190: 03fe 053d 324b b2bd 92f9 2c3d de6b fb3c
000001a0: 5dcc a3bd 4331 be3d 5156 57bb 403c c0ba
000001b0: 7ec6 85be a4e9 74bd 7850 b7bb 02a3 8dbd
000001c0: dd31 42be f28a a53e 8200 edbd ca3b 9f3c
000001d0: 8272 713d 5e86 013d 6c43 113e bdbe 8cbc
000001e0: b068 9e3d 058c f7bd 8fe6 e1bc 0b5c 7dbc
000001f0: ab4b 4a3c 88d8 bdbe 2db3 e93c 19ec af3c
00000200: eb96 c43c da4b 903d 3347 f139 1047 513d
00000210: ed32 453d cd96 823e d9f1 443d 485a 45bb
00000220: 8332 903d 8dc7 d13d 2b99 78be d3aa dfbd
00000230: 7600 ab3d c614 90bd bc0b d23d 23d0 533c
00000240: 4230 293b 541f b9bc eb25 1b3d 9745 1abe
00000250: d884 e6bd c1bb d2b8 5d93 893d de62 fe3c
00000260: 344e 0c3d e22a 42bb 474c 083d 7087 8fbd
00000270: a3f9 1fba 2487 1b3d 234f 62be 98a5 3d3e
00000280: 5456 b23d b377 b4bc 6d59 6abd 95c9 ccbd
00000290: ceca 9a3d a123 0c3d 1adc 57be a3f0 ce3d
000002a0: 3557 0e3e 696d 993c f61f 3d3e 8337 353c
000002b0: 6c45 ebbc b4c5 00be da8d 48bd e170 09be
000002c0: 6728 1b3c 2499 c0bb d4dc 2b3d 36a2 4e3d
000002d0: 4173 40bc 87e4 4ebc 9308 09bd 0bd8 113d
000002e0: ac19 efbd 1bce 9c3d 7d72 25bd fe5c 34bd
000002f0: af55 51bd db64 66bd be1c 1f3c 3be6 d2bd
00000300: b4bc 3dbe 6a2a 653d cc7a 2bbd 6145 003e
00000310: 8ee9 863d d892 20be affd ac3d afe1 90bd
00000320: 39ad 34bd a116 ae3d 094c 2fbd 5c67 2ebd
00000330: 44dc 28bc 2e38 a0bd 02ea 973a c48c 243c
00000340: 999e 37bd 4fe3 16be 0a6f 52bd 904b 59be
00000350: 0051 61bc b744 833d 3358 2dbd b166 42bd
00000360: a7cf 80bd c581 cdbc 2b1f 2fbd f8a3 cdba
00000370: 9a4b 64bc 55be f5bd 1e75 893d 87bf 9a3d
00000380: b5fa 88be 095b 1bbe 2658 b03d 527e 523d
00000390: 2cd2 28bd 07fc e5bd 1248 ce3c 5aec 63be
000003a0: 35cb b9bd f2c9 1b3c 9f64 c63c 3624 58bd
000003b0: aa5f debd 2c9c 163e 6e23 bcbd 3a0a b5bc
000003c0: edce 283d 833f 7dbd c8c3 4a3e 50c8 e0bc
000003d0: bad4 cc3c ae9e 45bc 8568 fabd 045d 42bd
000003e0: 127a e43c 8e73 ed3d ed4f 7a3d 806e 2d3a
000003f0: a54d c6bd c7d9 713c 4e5d ecbc fccc 333d
0.1290637 0.04480537 0.024950057 0.006263958 0.024060413 -0.00817235 0.026413651 -0.042350248
-0.10545963 0.031596377 0.06793111 -0.07349262 -0.14106356 -0.0033865538 4.3891232e-05 -0.01585735
-0.053248663 -0.18644121 -0.023663018 -0.015810996 0.01528167 -0.06820681 0.052798744 -0.10677497
-0.08079265 0.027770925 0.05084388 -0.0023503487 0.026782347 0.09654533 -0.10988217 0.011062859
-0.0128876595 -0.07494855 0.07821042 0.07868344 0.08231797 -0.103366755 0.03724088 0.02255528
-0.045441385 -0.025972307 -0.021726264 -0.017849311 0.027982114 -0.06494637 0.06630829 0.0020928148
-0.03952636 -0.020831622 -0.22079884 -0.13569981 -0.06717143 -0.046161897 -0.01505603 -0.21622886
-0.00838978 -0.036122683 0.08528898 -0.013357395 0.00787123 -0.053249054 0.029811334 -0.32760224
-0.03184457 0.10233978 -0.073366374 0.0036927473 0.058596198 -0.0289289 0.022672767 -0.15382275
0.019411571 0.013654164 -0.04755288 -0.10791374 -0.021219917 0.0179966 -0.09151635 -0.08829867
-0.17117101 0.11866611 0.08936169 0.040233508 -0.19266711 -0.27463782 0.051473547 -0.025173929
-0.2118459 -0.16519248 0.020525053 0.01974232 -0.07352057 0.022875 -0.0505057 -0.05530179
-0.0003417318 0.018868472 -0.044984847 -0.07434691 0.032712948 -0.087057486 0.042230196 0.030691084
-0.079979636 0.0928674 -0.0032857845 -0.0014666393 -0.26128 -0.05979313 -0.0055943094 -0.06915857
-0.18964334 0.3233257 -0.115723625 0.01943769 0.058947094 0.031622283 0.14185876 -0.017180795
0.07734811 -0.120872535 -0.02757576 -0.015463839 0.012347142 -0.37079263 0.02852782 0.021474885
0.023997745 0.070457175 0.0004602015 0.05109316 0.04814427 0.25505677 0.048082206 -0.0030113626
0.07040884 0.102431394 -0.24277179 -0.10921254 0.08349697 -0.07035212 0.102561444 0.012928042
0.0025816117 -0.022597946 0.03787796 -0.15065609 -0.11255807 -0.00010048552 0.067175604 0.031053003
0.034254268 -0.002962761 0.03327587 -0.070082545 -0.00061025674 0.037970677 -0.22100501 0.185202
0.08707872 -0.022029733 -0.05721419 -0.09999386 0.07558213 0.034213666 -0.21080056 0.101044916
0.13900454 0.018728929 0.18469223 0.011060598 -0.028719626 -0.12575418 -0.048963405 -0.13421966
0.009470082 -0.005877631 0.041958645 0.050447665 -0.011746229 -0.012627727 -0.033455443 0.035606425
-0.116748184 0.07656499 -0.040392388 -0.044033997 -0.051107105 -0.056248527 0.0097114425 -0.10297819
-0.18529016 0.055948652 -0.041865155 0.12526466 0.06587516 -0.15681016 0.08446824 -0.07074296
-0.04411051 0.0850041 -0.042797122 -0.04257904 -0.010306422 -0.078232154 0.0011590126 0.010043327
-0.044828985 -0.14735149 -0.051375426 -0.21220231 -0.013752222 0.06409591 -0.04232044 -0.047461215
-0.062896065 -0.025086293 -0.042754333 -0.0015689125 -0.01393404 -0.119991936 0.067117915 0.07556062
-0.26753774 -0.15171446 0.08610563 0.05139 -0.04121606 -0.11229711 0.02518085 -0.2225813
-0.09071962 0.009508597 0.024217902 -0.05276891 -0.1085809 0.14708012 -0.09186445 -0.022099603
0.041212965 -0.061828148 0.19801247 -0.027439266 0.02500378 -0.012061758 -0.12226967 -0.047451988
0.027890239 0.11594306 0.06111138 0.0006615892 -0.09682778 0.014761395 -0.028853085 0.04389666

model.4.bias f4 [256]
00000000: 5175 863d 7fdb 64bd a19d f03c 308d 673b
00000010: 205e 563a 81b5 243d 4d5f 4fbd 32a4 873d
00000020: 7d4c 6b3d 8063 843d 3988 81bc d582 3e3d
00000030: 374d 0ebc b96c 05bd 0722 903c 1b76 613d
00000040: eb07 8abd 44ca 4f3d cc8e 293d 7571 e3bb
00000050: a7da b7bc a55c 693d 2179 ccbc dbff 223d
00000060: bb8f fe3c 7099 5a3c a4e3 a23d befa 453d
00000070: 60ea 843c e422 a73d a394 c93c 3120 fcbc
00000080: c533 173d e52e 013d 4142 d4b8 cc2f 93bc
00000090: 33b4 9e3d 49a2 5fbd 7375 d7bc 9e45 4e3d
000000a0: bba0 9bbc 07a1 7b3d 2128 153d 8971 0e3b
000000b0: 9c2e 31bb 58bf f3bb 7d26 c7bc 57a4 32bd
000000c0: 013d f8bc 9b8e 4a3d a90b e13c 0cda f83b
000000d0: 2362 aebc a793 edbd 52da 1cbd bdb8 113d
000000e0: d4be 493d 8062 673d f4a1 6abc 436e a23b
000000f0: a70e 0a3d 99c9 063c ceba 183d 8dd3 c83c
00000100: f8fd 8c3d 18d7 06bd a106 823d fade 0dbd
00000110: 3ac6 0ebb 5b88 973d 07ec fabb 538a cebc
00000120: c084 39bd 3a55 c8bc 3320 9c3d e8c4 9d3d
00000130: d75b cdbc 6734 b4bc f31a 0d3d 856d ab3d
00000140: 1301 9c3d ebc1 c73c 6990 603d e9ee 513d
00000150: 218e 8fbc 8d2f 8d3d ffa4 3f3d 9006 a43c
00000160: d81e 5b3d e695 453d 4b10 70bd 5cf0 9dbd
00000170: 7425 723d d73e 4f3d c03e c5bd cae7 27bd
00000180: 005e fb3c e1be 443d c5e9 ad3c f5ce 7c3d
00000190: c4ac 783d c3b6 19bd 225d b73c d6fb 54bd
000001a0: 9975 0abd cd8c 943d 28f6 613d 998c 2e3d
000001b0: b1ec 8b3d 17e8 273d f9f8 10bc 76c5 823c
000001c0: 511a d03c 60d5 823c bebe 183c de84 c23b
000001d0: b1ed bebc 8a0d 713d 53c2 82bd e9a3 443d
000001e0: 351b 9cbd 454c 81bc 59eb 00bd c902 703d
000001f0: e3a5 103c a652 013d 8f60 19bd 6383 0ebd
00000200: 8adc 8ebd 9dc3 413c 2e34 7fbd ddb3 733d
00000210: eef3 353d 05d9 423a 6324 c8bd bd85 7ebd
00000220: 55bc 83bc e6e8 073c 9919 423d cdc3 7ebd
00000230: 3451 a4bd 3a79 b3bc d646 5e3d 6556 153d
00000240: 1794 20bd a5e3 873c 7e73 5c3c 1668 f0bc
00000250: b631 0c3c 0633 5cbd 980a 21bd 8910 fa3c
00000260: 394d a7bd 893c ce3c 59f8 2dbd f4da 4bbd
00000270: 56a3 d1bc c057 5dbc 23f4 5a3b 48a3 1e3b
00000280: 80f2 cf3c c189 e43c fc41 903d 809e 1ebd
00000290: 5cee ae3c 76d6 22bd fd95 13bc 0cc3 643c
000002a0: c453 573d d142 753d 47d1 663d 7a84 6d3d
000002b0: f12b c43b 6f7b 0f3d 0c7b 83bd 1325 85bd
000002c0: fc56 61bd 7d82 d13d 9164 dbbc 500b c03d
000002d0: a129 12bd a7c3 393d affe 9ebd f084 7e3d
000002e0: 07e2 1ebd bd78 1fbd edbb 633c 22c7 59bd
000002f0: 8038 933d f553 27bd 3844 debc 06df 6e3d
00000300: 3029 c43c aaf3 383c 7665 3a3d 2e5d 413c
00000310: b05a 313d 1d63 823d 8229 5cbd d2d9 f83c
00000320: 4511 93bd 9f24 0b3d 6a45 7abb f269 313d
00000330: 8c7b 26bc 12af 6fbd d60e 5dbd eb50 3bbd
00000340: 55b4 b93d 359a 9dbc 6448 b0bc e605 56bd
00000350: fb4b 163c bd91 173d 7437 2ebd ef1f 1bbd
00000360: d169 e7bc 0cef f13c 2566 7cbb 1a8d 8cbc
00000370: 37cd 863d 10f9 ef3c 525c 54bd 5d16 0b3d
00000380: 2aa1 893d cdc0 aebd df93 673a b4bc 733d
00000390: c3f1 98bc 6eb2 99bd 4cde 913d 7e0e 6d3d
000003a0: cd14 5d3d a997 8e3d 73df 91bc c1b4 48bc
000003b0: 137c 32bd 94f5 0c3e f84c a0bc dae9 173d
000003c0: 596b 923c 9e75 90bd 1ec9 933a c3c9 f03c
000003d0: 6c65 983d dde6 973c 5e91 27bd e6b9 8ebc
000003e0: 8114 b7bc cea1 95bc e1f2 d33c f261 8ebd
000003f0: 049d b0bc 845b 9ebc 7e0d 9c3b fef0 b03b
0.06565345 -0.05587339 0.029372038 0.0035331957 0.0008177478 0.040212158 -0.050627995 0.06623115
0.05744599 0.064642906 -0.015812026 0.04651149 -0.008685402 -0.03257439 0.01759435 0.055044275
-0.067397915 0.050730005 0.041395947 -0.0069410154 -0.022443129 0.05697312 -0.024960103 0.039794784
0.031074395 0.013342246 0.07953575 0.04833483 0.01622504 0.08160952 0.024607008 -0.030777069
0.036914606 0.031538863 -0.000101212885 -0.017967127 0.07749214 -0.054598127 -0.026301121 0.05035936
-0.01899754 0.061432865 0.036415223 0.0021735153 -0.0027035838 -0.0074385814 -0.024310345 -0.043613758
-0.030302526 0.049452405 0.02747138 0.0075943526 -0.02128703 -0.11600428 -0.038294144 0.03557657
0.049254254 0.05649042 -0.014320839 0.004956992 0.03370538 0.008226776 0.037287526 0.024514938
0.06884378 -0.032919973 0.063489206 -0.034636475 -0.0021785633 0.073990546 -0.007657531 -0.025212443
-0.045292616 -0.024454702 0.07623329 0.077035725 -0.025068207 -0.021997644 0.03444953 0.083704986
0.076173924 0.02438446 0.05482522 0.051253233 -0.017523827 0.06893835 0.046788212 0.02002266
0.05349621 0.048238657 -0.05860929 -0.077118605 0.05911775 0.050597038 -0.09631109 -0.040992536
0.030684471 0.0480336 0.021229634 0.061720807 0.060711637 -0.03752781 0.022383276 -0.051997982
-0.033803556 0.07253418 0.055166394 0.042614553 0.06832255 0.040992822 -0.008848422 0.015963297
0.025403174 0.015970886 0.00932282 0.005936249 -0.0233067 0.058850802 -0.06384721 0.04800788
-0.07622377 -0.015783438 -0.031474445 0.058596406 0.008828613 0.03157296 -0.0374456 -0.03479327
-0.06975658 0.011826423 -0.06230562 0.059497703 0.044422083 0.0007432851 -0.09772565 -0.06213926
-0.016081015 0.008295273 0.047387693 -0.06219845 -0.08023301 -0.021908391 0.054266773 0.036459345
-0.03920373 0.016588042 0.01345527 -0.029346507 0.008556774 -0.053759597 -0.039316744 0.030525463
-0.08169026 0.02517535 -0.04247317 -0.049769357 -0.02559058 -0.013509691 0.0033409677 0.002420621
0.025384188 0.027897717 0.070438355 -0.038725376 0.021353893 -0.039755307 -0.009007928 0.013962518
0.05257012 0.059878174 0.056351926 0.057987668 0.0059866835 0.035029825 -0.06419954 -0.06501212
-0.055014595 0.10229967 -0.026781352 0.09377158 -0.03568423 0.045352604 -0.07763421 0.062138498
-0.038789775 -0.038933504 0.0138997855 -0.053168423 0.07188511 -0.040851552 -0.027132139 0.05831816
0.023945421 0.011288563 0.045506917 0.011802001 0.043299377 0.063665606 -0.053750522 0.030377302
-0.07181028 0.03397047 -0.0038188347 0.043313928 -0.010161292 -0.05851657 -0.053969227 -0.045731466
0.09067599 -0.01923857 -0.021518894 -0.05225172 0.009173389 0.03700422 -0.042533353 -0.03787225
-0.0282487 0.029532932 -0.0038513031 -0.017157126 0.065821104 0.029293567 -0.051845856 0.033956874
0.06720193 -0.085328676 0.0008833985 0.059506133 -0.018669968 -0.07504736 0.07122478 0.05787515
0.053974915 0.06962521 -0.017806744 -0.012250126 -0.043575358 0.13765556 -0.019567952 0.037088253
0.017873453 -0.07053684 0.0011275148 0.029393082 0.0744122 0.018542701 -0.040910117 -0.017422628
-0.022348644 -0.018265631 0.02587265 -0.06952275 -0.021559246 -0.019330747 0.0047623506 0.0053998223

model.6.weight f4 [16, 256]
00000000: 030c 4dbe 7009 cf3c 98f3 1cbe 304c 80be
00000010: b95d b1bc 2dda 93bd 57b2 aa3d 1126 e93e
00000020: db33 233c f90f 8ebd 0db2 14bc 776b 21bd
00000030: b7d1 8abd 9ea5 423d 5bf6 ffbe 5fad fa3d
00000040: f92d d3bc 0c25 6abe 1aff 93be dd63 67bd
00000050: f17d b33d 9c49 e3bd 5ba6 dbbe 4566 443e
00000060: 68a8 3a3d 4728 23bd 43ec 053e 71c7 5fbd
00000070: bfb7 51bc 59f5 27bd 60e4 03be 4b11 a1bd
00000080: 6097 1d3e d745 5d3d f6a0 fa3d 331c 713e
00000090: 662a 2f3d 6ad3 093e 6839 44be f3aa 5ebe
000000a0: 23e2 ac3d 6e3e 76bd 8964 6bbe d576 b13d
000000b0: d165 233c 26ad a23d b990 cfbd 8af0 353d
000000c0: de65 a7bd 2f64 123d 6a5e 753c 7624 5e3d
000000d0: 8fa1 d4bd a00c 433e 4a9b b93d 81ff 0f3e
000000e0: 0ebe c2be a2bb 95bc 3fa3 46bd acbf 623f
000000f0: 8a35 d8bc eb28 f03c e190 4dbe 16a0 d1bd
00000100: 8265 4c3e 50e2 a0be 8010 593e cd06 ab3d
00000110: 475d a0be 7f53 9d3d 1c8c a6bb 8d85 fa3e
00000120: b34e f0bd 52e5 ebbd ec5c 733e f2d3 ac3c
00000130: 349c 04bc 73dd d13d f065 6c3d 35f7 503f
00000140: cc1c 023f d025 883d 6788 c33d 3a3a 1dbd
00000150: 4dd9 413e 7255 6ebe 287e 69be 37ff 02be
00000160: a237 c73d ab9b a3bd 7bd2 103d 4f4f 19bd
00000170: 562c fcbc e76e 2fbe 122c 4e3c 1367 b5be
00000180: 458a 28bd 0a14 fcbb 8267 473d 1cf2 f23c
00000190: c7f8 293d dfbb 3e3c 9f6a d2bd 5993 1cbd
000001a0: 7b88 eebe 78e6 a3bb b719 163e 0cae a03d
000001b0: 0f3f 643d 6a58 62bd b664 c63c 4ff9 90bd
000001c0: 6d56 1c3d 8585 673d d5f1 92bd a18b c13d
000001d0: fdea 12be 29a1 b23d 4312 2fbd 5f7a 70be
000001e0: 17af 2c3e 480c 4dbf afd3 fbbe 6ecc dbbd
000001f0: a37f 52be b8c7 cabd 7c0e cd3d 2b26 f8bc
00000200: ca40 65bb 47ec ca3e 1465 16bd 0430 afbd
00000210: f47d 3a3d ff6b cdbd 036d f33c 7e48 c23c
00000220: 8430 7d3d 2c28 fb3d cc6d f43d feaa 81bd
00000230: 7d70 4d3d 3a08 95bd 0bec 013f 8c59 4e3f
00000240: 816b 8cbc 5345 86bd 990d 0fbf 53d7 debd
00000250: 2d7f b9bd d886 19be 2bd4 99be c520 81be
00000260: d3a9 a7bc 54fb 35be ab0b 80bd 0816 37be
00000270: a5ac 093d 0cc5 8ebd 89c2 1ebe be32 bebe
00000280: 378b 30be 75b1 ed3c da9e b6bc ca75 1e3d
00000290: abfa 08bc e9a8 1ebc a8a2 093d b3e8 b33d
000002a0: efdd 13be 68bb c03c 0ca2 263d 677c 0cbd
000002b0: 6329 b73d 77db adbd 9cc3 e0bd f0b5 473d
000002c0: 5f8a bebb 0a01 f3bc de01 70bd 51c6 14be
000002d0: ca76 7abe 5ad3 90be 7862 b9bd 0101 14be
000002e0: 88d0 11bf 7f80 d1bd 491f 38bc f2e8 37bc
000002f0: ec65 103e 47b8 46bd 6b5d acbc 043b 74be
00000300: 7bd2 243f 0719 19be 9366 d0ba b4d8 0b3d
00000310: f736 0cbd 62e1 56bd dbbd 2a3c fb41 55be
00000320: 2541 2e3c 15d0 10be 74e0 88be 8611 0bbe
00000330: 6fff 88be 4a43 67bd 41d6 e5be 8517 e7be
00000340: 7383 4fbd 7a4e 8d3c b6c9 79bd 42bf c63c
00000350: f1ff 95bc 8dd8 4dba 2aa8 a03d 83ff be3d
00000360: 703d abbe 2e40 07be 4d9d a13c d17a 25bd
00000370: 9ad8 80be dab1 1a3b 875e f9bc fab9 c93d
00000380: 73b2 003d af14 27bd 2a61 913e 7a5f 0d3d
00000390: 6e91 703d 5667 44bd fad2 40be 08cc 693e
000003a0: 1d04 ce3d 4291 49bc a92a 6cbd 1238 5ebd
000003b0: abea fdbd b928 e3bc f93d 0ebc 5430 c3bc
000003c0: cd27 20be 3cad 51bc e4ed 9d3c 8d8a 29bd
000003d0: 82b7 0a3f d934 cc3c c69f df3c 527f 38be
000003e0: 7615 59bd b4a4 d63b fe01 043d c503 a33d
000003f0: 9573 8f3c 4f0d d03d 9d15 cdbc 5b3f 74be
-0.20024113 0.025273055 -0.15327299 -0.25058126 -0.021651136 -0.07219348 0.08334797 0.45536855
0.009961094 -0.0693664 -0.009075654 -0.039409127 -0.06778281 0.047521226 -0.49992642 0.12240099
-0.025778757 -0.22865695 -0.28905565 -0.05649172 0.08764256 -0.11098024 -0.42900357 0.19179638
0.04557076 -0.039833333 0.13078408 -0.05463356 -0.012800156 -0.041005466 -0.12880087 -0.078646265
0.15389776 0.054021683 0.12237732 0.23545913 0.042765044 0.13459554 -0.19162524 -0.217449
0.0844157 -0.06011813 -0.2298757 0.086652435 0.009973005 0.07943182 -0.101350255 0.04441885
-0.081737265 0.035740074 0.014976123 0.05423399 -0.10382377 0.19047785 0.09062822 0.14062311
-0.38035625 -0.018277947 -0.048495527 0.8857372 -0.026392717 0.029316386 -0.20074798 -0.10235612
0.19960597 -0.31422663 0.211977 0.083509065 -0.31321165 0.07681941 -0.0050826203 0.48930016
-0.11733761 -0.11518349 0.23765916 0.021097157 -0.008093882 0.10247316 0.057714403 0.8162721
0.5082519 0.06647837 0.09547501 -0.038385607 0.1893055 -0.23274782 -0.22802031 -0.12792669
0.09727408 -0.07988676 0.03535698 -0.03742915 -0.03078286 -0.1713215 0.012583749 -0.35430202
-0.04114749 -0.0076928185 0.048682697 0.029656462 0.04149702 0.011641472 -0.102742426 -0.03822646
-0.465885 -0.0050018393 0.14658247 0.07845697 0.0557242 -0.0552601 0.024217945 -0.07078802
0.03816836 0.05652382 -0.07175032 0.0945046 -0.14347453 0.08722145 -0.042742025 -0.23484181
0.16863666 -0.80096865 -0.4918494 -0.10732351 -0.20556502 -0.099013746 0.10012528 -0.030291637
-0.0034981244 0.3963339 -0.03671749 -0.0855408 0.045530275 -0.10030364 0.029715067 0.023716208
0.061813846 0.122635216 0.119350046 -0.06331442 0.050156105 -0.0727696 0.507508 0.8060539
-0.017141106 -0.06556191 -0.55880123 -0.108809136 -0.0905746 -0.14992845 -0.30044684 -0.25220314
-0.02046672 -0.17771655 -0.062522255 -0.17879498 0.033611912 -0.069711775 -0.15503897 -0.37148088
-0.17240606 0.029015282 -0.022292543 0.03868655 -0.008360545 -0.009683826 0.033602387 0.08784618
-0.1444013 0.023526862 0.040681884 -0.034298327 0.08943441 -0.08489125 -0.109748095 0.048757493
-0.005814835 -0.029663581 -0.05859553 -0.14528777 -0.24459377 -0.28286248 -0.090519845 -0.14453508
-0.5695882 -0.10229587 -0.011237928 -0.011224972 0.1410138 -0.048515584 -0.021040639 -0.23850638
0.6438367 -0.14950953 -0.001589971 0.03414221 -0.034232106 -0.052461036 0.010421242 -0.20825951
0.010635649 -0.14141877 -0.26733744 -0.13580903 -0.2675738 -0.056460656 -0.44890025 -0.4513513
-0.05066247 0.017249335 -0.060983382 0.02426112 -0.018310519 -0.0007852398 0.07844575 0.09326079
-0.3344531 -0.13208076 0.019728327 -0.04040033 -0.25165254 0.0023604543 -0.030440582 0.09849925
0.031420182 -0.04079121 0.28394443 0.03451488 0.058732443 -0.04795011 -0.18830481 0.22831738
0.10059378 -0.012302699 -0.05765787 -0.05425269 -0.12398275 -0.027729379 -0.008681768 -0.023826756
-0.15640183 -0.01279765 0.019278474 -0.041391898 0.5418626 0.024927543 0.027297866 -0.18017319
-0.052998982 0.006550396 0.032228462 0.07959703 0.017511168 0.101587884 -0.02503472 -0.23852293

model.6.bias f4 [16]
00000000: aee6 1d3d 7477 1cbd b1c9 82bd 367c 273d
00000010: 18ae b8ba 3d6b 51bd 58ed f23d 46de 2dbc
00000020: 9879 4d3c 6c02 99bd 4564 e93b a2a1 34bd
00000030: 6701 adbd 7a3f a63c 063f ecbc 9b1e 6cbc
0.03855007 -0.038199857 -0.06386126 0.04088994 -0.001408997 -0.05112766 0.11861676 -0.010612076
0.012541197 -0.07471165 0.0071225488 -0.044099458 -0.08447533 0.02029394 -0.028838646 -0.014411594
