data/checkpoints/rlgym-ppo-run-1760842305955113400/837474442/PPO_POLICY.pt (torch, 638775 bytes, 8 tensors)

model.0.weight f4 [256, 89]
00000000: 4131 e8be fd87 4a3e 58eb a8be 4c8d 29bb
00000010: 93dd 753c 577b e5bd 2733 a43c 8d8b 5d3c
00000020: 9842 a5bc 43eb 873d 6dc6 a6bc a8f3 9bbc
00000030: e616 06bd 52a0 7bbc 2707 4abd edd5 bb3c
00000040: 802e 4bbc b01d 353d 283e 28bd be2d b93c
00000050: 5a9f 883d d63d 0d3c 0f7b 473c dc06 b53d
00000060: e478 89bd 8e61 a13c 7daa 7bbd 4f42 a03d
00000070: 24f9 ac3d f86f d8bd a4dc b23d a0a6 e63c
00000080: 9f92 ff3c c671 e63c 4e3c 933d a222 06bd
00000090: de2f dabd 9728 f73b 796c adbd be51 0cbb
000000a0: c6c7 81bc bc38 88bd 2c39 93bc c906 a43d
000000b0: 534d 96bc c9fb a1bb cd2f c1bc 6eae 013a
000000c0: 8813 ae3d 8a8e 353d 7213 c3ba 0163 843e
000000d0: c50a 62bd 0d76 4a3f eb88 04be 380e 01be
000000e0: 6c8d b8be e46a 88be f6a0 933e 2335 76bd
000000f0: ba03 85be f3d8 ac3d 5bde da3e 7f52 3bbf
00000100: fd92 32be 76de fcbd 5632 73be a7ea 20bd
00000110: ed20 433c aedd 0b3e 9fc3 363e f3d2 9d3d
00000120: 505d eebd 751a b0bb b013 063d 63cd 4f3b
00000130: 485d 74ba 5a93 243d 645c 50bb 31cb 62bd
00000140: d209 bc3b 77ca 9fbe 5038 a23c 9b5c 003d
00000150: 11e3 12bd b279 f7ba ada4 d8bc aa92 753d
00000160: 93ab 133e 3fae 85bd 27c2 74be e769 883d
00000170: 9df1 37be ffe4 c6be 19e3 8dbd 0b68 7dbd
00000180: 538e 823e 1a7a 3e3e 0dc6 be3d f3fe 12bd
00000190: e3d9 b23b cb08 16bd 237c 453c 263b 12bd
000001a0: d85c d8bc ee32 4c39 c020 0cbd 583a a63d
000001b0: 23c7 2b3d 7bc4 bfbc 09bf 753d ac7d 91bd
000001c0: 3300 1a3d 8748 81bd 93ef ebbc f5e6 55bb
000001d0: 06b1 2abd 46d1 7ebc 49cf a43c 04e2 403d
000001e0: d5da 38bd 11cf 063d 9891 c63d fea6 85bd
000001f0: 3bf3 ae3d 615f 93bd 488c 203d a5c7 153d
00000200: 97d1 89bc 5455 f13d 910f 6dbd 8d26 373c
00000210: c5c5 bbbd 0ec3 c1bd 27dc f4bc 333f cabd
00000220: 563e ed3c fe6c e5bb 3b4e 3339 0c23 b2bd
00000230: 059b a3be 8f72 09bd de43 4b3e 0cc3 613e
00000240: 70ba f93d d5ed 6f3e dd42 02be ee23 673d
00000250: 71aa b73c b941 743e b89b 1cbe 2f08 873e
00000260: 3a50 5d3e 8709 653d 4f8b 423e 2f30 0b3f
00000270: a3d5 b13c 27b2 ea3d 6e43 89bc d6a7 803e
00000280: 3c96 5d3e 0aa2 333e b219 d6bd e578 383d
00000290: 7840 a93d 8920 23bd a1c9 57bb 8f05 2d3d
000002a0: 5c99 5e3e 1aaf b23d cd82 c23d 63a8 d2bb
000002b0: 0c47 9fbb c041 b6bc a49c 29bd a7c1 99bd
000002c0: fb98 f1bc 52f3 55bd 478a 61bd 3455 a53e
000002d0: 9692 c2bb 8dfd 4f3e 55bf 953d ccb5 d13d
000002e0: f5f5 b43c 256b f93d 2459 fdbd 0f1b 433d
000002f0: 815c c13d 7eb4 3a3c d027 46bd cfcf 1abc
00000300: 0f42 20be bab7 393d 5380 fcbb 162d 62bd
00000310: bdd2 233d 333f 6fbd dbc5 cc3d af21 183d
00000320: 9eb8 bcbc 7c82 963c af28 003d e021 d4bc
00000330: 713b 95bd bd9b 1b3c 4d36 e53c 7089 0d3c
00000340: 3155 0fbd d495 943d c3a1 97bc e666 78bc
00000350: 2c15 133d 2969 5fbd c0ce 213d 0bcb ffbc
00000360: 3202 863d f5d9 34bd 6613 a93c 6119 9a3c
00000370: 5c1e 96bd 08c7 6bbd a8f7 5c3d 493d 8abc
00000380: 7eb3 963d 8240 bebd cf0d 24bd 754f 95bd
00000390: e274 1a3d ba2f 0abe 366d 08be a789 90be
000003a0: 0692 38be a12d 2fbd 0ec3 893e 2655 443e
000003b0: eeb9 d2be 51f2 303d 04db 133d 4be7 093e
000003c0: c030 17bf e853 d6bd 1691 06bf 8125 c43c
000003d0: b89c 513e 5cc3 323e 5597 82bd 534e b73d
000003e0: d3fd 153d 7ab7 93bc 273d 0e3d b274 61bd
000003f0: 2623 3c3d a909 b7bb 7634 50bd 002d 153c
-0.45350078 0.19778438 -0.32992053 -0.0025871573 0.015006441 -0.11205166 0.020043923 0.013522041
-0.020173356 0.066366695 -0.020358289 -0.019037083 -0.03273668 -0.015358048 -0.049323227 0.022929156
-0.012401223 0.044217765 -0.0410749 0.02260482 0.06671019 0.0086207 0.012175336 0.08839199
-0.06712511 0.019699838 -0.061441887 0.07825147 0.08445957 -0.10568231 0.0873349 0.028155625
0.031197844 0.028130423 0.071892366 -0.032747872 -0.10653661 0.0075426805 -0.08467955 -0.0021411027
-0.01584233 -0.06651446 -0.017971598 0.08009107 -0.018347418 -0.004943345 -0.023582364 0.00049469515
0.08499819 0.04432539 -0.0014883114 0.25856784 -0.055186052 0.7908638 -0.12942855 -0.1260308
-0.36045396 -0.2664405 0.2883374 -0.06010927 -0.25979406 0.08439817 0.4274777 -0.73172754
-0.17438884 -0.123471186 -0.2374967 -0.039286282 0.011909706 0.13658783 0.17848061 0.07706251
-0.11638892 -0.0053742477 0.03273362 0.0031708113 -0.00093217613 0.040179588 -0.003179335 -0.05536956
0.0057384754 -0.31209156 0.019802243 0.031338315 -0.03586108 -0.0018880873 -0.026445711 0.059954323
0.14420919 -0.065273754 -0.23902188 0.06660824 -0.17963262 -0.38846585 -0.06928081 -0.0618668
0.2549921 0.18601266 0.09315119 -0.03588767 0.005458103 -0.03662948 0.012053522 -0.03570094
-0.026411459 0.00019473929 -0.03421092 0.08116597 0.04193796 -0.023409119 0.05999664 -0.07104048
0.037597846 -0.063126616 -0.028800761 -0.0032638882 -0.04167273 -0.015552824 0.020118373 0.047090545
-0.04513057 0.032912318 0.096957386 -0.06525992 0.08542486 -0.071959265 0.039196283 0.03656735
-0.016823573 0.11783853 -0.057876173 0.011178625 -0.09168581 -0.09461032 -0.029890133 -0.098753355
0.028960388 -0.0070015183 0.00017099913 -0.08698091 -0.31954208 -0.033556517 0.19850108 0.2204706
0.12193763 0.2343057 -0.12720819 0.05643075 0.02242014 0.23853196 -0.15293777 0.2637343
0.21612635 0.05591729 0.18998455 0.543704 0.021708315 0.11459761 -0.016755786 0.2512805
0.21639341 0.17542282 -0.1045412 0.04503717 0.082642496 -0.03982595 -0.0032926577 0.04224163
0.2173819 0.08724804 0.094976045 -0.0064287647 -0.0048607644 -0.022248149 -0.04140915 -0.075076394
-0.029491892 -0.052234 -0.055063512 0.32291567 -0.0059378846 0.20311566 0.07311884 0.10239753
0.022089938 0.12178639 -0.12370518 0.047633227 0.09441472 0.011395572 -0.048377812 -0.0094489595
-0.156502 0.04534123 -0.007705727 -0.05521878 0.039995898 -0.05840988 0.099986754 0.0371415
-0.023037251 0.018372767 0.0312888 -0.02589506 -0.07286728 0.00949758 0.027979994 0.008638725
-0.034993354 0.0725514 -0.018509751 -0.015161252 0.035908863 -0.054543648 0.039503813 -0.031224748
0.065433875 -0.044153173 0.020639133 0.01881093 -0.07330009 -0.057562858 0.05394712 -0.016874926
0.07358454 -0.09289648 -0.04005223 -0.07290546 0.037709124 -0.13494769 -0.1332291 -0.2823002
-0.18024454 -0.042768124 0.26906627 0.19173107 -0.41157478 0.04319984 0.03609754 0.13467138
-0.5905876 -0.104652226 -0.52565134 0.023943665 0.2046994 0.17457336 -0.063765205 0.08950486
0.03661902 -0.018031824 0.03472629 -0.05504293 0.045931958 -0.0055858684 -0.05083128 0.009104967

model.0.bias f4 [256]
00000000: c4af 3bbd 029b 8a3c 2955 08bd 7b41 34bc
00000010: 57ab 81bd c0e7 31bd 7438 853d c259 babd
00000020: 7773 173d e247 fa3b 6fcc 3b3d 2f08 9b3c
00000030: 0547 f33c 62e2 473c fff9 cb3d 635f 883d
00000040: b04e 5c3d 856e 063d d9b8 723d 363e c83d
00000050: ce8c e03c 4866 183c 107f 11bd 310d 3f3b
00000060: f9c2 383d fbc1 e9bd f67b d1bd 0e1b ba3d
00000070: faa3 b23d 9555 ca3d 632a bebd 3986 9f3d
00000080: c7e0 9ebd 6b5f 49bc 48ba 9abd df18 cb3c
00000090: 10cf 85bd 5e0d 863c 946d 973d 3ee6 c43b
000000a0: fd00 133d cc6f 733c 1037 b93c a79e 0ebd
000000b0: d8eb 9a3d fe89 643d 78fe cc3c 2e60 27bd
000000c0: b096 2d3c fa92 043a 3f74 833d 5ccc 55bc
000000d0: ec66 6fbd 5d9e b1bd 2168 8cbc 0ffc 41bd
000000e0: c67c d3bd f5b6 7fbd 0a7f 423c 4056 22bb
000000f0: bf2b 02bd 9482 efbd d66a 233b c09f 8c3d
00000100: 2d66 4dbd 7c94 bf3d f212 06bd 6046 643d
00000110: 4ead ebbc e2fd debd b79f 88bd cbc0 713c
00000120: f7b9 603d 6879 06be fc78 903d a8cc 263c
00000130: c522 3f3d b05d 1b3c eaea 69bd ab9e b83d
00000140: 84e3 2abc 5e7e fbbd 70d0 b639 d6de 90bd
00000150: 4cbf 73bd f8f5 b3bd 8114 4a3c 8e97 d4bd
00000160: 54cb 46bd 3841 bebc 167d 9cbd 8522 cebd
00000170: 56b3 83bd 29f8 54bd 3d30 dcbd e88c b5bd
00000180: 3b57 b6bd 9929 7e3d 4a5d b1bd 1ced 763c
00000190: 7f9b 34bc 1ed4 a3bd b8a0 a0bc 5e03 fabb
000001a0: 2abb c03d 7c74 f1bc d4aa a33d 2e9b 443d
000001b0: 397f 6c3d ccd2 f23b b16e 7bbd 6bef 5fbb
000001c0: f7b4 fdbc ce82 1b3d ff89 803d b1d5 2f3d
000001d0: 53a4 99bd 6993 073a 8773 643d 81fe bb3c
000001e0: 6bf9 07bd 9c90 733d 8cc4 bebd 1dbb d4bd
000001f0: 68c4 afbd a619 a83b 1d55 ebbc 9376 563d
00000200: 7382 b8bb c709 723c 15e6 153b c439 513d
00000210: e08d 663d 6fc5 973d ba51 9dba 6764 6f3d
00000220: b2bb 913d ddf1 253c e28e 693c 60ff 64bd
00000230: 5ce9 f13d 95b5 0d3c 12f1 cbbd 4ad2 12bd
00000240: 67d4 f0bc 7d6a 66bc 8042 8bbd 8b86 1dbd
00000250: bc93 cfbd 8fc2 923c 36b1 debd 39cf 923b
00000260: 39d3 4f3b 5639 bdbd 6b09 c93c 3a93 3f3d
00000270: a763 18bd a337 b2bd 8fb8 c33d 56b5 4fbd
00000280: 7da0 c03c 8795 a6bd 2b5f a9bd 71e0 3ebc
00000290: e075 3dbd 3e25 59bd fe89 d5bd 8475 203d
000002a0: b42e f7bd e17a 2ebd 0712 abbd 1e80 c2bd
000002b0: 308f 073d 209a 29bd 1521 503d b4a9 ccbd
000002c0: 1694 89bd 98d9 e43c 056b 4a3c d1b8 b53d
000002d0: f30d 453d f4b1 8cbd c56f 9abc 08b9 b93c
000002e0: 4e04 31bc d790 b63d ba3b 843d d009 5f3d
000002f0: 6551 c6bd e7ab 57bd fd53 ebbd 86ed 83bd
00000300: 9c65 073d 2666 33bd 7e17 e43d 930a 3a3b
00000310: fe05 c6bb 558d 3bbd 9d79 9ebd f2ac 593c
00000320: 2d40 9f3d 4890 aa3d 3717 d23c 2e2b 153d
00000330: 513b 41bd f803 88bb 1d9f ae3d 849d 4bbd
00000340: 2332 4f3d e157 8d3d 2c61 983c f4cc dabd
00000350: 9776 763d 120c d7bd 10cc 393d 4716 5d3d
00000360: 4372 aebd ac1f bbbd 903e c1bd 6f32 a03d
00000370: 0eb0 7fbd b126 93bd 97e1 04bc c697 833c
00000380: 1096 28bd f321 b6bd f096 babd 4e89 dd3c
00000390: a156 4cbd bd8f bfbd 1523 aabd 1828 80bc
000003a0: 382e 5cbd d813 7a3a 4c28 793c 6baf b33d
000003b0: 4286 b33d c718 b03c c478 7dbd 67ff 6b3c
000003c0: 0a65 88bd e789 883d 21d6 9d3c e747 b3bc
000003d0: 3500 c53d 168b bfbc 8086 e4bc f501 133c
000003e0: 2aa2 e43d 83dd b8bd a50e 38bd 9524 24bd
000003f0: 5e58 873d d6cd c63d 954f ad3d 9afa 9b3d
-0.04582192 0.016919617 -0.03328434 -0.01100194 -0.063315086 -0.043433905 0.06504908 -0.09099151
0.03697535 0.0076379636 0.04584926 0.0189248 0.02969695 0.01219997 0.09959792 0.066588186
0.05378598 0.032820243 0.059258316 0.09777491 0.02741089 0.0093017295 -0.035521567 0.002915215
0.045107815 -0.11413952 -0.10228722 0.090871915 0.08722682 0.09879605 -0.092854284 0.07789273
-0.077577166 -0.012290816 -0.075550616 0.024792133 -0.06533635 0.016363796 0.07393947 0.0060088923
0.035889614 0.014858197 0.022609264 -0.03481927 0.07564515 0.055795662 0.025023684 -0.04086321
0.010595009 0.00050573016 0.064186566 -0.013049211 -0.058447763 -0.086727835 -0.017139496 -0.047359522
-0.10326533 -0.06243034 0.011871109 -0.0024770647 -0.03178 -0.11694828 0.0024935505 0.068664074
-0.05014627 0.09354493 -0.03273291 0.055731177 -0.028769162 -0.10888268 -0.06671088 0.014755438
0.05486485 -0.1313225 0.07054326 0.01018063 0.04666402 0.009482786 -0.057108797 0.090146385
-0.0104302205 -0.12279962 0.00034869043 -0.070737526 -0.059508607 -0.08787149 0.01233399 -0.10380469
-0.048533753 -0.023224458 -0.07641046 -0.10065178 -0.0643069 -0.051994476 -0.10751388 -0.08864766
-0.08903357 0.06205139 -0.086603716 0.01507118 -0.011023401 -0.079994425 -0.019607887 -0.007629796
0.09410699 -0.02947449 0.07991567 0.047999553 0.057738516 0.007410383 -0.06138486 -0.0034169804
-0.03097008 0.037966542 0.06276321 0.0429284 -0.075020455 0.0005171807 0.055774238 0.022948505
-0.033196848 0.059464082 -0.09314832 -0.103872515 -0.085823834 0.0051300107 -0.028727109 0.052359175
-0.005630785 0.014772839 0.0022872735 0.05108048 0.056287646 0.07410704 -0.0012002506 0.05844536
0.07115878 0.0101284655 0.014255257 -0.055907607 0.11812088 0.00864925 -0.0995809 -0.03584508
-0.029398156 -0.014063475 -0.06799793 -0.03845839 -0.101356 0.017915038 -0.10873644 0.0044802693
0.0031711592 -0.092394516 0.024540624 0.046771266 -0.03720441 -0.08702018 0.09556686 -0.050710045
0.023514027 -0.08133989 -0.08270105 -0.011650191 -0.046254992 -0.053014033 -0.104267105 0.03917457
-0.12069455 -0.042597655 -0.08353048 -0.09497093 0.03309554 -0.04140675 0.0508128 -0.09993306
-0.06717698 0.027935788 0.012354617 0.088731416 0.048109006 -0.06869879 -0.018852124 0.022671238
-0.010804249 0.08914345 0.064567044 0.054452717 -0.096834935 -0.052654173 -0.11490629 -0.064417884
0.033055887 -0.04379859 0.11137293 0.002838765 -0.006043195 -0.04578908 -0.0773804 0.013285862
0.077759124 0.08328301 0.025645835 0.036418132 -0.04717571 -0.0041508637 0.08526442 -0.049710765
0.050584923 0.06901527 0.018601023 -0.10683623 0.06017169 -0.10500349 0.045360625 0.053976323
-0.085178874 -0.091369 -0.09435761 0.078221194 -0.06242376 -0.07185114 -0.008110425 0.016063582
-0.041158736 -0.08893194 -0.0911082 0.027043011 -0.049887303 -0.09353588 -0.083074726 -0.015644118
-0.053755015 0.00095397 0.015207361 0.08773693 0.08765842 0.02149619 -0.06188275 0.014404154
-0.06659897 0.06666928 0.019267144 -0.021884872 0.0961918 -0.023381751 -0.027896166 0.008972635
0.11163743 -0.09026625 -0.04493584 -0.04007395 0.066086516 0.09707229 0.08462445 0.07616158

model.2.weight f4 [256, 256]
00000000: 2fa9 fdbd 2f96 aebc 6f66 583c f343 833b
00000010: 00dd 42be 43f8 553d 3e16 7bbc 3eb7 04bd
00000020: 2eed 6a3d 5854 033d e241 0cbd 94ce 93bd
00000030: 4643 03bb bafd f8bd e773 b7bc d481 d6bd
00000040: 329b c63c f12c 833c b609 893d 72a5 c1bc
00000050: f39b 57bd ebb9 e5bd ba5b 13bc bcdd 2ebe
00000060: a9dd d3bd cdaa bb3c c63d c63c 839e 1abc
00000070: f442 243d 9dfe d73d 9c39 3b3d 83e1 c53d
00000080: d5e5 5b3b a06e 163d 3507 b2bd 5b3f c03d
00000090: 5785 bb3d 5541 d0bd 79b6 123d ad88 f03c
000000a0: 9d7a 3ebd 90aa 6fbd f1db 773d 6ab3 9fbc
000000b0: 4cb3 c9bc fec5 01be 5df6 c43b 1e5e 5cbd
000000c0: 8d00 bdbd 092e 08be d469 153d 2603 9dbd
000000d0: 4eaf 243c 07b2 aebc abf1 fe3a 6742 803d
000000e0: 0c2d 91bc 7b29 183d afd1 00bc 2133 b63d
000000f0: 3702 b4bd 1a4a 6f3d 336f 16bc 15d1 743d
00000100: 4924 e6bd 1ec3 cf3c 928a d63d aa1c 98bc
00000110: 40ec e03c 2244 24bd 0dbc f8bd 762c 3abd
00000120: 350b 20bd d117 863d 7116 e7bd e9fa a03c
00000130: 3430 ff3d 4895 babd 956e ba3d a183 a1bd
00000140: 0a65 573d 3c3d 59bd a1d3 f53c a907 afbb
00000150: 822f 993d 6334 4d3d d4e6 ec3b 9c22 873b
00000160: fa5f 87bd 9e1d 943d ee42 593c 1996 6f3d
00000170: 9cbc 3dbe e86f 40bd 4827 b03d 1ab3 303e
00000180: 299b 8a3d 2b53 5abe e3ad c3bc 4421 b0bd
00000190: e417 993c 7951 d8bd 692a 1ebe 23d7 70bd
000001a0: 619e 9bbc 5dba b2bd f50c a4bc 629b 86bc
000001b0: c2ef 0b3e 1be3 633d 3da1 033e f31f 81bd
000001c0: 1067 4c3d e310 cc3d 798c cbbc 10f3 41bb
000001d0: c074 cabc d476 16be 83e2 223e c6b8 d63c
000001e0: 7600 bbbc de50 b0bd 70af ab3d 4080 ddbd
000001f0: 5425 b9bd 03b0 9a3d 093d 1cbe 0e1a 053d
00000200: d45b fc3b 4cc8 18bd a861 95bd 7a6a b03d
00000210: 4fdc 95bc 7be1 ca3d c616 d73d beb6 05bd
00000220: 8f24 aebd a142 82bd 26f2 edbd b48a 19bd
00000230: c758 2cbe 7e17 bcbd a2b6 a33d 216d b2bc
00000240: fe88 1c3d f9c1 bcbc 0c18 923d 68fb 22bd
00000250: 34d8 473c 8254 c2bd 6a5a 073d a2a3 88bd
00000260: a69b d0bd 107f 0fbd eaa5 2bbc 578a 933d
00000270: 0ad4 61ba 5adc e83d 30d8 1a3d ebaa 47bd
00000280: 43cf 91bd cc8d 5bbe 0312 ddba 1e94 b23d
00000290: 7e73 17be 5f5f 0fbe 2b7a 84be 7c39 b3bd
000002a0: 0ff9 363c 9dfc 21be 1acc f2bd aecf a33d
000002b0: b5fe f33c 6c5b dc3d 7758 be3d eca9 01bd
000002c0: c398 a03d 16b9 0dbd 143c 12bd afde 873d
000002d0: b6cc d4bb e453 c6bd 68d1 adbd 2d5b abbd
000002e0: 5973 1abd bfc5 34be ab04 903d 1980 5abc
000002f0: 9741 3b3e 8697 e73c e606 8a3d 0dde 6ebe
00000300: 3492 3ebe b1ac 40be 2544 cebe ac85 2bbe
00000310: 939c 5abe 08c6 c9bb 4eab 59bd fedb cb3d
00000320: 9776 08bc 47f2 b13d 2d5d a3bc 479b 9b3c
00000330: b2c4 4b3d d91a e8bc a4aa b03d 0373 8f39
00000340: ee04 8b3d e986 8cbc 7620 8abd d707 353d
00000350: 74fe da3c 83ae b7bc ffd0 5ebe 5909 c0be
00000360: 6d22 1ebd d1e0 1ebe 003e bfbc a9d3 473d
00000370: b719 543d c748 41bd b021 453d 87cc babd
00000380: 388b eaba 0f67 3b3d a966 cd3c a9bd efbc
00000390: 13ef bebd d56d cdbd d700 8f3d 2299 003e
000003a0: e303 04bf 2faa 713c bdca 71bd cf21 b73d
000003b0: 9ac0 803d 96db 0bbc 82b6 41be ce70 383d
000003c0: b593 ccbc 23ac 953c 44f0 3bbd 331b cb3d
000003d0: 767f af3c 7876 b43d dc10 7dbe 5646 7cbe
000003e0: c66c 843d 06ac 05bc d98a 2b3d 9799 87bc
000003f0: 17c3 2dbd ae50 72bc 2c14 bd3d 7167 c3bb
-0.12385785 -0.021311847 0.013208016 0.004005903 -0.19029617 0.052238714 -0.015325127 -0.032401316
0.0573551 0.03206286 -0.03424252 -0.07217136 -0.0020029112 -0.121577695 -0.022394134 -0.104739815
0.024243925 0.01601264 0.06691305 -0.02363846 -0.05263896 -0.11217102 -0.008994037 -0.17076772
-0.10345013 0.022908593 0.024199378 -0.009437206 0.040102914 0.105466105 0.045709237 0.096621536
0.0033553739 0.036726594 -0.08692781 0.09387084 0.09156292 -0.10168711 0.03581855 0.029362047
-0.046503652 -0.05851227 0.060512487 -0.019494731 -0.024621628 -0.12673184 0.006010814 -0.053800695
-0.09228621 -0.13298811 0.03647788 -0.07666616 0.0100515615 -0.021325124 0.0019450685 0.06262665
-0.017721675 0.037148934 -0.007862492 0.08896471 -0.08789485 0.058420278 -0.009181785 0.05976971
-0.112373896 0.025361594 0.10475649 -0.018568356 0.027456403 -0.04010404 -0.12145243 -0.045452558
-0.039073188 0.06547511 -0.11283577 0.019650893 0.12460366 -0.091105044 0.09103123 -0.07886434
0.052586593 -0.053036913 0.03000814 -0.0053414893 0.074797645 0.050098788 0.0072296653 0.004123999
-0.06610103 0.072322115 0.013260586 0.058492754 -0.1852898 -0.046981722 0.08601242 0.17255822
0.06767876 -0.21320789 -0.023886627 -0.08600095 0.01868815 -0.10562415 -0.15445866 -0.05879892
-0.01899642 -0.08726952 -0.02002571 -0.016431514 0.13665679 0.055636507 0.12854476 -0.06304922
0.049902976 0.099641584 -0.024847256 -0.002959434 -0.024713874 -0.14693767 0.1590672 0.026211154
-0.022827368 -0.08609174 0.083830714 -0.10815477 -0.09040323 0.07553103 -0.15257658 0.03249555
0.0077013765 -0.037300393 -0.07294017 0.08614059 -0.018293528 0.09906288 0.105023906 -0.03264498
-0.08503067 -0.06360365 -0.11618452 -0.037485793 -0.16830741 -0.09184168 0.07993819 -0.021780552
0.038216583 -0.023041712 0.07133493 -0.03979054 0.012197543 -0.09488775 0.03304521 -0.066718355
-0.101859376 -0.035033286 -0.010476569 0.072041206 -0.0008614665 0.11370154 0.03780383 -0.048746984
-0.0711961 -0.2144081 -0.001686633 0.08719657 -0.1479015 -0.14001225 -0.25874457 -0.08751199
0.011167779 -0.1581902 -0.118553355 0.07998596 0.02978454 0.10759625 0.09294217 -0.03165619
0.07841637 -0.03460034 -0.035701826 0.066342704 -0.00649413 -0.096839696 -0.08487207 -0.08367
-0.03770766 -0.17653559 0.0703214 -0.013336205 0.1828674 0.028270494 0.06739597 -0.23326893
-0.1861046 -0.18815877 -0.40286365 -0.1675021 -0.21348791 -0.0061576404 -0.053141885 0.099540696
-0.008329055 0.08688789 -0.01994189 0.01899494 0.04974813 -0.028333114 0.08626297 0.00027360776
0.0678805 -0.017154174 -0.06744473 0.04419693 0.02673266 -0.02242208 -0.21759413 -0.37507132
-0.03860705 -0.15515448 -0.023344994 0.04878584 0.051782336 -0.047188547 0.04812783 -0.09121042
-0.0017894274 0.04575258 0.025073366 -0.029265242 -0.093229435 -0.100307144 0.06982582 0.12558416
-0.5156843 0.014750048 -0.059031237 0.08941995 0.06286736 -0.00853624 -0.18917277 0.045029454
-0.024972776 0.018270558 -0.045883432 0.09917297 0.021423083 0.088116586 -0.24713463 -0.24636206
0.064660594 -0.008158689 0.041880462 -0.01655273 -0.04242238 -0.014789743 0.09232363 -0.005963259

model.2.bias f4 [256]
00000000: 31d6 083d b744 2c3d ce7b b3bd 71b7 f4bc
00000010: 1096 a5bd 1d5d 163d 9e27 4b3d 588d 45bd
00000020: b152 6a3d 0849 55bd ee53 653c 1ec4 1cbd
00000030: c5a9 073d 1515 34bc 60ee 6d3d 1bfb bb3c
00000040: ce83 69bd 9e5c 19bd 7723 d13c 3d36 31bc
00000050: 0c6e 7c3c e3f3 78bd 1166 0d3d 0bd4 91bb
00000060: a59c cd3c a59b c7bc 033e 743d de41 0d3d
00000070: bc04 01bc 7542 e4bc cc15 d9ba 487b e2ba
00000080: 8468 053d 8c30 2dbd 9ae0 94bc 072b 193d
00000090: 93fd 843b a6fe c93c 7a19 2dbd 497d 353d
000000a0: 3dbd 42bd 08aa b53c c376 3539 647d 20bc
000000b0: 035f 32bd 1f26 6e3d 5ad2 00bd 705d 0b3d
000000c0: aa1f 5ebc f658 803d f537 913c 293f a93d
000000d0: a326 11bd eacf fd3c 922b 963d 62fe a6bc
000000e0: 595a 9b3c 72d8 49bb 2d47 413d d796 8bbb
000000f0: f89e 143d 46b9 7d3b d442 03bd 43a0 2ebc
00000100: eb9d fc3b e915 113c e5a5 bbbb fd9a f93c
00000110: 6fa0 fcbb 5909 503d 9759 373d fbc0 09bc
00000120: c99e 39bd f984 9cbd fcbd 0f3d 3f2a adbc
00000130: 3c24 5939 06cc 503d 4ce8 5a3c 6082 c6bc
00000140: daaa 86bd 3617 56bd baa3 6d3d 7086 0a3d
00000150: ced3 4abc 5fd0 99bc b685 5ebd 8300 0abd
00000160: 7235 343d 823b 0e3d 4040 d3ba 070b 39bd
00000170: 4bf3 c53b cc62 2dbd 5715 693c fc66 b73c
00000180: 62c2 3f3d 43ea 063d 158e c93c f5fa 70bc
00000190: 4778 fbbc fd9b c93c 51e5 d6bc 3e2e b7bd
000001a0: 6ff5 603d c70e 72bd d16f 31bd 51db 41bd
000001b0: 03c1 98ba b647 1e3c 54ee 6c3c 5d49 2bbd
000001c0: 3e2d 1d3d c3a1 81b9 5d8f a13d 1273 a83c
000001d0: 5666 95bc d401 32bd 8d7c 8bbc 58dc 09bd
000001e0: 07a6 383d 8feb 5ebd 8884 573d 0f39 413d
000001f0: 0f55 b0bb 5372 683c 5437 d33c c30f ab3c
00000200: 2f19 c5bc e061 50bd d249 333c 67a0 3d3c
00000210: d386 383d a897 68bd 0ac9 1ebc 0b3c 29bc
00000220: a17c 683d d982 fcbc 725e 31bd a741 693d
00000230: 5542 633b 5cfa 5b3d 6775 15bd 9e20 13bd
00000240: 25bc d43b e9a0 623c 1b46 383d 378b a2bc
00000250: a6ce 70bd eaec 83bc 0222 9abc f565 71bd
00000260: e504 a9bd 42c2 46bc 26d6 14bd 1550 813d
00000270: 0194 8a3c 0d48 273d 2d92 dabc 2eb8 84bd
00000280: a8ef 74bd f1e7 00bd 87e9 153d 5e45 5f3c
00000290: 2a5b 35bd 8f58 c3bb 4a63 04bc 389c 803d
000002a0: cb66 cf3c f418 80bb c016 6fbd 99fa 2a3d
000002b0: 7d2e 113d ede7 8abd f2c7 d63c 8573 aebc
000002c0: bb7b 75bd abe6 5f3d b9f9 373d 7f2e b33b
000002d0: f8e0 75bc 93c9 543c 9b5a 48bd 78bc 9c3d
000002e0: 6be2 08bd 999a 9bbc 3bfd 9d3c d246 2abd
000002f0: 6e01 023d 78a1 0abc 80e0 1cbd 7bdd a93c
00000300: 6a3c 15bd 16f8 87bb 92df adbd f52a 65bd
00000310: e989 d23c 7f50 523c 1415 4b3d 946c ecbc
00000320: 9a57 963d 1452 1b3d 8239 0e3d 078c d9bc
00000330: 6036 3b3d 206e b03c 8aa1 4bbc 251f d9bb
00000340: a6ca 5dbd 8039 33bd 5b30 47bc 29ae 49bd
00000350: be3a 7fbd 71e2 54bd f444 713d 57fd c93b
00000360: 9f9d 063d 0284 69bc 79b3 a1bc ae5f 1dbc
00000370: b860 4bbd 2ace 183d c453 133d 76c4 00bc
00000380: 960a 19bd d9e3 c7bd 9cf3 cb3d 4e84 87bd
00000390: 31f7 d33c 84b0 bebc 5351 3ebd 29ca a73c
000003a0: cb4e b6bc 7aab cdbb 379d 233d eddd f83c
000003b0: 1e4f 333c 717a 87bd 6ede 1cbd e886 453c
000003c0: 57ae 1a3d 7507 533c 09d5 9cbc 8772 b8bc
000003d0: ed10 213d 690d 1e3d a070 9bbc a547 903d
000003e0: eef4 cb3d 352d 723d 185b 04bd 7a66 343d
000003f0: 8c0e 333b bd29 223d e7db a83c 006d 9cbb
0.033407394 0.04205772 -0.08763848 -0.029872628 -0.08085263 0.036709893 0.04959833 -0.0482305
0.057207767 -0.0520716 0.013997061 -0.03827297 0.03312089 -0.0109913545 0.05808866 0.022946885
-0.057010464 -0.037441842 0.025529606 -0.010816154 0.015407097 -0.060779463 0.034521166 -0.0044503263
0.025099108 -0.02436621 0.05962945 0.034486644 -0.007874664 -0.02786372 -0.0016562282 -0.0017279172
0.032570377 -0.042282626 -0.018173505 0.03739455 0.0040585487 0.024657559 -0.042260624 0.044308934
-0.047543753 0.022175804 0.00017305747 -0.00979552 -0.04354764 0.058141824 -0.031450607 0.034024656
-0.013557354 0.06266968 0.017726878 0.08264 -0.035437237 0.03098293 0.07332529 -0.020384971
0.01896398 -0.0030799177 0.04718702 -0.004259925 0.036284417 0.0038715168 -0.032046154 -0.010658327
0.007709255 0.008855321 -0.0057265633 0.030469412 -0.007709555 0.050790165 0.044763174 -0.008407827
-0.045317445 -0.0764255 0.035093293 -0.021138309 0.00020708231 0.050975822 0.013361048 -0.02423209
-0.06575556 -0.05226823 0.05801747 0.033819616 -0.0123796 -0.018776117 -0.054326735 -0.033691894
0.043996282 0.03472472 -0.001611717 -0.045176532 0.0060409657 -0.04233055 0.014226279 0.022387974
0.046816237 0.032938253 0.024603883 -0.01470827 -0.030697001 0.024610514 -0.026232393 -0.08944367
0.054921564 -0.059096124 -0.043319527 -0.047328297 -0.0011654202 0.009660652 0.014461119 -0.04181801
0.038373224 -0.0002472532 0.078886725 0.020562682 -0.018237274 -0.043458775 -0.017027164 -0.0336574
0.04508021 -0.054423865 0.052616626 0.047173556 -0.0053812335 0.014187413 0.025783218 0.02088154
-0.02405986 -0.05087459 0.010942893 0.011573887 0.045050453 -0.056785256 -0.009691486 -0.010329257
0.05675948 -0.030824112 -0.04330296 0.056947377 0.0034676988 0.05370556 -0.036488917 -0.035919778
0.006492155 0.013832309 0.044988733 -0.019841773 -0.058790825 -0.01610418 -0.018815044 -0.058935124
-0.08252887 -0.012131276 -0.03633704 0.063141026 0.016916277 0.040840197 -0.02668103 -0.06480442
-0.059798867 -0.031471197 0.036599662 0.013627378 -0.044276394 -0.0059614847 -0.008080313 0.06279796
0.02531757 -0.0039092246 -0.058371305 0.041742895 0.035444725 -0.067825176 0.026218388 -0.021295318
-0.05993245 0.05466334 0.04491589 0.0054681893 -0.01500725 0.012987512 -0.048914533 0.07653135
-0.033419054 -0.018994616 0.019285789 -0.041571446 0.031739645 -0.008461349 -0.038300037 0.020735493
-0.03643457 -0.004149447 -0.08489908 -0.05594917 0.025700526 0.012836575 0.04958065 -0.028860368
0.073409274 0.037920073 0.034722812 -0.026556028 0.045706153 0.021536887 -0.012428651 -0.006626027
-0.05414834 -0.04375601 -0.012157525 -0.049238358 -0.06231188 -0.051973764 0.05890365 0.0061642337
0.032865163 -0.0142526645 -0.0197389 -0.009605331 -0.049652785 0.03730599 0.035968557 -0.00785934
-0.03736361 -0.09760255 0.09958574 -0.06617032 0.025874706 -0.023277529 -0.046464276 0.02048214
-0.022254368 -0.006276545 0.039944854 0.03037926 0.010944156 -0.06615151 -0.038298063 0.01205609
0.03776392 0.012880196 -0.019144552 -0.022515548 0.039322782 0.038587008 -0.018974602 0.07044915
0.09958826 0.059125144 -0.032313436 0.04404304 0.0027321903 0.039590586 0.02061267 -0.004773736

model.4.weight f4 [256, 256]
00000000: ff2f 163e e255 12bc 8a0f b6bd 3826 253c
00000010: b259 fdbc 9715 13bd 91b5 0d3d 547c 1fbe
00000020: 0e78 16be cb85 82bc fe20 ff3c 52fc 76bd
00000030: 3f8f f8bd 2553 b8bd 3959 933b cb94 f5bc
00000040: 8e2d 56bd eab0 78be 60da 22bc 3305 b3bb
00000050: 558d 3b3d a6b0 35be a59e b53d c172 b5bd
00000060: 9883 b8bd f5eb f4bc d34d 833d 24bf efbb
00000070: 358e 1d3d 4beb d23c af75 4dbd a7a5 2c3d
00000080: ff04 2e3c 1ede 7fbc ab7c 143e 917c 6d3d
00000090: 025c 0a3d e518 a6bd d4cf 4e3d 4ad1 173d
000000a0: 87c8 98bd acfa e2bc 59a0 c7ba 9c80 9bbb
000000b0: 2b57 893c c2b8 22bd a4cc 873d 56fb 003d
000000c0: 6e91 18bd 78fb c33c aee4 82be e32b 4bbe
000000d0: dc56 41bd c535 6abd 20ef 893d 4f48 5abe
000000e0: 14b3 223c 94c9 35bb f1cd c63d 0c1c 053d
000000f0: d9f3 ce3c 464a 0fbd 1f22 1f3d d807 cbbe
00000100: 3ca0 37bb d5e4 c63d d481 99bd 32de ef3c
00000110: 1a20 9e3d 1c37 77bc ead2 473d de5c e6bd
00000120: 0b34 383d 8ba4 7bbd b0f2 c0bd 14bc cabb
00000130: 00ce b7b9 a49c 5c3c cbd7 fb3c 3f43 b3bd
00000140: 7bc3 1ebe 2a20 463d 194a a83d e5c1 713d
00000150: da3e 85be 7b6f a1be 431c 663d 67ff c6bb
00000160: 6dd2 2abe 404c 6fbe 18b3 973a 4082 0dbc
00000170: beee 3abd 3baa 7b3c 7cec efbc da3d 89bd
00000180: d5b9 f13c 90c3 d23c 5e98 cfbd 0f91 8ebd
00000190: 5800 093d 5f0d 62bd d550 343d 9042 d63c
000001a0: 3f01 c2bd 7fa4 41bb 0fed 85bd 2553 73bc
000001b0: 38ad a8be 3d24 813c 6a97 bd3b d5d0 06be
000001c0: b965 8cbe 2739 a43e 413f 9fbd 7780 233d
000001d0: cd07 6c3d f712 20bc 2b09 be3d 3422 163c
000001e0: a1b1 733d 4937 05bd 36df 07bd 59a8 473a
000001f0: e3be 0f3d 6dec f6be 5d37 a13d e54e b63c
00000200: 59bb b83a a766 bf3d 4b98 ca3c 8bd6 7d3d
00000210: a092 033d 3895 323e 69ee 593d 7d05 843d
00000220: 4b21 ac3d 590d 353d 68c1 9dbe d057 65be
00000230: 388a b93d 11ce 803c cfcb ec3d 56a1 92bb
00000240: 3e70 433c 7363 1f3d 1e41 373d fe32 21be
00000250: d037 c9bd e8fa 42bc 3764 363e fb36 0d3d
00000260: 344e 0c3d 0be8 4dbc 782d 963d 000f 65bb
00000270: 40cc 97bd e8ff 2abc 032f 76be 3cc8 c23d
00000280: 707f 0f3d 96ba 2ebc 4dda 28be f7ab a7bd
00000290: e755 89bd e0e9 8a3c 05f7 9ebe 13c0 f93d
000002a0: d904 be3d df0d 333d 43fe e73d 7874 abbd
000002b0: 1754 2fbd 5b86 2cbe 7c50 10be 33b9 21be
000002c0: 311c c2bc 9b22 95bd 657d 9fbd c305 863c
000002d0: e4af b63a eaba bc3b 297b 6abd 5bcd 653d
000002e0: c813 21be eadc 553d e722 1bbd db8c 02be
000002f0: 5ada 3ebd 6499 bfbd dc96 4c3a a885 07be
00000300: 4c32 53be 1f79 133c cc7a 2bbd 52bc 483e
00000310: eac3 8e3d 7f63 2fbe 1b03 b73d befb e339
00000320: 68cc 06bd b721 123e 6b3f e6bc e1cf b0bd
00000330: d9ef 293e 986c 10be 15ef 4c3c e9bc 633c
00000340: 77bd 71bd fe07 57bd 61ef 07bd f332 69be
00000350: 84ef bd3b cee9 d23d 50fd a2bd ed00 4ebd
00000360: 9dcc 4bbd b2e7 e53b 6f8a 25bd f8a3 cdba
00000370: baa0 01bc 4013 36be adfc 1e3d 525a 363d
00000380: 7ad5 6fbe 99ae 2fbe 60cd 163e 527e 523d
00000390: f90a b6bc abe6 04be 187b 81bd c096 b7be
000003a0: 85c1 1bbe f510 0c3d e711 57bb b5aa 0b3d
000003b0: baa5 c4bd 353e 1e3e b3e8 9dbd d928 4abd
000003c0: 1e42 6e3d a377 09be 8695 573e 1442 c4bd
000003d0: 3d0d 463d d405 893c 384e 04be 2823 9cbc
000003e0: 2c0d 163d 1eed 4c3e ea70 b63c 8da3 16bd
000003f0: 490f 21bd cf8a f73c 94b8 ad3c 6a9c 883d
0.14666747 -0.008931609 -0.088896826 0.010079913 -0.03092656 -0.03590926 0.034596983 -0.15574771
-0.14694235 -0.015932938 0.031143662 -0.060299225 -0.12136697 -0.090002336 0.00449672 -0.029978177
-0.052289538 -0.24286237 -0.00993976 -0.0054632663 0.04578908 -0.17743167 0.0886815 -0.08859778
-0.090094745 -0.02989767 0.06411328 -0.007316487 0.038465697 0.025746962 -0.05016106 0.042150166
0.010621308 -0.015616922 0.14500682 0.057980124 0.03377915 -0.08110217 0.05049117 0.037064828
-0.074601226 -0.02770742 -0.0015230282 -0.004745556 0.016765198 -0.03972698 0.06630829 0.031489693
-0.037248068 0.02392362 -0.25565094 -0.1984096 -0.047201976 -0.057180185 0.067350626 -0.21316646
0.009930391 -0.0027738558 0.09707249 0.03249745 0.02526276 -0.034982942 0.0388509 -0.39654422
-0.002801909 0.09711615 -0.07495466 0.029280756 0.07720967 -0.015088823 0.048785128 -0.11248182
0.044971507 -0.061436217 -0.09421289 -0.0061869714 -0.00035057962 0.01346508 0.030742547 -0.087530605
-0.15504257 0.048370518 0.08217258 0.059022803 -0.26024514 -0.31530365 0.056179296 -0.006072927
-0.16681834 -0.23368931 0.001157376 -0.008637011 -0.04563784 0.01536041 -0.02928757 -0.067012504
0.029507557 0.025728017 -0.101364836 -0.069612615 0.033447593 -0.055188533 0.0440224 0.026154786
-0.09472894 -0.002954751 -0.06539356 -0.014851366 -0.32944655 0.01576435 0.005785872 -0.131656
-0.27421358 0.32074854 -0.077757366 0.039917435 0.057624627 -0.009770147 0.092790924 0.009163428
0.059495572 -0.032523427 -0.033171855 0.00076163333 0.035094153 -0.48227254 0.07871888 0.022254417
0.001409392 0.09345751 0.024730822 0.061972182 0.032122254 0.17439735 0.05320588 0.06446359
0.08404788 0.044202182 -0.3081162 -0.22396779 0.09059566 0.01572326 0.11562311 -0.004474799
0.011928616 0.0389132 0.044739835 -0.15742108 -0.098250985 -0.011900641 0.17811666 0.03447626
0.034254268 -0.01256753 0.07332891 -0.0034951568 -0.074120045 -0.010436989 -0.24041371 0.09510848
0.035033643 -0.010664603 -0.16489525 -0.081870966 -0.06705838 0.016957223 -0.31047836 0.121948384
0.09278268 0.0437144 0.113277934 -0.08371824 -0.042804804 -0.16848128 -0.14093202 -0.15793304
-0.023695083 -0.07281991 -0.07787589 0.01636017 0.0013937918 0.0057595866 -0.05724636 0.056104045
-0.15730202 0.052212633 -0.037875082 -0.12749045 -0.046594955 -0.09355429 0.0007804462 -0.1323458
-0.20624655 0.0090010455 -0.041865155 0.19603088 0.069709614 -0.17127798 0.08936139 0.00043484377
-0.03290978 0.14270674 -0.028106412 -0.086334 0.16595401 -0.14103925 0.0125081735 0.01390002
-0.05901858 -0.052497856 -0.033187274 -0.22773342 0.0057963748 0.10298501 -0.07958472 -0.05029385
-0.04975568 0.0070161456 -0.040415224 -0.0015689125 -0.007911855 -0.17780781 0.03881519 0.04451973
-0.23421279 -0.17156447 0.14726782 0.05139 -0.022222029 -0.12978618 -0.063223064 -0.358572
-0.1521054 0.03419586 -0.0032817067 0.034098346 -0.09601922 0.15453418 -0.077103995 -0.04935536
0.058168523 -0.13424544 0.21053132 -0.09582916 0.04835247 0.016726412 -0.12920463 -0.019059733
0.036633655 0.20012328 0.022270638 -0.036777068 -0.039321218 0.030217556 0.021206178 0.066704586

model.4.bias f4 [256]
00000000: ac22 aa3d 7076 7abd 9255 663d 7038 973c
00000010: e851 6d3a fc7e 4c3d 6bc0 87bd 1590 8b3d
00000020: c68d 773d 5f75 8b3d adf0 40bc 6505 4d3d
00000030: e0df d2bb 6f9c debc 8bfd a03c 103a 873d
00000040: b47d 94bd 9ba1 a03d 31be 2a3d baa2 f33b
00000050: af5c b7ba 2aef 693d 4f46 57bc 7a9b 203d
00000060: 3aa2 ef3c d5b9 823c 55ca 723d 5bc3 ac3d
00000070: 1e3c dc3c 1b11 9b3d ba78 893b 3120 fcbc
00000080: d3d9 513d fb12 723d 4036 2d3b 2d8c 4ebc
00000090: d58d 7b3d 1f29 7abd 9806 abbc c4e4 923d
000000a0: e5a4 00bc aee5 893d 38f2 ce3c d870 cc3c
000000b0: 778e 21bc 1394 c4bb 5597 0cbd 04b4 4cbd
000000c0: bfa1 8bbc 65e3 6e3d 387e 863d 53f4 1d3c
000000d0: d505 00bc 5b9a 00be 3cb8 4abc 5607 6f3b
000000e0: 06a8 443d 77ac d63d a01f 5dba 5c12 783c
000000f0: a785 4d3c d04a 9e3c 4da2 f13c 8638 343d
00000100: d7b3 843d ccdf fbbc 60a3 533d d5c9 f0bc
00000110: 9494 06bd deaf 953d f3f5 01ba 2051 84bd
00000120: de61 c0bc 86ae a3b9 fb02 c83d 99dc 9e3d
00000130: f029 fabc 8e6f e3bc cfcc 243d b371 cb3d
00000140: f907 b73d 5bfb 283d 54bc 4a3d 4e81 2e3d
00000150: 0e7f d9bb 41df 9b3d 8716 7b3d 3936 293d
00000160: f7fe 383d 5de0 9a3d ae71 93bd 51b0 d4bc
00000170: b069 883d a2b0 413d 1462 ccbd 460b 24bd
00000180: 4c74 2e3d 67d5 323d 1bd9 013d 20ec 183d
00000190: 57a5 823d bd42 38bd 9054 e13c 1ccf f2bc
000001a0: 05a5 46bb e1b4 b33d ddd4 503d a381 2a3d
000001b0: 287b c53d 9c50 e33c 571a 84ba 8dc7 0a3c
000001c0: b5b2 bc3c 3532 c53a e466 303b 2e3d 28bc
000001d0: dbc7 f5bc b525 6e3d afee 95bd a981 ab3c
000001e0: e027 bbbd dbee 3dbc cc75 7ebc 26aa c43d
000001f0: e5cd 713c 2f27 133d a894 1ebd acca 07bd
00000200: b915 a6bd d986 13bb 2e34 7fbd e1f8 633d
00000210: bc93 483d 993c 9e3a 0226 c8bd bd85 7ebd
00000220: 67e0 e6bc cdeb 4d3c 9c20 f73c 20a1 71bd
00000230: ba63 a4bd 419e 90bc 1d4a a63d c281 503d
00000240: eb4d d8bc d71b 873d 8160 e23c bf38 8abd
00000250: 1737 f73b 7c16 8cbd 4de7 c9bc c225 0f3d
00000260: ef01 8bbd bd59 023d ff2a 2bbd 2851 68bd
00000270: 0041 18bd dd2d f0bc 1ba4 403c f12c fe3b
00000280: 6f40 663d 05ab d93c 2b9c 663d 23ba 27bd
00000290: 1abf 923b afa0 2bbd c9b1 f8bb 313d 1c3c
000002a0: 7c28 a13d bef2 833d 073a 6d3d 5b3f 893d
000002b0: 95cb 523d fdc3 243d c9cc a4bd c624 96bd
000002c0: bb55 7fbd 6099 d63d 3f40 83bc 36a7 933d
000002d0: 9e59 cfbc aa48 4b3d 1302 87bc fcb1 9f3d
000002e0: 9b6c 5cbc c5f0 4fbc 623d 053d 6ce7 5ebd
000002f0: 0a1d 933d 03c4 893c 018c 47bc 6269 a23d
00000300: 67f2 023d 1150 353b 2684 823d b053 5a3d
00000310: ba84 5c3d e18c 693d bc72 40bd 1e52 473d
00000320: 8b54 3ebd 7747 053d fcae aa3b f54d 383d
00000330: 776d 0e3d a03d 92bd 34d6 54bd dc53 1bbd
00000340: 5816 be3d 0573 2bbc 6448 b0bc 9dd9 92bc
00000350: fa58 0a3d bd04 1a3d f54c 33bd 8fe9 e5bc
00000360: 8b58 abbc 22ca c33c 074a 8b3c bd95 2a3c
00000370: 6ec0 8b3d 57f6 133d 5c29 43bd d354 033d
00000380: a15d 8c3d cdc0 aebd 487f 2dbc 63c9 823d
00000390: a864 14bc 1597 aabd b5ce 943d 0fc3 d23d
000003a0: 191b 413d d73f 493d 4ef0 d3bc 73eb 2f3c
000003b0: e092 11bd 9e1c 083e 2ea1 abbc bc68 9f3c
000003c0: a386 883c 9e75 90bd 3f02 27bd 81fb 0b3d
000003d0: c7e2 743d 0465 af3c cc0d 39bd 2a76 aebc
000003e0: f165 36bd fe5c db3b cb0d cc3c dd74 a7bd
000003f0: 515a 4dbc 5263 ddbc 0794 dfbb 0250 8f3a
0.083073944 -0.061148107 0.05623395 0.018459529 0.00090530375 0.04992579 -0.06628498 0.06814591
0.06043794 0.06809496 -0.011776132 0.050053973 -0.0064353794 -0.027174203 0.019652149 0.066028714
-0.072505385 0.07843324 0.041685287 0.00743517 -0.0013989414 0.05711285 -0.0131393215 0.039210774
0.02925216 0.015957752 0.05927499 0.084356986 0.026884135 0.07571622 0.0041953 -0.030777069
0.051233124 0.059100132 0.002643004 -0.012606663 0.06141456 -0.061074372 -0.020877168 0.0717254
-0.007851814 0.06733261 0.025261983 0.024956152 -0.009860626 -0.005999097 -0.03432401 -0.049976364
-0.0170449 0.05832233 0.06567043 0.009640771 -0.00781389 -0.12558882 -0.012373026 0.0036472878
0.048011802 0.10482114 -0.00084351934 0.015141096 0.012544072 0.019322783 0.029496336 0.043999217
0.06479614 -0.030746363 0.05166948 -0.029393116 -0.03285654 0.07308935 -0.0004957609 -0.06460786
-0.023484167 -0.00031219813 0.097661935 0.077569194 -0.030537575 -0.027763154 0.040234383 0.09933796
0.089370675 0.041255336 0.04949601 0.042603783 -0.0066374606 0.07610942 0.06130078 0.041311476
0.04516503 0.07562325 -0.07199417 -0.02596298 0.06660783 0.04728759 -0.099796444 -0.040049814
0.042591378 0.043660548 0.03170119 0.03733456 0.06379192 -0.04498552 0.027506143 -0.029639773
-0.0030310762 0.08774734 0.050984252 0.041627537 0.09642631 0.027748398 -0.0010078651 0.008470428
0.023034433 0.001504487 0.0026916796 -0.010268493 -0.030002525 0.05814143 -0.07320916 0.02093585
-0.09138465 -0.011592592 -0.015531015 0.09602766 0.014758562 0.03592604 -0.03871599 -0.033152267
-0.08109612 -0.0022510795 -0.06230562 0.05565727 0.048969015 0.0012072503 -0.097728744 -0.06213926
-0.028183175 0.012568426 0.030166917 -0.05899155 -0.08026834 -0.017653586 0.08119605 0.050904997
-0.026404342 0.06597107 0.027633907 -0.06749105 0.007544409 -0.06840226 -0.024646426 0.034948118
-0.06787478 0.031823862 -0.04178905 -0.05671802 -0.037171364 -0.029318744 0.011757876 0.0077568223
0.056213792 0.026570806 0.056301277 -0.040949 0.0044783475 -0.041901287 -0.007589553 0.009536074
0.0786905 0.06442784 0.057916667 0.06701537 0.051463682 0.04022597 -0.08046872 -0.07331233
-0.06233762 0.10478473 -0.016021846 0.07209627 -0.025311287 0.049629845 -0.016480481 0.0779762
-0.013453628 -0.012691681 0.032529242 -0.05441992 0.07183273 0.016817098 -0.012179376 0.079302564
0.031969454 0.0027666132 0.063728616 0.053302467 0.053837515 0.05701912 -0.04698442 0.048662297
-0.046467345 0.032538857 0.005208848 0.04499622 0.034772363 -0.0714066 -0.051962093 -0.03792177
0.092816055 -0.0104644345 -0.021518894 -0.017926032 0.03377626 0.037602175 -0.043774564 -0.028065471
-0.020916244 0.023900095 0.017003072 0.010411677 0.068238124 0.0361236 -0.047646865 0.032063317
0.06853796 -0.085328676 -0.010589428 0.06386068 -0.009057201 -0.08329598 0.07265989 0.10291111
0.047144983 0.049133148 -0.025871422 0.010737288 -0.03554046 0.13292167 -0.02095088 0.01945912
0.016665762 -0.07053684 -0.040773626 0.0341754 0.059786584 0.021410473 -0.045179173 -0.02129658
-0.044530813 0.006694435 0.02490892 -0.08176587 -0.01253374 -0.027024899 -0.006823066 0.0010933878

model.6.weight f4 [16, 256]
00000000: 5a0a 63be 1aa5 193d dbb0 6cbd 1f18 6bbe
00000010: 6541 93be 2d79 b23c 3abe f63d 9cac 043f
00000020: 57c4 d7ba 23de 9b3b af56 5bbc a05c 2dbd
00000030: 4327 a8bd c897 fa3c 1f3d 2cbf e542 e73d
00000040: 572c d3bc 55eb 39be 3005 84be 23de 1f3d
00000050: 79df e33d affd 10be 2c00 3fbf 7986 3b3e
00000060: 6c6b c23c 12b7 ebbc 6868 c03d 5a00 ccbc
00000070: b63a 1dbd 7c63 47bd f32f adbd 4b11 a1bd
00000080: 3794 253e f7b7 4c3d 529c 0b3e 8fdd 6f3e
00000090: 957b c23d 5535 2e3e 1142 4bbd 057c 07be
000000a0: 1598 a73d ad26 1fbd eb92 4bbe 2735 063e
000000b0: b38c bcbc a338 af3d e0d8 293b 7b25 353d
000000c0: 28b5 90bd 3a92 573d 9ef7 353d 1b2e a93c
000000d0: cfeb 94bd 2a61 3c3e 0ffa 2f3e 44ef c43d
000000e0: d137 54bf e347 99bd a1d5 65bd 511a 5e3f
000000f0: 87c7 4dbd 8020 bc3c 34c0 62be ef1b ebbc
00000100: 774f dc3d 3200 3fbf eaea 643e e519 9c3d
00000110: cd05 71be 986d 8a3d 9ca5 44bd 4589 203f
00000120: 379a ccbd a990 b6b7 c644 9f3e 2ac1 983c
00000130: d02a 803c ab19 d53d cbd2 553d f1bd 593f
00000140: 3af6 1f3f 1683 8f3d f71f e43d a5cf 0bbd
00000150: 36b4 4f3e 089b 7ebe f766 c0be 702d f5bd
00000160: b3b7 a93d da08 91bd 9c53 113d 42c7 f7bd
00000170: 0f8c bfbc 3e07 0cbe c355 4c3c 2e25 4bbf
00000180: ecee 16bd e4f5 e03c cd95 663c 96d9 2d3d
00000190: e35b b63c 66a8 1e3c c440 c9bd fb21 e4bc
000001a0: a835 cfbe 3fce 64be 6b2e 353e 3b8f 223d
000001b0: 2730 b63d 1bdb 123d a1e9 90bc 2e12 61be
000001c0: b22f 1c3d 9461 5f3d bc49 b6bd dc8a 923d
000001d0: 685c b4bd 51ea 603d 8b77 2abd cf5e 17be
000001e0: 6cef aa3d 08ba e7bf fafa eebe da84 eabd
000001f0: f834 f3be 6b6c e7bd 3d4f 0c3e 34f1 16bd
00000200: c044 d7bb cb29 003f 1465 16bd 382d 63bd
00000210: 1764 133d d460 ecbd 5b6d f33c 7e48 c23c
00000220: 9c7a d03c 914e d13d b2e1 293e b929 2a3d
00000230: b966 4d3d cdbb c6bd 2796 0e3f 7a96 463f
00000240: 227a aabc 8d90 b1bd 9022 a8bf ea79 00be
00000250: ac90 a1bd 0cac 79be e05c 88be 0682 01bf
00000260: b913 8abd fbbe 8fbe a570 3dbd 9c39 04be
00000270: 85b5 b03d 3601 87bd 1376 9dbe 8c1f b6be
00000280: 237b 6ebe 523f 9d3d 7270 bdbb 88e6 f1bc
00000290: a1ec cb3c eada 11bc db06 993c 7305 dd3d
000002a0: 2dd8 40be e36e e33c ebe8 6ebe 76b5 31bd
000002b0: 9bca 3a3e 0f9b 16be cc60 01be d2bf 4b3d
000002c0: 49eb ccbb cf35 72bd 7398 fd3b 566a 7abd
000002d0: 9bf1 70be 03ff f9be 1865 88bc 79f3 11be
000002e0: da42 c3be 919b 0abe bc2a ad3c 3f5a a9bc
000002f0: 8b75 103e 900c 9abd 283e 25bb 7cab 66be
00000300: b9d8 7c3f 2bb7 b4bd 4916 b63c 87e2 7d3d
00000310: 031e 31bd 8501 71bc 617c 403d 6a4a 06be
00000320: cc3f b1bb a3ec b2bd 0a6d 22bf e0e7 9cbd
00000330: 4f74 49be 4f90 5dbd 105c f3be 96b2 b0be
00000340: c769 8fbd 0f54 033c b6c9 79bd 89c7 623c
00000350: 1742 76bd 7074 513d 8eb6 c93d 9f2a e03d
00000360: 480f 08bf c963 eabd 5f46 2c3d 8381 81bd
00000370: d726 34bf 5721 e53a ce5a 17bd 8d1e be3d
00000380: bdfd 863c af14 27bd f3d4 833e dbcd 5b3c
00000390: 45a9 1f3d 121f 60bd 5a1e 25be 690f 803e
000003a0: 30ce 8c3d 1728 443c fc42 d4bd 1f11 f8bc
000003b0: 563c dabd 2fc0 a4bc fa8b 4a3b 6c36 de3c
000003c0: aa49 3fbe 3cad 51bc 423d d8bc 2d4f 39bd
000003d0: 13bb 203f f248 2c3c 30d7 b23c a669 11be
000003e0: 2286 903c f110 fd3c ee3c 7e3b 49a1 9c3d
000003f0: ecd2 863c 07f9 483c e2a4 8cbd 3e3b a7be
-0.22171918 0.03751097 -0.05778585 -0.2295842 -0.2876083 0.021786297 0.120480016 0.5182588
-0.0016461712 0.0047567054 -0.013387366 -0.042324662 -0.082106136 0.030589953 -0.67280763 0.11292056
-0.025777979 -0.18156178 -0.25785208 0.039030205 0.111266084 -0.14159273 -0.7460964 0.18313016
0.023732863 -0.028773818 0.09394914 -0.024902511 -0.03838607 -0.04867886 -0.08456411 -0.078646265
0.1616982 0.04998013 0.1363385 0.23424362 0.09496228 0.17012532 -0.049623553 -0.13230903
0.08183304 -0.038855243 -0.19880264 0.13106214 -0.02301631 0.085557245 0.002591662 0.044225197
-0.07065803 0.052629687 0.0444256 0.020651868 -0.072715394 0.1839644 0.17185234 0.09615949
-0.8289767 -0.074844144 -0.056111936 0.86758906 -0.050239112 0.022964716 -0.22143632 -0.028699843
0.10757344 -0.74609673 0.22355238 0.076221265 -0.23537369 0.067591846 -0.0480095 0.62709457
-0.09990352 -2.1763453e-05 0.31107157 0.018646795 0.015645415 0.104052864 0.05220298 0.8505545
0.62485087 0.070074245 0.11138909 -0.034133572 0.20283589 -0.24863827 -0.37578556 -0.11971557
0.08286991 -0.070817664 0.035480127 -0.12098552 -0.023382215 -0.13674638 0.012471619 -0.79353607
-0.036848947 0.027461 0.014073801 0.042443834 0.022260612 0.009683704 -0.09826806 -0.027848234
-0.40470624 -0.22344302 0.17693488 0.039687376 0.08895903 0.035853487 -0.017689528 -0.21979591
0.038131423 0.054536417 -0.089007825 0.071553916 -0.088066876 0.05491096 -0.04161791 -0.1478226
0.08346447 -1.8103647 -0.46675855 -0.11451121 -0.4750135 -0.11299976 0.13702102 -0.036851123
-0.006569475 0.5006377 -0.03671749 -0.055463046 0.035984125 -0.11541906 0.02971523 0.023716208
0.02544909 0.102200635 0.16590002 0.041543696 0.050146792 -0.09703789 0.55697864 0.7757336
-0.02081019 -0.08670149 -1.3135548 -0.12546507 -0.07888922 -0.24382037 -0.26633358 -0.50589025
-0.06742043 -0.28075394 -0.046250004 -0.12912601 0.08628372 -0.06592028 -0.30754146 -0.35570943
-0.2328916 0.07678093 -0.005781227 -0.029528871 0.024893107 -0.008902291 0.018680027 0.10792055
-0.18832465 0.027762836 -0.23331039 -0.043385945 0.1824135 -0.14707588 -0.12634581 0.04974348
-0.006253634 -0.059133347 0.0077391206 -0.061136566 -0.23529665 -0.4882737 -0.016649768 -0.14253034
-0.3813694 -0.13535906 0.021138541 -0.020672916 0.14107339 -0.07521927 -0.002521405 -0.22526354
0.9876819 -0.08823999 0.022227423 0.06198361 -0.043241512 -0.014709835 0.046993617 -0.13114324
-0.0054092165 -0.08736541 -0.6344763 -0.07661414 -0.19673274 -0.0540927 -0.47531176 -0.3451125
-0.07002597 0.008015647 -0.060983382 0.013841518 -0.060121622 0.051136434 0.09849273 0.10945629
-0.5314832 -0.11444814 0.0420593 -0.063235305 -0.70371765 0.001748125 -0.036951832 0.09283171
0.016478414 -0.04079121 0.25748405 0.013415779 0.038979787 -0.05471713 -0.1612486 0.25011757
0.06875265 0.011972449 -0.10364339 -0.030281601 -0.106560394 -0.020111172 0.0030906186 0.02712556
-0.18680444 -0.01279765 -0.026396398 -0.045241524 0.6278545 0.010515438 0.021831125 -0.14200458
0.017642085 0.030891867 0.003879364 0.0764795 0.016457997 0.012266404 -0.068673864 -0.32662386

model.6.bias f4 [16]
00000000: b54c b93c c374 2abd 9e14 26bd b405 5c3d
00000010: 1e1d 1c3c 5999 73bd 97f3 f83d f393 c8bb
00000020: e061 d03b 260a a4bd af84 51bc 5dc3 81bd
00000030: d16a a4bd 8d15 413c 9309 24bd 91ac 08bd
0.022619585 -0.04161526 -0.040547006 0.053716376 0.009528426 -0.059472416 0.12155836 -0.0061211525
0.006359324 -0.08009748 -0.012787982 -0.06336091 -0.08028186 0.011784923 -0.040048193 -0.033367697
