data/checkpoints/rlgym-ppo-run-1760480632419795700/139044516/PPO_POLICY.pt (torch, 638775 bytes, 8 tensors)

model.0.weight f4 [256, 89]
0	0xbdd5a520	-0.10431886
1	0x3e8d2fde	0.27575582
2	0xbdb16ddf	-0.086635344
3	0x3dea312a	0.114351586
4	0xbc97d26c	-0.018532954
5	0xbd3e36be	-0.046438925
6	0xbdbd8925	-0.09254674
7	0xbd86fc25	-0.065910615
8	0xbdf6ca3c	-0.12050292
9	0x3d95cae7	0.07314091
10	0xbd13d821	-0.03609479
11	0xbd56adbb	-0.052411776
12	0xbdb65ef4	-0.089048296
13	0xbdd5db69	-0.1044224
14	0xbde4bc74	-0.11168757
15	0x3b886a26	0.0041630445
16	0xbd856486	-0.06513314
17	0x3d89ab3f	0.06722116
18	0xbd1aec06	-0.037822746
19	0x3cb39127	0.0219198
20	0x3d8225e4	0.06354883
21	0x3c139ca8	0.009009518
22	0x3c871d0b	0.016493341
23	0x3db63a86	0.08897881
24	0xbd815e9f	-0.06316876
25	0x3cad3d9c	0.021147542
26	0xbd780b7b	-0.060557824
27	0x3d8ac86a	0.06776507
28	0x3d8ad0c4	0.067781
29	0xbde0a2c6	-0.109685466
30	0x3dac986d	0.084275104
31	0x3d1b2043	0.037872564
32	0x3d027204	0.031847015
33	0x3ce4cae8	0.027928784
34	0x3d916334	0.070989996
35	0xbcf52890	-0.029926568
36	0xbdd5e578	-0.10444158
37	0xbd083ae8	-0.033259302
38	0xbdb8e5ab	-0.09028181
39	0xbbf54c80	-0.007485926
40	0xbcc828b0	-0.024433464
41	0xbd851622	-0.06498362
42	0xbcac4e75	-0.021033505
43	0x3db7ef2b	0.089811645
44	0xbc970104	-0.018433101
45	0xbc36be58	-0.01115378
46	0xbcc3aac0	-0.02388513
47	0x3b7f324f	0.0038939898
48	0x3daf051b	0.08545896
49	0x3d3e9936	0.046532832
50	0x3cffeae0	0.031239927
51	0x3e159427	0.14607297
52	0xbc81a291	-0.015824588
53	0x3d2583b1	0.040408794
54	0xbc45a2e8	-0.012062766
55	0xbddf0451	-0.10889495
56	0xbea6cd89	-0.32578686
57	0x3d8fa8c1	0.07014609
58	0x3c43ac87	0.011942989
59	0xbdd41f32	-0.103575125
60	0xbdd3c7f1	-0.1034087
61	0x3d7d0cca	0.061779775
62	0x3c87a4dc	0.016558103
63	0xbeb7d6b9	-0.35906008
64	0x3ce26392	0.02763537
65	0xbd80e757	-0.062941246
66	0xbe8326ae	-0.25615448
67	0xbd255c2d	-0.04037111
68	0xbd3a2c3c	-0.04545234
69	0x3d5156a6	0.051108025
70	0x3e16572a	0.14681688
71	0x3db0be0d	0.08629999
72	0xbd34d889	-0.044151817
73	0xbd96aff0	-0.07357776
74	0x3c3b8b5b	0.011446799
75	0x3d0e79a5	0.034783978
76	0xbc772ff3	-0.015087116
77	0xbd44e9bd	-0.048074473
78	0xbcb6d434	-0.022317983
79	0x3ddef2e5	0.10886172
80	0x3d2939a9	0.041314755
81	0x3ddbb6bd	0.10728214
82	0x3d0a6268	0.033785254
83	0xbd82fd88	-0.063960135
84	0xbd1a9c28	-0.03774658
85	0xbda8876e	-0.08228956
86	0xbd3ab929	-0.04558674
87	0x3dbb31a8	0.091403306
88	0x3b3d5660	0.0028890595
89	0x3d6de93d	0.05808376
90	0xbddda5e7	-0.10822659
91	0x3dff86d1	0.12476886
92	0x3d7e22e7	0.062045004
93	0xbd126271	-0.035738412
94	0x3e1477e4	0.1449886
95	0x3daeb8ac	0.08531317
96	0x3e56d365	0.20979078
97	0x3df103bc	0.117682904
98	0x3daa5411	0.08316816
99	0xbd5d7c50	-0.05407363
100	0x3d687996	0.05675658
101	0xbd8b8f54	-0.06814447
102	0x3cc4ba39	0.02401458
103	0xbdff44b1	-0.12464274
104	0xbd4d3222	-0.05009664
105	0xbcf77210	-0.030205756
106	0xbb6b9abe	-0.0035950388
107	0x3dad5ffc	0.08465573
108	0x3d2dca1e	0.042429082
109	0xbbfb401e	-0.0076675555
110	0x3d8138d6	0.06309669
111	0xbd87826f	-0.06616675
112	0x3d37d479	0.044880364
113	0xbcb375f2	-0.021906827
114	0xbceb9953	-0.028759634
115	0xb915e3b9	-0.0001429458
116	0xbdbe8b05	-0.093038596
117	0x3b4b05b0	0.0030978732
118	0x3cc81c1f	0.024427472
119	0x3da07189	0.07834155
120	0xbd253513	-0.04033382
121	0x3cfd6009	0.030929582
122	0x3dcb7239	0.099338956
123	0xbd4120a0	-0.047150254
124	0x3dbd0cb1	0.09230936
125	0xbd798c25	-0.060924668
126	0x3ce340f5	0.027740935
127	0x3d094ac0	0.033518553
128	0x3c9e818d	0.019348884
129	0x3d8f68ec	0.07002434
130	0xbd5fb710	-0.05461794
131	0x3c8e5e82	0.01737905
132	0xbc4143c4	-0.011795942
133	0xbdb382fa	-0.08765216
134	0xbd02fd0c	-0.031979606
135	0xbdbbac02	-0.09163667
136	0x3d0d322a	0.03447167
137	0xbb4eeb09	-0.0031573197
138	0x3b4aa7f1	0.0030922855
139	0xbd3cc69f	-0.046087857
140	0xbe1cd42d	-0.15315314
141	0xbde8093f	-0.113298886
142	0x3d728bbb	0.05921529
143	0x3e722f08	0.23650753
144	0x3d5f3a8f	0.054499205
145	0x3cad60b6	0.02116428
146	0xbd9f1344	-0.077673465
147	0xbd28d31a	-0.041216947
148	0xbd39cb56	-0.045359932
149	0x3c8bcdd3	0.017065918
150	0xbdf1a300	-0.11798668
151	0xbd5c3d44	-0.053769365
152	0x3db91e05	0.09038929
153	0x3d705dfa	0.058683373
154	0x3e66c02d	0.22534247
155	0x3e898a98	0.2686355
156	0xbccf53a6	-0.025308441
157	0xbccf14c1	-0.02527845
158	0xbdd4b5e5	-0.10386256
159	0x3e06d51e	0.13167235
160	0x3dddaa8b	0.10823544
161	0x3db8e225	0.09027509
162	0xbdbbc0a3	-0.09167602
163	0x3d26823b	0.04065154
164	0x3d80b4d5	0.06284491
165	0x3d952436	0.07282297
166	0x3d0ab1d9	0.033861015
167	0x3dd82ec9	0.105557986
168	0x3cc75cfc	0.02433633
169	0x3db25251	0.08707107
170	0xbd26adb5	-0.040693004
171	0xbd72f164	-0.05931224
172	0x3cbcc0ff	0.023041246
173	0xbcb5ec1b	-0.02220731
174	0xbc1954c4	-0.009358589
175	0xbd51355c	-0.051076278
176	0xbd78c8e9	-0.060738478
177	0xbdafc4e8	-0.08582479
178	0x3df09da3	0.11748817
179	0x3e7031ba	0.23456469
180	0x3d2b73a2	0.041858323
181	0x3dbc41be	0.09192227
182	0x3da40aa5	0.08009843
183	0xbd2c5ecd	-0.042082597
184	0xbe2c4668	-0.16823733
185	0xbb0091f9	-0.0019618256
186	0x3d3a4bab	0.04548232
187	0x3d61a91c	0.055092916
188	0x3df7c5df	0.12098288
189	0xbdbaad52	-0.091150895
190	0xbcf1195a	-0.029431034
191	0xbd97b5b0	-0.07407701
192	0xbdc6e613	-0.09711852
193	0x3d8d7ed4	0.06908956
194	0xbd7a8dab	-0.06117026
195	0xbd3ff049	-0.046860013
196	0x3d25cad5	0.04047664
197	0xbd7ff861	-0.062492732
198	0x3dc91e52	0.09820236
199	0x3d00cbbf	0.031444307
200	0xbcbd3316	-0.023095649
201	0x3c560d82	0.013064744
202	0x3ca6e799	0.020374106
203	0xbcf7b386	-0.03023697
204	0xbd9baab4	-0.076009184
205	0x3c37854d	0.011201215
206	0x3c5fa310	0.013649717
207	0x3c312f04	0.010814432
208	0xbc51b33b	-0.0127990795
209	0x3d95347b	0.072854005
210	0xbcbe9d16	-0.023268264
211	0xbbec4c09	-0.0072112125
212	0x3d55f6bc	0.052237257
213	0xbd766783	-0.06015731
214	0x3d1ae6ab	0.03781764
215	0xbc003255	-0.0078245
216	0x3d63eed6	0.055647694
217	0xbd4b880e	-0.0496903
218	0x3c764270	0.015030488
219	0x3c837090	0.016044885
220	0xbd9edb8d	-0.0775672
221	0xbd96377b	-0.07334801
222	0x3d453bbf	0.04815268
223	0xbcb2a74c	-0.021808289
224	0x3d8e05c6	0.06934695
225	0xbdced1ce	-0.10098611
226	0xbd343149	-0.043992314
227	0xbda24895	-0.07924
228	0x3d4b6fee	0.04966729
229	0x3d978f06	0.074003264
230	0xbdb97b72	-0.090567484
231	0xbdabcbcf	-0.08388483
232	0xbe4ac4d4	-0.19801646
233	0x3d3e165e	0.04640805
234	0xbc965009	-0.01834871
235	0xbda02509	-0.07819564
236	0x3d406547	0.046971586
237	0x3cc238ed	0.023708785
238	0xbd64c21c	-0.05584918
239	0x3db07461	0.086159475
240	0xbe8af6ff	-0.27141568
241	0x3c58aa83	0.013224247
242	0xbe751bf0	-0.23936439
243	0x3e7ba1d1	0.24573447
244	0x3e4cfac8	0.2001754
245	0x3e23ec76	0.16008171
246	0xbd82bf78	-0.06384176
247	0xbd23866d	-0.03992312
248	0x3ac2627a	0.0014830374
249	0x3d6d9c21	0.058010224
250	0x3d1f7fa9	0.038940106
251	0xbdd135eb	-0.10215362
252	0x3da10bdb	0.078635894
253	0xbd42c5ee	-0.04755204
254	0xbcdb34a5	-0.026758501
255	0xbd4ad79e	-0.049522035

model.0.bias f4 [256]
0	0xbd3f65c0	-0.046727896
1	0x3c9ed4a3	0.019388502
2	0xbd166f55	-0.03672727
3	0xbc1dc8ed	-0.009630424
4	0xbd8a65b8	-0.067576826
5	0xbd31e7c0	-0.043433905
6	0x3d80da90	0.062916875
7	0xbdb79340	-0.089636326
8	0x3d1a944e	0.03773909
9	0x3c9a9e2f	0.018874256
10	0x3d3bcc6f	0.04584926
11	0x3cc2817b	0.023743382
12	0x3d10b1d1	0.03532583
13	0x3c0d81c3	0.008636895
14	0x3dcbece2	0.09957291
15	0x3d9490c7	0.072541766
16	0x3d3da863	0.046303164
17	0x3d32cbbe	0.043651335
18	0x3d5cd371	0.053912584
19	0x3de8bcc6	0.11364131
20	0x3d071b3f	0.03298497
21	0x3bf238cb	0.007392024
22	0xbd2900e9	-0.041260634
23	0x3c28df8a	0.010307202
24	0x3d6a326d	0.057176996
25	0xbdebb5ea	-0.11509307
26	0xbdcc6bcf	-0.099815
27	0x3dbe6e68	0.09298402
28	0x3db55944	0.08854917
29	0x3db499d3	0.08818402
30	0xbdaf3693	-0.08555331
31	0x3dbbee79	0.091763444
32	0xbd929460	-0.071572065
33	0xbc74ce85	-0.014941816
34	0xbd9312c9	-0.07181317
35	0x3c34fcd3	0.011046606
36	0xbd91bd75	-0.07116214
37	0x3beb2111	0.0071755727
38	0x3daa0069	0.083008595
39	0x3ba70797	0.0050973403
40	0x3d11c84c	0.03559141
41	0x3c8a0fd4	0.01685325
42	0x3ce4ad00	0.027914524
43	0xbd2b7ead	-0.041868854
44	0x3da3bf01	0.079954155
45	0x3d63e941	0.05564237
46	0x3cccfe78	0.025023684
47	0xbd350be7	-0.044200804
48	0x3bf03677	0.0073307115
49	0x3c1cc68b	0.009568821
50	0x3d9b1ea3	0.07574203
51	0xbcbd4deb	-0.023108443
52	0xbd68171b	-0.05666266
53	0xbda175e0	-0.07883811
54	0xbc904871	-0.017612668
55	0xbd6d3481	-0.0579114
56	0xbdb403d2	-0.08789791
57	0xbda3e508	-0.080026686
58	0x3c8283ab	0.015931925
59	0x3b0bf440	0.00213553
60	0xbcfff060	-0.03124255
61	0xbde953a3	-0.113929056
62	0x3c36c8ac	0.011156242
63	0x3d9f08b0	0.07765329
64	0xbd69b17a	-0.05705402
65	0x3dc0d3a3	0.094153665
66	0xbccae00d	-0.024765039
67	0x3d8e0ad7	0.06935661
68	0xbcb88b8f	-0.022527484
69	0xbdcd7afc	-0.10033223
70	0xbd810026	-0.062988564
71	0x3d0d1cf0	0.034451425
72	0x3d6191e1	0.05507076
73	0xbdee2ec4	-0.116300136
74	0x3d91d159	0.07120008
75	0x3ceadea5	0.028670618
76	0x3d4e4443	0.05035807
77	0x3a8023df	0.0009776315
78	0xbd6b19f2	-0.05739779
79	0x3db35270	0.08755958
80	0xbbd0b8d3	-0.006369689
81	0xbdfb7e5e	-0.12279962
82	0x3b413910	0.0029483475
83	0xbd9f8c5f	-0.077904455
84	0xbd558d0d	-0.05213647
85	0xbdba8bcc	-0.091086954
86	0x3cf009ae	0.02930149
87	0xbdc488e9	-0.09596426
88	0xbd82d85a	-0.06388922
89	0xbd084c93	-0.033276152
90	0xbda526f8	-0.08064073
91	0xbdc4e13f	-0.09613275
92	0xbd83c427	-0.064338975
93	0xbd43c1da	-0.047792293
94	0xbdf01b49	-0.11723954
95	0xbdaa94af	-0.083291404
96	0xbdb087a3	-0.08619621
97	0x3d867045	0.065643825
98	0xbdc05840	-0.09391832
99	0x3cdf0e41	0.027228476
100	0xbc43777b	-0.011930342
101	0xbda575f4	-0.080791384
102	0xbce60823	-0.028080052
103	0x3c45d18b	0.012073885
104	0x3dccf7d3	0.10008206
105	0xbcfb3e5a	-0.03066938
106	0x3db65d7d	0.0890455
107	0x3d587a10	0.052850783
108	0x3d1589c8	0.03650835
109	0x3c821b1e	0.015882071
110	0xbd417a75	-0.047235925
111	0xbb9a95dd	-0.004717572
112	0xbd3bfe71	-0.04589695
113	0x3d11c1b1	0.03558511
114	0x3d90ee4d	0.07076702
115	0x3d4832c1	0.048876528
116	0xbd639f19	-0.05557165
117	0x3c92be1a	0.017912913
118	0x3d7616a5	0.06008019
119	0x3d56ef82	0.052474506
120	0xbcb9954e	-0.022654202
121	0x3d9f776b	0.07786449
122	0xbdadc26a	-0.08484347
123	0xbdc31bf8	-0.09526819
124	0xbda9f6c2	-0.082990184
125	0x3c717a91	0.014738695
126	0xbcf29b6f	-0.029615132
127	0x3d64b8ab	0.055840176
128	0x3c4024f9	0.011727565
129	0x3c90def6	0.017684441
130	0x3b52e56e	0.0032180208
131	0x3d343d05	0.044003505
132	0x3d4f459c	0.050603494
133	0x3d892bb5	0.066977896
134	0x3bc7a332	0.0060924524
135	0x3d8d0649	0.068859644
136	0x3db58443	0.088631175
137	0x3bd30358	0.0064396076
138	0x3c186c87	0.009303219
139	0xbd52b50b	-0.051442187
140	0x3de04689	0.109509535
141	0x3c831b09	0.016004102
142	0xbdd063f7	-0.10175317
143	0xbd287c11	-0.041133944
144	0xbd22aa9a	-0.03971348
145	0xbcac4561	-0.021029176
146	0xbda4120e	-0.08011256
147	0xbd2aea2d	-0.041727234
148	0xbdcb40ab	-0.09924444
149	0xbc837ee4	-0.016051717
150	0xbdd02e52	-0.10165085
151	0x3d2fa69e	0.042883508
152	0xbc082192	-0.008308785
153	0xbdac0435	-0.0839924
154	0x3cbff5e7	0.023432685
155	0x3d532026	0.05154433
156	0xbd11fcb0	-0.035641372
157	0xbdb7e41f	-0.089790575
158	0x3de4e1ee	0.11175905
159	0xbd47645c	-0.048679695
160	0x3cd169c4	0.025563128
161	0xbdac2aa5	-0.08406571
162	0xbdab969c	-0.08378336
163	0xbc7b2186	-0.015327817
164	0xbd31715c	-0.043321
165	0xbd60db38	-0.054896563
166	0xbdc19d37	-0.094538145
167	0x3d2d0960	0.04224527
168	0xbdee15f9	-0.11625285
169	0xbd3e7dfa	-0.04650686
170	0xbdab3400	-0.083595276
171	0xbdddfb83	-0.10838988
172	0x3ce8a1c6	0.028397452
173	0xbd760499	-0.06006298
174	0x3d4388e8	0.047737986
175	0xbdcb03e7	-0.09912854
176	0xbd8bd67b	-0.06828018
177	0x3d24c603	0.0402279
178	0x3cc3b985	0.023892174
179	0x3dc3de00	0.095638275
180	0x3d52a7b9	0.051429484
181	0xbda56dae	-0.0807756
182	0x3c484084	0.012222413
183	0x3ccdaa8b	0.025105735
184	0xbc91c2d0	-0.01779309
185	0x3db21695	0.086957134
186	0x3d78c63d	0.06073593
187	0x3d6a7e6a	0.057249464
188	0xbdbb285c	-0.09138557
189	0xbd2022c8	-0.03909567
190	0xbddffa7d	-0.10936449
191	0xbd4029ca	-0.046914853
192	0x3cd6dcd2	0.026228342
193	0xbd64de44	-0.05587603
194	0x3dd7ff1d	0.10546706
195	0xbc2f74ef	-0.0107090315
196	0xbc0eea9f	-0.00872293
197	0xbced2bf6	-0.028951626
198	0xbdb02bfe	-0.08602141
199	0x3c828964	0.015934654
200	0x3daf3526	0.08555059
201	0x3daed3e4	0.08536509
202	0x3cb4394d	0.02199998
203	0x3d1e608f	0.038666304
204	0xbd178e4f	-0.03700095
205	0x3bfd8de6	0.007737863
206	0x3db54433	0.088508986
207	0xbd0f16bc	-0.03493379
208	0x3d671388	0.05641511
209	0x3d95e341	0.07318736
210	0x3cd6a90c	0.026203655
211	0xbdda8912	-0.10670675
212	0x3d82b914	0.06382957
213	0xbddfb7f2	-0.10923757
214	0x3d03483c	0.03205131
215	0x3d48e477	0.049046006
216	0xbdb1c8a9	-0.08680851
217	0xbdbb4d71	-0.0914563
218	0xbda5200b	-0.08062752
219	0x3d9f0385	0.07764343
220	0xbd71901a	-0.058975317
221	0xbd9692d3	-0.07352223
222	0xbc988131	-0.01861629
223	0x3c7463c5	0.014916365
224	0xbd319fca	-0.043365277
225	0xbd994c48	-0.074852526
226	0xbdb3bc14	-0.087761074
227	0x3d1570a7	0.036484387
228	0xbd563d25	-0.052304406
229	0xbda45e02	-0.08025743
230	0xbd814a39	-0.06312985
231	0xbca94576	-0.020663004
232	0xbd53d2ae	-0.05171459
233	0xbc32d7f8	-0.010915749
234	0x3bcc6990	0.00623817
235	0x3dbe31d4	0.09286848
236	0x3db413ce	0.0879284
237	0x3cde8059	0.02716081
238	0xbd70574f	-0.058677014
239	0x3cd3e470	0.025865763
240	0xbd70e35d	-0.05881058
241	0x3da0e1a8	0.078555405
242	0x3c0cedcf	0.00860162
243	0xbccd1c36	-0.025037866
244	0x3db1cef1	0.08682049
245	0xbc39a33c	-0.011330422
246	0xbd1c826c	-0.038210317
247	0x3bea5655	0.007151405
248	0x3dcfd18a	0.10147388
249	0xbdc205f0	-0.09473789
250	0xbd2dbe23	-0.042417657
251	0xbd44dd58	-0.048062652
252	0x3d76efac	0.060287163
253	0x3de59df6	0.11211769
254	0x3dac5e9b	0.08416482
255	0x3da0f503	0.07859232

model.2.weight f4 [256, 256]
0	0xbdfd6c7d	-0.12374208
1	0x3d5a283c	0.053261027
2	0xbd3c755b	-0.046010356
3	0x3c31b8c9	0.010847279
4	0xbd572627	-0.05252662
5	0x3d55f843	0.052238714
6	0xbd58aff3	-0.052902173
7	0xbd04ed40	-0.03245282
8	0x3cb9b80b	0.022670766
9	0x3d9f337f	0.07773494
10	0xbd0c41e2	-0.03424252
11	0xbc28d19a	-0.010303879
12	0xbe0c85ae	-0.1372287
13	0xbd83119e	-0.063998446
14	0xbd3f344f	-0.046680745
15	0x3cddd329	0.027078228
16	0x3bb30dff	0.005464315
17	0x3caf5edf	0.021407543
18	0x3d91ebb3	0.07125034
19	0xbd417a11	-0.047235552
20	0x3ce424cd	0.02784958
21	0xbd8462a3	-0.06464126
22	0xbd356353	-0.044284176
23	0xbd603d90	-0.05474621
24	0xbd3ad3fa	-0.045612313
25	0xbd0b6e39	-0.034040663
26	0xbcf41b70	-0.02979824
27	0xbd099446	-0.03358867
28	0x3cdd5ebc	0.027022712
29	0x3c143f07	0.00904823
30	0x3d83e40c	0.06439981
31	0x3d8b6cf9	0.06807894
32	0x3c83be73	0.016082024
33	0x3d281ee9	0.041045103
34	0xbd891eb0	-0.06695306
35	0x3cb15818	0.021648452
36	0x3d3df1ff	0.046373364
37	0xbd3f6177	-0.04672381
38	0xbcc408af	-0.023929922
39	0xbd9a6206	-0.07538228
40	0xbd26f8ae	-0.040764503
41	0xbdbf7402	-0.093482986
42	0x3d77dbf1	0.060512487
43	0x3bcf88de	0.0063334545
44	0xbc3eb64c	-0.011640143
45	0xbdaf4323	-0.08557727
46	0x3bc4f65d	0.006010814
47	0x3cdb6061	0.026779355
48	0xbc454ff8	-0.012042992
49	0xbcd83a3e	-0.02639496
50	0x3c81a7bf	0.015827058
51	0xbd11f918	-0.035637945
52	0x3d480d7d	0.04884099
53	0x3c035309	0.008015403
54	0xbd7bbc78	-0.061459035
55	0x3d5912e4	0.05299653
56	0xbce2bd05	-0.027678022
57	0x3d6c545c	0.05769764
58	0xbdbaaef4	-0.09115401
59	0x3d9e7386	0.07736878
60	0xbced2ca5	-0.028951952
61	0x3d6f4be8	0.058422
62	0x3cb37ca0	0.021910012
63	0x3dc0a596	0.09406583
64	0xbd89fae0	-0.06737304
65	0xbc102c62	-0.008799644
66	0x3dc4ded3	0.09612813
67	0x3d0d447c	0.03448914
68	0x3d2a0d68	0.04151669
69	0xbc5f38b2	-0.013624357
70	0xbd99a32c	-0.07501826
71	0xbc1aefc6	-0.0094565805
72	0xbc826476	-0.015917044
73	0x3d3a9cbf	0.04555964
74	0xbd871ef8	-0.06597704
75	0x3d752fee	0.059860162
76	0x3d7a2789	0.06107286
77	0xbe3fc8a9	-0.1872889
78	0x3d928c70	0.071556926
79	0xbd8c73fd	-0.068580605
80	0x3d577750	0.05260402
81	0xbd593d3c	-0.053036913
82	0x3bc27ae5	0.0059350603
83	0xbd3b81ee	-0.045778207
84	0x3c847e32	0.016173456
85	0x3d5b01f5	0.053468663
86	0xbd21b9ec	-0.03948395
87	0xbd27677e	-0.040870182
88	0xbcf9fee6	-0.030517053
89	0x3d7b9da4	0.061429635
90	0xbd0c21dc	-0.03421198
91	0x3bfb862d	0.007675907
92	0xbd89e1c3	-0.06732514
93	0xbcf3c54d	-0.029757166
94	0xbd0c03b9	-0.034183238
95	0x3d0b920f	0.03407484
96	0x3d062595	0.032750685
97	0xbdefc89c	-0.11708185
98	0xbb58c7ca	-0.0033078068
99	0x3d072f5a	0.033004142
100	0x3c9917e4	0.01868815
101	0xbd98b4c8	-0.07456356
102	0x3cd4ae66	0.025962066
103	0x3d2c50a4	0.042069092
104	0xbdf7f0f1	-0.12106503
105	0x3c25ae8f	0.010112419
106	0x3beb0511	0.007172235
107	0x3a9d833c	0.001201726
108	0x3d5418b6	0.05178138
109	0x3d4d1151	0.050065342
110	0x3dacb1d5	0.08432356
111	0xbce14075	-0.027496556
112	0xbd97ff54	-0.07421747
113	0x3d60a1bf	0.054841753
114	0xbd94ef46	-0.072722
115	0xbd86de4f	-0.06585371
116	0x3d969f27	0.07354575
117	0x3e728b05	0.23685844
118	0x3d24446f	0.040104326
119	0x3c89564d	0.016764784
120	0xbcefc2ca	-0.029267687
121	0xbd993551	-0.074808724
122	0x3da1b82c	0.07896456
123	0x3d51be07	0.051206615
124	0xbd20d34a	-0.039264
125	0x3da577d3	0.08079495
126	0xbc85e5ab	-0.016344866
127	0xbcfd6a77	-0.030934555
128	0x3bc6138d	0.006044811
129	0x3d72b6df	0.05925643
130	0xbd355056	-0.044266067
131	0xba0a8be9	-0.00052851305
132	0xbd23993b	-0.039941054
133	0x3d7da2c4	0.061922804
134	0x3d6fff11	0.05859286
135	0x3ca08c67	0.019598199
136	0xbcdbd770	-0.026836127
137	0x3dd89f5e	0.10577272
138	0x3caee6be	0.02135026
139	0xbd0bb5a0	-0.034108758
140	0xbc95a488	-0.018266931
141	0xbd8fbe0c	-0.070186704
142	0x3d2c8f0b	0.042128604
143	0xbce48374	-0.027894713
144	0x3bb9babb	0.005668012
145	0xbd3f832d	-0.04675596
146	0xbce53ea8	-0.027983978
147	0x3cb0e0e2	0.021591607
148	0x3d5c437e	0.053775303
149	0xbd699153	-0.057023358
150	0xbc54a0f4	-0.012977827
151	0xbd814de6	-0.06313686
152	0xbd3c8e16	-0.04603394
153	0xbc98bfb3	-0.018646097
154	0xba7405cb	-0.00093087245
155	0x3d972b0e	0.07381259
156	0xbcecb8bd	-0.028896684
157	0xbdb08adc	-0.08620235
158	0x3db5c31e	0.08875106
159	0xbd47eb95	-0.048808653
160	0xbd7a95ae	-0.061177902
161	0xbe305d69	-0.17223133
162	0x3cff90c6	0.031196963
163	0x3cd71cdc	0.026258878
164	0xbdb7367e	-0.089459404
165	0xbd6a7e83	-0.057249557
166	0xbe1cf12c	-0.15326375
167	0xbcf87700	-0.030330181
168	0x3c36f90f	0.011167779
169	0xbe057ea9	-0.13036598
170	0xbd7167d0	-0.058936894
171	0x3d660eb9	0.056166384
172	0x3d8f643c	0.0700154
173	0x3d5259be	0.051355116
174	0x3d97daa0	0.07414746
175	0xbd77bd1d	-0.060483087
176	0x3d192ca7	0.0373961
177	0x3d1a7e35	0.037718017
178	0x3c0eff93	0.008727926
179	0xbd12f0b5	-0.035874087
180	0xbd237382	-0.03990508
181	0xba879b07	-0.0010345884
182	0xbd805eab	-0.062680565
183	0xbe07c1e7	-0.13257562
184	0x3b8c7f44	0.004287632
185	0xbcf8141f	-0.030283032
186	0x3d65dbc5	0.05611779
187	0xbc2271f1	-0.009914861
188	0x3da2c394	0.0794746
189	0xbbafc851	-0.0053644557
190	0xbc8a7eb7	-0.016906125
191	0xbd54d34a	-0.051959313
192	0x3d977991	0.07396234
193	0x3c287adb	0.010283197
194	0xbe0bfbb5	-0.13670237
195	0xbd60e84f	-0.054909047
196	0xbd912f2e	-0.07089077
197	0x3cf93fab	0.030425867
198	0xbd090650	-0.033453286
199	0x3c877778	0.01653646
200	0xbcfeae28	-0.031088904
201	0x3d814ff3	0.06314077
202	0x3baf0dec	0.005342236
203	0x3b9f2b53	0.0048574596
204	0x3db14e6b	0.08657535
205	0xbd1c7c9f	-0.038204785
206	0x3d514f83	0.05110122
207	0x3d3980db	0.0452889
208	0x3c210e30	0.009830043
209	0xbc8c86e9	-0.017154174
210	0xbd461173	-0.048356485
211	0x3d710b9b	0.05884896
212	0x3dc5eb33	0.09664001
213	0x3cac6d16	0.02104811
214	0x3cd9d7b5	0.026592115
215	0xbb8e94aa	-0.004351218
216	0xbdf8825d	-0.1213424
217	0xbceb0ca5	-0.028692553
218	0x3b3025bc	0.002687796
219	0x3cd218be	0.025646564
220	0x3d1cfc3d	0.03832649
221	0xbd41aea7	-0.047285702
222	0x3b5ac0ea	0.0033379146
223	0xbdb85500	-0.090005875
224	0x3c791bba	0.015204364
225	0xbd0b8864	-0.03406562
226	0x3c9ca005	0.019119272
227	0x3ae716ff	0.0017630755
228	0xbdd5b36b	-0.10434612
229	0x3b87e508	0.0041471757
230	0x3b143ee5	0.0022620496
231	0xbc1bc2f3	-0.009506929
232	0xbe36d3ed	-0.17854281
233	0x3c43c680	0.011949182
234	0xbdc07dda	-0.09399004
235	0x3d6cd3e3	0.05781926
236	0xbd1fa614	-0.038976744
237	0xbdd567f1	-0.10420216
238	0xbdd07cb5	-0.10180036
239	0x3c8bf658	0.01708524
240	0x3c6cc9a6	0.014452374
241	0x3d8909f9	0.06691355
242	0xbd6dd04f	-0.058059987
243	0x3d300b84	0.042979732
244	0x3b1ba850	0.0023751445
245	0x3ca5c150	0.02023378
246	0x3c99f89d	0.018795306
247	0xbda89bae	-0.082328185
248	0x3ced9ea9	0.02900632
249	0x3cdcba6d	0.026944363
250	0x3b09ab73	0.0021006733
251	0xbd69777c	-0.056998715
252	0x3d6f0333	0.05835266
253	0x3a99f613	0.001174631
254	0x3d16d3f0	0.036823213
255	0xbd5a1e91	-0.053251807

model.2.bias f4 [256]
0	0x3d25d159	0.040482853
1	0x3d69aa74	0.057047322
2	0xbd73112a	-0.05934254
3	0xbcf02fc5	-0.029319653
4	0xbd130981	-0.035897736
5	0x3d1a6d00	0.037701607
6	0x3d3da214	0.046297148
7	0xbd423997	-0.047418203
8	0x3d4b3f4c	0.04962091
9	0xbcaadab9	-0.020856248
10	0x3ca8852a	0.02057131
11	0xbd824530	-0.06360853
12	0x3d4beaa1	0.049784306
13	0xbcd4616b	-0.025925359
14	0x3d6c3e4c	0.0576766
15	0x3cdc3e13	0.026885068
16	0xbcf03cdf	-0.0293259
17	0xbc9911dd	-0.018685276
18	0x3d09a04c	0.033600137
19	0x3be0da7f	0.0068619843
20	0x3c92208e	0.017837789
21	0xbce95f78	-0.028487906
22	0x3d0372aa	0.032091774
23	0xbbdfab5c	-0.0068258476
24	0x3ca36905	0.019947538
25	0xbca51eaa	-0.020156223
26	0x3d30ad61	0.043134097
27	0x3d3930d0	0.045212567
28	0x3ca2ca69	0.019871907
29	0xbcee4b3e	-0.029088613
30	0xbbe478a5	-0.0069723898
31	0xbc7c4455	-0.015397151
32	0x3c8393e1	0.016061725
33	0xbcb034dc	-0.02150958
34	0xbd1939c3	-0.0374086
35	0x3d82cc51	0.063866265
36	0x3bbec406	0.0058217077
37	0x3c9dffa0	0.01928693
38	0xbd19b8aa	-0.037529625
39	0x3d27009f	0.040772077
40	0xbd85137d	-0.06497858
41	0x3d0f0548	0.034917146
42	0x393261aa	0.00017011786
43	0xb91dfe02	-0.00015067312
44	0xbcd5f45e	-0.0261175
45	0x3d4223c0	0.047397375
46	0xbca5969d	-0.02021342
47	0x3cd92118	0.026505038
48	0xbc978ad6	-0.01849882
49	0x3d812b81	0.06307126
50	0x3cc5a590	0.024126798
51	0x3d77bcac	0.060482666
52	0xbd36ab64	-0.044597045
53	0x3d39a13b	0.045319777
54	0x3d7e91df	0.062150832
55	0xbccf75e9	-0.025324779
56	0x3d14c93f	0.036324736
57	0x3c88c6e2	0.016696397
58	0x3ccb8174	0.024842001
59	0xba61184b	-0.0008586689
60	0x3c967c26	0.018369745
61	0x39a9c81c	0.00032383285
62	0xbd1caffa	-0.03825376
63	0x3a116541	0.0005546399
64	0x3b9e9598	0.0048396103
65	0x3d269d1a	0.040677167
66	0xbcaa3b07	-0.0207801
67	0x3d29fb04	0.041499153
68	0xbc6da69b	-0.014505054
69	0x3d535727	0.051596787
70	0x3d7b53f9	0.06135938
71	0x3bdbf6d0	0.006712772
72	0xbd090491	-0.03345162
73	0xbd609382	-0.054828174
74	0x3d256d31	0.040387336
75	0xbbcd07a2	-0.0062570134
76	0xbb399b5a	-0.0028321357
77	0x3d94af5b	0.07260009
78	0x3c99ce09	0.018775003
79	0xbd811e9c	-0.063046664
80	0xbd4422ac	-0.04788463
81	0xbd67784e	-0.056511216
82	0x3d40d2ec	0.04707615
83	0x3c0f7063	0.008754822
84	0xbc1747c3	-0.009233418
85	0xbcaef7fd	-0.021358484
86	0xbd582a1d	-0.052774537
87	0xbcc05735	-0.023479084
88	0x3d4f3a56	0.050592743
89	0x3d275c23	0.040859353
90	0x3afcd2c0	0.0019288883
91	0xbd355366	-0.044268988
92	0x3be4588a	0.0069685625
93	0xbcdc4916	-0.026890319
94	0x3cc240ac	0.023712479
95	0x3c8726d4	0.016498007
96	0x3d0db755	0.034598667
97	0x3d1be403	0.038059246
98	0x3c3bd1dc	0.011463609
99	0x3b1f08f2	0.0024266806
100	0xbd302a20	-0.043008924
101	0x3d03fe53	0.032224964
102	0xbd38143f	-0.044941183
103	0xbd933c11	-0.07189191
104	0x3d0fc80b	0.035102885
105	0xbd39c5ba	-0.045354582
106	0xbc6b87a2	-0.014375599
107	0xbd5d8486	-0.054081462
108	0xbb8784a0	-0.004135683
109	0x3c13996d	0.0090087475
110	0x3bbdce0f	0.0057923864
111	0xbd4b7c0d	-0.04967885
112	0x3d0541da	0.032533504
113	0x3c31d3d0	0.010853723
114	0x3d62033c	0.055178866
115	0x3ca23726	0.019801687
116	0x3ca98ea7	0.020697905
117	0xbd5a948e	-0.05336433
118	0x3ad9ba70	0.0016611349
119	0xbce9e565	-0.028551767
120	0x3d0de90d	0.034646083
121	0xbd294e8d	-0.041334677
122	0x3cda8fe0	0.026679933
123	0x3d13612a	0.035981335
124	0xbb15c98a	-0.0022855722
125	0x3d08eded	0.03343003
126	0x3cbb9f61	0.022903146
127	0x3cdbf9cc	0.02685251
128	0xbc9ed2ae	-0.01938757
129	0xbd5137ca	-0.051078595
130	0xbbf9f4d7	-0.007628064
131	0xbbc51825	-0.006014841
132	0x3d6d0099	0.057861898
133	0xbd65abd9	-0.05607209
134	0xbd022db8	-0.031781882
135	0xbcb19ded	-0.02168175
136	0x3d4c8527	0.04993167
137	0xbd582077	-0.052765336
138	0xbc869cf6	-0.016432267
139	0x3d541509	0.051777873
140	0x3c86bca9	0.016447382
141	0x3d9f6554	0.07782999
142	0xbd404fbf	-0.04695105
143	0xbd76d8ca	-0.06026534
144	0xbc0bf921	-0.008543284
145	0x3c9ec2cd	0.019379998
146	0x3d367191	0.0445419
147	0xbcc5eaed	-0.024159873
148	0xbd60afbe	-0.0548551
149	0xbca6bbd6	-0.020353239
150	0x3c00dcb2	0.007865118
151	0xbd5de8b8	-0.054177016
152	0xbda55a2a	-0.08073838
153	0xbaf414a1	-0.001862187
154	0xbce14878	-0.027500376
155	0x3d59b655	0.0531524
156	0x3d312390	0.043246806
157	0x3d277c0c	0.040889785
158	0xbce5269e	-0.027972516
159	0xbd75a5d9	-0.059972618
160	0xbd1bf95d	-0.03807961
161	0xbcacb29e	-0.021081265
162	0x3d17f19d	0.037095655
163	0x3bb67c89	0.005569045
164	0xbc6391af	-0.013889714
165	0xbc322c5e	-0.010874836
166	0xbc62be01	-0.013839246
167	0x3d4fe650	0.050756752
168	0x3d47e602	0.048803337
169	0xba002e10	-0.00048896763
170	0xbd0d0a09	-0.0344334
171	0x3d36022d	0.04443567
172	0x3ccde39a	0.025132943
173	0xbd41aee0	-0.047285914
174	0x3d1b60f7	0.03793427
175	0xbc87f420	-0.0165959
176	0xbd25da90	-0.04049164
177	0x3d172e07	0.03690913
178	0x3d20b3fb	0.039234143
179	0x3caf75e8	0.021418527
180	0xbc2e44c7	-0.010636515
181	0x3d092ecd	0.0334919
182	0xbd484b34	-0.048899844
183	0x3d842ee2	0.06454255
184	0xbcc7ef34	-0.024406053
185	0xbc6d13eb	-0.014470081
186	0x3d246b2a	0.040141262
187	0xbd8d7b9b	-0.069083415
188	0x3d0caf37	0.034346785
189	0x3c7e4529	0.015519419
190	0xbcd32183	-0.025772816
191	0x3b28cfa8	0.0025758538
192	0xbd0bef66	-0.034163855
193	0x3c16b000	0.009197235
194	0xbd91c077	-0.07116788
195	0xbd6edd58	-0.05831656
196	0x390e7525	0.00013585815
197	0xbb586be1	-0.0033023285
198	0x3ccb5b10	0.024823695
199	0xbcb21587	-0.02173878
200	0x3d5decb7	0.054180827
201	0x3d23372a	0.03984753
202	0x3d496f49	0.049178395
203	0xbd19678c	-0.037452266
204	0x3d640dd6	0.055677257
205	0x3cdc9f98	0.026931569
206	0x3b44725f	0.0029975397
207	0xbb997023	-0.004682557
208	0xbd2c4d71	-0.04206604
209	0xbc98d8fb	-0.018658152
210	0xbc87b0ae	-0.01656374
211	0xbd840bbf	-0.06447553
212	0xbd5a0858	-0.053230613
213	0xbd6800d5	-0.05664142
214	0x3d3b8e7c	0.04579018
215	0xbbea14a9	-0.007143576
216	0x3d05b237	0.032640662
217	0xbc32fc63	-0.0109244315
218	0xbd10eead	-0.03538387
219	0x3aa90a56	0.0012896757
220	0xbd4b1980	-0.049584866
221	0x3cc21d6d	0.023695672
222	0x3d073708	0.033011466
223	0xbc3be0ff	-0.0114672175
224	0xbccb3e85	-0.024810085
225	0xbd629407	-0.05531695
226	0x3d80fef7	0.06298631
227	0xbd3e4ce4	-0.046460047
228	0x3d06bf53	0.032897305
229	0xbcff9ebd	-0.031203622
230	0xbd35363a	-0.044241168
231	0x3d3077a1	0.043082837
232	0x3b0cf635	0.0021509056
233	0x3c405470	0.0117388815
234	0x3d12dfde	0.035858028
235	0x3d2f1b24	0.042750493
236	0x3c9e0444	0.019289143
237	0xbd7c9a73	-0.06167073
238	0xbc9f17d0	-0.019420534
239	0x3c8106bd	0.015750283
240	0x3d4fab0a	0.050700225
241	0x3d02e06a	0.0319523
242	0xbbf73185	-0.007543745
243	0xbc543b0c	-0.012953531
244	0x3cc70587	0.024294628
245	0x3ceafbc8	0.028684512
246	0xbcadf4f4	-0.021234967
247	0x3d18e119	0.037324045
248	0x3db21c30	0.086967826
249	0x3cea776d	0.0286214
250	0xbac185be	-0.001476459
251	0x3c9d09b5	0.019169668
252	0xbbfe2835	-0.007756258
253	0x3d291aa6	0.04128518
254	0x3c0a7db1	0.008452819
255	0x3bd8c143	0.0066148355

model.4.weight f4 [256, 256]
0	0x3df5c55c	0.12000534
1	0x3c9000de	0.017578539
2	0x3cf3129d	0.029671961
3	0x3b921eb4	0.0044592265
4	0xbd1dc2ff	-0.03851604
5	0xbcff7cf7	-0.031187518
6	0xbc21cdec	-0.009875756
7	0xbc8499b6	-0.016186576
8	0xbdd5fb33	-0.10448303
9	0x3d1efeaa	0.038817085
10	0x3d38f595	0.04515608
11	0xbd64f65a	-0.055899
12	0xbe081c1f	-0.13291977
13	0x3d175688	0.036947757
14	0xbbb88c1d	-0.005631937
15	0xbc359841	-0.011083663
16	0xbd785c3a	-0.06063483
17	0xbd84fec8	-0.06493908
18	0xbc74052d	-0.014893812
19	0x3d2b20be	0.041779272
20	0x3d04a270	0.032381475
21	0xbd8cc64f	-0.06873762
22	0x3d1db20b	0.038499873
23	0xb9bcbee4	-0.0003600038
24	0xbc7cda07	-0.015432841
25	0x3cd3d95c	0.025860481
26	0x3d84b869	0.06480486
27	0x3d21c175	0.039491136
28	0x3c96c565	0.018404672
29	0x3d3b08ce	0.045662694
30	0xbd772960	-0.060342193
31	0x3d36aafa	0.04459665
32	0xbd0e8623	-0.03479589
33	0xbc8daad7	-0.017293377
34	0x3d886a6b	0.066609226
35	0x3d870ae6	0.065938756
36	0x3d387492	0.045033045
37	0xbd86f9db	-0.06590625
38	0x3d7a06bc	0.06104158
39	0xbbe258f5	-0.006907577
40	0xbd0a72a1	-0.033800725
41	0xbbd80b11	-0.006593116
42	0xbd5edec5	-0.05441167
43	0xbcc3713d	-0.023857707
44	0x3c38ff1e	0.011291293
45	0xbd03f8e8	-0.032219797
46	0x3d87dec3	0.06634285
47	0x3bf49de2	0.00746511
48	0x3d1a0f7f	0.037612434
49	0xbaf9bfa0	-0.0019054301
50	0xbda29d78	-0.07940191
51	0xbd832a95	-0.06404606
52	0xbd256c76	-0.04038664
53	0xbce966b2	-0.028491352
54	0xbd1ab743	-0.03777243
55	0xbe05ece2	-0.13078645
56	0x3cc5f253	0.0241634
57	0x3c7bb034	0.015361834
58	0x3dca3c71	0.098748095
59	0x3d6164d8	0.055027813
60	0xbc157c04	-0.009123806
61	0xbd1dd749	-0.03853539
62	0x3cfa84c6	0.03058089
63	0xbe22d5dd	-0.15901895
64	0xbcf6291d	-0.030048901
65	0x3dabd585	0.08390335
66	0xbd4236c7	-0.04741552
67	0x3d0978ea	0.03356258
68	0x3d92c397	0.07166212
69	0xbd186a5c	-0.037210807
70	0x3c58d4d9	0.013234341
71	0xbdb34a1e	-0.08754371
72	0x3d261511	0.040547434
73	0xbdc0ace7	-0.094079785
74	0xbd4ab269	-0.04948655
75	0x3d821407	0.06351476
76	0xbcfa061f	-0.030520497
77	0xbd0edc78	-0.034878224
78	0x3a18fd0a	0.00058360456
79	0xbd820c7d	-0.06350038
80	0xbd733085	-0.059372444
81	0x3bfbd7ab	0.0076856217
82	0x3da75ca0	0.08171964
83	0x3d26b908	0.040703803
84	0x3c5937a5	0.013257896
85	0xbd7ffd77	-0.062497582
86	0x3d660356	0.056155525
87	0xbcf9945c	-0.030466251
88	0xbe1b00e6	-0.15137061
89	0xbdb2bcaf	-0.08727395
90	0x3cab4e56	0.020911377
91	0xbb4bb800	-0.0031085014
92	0xbd38d6c4	-0.04512669
93	0xbd8b03db	-0.06787845
94	0xbd3396f0	-0.043845117
95	0xbdb8b264	-0.090184
96	0xbd02a653	-0.0318969
97	0xb9a4c9b1	-0.0003143079
98	0xbcc34efd	-0.023841375
99	0xbd1721b8	-0.03689739
100	0x3d5dd73f	0.054160353
101	0xbd043b2c	-0.032282993
102	0x3d35f95a	0.044427253
103	0x3d11ef3b	0.03562854
104	0xbdb0f296	-0.086400196
105	0x3d2f7d24	0.042843953
106	0xbc9fee1b	-0.019522717
107	0x3ce9b600	0.028529167
108	0xbe3b4b95	-0.18290551
109	0xbcd99899	-0.026562022
110	0xbc2f439d	-0.010697273
111	0x3d5c8109	0.053833995
112	0xbdf6ff27	-0.12060385
113	0x3e0b81c9	0.13623728
114	0xbd592a06	-0.053018592
115	0x37855a5d	1.5896914e-05
116	0xbbfe1fb0	-0.0077552423
117	0x3d83ec7c	0.0644159
118	0x3d4787ad	0.048713375
119	0x3bafe454	0.005367795
120	0x3baa5a62	0.0051987628
121	0xbdb2f1d7	-0.087375335
122	0xbcda083f	-0.02661526
123	0xbd36d85c	-0.04463993
124	0xbce46919	-0.027882146
125	0xbdce9462	-0.100868955
126	0x3dac4830	0.08412206
127	0x3c80add3	0.015707886
128	0x3d4dd0b4	0.050247863
129	0x3dc989c8	0.09840733
130	0x3ca0464e	0.019564774
131	0x3d6dc09d	0.05804502
132	0x3cec5703	0.028850084
133	0x3d8ddabc	0.06926486
134	0x3dbf5986	0.09343247
135	0x3be92659	0.007115167
136	0x3c829f83	0.015945202
137	0x3d0cfd76	0.034421407
138	0xbe2c2f19	-0.16814841
139	0xbdf7efa4	-0.12106255
140	0x3d9d1939	0.076708265
141	0x3cacc68b	0.021090766
142	0x3deda565	0.11603812
143	0x3cbaf645	0.022822509
144	0x3b408ea6	0.00293819
145	0xbc8efe6e	-0.017455306
146	0x3d4f1d86	0.050565265
147	0xbdc4aa8e	-0.09602843
148	0xbdcc9aa8	-0.09990436
149	0xbb3c8506	-0.0028765812
150	0x3d72c9d6	0.059274517
151	0x39f3b940	0.00046486594
152	0x3d0cf188	0.03441003
153	0x3d7988b8	0.0609214
154	0xbcac0faa	-0.021003563
155	0xbd02f97f	-0.03197622
156	0x3d929f5a	0.071593
157	0x3da45d61	0.08025623
158	0xbd83a3c9	-0.06427724
159	0x3da449c5	0.08021883
160	0x3d2f9695	0.042868216
161	0xbc2491de	-0.010044543
162	0xbd0b20fb	-0.033967
163	0xbd1b4684	-0.037909046
164	0x3d839c03	0.06426241
165	0xbcd243ed	-0.025667155
166	0xbe076be2	-0.13224748
167	0x3d384fe6	0.044998072
168	0x3cf98692	0.030459676
169	0xbd3cb613	-0.046072077
170	0x3da59330	0.080847144
171	0x3c8f5a43	0.017499095
172	0x3b20ce65	0.0024537083
173	0xbd96aa6b	-0.073567234
174	0xbda0271b	-0.07819959
175	0xbda5a3d0	-0.080878854
176	0xbceab559	-0.028650926
177	0xbb9f49f7	-0.004861112
178	0xbd095bdf	-0.03353488
179	0x3c7b17f4	0.015325535
180	0xbd9addc0	-0.07561827
181	0x3c102a7c	0.008799192
182	0xbcbfc6e7	-0.023410274
183	0x3d302880	0.043007374
184	0xbdd7d68f	-0.10538971
185	0x3d12350c	0.03569512
186	0xbd80c9ff	-0.06288528
187	0xbd345cfe	-0.044033997
188	0x3c9a274b	0.018817564
189	0xbdbe6c15	-0.09297959
190	0xbb6ca752	-0.0036110473
191	0xbd19b340	-0.03752446
192	0xbe0d03c5	-0.13770969
193	0x3ce87d9b	0.028380206
194	0xbd2b2063	-0.041778933
195	0xbc831b5f	-0.016004262
196	0x3d97d6e9	0.07414038
197	0xbdc62fba	-0.09677072
198	0x3dc56969	0.09639246
199	0xbd15a4a6	-0.036533974
200	0xbc1c28fb	-0.009531255
201	0x3da0a958	0.078448
202	0xbcb53c63	-0.022123521
203	0xbd356701	-0.044287685
204	0xbc6a6386	-0.014305955
205	0xbd51aab0	-0.05118817
206	0x3cfb2465	0.030657003
207	0x3c248cc4	0.010043327
208	0xbcc7bcde	-0.024382051
209	0xbd246758	-0.04013762
210	0xbc8a1466	-0.01685543
211	0xbced6e56	-0.028983276
212	0xbd330881	-0.04370928
213	0x3dad2f8c	0.084563345
214	0xbd08997d	-0.033349503
215	0xbda1e9c7	-0.079059176
216	0xbc961605	-0.018321047
217	0xbc1a8c7a	-0.009432906
218	0xbd0d0347	-0.034426954
219	0xbb1f75f3	-0.0024331778
220	0xbb11bed0	-0.0022238977
221	0xbdff2fb6	-0.12460272
222	0x3d3cf4a7	0.046131756
223	0x3c8775d5	0.016535679
224	0xbdf343b8	-0.11878151
225	0xbe176e82	-0.14788249
226	0x3d914544	0.070932895
227	0x3d60b8a5	0.05486359
228	0x3cbf7bf1	0.02337453
229	0xbe274454	-0.16334659
230	0xbcf4d2a6	-0.029885601
231	0xbdbbae3d	-0.09164093
232	0xbcfee2c6	-0.031113993
233	0xbd2a55e1	-0.041585807
234	0x3d2dce63	0.042433154
235	0xbdbab919	-0.09117336
236	0xbdd2a2c4	-0.10284951
237	0x3da977a4	0.08274773
238	0xbd11ae09	-0.035566363
239	0x3bbddff6	0.0057945205
240	0xbd1d2bda	-0.0383719
241	0xbd0aba3c	-0.033869013
242	0x3e01c4ae	0.12672684
243	0x3c993dba	0.018706191
244	0x3d0684c7	0.03284147
245	0x3cb719b7	0.022351129
246	0xbd9ba05e	-0.07598947
247	0xbd05161e	-0.032491796
248	0x3d784778	0.060615033
249	0x3be1a82c	0.0068865027
250	0xbc8624ea	-0.016375024
251	0xbd6687c2	-0.056281812
252	0xbda488a0	-0.08033872
253	0xbc9db359	-0.019250559
254	0xbdc917df	-0.09819006
255	0x3d8611b5	0.06546346

model.4.bias f4 [256]
0	0x3d8c9008	0.06863409
1	0xbd5e0e13	-0.05421264
2	0x3d05131e	0.032488935
3	0xbc14770a	-0.009061584
4	0xbb30cc19	-0.002697712
5	0x3d32d224	0.043657437
6	0xbd0d8499	-0.034550283
7	0x3d5fd735	0.054648597
8	0x3c2d4a94	0.010576863
9	0x3d89b05f	0.06723093
10	0xbc832557	-0.016009016
11	0x3ca55da6	0.020186257
12	0xbc78f8e5	-0.01519606
13	0xbcbc319a	-0.02297287
14	0x3c1c8af7	0.009554616
15	0x3d0c863b	0.0343077
16	0xbd7fed20	-0.062482
17	0x3ce97c45	0.02850164
18	0x3d61b9e7	0.05510893
19	0xbc9b14e4	-0.01893086
20	0x3ca323b3	0.019914484
21	0x3d203750	0.03911525
22	0xbcacc44c	-0.021089695
23	0x3d7e2434	0.062046245
24	0x3c0a16de	0.0084283035
25	0x3a03c572	0.0005026675
26	0x3d294320	0.04132378
27	0xbbb907de	-0.00564669
28	0xbc4fc3f6	-0.012680998
29	0x3d8d06d1	0.06886066
30	0x3d23ac10	0.039959013
31	0xbc9d2ff1	-0.0191879
32	0xbc281aa0	-0.010260254
33	0x3ce4e501	0.027941229
34	0xbc8c6ccd	-0.017141724
35	0xbc997812	-0.018734012
36	0x3c866c38	0.016409025
37	0xbd7e8d08	-0.062146217
38	0xbd075f3f	-0.033049818
39	0x3c831311	0.016000303
40	0xbcf0d771	-0.029399605
41	0x3d822be5	0.063560285
42	0x3d12cad4	0.035837963
43	0x3c0b01e6	0.008484339
44	0xbcb0ecbd	-0.02159726
45	0xbbeffbad	-0.0073237033
46	0xbce29a03	-0.02766133
47	0xbce09ab6	-0.027417522
48	0xbce9656d	-0.028490746
49	0x3d736b00	0.059428215
50	0x3d1256d2	0.03572733
51	0xbcbaf5ea	-0.02282234
52	0xbd61821d	-0.055055726
53	0xbd8a091c	-0.06740019
54	0xbd522854	-0.05130799
55	0xbb694cdb	-0.0035598788
56	0x3d465b4e	0.04842692
57	0x3d28210d	0.041047145
58	0xbcd4fe6a	-0.02600022
59	0xba7a78d0	-0.00095547456
60	0xbcd7952c	-0.026316248
61	0xbc9aec8b	-0.01891162
62	0x3d01d88c	0.031700656
63	0x3d158010	0.036499083
64	0x3d7e9c7d	0.062160958
65	0xbd4bfe18	-0.04980287
66	0x3d941c07	0.07231908
67	0xbd11c190	-0.035584986
68	0xbd02ad1e	-0.03190338
69	0x3d73742e	0.05943697
70	0xbc9d6486	-0.019212972
71	0xbd1889d2	-0.03724081
72	0xbd583bd9	-0.05279145
73	0xbc48a719	-0.01224687
74	0x3d93b430	0.072121024
75	0x3daa4978	0.08314794
76	0xbc4ea193	-0.0126117645
77	0x39bff3f4	0.00036612118
78	0x3c5bdc46	0.0134192165
79	0x3d90e4b2	0.0707487
80	0x3d45daff	0.048304554
81	0x3cde3f17	0.027129693
82	0x3ce9eb20	0.0285545
83	0x3d4a4266	0.04937973
84	0xbcbdec56	-0.023183983
85	0x3c9149d7	0.017735405
86	0x3d3876e5	0.04503526
87	0x3c2330da	0.009960378
88	0x3d21f083	0.03953601
89	0x3d6a710b	0.057236712
90	0xbd072444	-0.03299357
91	0xbd6d7229	-0.0579702
92	0x3d3c8d53	0.046033215
93	0x3d69d688	0.05708936
94	0xbd9ca373	-0.07648363
95	0xbcf2a413	-0.029619252
96	0xbbaa288d	-0.0051928223
97	0x3d2c5471	0.042072717
98	0x3cf53121	0.029930653
99	0x3d3727ef	0.044715818
100	0x3d29a58f	0.041417655
101	0xbc945911	-0.018108876
102	0x3bfa44cc	0.0076375958
103	0xbd6548dc	-0.055977687
104	0xbd148fab	-0.036269825
105	0x3d9926fd	0.074781395
106	0x3d80e271	0.0629319
107	0x3d22ee1d	0.039777864
108	0x3d547ec5	0.05187871
109	0x3d2ea8bf	0.042641398
110	0xbcf6cbf0	-0.030126542
111	0x3cc4ba05	0.024014482
112	0x3d206d2a	0.039166607
113	0x3d23961c	0.039938077
114	0xbcc941ee	-0.02456757
115	0xbb412523	-0.0029471598
116	0xbcd433b2	-0.025903556
117	0x3d4e8b53	0.05042584
118	0xbd66f1fe	-0.056383125
119	0x3d5ca190	0.053865016
120	0xbd6f821e	-0.0584737
121	0xbd31b5dd	-0.04338633
122	0xbcc3af70	-0.023887366
123	0x3ce2376a	0.027614314
124	0x3c0e7b91	0.008696453
125	0x3c98fb4b	0.018674513
126	0xbd5741b2	-0.052552886
127	0xbcdd9719	-0.027049588
128	0xbd741fc2	-0.0596006
129	0x3c8f0219	0.017457055
130	0xbd354c5e	-0.044262283
131	0x3d8b47bd	0.06800792
132	0x3cf22bdf	0.029561935
133	0x3be37787	0.006941739
134	0xbd935400	-0.07193756
135	0xbd300625	-0.04297461
136	0xbd157dea	-0.036497034
137	0x3bae6907	0.005322579
138	0x3d861045	0.06546072
139	0xbd7ecb4f	-0.06220561
140	0xbd841774	-0.06449786
141	0xbd10fa17	-0.035394754
142	0x3d4171f3	0.04722781
143	0x3cdf979e	0.027293976
144	0xbd913920	-0.07090974
145	0xbc75ebca	-0.01500983
146	0x3b8424a5	0.0040326887
147	0xbd1ec72f	-0.038764175
148	0x3c5227a9	0.0128268385
149	0xbd876413	-0.066108845
150	0xbcc17e16	-0.023619693
151	0x3d0c98fc	0.034325585
152	0xbda53189	-0.08066089
153	0x3c3b22e0	0.011421889
154	0xbd270a05	-0.04078104
155	0xbd2d1c1e	-0.042263143
156	0xbca0aba7	-0.0196131
157	0xbbd1d07e	-0.006403028
158	0x3a37d3f0	0.0007012477
159	0x3c2408f0	0.0100118965
160	0x3cc32fe3	0.023826545
161	0x3d452c62	0.04813803
162	0x3cc246ef	0.023715464
163	0xbd9067a5	-0.070510186
164	0x3d023fd3	0.03179915
165	0xbcd658f0	-0.026165456
166	0xbc896879	-0.01677345
167	0xbc054b17	-0.008135579
168	0x3c900604	0.017580993
169	0x3d379033	0.044815253
170	0x3d8e3b90	0.069449544
171	0x3d06bd45	0.032895345
172	0xbcd1f438	-0.025629148
173	0x3d2e6ce4	0.042584315
174	0xbd90f1f4	-0.07077399
175	0xbd496c87	-0.049175765
176	0xbd1b5d92	-0.037931032
177	0x3d9c868f	0.076428525
178	0xbc9867fc	-0.018604271
179	0x3d641a03	0.05568887
180	0x3ba59d65	0.0050541633
181	0x3d621a1b	0.055200677
182	0xbd216d93	-0.03941114
183	0x3d6954ef	0.056965765
184	0xbcf2e7c4	-0.02965153
185	0xbd836e9a	-0.0641758
186	0xbad341ee	-0.0016117671
187	0xbda30aa9	-0.07961018
188	0x3d8f2e9d	0.06991313
189	0x3bbd0b4d	0.0057691694
190	0xbbfc5208	-0.0077002086
191	0x3d52932a	0.051409878
192	0x3c7a9924	0.015295301
193	0x3cb5e3da	0.022203375
194	0x3d286cf5	0.041119535
195	0x3c0bbc46	0.008528775
196	0x3cbecd11	0.023291143
197	0x3d8fd7d0	0.07023585
198	0xbd7988ba	-0.06092141
199	0x3d1fb156	0.03898748
200	0xbd698cbb	-0.057018977
201	0x3d368646	0.044561647
202	0xbc1e4d3b	-0.009661968
203	0x3d0e3af1	0.03472418
204	0x3ab7491d	0.0013983581
205	0xbd3b7e8d	-0.045774985
206	0xbd504f7b	-0.05085705
207	0xbcb041aa	-0.021515686
208	0x3d8af2ba	0.06784578
209	0xbd69bf0c	-0.057066962
210	0x3c090ecf	0.008365347
211	0xbd287608	-0.04112819
212	0xbc1b195d	-0.009466496
213	0xbbbed6df	-0.0058239545
214	0xbd2f149f	-0.042744275
215	0xbd4a9b1e	-0.049464338
216	0xbcc5103f	-0.024055598
217	0xbb3f1a98	-0.0029160138
218	0xbc260e60	-0.010135263
219	0xbc2da4c2	-0.010598363
220	0x3d94fb23	0.07274463
221	0x3c95ad3e	0.018271085
222	0xbd47ea32	-0.04880733
223	0x3c0c81f6	0.008575907
224	0x3d56f729	0.052481804
225	0xbd9f7571	-0.07786072
226	0xbb9587e5	-0.004563319
227	0x3d3bb926	0.04583087
228	0xbcd6c562	-0.026217166
229	0xbd933ffd	-0.07189939
230	0x3d424265	0.0474266
231	0x3c2c3f7c	0.010513183
232	0x3d2dbeb1	0.042418186
233	0x3d6b72f2	0.057482667
234	0xbce31939	-0.027721988
235	0xbd0f595d	-0.034997333
236	0xbd029cbf	-0.031887766
237	0x3d9af49d	0.075661875
238	0xbc5bbd7f	-0.013411879
239	0x3c7f9450	0.015599325
240	0x3b978bd1	0.0046248217
241	0xbd88fed2	-0.06689228
242	0xbcbe4369	-0.023225503
243	0x3ba111d7	0.0049154568
244	0x3d864876	0.065567896
245	0xba75b505	-0.00093729823
246	0xbcb13a04	-0.02163411
247	0xbcab406d	-0.020904744
248	0xbc8c3487	-0.01711489
249	0x3c8e212d	0.017349804
250	0x3c0604d3	0.008179861
251	0xbd92f6c5	-0.07175974
252	0xbcccd673	-0.025004601
253	0x3bb9f7f2	0.0056753093
254	0xbc440d8b	-0.0119661195
255	0x3c644de8	0.01393459

model.6.weight f4 [16, 256]
0	0xbd75cd71	-0.060010377
1	0x3d63a6e4	0.05557908
2	0xbddb53bf	-0.10709333
3	0xbdee7aa2	-0.11644484
4	0xbd7c4bc6	-0.0615957
5	0xbd751eea	-0.059843935
6	0x3d376e36	0.04478284
7	0x3e5c8836	0.21536335
8	0xbad4c30c	-0.0016232445
9	0xbd516d7e	-0.05112981
10	0xbd019572	-0.031636663
11	0xbcab0ad3	-0.020879185
12	0xbd8e363c	-0.06943938
13	0xbd2fb92c	-0.042901203
14	0xbe8bf90c	-0.27338445
15	0x3d33d059	0.043899868
16	0xbce2285e	-0.02760714
17	0xbdc75c58	-0.0973441
18	0xbdd8f2b0	-0.10593164
19	0xbcac314f	-0.021019606
20	0x3d832faf	0.06405579
21	0xbe110d16	-0.14165148
22	0xbdf5e12d	-0.120058395
23	0x3de3a416	0.11115281
24	0x3d97b3ec	0.07407364
25	0xbd18174d	-0.037131596
26	0x3d96dc68	0.07366258
27	0xbc85841f	-0.016298352
28	0x3cc4cf49	0.024024623
29	0xbcf2fa5a	-0.029660393
30	0xbc6e6b74	-0.014551986
31	0xbd9fd372	-0.07804002
32	0x3d693d65	0.056943316
33	0x3d6e6e23	0.058210503
34	0xbd6eb2eb	-0.0582761
35	0x3ba5a838	0.0050554536
36	0x3ce87a60	0.028378665
37	0x3e1e4c93	0.15458898
38	0xbddb81d4	-0.10718122
39	0xbe108983	-0.14114957
40	0x3c209645	0.009801452
41	0xbd541aeb	-0.051783483
42	0x3cb78415	0.022401849
43	0x3e0d8bc4	0.13822848
44	0xbb809906	-0.003924492
45	0x3d4853ed	0.048908163
46	0xbd4a3a09	-0.049371753
47	0x3d3b4fed	0.04573052
48	0xbd6b6b3d	-0.057475317
49	0x3d14519d	0.036210645
50	0x3d683532	0.056691356
51	0x3d8c438f	0.06848823
52	0xbcb27cce	-0.021788027
53	0x3da6f81f	0.08152794
54	0x3cb75b24	0.022382326
55	0x3d30c093	0.043152403
56	0xbd96b900	-0.07359505
57	0xbb4d1d17	-0.0031297856
58	0xbc80e63c	-0.015734784
59	0x3ebb429c	0.36574256
60	0xbc3d60e5	-0.011558746
61	0x3d61f022	0.05516065
62	0xbce55a7b	-0.027997246
63	0xbd1cc29f	-0.038271543
64	0x3d9eece0	0.07760024
65	0xbe1d6a6d	-0.1537263
66	0x3d1efdd3	0.038816284
67	0x3dec9043	0.11550953
68	0xbc2179f5	-0.009855737
69	0x3d808cc9	0.06276853
70	0x3d0e73e9	0.03477851
71	0x3e860443	0.26175126
72	0xbcfa9372	-0.030587886
73	0xbd2b02b8	-0.04175064
74	0x3d81d252	0.063389435
75	0xbd930990	-0.07179558
76	0xbd47ffa7	-0.048827793
77	0xbc8f483f	-0.017490504
78	0x3d551f91	0.052032057
79	0x3e449f73	0.1920145
80	0x3e49b3a0	0.19697428
81	0x3d80a182	0.06280805
82	0x3d26e395	0.040744383
83	0x3c05c4c4	0.008164588
84	0x3e1b9600	0.15193939
85	0xbe1bed85	-0.15227325
86	0xbd819baf	-0.063285224
87	0xbdcea5dd	-0.1009023
88	0x3d979160	0.07400775
89	0xbd838eba	-0.06423707
90	0x3d19af9e	0.037520997
91	0xbd53f819	-0.051750276
92	0xbd2b6161	-0.041840915
93	0xbe0a2eb6	-0.13494381
94	0x3ca0ff4c	0.019652985
95	0xbe33c956	-0.17557272
96	0x3c233477	0.009961239
97	0x3db80fe8	0.08987409
98	0xbd65396c	-0.055962965
99	0x3b8fe9ff	0.004391908
100	0x3d74c75e	0.059760444
101	0x3c88f9fe	0.016720768
102	0xbd1d82f7	-0.038454976
103	0xbd11daf9	-0.03560922
104	0xbe4bc925	-0.1990095
105	0x3c365f0e	0.011131061
106	0x3b667b3e	0.0035168673
107	0x3de1226d	0.10992894
108	0x3cf3c2fa	0.029756058
109	0xbcc9f429	-0.024652557
110	0x3d2a9632	0.041647144
111	0xbd1f4dfe	-0.03889274
112	0x3c9f4df8	0.019446358
113	0x3d5d15bf	0.053975817
114	0x3c810ab4	0.015752174
115	0x3d0d1e77	0.03445288
116	0xbd55fe0f	-0.052244242
117	0x3db3fd50	0.0878855
118	0xbd2feea7	-0.042952206
119	0xbe0c537c	-0.13703722
120	0x3e007ba1	0.1254716
121	0xbe6ac5a8	-0.22926962
122	0xbe2b2714	-0.16714126
123	0xbc922c53	-0.017843401
124	0xbde4e108	-0.11175734
125	0xbd87202a	-0.06597932
126	0x3d5445b7	0.051824298
127	0xbcb7c97b	-0.02243494
128	0xbb2f2db0	-0.0026730113
129	0x3d8edcbe	0.06975697
130	0xbd207057	-0.039169636
131	0xbd7bf5f5	-0.06151386
132	0x3d905599	0.070475765
133	0xbc06b277	-0.00822126
134	0xbb271621	-0.0025495368
135	0x3d6bef30	0.057601154
136	0x3da6e105	0.08148388
137	0x3ddc4418	0.10755175
138	0x3dc35bcd	0.09538994
139	0xbe3778ef	-0.17917226
140	0x3d55cb79	0.052196
141	0xbbc50fb6	-0.006013836
142	0x3e3eafc0	0.18621731
143	0x3e812bdf	0.25228783
144	0xbd19fb41	-0.03759313
145	0x3acababd	0.0015467029
146	0xbe26ded6	-0.16295943
147	0xbdab355b	-0.08359786
148	0xbe0ec424	-0.13942009
149	0xbe3501e9	-0.1767651
150	0xbdad85f6	-0.08472817
151	0xbe00bd47	-0.12572204
152	0x3d165b8f	0.03670841
153	0xbd2c3001	-0.042037968
154	0xbdc68372	-0.0969304
155	0xbd78b605	-0.060720462
156	0x3c238aec	0.009981852
157	0xbd796876	-0.060890637
158	0xbd918d9a	-0.071070865
159	0xbdd9955e	-0.10624193
160	0x3b25915d	0.0025263645
161	0xbd84d536	-0.06485979
162	0xbca3548a	-0.019937772
163	0x3c2b06ec	0.010438662
164	0xbb9e17d5	-0.0048246183
165	0xbc715227	-0.014729059
166	0x3d835c01	0.06414033
167	0x3d95079e	0.072768435
168	0xbd1ce5e4	-0.03830518
169	0x3d716e8c	0.058943316
170	0x3ce7c39f	0.028291522
171	0xbbace3dc	-0.0052761864
172	0x3d792cd3	0.060833763
173	0xbda3ec30	-0.080040336
174	0xbc66abfe	-0.014079092
175	0x3d5233e2	0.05131901
176	0x3c5b9898	0.01340308
177	0x3d2706f9	0.040778134
178	0x3d066c70	0.032818258
179	0xbd93e0d5	-0.07220618
180	0xbd3583a0	-0.04431498
181	0xbe424c80	-0.18974495
182	0xbd25574a	-0.04036645
183	0xbd9c98d3	-0.076463364
184	0xbe0958b2	-0.13412741
185	0xbca38ffe	-0.019966122
186	0xbd8794b8	-0.06620163
187	0x3ce5296b	0.027973851
188	0x3e0c1c8d	0.13682766
189	0x3c16244b	0.009163926
190	0xbca947d4	-0.020664133
191	0xbdb006cc	-0.085950464
192	0x3ea17c03	0.31539926
193	0xbd09c954	-0.033639267
194	0x3c342dbf	0.010997235
195	0x3cb20056	0.021728676
196	0xbba0efea	-0.0049114125
197	0xbd7849dd	-0.060617317
198	0xbbb52f04	-0.0055292863
199	0xbdab234f	-0.08356344
200	0x3c755d4d	0.014975858
201	0xbdd29558	-0.10282391
202	0xbe0bfd55	-0.13670857
203	0xbdffb7b0	-0.124862075
204	0xbe177af7	-0.14793001
205	0xbd729b36	-0.059230052
206	0xbdb64ecc	-0.08901748
207	0xbd0b1aaa	-0.033960976
208	0xbda720ea	-0.08160575
209	0x3cc7e3cd	0.024400616
210	0xbd358cef	-0.044323858
211	0x3cccb276	0.02498744
212	0xbd55a396	-0.05215796
213	0x3c8ff988	0.01757504
214	0xbc728a06	-0.014803415
215	0x3d88927f	0.06668567
216	0xbe6632da	-0.22480336
217	0xbd0eaba6	-0.034831665
218	0xbbfc3351	-0.007696547
219	0x3dcbfd11	0.09960378
220	0xbd00e3d2	-0.031467266
221	0x3d51f506	0.051259063
222	0xbd507c9a	-0.05090008
223	0x3d7de31b	0.061984163
224	0x3da44f53	0.080229424
225	0xbd3d95f2	-0.046285577
226	0x3e57d6a0	0.21077967
227	0x3d16f6c8	0.036856443
228	0x3dc49ab9	0.095998235
229	0xbc8571ba	-0.01628958
230	0xbdc39bbb	-0.095511876
231	0x3d126c9b	0.035748105
232	0x3e00c553	0.12575273
233	0xbd132544	-0.03592421
234	0xbc83cffb	-0.016090384
235	0x3c99ce13	0.018775022
236	0xbdd1eb32	-0.10249938
237	0xbd10850f	-0.035283145
238	0x3d007a21	0.03136647
239	0xbb09b45e	-0.0021012048
240	0xbd656f80	-0.056014538
241	0xbc4f9e9a	-0.012672091
242	0xbbf70260	-0.007538125
243	0xbce58985	-0.028019676
244	0x3ead6f71	0.33874086
245	0x3d61a46b	0.05508844
246	0x3c5d4ea8	0.013507523
247	0xbe030634	-0.12795335
248	0xbd8fcf70	-0.070219874
249	0x3b9868e9	0.004651178
250	0x3d26d69a	0.040732004
251	0x3d38b02e	0.045089893
252	0x3d922ac9	0.07137067
253	0x3d983d94	0.0743362
254	0x3caf872c	0.02142676
255	0xbe27dd8c	-0.16393107

model.6.bias f4 [16]
0	0x3cf1c3b8	0.029512271
1	0xbd10470b	-0.035224
2	0xbd3ee316	-0.046603285
3	0x3d12e0d7	0.035858955
4	0x3d4a6df0	0.04942125
5	0x3c22bce0	0.009932727
6	0x3da97c89	0.08275706
7	0x3d1195ee	0.035543375
8	0x3d135945	0.035973806
9	0xbd0ca4e3	-0.034336936
10	0x3d5d6767	0.05405369
11	0xbab2b5db	-0.001363452
12	0xbd679b0c	-0.05654435
13	0x3d186549	0.037205968
14	0x3c47ccbc	0.012194809
15	0x3b83d0ac	0.0040226784
