data/checkpoints/rlgym-ppo-run-1760750124713022400/544575828/PPO_POLICY.pt (torch, 638775 bytes, 8 tensors)

model.0.weight f4 [256, 89]
000000 79 1b a6 be 1c 33 92 3e 26 c8 bc be e4 95 b2 3d
       -0.32442835 0.28554618 -0.3687145 0.087199956
000010 5a a8 1c be 67 35 65 be fe f0 95 3c cf 32 2a bc
       -0.15298596 -0.22383653 0.01830339 -0.01038809
000020 c6 13 17 3d df 0e 19 3d 8a 15 e3 3c d3 b3 a3 bc
       0.03688409 0.037367698 0.027720232 -0.019983208
000030 3c f6 f7 bc 4a 64 1e bd 22 7e f6 bd 60 64 92 3c
       -0.03026878 -0.03866986 -0.12035777 0.017870128
000040 a8 c9 4c 3a 58 bd 68 3d 60 0d 26 bd 3a db ae 3c
       0.00078120315 0.056821197 -0.0405401 0.02134477
000050 65 71 7f 3d d2 7b d7 3b ae 30 6f 3c 7f f5 b6 3d
       0.062364 0.00657604 0.0145990085 0.089335434
000060 16 5d 82 bd f1 e5 a1 3c 79 42 7d bd 30 a7 9e 3d
       -0.06365411 0.019762965 -0.06183097 0.07746732
000070 0b fa a9 3d ec 4c dd bd c7 9c d2 3d 60 fe f1 3c
       0.08299645 -0.10805687 0.10283809 0.02954024
000080 45 1a f7 3c 3b 1b 92 3c 1d 94 89 3d 33 66 f7 bc
       0.030163893 0.01783525 0.067177035 -0.0302001
000090 d8 07 d7 bd 33 10 0e bc a3 49 bc bd bf d5 12 3c
       -0.10499543 -0.008670854 -0.091937326 0.008962094
0000a0 da b0 b6 bc 1b d2 87 bd cf 91 a2 bc c6 7e 91 3d
       -0.022301126 -0.06631871 -0.019844918 0.07104258
0000b0 25 bd ab bc c8 9d 35 bc 19 35 cf bc 86 8b d1 b9
       -0.020964215 -0.011084981 -0.025293874 -0.0003996754
0000c0 c2 53 ac 3d ab f9 3f 3d ca fc 6b 3c d2 a2 8b 3e
       0.08414413 0.04686896 0.014403531 0.2727266
0000d0 c6 6c 6a 3c 49 7c 53 3e 70 a4 56 bd e8 a5 16 be
       0.01430816 0.2065288 -0.052402914 -0.14711726
0000e0 79 ba 9b be 09 67 3a bd 1c b4 de 3d 6d c1 b3 bd
       -0.30415705 -0.04550842 0.10874197 -0.087771274
0000f0 a3 ff 1b be b2 a1 91 3d ca 20 b2 3e 7b be f7 be
       -0.15234236 0.07110919 0.3479064 -0.48387513
000100 51 20 4d be 47 01 d2 bd f1 f5 74 be 55 08 80 bd
       -0.20031859 -0.1025415 -0.23921944 -0.06251589
000110 ca f7 4c bc bd 23 21 3e cf 28 79 3e 15 59 01 3e
       -0.012510249 0.1573629 0.24331973 0.12631638
000120 81 c0 f5 bd 5f 3a a4 bc 4c 9b ae 3c cb f9 f6 3b
       -0.11999608 -0.020047365 0.021314286 0.007537102
000130 8a a3 96 3c 86 70 ea 3b 02 76 4b bb 0e cc 9f bd
       0.018388528 0.007154527 -0.003104568 -0.07802592
000140 de da 57 3d 2f bf 71 be 70 03 19 bc f3 d6 be 3c
       0.052698962 -0.23608087 -0.0093391985 0.023295855
000150 2e 65 b8 bc 75 0a 67 bd fe 07 fc bc 01 6b ba 3d
       -0.022509184 -0.056406457 -0.03076553 0.091024406
000160 39 cd 37 3d 25 e3 c9 3d ff 72 19 be f9 80 0a 3e
       0.04487345 0.098577775 -0.14985274 0.13525762
000170 61 ff 26 3d 1d cf 9a be 51 d6 77 be e6 e0 1f 3c
       0.040770892 -0.3023614 -0.24202849 0.00975821
000180 dd c5 5e 3e c5 c0 85 3e e9 d4 67 3d f5 da 5d bd
       0.21755166 0.26123634 0.05659953 -0.05416389
000190 2f 66 bc 3c 45 a8 18 bd 0e 99 c2 3c b6 6e 0d bd
       0.022997944 -0.03726985 0.023754623 -0.03452941
0001a0 a8 bc da bc fd d1 99 bc 85 b6 6b bb 10 45 a6 3d
       -0.026701286 -0.018776888 -0.0035966944 0.081186414
0001b0 68 8f 25 3d 6b 58 3a bc c9 75 74 3d ed 57 91 bd
       0.040419966 -0.01137362 0.05968264 -0.07096849
0001c0 48 41 1b 3d 2f 9f c9 bc 2d 92 f9 bc f3 f7 4f bb
       0.037904054 -0.024612037 -0.03046521 -0.0031733483
0001d0 dc 79 88 bd a5 f6 8f bc ce 4a a4 3c 5d e0 5a 3d
       -0.06663868 -0.017573664 0.0200552 0.053436626
0001e0 c1 b3 37 bd a1 e9 fb 3c 55 c4 bf 3d 8b 58 6a bd
       -0.04484916 0.030751051 0.09363619 -0.057213347
0001f0 12 fd ad 3d c9 b9 95 bd 16 15 0d 3d 01 d6 06 3d
       0.08495535 -0.07310826 0.034443937 0.032918934
000200 06 f5 4a bc b3 3b bc 3d 2d aa 72 bd 6d 0f 4e 3c
       -0.01238752 0.09191074 -0.059244324 0.01257692
000210 c5 e3 bb bc 19 06 c6 bd f7 87 1b bd 2d 75 c8 bd
       -0.022935757 -0.09669132 -0.037971463 -0.097879745
000220 18 ea de 3c 9b 3d cc bb 5d 01 6b bb bb 26 55 bd
       0.027211234 -0.00623293 -0.0035858967 -0.05203889
000230 17 49 a3 be c6 c4 a3 3a 8f 9d c4 3d 16 ef 81 3e
       -0.318917 0.0012494556 0.096003644 0.2537772
000240 70 f3 14 3d 9b d7 0b 3e 6e b6 b0 bd 4a 68 62 bd
       0.036364973 0.13656466 -0.08628546 -0.05527524
000250 2a 36 ea bc b0 5b 48 3e 5c 32 46 be f0 30 27 3e
       -0.02859028 0.19566226 -0.19355148 0.16327262
000260 1f 42 69 3e 5d dd e4 3d c7 73 71 3e d8 0c f0 3e
       0.2277913 0.11175034 0.23579322 0.468848
000270 78 81 b2 bc b9 13 84 3d 5d bb ab bd 1f 4c b5 3e
       -0.021790251 0.06449074 -0.08385346 0.35409638
000280 0b 9a 82 3e 7d 62 1e 3e 88 b1 ec bb 18 05 6b 3d
       0.2550815 0.15467258 -0.007223312 0.057377905
000290 e5 ff c5 3d 4f d4 4e 3d ef 92 39 bd e3 37 ab 3d
       0.09667949 0.050495442 -0.045306142 0.08360269
0002a0 84 1b d5 3d 59 42 18 3e 44 22 99 3d 7c 1c 69 bd
       0.10405639 0.1486906 0.07477239 -0.05691193
0002b0 60 70 98 3c f6 d6 09 3b 7d 38 5f bd 1f ba b9 bd
       0.018608272 0.0021032668 -0.05449723 -0.09068703
0002c0 00 61 4d bd 70 f7 a8 bb d1 81 5c 3c ca c2 9b 3e
       -0.050141335 -0.00515645 0.013458685 0.3042205
0002d0 87 6d 4f 3c b9 99 c0 3d 68 77 41 3c f7 6b 23 be
       0.012660391 0.0940432 0.011808254 -0.15959154
0002e0 92 9f 2c be 88 ff b4 3c c6 70 4a bc ad 52 57 3d
       -0.16857746 0.022094503 -0.012355989 0.05256908
0002f0 fc 26 e3 3d b6 7b 3d bd 7f d3 75 bd 2f 5c 0f bd
       0.1109142 -0.046260558 -0.06001615 -0.035000023
000300 3a 58 89 be d3 51 25 3d 9f fe 1a bd 80 80 4b bd
       -0.26825124 0.040361237 -0.03784048 -0.049683094
000310 7a 3f 22 3d 93 73 81 bd 50 32 c6 3d 44 01 fc 3c
       0.039611317 -0.06320872 0.09677565 0.030762322
000320 1c 98 dd bc 66 95 4c 3c 97 fc ad 3c a4 2b 03 bd
       -0.02705007 0.012486791 0.021238608 -0.03202404
000330 18 ac 9c bd e5 d2 3d bb bd 6b 13 3d bf 8f 1f 3c
       -0.07650012 -0.0028964814 0.03599142 0.009738862
000340 da 4a bd bc 97 10 90 3d 8e 39 c3 bc 20 aa 3c bc
       -0.023106981 0.07034414 -0.023831155 -0.01151517
000350 f8 c6 3c 3d 51 9a 79 bd f1 6e 1a 3d f1 36 a9 bc
       0.04608819 -0.060938183 0.03770346 -0.02065608
000360 35 e1 5b 3d 62 ff 0b bd f6 33 ea 3b ec e6 71 3c
       0.05368157 -0.0341791 0.0071473075 0.014764529
000370 10 33 9f bd 3f 48 9f bd 68 c4 4b 3d ad e1 af bc
       -0.07773411 -0.07777452 0.049747854 -0.021469915
000380 a9 3f 8c 3d 6a fa d4 bd 02 90 39 bd ee 0f a4 bd
       0.0684808 -0.10399325 -0.045303352 -0.08010851
000390 61 69 23 3d c1 f6 51 bd 65 b0 fb bd 3c d2 63 bd
       0.03989542 -0.051260713 -0.12289504 -0.055620417
0003a0 dc 89 2f be 82 1a fe 3c 64 da 69 3e d5 df 56 3d
       -0.17142433 0.0310185 0.22837216 0.052459557
0003b0 73 41 55 be a5 e6 48 3d 38 80 ae 3d d8 ca ee 3d
       -0.20825748 0.049048085 0.085205495 0.11659783
0003c0 1b 87 19 bf e5 09 48 3d 2f d8 ec be 43 d0 0b 3e
       -0.5997178 0.04883756 -0.46258685 0.13653664
0003d0 6c e6 80 3e ca ef 2e 3e b8 f2 8c bd 84 16 7c bc
       0.25175798 0.1708366 -0.068822324 -0.0153862275
0003e0 e2 fa 4f 3b e2 93 60 3d 39 1a 2e 3d 4e 96 dc bd
       0.0031735231 0.054828532 0.042505477 -0.10770856
0003f0 30 43 c1 3d d4 47 90 3c fc 93 6f bd 81 ee b3 3c
       0.09436643 0.017612375 -0.05849074 0.021964313

model.0.bias f4 [256]
000000 0c 8d 41 bd 14 2e 84 3c 4e 9e 18 bd 48 99 85 bc
       -0.047253653 0.016135253 -0.037260346 -0.016308442
000010 a0 f5 8a bd c0 e7 31 bd 5f fa 99 3d fd 96 b7 bd
       -0.067851305 -0.043433905 0.075184576 -0.089643456
000020 07 06 07 3d f0 ea e2 3a 6f cc 3b 3d 88 d7 b3 3c
       0.032964732 0.0017312448 0.04584926 0.02195336
000030 66 4a 09 3d 6c e3 62 3c 8c 09 db 3d 27 77 63 3d
       0.033518218 0.013848167 0.1069518 0.055533554
000040 f2 b5 58 3d d6 c6 15 3d 69 16 5e 3d e9 ca d0 3d
       0.05290789 0.036566578 0.05422059 0.10194952
000050 30 54 ed 3c fa d9 b7 3b f8 71 0b bd 12 6a a8 3b
       0.028970808 0.0056107016 -0.034044236 0.0051395977
000060 de aa 47 3d 36 f6 e9 bd 80 97 c4 bd 3b 26 c5 3d
       0.048746936 -0.11423914 -0.09599209 0.096264325
000070 d6 ae a2 3d 23 c0 c2 3d f7 94 c3 bd 7b 74 b6 3d
       0.079435036 0.095093034 -0.09549897 0.08908936
000080 e6 1a 91 bd 59 e3 90 bc 6a 37 95 bd ca 53 c5 3c
       -0.070852086 -0.017686533 -0.0728596 0.024087805
000090 5c ac 89 bd 6f 59 9c 3c d7 43 b1 3d 0e 33 02 3c
       -0.06722328 0.019085614 0.086555175 0.007946743
0000a0 1d 3e 21 3d 46 de 41 3c 00 ad e4 3c 6a 97 20 bd
       0.039365876 0.011832779 0.027914524 -0.0392069
0000b0 43 75 a3 3d 26 05 73 3d 78 fe cc 3c 17 56 16 bd
       0.0798135 0.05933108 0.025023684 -0.036703195
0000c0 14 24 ba 3c 81 f2 06 3c fe 2a 83 3d 4a d1 1b bc
       0.022722282 0.008236528 0.064046845 -0.009510348
0000d0 64 02 64 bd 32 fc b2 bd 32 d3 68 bc cd 2b 41 bd
       -0.055666342 -0.08739509 -0.014210509 -0.047160912
0000e0 32 37 c3 bd 64 11 a8 bd 34 e7 6c 3c 14 14 d8 ba
       -0.09532012 -0.08206442 0.01445942 -0.0016485476
0000f0 88 41 ee bc 94 82 ef bd 0a a2 ab 3b 59 a4 97 3d
       -0.029083982 -0.11694828 0.0052378224 0.07404394
000100 4c cc 51 bd ff 5e b5 3d 7e fd 13 bd b2 81 80 3d
       -0.051220223 0.0885601 -0.03613042 0.062747374
000110 bd 85 a1 bc c3 44 e0 bd c5 31 88 bd 50 f8 2e 3c
       -0.019717092 -0.10950615 -0.06650118 0.0106793195
000120 12 70 5e 3d f5 54 fc bd 4d 9c 98 3d 92 3d 9c 3c
       0.054306097 -0.12320892 0.07451687 0.019072328
000130 d0 d9 f6 3c eb 29 f7 3b 7d 88 7d bd 88 64 b9 3d
       0.030133158 0.007542839 -0.061897743 0.09052378
000140 84 e3 2a bc 5e 7e fb bd 94 7c bd bb 16 93 8e bd
       -0.0104302205 -0.12279962 -0.005782673 -0.06961648
000150 01 1d 7f bd 18 25 ab bd 92 c1 67 3c c2 ea cd bd
       -0.06228352 -0.083566844 0.014145272 -0.10054542
000160 6c 48 55 bd f8 78 b2 bc 7a 70 95 bd e2 d0 bf bd
       -0.05207102 -0.021786198 -0.07296844 -0.09366013
000170 70 23 8c bd 7d ac 44 bd 97 39 d2 bd 5b 43 c4 bd
       -0.06842697 -0.04801606 -0.10264891 -0.095831595
000180 d1 a8 af bd ac 95 87 3d 6e a9 aa bd b2 2d ab 3c
       -0.08577121 0.066203445 -0.083330974 0.020895813
000190 7b 77 43 bc 2a 85 a1 bd 88 13 8c bc fd e4 84 3a
       -0.011930342 -0.07886727 -0.017099157 0.0010139045
0001a0 02 09 cd 3d 7a 52 f1 bc 09 0f b5 3d d6 54 3b 3d
       0.10011484 -0.029458273 0.08840758 0.045735203
0001b0 e0 92 87 3d 1e 34 c1 3c 04 ec 62 bd ef 8a 35 bb
       0.06619811 0.023584422 -0.055400863 -0.002770122
0001c0 e3 e8 04 bd 21 fd 37 3d 3b 86 73 3d ed 23 58 3d
       -0.03244866 0.044919137 0.059454184 0.052768636
0001d0 52 ba 88 bd d7 f4 89 3b aa bb 77 3d b1 c4 c7 3c
       -0.06676163 0.0042100954 0.060481705 0.024385782
0001e0 66 0f e8 bc a3 16 91 3d a0 39 bd bd 36 54 b7 bd
       -0.028327655 0.07084396 -0.09239507 -0.08951609
0001f0 9a 5d a4 bd 3d eb 27 3c 16 f9 ac bc 0c 7c 59 3d
       -0.080256656 0.010248956 -0.021114867 0.053096816
000200 b4 8b 1e 3b 95 4c 55 3c a1 75 24 3c e6 16 5d 3d
       0.0024192156 0.013018747 0.010037811 0.053976916
000210 d2 7e 47 3d 57 a5 6d 3d d5 28 11 3b 0e 22 7a 3d
       0.04870493 0.05801901 0.0022149582 0.061067633
000220 0c 34 af 3d ba 8a 32 3c a6 82 40 3c 69 72 50 bd
       0.08554849 0.010897333 0.011749899 -0.05089036
000230 b4 f7 f5 3d 75 44 5a 3c 9b 71 d4 bd 1e b5 42 bd
       0.12010136 0.0133219855 -0.10373231 -0.047536008
000240 58 86 21 bd a8 07 74 bc e2 ff 86 bd ad bf 36 bd
       -0.03943476 -0.0148944035 -0.065917745 -0.04461639
000250 ed 19 c6 bd 9c 09 71 bc 14 1c d5 bd 39 cf 92 3b
       -0.09672914 -0.014711764 -0.10405746 0.0044802693
000260 0b 8b 5c 3b ef 84 a3 bd fb 7e f7 3c f8 14 60 3d
       0.0033652212 -0.079843394 0.030211916 0.054707497
000270 b4 0d 13 bd d0 2c af bd 9a e9 d2 3d 33 b2 4f bd
       -0.03590174 -0.08553469 0.10298462 -0.050707053
000280 09 12 c3 3c 5e f2 a5 bd 9e 1a a5 bd 53 5c 0f bc
       0.02381231 -0.081028685 -0.080617175 -0.008750039
000290 49 11 11 bd 7d 2c 56 bd 94 bf c3 bd cf a6 34 3d
       -0.035416875 -0.05228852 -0.09558025 0.044104394
0002a0 f9 15 ee bd 8c 59 38 bd f8 65 ac bd 8e 38 c4 bd
       -0.11625285 -0.045007274 -0.084178865 -0.095810995
0002b0 8d 3d 14 3d 20 c1 6d bd 68 3d 3f 3d 90 3c b3 bd
       0.036191512 -0.058045506 0.04668942 -0.08751786
0002c0 51 c2 89 bd b1 9c 20 3d 71 9d 6e 3c 23 08 ab 3d
       -0.06726516 0.039211933 0.014563904 0.08351161
0002d0 4a 7a 55 3d d3 30 9c bd 06 aa 98 bc 0b 54 cf 3c
       0.052118577 -0.076265 -0.018635761 0.02530863
0002e0 fc 87 1c bc d4 eb af 3d b3 73 81 3d e2 31 57 3d
       -0.009553906 0.085899025 0.06320896 0.052537806
0002f0 43 41 bc bd e5 83 4c bd b4 17 e6 bd 3c 63 63 bd
       -0.09192135 -0.049930472 -0.1123499 -0.05551456
000300 98 74 02 3d 84 80 4f bd 7b 4e f4 3d 62 72 fd ba
       0.031849474 -0.05065967 0.119290315 -0.0019336457
000310 a7 6d ef ba 0f e6 1c bd b5 ae 9c bd 15 fb 90 3c
       -0.0018266932 -0.03830534 -0.0765051 0.01769785
000320 47 ed bc 3d a3 05 aa 3d 7c 8b af 3c b9 1f 00 3d
       0.092249446 0.08301856 0.021428816 0.031280253
000330 c7 3f 3d bd 36 4f 95 3b 19 07 a9 3d cb 6d 31 bd
       -0.0462034 0.004556562 0.08253307 -0.043317597
000340 72 32 5b 3d e1 57 8d 3d 14 b8 de 3c 35 f6 d2 bd
       0.053514905 0.06901527 0.027187385 -0.103008665
000350 a5 d5 6c 3d eb 28 d6 bd 42 37 1e 3d 92 d8 60 3d
       0.057820935 -0.10457023 0.038626917 0.054894038
000360 b7 5b a5 bd a4 14 b2 bd a4 96 a8 bd 53 c6 ad 3d
       -0.08074134 -0.08695343 -0.082318574 0.08485093
000370 1d 65 80 bd 0e 55 87 bd c3 55 14 bc 8d 92 a1 3c
       -0.06269286 -0.0660802 -0.00905365 0.019723201
000380 08 bc 2e bd e6 dd a4 bd f6 87 b6 bd 7a c7 dc 3c
       -0.04265979 -0.08050136 -0.08912651 0.026950587
000390 8b dc 4a bd 3b 08 d0 bd e3 a5 9e bd 78 ca 34 bc
       -0.049526732 -0.1015782 -0.07746484 -0.0110346
0003a0 2a 5e 4b bd 8c 82 5c bb 3d 38 07 3c ed bc bb 3d
       -0.04965035 -0.0033647148 0.008253154 0.09166894
0003b0 98 13 c0 3d 61 5e f4 3c 29 57 7d bd a6 36 97 3c
       0.09378737 0.02983016 -0.0618507 0.018458676
0003c0 34 b2 80 bd 4a 16 85 3d dd 32 88 3c 6e 0f a6 bc
       -0.062839895 0.06498392 0.016625816 -0.02027103
0003d0 a6 54 bf 3d 72 8c 5d bc 39 42 4f bd 94 28 23 3c
       0.09342317 -0.013522254 -0.050600264 0.009958405
0003e0 a9 2e da 3d f1 db ad bd 0a 8e 37 bd e2 db 3a bd
       0.10653431 -0.08489216 -0.044813193 -0.045619853
0003f0 89 e5 5b 3d 42 7d d1 3d d9 92 a4 3d b1 90 a3 3d
       0.0536857 0.10228969 0.080358215 0.07986582

model.2.weight f4 [256, 256]
000000 34 d9 dd bd 13 a8 54 3d 92 2d 15 bc 90 4b 5f bd
       -0.10832444 0.0519181 -0.009105103 -0.05451542
000010 d6 8f 1e be 43 f8 55 3d 9f 2c a4 3a 40 ed 04 bd
       -0.15484557 0.052238714 0.0012525505 -0.03245282
000020 90 19 91 3d ee 43 78 3d e2 41 0c bd 30 f5 44 bd
       0.07084954 0.060611658 -0.03424252 -0.04808539
000030 33 e8 24 bd 0a ec 09 be f7 b3 80 bb 03 85 1d bc
       -0.040260505 -0.13468948 -0.0039277035 -0.009614232
000040 84 4f 18 3d 3c 9d 8f 3c 3d 4e 87 3d c3 09 37 bd
       0.037185207 0.01753103 0.0660672 -0.044687044
000050 22 12 ea bc 04 2a e4 bd 65 3b 1c bd 6d 44 12 be
       -0.0285731 -0.11140826 -0.03814258 -0.14283915
000060 0f 1d fa bc 67 b8 9b 3c ac 23 01 3d 00 99 12 b9
       -0.030531434 0.019008828 0.03152816 -0.00013980642
000070 52 3a 19 3c d1 67 b8 3d 5c b2 19 3d 45 09 d8 3d
       0.009352284 0.090041764 0.037523612 0.10548643
000080 94 9d 9d 39 8e eb 01 bd 70 5a c1 bd 2b 92 f8 3d
       0.00030062778 -0.031718783 -0.09441078 0.12137254
000090 4b dc 97 3d 64 aa 99 bd 6d b1 0a 3d 8c 06 a2 bb
       0.074150644 -0.075032026 0.033860613 -0.004944628
0000a0 1a c6 3c bd 82 55 16 bd f1 db 77 3d 4b 11 77 bc
       -0.046087362 -0.03670264 0.060512487 -0.015079807
0000b0 7a c7 3e bc d0 78 b6 bd 5d f6 c4 3b a6 f0 9d bd
       -0.011644239 -0.08909762 0.006010814 -0.07711916
0000c0 d5 b5 a1 3c 33 3c 4d bd 79 65 1f 3d 0f b3 a0 bc
       0.019740025 -0.05010624 0.03891513 -0.019616632
0000d0 df 7d 12 3c 40 25 67 bd cb a4 50 3b 19 01 7c 3d
       0.008941143 -0.05643201 0.0031836506 0.061524484
0000e0 93 43 a5 bc eb f6 e0 3c f2 c7 2d bd ac a8 af 3d
       -0.020173823 0.02746149 -0.04242701 0.085770935
0000f0 49 ab 50 bd 1a 4a 6f 3d 92 a6 9c 3c 7b 93 4f 3d
       -0.0509446 0.058420278 0.019122396 0.050677758
000100 16 69 27 be 42 1c 2f 3d 8c 10 0f 3e 8b c7 32 3b
       -0.16348681 0.042751558 0.13971156 0.0027279581
000110 f7 2d 2a 3d f1 8b c9 3c 65 10 0a be 1a 78 29 bd
       0.04154774 0.024602862 -0.13482817 -0.041374303
000120 cb 52 4e bc b4 3b cb 3c 35 64 e9 bd 85 4d ba 3c
       -0.012592982 0.024808742 -0.11396066 0.022742042
000130 6a 80 0a 3d 1c 02 31 be a5 c6 e1 3d 94 84 2d bd
       0.03381387 -0.17285961 0.110242166 -0.042362764
000140 0a 65 57 3d 3c 3d 59 bd dc 9b 2d 3c 0d 08 0a bd
       0.052586593 -0.053036913 0.010596242 -0.033699084
000150 70 00 51 3d 04 2e 2b 3d 46 34 ef bc d7 a5 10 3c
       0.051025808 0.04179193 -0.02919973 0.008828602
000160 d5 04 1c 3b 71 46 9f 3d 68 89 3c 3d c2 17 41 3d
       0.002380659 0.077771075 0.04602948 0.047141798
000170 97 5d f7 bd ba cc 00 bd 75 a9 97 3d b8 74 de 3d
       -0.12078398 -0.031445242 0.07405368 0.10862106
000180 80 be 83 3d 1e 31 54 be 15 2c 5b bc ce ae f7 bc
       0.06432819 -0.20721862 -0.013377209 -0.03023472
000190 e4 17 99 3c 4a 75 eb bd cf 60 cf bd 21 28 10 3b
       0.01868815 -0.114969805 -0.10125887 0.0021996575
0001a0 33 8d b0 bc 6c 3a ea bd 7c 00 ab bc 3c a2 a0 bc
       -0.021551704 -0.11436924 -0.020874254 -0.01960861
0001b0 3f 04 33 3e 01 df 34 3d f3 56 c2 3d 24 8d 96 bd
       0.17482089 0.044157986 0.094892405 -0.07351139
0001c0 be b1 0e 3c 2d 19 8a 3d b7 a4 3a bd ac 60 d6 bc
       0.008709369 0.06743083 -0.04556724 -0.026169144
0001d0 79 30 5b 3d c0 11 43 3e 65 54 21 3e d4 b8 d6 3c
       0.053513024 0.1904974 0.1575485 0.02621118
0001e0 76 00 bb bc fa da 38 bd a8 19 97 3d 61 0a 00 bd
       -0.022827368 -0.045130707 0.073779404 -0.031259898
0001f0 a7 eb f1 bc 1b 92 bb 3d a3 c2 9a bd ad 54 e9 3c
       -0.029531313 0.09158727 -0.07556655 0.02848276
000200 08 d6 fd 3c 03 cb 6d 3d d9 b1 35 bd 91 97 52 3d
       0.030985847 0.058054935 -0.044359062 0.051414076
000210 1d d6 bd 3c 32 23 e8 3d b7 4f 04 3e 73 0b 88 3c
       0.023173386 0.11334838 0.12921034 0.016607022
000220 20 9c be bd 3e 16 41 bd 73 12 b8 bd 2e 8a 14 bd
       -0.09307122 -0.047140352 -0.08987894 -0.03626459
000230 45 b8 cc bd 36 e7 94 bd 8f e7 9a 3d b2 13 b8 bc
       -0.09996084 -0.072706625 0.075636975 -0.022470329
000240 b8 27 38 3b c7 f5 e5 bc bb 32 ae 3d d7 f4 ea bc
       0.0028099846 -0.028071297 0.0850577 -0.028681202
000250 81 09 a1 3c 53 91 69 bd 7a 6e 31 3d a2 a3 88 bd
       0.019657852 -0.057023358 0.04331825 -0.066718355
000260 b4 e9 32 bc c6 b1 2d bd 78 e6 13 bd be 60 b0 3d
       -0.010919977 -0.042405866 -0.036108464 0.08612202
000270 96 5f c9 ba e6 a9 bc 3d ab ff 9d 3d dc aa 47 bd
       -0.001536357 0.09212093 0.077147804 -0.04874693
000280 db c3 8f bd c1 1c 59 be 49 eb af 3c 7e 79 69 3d
       -0.07019778 -0.21202375 0.021474497 0.05700063
000290 bd b8 2e be 0b 13 64 bd 8f 13 80 be 3e f8 49 bd
       -0.1706266 -0.055682223 -0.25014922 -0.049309008
0002a0 0f f9 36 3c 99 62 54 be 4b 6d 4c bd 56 80 86 3d
       0.011167779 -0.20740737 -0.049908917 0.06567447
0002b0 d2 db c4 3d be 59 52 3d b5 47 e3 3d c4 49 4c bd
       0.0961224 0.051355116 0.110976614 -0.049875036
0002c0 28 f3 91 3d a0 c5 52 bc d2 a0 0c bc bd 01 5c 3d
       0.071264565 -0.0128645 -0.008583264 0.053712595
0002d0 8d 06 1b bd d5 31 cf bd ca b4 d1 bd 11 94 2c be
       -0.037848044 -0.101169266 -0.10239561 -0.16853358
0002e0 a8 77 86 3c 05 e2 23 be 01 b0 6e 3d 01 d7 df bc
       0.016414478 -0.16004188 0.05827332 -0.027324202
0002f0 a4 b0 40 3e 48 0e 53 3d cb c3 18 3d 13 98 3a be
       0.18817383 0.05152729 0.037296098 -0.18222074
000300 0b 8e 0a be f2 87 00 be 09 ad 83 be e7 ad 19 be
       -0.13530748 -0.12551859 -0.25717953 -0.15007745
000310 01 44 fc bd 1b 69 98 b9 c0 f9 74 bd 21 67 fb 3d
       -0.12317658 -0.0002907001 -0.059808493 0.1227553
000320 7b 30 da 3b c5 9f a5 3d 36 79 f9 bc 0b 8a c0 3c
       0.0066586114 0.08087114 -0.030453306 0.023503324
000330 61 d1 7b 3d 90 e2 f2 3c 0e 96 b9 3d 45 ea cf bb
       0.061478976 0.029649049 0.09061824 -0.006345066
000340 6d 6b 88 3d e9 86 8c bc 07 f9 56 bd 4a bb 17 3d
       0.06661115 -0.017154174 -0.052483585 0.037043847
000350 fd 2d de 3d 32 b0 81 bc 09 dd 20 be 7b 7a 89 3a
       0.10848615 -0.015831087 -0.15709318 0.0010488773
000360 36 2b 4b be bc d8 b7 bd 8b d4 55 bc cd c1 1b 3d
       -0.19840702 -0.08976886 -0.0130511625 0.03802662
000370 76 ee 72 3d 3a 9a 1b bc 76 3a 8d 3d 89 65 f7 bd
       0.059309445 -0.00949722 0.06895916 -0.12079913
000380 e9 b8 a5 bc 97 82 21 3c 2f 22 6f 3c aa 7a 9b bc
       -0.020229774 0.009857795 0.014595552 -0.01897939
000390 65 cc c5 bd cf 39 bb bc 12 1a 52 3d 02 ca a6 3d
       -0.09658126 -0.022854714 0.051294394 0.08143999
0003a0 46 c9 bd be 7b bd ba 3c 90 d8 73 bd 05 38 66 3d
       -0.37067622 0.02279543 -0.059532702 0.05620577
0003b0 ed 0d cd 3c ed 6b dd bb 51 96 21 be 64 fe 39 3c
       0.025031054 -0.0067572505 -0.15779997 0.011352155
0003c0 ad fd 3b 3c 8f 61 75 3d f5 8a 4c bd ee 7a bc 3d
       0.011474055 0.059907492 -0.049937207 0.092031345
0003d0 a6 41 ed 3b 20 4d 80 3d 94 c4 d5 bd 1d 84 2d be
       0.007240492 0.062647104 -0.10437885 -0.16944928
0003e0 ac f8 b9 3d 23 b9 8d 3c 97 3e ab 3c 2c 08 83 ba
       0.090806335 0.017300194 0.020903869 -0.0009996942
0003f0 59 72 b9 bd 84 a1 67 3a df 3d 08 3d de bf 67 bd
       -0.09055013 0.00088360184 0.03326213 -0.056579463

model.2.bias f4 [256]
000000 5b 69 12 3d 96 fa 21 3d cb 1b b3 bd cd 46 bf bc
       0.035745006 0.039545618 -0.087455355 -0.02334919
000010 f8 ce 73 bd 99 43 f4 3c e1 89 64 3d cd 41 4f bd
       -0.059523553 0.02981739 0.055795554 -0.050599862
000020 d6 8f 6b 3d 69 45 2e bd a7 21 a4 3c d3 4e 39 bd
       0.05751022 -0.042546663 0.020035578 -0.04524119
000030 41 4d 03 3d 39 7a e7 bc 3f b0 61 3d 8b 3a c3 3c
       0.032056097 -0.028256522 0.055099722 0.023831626
000040 e2 45 30 bd f7 a7 10 bd 4c 21 bf 3c 05 3e c5 ba
       -0.043035395 -0.035316434 0.023331307 -0.001504839
000050 27 6b 9f 3c ba 5a 63 bd 4b e8 08 3d 7a 32 9d 3b
       0.019460274 -0.055506445 0.033424657 0.004797277
000060 ea 31 8b 3c a3 5c 2d bd 63 c8 2e 3d f0 3c 30 3d
       0.016991574 -0.042324673 0.042671572 0.043026865
000070 c6 02 ee ba a0 ef 0b bd 5b dc 31 bc 29 6b 82 ba
       -0.0018158786 -0.03416407 -0.0108557595 -0.0009950149
000080 94 ab a3 3c e1 60 37 bd 4f 40 f1 bc 18 4b 36 3d
       0.019979276 -0.044770125 -0.02944961 0.04450521
000090 04 69 dc b9 dd 6b 85 3c 80 73 1b bd ef 7c 35 3d
       -0.00042039913 0.016286785 -0.037951946 0.0443086
0000a0 3c 1a 85 bd 50 32 bf 3c 86 59 9f 3b 14 db 81 bb
       -0.064991444 0.02333942 0.004862967 -0.0039628837
0000b0 72 43 ff bc 71 63 77 3d 4a ba b7 bc d1 97 a5 3c
       -0.03116009 0.06039757 -0.022427697 0.020213993
0000c0 7c 88 ce bc 9b 1a 8b 3d ff 9b e5 3c 92 c1 57 3d
       -0.025211565 0.06792184 0.028028486 0.052674837
0000d0 0b e5 1a bd 9e 4c 22 3d 72 48 85 3d 3c 2b cf bc
       -0.03781609 0.03962385 0.065079585 -0.02528917
0000e0 43 97 03 3d a6 6a 05 bb 02 54 0e 3d 07 b5 f0 b8
       0.032126676 -0.0020357757 0.034748085 -0.00011477811
0000f0 4f a1 27 3d d4 b0 dc 3a 85 91 04 bd 77 7b aa bb
       0.04092532 0.0016837367 -0.03236534 -0.0052027064
000100 dd 76 9c 3c 27 7d b4 3c 76 a1 0b bc e1 8c 0c 3d
       0.019099647 0.022032334 -0.008522382 0.03431404
000110 c6 33 5f 3a 85 b0 7e 3d aa 8f 5c 3d c9 c8 a9 3b
       0.000851449 0.06218006 0.053847946 0.005181406
000120 9c f4 1e bd e6 f4 7d bd d9 19 de 3c fb ef 9c bc
       -0.038807496 -0.06200113 0.027111934 -0.0191574
000130 87 e3 40 bb ca 9f 4e 3d 2a e4 0e 3b 55 8d 25 bd
       -0.0029432492 0.050445355 0.0021803477 -0.040417988
000140 c6 85 89 bd 7b 69 89 bd bf f1 42 3d 96 9f c0 3c
       -0.067149684 -0.06709572 0.04759383 0.023513597
000150 c1 df cf bc a3 2e 97 bc a7 53 66 bd 67 11 bc bc
       -0.025375249 -0.018454855 -0.05623212 -0.022957517
000160 c3 4f 49 3d 02 92 11 3d b4 f9 05 bc ec 69 37 bd
       0.049148332 0.035539635 -0.00817721 -0.04477875
000170 ca e8 00 3c 77 87 11 bd 75 a8 a4 3c e7 ed 83 3c
       0.007868001 -0.03552958 0.020099858 0.016104652
000180 04 d6 17 3d 18 2c 1d 3d 63 da 6f 3c 3c 81 f8 3a
       0.037069336 0.03837213 0.01463947 0.0018959413
000190 9e 50 00 bd c7 9e c8 3c f0 bc 12 bd 1e da a4 bd
       -0.031326883 0.024489773 -0.035824716 -0.08049415
0001a0 2d fc d9 3c 9c c8 7a bd c0 c9 e4 bc 17 df 26 bd
       0.026609505 -0.061226472 -0.027928233 -0.0407401
0001b0 f8 74 23 bc 32 d0 07 3c 21 a5 46 3c 3a da 3d bd
       -0.009976618 0.008289384 0.012124331 -0.046350695
0001c0 4b 23 12 3d 3a b9 b2 39 13 7a 70 3d e0 f1 83 3c
       0.03567819 0.0003408881 0.05871017 0.016106546
0001d0 46 58 51 bc 10 c2 0a bd 5f 37 74 bc 06 eb 1d bd
       -0.012777394 -0.03387648 -0.01490578 -0.038554214
0001e0 c8 2d 3c 3d f8 cc 5b bd d5 50 5a 3d f1 62 30 3d
       0.045942098 -0.05366227 0.053299744 0.043063108
0001f0 bd d0 05 ba 2f 6d 3b 3a 30 9b 7d 3c 33 11 d6 3c
       -0.0005104652 0.00071497535 0.015478894 0.026131248
000200 ca a5 6b bc 83 0b 63 bd 6b 38 aa bb f0 10 58 3b
       -0.014382789 -0.0554309 -0.005194714 0.003296908
000210 69 fc 22 3d 15 46 58 bd 86 e8 6e bc 72 70 be bc
       0.0397915 -0.05280121 -0.014581805 -0.023246977
000220 2d ad 64 3d 08 c3 d0 bc e1 19 ba bc 56 44 24 3d
       0.055829216 -0.025483623 -0.022717418 0.040104233
000230 3d ca 60 3b d4 34 80 3d de e2 ec bc fe 0f 15 bd
       0.003430023 0.06260076 -0.028916772 -0.036392204
000240 bd 66 3a 3b 9d 79 07 3b 2d 97 16 3d 20 54 bf bc
       0.0028442584 0.0020671852 0.036765266 -0.023355544
000250 a0 b9 77 bd 9b b8 bb bc 69 3a 7e bc 3f ab 74 bd
       -0.06047976 -0.022915175 -0.015516856 -0.059733626
000260 64 2a a8 bd d1 d6 19 bc 4c c2 14 bd c0 c6 7d 3d
       -0.0821121 -0.009389595 -0.03631811 0.06195712
000270 01 28 07 3d 49 6f 39 3d 3f d9 f2 bc b3 03 8e bd
       0.032997135 0.045272145 -0.029644607 -0.06934299
000280 b1 69 5b bd 5b 70 d1 bc fb ff 01 3d 2e 9c 17 3c
       -0.053567592 -0.02556627 0.031738263 0.009253545
000290 92 9f 11 bd b8 86 37 bb 28 d2 54 bc ec bf 69 3d
       -0.03555257 -0.0028003883 -0.012989558 0.057067797
0002a0 00 2c 2a 3d 8b 4f 51 bc 74 f5 2f bd 28 c2 31 3d
       0.041545868 -0.012775312 -0.04295869 0.043398052
0002b0 0e 39 05 3d 69 dd 5d bd 0b f8 09 3d c7 ce 71 bc
       0.032525115 -0.05416623 0.033683818 -0.014758772
0002c0 f0 06 3d bd 60 a3 26 3d bf 6a 15 3d 91 b5 bc 3b
       -0.046149194 0.04068315 0.036478754 0.005758949
0002d0 25 1b 83 bc db 07 b5 3c 1f d3 28 bd 46 c4 6d 3d
       -0.016004154 0.022098472 -0.041216966 0.05804851
0002e0 39 e4 ef bc 66 9f d7 bc d5 88 b6 3c 0e 86 8b bd
       -0.02928363 -0.026321124 0.022282043 -0.06812678
0002f0 36 02 04 3d 64 11 3b 3c b7 c3 01 bd 0f dc a3 3c
       0.03222867 0.0114177205 -0.03168079 0.020002393
000300 f0 85 fb bc 0e 60 72 3a ba a5 ab bd 0e 73 31 bd
       -0.030703515 0.00092458806 -0.08381219 -0.043322615
000310 ac e6 80 3c fa 54 86 3b 68 44 49 3d 99 e8 8e bc
       0.015734993 0.0040994855 0.049137503 -0.017444896
000320 14 fb 85 3d bc da 2e 3d d1 47 48 3d 71 bc e3 bc
       0.0654203 0.04268907 0.048896614 -0.027799817
000330 aa 17 3d 3d 3e 6c b9 3c c1 e0 80 bc 23 70 99 bb
       0.046165146 0.022634622 -0.015732171 -0.004682557
000340 4d c6 73 bd cf 64 0f bd 34 6f a2 ba 41 68 5a bd
       -0.059515286 -0.035008248 -0.001239276 -0.05332208
000350 bd 43 6b bd dc 8f 0f bd 89 b6 32 3d 45 09 18 3b
       -0.057437647 -0.035049304 0.04363111 0.0023198884
000360 20 67 06 3d 3a 0c 2d bc 23 1d d0 bc 28 4c 25 bc
       0.03281319 -0.010561997 -0.025404518 -0.010088958
000370 7d c2 56 bd c8 89 b6 3c ae 81 04 3d 8d c4 11 bc
       -0.052431572 0.022282496 0.032350235 -0.008896959
000380 1e 25 0c bd 5a c5 a3 bd 0e 6f ba 3d 4e 84 87 bd
       -0.034215085 -0.07996626 0.09103213 -0.06617032
000390 eb 23 ce 3c 04 7c 0a bd 60 e1 79 bd 8a 3a fc 3c
       0.025163611 -0.033809677 -0.06100595 0.030789632
0003a0 70 23 7b bc bd 06 39 bb 4e 3c 1a 3d c0 fa 0d 3d
       -0.015328273 -0.0028232776 0.037655167 0.034662962
0003b0 d3 9b 61 3c e0 df 91 bd 72 cd 14 bd d6 e4 a8 3b
       0.013770062 -0.07122779 -0.03632874 0.0051542325
0003c0 6b 51 0b 3d 6b c1 b6 3c f8 32 65 bc b4 6d b3 bc
       0.034013193 0.022309026 -0.013989203 -0.021902896
0003d0 e5 3f 0a 3d 36 84 06 3d 8d b2 97 bc 53 fa 7c 3d
       0.03375234 0.03284093 -0.018517757 0.061762165
0003e0 c1 41 bc 3d c8 ff 47 3d 76 d9 1e bc fe 4a 10 3d
       0.09192229 0.048827916 -0.009695401 0.035227768
0003f0 85 55 71 3a cd c1 11 3d 7d 26 9f 3c 39 e3 d0 3b
       0.0009206164 0.035585213 0.019427532 0.0063747433

model.4.weight f4 [256, 256]
000000 25 97 04 3e bd 97 2d 3d 89 b4 dd 3c 3f 63 a7 3b
       0.12948282 0.042381037 0.027063625 0.0051082666
000010 63 96 be 3c 9d 7c 13 bc 10 1b ac 3c d8 88 29 bd
       0.02326507 -0.009001878 0.021008998 -0.04139027
000020 2a 20 d7 bd 6c b9 e3 3c 74 03 86 3d ab ff 97 bd
       -0.10504182 0.027798377 0.065436274 -0.07421812
000030 3b 0c 11 be 2d 8d d5 bb b9 10 9d ba 59 b2 75 bc
       -0.14164822 -0.0065170736 -0.0011983133 -0.014996135
000040 53 50 64 bd c9 e2 3d be 73 20 c8 bc 7d 2b 9e bc
       -0.055740666 -0.18543543 -0.024429535 -0.019307846
000050 24 b1 74 3c 71 eb 89 bd 8f 25 59 3d 87 43 d3 bd
       0.014934812 -0.0673436 0.053014334 -0.10315614
000060 7c 02 aa bd da 7f e3 3c a7 49 4f 3d 03 cc 60 bb
       -0.08301255 0.027770925 0.05060735 -0.0034301288
000070 ce 7e f2 3c dd e4 c5 3d 19 19 df bd 64 01 36 3c
       0.02960148 0.09662793 -0.10893459 0.01110873
000080 ef a3 57 bc 76 5b 96 bd 19 74 9f 3d 5b 11 95 3d
       -0.013161643 -0.073416635 0.07785816 0.07278701
000090 fc c6 a7 3d 06 fe d6 bd 48 be 11 3d f6 77 b1 3c
       0.0819225 -0.1049767 0.035581857 0.021663647
0000a0 bf 20 3a bd 1e 90 d2 bc 58 09 c8 bc 73 8b 9d bc
       -0.045441385 -0.025703486 -0.024418518 -0.019231534
0000b0 21 51 dc 3c 51 1f 88 bd a4 cc 87 3d 7c d1 1b 3b
       0.026894154 -0.06646598 0.06630829 0.0023775985
0000c0 81 19 38 bd 0a 40 b6 bc 1f 58 65 be 67 8a 0c be
       -0.044946197 -0.022247333 -0.22396897 -0.13724671
0000d0 8a d8 88 bd d8 5e 3d bd f8 b0 7b bc 84 93 60 be
       -0.066819265 -0.04623303 -0.015362017 -0.21931273
0000e0 8e 2d 14 bc 36 5d 28 bd ec 7c af 3d 12 cf 50 bc
       -0.009044064 -0.041104518 0.08568749 -0.012744682
0000f0 8e 90 c8 3b 07 d6 67 bd 54 73 eb 3c 55 82 a8 be
       0.006120748 -0.056600597 0.028741516 -0.32911935
000100 9a 45 08 bd 9d b1 c7 3d 33 32 9b bd 39 8c 25 3b
       -0.033269502 0.09750674 -0.07577934 0.0025260581
000110 8a c1 70 3d b1 81 fc bc 19 a7 a2 3c df 39 1e be
       0.058778323 -0.03082356 0.019855069 -0.15451764
000120 a8 5e a2 3c 8e 4b 00 3c 95 53 5b bd ab b9 e2 bd
       0.019820526 0.007830514 -0.053546507 -0.110705696
000130 77 cd b6 bc 98 a9 6d 3c aa 81 bb bd c0 70 c4 bd
       -0.02231477 0.014505766 -0.09155591 -0.09591818
000140 bb 00 2f be 4a 34 e7 3d 7f 3c b4 3d 9e 1b 15 3d
       -0.17090122 0.1128927 0.08800601 0.03640329
000150 c5 a4 48 be ca 0d 8d be 68 58 4e 3d 11 2d ee bc
       -0.19594105 -0.27549583 0.05037728 -0.029074224
000160 de 12 5c be 35 e4 22 be 28 24 a8 3c 20 c7 69 3c
       -0.21491572 -0.15907367 0.020525053 0.0142686665
000170 bf fc 97 bd db b1 ad 3c b8 21 58 bd 96 e1 5d bd
       -0.07421254 0.021202972 -0.05276653 -0.054170214
000180 3b 08 9c 3a 86 25 86 3c 47 5d 36 bd be 9c 9b bd
       0.0011904308 0.016375314 -0.04452255 -0.075982556
000190 66 66 ff 3c 3b cf ad bd 18 17 24 3d de 6b fb 3c
       0.031176757 -0.08486792 0.040061086 0.030691084
0001a0 bf 16 a7 bd 95 03 bd 3d c0 72 dc bb eb e8 50 bb
       -0.08158635 0.09229199 -0.0067275465 -0.0031877111
0001b0 04 17 83 be 7c fe 82 bd c8 f7 d8 bb 87 fa 9a bd
       -0.25603497 -0.06396195 -0.0066213347 -0.075673155
0001c0 62 89 41 be 9e af a3 3e c3 3c f0 bd df 58 81 3c
       -0.18900064 0.31969923 -0.117303394 0.015789447
0001d0 43 ed 7a 3d e7 73 f9 3c cc 57 16 3e 2c 38 12 bc
       0.061261427 0.030450774 0.1468193 -0.008924525
0001e0 32 11 9c 3d a9 37 f8 bd 8b 37 e8 bc 04 52 8b bc
       0.07620467 -0.12119991 -0.028346797 -0.017006882
0001f0 d1 c6 f8 3b 2b 07 c3 be e7 0a d5 3c 5b a5 9a 3c
       0.00759206 -0.38091406 0.026006175 0.018877676
000200 bb 9b b6 3c 9a bf 8b 3d 24 c6 48 39 65 73 4b 3d
       0.022291055 0.068236545 0.000191473 0.049670596
000210 5f c3 34 3d 42 08 84 3e cf 38 4d 3d 6c 73 77 bb
       0.044131633 0.2578755 0.050103005 -0.0037758006
000220 cb d3 8c 3d 0d f4 cf 3d c3 d5 7b be ec 7e dc bd
       0.06876334 0.10153971 -0.24593262 -0.10766396
000230 7f 2c aa 3d 5d 90 94 bd 27 2d ce 3d 2b 99 68 3c
       0.08309268 -0.072540976 0.10067206 0.014196674
000240 25 a6 5e 3b 54 1f b9 bc f8 bc 17 3d 12 2a 1a be
       0.0033973542 -0.022597946 0.03704545 -0.15055111
000250 01 2f ee bd df 89 1f bb 58 a7 82 3d de 1e f5 3c
       -0.11630059 -0.0024343652 0.063795745 0.029921945
000260 34 4e 0c 3d 39 4d b8 b9 cc c5 ea 3c d9 97 8e bd
       0.034254268 -0.0003515275 0.02865877 -0.069625564
000270 f0 b7 80 3a 3d 3e 18 3d 54 fe 5e be fb f8 3e 3e
       0.0009820443 0.03716873 -0.21776706 0.18649666
000280 5e 37 bc 3d 06 76 c0 bc bc f2 69 bd c4 ab cd bd
       0.09190248 -0.023493778 -0.057116255 -0.10042527
000290 28 fc 94 3d 06 67 02 3d b5 07 57 be 2d f7 ce 3d
       0.072746575 0.031836532 -0.20999034 0.10105739
0002a0 b5 db 0a 3e 4d 5f 98 3c a2 52 3f 3e 6f fe 86 3b
       0.13560374 0.01860013 0.18683866 0.0041196863
0002b0 9e 78 f7 bc cc 84 09 be 3e 72 48 bd 2a 8e 08 be
       -0.030208882 -0.13429564 -0.048937075 -0.13335481
0002c0 3b 62 82 3c 20 7a f2 bb 4a d7 26 3d 1a 0a 3d 3d
       0.01591598 -0.0073998123 0.04073266 0.04615221
0002d0 7d 91 5f bc fa 04 67 bc d8 86 0e bd 7c 0d 0e 3d
       -0.013645527 -0.014100308 -0.034796566 0.03468083
0002e0 9e f5 f3 bd 14 f3 97 3d a7 d1 37 bd fe 5c 34 bd
       -0.11912082 0.0741941 -0.044877674 -0.044033997
0002f0 49 40 4d bd 92 6b 7a bd d0 4a fa 3b 57 bf d3 bd
       -0.050110135 -0.061137743 0.007638313 -0.103392296
000300 1d 95 3e be 9d b1 61 3d cc 7a 2b bd bb e6 f2 3d
       -0.1861157 0.055101026 -0.041865155 0.118604146
000310 90 fe 84 3d 90 a7 20 be 1c c7 a9 3d 09 c5 96 bd
       0.064938664 -0.1568892 0.0828993 -0.073618
000320 d0 71 40 bd ec a3 a7 3d b9 11 2e bd 93 6c 30 bd
       -0.04698354 0.081855625 -0.04249737 -0.043072294
000330 1d 16 38 bc 27 b4 95 bd 09 8d a0 ba c4 8c 24 3c
       -0.011235741 -0.07309752 -0.0012249063 0.010043327
000340 fc 2d 39 bd c6 9c 19 be d0 dc 55 bd 8a 53 5c be
       -0.04520987 -0.1500121 -0.052212536 -0.21516243
000350 6b ed ac bc c7 24 82 3d ca e6 31 bd 5d 75 4d bd
       -0.021109303 0.06354671 -0.04343299 -0.050160754
000360 d7 c9 84 bd ad 48 d5 bc 0c 3d 33 bd f8 a3 cd ba
       -0.064838104 -0.026035631 -0.04375939 -0.0015689125
000370 d7 59 67 bc 54 ce f9 bd 77 33 81 3d 0b 1c 9b 3d
       -0.014120541 -0.12197557 0.06308644 0.07573708
000380 18 27 8c be e1 25 1e be f8 c4 ae 3d 52 7e 52 3d
       -0.27373576 -0.15444137 0.085336626 0.05139
000390 9d 6c 3e bd b0 fb e7 bd 2a 77 be 3c 6b bd 69 be
       -0.0464903 -0.113273025 0.023250181 -0.22826163
0003a0 b2 07 c2 bd 98 da d1 3b e9 5e be 3c 4b e7 6d bd
       -0.09474124 0.0064042322 0.023238616 -0.058081906
0003b0 c8 f7 df bd ca 39 14 3e 95 a2 c0 bd af c0 cc bc
       -0.109359324 0.1447517 -0.0940601 -0.024994222
0003c0 fa 7e 25 3d 04 16 88 bd f1 5f 49 3e 89 27 ff bc
       0.040404297 -0.06644824 0.19665505 -0.031146782
0003d0 16 4d c7 3c 11 7e 68 bc 88 40 f9 bd 11 4e 47 bd
       0.02432875 -0.014190213 -0.121705115 -0.048658434
0003e0 8a 21 e0 3c 57 3b eb 3d 85 ae 6c 3d da bd 6e bb
       0.027359743 0.114859276 0.057783622 -0.0036429078
0003f0 d6 f5 ce bd e7 b3 64 3c 23 7e f8 bc 15 47 25 3d
       -0.10105483 0.013958908 -0.030333584 0.040350992

model.4.bias f4 [256]
000000 06 bb 84 3d 99 29 62 bd 4b 9f ee 3c 9f 70 88 3b
       0.064809844 -0.055215452 0.029128691 0.004163816
000010 86 e5 ae 3a cc 2f 25 3d 62 10 50 bd 08 e0 86 3d
       0.001334355 0.040328786 -0.050796874 0.06585699
000020 3b be 64 3d 4d 00 83 3d 46 56 85 bc c0 90 40 3d
       0.05584548 0.06396542 -0.01627649 0.047013044
000030 99 26 e4 bb cb 76 02 bd 04 79 91 3c 83 83 5f 3d
       -0.006962609 -0.03185157 0.0177579 0.05456878
000040 eb 07 8a bd 04 eb 4c 3d 19 ad 1f 3d ed bc ed bb
       -0.067397915 0.050028816 0.03898344 -0.0072551877
000050 a4 71 b2 bc 29 2b 6f 3d b7 10 c5 bc 21 63 24 3d
       -0.021782704 0.05839077 -0.024055822 0.0401336
000060 7d 44 f8 3c 91 6e 72 3c 9a 10 a0 3d d5 d2 51 3d
       0.030306095 0.014796869 0.078156665 0.051226456
000070 d4 f5 8b 3c 17 a0 a6 3d 06 91 c9 3c 31 20 fc bc
       0.017084993 0.081360035 0.024605285 -0.030777069
000080 05 aa 1c 3d d9 74 06 3d 37 8e 76 3a 19 91 90 bc
       0.03824808 0.03282628 0.0009405347 -0.017647313
000090 93 9f 99 3d 32 7c 60 bd 12 55 cf bc 42 01 52 3d
       0.075011395 -0.054805942 -0.02530912 0.05127073
0000a0 43 6e 91 bc 4f 04 79 3d 5a 0a 1d 3d 39 ac f9 3a
       -0.017752772 0.060795125 0.03833995 0.0019048519
0000b0 28 a0 b7 ba fb f4 f0 bb 70 12 d4 bc 57 a4 32 bd
       -0.0014009522 -0.0073534227 -0.025887698 -0.043613758
0000c0 b6 e4 ef bc 0e c4 49 3d bd 87 d2 3c 27 d4 f2 3b
       -0.029283863 0.049259238 0.02569949 0.0074105444
0000d0 be 6d 93 bc 94 c7 ee bd 1f 02 03 bd ba 19 08 3d
       -0.017996665 -0.1165916 -0.031984445 0.03322766
0000e0 1d 54 48 3d 34 0f 80 3d ae d1 57 bc cc 43 a2 3b
       0.04890834 0.062529 -0.01317255 0.0049519297
0000f0 bc 37 00 3d ad 47 13 3c fb 4f 21 3d a8 2f bf 3c
       0.031303152 0.008989257 0.039382916 0.023338154
000100 75 ec 8a 3d 83 7b 05 bd b5 de 7d 3d 8e 7a 08 bd
       0.06783382 -0.032588493 0.061979968 -0.033320002
000110 9b 70 12 bb b0 0a 96 3d 97 35 07 bc 0a ce be bc
       -0.002234495 0.07326257 -0.008252523 -0.023291606
000120 36 17 36 bd 0f 10 d9 bc 60 7d 9d 3d e0 99 9f 3d
       -0.04445573 -0.026496915 0.07689929 0.07793021
000130 e8 d5 ce bc 5f ac c1 bc ab 9e 0e 3d 9f a9 ad 3d
       -0.025248483 -0.023641763 0.034819286 0.08479618
000140 07 61 9d 3d 72 3a bf 3c e4 12 58 3d aa a5 56 3d
       0.07684522 0.023343299 0.05275239 0.052404083
000150 cd 3e 8a bc e7 63 8f 3d fb 2f 47 3d c3 f2 a8 3c
       -0.016875649 0.07001477 0.048629742 0.02062357
000160 fe f2 5b 3d 01 26 43 3d 4b 10 70 bd c1 72 9c bd
       0.053698532 0.047643665 -0.05860929 -0.07639075
000170 97 61 6d 3d cc 33 4e 3d c0 3e c5 bd f1 02 23 bd
       0.057954397 0.050342366 -0.09631109 -0.039797727
000180 d6 0c fc 3c f8 0f 45 3d 94 b7 ad 3c f9 75 76 3d
       0.03076784 0.048110932 0.021205701 0.0601711
000190 0a 7b 76 3d c3 b6 19 bd 03 35 a7 3c ef 6f 54 bd
       0.060175933 -0.03752781 0.02041102 -0.05186456
0001a0 9e ed 05 bd 6a 60 97 3d e7 70 5d 3d 38 17 2d 3d
       -0.032697313 0.073914364 0.05406275 0.04225847
0001b0 5c a0 8c 3d 39 75 21 3d ac fc e7 bb 72 e7 86 3c
       0.068665236 0.039418433 -0.0070796814 0.016467784
0001c0 51 1a d0 3c 61 a3 7c 3c 6d a9 23 3c 17 6e a8 3b
       0.025403174 0.015419812 0.009989125 0.005140077
0001d0 5a 3d ca bc 65 1b 71 3d 53 c2 82 bd f0 8f 48 3d
       -0.024687458 0.058864016 -0.06384721 0.048965394
0001e0 5a 64 9d bd b9 e3 77 bc 0c eb 01 bd 9d 0e 7a 3d
       -0.07685156 -0.015129977 -0.0317183 0.061049093
0001f0 65 b4 2e 3c 78 3e fc 3c 0a bf 1b bd d5 65 12 bd
       0.010663127 0.030791506 -0.038023986 -0.035741646
000200 ee a7 8a bd 8f 11 3b 3c 2e 34 7f bd a2 30 72 3d
       -0.06770311 0.0114177605 -0.06230562 0.05912841
000210 4b cd 33 3d e7 f2 f8 3a 02 26 c8 bd 22 69 7e bd
       0.043896955 0.0018993289 -0.097728744 -0.06211198
000220 91 07 87 bc 76 5d 08 3c cd ab 44 3d 84 cb 80 bd
       -0.0164831 0.008323064 0.048015404 -0.062888175
000230 34 51 a4 bd e8 65 ad bc b8 1d 59 3d 77 96 14 3d
       -0.08023301 -0.021166757 0.053006858 0.036276307
000240 40 76 27 bd 35 8c 94 3c ba 2f 64 3c 8a e8 e8 bc
       -0.040884256 0.018133262 0.0139273945 -0.028431196
000250 00 0a 21 3c f9 b1 5e bd 41 a2 20 bd 17 be 01 3d
       0.009829044 -0.054368947 -0.039217237 0.031675424
000260 0e c9 9c bd 1c e9 d0 3c 3a 94 2e bd a5 b2 4a bd
       -0.07655536 0.02550178 -0.04262183 -0.049486775
000270 f1 3c d3 bc bf 56 b6 bc e4 aa 8a 3b b5 c0 81 3b
       -0.025785895 -0.02225816 0.0042317975 0.00395974
000280 5a e6 bf 3c 21 63 db 3c b1 c8 8d 3d 95 ff 29 bd
       0.02342527 0.026780667 0.069230445 -0.041503508
000290 4f d7 ab 3c 76 d6 22 bd 5e 95 0c bc 7e fd 79 3c
       0.02097669 -0.039755307 -0.008580534 0.015258191
0002a0 16 31 5a 3d 28 e4 77 3d f5 10 6b 3d ad c3 6d 3d
       0.05326947 0.06052032 0.05738922 0.05804794
0002b0 37 e5 91 3b f4 89 10 3d a3 b9 88 bd 13 25 85 bd
       0.0044523734 0.035287812 -0.066760324 -0.06501212
0002c0 54 cd 61 bd bf 19 d1 3d c3 7e dd bc 26 94 b8 3d
       -0.055127457 0.10209989 -0.027037984 0.09012632
0002d0 b5 6e 1e bd 1c c2 3a 3d cf e1 98 bd a8 ca 7d 3d
       -0.038679797 0.045595273 -0.074649446 0.061960846
0002e0 44 38 1b bd f5 14 1f bd fb 07 68 3c 75 32 5d bd
       -0.037895456 -0.038838346 0.014162059 -0.054003198
0002f0 49 8e 92 3d ae 0e 20 bd 38 44 de bc 61 2f 72 3d
       0.07156045 -0.0390765 -0.027132139 0.059127215
000300 7d 57 c3 3c 0d bd 28 3c 99 36 29 3d 1d d1 6c 3c
       0.023845429 0.0102989795 0.041311834 0.014454153
000310 b2 63 33 3d f0 8d 81 3d 4a 4c 57 bd a8 b2 f6 3c
       0.04379625 0.063259006 -0.05256299 0.030114487
000320 e2 da 93 bd 1b 07 0b 3d b8 b4 76 bb 82 e2 2f 3d
       -0.07219483 0.033942323 -0.0037644338 0.042940624
000330 75 8b 0d bc 12 af 6f bd 69 44 5a bd ec 77 3b bd
       -0.008639206 -0.05851657 -0.053287897 -0.045768663
000340 a7 64 b9 3d 0c 25 9e bc 64 48 b0 bc e6 05 56 bd
       0.09052401 -0.019304775 -0.021518894 -0.05225172
000350 de 4d 5d 3c 26 40 19 3d 9c 51 2e bd 8a 7b 10 bd
       0.0135073345 0.037414692 -0.042558298 -0.035274066
000360 a6 b3 e8 bc 1d 4d e8 3c 5a 69 18 bb 7d 25 6e bc
       -0.028405976 0.028357083 -0.0023256154 -0.014535305
000370 c1 eb 88 3d 05 89 f1 3c 52 5c 54 bd ef 40 0d 3d
       0.066855915 0.029484281 -0.051845856 0.034485754
000380 34 8d 8a 3d cd c0 ae bd b5 9b 98 39 5f a4 71 3d
       0.067652136 -0.085328676 0.0002910771 0.058994647
000390 93 dc 9a bc 2e ad a1 bd 91 b2 95 3d bc 05 70 3d
       -0.018904006 -0.078943595 0.073094495 0.05859922
0003a0 b0 e2 5e 3d fe 9a 8b 3d ea 91 8a bc ec da 2d bc
       0.054415405 0.06816672 -0.01691528 -0.010611277
0003b0 9a 92 31 bd c8 12 0b 3e 65 5a 99 bc 18 36 17 3d
       -0.0433527 0.13581383 -0.018719861 0.036916822
0003c0 16 47 93 3c 9e 75 90 bd 9a 9f cd 38 ad 1e f2 3c
       0.017978232 -0.07053684 9.80489e-05 0.029555643
0003d0 f0 50 9a 3d dd 8a a9 3c 5e 91 27 bd 23 40 96 bc
       0.07534969 0.020696098 -0.040910117 -0.01834113
0003e0 07 4d bc bc ce a1 95 bc f3 e5 d9 3c 44 3d 9c bd
       -0.022985948 -0.018265631 0.026598906 -0.07628873
0003f0 3a ba a0 bc 6b 50 a5 bc 63 df 99 3b f6 ec da 3b
       -0.01962005 -0.020179948 0.004695819 0.00668108

model.6.weight f4 [16, 256]
000000 d1 bb 48 be 86 69 d9 3c e4 90 1b be 1f ae 77 be
       -0.19602896 0.026539575 -0.1519199 -0.24187516
000010 36 76 0c bd 13 50 98 bd 26 ba b1 3d 34 0a ea 3e
       -0.034292422 -0.07437148 0.08678083 0.4571091
000020 a6 77 27 3c d8 ab 90 bd f8 4a 03 bc d1 bd 22 bd
       0.0102213975 -0.070640266 -0.008013479 -0.039731804
000030 32 d7 87 bd 82 f9 4d 3d 3e e8 03 bf d3 50 f9 3d
       -0.06632842 0.050286777 -0.5152625 0.12173619
000040 f9 2d d3 bc 6f 4e 62 be 43 ee 8e be 53 ec 1e bd
       -0.025778757 -0.22100233 -0.27916154 -0.038799595
000050 b9 c8 af 3d 41 6d e1 bd 48 d4 e2 be ed 51 45 3e
       0.08583207 -0.11007167 -0.44302583 0.19269533
000060 50 e4 32 3d ed b0 08 bd 63 ea 06 3e 82 15 5d bd
       0.043674767 -0.033371855 0.13175349 -0.05397559
000070 f0 f9 73 bc 8b 86 29 bd 8e 76 00 be 4b 11 a1 bd
       -0.014891133 -0.041388076 -0.12545225 -0.078646265
000080 3a c6 1c 3e f6 d6 5e 3d 00 39 fa 3d da 71 75 3e
       0.15309992 0.05440422 0.12217903 0.23969212
000090 1e 87 2a 3d 16 64 0f 3e 1f 93 4a be 4c 4b 56 be
       0.041632764 0.14003024 -0.19782685 -0.20927161
0000a0 0c d8 b0 3d cd 05 75 bd 24 e4 6a be 06 fc a5 3d
       0.08634958 -0.059819985 -0.22938591 0.0810471
0000b0 93 8e 21 3c 5a 2e a7 3d 7a 64 bc bd 8a f0 35 3d
       0.0098606525 0.08163138 -0.09198852 0.04441885
0000c0 62 08 a9 bd 3a 51 2a 3d f9 97 80 3c a5 ad 5b 3d
       -0.08253552 0.04158137 0.015697466 0.053632397
0000d0 1f 0a d2 bd 78 d6 46 3e 6d 79 c6 3d 50 2d 10 3e
       -0.10255837 0.19417751 0.09691129 0.14079785
0000e0 af 36 cc be 41 33 88 bc 81 0f 4b bd d8 f9 61 3f
       -0.3988547 -0.016626002 -0.049575333 0.88271856
0000f0 88 30 cb bc 8d 16 e5 3c 85 1b 45 be df b8 d3 bd
       -0.024803415 0.027964855 -0.19248779 -0.10337996
000100 a0 85 4e 3e 77 a8 a3 be 7b d5 59 3e ba 02 aa 3d
       0.20168161 -0.31964466 0.21272843 0.08301301
000110 93 5a 9d be 55 8d 97 3d 80 63 ed bb 53 f4 fd 3e
       -0.30733165 0.07400004 -0.0072445273 0.49600467
000120 14 79 f2 bd 76 95 de bd a8 3e 6f 3e a1 ff b3 3c
       -0.118395 -0.10868351 0.23363745 0.02197248
000130 89 6d 9e bb bc ed ce 3d 27 16 6b 3d 86 81 51 3f
       -0.004834835 0.10103938 0.057394173 0.8183826
000140 fd 1b 03 3f 00 7b 87 3d 13 88 c2 3d 90 97 16 bd
       0.5121458 0.06615257 0.0949861 -0.036765635
000150 b6 0c 3e 3e eb 75 70 be 5b 6d 73 be f2 f7 03 be
       0.18559536 -0.23482482 -0.23772185 -0.12887552
000160 f9 04 c7 3d 4b d4 a4 bd 7b d2 10 3d 06 4b 19 bd
       0.09717745 -0.08048304 0.03535698 -0.037425064
000170 f2 ca fa bc 6b 4f 2e be 12 2c 4e 3c e2 54 bd be
       -0.03061435 -0.17022483 0.012583749 -0.36978823
000180 3c a3 32 bd dd 68 29 bc 95 e5 45 3d a2 bd 14 3d
       -0.043612704 -0.010339943 0.04831465 0.03631366
000190 37 10 28 3d df bb 3e 3c 0c 85 d1 bd a8 b5 01 bd
       0.04103109 0.011641472 -0.10230455 -0.03166738
0001a0 28 e3 ed be a9 64 07 bc de bf 14 3e 5c f8 98 3d
       -0.4646237 -0.008263745 0.14526317 0.07469246
0001b0 31 9f 83 3d 5d 70 44 bd 04 9b b9 3c ea ec 9f bd
       0.06426848 -0.04795872 0.022656925 -0.0780886
0001c0 6d 56 1c 3d 07 83 67 3d cd cd 95 bd db bb c4 3d
       0.03816836 0.05652144 -0.07314644 0.09606143
0001d0 15 79 0c be 89 c3 b2 3d 43 12 2f bd 5a fd 6e be
       -0.13718064 0.087287016 -0.042742025 -0.23338833
0001e0 56 2a 30 3e 0c c8 52 bf 92 b6 fc be 70 eb ce bd
       0.1720365 -0.823365 -0.4935804 -0.101035
0001f0 ad 41 59 be d8 10 c5 bd 9e 17 c9 3d da 07 f0 bc
       -0.2121646 -0.09622353 0.09818958 -0.029300619
000200 85 40 65 bb d5 5b cd 3e 14 65 16 bd 62 cb a3 bd
       -0.0034981084 0.40109125 -0.03671749 -0.079977766
000210 50 45 32 3d dd 0b c5 bd 5b 6d f3 3c 7e 48 c2 3c
       0.043523133 -0.09621403 0.02971523 0.023716208
000220 ac c3 79 3d da dc f7 3d 9f 0f 00 3e 48 21 82 bd
       0.060977623 0.12102671 0.12505959 -0.06354004
000230 7d 70 4d 3d f4 c0 94 bd d4 80 01 3f d2 46 4e 3f
       0.050156105 -0.072633654 0.505872 0.80576813
000240 4b 64 99 bc 64 4e 88 bd be 7f 15 bf 42 eb e0 bd
       -0.018724581 -0.06655577 -0.58398044 -0.10982372
000250 1e f4 b7 bd d4 e7 16 be 70 45 96 be 3f 77 84 be
       -0.089821085 -0.14736873 -0.29349852 -0.25872228
000260 7d 7f 96 bc 5c 52 3f be 36 91 88 bd d6 72 36 be
       -0.018371338 -0.18683761 -0.06668322 -0.17817244
000270 a0 72 16 3d c5 17 86 bd 94 b8 21 be 0f 05 be be
       0.03673041 -0.065475024 -0.15793067 -0.37113234
000280 da d4 30 be d0 11 f9 3c 14 f8 b8 bc 4f fe 33 3d
       -0.17268696 0.030404001 -0.02257923 0.0439437
000290 d7 52 a8 bb e9 a8 1e bc ef 91 01 3d 34 30 b2 3d
       -0.0051368284 -0.009683826 0.031633314 0.087006
0002a0 dd d1 11 be 74 ba c2 3c f4 f7 11 3d b8 50 10 bd
       -0.14240213 0.023770548 0.035636857 -0.03523323
0002b0 20 02 b9 3d 3b a5 b9 bd 5b e0 d4 bd f0 b5 47 3d
       0.090336084 -0.09064718 -0.10394355 0.048757493
0002c0 d8 89 be bb af fc 02 bd 2d 10 3a bd c9 b3 12 be
       -0.005814772 -0.03197926 -0.045425583 -0.14326395
0002d0 36 f0 73 be 16 1d 93 be 21 e3 b5 bd 16 25 16 be
       -0.23822102 -0.28733128 -0.08881212 -0.14662585
0002e0 84 c9 0f bf 7c 60 cf bd 4b 42 3a bc 41 ea 46 bc
       -0.56166863 -0.10125825 -0.011368345 -0.012140811
0002f0 6c 5d 0e 3e d8 a6 41 bd 6b 5d ac bc c3 e6 7b be
       0.13902825 -0.047278255 -0.021040639 -0.24599747
000300 4a c9 26 3f ce 88 0f be 4a 7d 4e bb 7a 30 1a 3d
       0.6515089 -0.1401703 -0.0031507784 0.037643887
000310 a1 3f 0c bd 33 ec 49 bd 14 fb 37 3c b7 9a 5c be
       -0.03424037 -0.049297523 0.011229295 -0.21543394
000320 db 87 3e 3c c9 b9 0f be a9 d5 8b be 2b c5 06 be
       0.01162907 -0.14035715 -0.27311447 -0.13161151
000330 46 d6 87 be 4a 43 67 bd 64 0d e3 be 3e fd e1 be
       -0.26530665 -0.056460656 -0.44346154 -0.4413852
000340 77 88 4c bd c5 a4 99 3c b6 c9 79 bd 42 bf c6 3c
       -0.04993483 0.018755326 -0.060983382 0.02426112
000350 a9 07 55 bc e3 20 6d 3c f7 fb a6 3d c3 46 bf 3d
       -0.013002315 0.014473173 0.08153527 0.093396686
000360 d0 12 ae be d8 f6 09 be d5 15 a4 3c 48 95 18 bd
       -0.33998728 -0.1347307 0.020029942 -0.03725174
000370 2c d8 89 be a1 03 21 3b 87 5e f9 bc 6a 82 ca 3d
       -0.2692274 0.0024568813 -0.030440582 0.09888156
000380 65 68 e5 3c af 14 27 bd 7c ff 91 3e 6d 0f 07 3d
       0.02800388 -0.04079121 0.28515232 0.032973696
000390 e0 81 6f 3d 2c 36 56 bd 3f 19 3f be d9 79 67 3e
       0.058473468 -0.052297756 -0.18661974 0.22605075
0003a0 62 66 cd 3d 52 04 43 bc f3 61 80 bd c3 70 2e bd
       0.100292936 -0.0119028855 -0.06268682 -0.042588007
0003b0 17 97 fe bd f0 00 f3 bc 8e 3f 51 bb 6d a8 d1 bc
       -0.12431162 -0.029663533 -0.003192875 -0.025593007
0003c0 14 ea 1d be 3c ad 51 bc ee 89 d4 3c 3b 93 25 bd
       -0.15421325 -0.01279765 0.025944676 -0.040423613
0003d0 c9 5a 0c 3f 41 ab b3 3c c6 9f df 3c 98 46 2f be
       0.5482603 0.021932246 0.027297866 -0.17116773
0003e0 13 62 3b bd b4 a4 d6 3b 85 17 05 3d a4 b1 a1 3d
       -0.045747828 0.006550396 0.032493133 0.078952104
0003f0 cc fe 79 3c 5e 02 ce 3d 92 f2 e4 bc fb ac 74 be
       0.015258502 0.10059045 -0.027947698 -0.23894112

model.6.bias f4 [16]
000000 c1 73 19 3d 3f 17 1e bd e7 bc 81 bd 7d 8d 21 3d
       0.037463907 -0.038596388 -0.063348584 0.039441574
000010 65 1a 77 ba 75 1d 48 bd c7 b7 ed 3d 2e e8 14 bc
       -0.00094262353 -0.048856217 0.11607318 -0.009088559
000020 95 c2 60 3c 63 4b 9c bd 40 af d1 3b 3e ab 3c bd
       0.013718267 -0.076315664 0.0063990653 -0.046061747
000030 89 e4 ae bd 36 44 9d 3c 77 67 ee bc e2 cc 5f bc
       -0.08539683 0.019197565 -0.02910207 -0.013659688
