data/checkpoints/rlgym-ppo-run-1760799561315875500/836424108/PPO_POLICY.pt (torch, 638775 bytes, 8 tensors)

model.0.weight f4 [256, 89]
000000 b5 b9 e8 be 3c 37 4b 3e 7c 5f a9 be 31 9a e3 ba
       -0.45454183 0.19845289 -0.3308066 -0.0017364678
000010 47 ef 4f 3c 6d 67 e1 bd 42 1f ba 3c 11 55 55 3c
       0.0126913255 -0.11006055 0.022719983 0.01302077
000020 88 55 ae bc fc 66 89 3d d3 05 a1 bc e6 40 9e bc
       -0.021281019 0.06709096 -0.019656098 -0.019318055
000030 b8 e7 06 bd 04 bc 76 bc dc 44 50 bd 10 b6 c0 3c
       -0.032935828 -0.015059475 -0.05084692 0.023524314
000040 81 f9 30 bc 68 84 35 3d 5f 08 28 bd d1 f6 ba 3c
       -0.010801674 0.044315726 -0.04102361 0.02282277
000050 a2 e0 88 3d 5a e9 10 3c c0 6f 49 3c 78 7e b5 3d
       0.0668347 0.008844698 0.01229471 0.088620126
000060 ce 4a 8a bd ba 48 a3 3c ed fe 7a bd 5a df a0 3d
       -0.06752549 0.01993214 -0.061278272 0.07855101
000070 ba ce ad 3d aa 53 d8 bd f3 c3 b2 3d f3 42 e8 3c
       0.084866956 -0.10562833 0.087287806 0.028352236
000080 09 93 00 3d 98 39 e5 3c a5 9f 93 3d ac 52 05 bd
       0.031390224 0.027981564 0.07208184 -0.032549545
000090 9b cc d9 bd 06 70 00 3c aa 0e ad bd 6c 9a cc ba
       -0.106347285 0.0078392085 -0.084500626 -0.0015609986
0000a0 f2 d1 80 bc 3a cb 87 bd d8 0d 92 bc 80 10 a4 3d
       -0.01572511 -0.06630559 -0.017828867 0.080109596
0000b0 e4 56 95 bc e4 ac 98 bb a7 ea bf bc 9a 7c ec 39
       -0.01822991 -0.004659282 -0.02342732 0.00045106263
0000c0 ff 3d ae 3d e8 79 36 3d 30 c7 b0 ba 7a 99 83 3e
       0.085079186 0.044549853 -0.0013487097 0.2570303
0000d0 74 73 5c bd 15 59 4a 3f 88 a0 04 be d7 3a ff bd
       -0.053821042 0.7904218 -0.12951863 -0.12462395
0000e0 05 c0 b9 be b5 0c 88 be 41 98 95 3e dd 5b 77 bd
       -0.36279312 -0.26572195 0.29217723 -0.060390342
0000f0 04 45 84 be cf 84 ad 3d 37 78 db 3e 10 bc 3a bf
       -0.25833905 0.08472597 0.42865154 -0.7294321
000100 7a e0 32 be 01 46 00 be 67 aa 73 be d3 9a 1f bd
       -0.17468444 -0.12526704 -0.23795472 -0.03896601
000110 0d 34 41 3c 78 3a 0c 3e 93 ef 36 3e db e5 9e 3d
       0.011792195 0.13694179 0.17864828 0.07758685
000120 a6 1d ec bd df f6 b0 bb 14 47 05 3d e3 0f 80 3b
       -0.115290925 -0.005400523 0.03253849 0.003908144
000130 50 e5 ee bb 0f 7b 3e 3d 5a 4c 37 bb 9d 3b 68 bd
       -0.00729052 0.046504077 -0.0027969093 -0.056697477
000140 3a 8e cf 3b 24 08 9d be 7d 01 73 3c 36 af 15 3d
       0.0063340934 -0.30670273 0.014831898 0.036544047
000150 1c 0d 16 bd 9b c7 0d bb 05 82 d7 bc 3b 0a 76 3d
       -0.036633596 -0.0021633867 -0.026307115 0.06006835
000160 17 27 11 3e 63 c1 88 bd 14 91 74 be 19 44 87 3d
       0.14175068 -0.066775106 -0.23883468 0.066047855
000170 00 23 37 be 7b ea c6 be 0f b1 8b bd ee 0b 8d bd
       -0.17884445 -0.3885077 -0.068208806 -0.06887041
000180 fe 6d 82 3e 9d 20 3f 3e 6c 70 c1 3d db e2 13 bd
       0.25474542 0.18664785 0.09445271 -0.036105018
000190 07 cf 89 3b 90 76 12 bd 2a 97 51 3c cf 92 10 bd
       0.004205588 -0.0357576 0.012792388 -0.035296258
0001a0 ee 92 d8 bc 92 24 1a 3b 26 d9 0c bd 4e 83 a6 3d
       -0.026437249 0.0023520333 -0.034386776 0.08130513
0001b0 05 c5 2b 3d 59 1c bf bc b9 9b 75 3d 0b 25 91 bd
       0.04193594 -0.023328947 0.05996296 -0.070871435
0001c0 e9 cd 19 3d 30 2a 80 bd 18 9a eb bc f2 f7 52 bb
       0.037549887 -0.062580466 -0.028760001 -0.0032191244
0001d0 ec a9 2a bd 36 3a 7d bc 64 7a a4 3c 57 54 40 3d
       -0.041665956 -0.015455773 0.020077892 0.046955433
0001e0 1f e5 37 bd 9d b6 06 3d 67 29 c6 3d a5 b0 85 bd
       -0.04489624 0.032888997 0.096758656 -0.06527833
0001f0 d4 36 af 3d 3b 82 93 bd e9 6a 20 3d a5 28 16 3d
       0.085553795 -0.07202574 0.039164457 0.036659855
000200 7d 48 88 bc 4c 4a f1 3d a1 ec 6c bd cc 20 36 3c
       -0.016636128 0.11781749 -0.057842854 0.011116218
000210 fd 3a bb bd f8 a5 c1 bd ca 24 f3 bc f7 3f ca bd
       -0.091421105 -0.09455484 -0.029680628 -0.098754816
000220 99 f3 ed 3c 51 61 e5 bb 0b 0e a5 39 5b 81 b2 bd
       0.02904682 -0.0070001264 0.00031481715 -0.08716079
000230 c0 f8 a5 be a1 cd 15 bd 23 c9 49 3e 49 22 5f 3e
       -0.32416344 -0.036573056 0.19705634 0.21790422
000240 53 8a f9 3d 66 9c 6f 3e 10 91 fa bd 76 67 58 3d
       0.121845864 0.23399505 -0.122347 0.052833043
000250 12 15 bf 3c cb 95 73 3e 51 ef 1b be 57 ef 88 3e
       0.023325477 0.2378761 -0.1522801 0.26745102
000260 8b f3 5c 3e 54 0d 67 3d 4b 65 42 3e cc e0 0b 3f
       0.2157728 0.056409195 0.18983953 0.5463989
000270 45 c5 b2 3c 14 f4 eb 3d 27 1a a8 bc a2 66 7c 3e
       0.021822581 0.115211636 -0.020520283 0.24648526
000280 20 7d 61 3e d2 d9 33 3e 27 64 cd bd 21 4a 33 3d
       0.22020388 0.1756356 -0.10028868 0.043771867
000290 2b e2 a8 3d 17 32 1c bd 94 25 99 bb 00 45 33 3d
       0.08246263 -0.038133707 -0.004673669 0.043766975
0002a0 72 cc 56 3e b5 17 b4 3d 3d c6 ca 3d 20 d2 f2 bb
       0.20976427 0.08793584 0.09901092 -0.0074103028
0002b0 3e fc 37 bb 9b 35 a1 bc c9 a7 13 bd 98 e0 95 bd
       -0.0028073932 -0.019678881 -0.036048684 -0.073182285
0002c0 e0 e7 f1 bc 45 1c 57 bd 72 16 52 bd 33 53 a4 3e
       -0.029529512 -0.052517194 -0.051290937 0.32094726
0002d0 62 05 ef bb cc 05 52 3e 92 c7 9b 3d 40 f8 cc 3d
       -0.007294343 0.20510024 0.076064244 0.100082874
0002e0 7c 59 d5 3c a6 05 f8 3d ad 4f 01 be 97 94 40 3d
       0.026043646 0.12110452 -0.1262805 0.047016706
0002f0 30 15 ca 3d b0 14 3e 3c 70 0d 45 bd 5e 48 3c bc
       0.098673224 0.011601612 -0.048108518 -0.011491863
000300 19 81 1f be f3 77 3d 3d 48 d0 1a bc 88 4c 5e bd
       -0.1557659 0.04625697 -0.009449072 -0.054272205
000310 98 e4 26 3d 1d 17 6c bd 5e 15 ce 3d 4d 48 1b 3d
       0.040745348 -0.05763923 0.10062669 0.03791075
000320 0a cb b6 bc 5a 68 9c 3c cd 67 09 3d a7 f9 cd bc
       -0.022313613 0.019092727 0.033546258 -0.025143458
000330 23 c3 93 bd 88 74 24 3c e9 be ef 3c 7c c7 1a 3c
       -0.07214954 0.010037549 0.029265838 0.009446975
000340 c3 8b 0c bd d4 16 96 3d f4 d9 91 bc 38 9e 71 bc
       -0.034312975 0.07328573 -0.017804123 -0.014747195
000350 ee e9 15 3d 13 47 5c bd a0 da 24 3d 9d 9f fb bc
       0.036600046 -0.05377872 0.04024756 -0.030715758
000360 71 eb 87 3d d2 c9 2f bd 1f 03 ae 3c 81 0d a0 3c
       0.06636704 -0.04291708 0.021241723 0.01953769
000370 e8 a7 94 bd 1b a7 63 bd 6c 51 60 3d c0 d7 85 bc
       -0.07258588 -0.055579286 0.05476515 -0.01633823
000380 4b 2d 98 3d c4 09 bd bd ee 77 21 bd 79 ea 93 bd
       0.07430514 -0.09230378 -0.039421014 -0.072224565
000390 8b e2 1d 3d 90 64 08 be a6 14 08 be ed 3d 90 be
       0.038546126 -0.13319612 -0.13289127 -0.28172246
0003a0 7c f1 39 be a5 07 30 bd f2 7f 8b 3e d9 fc 40 3e
       -0.18158525 -0.04297604 0.27246052 0.18846454
0003b0 24 ea d1 be 57 28 34 3d e0 d2 1b 3d cf 9f 09 3e
       -0.40998948 0.043983784 0.038042903 0.13439868
0003c0 36 58 16 bf 41 60 ca bd 9b d5 06 bf 26 a4 c8 3c
       -0.5872835 -0.0988164 -0.52669686 0.024492335
0003d0 e8 9c 51 3e 1d 94 33 3e bf 3b 80 bd 94 6f b3 3d
       0.20470011 0.1753697 -0.06261396 0.08761516
0003e0 5f ba 1e 3d 2d ea 8e bc 13 14 13 3d 50 bd 66 bd
       0.038751956 -0.017445648 0.035907816 -0.056332886
0003f0 43 ca 3a 3d 5b 8e 0b bc f5 c9 54 bd fa cb 86 3b
       0.045603048 -0.008517827 -0.051950414 0.0041136714

model.0.bias f4 [256]
000000 2b e9 3a bd ff ac 8a 3c 34 4c 05 bd c8 72 3a bc
       -0.045632523 0.016928194 -0.032543376 -0.011379905
000010 4f 2e 82 bd c0 e7 31 bd 7e 33 84 3d c2 59 ba bd
       -0.06356489 -0.043433905 0.06455134 -0.09099151
000020 bb 9c 18 3d 92 3c ec 3b 6f cc 3b 3d 94 5b 9c 3c
       0.037258845 0.007209369 0.04584926 0.019086637
000030 67 f0 f1 3c 6f 6d 44 3c 63 27 cd 3d a6 53 87 3d
       0.029533578 0.011988982 0.10017278 0.066077515
000040 b1 84 5b 3d bf 00 06 3d 74 12 72 3d c9 f9 c7 3d
       0.05359334 0.032715555 0.05909963 0.097644396
000050 51 4d e2 3c 4a 6e 15 3c e6 b0 14 bd 78 9f 3a 3b
       0.027624758 0.009120533 -0.036301516 0.0028476398
000060 ca 34 39 3d 11 3f ea bd 15 16 d1 bd ec c1 bb 3d
       0.04521636 -0.1143781 -0.1020929 0.09167847
000070 da 10 b3 3d a0 f5 cb 3d fd f8 be bd 71 86 a0 3d
       0.087434486 0.099589586 -0.093248345 0.07838143
000080 a6 ac 9e bd 22 37 42 bc 21 4c 9b bd 3f 41 ce 3c
       -0.07747774 -0.011853965 -0.0758288 0.025177596
000090 19 61 83 bd 95 9b 88 3c 08 25 98 3d a8 90 c2 3b
       -0.06415004 0.01667575 0.07428938 0.0059376545
0000a0 8f 6e 13 3d 31 9c 6b 3c 10 37 b9 3c 2d 93 0e bd
       0.03599411 0.014380501 0.022609264 -0.034808327
0000b0 d8 eb 9a 3d 73 5f 67 3d 78 fe cc 3c 51 cb 27 bd
       0.07564515 0.05648751 0.025023684 -0.040965382
0000c0 c2 7d 1c 3c d8 f4 a5 39 3f 74 83 3d 2c 86 4d bc
       0.009551467 0.00031653675 0.064186566 -0.012544196
0000d0 3d fd 6f bd 23 79 b1 bd c4 11 8b bc 04 09 41 bd
       -0.058591116 -0.08665683 -0.016976245 -0.04712774
0000e0 1a d1 d3 bd 31 73 81 bd 68 7b 3e 3c 44 1e 5f bb
       -0.10342617 -0.06320799 0.011626102 -0.003404514
0000f0 91 12 07 bd 94 82 ef bd 8c f8 f7 3a e2 4b 8c 3d
       -0.03297669 -0.11694828 0.0018918677 0.06850411
000100 9b 42 4d bd 7d cb bd 3d a0 35 0a bd d1 1c 5f 3d
       -0.050112348 0.09267328 -0.033742547 0.05447084
000110 50 4c f0 bc ce a9 de bd a4 15 87 bd 7b 65 81 3c
       -0.029333264 -0.108722314 -0.065959245 0.01579546
000120 78 f6 61 3d dd 3a 05 be 2d 37 91 3d 63 c8 20 3c
       0.05516669 -0.13010736 0.07090602 0.009813401
000130 3e 7e 40 3d 60 56 23 3c fd 78 69 bd 45 30 b7 3d
       0.046995394 0.009969324 -0.05700015 0.089447536
000140 84 e3 2a bc 5e 7e fb bd d0 e2 8f 39 bd 1f 90 bd
       -0.0104302205 -0.12279962 0.00027444074 -0.070373036
000150 93 75 73 bd d5 b9 b4 bd a2 e0 54 3c 73 00 d3 bd
       -0.0594383 -0.08824507 0.01299301 -0.1030282
000160 73 ad 43 bd 0f 55 bf bc 28 00 9d bd c5 bc ce bd
       -0.047772836 -0.023355989 -0.076660454 -0.10094599
000170 a0 3d 83 bd 15 19 53 bd 6a 4b dc bd e8 7b b6 bd
       -0.064082384 -0.051537592 -0.107565716 -0.08910352
000180 d6 1d b7 bd 0d d7 7f 3d 18 a3 b1 bd 1a 6e 72 3c
       -0.08941238 0.062460948 -0.08673686 0.014796758
000190 7f 9b 34 bc a4 2a a4 bd 2c 2a a0 bc 25 94 f6 bb
       -0.011023401 -0.080159456 -0.01955136 -0.0075249844
0001a0 5c 1c c2 3d 92 cf ee bc de 8a a2 3d 00 c7 46 3d
       0.09478065 -0.029151712 0.07936643 0.048529625
0001b0 03 fa 6c 3d 2d 36 f4 3b 63 cf 74 bd 35 61 4a bb
       0.057855617 0.0074527473 -0.059768092 -0.0030880694
0001c0 d2 3f fb bc 53 0d 1b 3d b0 0d 81 3d 20 f4 2f 3d
       -0.03067008 0.037854504 0.06301439 0.042957425
0001d0 9c eb 96 bd 5a 92 13 3a 97 aa 66 3d 81 fe bb 3c
       -0.07369158 0.0005629413 0.05631503 0.022948505
0001e0 6b f9 07 bd 9e 49 72 3d 17 7c bd bd 01 56 d3 bd
       -0.033196848 0.059152238 -0.09252184 -0.10319138
0001f0 9b 2a b0 bd d3 c4 92 3b 1c 71 eb bc 79 06 55 3d
       -0.08601876 0.0044790297 -0.028740458 0.052008126
000200 ab 25 9a bb 88 3d 7b 3c 26 a6 24 3b cf 02 52 3d
       -0.0047041974 0.015334494 0.0025123446 0.05127221
000210 50 64 63 3d bd e3 96 3d 4f 3f df ba 41 19 6f 3d
       0.055515587 0.073676564 -0.0017032417 0.058373693
000220 1b e8 93 3d e7 a8 20 3c 00 d8 63 3c 12 38 64 bd
       0.07222005 0.009805894 0.013906479 -0.055717535
000230 0f 07 f1 3d 06 c4 ff 3b 5e 96 cc bd de b0 11 bd
       0.117689244 0.0078053502 -0.09989618 -0.035569064
000240 0e a8 f1 bc 93 a1 65 bc a2 b7 8b bd ec 00 1f bd
       -0.02949908 -0.014015573 -0.068221346 -0.03881924
000250 a5 7d d0 bd af 5d 96 3c 09 58 e0 bd 39 cf 92 3b
       -0.10180215 0.018355219 -0.109542914 0.0044802693
000260 54 ea 2a 3b 56 b5 bd bd 87 16 d2 3c d5 15 3f 3d
       0.0026079612 -0.09263103 0.025645507 0.04665168
000270 e3 79 19 bd d6 b8 b0 bd f4 59 c6 3d 56 b5 4f bd
       -0.037469756 -0.08629005 0.09685126 -0.050710045
000280 29 f2 be 3c 9f 14 a6 bd b6 0f aa bd 9d c9 3f bc
       0.02330883 -0.08109402 -0.08303778 -0.011705783
000290 47 d2 3c bd 77 7c 59 bd 30 ba d5 bd 8a 24 23 3d
       -0.046098974 -0.053097215 -0.10435903 0.03982977
0002a0 b4 2e f7 bd 81 9c 2f bd 19 e1 ab bd f7 63 c3 bd
       -0.12069455 -0.042873863 -0.08392543 -0.09540551
0002b0 30 43 08 3d 20 b2 2b bd 46 2b 52 3d a5 b9 cd bd
       0.0332672 -0.04191792 0.0513108 -0.100451745
0002c0 b3 d2 8b bd 73 fe e3 3c 8a 86 57 3c d2 19 b6 3d
       -0.06827297 0.027831292 0.013154635 0.088916436
0002d0 2a 68 44 3d 8e b6 8c bd c5 6f 9a bc cd 2a ba 3c
       0.0479509 -0.06870757 -0.018852124 0.022725487
0002e0 36 17 2b bc 6c f5 b5 3d 8c db 83 3d e7 0c 5f 3d
       -0.010442546 0.08884701 0.064383596 0.054455664
0002f0 23 e9 c6 bd ff dc 4e bd 1a aa e8 bd fc a5 82 bd
       -0.09712436 -0.050503727 -0.11360569 -0.06379315
000300 15 08 08 3d e3 48 35 bd cc 34 e2 3d 33 74 33 3b
       0.033210833 -0.044258963 0.110452265 0.0027382493
000310 0c 13 de bb 6c ad 3b bd fe e5 9e bd 22 29 5a 3c
       -0.006777173 -0.045819685 -0.07758711 0.013315471
000320 5b 8a a0 3d b8 9e aa 3d 4d a8 d2 3c 39 3f 15 3d
       0.07838889 0.083310544 0.025715018 0.036437247
000330 50 a5 40 bd fa 08 88 bb 64 29 ae 3d 4b 3a 4a bd
       -0.047032654 -0.0041514607 0.085039884 -0.049372
000340 31 94 50 3d e1 57 8d 3d 53 db 9a 3c 30 6e d9 bd
       0.050922576 0.06901527 0.01890341 -0.1061672
000350 40 36 79 3d f4 7c d7 bd c6 58 39 3d 50 a9 5f 3d
       0.060842752 -0.1052188 0.045250677 0.05460483
000360 c6 48 ad bd 60 64 ba bd 89 9c c2 bd bb 19 a0 3d
       -0.08461146 -0.09101176 -0.09502513 0.07817408
000370 c1 df 7c bd 32 e5 92 bd 5c 54 ed bb 4d 8f 85 3c
       -0.061736826 -0.07172622 -0.0072427224 0.016303683
000380 10 79 28 bd 14 ff b4 bd c7 12 ba bd a8 2b db 3c
       -0.04113108 -0.08837715 -0.09085613 0.026754215
000390 43 e4 4a bd 4d ee bf bd 12 97 aa bd 12 39 83 bc
       -0.049534094 -0.09371624 -0.083295956 -0.016018424
0003a0 6a 9d 5b bd e4 a4 33 3a 9a a8 76 3c c0 8c b4 3d
       -0.05361692 0.0006852879 0.015054846 0.088159084
0003b0 9b ef b3 3d c8 e6 ae 3c 07 ca 7b bd e9 39 61 3c
       0.087859355 0.02135028 -0.061471965 0.013746717
0003c0 0a 9e 88 bd 82 13 88 3d b7 d1 9c 3c f0 9a b1 bc
       -0.066707686 0.06644346 0.019142969 -0.021680325
0003d0 e9 8f c6 3d cb 6f c0 bc ed 3c e2 bc 25 3a 15 3c
       0.096954174 -0.023490807 -0.027616942 0.009108101
0003e0 3f 33 e6 3d a0 f1 b9 bd f1 88 38 bd 1a 94 20 bd
       0.11240243 -0.090792894 -0.045052473 -0.03920374
0003f0 52 10 87 3d 3f 60 c8 3d 39 d0 ae 3d 2a 20 9d 3d
       0.0659491 0.097839825 0.08535809 0.076721504

model.2.weight f4 [256, 256]
000000 3c af 01 be 18 f7 aa bc 6d 38 46 3c a0 cf fb 3a
       -0.12664503 -0.020869777 0.012098414 0.0019211657
000010 65 16 42 be 43 f8 55 3d 40 48 80 bc 3e b7 04 bd
       -0.18953855 0.052238714 -0.015659451 -0.032401316
000020 b0 8e 61 3d 97 5b 03 3d e2 41 0c bd 1d 4a 93 bd
       0.055067718 0.03206977 -0.03424252 -0.0719187
000030 6e 52 a3 bb 53 4a fa bd 5b 44 b6 bc c7 6f d9 bd
       -0.0049841916 -0.122212075 -0.022249391 -0.10617023
000040 2d 92 c3 3c 3d 9b 7f 3c c4 9d 89 3d 05 51 df bc
       0.023873413 0.0156009765 0.067195445 -0.027260313
000050 4f 6e 49 bd b4 e4 e7 bd 3a 9b 10 bc 2d 50 2d be
       -0.049177464 -0.113229185 -0.008826071 -0.16925116
000060 0d 94 d4 bd d6 8b cf 3c f2 a5 cd 3c 02 c2 20 bc
       -0.10379801 0.025335234 0.025103543 -0.00981188
000070 91 9c 1b 3d 4c 4c d6 3d 51 97 3b 3d 83 78 c6 3d
       0.03799111 0.10463771 0.045798603 0.096909545
000080 bc cd 4d 3b 13 f4 fc 3c 77 ba b2 bd 66 bf c0 3d
       0.0031403145 0.030878102 -0.087269716 0.09411506
000090 a5 19 ba 3d 25 1f cd bd a6 6a 12 3d 6b 36 fe 3c
       0.090869226 -0.10015706 0.03574624 0.031031808
0000a0 cf e4 40 bd 8e 73 70 bd f1 db 77 3d 88 7d 9f bc
       -0.04709321 -0.05870395 0.060512487 -0.019469038
0000b0 4c b3 c9 bc f0 d0 00 be 5d f6 c4 3b 36 c6 5f bd
       -0.024621628 -0.12579703 0.006010814 -0.054632388
0000c0 a5 b4 bd bd 3d 20 07 be d4 69 15 3d 6d 0d 9f bd
       -0.09262971 -0.13195892 0.03647788 -0.07766233
0000d0 87 64 df 3b 20 40 bf bc c9 ef 3c 3b da 87 80 3d
       0.0068174037 -0.023346007 0.0028829447 0.06275912
0000e0 69 81 97 bc 89 8c 15 3d ef 97 13 bc db 61 b4 3d
       -0.018494325 0.036510978 -0.009008392 0.08807727
0000f0 00 da ae bd 1a 4a 6f 3d 80 78 16 bc 02 3e 68 3d
       -0.08537674 0.058420278 -0.009184003 0.05669976
000100 97 2b ea bd 2a db d5 3c 84 79 d5 3d de e8 93 bc
       -0.11434095 0.026105482 0.10423568 -0.018055376
000110 4c ab dd 3c ca cf 28 bd c8 f7 f8 bd dc 73 38 bd
       0.02705922 -0.041213788 -0.121566355 -0.045032367
000120 a9 d8 1f bd 54 96 80 3d a0 8f e3 bd f4 9a 9b 3c
       -0.039024983 0.06278673 -0.11111379 0.018994786
000130 1a f2 fc 3d e3 05 ba bd e8 9c bb 3d 0f cd a0 bd
       0.12350865 -0.09083154 0.09160787 -0.07851612
000140 0a 65 57 3d 3c 3d 59 bd 81 66 f6 3c be cf ee bb
       0.052586593 -0.053036913 0.030078175 -0.0072879484
000150 90 a1 97 3d a8 36 49 3d f0 48 12 3c f4 f0 54 3b
       0.074038625 0.04912439 0.0089285225 0.0032492252
000160 13 ca 87 bd ae e1 93 3d 1d 69 6c 3c 49 62 71 3d
       -0.066303395 0.07220779 0.014429358 0.058931623
000170 6b d2 41 be 76 48 48 bd c0 1c b0 3d f8 f6 31 3e
       -0.18927924 -0.04889723 0.085992336 0.17379367
000180 33 8e 8a 3d be ea 59 be 46 33 c5 bc 40 7a ad bd
       0.067654036 -0.21280953 -0.0240723 -0.08470583
000190 e4 17 99 3c 8b 12 dc bd 82 5e 1d be 50 58 71 bd
       0.01868815 -0.10745724 -0.15368083 -0.058922112
0001a0 a2 52 a9 bc ed e1 b1 bd 5f 61 9e bc be 65 81 bc
       -0.020669285 -0.0868567 -0.01933354 -0.015795585
0001b0 75 df 0c 3e bb c1 68 3d 41 25 02 3e e5 47 7d bd
       0.13757117 0.05682538 0.12709524 -0.061836142
0001c0 27 23 50 3d 03 8e cb 3d dc 1f d0 bc 04 ef 3d bb
       0.050814774 0.09939196 -0.025405817 -0.0028981576
0001d0 16 39 e4 bc 65 6e 18 be f2 74 22 3e c6 b8 d6 3c
       -0.027859252 -0.14885862 0.15864924 0.026211154
0001e0 76 00 bb bc 14 20 b0 bd b4 41 ae 3d dc 0e dd bd
       -0.022827368 -0.085998684 0.085086256 -0.1079385
0001f0 0d 5d b6 bd fd 9b 9b 3d f4 2f 1c be 2d 80 03 3d
       -0.08904467 0.07598112 -0.15252668 0.03210466
000200 90 0d 19 3c 58 54 16 bd 10 39 95 bd 97 51 b2 3d
       0.009341612 -0.03670153 -0.072862744 0.08706968
000210 d2 ca 94 bc 0e 11 cd 3d d0 2b d2 3d 88 0a 05 bd
       -0.018163119 0.100130185 0.10262263 -0.032480747
000220 82 89 ad bd 66 94 84 bd 52 3b f0 bd 8e 44 1f bd
       -0.08473493 -0.06473617 -0.117300645 -0.03888374
000230 00 16 28 be 0d fb b9 bd d7 5d a2 3d db fa c6 bc
       -0.16414642 -0.09081087 0.07928055 -0.02428954
000240 ce 19 14 3d c4 b5 c4 bc 6f 84 91 3d 6b e1 2b bd
       0.03615742 -0.024012454 0.07105338 -0.041963022
000250 db cc 3e 3c 00 21 d3 bd b9 a3 05 3d a2 a3 88 bd
       0.011645521 -0.103090286 0.03262684 -0.066718355
000260 b9 8b da bd 4c 3f 0c bd f7 93 16 bc eb 66 96 3d
       -0.10671181 -0.034240052 -0.009190551 0.07343849
000270 a6 b4 9c ba 53 8b ea 3d 2a 00 15 3d eb aa 47 bd
       -0.0011955693 0.11452355 0.03637711 -0.048746984
000280 03 62 91 bd 79 b3 5b be 0c c2 1b ba 39 88 b1 3d
       -0.070987724 -0.21455182 -0.0005941696 0.086685605
000290 eb ed 19 be 44 47 0e be ac 15 84 be 6f e0 b7 bd
       -0.15032165 -0.13894373 -0.25797784 -0.08978354
0002a0 0f f9 36 3c 11 0b 24 be 68 d5 f0 bd 5d a0 9d 3d
       0.011167779 -0.16019846 -0.11759454 0.076966025
0002b0 8b 31 e3 3c 04 73 dd 3d 8a a0 bc 3d 88 b8 fb bc
       0.027733585 0.10812953 0.09210308 -0.03072764
0002c0 dc 50 9e 3d 7a 4c 09 bd 34 47 12 bd 6a 5a 85 3d
       0.077302665 -0.0335202 -0.035712436 0.06511386
0002d0 b5 38 be bb 0b bf c4 bd 68 d1 ad bd 89 1b b4 bd
       -0.0058051 -0.09606751 -0.08487207 -0.087943144
0002e0 da 3e 17 bd 92 b4 33 be 4d c7 90 3d 85 41 5d bc
       -0.036925174 -0.17549351 0.070692636 -0.013504391
0002f0 c9 5c 3c 3e c8 3e ec 3c c0 9e 82 3d 16 8d 70 be
       0.1839477 0.02883853 0.063779354 -0.2349132
000300 e3 ff 41 be 5c e0 40 be 6e 95 ce be ff 6b 2b be
       -0.1894527 -0.18835586 -0.4034838 -0.16740416
000310 99 e8 57 be c4 6b 02 bc c7 0a 59 bd d6 ab cc 3d
       -0.21084823 -0.007960264 -0.052988794 0.099937126
000320 ea 4b 10 bc 00 99 ad 3d 9f d7 a5 bc 75 b1 98 3c
       -0.008807162 0.08476448 -0.020244418 0.018639306
000330 a5 d8 47 3d 01 07 ce bc cd 50 b0 3d 61 80 a5 ba
       0.048790593 -0.025149824 0.086091615 -0.0012626761
000340 a2 2f 8d 3d e9 86 8c bc 95 1c 88 bd 21 d4 3b 3d
       0.06893851 -0.017154174 -0.066460766 0.0458566
000350 50 fa f0 3c 61 c4 cb bc c6 7e 5d be 1a 18 c2 be
       0.029416233 -0.024873914 -0.21630391 -0.37909013
000360 55 6e 1f bd 53 7e 1a be 7e e6 bc bc 02 60 46 3d
       -0.03892358 -0.15087251 -0.023059126 0.048431404
000370 42 1b 4c 3d 6a e8 42 bd b8 f6 44 3d bb 67 bb bd
       0.049830683 -0.04758493 0.04808685 -0.091506444
000380 a8 eb 4d bb 5e 3f 31 3d 88 02 cd 3c fb 46 01 bd
       -0.003142098 0.043273322 0.025025621 -0.031561833
000390 8c 0c c0 bd 15 bd cc bd 68 50 90 3d 08 a0 00 3e
       -0.09377393 -0.09997002 0.07046586 0.12561047
0003a0 91 f7 03 bf 5c 72 65 3c b4 67 72 bd 4a 7e b7 3d
       -0.5154963 0.014004316 -0.05918093 0.089596346
0003b0 5a 70 81 3d b7 b8 2c bc 13 de 40 be 70 e2 25 3d
       0.063202575 -0.010542086 -0.18834715 0.04049915
0003c0 4c 5f d0 bc 85 0a a5 3c dc 6d 3d bd 38 39 ca 3d
       -0.025436066 0.020146618 -0.04624735 0.09874195
0003d0 a6 f0 b2 3c 59 8a b3 3d 2d 59 7d be eb 9d 7b be
       0.021843266 0.08766622 -0.24741049 -0.2457196
0003e0 13 9f 82 3d e4 df 13 bc 43 58 22 3d 82 5f 82 bc
       0.06377997 -0.009025548 0.039634954 -0.015914682
0003f0 b0 b8 2b bd f3 e0 55 bc 34 89 bb 3d 94 7f 35 bc
       -0.04192418 -0.01305412 0.09157029 -0.01107778

model.2.bias f4 [256]
000000 91 91 08 3d a0 ed 2b 3d 52 de b3 bd d5 17 f6 bc
       0.033341948 0.041974664 -0.087826386 -0.03004066
000010 88 0b a6 bd 9d 42 16 3d d5 7b 4a 3d a6 17 44 bd
       -0.08107668 0.03668462 0.0494345 -0.047874115
000020 57 25 6d 3d ab 5b 55 bd 7e 38 62 3c c2 5e 20 bd
       0.05789694 -0.052089375 0.013807414 -0.039152868
000030 50 7d 08 3d 60 14 39 bc e3 29 6e 3d 5f b4 bd 3c
       0.033322632 -0.011296362 0.058145415 0.023157297
000040 ba 8e 66 bd 4d dc 16 bd fb 40 c8 3c 96 5b 3a bc
       -0.05628846 -0.03683119 0.024445048 -0.011374375
000050 7d 67 80 3c 54 10 7a bd 63 fd 0e 3d 17 17 8b bb
       0.015674347 -0.061050728 0.034909617 -0.004244696
000060 c5 94 d1 3c 68 18 c9 bc ee da 75 3d eb b8 0c 3d
       0.025583634 -0.02454777 0.06002324 0.03435604
000070 a7 6c f9 bb a0 fb e8 bc 7e 60 05 bb 3f 04 a6 ba
       -0.0076118293 -0.028440297 -0.0020351703 -0.001266606
000080 0f 57 06 3d 8a 62 2b bd b1 6d 95 bc 3c 7b 1b 3d
       0.03279787 -0.04184202 -0.018240782 0.037959322
000090 74 9b 9a 3b 24 53 c6 3c 4e af 2d bd 24 f9 34 3d
       0.0047182385 0.024209566 -0.04240351 0.04418291
0000a0 ac c9 43 bd 73 83 b9 3c 47 15 40 b9 6f 77 0a bc
       -0.04779975 0.022645688 -0.00018318473 -0.008451327
0000b0 ee dc 33 bd 0f a3 6a 3d 5a d2 00 bd 5b 50 0b 3d
       -0.043911867 0.05728441 -0.031450607 0.03401218
0000c0 52 03 63 bc d5 13 7f 3d 34 dd 91 3c e1 dc a4 3d
       -0.013855772 0.062274773 0.017805673 0.08049942
0000d0 a7 32 0f bd f3 cf fd 3c a0 6b 96 3d 66 a6 a1 bc
       -0.034960415 0.030982947 0.073447466 -0.019732665
0000e0 22 08 a0 3c 0e cc 76 bb 6f 81 41 3d 5b a5 6c bb
       0.019535128 -0.0037658247 0.047242578 -0.0036109302
0000f0 4d dc 15 3d 59 e7 92 3b 9b 1d 05 bd 5c b9 22 bc
       0.03658705 0.004483145 -0.032498937 -0.009931888
000100 39 41 0e 3c f6 30 0b 3c 7f e8 bb bb 28 ee f9 3c
       0.0086825425 0.00849556 -0.005734503 0.03050907
000110 7b c5 fc bb c0 fe 4f 3d 30 22 36 3d 9b 44 05 bc
       -0.007713971 0.050780058 0.044466197 -0.008134033
000120 49 b1 3a bd f1 10 9d bd f7 69 12 3d f0 3f a9 bc
       -0.04557923 -0.07669247 0.035745587 -0.02066037
000130 b5 6b 06 3a d2 c7 50 3d 1d 9b 5b 3c 23 d8 c4 bc
       0.0005127744 0.050971813 0.013403681 -0.024028843
000140 d3 01 86 bd 63 8c 57 bd 5d cc 6e 3d 46 71 0a 3d
       -0.06543317 -0.052624118 0.058300365 0.033799432
000150 e1 57 49 bc 98 c9 a4 bc 2a 2a 5f bd c2 1e 0a bd
       -0.012289018 -0.020115659 -0.05448357 -0.03372074
000160 00 05 35 3d 0e 9c 0e 3d 26 56 af ba e8 20 3a bd
       0.04419422 0.034816794 -0.0013377115 -0.045441538
000170 c2 d0 b5 3b 82 93 2d bd 39 a1 75 3c 90 76 b6 3c
       0.0055485675 -0.042377003 0.014992052 0.022273332
000180 0c f8 3e 3d 65 26 05 3d db a2 cd 3c 2a cc 6d bc
       0.046623275 0.03250732 0.02510207 -0.014514009
000190 57 da f8 bc 36 35 cd 3c 39 fe d0 bc 3e 2e b7 bd
       -0.03037755 0.025049787 -0.025511848 -0.08944367
0001a0 86 62 5f 3d 1e ad 72 bd c9 db 31 bd 53 2c 42 bd
       0.05453732 -0.05924713 -0.043422494 -0.047405552
0001b0 8d c1 9e ba a0 95 1f 3c 37 94 6d 3c 90 98 2a bd
       -0.0012112126 0.009740263 0.014500669 -0.0416494
0001c0 e1 76 1e 3d 4c 95 07 ba 9d c9 a1 3d e4 1f a9 3c
       0.03868759 -0.0005172088 0.07899783 0.02064509
0001d0 af ec 9a bc d9 07 35 bd 7b 62 8d bc c7 3b 08 bd
       -0.018911688 -0.044196937 -0.017258873 -0.033260133
0001e0 9e 15 35 3d 66 cb 5e bd 8c 6e 5c 3d 41 9a 41 3d
       0.04421007 -0.054393195 0.053816363 0.04726625
0001f0 b7 a5 b3 bb ee 49 6d 3c a7 09 d3 3c 0f 8c a9 3c
       -0.0054824012 0.014482958 0.025761439 0.020696668
000200 ae b6 c3 bc 0e f9 4f bd 9a 93 35 3c 91 84 39 3c
       -0.02389082 -0.050774626 0.011082554 0.01132311
000210 21 2e 36 3d 3e 6f 6a bd 5d 71 1d bc 4d 23 28 bc
       0.044477586 -0.057234995 -0.009609547 -0.010262323
000220 e5 5e 69 3d b6 6c ff bc 81 2c 30 bd 6f bd 68 3d
       0.056975264 -0.031179767 -0.043011192 0.056821283
000230 cf 1b 53 3b a1 ea 5b 3d 06 7f 0f bd 96 e9 12 bd
       0.003221262 0.053690556 -0.03503325 -0.035867296
000240 5f 1f d2 3b 71 da 68 3c fb e6 34 3d 82 03 a3 bc
       0.006412431 0.014212237 0.044165593 -0.019899134
000250 c5 59 70 bd f5 c1 84 bc 59 88 97 bc eb 20 71 bd
       -0.05867936 -0.016205767 -0.018497633 -0.058869284
000260 e5 04 a9 bd e0 6c 48 bc 5f 92 13 bd 2d e3 81 3d
       -0.08252887 -0.012232989 -0.036028262 0.063421585
000270 6f 79 89 3c c2 61 27 3d 29 e3 d8 bc b0 55 85 bd
       0.016781537 0.040864713 -0.026475506 -0.06510484
000280 70 99 72 bd 98 aa 00 bd a0 57 18 3d cf a0 66 3c
       -0.05922836 -0.03141269 0.03719294 0.014076426
000290 59 bf 35 bd 04 bf bc bb 96 0c 04 bc 27 86 80 3d
       -0.044371936 -0.0057600755 -0.008059641 0.062755875
0002a0 01 4b d0 3c b7 80 6d bb 57 26 6f bd 76 05 2b 3d
       0.02542639 -0.003624005 -0.058386173 0.041753255
0002b0 3f 0b 12 3d ce 6d 8b bd 3e ee d1 3c 2b 34 aa bc
       0.035655256 -0.06808053 0.025626298 -0.020776829
0002c0 19 0e 77 bd b0 e9 5c 3d 42 f0 36 3d 84 e3 ab 3b
       -0.06031618 0.0539338 0.04466272 0.005245628
0002d0 f3 25 74 bc c8 03 66 3c a4 14 4a bd b1 1f 9c 3d
       -0.014901626 0.014038987 -0.04933609 0.07623232
0002e0 ce bc 08 bd a0 81 97 bc fd 0d a0 3c c7 7a 2b bd
       -0.033383183 -0.018494427 0.01953792 -0.041865136
0002f0 35 72 00 3d 04 2e 02 bc 20 79 1f bd ec a4 a9 3c
       0.031358916 -0.007945541 -0.038933873 0.020708524
000300 50 99 14 bd 8f 76 70 bb 92 df ad bd 1a bd 68 bd
       -0.036279023 -0.003669176 -0.08489908 -0.056820966
000310 78 ae cd 3c 8a ca 3c 3c 19 5f 4e 3d 93 65 eb bc
       0.025107607 0.011522898 0.05038366 -0.028734958
000320 00 5e 94 3d bf d8 1a 3d 29 ea 0f 3d b6 de db bc
       0.072444916 0.03780436 0.035135422 -0.026839595
000330 2a 1f 3b 3d 5e 9d b6 3c 53 03 51 bc 25 1f d9 bb
       0.045684017 0.022291835 -0.01275714 -0.006626027
000340 13 73 5c bd b3 8b 31 bd 03 8f 55 bc 7d a4 48 bd
       -0.05382068 -0.04334612 -0.013034585 -0.048984993
000350 29 33 7f bd a6 e0 53 bd dd 07 74 3d 8f 7d ca 3b
       -0.06230465 -0.051727913 0.05957781 0.0061795185
000360 87 3c 08 3d 79 2f 6c bc 69 00 a0 bc ae 5f 1d bc
       0.03326085 -0.014415615 -0.019531446 -0.009605331
000370 67 0d 4b bd 5d 73 19 3d d5 8a 12 3d e5 10 e9 bb
       -0.04957333 0.037463535 0.03577693 -0.0071126097
000380 49 fd 17 bd e2 37 c7 bd 92 60 ca 3d 4e 84 87 bd
       -0.037106786 -0.09727456 0.098817006 -0.06617032
000390 91 4d d4 3c 10 84 be bc 99 3e 3e bd c4 5a a5 3c
       0.025915893 -0.023256332 -0.046446417 0.020184882
0003a0 4e 9c ba bc 58 17 cc bb f5 7f 24 3d 4e 00 f4 3c
       -0.02277961 -0.0062283687 0.04016109 0.029785302
0003b0 17 35 37 3c 99 41 88 bd 4f f4 21 bd 5e 31 44 3c
       0.011182091 -0.06653137 -0.03953963 0.011974661
0003c0 54 1a 19 3d 34 6d 58 3c 68 ba 98 bc 53 32 bb bc
       0.037378624 0.01320963 -0.018643573 -0.022851145
0003d0 23 37 20 3d f4 2e 1f 3d 0e 39 99 bc 52 15 90 3d
       0.039115082 0.038863137 -0.018703964 0.070353165
0003e0 7c 9b ca 3d 31 e5 69 3d 44 e4 00 bd 50 7d 30 3d
       0.098929375 0.05710334 -0.03146769 0.043088257
0003f0 f0 c4 14 3b be 9d 21 3d c7 7b a8 3c a9 61 a3 bb
       0.0022700392 0.039457075 0.020566834 -0.004986007

model.4.weight f4 [256, 256]
000000 a6 93 13 3e 30 d4 da bb 1e 52 b6 bd 6d 77 18 3c
       0.14411792 -0.0066781268 -0.08902381 0.009305817
000010 21 97 e9 bc 4f 2a 16 bd 30 14 14 3d f8 37 1e be
       -0.028514447 -0.036661442 0.036152065 -0.15451038
000020 9c 85 1b be 88 a9 53 bc f8 d7 f5 3c 77 b2 78 bd
       -0.15187687 -0.012918837 0.030010208 -0.060717072
000030 77 03 fa bd ec 7c bd bd 19 17 86 3b 04 ad d6 bc
       -0.12207692 -0.092523426 0.004092109 -0.026205547
000040 54 92 42 bd a2 af 78 be a5 3d 2b bc e7 5a c6 bb
       -0.04750283 -0.24285749 -0.010451709 -0.006053317
000050 29 c5 32 3d 2c 74 36 be f7 30 b4 3d 72 a4 b3 bd
       0.043645058 -0.17817754 0.08798402 -0.087716
000060 c6 6f b7 bd 35 37 f5 bc a2 4e 81 3d bf 6b a7 bb
       -0.08956866 -0.029933551 0.06313826 -0.00510928
000070 99 b2 25 3d 79 3c c2 3c 13 db 56 bd 12 98 2d 3d
       0.040453527 0.023710476 -0.05245502 0.042381354
000080 3e 71 1c 3c f9 84 6e bc 21 30 14 3e 2a 9d 6d 3d
       0.009548483 -0.01455807 0.14471485 0.05801121
000090 15 2e 06 3d 1a 50 a7 bd d8 02 4e 3d d9 28 10 3d
       0.03275879 -0.08169575 0.05029568 0.035195205
0000a0 f3 98 94 bd 0e 81 ec bc ee 97 a2 ba 66 76 9e bb
       -0.07255735 -0.028870132 -0.0012404898 -0.0048358915
0000b0 a5 f2 8d 3c cd 33 20 bd a4 cc 87 3d a7 64 fc 3c
       0.017327616 -0.0391119 0.06630829 0.030809714
0000c0 b3 f8 20 bd 5e bd c3 3c 31 12 83 be fd 0f 48 be
       -0.039299678 0.023894008 -0.25599816 -0.19537349
0000d0 f4 4d 43 bd c5 35 6a bd 94 ad 84 3d 6d 9a 5a be
       -0.047681764 -0.057180185 0.0647842 -0.21347971
0000e0 96 1d 1a 3c db 6b b9 ba 38 3d c5 3d b8 10 00 3d
       0.009406468 -0.0014146523 0.09630817 0.031265944
0000f0 54 e9 cd 3c 71 02 18 bd 85 a4 1e 3d 03 d9 cb be
       0.025135674 -0.037111703 0.038731117 -0.39814004
000100 67 5c 3e bb f5 b5 c6 3d 64 6b 99 bd 26 89 ed 3c
       -0.0029046775 0.09702674 -0.07491186 0.028996062
000110 71 39 9d 3d 16 4b 7a bc 4e 87 4c 3d 73 c2 e1 bd
       0.07676972 -0.015276691 0.049933724 -0.11023416
000120 be 1a 30 3d 0e 60 81 bd 96 37 c8 bd fd 60 c7 bb
       0.042994253 -0.06317149 -0.09776227 -0.00608456
000130 fd fe 84 b9 dc 9c 3f 3c 01 de e7 3c c8 27 b3 bd
       -0.00025366983 0.011695113 0.028304102 -0.08747822
000140 e8 4f 1e be 42 6c 47 3d ad bf a5 3d 25 5c 70 3d
       -0.1546017 0.048687227 0.080932 0.058681626
000150 35 5a 85 be 17 f6 a3 be a2 30 64 3d da 84 88 bb
       -0.26045385 -0.3202369 0.055710442 -0.0041662278
000160 75 4f 2c be 2d 24 70 be 66 06 9f 3b 3c b1 11 bc
       -0.16827185 -0.234513 0.0048530577 -0.008892354
000170 77 86 48 bd 16 76 56 3c 2c 67 f4 bc d7 3d 8b bd
       -0.04895636 0.013089677 -0.029834352 -0.067989044
000180 ef 4a f1 3c 91 b9 ce 3c ca 8d cd bd ee 7b 94 bd
       0.029454676 0.02523497 -0.1003681 -0.072502
000190 43 6c 04 3d 1d 9d 70 bd df cd 31 3d 90 42 d6 3c
       0.03232981 -0.058743585 0.043409225 0.026154786
0001a0 0a f8 c5 bd 17 8c d8 3a d5 a1 7c bd 68 d3 87 bc
       -0.0966645 0.0016521242 -0.061677773 -0.016580299
0001b0 b4 35 a8 be 71 f1 52 3c c8 bd b2 3b 95 70 09 be
       -0.32853472 0.012874947 0.0054547526 -0.13421853
0001c0 c0 e3 8c be 8a 3e a3 3e a1 ca 9f bd 22 10 21 3d
       -0.2751751 0.3188365 -0.0780232 0.039322026
0001d0 f9 57 63 3d 5f 17 33 bc 5d 30 bb 3d 97 8a f7 3b
       0.05550382 -0.010930865 0.09140084 0.007554363
0001e0 45 92 7a 3d 6f 02 0a bd 54 b7 09 bd 87 8c 66 3a
       0.06117465 -0.033693727 -0.0336221 0.0008794744
0001f0 d3 96 18 3d 64 34 f7 be 5a f2 99 3d f5 bb af 3c
       0.037253212 -0.48282158 0.07516928 0.02145193
000200 98 ff 80 ba fc 20 bf 3d d3 eb c5 3c 21 76 7a 3d
       -0.0009841798 0.09332463 0.024160301 0.061147813
000210 9a 83 13 3d 92 ea 2f 3e 84 d7 54 3d 12 ef 81 3d
       0.036014177 0.17179325 0.051963344 0.06344427
000220 b6 68 aa 3d df 66 34 3d 5b 9d 9e be 48 19 65 be
       0.08320753 0.044043418 -0.30979428 -0.22372925
000230 25 1a b7 3d d5 18 77 3c ec c5 eb 3d 99 a4 4b bb
       0.089405335 0.015081604 0.1151236 -0.003107345
000240 89 cd 37 3c 03 94 1e 3d 1f a3 36 3d 78 9e 21 be
       0.011218437 0.038715374 0.04458916 -0.15783107
000250 c4 6e cb bd 96 a5 5f bc 0c c0 38 3e aa 15 0b 3d
       -0.09933236 -0.013650319 0.1804201 0.033956207
000260 34 4e 0c 3d dc a9 6a bc 44 16 93 3d ee bf b8 bb
       0.034254268 -0.014322724 0.07181981 -0.005638114
000270 2c e8 8d bd 37 a1 2d bc 38 4d 76 be 8d 49 c9 3d
       -0.06929049 -0.010597519 -0.24052894 0.09828482
000280 0e d9 16 3d c3 df 3e bc 52 d7 29 be 06 bf af bd
       0.036828093 -0.011650029 -0.16586044 -0.08581357
000290 01 5e 87 bd a8 26 6d 3c ba d6 a0 be 9e 9d f9 3d
       -0.06609727 0.014474548 -0.31413823 0.12188266
0002a0 3a ef b5 3d b3 93 32 3d fd e2 e6 3d 6f 7c af bd
       0.088835195 0.04359789 0.11273763 -0.08568656
0002b0 cc ac 37 bd 24 db 2c be c3 96 05 be 75 2f 20 be
       -0.044842526 -0.1688047 -0.13045792 -0.15643103
0002c0 88 2a ce bc ba 74 95 bd 96 3e a0 bd 71 f1 92 3c
       -0.025166765 -0.072976544 -0.07824437 0.017937394
0002d0 25 e8 3f 3a 78 e2 6c 3b a4 21 6f bd 37 1c 61 3d
       0.0007320664 0.0036145728 -0.05838169 0.05495855
0002e0 04 47 23 be 09 82 51 3d e6 6b 1a bd 3a 41 02 be
       -0.15945059 0.0511494 -0.037700556 -0.12720194
0002f0 78 ac 40 bd 17 7e c3 bd 59 e3 cf 39 d3 fe 07 be
       -0.04703948 -0.09545534 0.00039651504 -0.13280801
000300 9e 77 54 be ae 86 1d 3c cc 7a 2b bd d5 6e 4c 3e
       -0.20748755 0.00961463 -0.041865155 0.19964154
000310 19 4b 8e 3d 97 23 2f be 03 2c b6 3d 2c 5b dd ba
       0.069479175 -0.1710342 0.08895113 -0.0016888133
000320 dd 6f 0a bd e1 6f 10 3e cd e4 f1 bc 28 0e b4 bd
       -0.033798087 0.14105178 -0.029528046 -0.087917626
000330 88 06 2c 3e d2 16 0b be 49 8d 38 3c e9 bc 63 3c
       0.16799366 -0.13582924 0.011264154 0.01390002
000340 83 1b 6e bd 24 fc 52 bd 9a 70 01 bd 1f ab 69 be
       -0.058131706 -0.05150999 -0.031601526 -0.22819184
000350 80 d5 1f 3c ae be d3 3d 18 01 a5 bd e1 ab 52 bd
       0.009755492 0.10339104 -0.08056849 -0.051433448
000360 f9 f8 4e bd 4e 72 de 3b 00 09 28 bd f8 a3 cd ba
       -0.050530408 0.0067885285 -0.041024208 -0.0015689125
000370 b0 ef 05 bc 85 f4 36 be af 15 0c 3d b9 20 34 3d
       -0.008174822 -0.17866714 0.034200367 0.04397652
000380 f2 42 72 be 6f 85 30 be b6 73 16 3e 52 7e 52 3d
       -0.2365835 -0.17238401 0.14692578 0.05139
000390 4b 08 c4 bc 1f 78 06 be 2d 9f 84 bd 0d 54 b8 be
       -0.023929736 -0.1313176 -0.06475673 -0.36001626
0003a0 6c b4 1e be 75 d5 05 3d d9 6b a4 bb 76 71 05 3d
       -0.15498513 0.03267427 -0.0050177393 0.032578908
0003b0 9f 1a c6 bd c6 ef 18 3e 09 75 9c bd 53 e6 54 bd
       -0.09673046 0.14935216 -0.0763951 -0.051977467
0003c0 82 51 68 3d 6f 46 07 be 23 4e 59 3e 9b 9b c4 bd
       0.056718357 -0.13210462 0.21221213 -0.09599992
0003d0 da 86 43 3d 91 7e 7b 3c 40 b7 06 be be 52 a0 bc
       0.047736026 0.01535 -0.13155842 -0.019570705
0003e0 dd c8 12 3d 9a ca 4c 3e 52 34 ca 3c 99 3d 1e bd
       0.03583609 0.19999161 0.024683151 -0.038632963
0003f0 bd b3 28 bd 6e ee f7 3c ac 12 b2 3c ac f1 86 3d
       -0.041187037 0.03026506 0.02173742 0.06589064

model.4.bias f4 [256]
000000 ba ac a8 3d 4b e4 75 bd 3d bc 68 3d 45 56 9a 3c
       0.0823607 -0.06003217 0.056820143 0.018839965
000010 bc cc 54 3a bf c8 4d 3d 8b 93 87 bd a8 0b 8a 3d
       0.0008117666 0.050240275 -0.066199385 0.067405045
000020 58 c3 72 3d 41 f4 8b 3d 6b e1 43 bc 4a 58 4c 3d
       0.059268326 0.06833697 -0.011955599 0.049888887
000030 3c 2e d0 bb 03 a0 e4 bc 8f 3f 9f 3c 56 9b 86 3d
       -0.006353168 -0.02790833 0.019439487 0.06572597
000040 b4 7d 94 bd 15 35 a0 3d 10 2f 2e 3d 29 2a d9 3b
       -0.072505385 0.078226246 0.04252535 0.0066273403
000050 13 f4 a5 ba 79 6f 6a 3d cf 27 50 bc bb 7f 21 3d
       -0.0012661241 0.057235215 -0.012704804 0.039428454
000060 3f 67 ee 3c 76 90 85 3c 58 1f 71 3d e7 86 ad 3d
       0.029101966 0.016304236 0.058867782 0.08472996
000070 45 4c d9 3c cd 0c 9a 3d 5f 50 a7 3b 31 20 fc bc
       0.026525626 0.07521973 0.0051060165 -0.030777069
000080 e6 a4 46 3d ef 27 6f 3d dd d9 3a 3b 93 5b 4c bc
       0.048497103 0.058387693 0.0028511204 -0.012473005
000090 9f a8 7f 3d b8 33 7b bd 40 3f af bc 2e 5d 92 3d
       0.06241667 -0.06132862 -0.021392465 0.07146679
0000a0 99 41 fe bb f0 0b 89 3d c1 b4 c8 3c 93 2c c9 3c
       -0.0077592847 0.0669173 0.024500253 0.024557387
0000b0 62 29 23 bc 4a 9b b4 bb 23 73 0e bd 04 b4 4c bd
       -0.009958597 -0.005511676 -0.03477777 -0.049976364
0000c0 ce 9b 8f bc 85 a3 6e 3d 15 3a 86 3d b0 03 19 3c
       -0.017530348 0.058261413 0.06554047 0.009339258
0000d0 73 57 f0 bb a0 31 ff bd b9 96 51 bc 0c 46 bd 3b
       -0.0073346435 -0.12460637 -0.012792283 0.0057761725
0000e0 9c 7f 44 3d 12 0b d6 3d d3 b5 59 ba e8 a9 6d 3c
       0.04797326 0.1045133 -0.0008304987 0.014505841
0000f0 81 22 45 3c 65 53 9c 3c ea 27 ee 3c ac 8c 30 3d
       0.012032152 0.019082734 0.029071767 0.043102905
000100 a7 7a 82 3d 40 57 fc bc 9c 32 53 3d 5a 80 f1 bc
       0.0637105 -0.030803323 0.051561937 -0.029480148
000110 7d ec 05 bd 2d 2d 95 3d 59 be 1f ba ef 38 7b bd
       -0.032696236 0.07284007 -0.00060937327 -0.061333593
000120 1d 58 bf bc 98 a7 cb b9 e7 08 c9 3d cd ef 9e 3d
       -0.023357445 -0.00038844044 0.09816151 0.07760582
000130 e6 d7 f6 bc f8 ec e0 bc 9f 40 20 3d 8c 22 cd 3d
       -0.030132245 -0.027456746 0.039124127 0.10016355
000140 89 62 b8 3d 06 8e 2a 3d b3 4b 53 3d 7c 86 30 3d
       0.09003169 0.04163935 0.051585864 0.043097004
000150 e0 81 f7 bb c9 c2 9c 3d 58 72 7a 3d 11 c2 25 3d
       -0.007553324 0.0765434 0.061144203 0.04046828
000160 07 dd 39 3d 8c 1d 9a 3d ae 71 93 bd 75 bf d0 bc
       0.045376804 0.07525167 -0.07199417 -0.025481919
000170 15 6a 88 3d b6 48 41 3d 14 62 cc bd bc 10 26 bd
       0.066608585 0.047188483 -0.099796444 -0.040543303
000180 ab 68 2b 3d 5b 2a 33 3d 08 ba 00 3d 42 4d 21 3d
       0.041847866 0.043741565 0.031427413 0.03938032
000190 7d dc 80 3d bd 42 38 bd 8a bd df 3c cb 9b f2 bc
       0.06292055 -0.04498552 0.027312059 -0.029615304
0001a0 4a 06 5c bb 1f ce b4 3d 34 18 53 3d c2 65 2d 3d
       -0.0033573085 0.08828377 0.051536754 0.042333372
0001b0 19 8b c4 3d 1e f8 e5 3c a1 e5 d4 ba 0b 1a 0b 3c
       0.09596843 0.028072413 -0.0016242751 0.008490096
0001c0 b5 b2 bc 3c 35 32 c5 3a 8a e6 52 3b d0 25 ed bb
       0.023034433 0.001504487 0.003218087 -0.0072371736
0001d0 10 ff ef bc f9 10 6c 3d af ee 95 bd 86 6a a2 3c
       -0.029296428 0.057633374 -0.07320916 0.019826185
0001e0 6e 11 bc bd d7 35 36 bc c5 8c 7a bc d8 d2 c2 3d
       -0.09183012 -0.011121235 -0.015292351 0.095128715
0001f0 ff ce 77 3c 7b 92 14 3d 01 02 1a bd a8 bd 04 bd
       0.015125035 0.036272507 -0.037599567 -0.032407433
000200 b9 15 a6 bd dc 73 b6 ba 2e 34 7f bd f1 fc 64 3d
       -0.08109612 -0.0013920027 -0.06230562 0.055905286
000210 bc 51 47 3d 51 ec db 3a 02 26 c8 bd bd 85 7e bd
       0.048661932 0.0016778802 -0.097728744 -0.06213926
000220 a5 b6 e8 bc 9e 24 37 3c fc 22 fb 3c bd 59 75 bd
       -0.028407404 0.011178164 0.03065633 -0.059900034
000230 ba 63 a4 bd cd 52 97 bc 4d ca a6 3d 6c 85 53 3d
       -0.08026834 -0.0184721 0.081440546 0.051640913
000240 e1 0f d7 bc e8 c3 86 3d c0 05 e8 3c 83 07 85 bd
       -0.026252689 0.06580335 0.028323054 -0.06495573
000250 6a 0b 0c 3c cb b4 8c bd 7a 98 c4 bc 13 b2 10 3d
       0.008547643 -0.06870421 -0.023998488 0.035326075
000260 51 e8 89 bd 49 a8 00 3d 75 06 2c bd 01 ba 6a bd
       -0.06733764 0.03141049 -0.041998345 -0.057306293
000270 67 23 18 bd f6 c5 f0 bc a9 14 4b 3c c2 60 eb 3b
       -0.037143137 -0.02939127 0.0123950625 0.0071831653
000280 32 df 68 3d 43 a7 d9 3c d3 50 64 3d 3b 25 27 bd
       0.05685348 0.026569014 0.055741142 -0.04080699
000290 ee 37 9e 3b af a0 2b bd ea 8c f5 bb 45 59 0a 3c
       0.0048284447 -0.041901287 -0.007493605 0.008444135
0002a0 01 c8 a1 3d 60 98 83 3d 88 10 6e 3d 17 e9 88 3d
       0.07899476 0.064255476 0.058121234 0.06685083
0002b0 74 52 56 3d 40 54 25 3d 33 ee a6 bd c6 24 96 bd
       0.052324727 0.04036355 -0.08150902 -0.07331233
0002c0 bb 55 7f bd 21 9f d4 3d d7 67 87 bc ef 48 92 3d
       -0.06233762 0.10381914 -0.016529007 0.07142817
0002d0 ac d0 ec bc 9f 50 48 3d 99 05 86 bc 13 19 a0 3d
       -0.028908096 0.04890501 -0.016360091 0.078172825
0002e0 db 59 57 bc 84 80 45 bc 95 17 03 3d ac 9b 62 bd
       -0.013143982 -0.012054566 0.03200491 -0.05532424
0002f0 e9 e8 91 3d 23 0e 87 3c ec a5 5f bc db 81 a2 3d
       0.07124502 0.016486233 -0.013650399 0.07934924
000300 97 38 05 3d 52 c5 58 3b 6c 27 83 3d 43 f3 5c 3d
       0.03252467 0.0033076596 0.064040035 0.05394293
000310 5a 44 5b 3d bb b5 6b 3d cd 60 3e bd d3 fc 48 3d
       0.053531982 0.05754636 -0.046479035 0.049069237
000320 0f d6 38 bd 3b 25 04 3d b2 6f b3 3b 13 fe 38 3d
       -0.045126017 0.03226207 0.0054759616 0.04516418
000330 78 27 08 3d a0 3d 92 bd f4 52 55 bd 45 9b 15 bd
       0.033240765 -0.0714066 -0.052081063 -0.03652503
000340 ca be ba 3d 46 3e 2c bc 64 48 b0 bc 49 83 8c bc
       0.091184214 -0.010512894 -0.021518894 -0.017152445
000350 5a 43 0a 3d 23 f0 19 3d 9b 6e 32 bd 6d 65 e5 bc
       0.033755638 0.037582528 -0.043562513 -0.028002465
000360 f3 c0 a5 bc d1 c8 c8 3c ed fa 8b 3c 45 28 18 3c
       -0.020233607 0.02450982 0.017087424 0.009286945
000370 5e a0 8c 3d 8e fa 12 3d 34 46 4c bd 94 54 02 3d
       0.06866525 0.03588348 -0.04987164 0.03181894
000380 c4 3f 8b 3d cd c0 ae bd 70 1f 2d bc 3b e6 82 3d
       0.06799272 -0.085328676 -0.010566577 0.06391569
000390 c4 6b 15 bc 15 97 aa bd 13 ac 94 3d 1b 49 d3 3d
       -0.009119932 -0.08329598 0.07259383 0.10316678
0003a0 0a 44 40 3d a5 0d 51 3d 8d 8c da bc f6 6b 2a 3c
       0.046939887 0.051038403 -0.026678348 0.010401716
0003b0 56 cf 13 bd 5b 47 0b 3e 0e 2c ac bc 3a 13 a3 3c
       -0.036086403 0.13601439 -0.0210171 0.019906629
0003c0 45 8e 88 3c 9e 75 90 bd b4 e4 25 bd 02 f1 0b 3d
       0.016669402 -0.07053684 -0.04050131 0.03416539
0003d0 46 96 75 3d 7f b7 ae 3c cc 0d 39 bd e5 3e ad bc
       0.059957765 0.021327732 -0.045179173 -0.021148155
0003e0 b8 a9 36 bd 29 f6 c9 3b 7a 62 ca 3c dd 74 a7 bd
       -0.04459545 0.006163378 0.02470516 -0.08176587
0003f0 9f 93 4f bc 5e 2b db bc a6 cf f6 bb ad 69 a5 3a
       -0.012669473 -0.026754078 -0.007532078 0.0012619995

model.6.weight f4 [16, 256]
000000 e3 ed 60 be ab c3 13 3d c3 05 71 bd d5 a5 6d be
       -0.21965747 0.036075275 -0.058843385 -0.23207791
000010 db 83 92 be 84 f6 9e 3c 06 fb f5 3d c3 fa 03 3f
       -0.28616223 0.019404657 0.120107695 0.51554507
000020 e9 5c b8 ba d4 36 9d 3b fe 60 6f bc a8 66 2e bd
       -0.0014065775 0.004797796 -0.014610527 -0.04257837
000030 ce 62 a6 bd 86 20 07 3d 2b 51 2c bf ed 33 e9 3d
       -0.08124314 0.03299 -0.6731135 0.11386857
000040 57 2c d3 bc 10 2c 3a be 15 19 82 be dc b5 1f 3d
       -0.025777979 -0.18180871 -0.2540976 0.038991794
000050 89 0e e3 3d 50 e5 0f be 70 69 3e bf f4 3a 3b 3e
       0.11086757 -0.1405232 -0.74379635 0.18284208
000060 1e 9c b8 3c 03 d0 c3 bc 48 fa be 3d 87 f7 d5 bc
       0.02253538 -0.023902899 0.09325081 -0.026119007
000070 b6 4d 1d bd 1b 02 45 bd 23 ed ab bd 4b 11 a1 bd
       -0.03840419 -0.04809771 -0.083948396 -0.078646265
000080 02 77 23 3e fc be 48 3d 7d 3f 0b 3e ba c6 73 3e
       0.15963367 0.049010262 0.13598438 0.23806277
000090 88 2f c2 3d 65 b2 31 3e 5b 11 52 bd 36 b4 05 be
       0.09481722 0.17353208 -0.051286083 -0.13057026
0000a0 7f c1 aa 3d 00 b5 1e bd a0 f1 46 be c1 75 05 3e
       0.08337688 -0.038746834 -0.1942811 0.13033201
0000b0 fe 1b b8 bc 0c 1f ad 3d d1 e5 0a 3b 7b 25 35 3d
       -0.022474285 0.08453187 0.002119411 0.044225197
0000c0 3d 21 91 bd b7 3e 69 3d 87 e9 38 3d 37 2c a9 3c
       -0.07086418 0.056944575 0.045144584 0.020650966
0000d0 10 9a 98 bd 34 3f 3c 3e ff 9a 32 3e bc 15 cc 3d
       -0.0745126 0.18383485 0.17441939 0.09965083
0000e0 3d 94 53 bf dd e4 9b bd 6a 30 65 bd 98 5e 5e 3f
       -0.8264807 -0.076120116 -0.055954374 0.8686309
0000f0 4a e4 51 bd c4 19 bd 3c 28 ab 62 be e6 5d dc bc
       -0.051243104 0.023083575 -0.22135603 -0.026900243
000100 fa e9 e0 3d 50 a8 3d bf c7 04 65 3e 3b bd 98 3d
       0.109821275 -0.7408495 0.22365104 0.07457968
000110 ca 2f 70 be 59 f9 8b 3d ac 5a 45 bd e4 51 21 3f
       -0.2345573 0.06834669 -0.048182175 0.6301558
000120 8c fd ca bd 24 4a 28 ba b5 14 a0 3e 35 e3 95 3c
       -0.099116415 -0.0006419739 0.31265798 0.018296817
000130 10 f8 76 3c 87 81 d3 3d e8 08 55 3d aa b4 5a 3f
       0.015073791 0.1032744 0.052010447 0.8543192
000140 6e 10 21 3f 69 13 8e 3d 7c c1 e3 3d 66 78 07 bd
       0.62915695 0.06937296 0.111208886 -0.033073805
000150 55 ee 4f 3e f2 71 7f be e7 06 bf be 3e f9 f3 bd
       0.2030576 -0.2494581 -0.37309954 -0.119127735
000160 23 5b a8 3d 6e 7d 8c bd 9c 53 11 3d e4 06 f6 bd
       0.08220508 -0.06859861 0.035480127 -0.12013033
000170 47 a6 c1 bc 7e 06 0c be c3 55 4c 3c 7e 5e 4a bf
       -0.023638858 -0.13674352 0.012471619 -0.79050434
000180 41 67 13 bd f8 50 f2 3c d3 b1 6e 3c 3f 1a 3d 3d
       -0.035987142 0.029579625 0.014568764 0.04616761
000190 55 6e b8 3c 66 a8 1e 3c 95 0e c9 bd 4f d4 d6 bc
       0.022513548 0.009683704 -0.098172344 -0.026224284
0001a0 ad 6c d0 be ca be 64 be b1 24 36 3e e0 d8 26 3d
       -0.40707913 -0.22338405 0.17787434 0.040734172
0001b0 9c c1 b7 3d dc 3b 1e 3d 03 06 92 bc 59 22 5b be
       0.08972475 0.038631305 -0.017825132 -0.21399821
0001c0 b2 2f 1c 3d 94 61 5f 3d 92 5e b4 bd da ec 96 3d
       0.038131423 0.054536417 -0.088071 0.073693946
0001d0 30 4b b4 bd e0 f1 5a 3d 8b 77 2a bd a5 a1 17 be
       -0.088034034 0.053453326 -0.04161791 -0.14807756
0001e0 81 d7 b5 3d 55 b4 e7 bf 25 8d f0 be 5f d2 e7 bd
       0.08878995 -1.8101908 -0.46982685 -0.11319422
0001f0 ff 7c f0 be 3b 26 e6 bd c6 20 0f 3e 5e ae 13 bd
       -0.46970364 -0.11237761 0.13977346 -0.03605496
000200 c0 44 d7 bb 91 92 01 3f 14 65 16 bd 47 a6 61 bd
       -0.006569475 0.5061427 -0.03671749 -0.055090215
000210 ee b6 13 3d f7 25 ee bd 5b 6d f3 3c 7e 48 c2 3c
       0.036063127 -0.11628335 0.02971523 0.023716208
000220 ad 3e d4 3c 69 b3 d4 3d 76 9f 28 3e c2 87 38 3d
       0.025908792 0.10385782 0.1646708 0.045051344
000230 b9 66 4d 3d 79 34 c4 bd 2e 9b 0e 3f 6e 4c 48 3f
       0.050146792 -0.09580321 0.55705535 0.7824162
000240 1e 1b aa bc 4e 5d b4 bd 7e d6 a7 bf 6b 1f 00 be
       -0.020764884 -0.08806859 -1.3112333 -0.12511985
000250 42 0e a2 bd 14 b4 7a be 54 38 89 be 73 74 01 bf
       -0.07912876 -0.24482757 -0.26800787 -0.5056831
000260 d7 0a 8a bd a6 94 8f be fe 28 34 bd 0d a6 ff bd
       -0.06740349 -0.28043097 -0.043984406 -0.124828435
000270 f4 53 b0 3d 36 01 87 bd 53 f2 9b be 59 26 b5 be
       0.08609763 -0.06592028 -0.30458316 -0.3538082
000280 a6 81 6e be b2 2f 9d 3d 09 98 b4 bb 09 e3 fd bc
       -0.23291644 0.07675113 -0.005511288 -0.030992048
000290 7d 35 cb 3c ea da 11 bc 2b ce 9c 3c 6e c4 e0 3d
       0.024805779 -0.008902291 0.019141277 0.10974966
0002a0 de 03 42 be be 34 e4 3c 66 4e 68 be 3c e6 2e bd
       -0.18946788 0.02785718 -0.22686157 -0.042700037
0002b0 eb 85 38 3e dc 72 19 be 82 48 fb bd d2 bf 4b 3d
       0.18019836 -0.14985222 -0.12269689 0.04974348
0002c0 49 eb cc bb 59 37 69 bd e9 9f f3 3b 02 ff 76 bd
       -0.006253634 -0.05693755 0.0074348343 -0.06030179
0002d0 8c cb 6c be 9d 97 f7 be 9e 54 8e bc dd 8e 10 be
       -0.23124522 -0.4835786 -0.017374333 -0.14116998
0002e0 9a 93 c3 be cc c0 0a be a9 8b bc 3c 48 cf aa bc
       -0.3819855 -0.13550109 0.023015814 -0.020850793
0002f0 84 82 0e 3e 38 f8 9a bd 4c 9a 89 bb 0e 55 64 be
       0.13916975 -0.07566875 -0.004199302 -0.22298071
000300 e9 0f 7d 3f fe 22 b6 bd f8 e0 b6 3c 7b 1e 7d 3d
       0.988524 -0.08893393 0.02232407 0.061796647
000310 45 fd 2e bd d3 f0 7e bc c4 2c 47 3d c6 1d 08 be
       -0.042722005 -0.015560347 0.048626676 -0.13292608
000320 7d 94 ef bb 3e aa b4 bd 67 09 21 bf 0e 5a 9d bd
       -0.0073114024 -0.088215336 -0.6290497 -0.07683192
000330 4d 1e 48 be 4f 90 5d bd 91 5b f2 be 8e 93 ab be
       -0.19542809 -0.0540927 -0.47335485 -0.33511013
000340 99 2d 8c bd d7 e6 0e 3c b6 c9 79 bd af db 75 3c
       -0.068446346 0.008722029 -0.060983382 0.01500599
000350 67 1f 6c bd 69 09 4c 3d 35 60 d2 3d 9a 3d d9 3d
       -0.057647135 0.04981366 0.10272256 0.10607453
000360 b4 12 07 bf 41 c0 f0 bd e9 fb 23 3d 6d e1 83 bd
       -0.52762914 -0.117554195 0.040035162 -0.06439481
000370 01 54 33 bf 64 4c 13 3b c4 47 17 bd 32 f6 bc 3d
       -0.70050055 0.0022475952 -0.036933675 0.092266455
000380 2d 41 83 3c af 14 27 bd 5a 9b 84 3e 77 6b 60 3c
       0.01602229 -0.04079121 0.25899774 0.013697497
000390 44 ff 19 3d 12 1f 60 bd b6 5f 25 be d2 95 7c 3e
       0.037596956 -0.05471713 -0.16149792 0.24666527
0003a0 65 fc 8a 3d 69 76 22 3c 78 29 cf bd 76 2d f5 bc
       0.06786422 0.0099159265 -0.101153314 -0.029928904
0003b0 36 74 dc bd a1 7d a8 bc dc 77 bc 3b c4 12 d6 3c
       -0.10764353 -0.020567717 0.005751593 0.026131995
0003c0 5f 1e 3f be 3c ad 51 bc d3 69 ad bc b2 63 37 bd
       -0.1866393 -0.01279765 -0.021168625 -0.04477281
0003d0 ed 69 21 3f 99 2b 25 3c 30 d7 b2 3c 90 6b 0f be
       0.63052255 0.010081195 0.021831125 -0.14005876
0003e0 6f e1 ad 3c 53 ff fc 3c e7 4e 88 3b 49 a1 9c 3d
       0.02122566 0.030883467 0.0041597965 0.0764795
0003f0 c3 b8 83 3c 60 f5 3a 3c cf 25 8c bd a0 e9 a3 be
       0.016079312 0.011411041 -0.06843149 -0.3201418

model.6.bias f4 [16]
000000 e7 dc b7 3c 36 6e 2a bd 7d 11 28 bd 72 85 5b 3d
       0.022444202 -0.04160901 -0.041032303 0.05359406
000010 7f f1 16 3c 6a 8d 6d bd 50 0b f7 3d 3a 8d c6 bb
       0.009212851 -0.05799619 0.120627046 -0.006059316
000020 5e 67 e8 3b f8 75 a5 bd cf 37 5b bc 05 d6 80 bd
       0.0070924005 -0.080791414 -0.013380005 -0.06290821
000030 ef 70 a6 bd ec b5 4b 3c 57 0e 24 bd 22 4f 04 bd
       -0.08127009 0.01243351 -0.040052738 -0.03230203
