data/checkpoints/rlgym-ppo-run-1760466173181197600/17706480/PPO_POLICY.pt (torch, 638775 bytes, 8 tensors)

model.0.weight f4 [256, 89]
-0.09364044 0.017497752 -0.07054113 0.04660459 -0.076714806 0.043362483 -0.08166224 -0.12215594
-0.020236075 0.06537343 -0.045375977 0.047941025 -0.1212738 -0.07414576 -0.031452704 -0.022629755
-0.08333566 0.059905585 -0.038119733 0.021645173 0.06324285 0.009022865 0.019709434 0.09039983
-0.06161426 0.021826047 -0.060619712 0.06754765 0.07637255 -0.10974564 0.077796906 0.03788833
0.032106116 0.0291975 0.074493796 -0.02903071 -0.10610829 -0.04923826 -0.08668533 0.00044246117
-0.027921678 -0.06571709 -0.020342926 0.085376464 -0.01673963 -0.0077230474 -0.02509213 0.006809945
0.085735574 0.05112793 0.024561584 0.0837581 0.06222476 0.021095173 0.0003456602 -0.089435026
-0.07366098 0.10307691 0.0133147165 -0.1012188 0.023527132 0.04303599 -0.11544527 -0.06387381
-0.054603055 -0.011536733 -0.1500877 -0.012582165 -0.11435218 0.04275478 0.11853932 0.034785815
-0.07033584 -0.08840851 0.037320953 -0.022094877 0.014631496 -0.10828536 -0.010908038 0.09928434
0.06280977 0.038566403 0.013421101 0.012060294 -0.022870122 -0.036919564 -0.039498676 0.107729934
0.08549711 0.13600118 -0.09669674 0.08771535 0.10155749 0.012744911 -0.019858645 0.05084748
0.21033207 0.050219286 0.062362477 -0.026583072 0.0828682 -0.06174079 0.007362459 -0.07937548
-0.051886115 -0.06449021 0.00028838453 0.08549726 0.043882478 -0.008241601 0.06476312 -0.064836234
0.04613852 -0.02001001 -0.028081456 0.001527477 -0.094687715 0.003330663 0.02550024 0.0805464
-0.03964516 0.034588937 0.09758046 -0.049072187 0.09304328 -0.057259522 0.027586404 0.033509936
0.016977193 0.0701203 -0.05166172 0.0187513 -0.011847809 -0.08657668 -0.03252935 -0.08454952
0.035776652 -0.001333222 0.002781196 -0.03987225 -0.0840292 -0.09051373 0.051180847 0.20197032
0.031982686 -0.015338405 -0.077821806 -0.032532323 -0.08003124 -0.03050843 -0.04615418 0.00029066642
0.03964488 0.07859881 0.081246674 0.1907444 -0.05280959 0.0012832863 -0.09302295 0.11377138
0.042739768 0.08631138 -0.10072401 0.06393161 0.11379782 0.087123826 0.04073869 0.09751408
0.0086636515 0.03703186 -0.014896808 -0.12446907 0.007406676 0.00089590804 -0.052767377 -0.07159539
-0.089453384 -0.022862129 0.08929958 0.047485206 0.024183156 0.006945005 0.028559301 -0.071741246
-0.12471267 0.014492736 -0.10193148 0.037201356 0.10991462 -0.100950174 -0.0633744 -0.09048581
0.025535025 0.08820895 -0.08226208 -0.03523892 0.0464737 -0.056861524 0.10283771 0.03662861
-0.017486954 0.02002238 0.04216419 -0.024570353 -0.07005603 0.0137619 0.010492711 0.015303756
-0.0061371503 0.07955545 -0.017286455 0.0005905959 0.056056812 -0.054983422 0.043847825 -0.006632471
0.060041755 -0.054223377 0.016405871 0.021903453 -0.07220647 -0.059534345 0.053005062 -0.01642607
0.075796366 -0.09479624 -0.038626853 -0.0746058 0.06381128 0.080216624 -0.07197006 0.008948336
-0.08227986 0.050599907 0.009165695 -0.08616308 0.031526204 0.0016711575 -0.061194032 0.08488937
0.096699946 5.675969e-06 -0.08129963 -0.008523794 0.17787665 0.117995314 -0.048549525 -0.06444626
0.05949172 0.03544752 0.07196282 -0.05783302 0.090949155 -0.07763496 0.0058235107 -0.03600782
00000000: 8fc6 bfbd 7257 8f3c de77 90bd 74e4 3e3d
00000010: a71c 9dbd dc9c 313d 883e a7bd e52c fabd
00000020: 20c6 a5bc 81e2 853d 29dc 39bd cf5d 443d
00000030: 665e f8bd bbd9 97bd 8dd4 00bd 0962 b9bc
00000040: e3ab aabd 8f5f 753d 7023 1cbd 3851 b13c
00000050: 7885 813d a4d4 133c ae75 a13c 8c23 b93d
00000060: 3c5f 7cbd 8acc b23c 604c 78bd 6c56 8a3d
00000070: 3669 9c3d 52c2 e0bd fc53 9f3d cb30 1b3d
00000080: b481 033d 982f ef3c 3490 983d d0d1 edbc
00000090: 4e4f d9bd 0fae 49bd 1488 b1bd 22fa e739
000000a0: 01bc e4bc af96 86bd 35a6 a6bc dbd9 ae3d
000000b0: 8c21 89bc 9e11 fdbb 038e cdbc f625 df3b
000000c0: 2296 af3d 856b 513d 6035 c93c 5e89 ab3d
000000d0: 64df 7e3d c9cf ac3c ba39 b539 b629 b7bd
000000e0: 91db 96bd fd19 d33d f825 5a3c cd4b cfbd
000000f0: f9bb c03c 8246 303d 926e ecbd 46d0 82bd
00000100: 74a7 5fbd 9104 3dbc 97b0 19be 6d25 4ebc
00000110: 7a31 eabd a31f 2f3d bec4 f23d 927b 0e3d
00000120: 3d0c 90bd 850f b5bd dbdd 183d 5100 b5bc
00000130: f1b8 6f3c b7c4 ddbd a1b7 32bc 9755 cb3d
00000140: 69a2 803d cef7 1d3d 2de4 5b3c 8a98 453c
00000150: 1f5a bbbc f838 17bd 5dc9 21bd 83a1 dc3d
00000160: 1c19 af3d e543 0b3e f108 c6bd 1ba4 b33d
00000170: 60fd cf3d 08d0 503c 99ae a2bc 7245 503d
00000180: 4a61 573e bdb2 4d3d cc6f 7f3d bec4 d9bc
00000190: ceb6 a93d e9e3 7cbd c840 f13b 9d8f a2bd
000001a0: 8986 54bd 7113 84bd 5132 9739 3019 af3d
000001b0: 1dbe 333d c807 07bc 87a2 843d dcc8 84bd
000001c0: bffb 3c3d 08ec a3bc 150b e6bc a035 c83a
000001d0: a2eb c1bd 4147 5a3b e1e5 d03c 83f5 a43d
000001e0: f762 22bd 21ad 0d3d 44d8 c73d ebff 48bd
000001f0: 7a8d be3d f688 6abd e2fc e13c b741 093d
00000200: c113 8b3c 3b9b 8f3d 3d9b 53bd 549c 993c
00000210: 501d 42bc 1d4f b1bd 7f3d 05bd 4c28 adbd
00000220: 8a8a 123d 82bf aeba ba44 363b 1651 23bd
00000230: 8017 acbd 435f b9bd 02a3 513d 4fd1 4e3e
00000240: 4700 033d ef4d 7bbc 0a61 9fbd 9d40 05bd
00000250: 6be7 a3bd d1ec f9bc 2a0c 3dbd 9664 9839
00000260: ab62 223d 6af8 a03d a864 a63d 8052 433e
00000270: de4e 58bd f133 a83a d182 bebd f800 e93d
00000280: e50f 2f3d 05c4 b03d 6448 cebd 93ee 823d
00000290: d50e e93d fa6d b23d 9ddd 263d 76b5 c73d
000002a0: fdf1 0d3c b8ae 173d be11 74bc a4e9 febd
000002b0: b4b3 f23b 5fdb 6a3a 9b22 58bd 9ba0 92bd
000002c0: 5633 b7bd 5c49 bbbc b3e2 b63d d97f 423d
000002d0: c11b c63c ed92 e33b 32f5 e93c 13ed 92bd
000002e0: 5b69 ffbd f172 6d3c 74c1 d0bd 7360 183d
000002f0: eb1a e13d f7be cebd 70ca 81bd a050 b9bd
00000300: d42e d13c e5a6 b43d 0579 a8bd b056 10bd
00000310: 355b 3e3d a1e7 68bd 949c d23d e207 163d
00000320: cd40 8fbc f905 a43c 5cb4 2c3d c447 c9bc
00000330: 8979 8fbd 9879 613c 9fe9 2b3c 9bbc 7a3c
00000340: 261a c9bb f8ed a23d 539c 8dbc 38d2 1a3a
00000350: d49b 653d 4c36 61bd c799 333d 3355 d9bb
00000360: 58ee 753d 5519 5ebd 9b65 863c df6e b33c
00000370: fce0 93bd 49da 73bd d61b 593d f78f 86bc
00000380: 203b 9b3d 8824 c2bd 3137 1ebd edca 98bd
00000390: 7daf 823d 9d48 a43d 0a65 93bd 0b9c 123c
000003a0: 5882 a8bd d941 4f3d b62b 163c 4576 b0bd
000003b0: 9f21 013d be0a db3a 98a6 7abd 7ada ad3d
000003c0: 9f0a c63d 3474 be36 6c80 a6bd 62a7 0bbc
000003d0: 4c25 363e 87a7 f13d dedb 46bd 67fc 83bd
000003e0: 97ad 733d 6b31 113d 3e61 933d 51e2 6cbd
000003f0: 8d43 ba3d 14ff 9ebd 26d3 be3b f07c 13bd

model.0.bias f4 [256]
-0.047467478 0.020882916 -0.030891012 -0.0073452587 -0.07245115 -0.03493891 0.06636119 -0.08037397
0.04010519 0.021980166 0.05674142 0.01666034 0.038354486 0.0085523715 0.10709454 0.08285015
0.060382564 0.035250038 0.05087528 0.10890952 0.037924767 0.0050480366 -0.034404848 0.008568695
0.04848274 -0.11134454 -0.101932704 0.09838604 0.08462659 0.09188936 -0.07817794 0.08957836
-0.06880879 -0.014307184 -0.086166926 0.012006284 -0.06488635 0.014337705 0.086853065 0.017113673
0.033525087 0.017910907 0.036476754 -0.03712092 0.084896624 0.06188035 0.025023684 -0.035770524
0.008692259 0.0052742846 0.08410197 -0.016979732 -0.054163907 -0.07204303 -0.013793142 -0.055372026
-0.089149915 -0.06573903 0.016528847 0.0049853134 -0.030564956 -0.10878381 0.021934466 0.08427109
-0.0602273 0.09302924 -0.02500651 0.049730558 -0.026934078 -0.10113209 -0.06591883 0.039817296
0.060013328 -0.109228775 0.07015074 0.032255188 0.052503563 -0.013444935 -0.051294867 0.090201005
-0.0072619244 -0.11525704 0.005074263 -0.075754605 -0.048553064 -0.07888679 0.029232828 -0.08853667
-0.044337567 -0.025801156 -0.0918354 -0.095912665 -0.05493268 -0.052707847 -0.104313776 -0.06873417
-0.08861531 0.059060708 -0.08661539 0.027606152 -0.011930342 -0.08329339 -0.022193635 0.009697848
0.1005933 -0.032136943 0.092186235 0.06073385 0.038337044 0.020130135 -0.04214006 -0.013020125
-0.037903395 0.04542077 0.06297627 0.04671464 -0.070137724 0.036657155 0.062455975 0.06112507
-0.01682671 0.074617475 -0.07606424 -0.08847541 -0.08596201 0.010757724 -0.03351985 0.06447191
0.006746618 0.017110094 0.00030352897 0.04870247 0.055633377 0.06915684 0.012109073 0.068267494
0.104362294 -0.0067909253 0.009120842 -0.039880723 0.091351405 0.01423157 -0.102262124 -0.056414504
-0.04183917 -0.03386366 -0.074647956 -0.040614747 -0.098131455 -0.011488142 -0.10182578 0.042728797
-0.021024419 -0.10190815 0.029070638 0.06409075 -0.03895965 -0.083835095 0.10833607 -0.046985276
0.03281775 -0.088966176 -0.07629598 -0.033759028 -0.03785893 -0.06547047 -0.08752515 0.051895525
-0.10853899 -0.046869956 -0.08567956 -0.115454376 0.02710577 -0.037285898 0.048882302 -0.11391067
-0.068348 0.04146338 0.027574444 0.10273711 0.05193201 -0.09368734 0.023426978 0.017188432
-0.0371374 0.11018648 0.06678017 0.049344964 -0.087911196 -0.03213591 -0.100680396 -0.045743044
0.013696552 -0.053167727 0.096997745 -0.0073821195 -0.005894877 -0.022821067 -0.08607433 0.02072374
0.090121634 0.091033444 0.027459739 0.04494862 -0.033411983 0.009298616 0.09649019 -0.036949605
0.06326034 0.07453574 0.029270044 -0.09973773 0.06990611 -0.096548155 0.04200905 0.059306137
-0.09717848 -0.09540631 -0.081488386 0.080693774 -0.054698303 -0.07410422 -0.017797565 0.019684596
-0.048846584 -0.06781986 -0.087948665 0.03891752 -0.080184005 -0.08132312 -0.060696896 -0.013679845
-0.0730728 -0.008254612 0.0062673977 0.09617553 0.095189 0.027572427 -0.053768106 0.033168487
-0.058767993 0.07942615 0.007182106 -0.019980073 0.09041924 -0.011172731 -0.047790356 0.0050551803
0.10306579 -0.07585613 -0.03904744 -0.058055427 0.067374595 0.10043804 0.08780382 0.0836808
00000000: 426d 42bd a612 ab3c 260f fdbc 7fb0 f0bb
00000010: 4561 94bd 1a1c 0fbd 60e8 873d 1c9b a4bd
00000020: 5745 243d c00f b43c b169 683d 447b 883c
00000030: 9819 1d3d 3f1f 0c3c 6254 db3d 57ad a93d
00000040: b553 773d 5862 103d 9962 503d f40b df3d
00000050: 0057 1b3d 006a a53b 19ec 0cbd b663 0c3c
00000060: d695 463d 9b08 e4bd 18c2 d0bd 9f7e c93d
00000070: b550 ad3d 7d30 bc3d c11b a0bd dc74 b73d
00000080: 9feb 8cbd ae68 6abc 4978 b0bd 01b6 443c
00000090: 22e3 84bd b2e8 6a3c 05e0 b13d f931 8c3c
000000a0: 9a51 093d e5b9 923c a668 153d 1b0c 18bd
000000b0: 48de ad3d 4076 7d3d 78fe cc3c 1d84 12bd
000000c0: fa69 0e3c e8d3 ac3b a73d ac3d 1419 8bbc
000000d0: f9da 5dbd 4c8b 93bd a1fc 61bc c7cd 62bd
000000e0: 3b94 b6bd 2fa2 86bd 8167 873c d75b a33b
000000f0: 5c63 fabc 0cca debd e9af b33c 5296 ac3d
00000100: e7b0 76bd 1d86 be3d 74da ccbc 45b2 4b3d
00000110: dba4 dcbc 571e cfbd 7400 87bd 7617 233d
00000120: 89d0 753d 56b3 dfbd 31ab 8f3d 041e 043d
00000130: fa0d 573d 2548 5cbc 911a 52bd 4ebb b83d
00000140: 70f5 edbb e20b ecbd 0146 a63b 3b25 9bbd
00000150: 94df 46bd 668f a1bd af79 ef3c b752 b5bd
00000160: 4f9b 35bd f25c d3bc 3314 bcbd dc6d c4bd
00000170: 1701 61bd 2fe4 57bd 76a2 d5bd 80c4 8cbd
00000180: f27b b5bd a4e9 713d 6963 b1bd 4c26 e23c
00000190: 7b77 43bc ba95 aabd 6dcf b5bc b9e3 1e3c
000001a0: dc03 ce3d 07a2 03bd 23cc bc3d 0fc4 783d
000001b0: 4e07 1d3d f4e7 a43c 0e9b 2cbd 5d52 55bc
000001c0: 9740 1bbd 210b 3a3d b4f9 803d da57 3f3d
000001d0: 5ea4 8fbd d025 163d d6d1 7f3d 485e 7a3d
000001e0: 2bd8 89bc 0cd1 983d 91c7 9bbd 9932 b5bd
000001f0: da0c b0bd 2a41 303c 1c4c 09bd d909 843d
00000200: bc12 dd3b 782a 8c3c f822 9f39 3e7c 473d
00000210: d3df 633d 1aa2 8d3d 2265 463c d4cf 8b3d
00000220: e6bb d53d 6986 debb 966f 153c f859 23bd
00000230: 7216 bb3d 882b 693c ce6e d1bd e512 67bd
00000240: 8d5f 2bbd 9fb4 0abd 07e1 98bd a65b 26bd
00000250: 25f9 c8bd c338 3cbc 098a d0bd 6404 2f3d
00000260: 673b acbc 38b5 d0bd 8c25 ee3c 0342 833d
00000270: 2794 1fbd bcb1 abbd 4ddf dd3d a273 40bd
00000280: e86b 063d e633 b6bd 1141 9cbd e846 0abd
00000290: f711 1bbd 6215 86bd 6340 b3bd 6790 543d
000002a0: b149 debd b6fa 3fbd c478 afbd 5873 ecbd
000002b0: eb0c de3c 19b9 18bd cf38 483d ff49 e9bd
000002c0: 09fa 8bbd 81d5 293d cde3 e13c d567 d23d
000002d0: a9b6 543d 26df bfbd efe9 bf3c c1ce 8c3c
000002e0: 631d 18bd 73a9 e13d 0bc4 883d f21d 4a3d
000002f0: c90a b4bd f2a0 03bd 8631 cebd 0f5d 3bbd
00000300: 8167 603c 67c6 59bd c1a6 c63d b5e5 f1bb
00000310: d029 c1bb 3ff3 babc bd47 b0bd d5c4 a93c
00000320: b191 b83d be6f ba3d 3ff3 e03c 0b1c 383d
00000330: 01db 08bd 3959 183c a69c c53d 7858 17bd
00000340: a38e 813d 32a6 983d bbc7 ef3c 4c43 ccbd
00000350: ef2a 8f3d 0abb c5bd ae11 2c3d feea 723d
00000360: 8305 c7bd 6264 c3bd 62e3 a6bd c742 a53d
00000370: 540b 60bd f4c3 97bd 33cc 91bc 9741 a13c
00000380: 5b13 48bd 24e5 8abd 6e1e b4bd fa67 1f3d
00000390: 8337 a4bd bc8c a6bd 4f9d 78bd 6e21 60bc
000003a0: 31a7 95bd 5a3e 07bc be5e cd3b adf7 c43d
000003b0: 73f2 c23d 92df e13c f23b 5cbd aedb 073d
000003c0: b5b6 70bd 2daa a23d df57 eb3b 40ad a3bc
000003d0: b92d b93d d50d 37bc d2bf 43bd eda5 a53b
000003e0: 2814 d33d 755a 9bbd 35f0 1fbd 87cb 6dbd
000003f0: b1fb 893d 76b2 cd3d 7dd2 b33d d760 ab3d

model.2.weight f4 [256, 256]
-0.0510097 0.046617195 -0.04886412 -0.027735509 -0.016722307 0.052236423 -0.04485843 -0.05494045
-0.025695294 0.0281672 -0.046258297 -0.024321022 -0.040222388 -0.049321212 0.023769606 -0.0024184105
-0.0113483565 0.03856214 0.07504496 -0.044599958 0.011626823 -0.073422 -0.048880976 -0.014658915
0.0020666693 -0.03726423 -0.043725085 -0.021869253 -0.011643018 -0.0048722597 0.038296815 0.059499037
-0.00484489 0.04456561 -0.027303396 0.04838603 0.06254408 -0.008795048 0.018519599 -0.053759087
-0.056778915 0.027331028 0.056195598 0.01363759 -0.012679178 -0.08603876 0.006010814 0.075118996
-0.0028451714 0.015724177 -0.006400082 -0.038637042 0.043364372 -0.029218273 -0.03367216 -0.014458564
-0.025726939 0.046872526 -0.053891264 0.064258315 -0.0031531358 0.05445141 -0.006121387 0.023144813
-0.033078723 -0.028345086 0.06744608 0.003050224 0.059468105 -0.009360505 -0.054236364 0.015043543
-0.024362193 0.05691703 -0.0056514842 0.029852161 0.03329464 -0.036990132 0.054640345 -0.061558384
0.052433528 -0.056199133 -0.0014137679 -0.019873755 -0.079774424 0.037355103 -0.06749139 -0.036584955
-0.0269577 0.058062643 0.047601204 -0.07919648 -0.06579321 -0.03498421 -0.027029913 -0.044854697
0.060686305 0.00058893213 0.04438 -0.02977595 0.01868815 -0.069896005 0.018617861 0.016965427
-0.049716115 -0.009711271 0.006445905 -0.026346521 0.04513132 0.04206593 0.043811347 -0.009511198
-0.007303852 0.052830122 -0.034802325 -0.036296103 0.04997046 0.02542259 0.03969383 0.02541547
-0.035211798 -0.05047178 0.055016004 0.025378328 -0.0012538374 0.03716093 0.009703791 -0.056881893
-0.0082094865 0.041048363 -0.037709247 0.014608516 -0.06941342 0.03288378 0.060550805 0.013475906
-0.031556442 0.05886201 -0.032620575 -0.056409527 0.02449427 -0.024160568 0.06639887 0.012240978
-0.027929386 -0.01916424 -0.048138108 -0.027805796 0.0390358 -0.05706597 -0.019316012 -0.021467868
-0.028692178 -0.0010365428 -0.011920404 0.07697032 -0.036701422 -0.0402852 0.05716172 -0.050764956
-0.046455566 -0.07078943 -0.0065562795 0.022857802 -0.046555948 0.062000096 -0.061567035 -0.024161931
0.019929683 0.008056891 -0.021995464 -0.006083843 0.032350544 0.048669685 0.05864833 0.00789311
0.00710786 0.06305638 -0.0009399504 -0.042603865 -0.02871594 0.024668625 -0.026305124 -0.048031658
0.02954208 -0.041070666 0.056372516 -0.009253439 0.05134377 -0.0010138246 -0.025425809 -0.024218757
0.055372432 0.039900173 -0.04593415 -0.009107432 -0.05586693 0.015294143 -0.043038044 0.03500796
-0.014861366 0.03096818 -0.007172015 0.011995725 0.060071614 -0.02746202 0.0269413 0.043457776
-0.020326415 -0.017753353 -0.092681274 0.017226905 0.040646713 0.026890675 0.016274154 -0.021461649
-0.04353464 -0.03496168 0.07349599 0.06306283 -0.0036680761 0.0051795947 -0.032152243 -0.08662859
0.013439044 -0.043766785 0.0007605274 -0.018989583 0.003728293 -0.029381402 -0.034590185 -0.013250405
-0.032906007 0.019061677 -0.03653211 0.038316775 -0.046915136 -0.021938499 -0.029539762 0.001821454
0.028626723 0.028111238 -0.026239311 0.038104918 0.029007087 0.044672303 0.04777455 -0.0315136
0.026977373 0.016012657 0.0035741027 -0.021578098 0.03541819 0.009752679 0.023655089 -0.033703968
00000000: 8cef 50bd acf1 3e3d be25 48bd 9435 e3bc
00000010: 38fd 88bc dcf5 553d 79bd 37bd 3d09 61bd
00000020: f07e d2bc e6be e63c 5779 3dbd e13c c7bc
00000030: 3bc0 24bd 0a05 4abd 7ab8 c23c 327e 1ebb
00000040: 75ee 39bc 56f3 1d3d 2cb1 993d 72ae 36bd
00000050: 6e7e 3e3c 465e 96bd 6b37 48bd f22b 70bc
00000060: f570 073b 61a2 18bd 1319 33bd 2627 b3bc
00000070: 5bc2 3ebc 7aa7 9fbb 1fdd 1c3d 43b5 733d
00000080: e2c1 9ebb 6e8a 363d 5fab dfbc 6e30 463d
00000090: 1c17 803d 1b19 10bc 6ab6 973c 7d32 5cbd
000000a0: 0291 68bd 52e5 df3c 5b2d 663d 3370 5f3c
000000b0: 54bc 4fbc 1735 b0bd 5df6 c43b fdd7 993d
000000c0: 0e76 3abb fdcf 803c c7b7 d1bb e041 1ebd
000000d0: d79e 313d 295b efbc d2eb 09bd 9de3 6cbc
000000e0: 4dc1 d2bc 68fd 3f3d 16bd 5cbd dd99 833d
000000f0: d7a4 4ebb 7108 5f3d ea95 c8bb 319a bd3c
00000100: 8e7d 07bd f433 e8bc 2c21 8a3d 44e6 473b
00000110: d494 733d ce5c 19bc f326 5ebd 3179 763c
00000120: 3993 c7bc d521 693d 1630 b9bb 858c f43c
00000130: f65f 083d f782 17bd 8ece 5f3d a524 7cbd
00000140: 8ac4 563d 1031 66bd 2e4e b9ba 49ce a2bc
00000150: c660 a3bd aa01 193d ed38 8abd 1bda 15bd
00000160: 65d6 dcbc 18d3 6d3d 7bf9 423d c431 a2bd
00000170: 97be 86bd 9a4b 0fbd d66d ddbc 8fb9 37bd
00000180: 3492 783d 9162 1a3a cec7 353d b1ec f3bc
00000190: e417 993c a325 8fbd 7c84 983c 14fb 8a3c
000001a0: 20a3 4bbd 061c 1fbc 2c38 d33b a9d4 d7bc
000001b0: 9edb 383d 534d 2c3d 8773 333d dbd4 1bbc
000001c0: 2755 efbb 6664 583d e28c 0ebd 39ab 14bd
000001d0: d3ad 4c3d 0943 d03c ff95 223d 1b34 d03c
000001e0: 3f3a 10bd 7fbb 4ebd 7658 613d 36e6 cf3c
000001f0: cd57 a4ba 0f36 183d a6fc 1e3c fdfc 68bd
00000200: 1581 06bc 5422 283d 0375 1abd 8f58 6f3c
00000210: a028 8ebd 24b1 063d 1f04 783d 0cca 5c3c
00000220: 5441 01bd 4a19 713d 279d 05bd ad0d 67bd
00000230: 35a8 c83c 62ec c5bc 21fc 873d 628e 483c
00000240: 2bcc e4bc 53fe 9cbc 772c 45bd fbc8 e3bc
00000250: 01e4 1f3d 02be 69bd 9d3c 9ebc 62dd afbc
00000260: dc0b ebbc 9bdc 87ba cc4d 43bc 9da2 9d3d
00000270: 3b54 16bd 1802 25bd 6822 6a3d eaee 4fbd
00000280: 3148 3ebd 0cfa 90bd 0fd6 d6bb 4940 bb3c
00000290: 73b1 3ebd d0f3 7d3d b72d 7cbd 3eef c5bc
000002a0: 9343 a33c 0d01 043c d52f b4bc f95a c7bb
000002b0: 0182 043d dd59 473d 3b39 703d 1a52 013c
000002c0: 0de9 e83b b423 813d 0167 76ba 6481 2ebd
000002d0: b13d ebbc db15 ca3c d87d d7bc d8bc 44bd
000002e0: 3b02 f23c b739 28bd dee6 663d bc9b 17bc
000002f0: d84d 523d 4fe2 84ba c949 d0bc 6a66 c6bc
00000300: 34ce 623d 5d6e 233d 7325 3cbd 5737 15bc
00000310: b9d4 64bd 4994 7a3c a948 30bd 8264 0f3d
00000320: 167d 73bc fbb0 fd3c 3903 ebbb b889 443c
00000330: a70d 763d 08f8 e0bc 00b4 dc3c c800 323d
00000340: 9583 a6bc 7b6f 91bc aecf bdbd 701f 8d3c
00000350: 2b7d 263d d549 dc3c 6051 853c 57d0 afbc
00000360: 6151 32bd fb33 0fbd 1185 963d 1627 813d
00000370: 1b64 70bb 97b9 a93b 12b2 03bd 556a b1bd
00000380: 702f 5c3c cd44 33bd 215e 473a 0b90 9bbc
00000390: 6156 743b 44b1 f0bc 70ae 0dbd 3a18 59bc
000003a0: 73c8 06bd 3c27 9c3c b2a2 15bd 0df2 1c3d
000003b0: 162a 40bd 5eb8 b3bc 5ffd f1bc dbbd ee3a
000003c0: 9782 ea3c 8a49 e63c d3f3 d6bc e713 1c3d
000003d0: 45a0 ed3c 4efa 363d 3faf 433d 6814 01bd
000003e0: a7ff dc3c fa2c 833c 7e3b 6a3b 8dc4 b0bc
000003f0: aa12 113d b3c9 1f3c 51c8 c13c 2c0d 0abd

model.2.bias f4 [256]
0.033649128 0.053643312 -0.061071567 -0.043541823 -0.032815717 0.03906 0.04905878 -0.05894065
0.047526456 -0.027013203 0.0062143155 -0.06031619 0.053359114 -0.023530789 0.04110187 0.03150649
-0.039966762 -0.0139731355 0.03113133 0.011248885 0.018377721 -0.022438426 0.022152543 -0.013757278
0.02366426 -0.026990535 0.044065867 0.044417452 0.018281858 -0.021454474 -0.021290688 -0.024463749
0.020910334 -0.03276107 -0.045477673 0.033929534 0.01609399 0.020073151 -0.03852038 0.040906742
-0.059909888 0.046077468 -0.0015358226 -0.006030478 -0.024981715 0.049501114 -0.01300974 0.028517028
-0.027421296 0.063597016 0.029972741 0.061540727 -0.055613417 0.04788399 0.06610885 -0.03230683
0.03862182 0.017708376 0.026955107 -0.017005885 0.020923637 -0.0007755494 -0.044669583 -0.0037771233
0.00510626 0.0421758 -0.03937473 0.038606893 -0.012889959 0.041566968 0.06288351 0.009325311
-0.042524666 -0.05734578 0.027088905 0.0002752824 -0.00070025044 0.06304428 0.021161957 -0.05202009
-0.048297234 -0.055188004 0.046937335 0.0073195854 -0.005288733 -0.025956659 -0.061132874 -0.040989187
0.06006368 0.037267584 0.015974028 -0.046189427 0.0014407716 -0.02741894 0.021694764 0.019156227
0.037920233 0.029313179 0.017325277 0.004660308 -0.03623139 0.025050685 -0.05169408 -0.0641884
0.03968372 -0.06251909 -0.0063357097 -0.04931611 0.0017785644 0.014824616 -0.018747441 -0.035872847
0.029962854 0.02653324 0.05310832 0.010737365 0.021829167 -0.05172069 0.0044600004 -0.022837432
0.01241437 -0.058803804 0.027661117 0.02892708 -0.017790543 0.030967874 0.028204206 0.027364047
-0.018724354 -0.06636939 -0.007987964 -0.012459681 0.05495225 -0.044118624 -0.04039305 -0.024449773
0.053324167 -0.037811328 -0.0077142073 0.055953387 0.01689544 0.07941868 -0.05296477 -0.054505922
-0.021566939 0.016064672 0.040681455 -0.036905717 -0.05617605 -0.01528925 0.017603967 -0.0491014
-0.06876185 -0.006531184 -0.04547621 0.05996442 0.047558825 0.041606717 -0.021130307 -0.057801947
-0.036468804 -0.021918803 0.04075478 0.0038332578 -0.010782027 -0.011105924 -0.01701628 0.045912586
0.038530093 0.0032025462 -0.03776255 0.035952423 0.024292195 -0.06283384 0.02231955 -0.027903782
-0.033850923 0.0447305 0.04374112 0.011271285 -0.009581025 0.039333377 -0.060147498 0.054475754
-0.025023382 -0.0139946155 0.03765734 -0.0568221 0.039682407 0.015540131 -0.035488706 0.008073054
-0.03038768 0.0066336864 -0.064538874 -0.056291368 -0.003374319 -0.03887665 0.026160358 -0.015696798
0.057688817 0.035577245 0.05559212 -0.057695575 0.058214422 0.020429403 -0.0074471235 0.007304065
-0.045259733 -0.017473435 -0.015788874 -0.06010047 -0.05153593 -0.06357554 0.045804195 -0.008992508
0.02432683 -0.012950909 -0.038639497 0.020050732 -0.048647888 0.024536123 0.021256201 -0.00919563
-0.022034915 -0.06454885 0.06568704 -0.055988535 0.035208505 -0.032754194 -0.04165128 0.040313613
0.005639739 0.01238739 0.039294947 0.04687219 0.018346326 -0.06722872 -0.0154239675 0.01523709
0.04758778 0.0381642 -0.012600655 -0.009905087 0.033676993 0.034264047 -0.020799099 0.036867626
0.049639124 0.04134744 -0.0012115011 0.018389514 -0.011849092 0.04241412 0.012594176 0.011651949
00000000: abd3 093d 17b9 5b3d 2e26 7abd e958 32bd
00000010: c669 06bd 61fd 1f3d dcf1 483d c06b 71bd
00000020: 1aab 423d cb4a ddbc 75a1 cb3b 1c0e 77bd
00000030: 168f 5a3d a4c3 c0bc 6f5a 283d f30c 013d
00000040: 30b4 23bd 94ef 64bc 2207 ff3c 3e4d 383c
00000050: e08c 963c cad0 b7bc 4079 b53c 3566 61bc
00000060: 8ddb c13c 411b ddbc 697e 343d 13ef 353d
00000070: d6c3 953c 4bc1 afbc cf69 aebc 3368 c8bc
00000080: 264c ab3c 7930 06bd cc46 3abd b2f9 0a3d
00000090: 8bd7 833c 7370 a43c 8cc7 1dbd d48d 273d
000000a0: 1264 75bd babb 3c3d a84d c9ba 519b c5bb
000000b0: 74a6 ccbc aec1 4a3d ce26 55bc 8b9c e93c
000000c0: a0a2 e0bc 273f 823d 6589 f53c 2112 7c3d
000000d0: e5ca 63bd 0122 443d 1464 873d 2b54 04bd
000000e0: ea31 1e3d 2811 913c f5d0 dc3c ed4f 8bbc
000000f0: 0c68 ab3c 3d4e 4bba 74f7 36bd 9d89 77bb
00000100: 6a52 a73b 88c0 2c3d 6647 21bd 4322 1e3d
00000110: 6830 53bc 2042 2a3d 12c9 803d 30c9 183c
00000120: 582e 2ebd 69e3 6abd 8de9 dd3c c753 9039
00000130: 0391 37ba 5c1d 813d d75b ad3c 0513 55bd
00000140: 52d3 45bd d10c 62bd 5d41 403d 22d9 ef3b
00000150: 1c4d adbb 0fa3 d4bc 7766 7abd 47e4 27bd
00000160: 5505 763d e5a5 183d f7db 823c 2031 3dbd
00000170: 46d8 bc3a af9d e0bc 38b9 b13c 85ed 9c3c
00000180: 3f52 1b3d 3122 f03c bded 8d3c 7fb5 983b
00000190: 5e67 14bd 1837 cd3c 2cbd 53bd 3575 83bd
000001a0: 658b 223d 020a 80bd c99b cfbb b0ff 49bd
000001b0: b81e e93a f2e2 723c 3c94 99bc 68ef 12bd
000001c0: a974 f53c 3d5c d93c 1c88 593d c6eb 2f3c
000001d0: 15d3 b23c 13d9 53bd 3225 923b 9115 bbbc
000001e0: a465 4b3c 42dc 70bd 9199 e23c 7cf8 ec3c
000001f0: 79bd 91bc 57b0 fd3c 820c e73c 912a e03c
00000200: d163 99bc adec 87bd f3df 02bc b123 4cbc
00000210: 9c15 613d bbb5 34bd 2f73 25bd e44a c8bc
00000220: 716a 5a3d 0de0 1abd 76c7 fcbb 612f 653d
00000230: 4e68 8a3c 43a6 a23d 96f1 58bd 9a41 5fbd
00000240: 26ad b0bc 0f9a 833c 99a1 263d 732a 17bd
00000250: dc18 66bd c37f 7abc 3236 903c 8d1e 49bd
00000260: 03d3 8cbd 8b03 d6bb 4345 3abd 409d 753d
00000270: 0bcd 423d ce6b 2a3d 7719 adbc bcc1 6cbd
00000280: 5060 15bd 108f b3bc 7cee 263d 6537 7b3b
00000290: 19a7 30bc 9ff5 35bc ba65 8bbc d60e 3c3d
000002a0: bbd1 1d3d cfe1 513b e7ac 1abd d942 133d
000002b0: 6d00 c73c 07af 80bd 7dd7 b63c 7996 e4bc
000002c0: 44a7 0abd 5437 373d e329 333d 32ab 383c
000002d0: bbf9 1cbc 091c 213d 395d 76bd f821 5f3d
000002e0: d6fd ccbc ac49 65bc 953e 1a3d 4abe 68bd
000002f0: 058a 223d 099c 7e3c 9b5c 11bd d844 043c
00000300: 95ef f8bc 655f d93b f52c 84bd c791 66bd
00000310: ae23 5dbb 1f3d 1fbd 3f4e d63c 9296 80bc
00000320: 1c4b 6c3d 72b9 113d 90b4 633d 3252 6cbd
00000330: 3f72 6e3d 905b a73c 0007 f4bb f056 ef3b
00000340: 4562 39bd 7324 8fbc ab57 81bc e92b 76bd
00000350: 5717 53bd e533 82bd 2e9d 3b3d 5055 13bc
00000360: 0f49 c73c 0d30 54bc 7344 1ebd 6f41 a43c
00000370: 0243 47bd fbff c83c 7c21 ae3c 45a9 16bc
00000380: 9182 b4bc 3032 84bd ed86 863d 3c54 65bd
00000390: cb36 103d 4329 06bd 889a 2abd e31f 253d
000003a0: 8fcd b83b 7bf4 4a3c bdf3 203d 0efd 3f3d
000003b0: 094b 963c 36af 89bd cfb4 7cbc fda4 793c
000003c0: 67eb 423d 1052 1c3d fa72 4ebc f248 22bc
000003d0: e3f0 093d 7558 0c3d df62 aabc 8202 173d
000003e0: 6552 4b3d ef5b 293d 3bcb 9eba 9ba5 963c
000003f0: b222 42bc 6eba 2d3d ce57 4e3c d1e7 3e3c

model.4.weight f4 [256, 256]
0.06629919 0.019060317 0.0013531679 -0.012086251 -0.03624515 0.055752084 -0.02201327 -0.0021102498
-0.008604035 0.023650005 0.069191955 -0.06291306 -0.064617105 0.036393814 0.02401181 -0.021424223
-0.07131895 0.008888838 -0.030938549 0.04035315 0.03286793 -0.031731386 0.0073571024 0.0187313
-0.040593266 0.06847542 0.04570162 0.029666493 0.07494625 0.051032785 -0.031061387 0.001831067
-0.044634204 -0.01831863 0.04240309 0.0063466225 0.063200146 -0.07316901 0.009954069 0.025628695
-0.023691574 -0.015879767 0.02119879 -0.040033054 -0.006270038 -0.04677807 0.061426807 0.007687155
0.018322466 0.0048951367 -0.00013463636 -0.06771064 -0.012113983 -0.0036829142 -0.033891957 0.04332757
0.03519999 0.0026463955 0.08746879 0.029577848 -0.005794073 0.021779902 0.0010453688 -0.037495986
-0.045710664 0.08905482 -0.05300482 0.02109304 0.061005432 -0.06726323 0.04839034 -0.041333295
0.013606217 -0.009352687 -0.029257284 0.07322616 -0.03545959 -0.024017503 -0.0089713065 -0.062514886
-0.0464472 -0.0729361 0.08102449 0.04374733 0.045428187 0.011402374 0.03624506 -0.0066345274
-0.029662503 -0.04980776 0.012361702 0.014601271 -0.013360609 -0.03491401 -0.045310523 -0.042626377
-0.01684335 0.039345212 -0.022124393 0.032835536 0.043898564 0.0095424205 0.02264986 0.01057184
-0.057768058 0.059548248 -0.024427168 0.015077 -0.06416155 0.009920044 -0.043921907 0.04282755
-0.023983596 0.053188324 0.026922539 0.055989183 -0.02609695 0.039470278 0.040466685 0.054618362
0.038113482 -0.05639372 -0.043663096 0.015051793 -0.045124087 -0.049065746 0.0720184 0.020970799
0.02428669 0.025975144 0.0136007 0.051294956 0.02923166 0.06381888 0.053354844 0.017643904
0.013790247 0.053591322 -0.0051812986 -0.019071572 0.06588493 0.038629062 0.06634554 0.02324077
0.008754964 -0.021669608 0.031941053 -0.01595471 -0.058421675 0.012405679 0.04549375 -0.0037799773
0.023878563 0.02795081 0.026450658 -0.036924038 0.065259054 0.06974791 0.032148782 0.080188274
0.026748497 -0.02488535 -0.04474095 0.0018732774 0.059909094 0.028097155 -0.010839109 0.01555399
0.017833536 -0.05209414 0.027252456 0.038541816 0.041183453 -0.004259452 0.008227035 -0.04280642
-0.049605563 0.018486734 0.06530651 0.01946537 -0.0300945 0.013813893 -0.0022423556 0.042596355
-0.04108582 0.030584756 -0.026171215 -0.05069351 0.05751971 0.032349683 -0.021661326 -0.014734923
-0.057200994 0.04944002 -0.043666076 -0.00094737957 0.05686083 0.00021761392 0.062893435 0.03709601
0.008423877 0.043835055 -0.05029597 0.0143394 0.054886326 0.039157268 0.035845257 0.008190897
0.0028869212 -0.032502327 0.0293978 -0.028479978 -0.041556586 0.052205894 0.013406535 -0.056512386
0.0035163471 -0.02367155 -0.048811674 0.02955704 0.032127567 -0.048735898 0.02315996 0.030784732
-0.032176625 -0.024708444 0.058322985 0.056817207 0.07565071 -0.060744833 0.037459336 -0.016656708
-0.03121804 -0.04107783 0.06793302 -0.056033228 -0.021372734 0.058213364 -0.004960975 0.05441498
0.015118191 -0.00036496378 0.039595194 0.04974143 0.033582762 0.019888932 0.050351594 -0.0537453
0.065726 0.011770815 0.0010200428 0.016274896 -0.05539994 -0.021534951 -0.019816943 0.063912354
00000000: dfc7 873d 6224 9c3c c85c b13a 6905 46bc
00000010: cb75 14bd 4c5c 643d 2c55 b4bc 1e4c 0abb
00000020: f0f7 0cbc a8bd c13c 83b4 8d3d 90d8 80bd
00000030: f955 84bd ae11 153d 6ab4 c43c da81 afbc
00000040: ab0f 92bd 7da2 113c d772 fdbc 5849 253d
00000050: 86a0 063d c5f8 01bd d913 f13b 6272 993c
00000060: 2045 26bd d73c 8c3d 9f31 3b3d 2507 f33c
00000070: 6b7d 993d c107 513d 7374 febc 6a00 f03a
00000080: 5bd2 36bd f410 96bc ddae 2d3d 54f7 cf3b
00000090: 146f 813d a2d9 95bd 6416 233c 45f3 d13c
000000a0: d514 c2bc 4916 82bc 16a9 ad3c b3f9 23bd
000000b0: e474 cdbb 5d9a 3fbd ad9a 7b3d 88e4 fb3b
000000c0: ff18 963c 6267 a03b 2c2d 0db9 e0ab 8abd
000000d0: ba79 46bc 0c5d 71bb 4bd2 0abd 4078 313d
000000e0: dd2d 103d 266f 2d3b d622 b33d 3e4d f23c
000000f0: 35dc bdbb c46b b23c c204 893a 6495 19bd
00000100: 1b3b 3bbd 6062 b63d 951b 59bd 50cb ac3c
00000110: d5e0 793d 4ec1 89bd f334 463d 1a4d 29bd
00000120: 9cec 5e3c 033c 19bc f9ac efbc 99f7 953d
00000130: 133e 11bd 5bc0 c4bc 63fc 12bc ce07 80bd
00000140: 6b3f 3ebd 865f 95bd 2bf0 a53d 6630 333d
00000150: e812 3a3d 06d1 3a3c b375 143d 7366 d9bb
00000160: c7fe f2bc 3903 4cbd bc88 4a3c 2b3a 6f3c
00000170: 75e6 5abc fe01 0fbd 8797 39bd ff98 2ebd
00000180: 11fb 89bc 7228 213d 373e b5bc 8e7e 063d
00000190: fbce 333d d057 1c3c 338c b93c 8335 2d3c
000001a0: 339e 6cbd dde8 733d 7c1b c8bc 8505 773c
000001b0: 2167 83bd ae87 223c 75e7 33bd f16b 2f3d
000001c0: 3f79 c4bc 00dc 593d a88c dc3c ea54 653d
000001d0: 45c9 d5bc 96ab 213d 65c0 253d 81b7 5f3d
000001e0: e21c 1c3d 1afd 66bd 13d8 32bd cc9b 763c
000001f0: 09d4 38bd 2af9 48bd 627e 933d f4ca ab3c
00000200: e1f4 c63c d3c9 d43c 78d5 5e3c a91a 523d
00000210: 3c77 ef3c 79b3 823d 9c8a 5a3d f389 903c
00000220: 7df0 613c 9382 5b3d e2c7 a9bb fc3b 9cbc
00000230: aeee 863d 8239 1e3d 2ce0 873d 6d63 be3c
00000240: fb70 0f3c 7684 b1bc 9fd4 023d 74b3 82bc
00000250: 914b 6fbd 3041 4b3c a857 3a3d 7fb9 77bb
00000260: fa9c c33c 19f9 e43c 0daf d83c a93d 17bd
00000270: 8aa6 853d fed7 8e3d 71ae 033d c039 a43d
00000280: aa1f db3c 5ddc cbbc 4942 37bd c288 f53a
00000290: 3d63 753d 012c e63c 8596 31bc 2ad6 7e3c
000002a0: a317 923c aa60 55bd 8b40 df3c 06de 1d3d
000002b0: fbaf 283d e092 8bbb b0ca 063c c955 2fbd
000002c0: 342f 4bbd 7e71 973c 6bbf 853d d775 9f3c
000002d0: be88 f6bc ab53 623c 7cf4 12bb 8479 2e3d
000002e0: 9b49 28bd e28c fa3c 0465 d6bc ffa3 4fbd
000002f0: ca99 6b3d 1a81 043d 1873 b1bc bf6a 71bc
00000300: 974b 6abd 9e81 4a3d 33db 32bd 9159 78ba
00000310: e7e6 683d 4b2f 6439 46ce 803d fcf1 173d
00000320: 4d04 0a3c 638c 333d 2603 4ebd ceef 6a3c
00000330: 7cd0 603d 5f63 203d 7ad2 123d 1d33 063c
00000340: 8032 3d3b 2921 05bd a8d3 f03c d84e e9bc
00000350: 3d37 2abd d9d5 553d 15a7 5b3c 8879 67bd
00000360: 8472 663b d7ea c1bc c0ee 47bd 9b21 f23c
00000370: 3298 033d 4b9f 47bd f5b9 bd3c 4330 fc3c
00000380: a3cb 03bd 5d69 cabc 15e4 6e3d 29b9 683d
00000390: c2ee 9a3d 93cf 78bd f66e 193d a673 88bc
000003a0: fabc ffbc 3a41 28bd 7820 8b3d 1983 65bd
000003b0: df15 afbc 2371 6e3d ad8f a2bb 3ee2 5e3d
000003c0: 4ab2 773c 9c58 bfb9 922e 223d abbd 4b3d
000003d0: 148e 093d 1dee a23c 793d 4e3d 0824 5cbd
000003e0: 5a9b 863d 60da 403c f5b2 853a ee52 853c
000003f0: 0ceb 62bd 116a b0bc 2457 a2bc 7be4 823d

model.4.bias f4 [256]
0.073583215 -0.05751245 0.035868414 -0.0020316418 0.001568865 0.0382591 -0.069784634 0.038735483
0.012255505 0.07090503 -0.018861478 0.018916212 -0.051095303 -0.023677144 0.013501535 0.031834606
-0.05612955 0.033562373 0.060435195 -0.026366105 0.0065245726 0.035735387 -0.019807555 0.045677233
0.014925009 -0.010577519 0.010360831 0.006287791 -0.012916276 0.07005987 0.029130854 -0.0039192443
-0.014759629 0.018944707 -0.00787215 -0.023121607 0.023376724 -0.07037687 -0.03040362 0.018602267
-0.022406178 0.06157437 0.02562517 -0.0005004408 -0.02088163 -0.0130992 -0.032126848 -0.008651967
-0.026789343 0.053660575 0.041055284 -0.028144691 -0.05638964 -0.061786495 -0.035006568 0.006027518
0.046408534 0.053217728 -0.036223844 -0.02028537 -0.040922593 -0.021255106 0.021587027 0.03487928
0.05552006 -0.0509032 0.06101414 -0.052159175 -0.026892737 0.056609567 -0.03333386 -0.040634565
-0.044543955 0.0013503546 0.06543458 0.07844769 -0.01794062 0.012535572 0.008735243 0.055618603
0.049226295 0.030869825 0.03208354 0.043124534 -0.038709287 0.008910383 0.05328157 -3.8115681e-06
0.031615727 0.058569692 -0.028074384 -0.056225408 0.04671426 0.05466011 -0.069529176 -0.03009741
-0.040078804 0.03315194 0.016650584 0.028499635 0.025304653 -0.008825148 0.004595676 -0.068586245
-0.039589863 0.06802057 0.066005945 0.032073278 0.05328639 0.038306154 -0.021631388 0.020768516
0.04225839 0.047708564 -0.0551413 0.008834745 -0.030094072 0.043547984 -0.04341731 0.0317287
-0.04448044 -0.039051667 -0.028258687 0.025218721 0.0049883714 0.027320838 -0.05209108 -0.060668394
-0.047513478 0.015500553 -0.038075518 0.054995585 0.025828794 0.00067189144 -0.061906613 -0.040863853
-0.054055367 -0.0021598006 0.050515324 -0.055476062 -0.049014244 -0.058581993 0.03053817 0.015465761
-0.061849065 -0.013758312 0.003963039 -0.043953493 0.0075892285 -0.069450594 -0.045286782 0.03627571
-0.07334486 0.014461612 -0.04280537 -0.051156536 -0.027301105 0.004815591 -0.0005546277 0.013329136
0.027973067 0.043554552 0.019324813 -0.06014611 0.030525059 -0.025034854 -0.018838197 -0.017442055
0.0133605385 0.03597858 0.064890794 0.027792482 -0.022897061 0.033562962 -0.07329983 -0.041250825
-0.031683493 0.06504326 -0.010242651 0.06254749 0.004423292 0.054147013 -0.038168006 0.051815644
-0.027179113 -0.06663169 0.0076010516 -0.05156838 0.055402312 -0.0005530768 -0.00886015 0.055363536
-0.00468433 0.013549735 0.02586013 0.008400352 0.010302743 0.06795939 -0.05773398 0.035622254
-0.056590457 0.039316397 -0.013590062 0.03143756 0.004777213 -0.044046115 -0.065307476 -0.018312711
0.07553935 -0.05625983 0.031052675 -0.028950203 0.0045725377 0.0037877285 -0.04732201 -0.06935505
-0.027038582 0.00306118 -0.010309995 -0.03545737 0.07121845 0.0035327268 -0.04139758 0.022067111
0.045333277 -0.06515786 -0.004269421 0.028314931 -0.048354294 -0.06413136 0.04800667 0.0154123865
0.030443389 0.062167685 -0.03024812 -0.027233906 -0.0451557 0.04368858 -0.012692138 0.015304764
-0.02024892 -0.060325325 -0.02559025 -0.032814495 0.048859503 -0.012032697 -0.01823049 -0.029366935
-0.01933255 0.018963302 -0.008877004 -0.069632046 -0.05637968 0.013680128 -0.009066602 0.011710387
00000000: ccb2 963d 2d92 6bbd c2ea 123d 4b25 05bb
00000010: 60a2 cd3a 93b5 1c3d 3feb 8ebd 19a9 1e3d
00000020: 50cb 483c a836 913d 6383 9abc 2cf6 9a3c
00000030: 4f49 51bd 92f6 c1bc 8b35 5d3c 0165 023d
00000040: 19e8 65bd b378 093d e58a 773d bbfd d7bc
00000050: 15cc d53b 455f 123d 7443 a2bc 0d18 3b3d
00000060: 0688 743c 554d 2dbc 7ac0 293c d009 ce3b
00000070: ca9e 53bc 8d7b 8f3d d4a3 ee3c 016d 80bb
00000080: 5fd2 71bc ee31 9b3c 31fa 00bc 8669 bdbc
00000090: 8b80 bf3c c021 90bd 0311 f9bc c863 983c
000000a0: 298d b7bc 6835 7c3d e0eb d13c 0330 03ba
000000b0: f40f abbc 079e 56bc 7197 03bd fbc0 0dbc
000000c0: 5375 dbbc 31cb 5b3d 9629 283d b28f e6bc
000000d0: d3f8 66bd d613 7dbd 0c63 0fbd 7c82 c53b
000000e0: e016 3e3d d5fa 593d 745f 14bd 812d a6bc
000000f0: 739e 27bd 301f aebc 47d7 b03c 93dd 0e3d
00000100: 0169 633d e07f 50bd f6e9 793d dca4 55bd
00000110: 284e dcbc 6fdf 673d 1689 08bd 6e70 26bd
00000120: b973 36bd 62fe b03a 9102 863d 2fa9 a03d
00000130: 35f8 92bc 0062 4d3c 441e 0f3c 55d0 633d
00000140: 83a1 493d b7e2 fc3c 086a 033d 5aa3 303d
00000150: a18d 1ebd dbfc 113c c73d 5a3d 3eca 7fb6
00000160: 7e7f 013d c6e6 6f3d 40fc e5bc 9d4c 66bd
00000170: 7457 3f3d 48e3 5f3d 5065 8ebd d88e f6bc
00000180: ac29 24bd 54ca 073d ce66 883c 1178 e93c
00000190: b44b cf3c 5b97 10bc 5397 963b f276 8cbd
000001a0: fb28 22bd 5e4e 8b3d 202e 873d 455f 033d
000001b0: d442 5a3d eae6 1c3d 4f34 b1bc bc22 aa3c
000001c0: 2217 2d3d 0e6a 433d d8db 61bd 9bbf 103c
000001d0: d887 f6bc 5f5f 323d 59d6 31bd f4f5 013d
000001e0: 1f31 36bd a4f4 1fbd c37e e7bc 7e97 ce3c
000001f0: 7e75 a33b f3cf df3c 755d 55bd 6c7f 78bd
00000200: 7e9d 42bd 08f6 7d3c 13f5 1bbd 0d43 613d
00000210: e896 d33c df21 303a ca91 7dbd db60 27bd
00000220: 2969 5dbd 718b 0dbb 28e9 4e3d de3a 63bd
00000230: 29c3 48bd acf3 6fbd 2f2b fa3c 1a64 7d3c
00000240: 7255 7dbd 8b6a 61bc 61dc 813b 9408 34bd
00000250: 10af f83b 1d3c 8ebd a27e 39bd d795 143d
00000260: d435 96bd 66f0 6c3c af54 2fbd 8489 51bd
00000270: 91a6 dfbc 1bcc 9d3b 6f64 11ba 7362 5a3c
00000280: c627 e53c 4266 323d 124f 9e3c c45b 76bd
00000290: b00f fa3c e515 cdbc 9052 9abc a4e2 8ebc
000002a0: 29e6 5a3c 475e 133d 77e5 843d 0fad e33c
000002b0: 9e92 bbbc 5179 093d 391e 96bd a0f6 28bd
000002c0: 8dc6 01bd 6735 853d cbd0 27bc e618 803d
000002d0: 43f1 903b 42c9 5d3d 0e56 1cbd a43c 543d
000002e0: bba6 debc 3276 88bd 3e12 f93b 5e39 53bd
000002f0: 89ed 623d 5bfc 10ba 2a2a 11bc e0c4 623d
00000300: 027f 99bb b5ff 5d3c a0d8 d33c a1a1 093c
00000310: d6cc 283c 4b2e 8b3d 777a 6cbd a4e8 113d
00000320: 65cb 67bd 3b0a 213d daa8 5ebc acc4 003d
00000330: 2b8a 9c3b b369 34bd edbf 85bd 8a04 96bc
00000340: 60b4 9a3d b570 66bd 2e62 fe3c fa28 edbc
00000350: 3ad5 953b 8a3b 783b b9d4 41bd 050a 8ebd
00000360: 0480 ddbc 149e 483b 41eb 28bc bf3b 11bd
00000370: fbda 913d 5285 673b 8290 29bd 16c6 b43c
00000380: 63af 393d 7c71 85bd 80e6 8bbb b7f4 e73c
00000390: 270f 46bd 4d57 83bd a4a2 443d 3c84 7c3c
000003a0: 6a64 f93c 8ba3 7e3d e8ca f7bc a419 dfbc
000003b0: 2ff5 38bd ccf2 323d aff2 4fbc d5c0 7a3c
000003c0: 10e1 a5bc b017 77bd a5a2 d1bc 7e68 06bd
000003d0: e720 483d ca24 45bc 1c58 95bc ed92 f0bc
000003e0: 4c5f 9ebc ed58 9b3c da70 11bc 3f9b 8ebd
000003f0: 61ee 66bd 9e22 603c 168c 14bc ecdc 3f3c

model.6.weight f4 [16, 256]
-0.03855586 0.054501396 -0.009197651 -0.071377285 0.0028157595 -0.025732128 0.0247228 0.046458278
-0.023907615 0.010670398 -0.03545516 -0.030034332 0.022983221 -0.0015699868 -0.04907918 0.04515619
-0.017539244 -0.04220923 -0.037952647 -0.014783299 0.020689419 0.017197499 -0.060953494 0.06466778
0.029021056 -0.035191186 0.048970006 -0.02795262 -0.0031326204 -0.051800307 -0.025782267 -0.057416935
0.0046303677 0.012735657 -0.055091888 -0.008175497 0.008210916 -0.03422353 -0.03172233 -0.04321391
-0.0014776931 -0.0197463 0.026559373 0.062341087 0.0065319473 0.0474372 -0.0041098567 0.051252477
-0.01033337 -0.03741367 0.031186206 -0.00045342758 -0.044627063 0.050721973 0.010478343 0.038240697
-0.018146774 0.004799718 0.008905077 0.05671052 -0.035899736 0.025296116 -0.017144315 -0.007849836
-0.04271673 -0.051810406 0.016244411 0.06905086 -0.009362467 -0.010165596 -0.007977967 0.033501584
-0.112726904 -0.045390397 0.023342807 -0.05516838 -0.048569955 -0.0107605895 0.050787214 0.060648926
0.04313319 0.063541 0.040072422 -0.028482856 0.06447718 -0.05779572 -0.0085789645 -0.058891945
0.016674647 0.03278406 0.03974111 -0.055039763 -0.011625033 -0.07345601 0.008040499 -0.09054185
-0.055904053 0.036960065 -0.028551461 -0.0002094796 0.037058044 0.003287662 -0.034978893 -0.036161892
-0.07322451 0.015237309 0.0143868 0.037664387 0.03290387 -0.041918658 0.036970053 -0.0016826752
0.01889979 0.057283763 0.041188248 0.025769964 -0.045806587 0.018208724 -0.044000678 -0.06254243
0.015018959 -0.116731696 -0.07464368 -0.018289229 -0.054795638 -0.061278597 0.05237523 -0.031053357
0.014340952 0.036755953 -0.03715977 -0.028054738 0.022140725 -0.047661602 0.022424407 0.06580703
0.013362668 0.034575853 0.01618285 -0.058117818 0.055590943 -0.05293971 0.01348346 0.08156858
-0.04527635 0.0021809507 -0.0720893 -0.013390438 -0.04113514 -0.061763052 -0.06565713 -0.02859625
0.019716596 0.03748864 -0.03291833 -0.030634776 0.009078129 -0.055794585 0.007441491 -0.058266878
0.0031552538 -0.034494888 -0.024620842 -0.0015660452 0.012102595 -0.014896911 0.026932066 0.018703712
-0.037177514 0.05094474 0.04739051 -0.03130884 0.05967613 -0.007087223 -0.012115269 0.02716421
0.0020409669 -0.0063291104 0.033836268 -0.054570917 -0.03753665 -0.09476741 -0.039637696 -0.051225048
-0.044418734 -0.0069925287 -0.01760933 0.010094906 0.061973535 -0.0018908612 -0.020178152 -0.029687235
0.06532042 -0.014914644 0.036080472 0.037649795 -0.047999904 -0.04914646 -0.0061326623 -0.045625236
0.01184304 -0.06100661 -0.055169348 -0.03876724 -0.06961262 -0.06225481 -0.028537748 -0.011137262
-0.039437484 0.02343058 0.006673569 0.032895077 -0.106348835 0.03243278 -0.02925529 0.022039898
-0.08988088 0.003998515 -0.036168512 0.034265887 0.031753957 -0.012704972 -0.046521235 0.03425165
0.011684724 -0.051940862 0.0028429434 0.030255595 0.032233663 -0.01951765 -0.034137283 0.038709942
0.05901147 0.0013009257 0.015499681 0.021578107 -0.040296607 -0.016108204 -0.027774615 -0.0021938016
-0.039071936 -0.0071166563 0.0028781318 0.018442232 0.032172866 0.061605375 0.02266242 -0.08666759
-0.02358056 0.0022704566 0.06399697 0.043388754 0.052110326 0.05899343 -0.014653446 -0.10210283
00000000: c0ec 1dbd db3c 5f3d bfb1 16bc 412e 92bd
00000010: 9b88 383b 2fcc d2bc 7887 ca3c 094b 3e3d
00000020: e7d9 c3bc e5d2 2e3c 6e39 11bd 8f0a f6bc
00000030: 4f47 bc3c 04c8 cdba 4007 49bd b2f5 383d
00000040: 76ae 8fbc 96e3 2cbd 3c74 1bbd a635 72bc
00000050: db7c a93c c5e1 8c3c 5faa 79bd 8b70 843d
00000060: 91bd ed3c a224 10bd c694 483d e5fc e4bc
00000070: a64c 4dbb 8f2c 54bd 5535 d3bc 052e 6bbd
00000080: 57ba 973b 38a9 503c 08a8 61bd 85f2 05bc
00000090: 1487 063c f92d 0cbd 46ef 01bd 1201 31bd
000000a0: 27af c1ba fec2 a1bc 0b93 d93c 5e59 7f3d
000000b0: f209 d63b 824d 423d faab 86bb 1eee 513d
000000c0: 4c4d 29bc 143f 19bd 377a ff3c 05ba edb9
000000d0: deca 36bd d8c1 4f3d 5bad 2b3c 47a2 1c3d
000000e0: 8ba8 94bc f446 9d3b 9ae6 113c 4a49 683d
000000f0: 9a0b 13bd cd39 cf3c 3c72 8cbc 999c 00bc
00000100: bdf7 2ebd 2637 54bd 0013 853c 8a6a 8d3d
00000110: 0865 19bc 9a8d 26bc 05b6 02bc f538 093d
00000120: 5ddd e6bd 48eb 39bd 6a39 bf3c 3df8 61bd
00000130: 4af1 46bd 2f4d 30bc 4106 503d 026b 783d
00000140: 6eac 303d c921 823d fb22 243d e154 e9bc
00000150: 9d0c 843d 34bb 6cbd c98e 0cbc ae38 71bd
00000160: 4599 883c 9448 063d 93c7 223d 6071 61bd
00000170: ec76 3ebc 1b70 96bd 4cbc 033c 016e b9bd
00000180: a6fb 64bd 7063 173d c1e4 e9bc c0a7 5bb9
00000190: 2dca 173d d175 573b 0746 0fbd 7e1e 14bd
000001a0: bbf6 95bd e8a5 793c 9db6 6b3c f945 1a3d
000001b0: 35c6 063d e6b2 2bbd e96d 173d 368d dcba
000001c0: bbd3 9a3c 61a2 6a3d 02b5 283d 881b d33c
000001d0: b09f 3bbd 762a 953c 0e3a 34bd 3f16 80bd
000001e0: 1412 763c 0711 efbd c9de 98bd 4bd3 95bc
000001f0: 6471 60bd 44ff 7abd 6987 563d 9c63 febc
00000200: 50f6 6a3c 698d 163d d834 18bd 0dd3 e5bc
00000210: 7760 b53c d038 43bd 64b3 b73c d6c5 863d
00000220: 18ef 5a3c 699f 0d3d e591 843c f30c 6ebd
00000230: 54b3 633d 4fd7 58bd bbe9 5c3c 6d0d a73d
00000240: b273 39bd 48ee 0e3b 8ea3 93bd 9163 5bbc
00000250: 527d 28bd 41fb 7cbd 3f77 86bd af42 eabc
00000260: b384 a13c b08d 193d 5fd5 06bd c8f5 fabc
00000270: 6fbc 143c dd88 64bd c0d7 f33b 40a9 6ebd
00000280: 60c8 4e3b 834a 0dbd a6b1 c9bc c243 cdba
00000290: f649 463c 2c12 74bc a3a0 dc3c 8738 993c
000002a0: 7347 18bd 6fab 503d 8d1c 423d b33d 00bd
000002b0: f56e 743d f03b e8bb 1f7f 46bc 7a87 de3c
000002c0: bec1 053b 6d64 cfbb e697 0a3d c185 5fbd
000002d0: 08c0 19bd 6a15 c2bd 235b 22bd 5bd1 51bd
000002e0: 6bf0 35bd 9521 e5bb 7141 90bc 1b65 253c
000002f0: f6d7 7d3d c6d6 f7ba a74c a5bc a532 f3bc
00000300: b6c6 853d 8d5c 74bc 1ec9 133d ac36 1a3d
00000310: 8c9b 44bd cc4d 49bd 80f4 c8bb 87e1 3abd
00000320: 4f09 423c 11e2 79bd 41f9 61bd 66ca 1ebd
00000330: 1091 8ebd e6fe 7ebd ffc7 e9bc 1079 36bc
00000340: 3389 21bd 7df1 bf3c f4ad da3b fdbc 063d
00000350: 6bcd d9bd 3cd8 043d caa8 efbc 048d b43c
00000360: 7813 b8bd fa05 833b 6f25 14bd 635a 0c3d
00000370: 7010 023d 8428 50bc 0d8d 3ebd 754b 0c3d
00000380: 4971 3f3c f1bf 54bd ad50 3a3b 95da f73c
00000390: 7207 043d 7be3 9fbc 89d3 0bbd 518e 1e3d
000003a0: 03b6 713d d383 aa3a 60f2 7d3c 92c4 b03c
000003b0: 0e0e 25bd 5af5 83bc 9787 e3bc e2c5 0fbb
000003c0: e509 20bd d732 e9bb 0a9f 3c3b 2a14 973c
000003d0: b2c7 033d eb55 7c3d 8aa6 b93c c77e b1bd
000003e0: 052c c1bc f1cb 143b d810 833d 68b8 313d
000003f0: a371 553d 18a3 713d 0215 70bc 4a1b d1bd

model.6.bias f4 [16]
0.0058877035 -0.032496616 -0.0547544 0.04827456 0.042154886 0.020653328 0.0677973 0.033989623
0.056776833 -0.0038824815 0.056370266 0.010290065 -0.05651542 0.03032705 -0.0018047276 0.0012210883
00000000: a3ed c03b 2c1b 05bd 2646 60bd 8cbb 453d
00000010: 9aaa 2c3d 2b31 a93c 50d9 8a3d b438 0b3d
00000020: d38e 683d 3b71 7ebb 82e4 663d a997 283c
00000030: b77c 67bd 6f70 f83c 9c8c ecba ed0c a03a
