data/checkpoints/rlgym-ppo-run-1760737740221222700/541424930/PPO_POLICY.pt (torch, 638775 bytes, 8 tensors)

model.0.weight f4 [256, 89]
-0.32974 0.28935722 -0.3651848 0.09679849 -0.16297558 -0.22757399 0.024250196 -0.0064675603
0.03485964 0.03939808 0.027877213 -0.024542885 -0.030237455 -0.03832943 -0.124512576 0.01687714
0.0026100348 0.059580907 -0.040173505 0.021718316 0.06270171 0.0069148885 0.015016252 0.0898823
-0.061726313 0.020066943 -0.061484687 0.07737603 0.08295864 -0.10773728 0.10480165 0.030044977
0.030515112 0.018312477 0.06712875 -0.029791879 -0.10472278 -0.007557729 -0.09149692 0.009212187
-0.02288506 -0.06601607 -0.01949353 0.07276141 -0.02068524 -0.011011786 -0.0251425 4.8717517e-05
0.08447805 0.047217675 0.01732648 0.28057167 0.017844932 0.195224 -0.052656367 -0.14660057
-0.3061024 -0.033784304 0.09352848 -0.086814225 -0.14296158 0.06673075 0.348233 -0.48204
-0.19626391 -0.1083545 -0.24444012 -0.0630556 -0.011693713 0.15471469 0.24054125 0.12864178
-0.1179184 -0.028273424 0.021150691 0.010972603 0.024196103 0.012757482 -0.0038660613 -0.08405709
0.05824363 -0.23649636 -0.018856118 0.021867782 -0.023765445 -0.06513084 -0.03253346 0.089985296
0.056476504 0.11436978 -0.15022467 0.1323619 0.035639327 -0.31180993 -0.24683857 0.015308946
0.22155471 0.27122802 0.056462143 -0.051687296 0.024726564 -0.038233 0.023317613 -0.039400335
-0.027359786 -0.022663215 -0.0035652274 0.081023455 0.04018096 -0.011561749 0.059479572 -0.07146067
0.037772067 -0.023461238 -0.030644372 -0.0033683733 -0.06597737 -0.017024687 0.019989992 0.054393582
-0.045052063 0.03047613 0.09349935 -0.057789452 0.08472335 -0.07305514 0.034728333 0.032600556
-0.011633474 0.091891035 -0.059392206 0.012439061 -0.02279153 -0.09674666 -0.038310207 -0.09802841
0.02718824 -0.006464148 -0.0037838356 -0.051831298 -0.30713612 0.0054923445 0.091637254 0.25372896
0.035326682 0.1486886 -0.08151524 -0.056622945 -0.028280297 0.197828 -0.19303063 0.16211581
0.21690488 0.11401825 0.22907032 0.4705788 -0.020264728 0.06466856 -0.103275605 0.3589182
0.2526638 0.15460867 -0.0048308545 0.056873225 0.09092922 0.043316815 -0.053104565 0.08469525
0.10054572 0.14975223 0.08223327 -0.055310633 0.01756311 -0.0027198337 -0.053181034 -0.09130602
-0.048370723 -0.02124886 0.02817421 0.3038687 0.0009152909 0.08239937 0.019233951 -0.16629316
-0.17230052 0.015098517 -0.017660461 0.04837227 0.10996699 -0.04647921 -0.06021926 -0.03422123
-0.26936454 0.04049582 -0.04466131 -0.050024178 0.03920926 -0.063708484 0.096331365 0.030278621
-0.027327353 0.012450415 0.019825349 -0.032487363 -0.076909654 -0.0025202811 0.035036657 0.009297878
-0.023908485 0.06992667 -0.024337633 -0.0120489905 0.045719605 -0.061365146 0.037259143 -0.02214856
0.053153317 -0.03492159 0.0066106664 0.014342241 -0.07810547 -0.07999555 0.04931919 -0.021935174
0.06801188 -0.104338974 -0.045819864 -0.08048889 0.03959363 -0.049526893 -0.12003101 -0.047848064
-0.17859173 0.031455286 0.22670051 0.037569962 -0.20760387 0.049560282 0.08717714 0.12044845
-0.57688755 0.06108594 -0.456482 0.14754824 0.25303468 0.17226787 -0.06667408 -0.008261971
0.00286303 0.057233766 0.042839114 -0.106329374 0.092491195 0.023081474 -0.06122223 0.016641999
00000000: aed3 a8be a126 943e 81f9 babe 493e c63d
00000010: 12e3 26be 2809 69be 59a8 c63c d4ed d3bb
00000020: fbc8 0e3d e25f 213d c15e e43c 290e c9bc
00000030: 8ab4 f7bc 52ff 1cbd 7300 ffbd ee41 8a3c
00000040: 1e0d 2b3b 1c0b 743d f98c 24bd 9cea b13c
00000050: c169 803d 4a96 e23b ba06 763c 3614 b83d
00000060: bbd4 7cbd 6e63 a43c 5ed7 7bbd 5377 9e3d
00000070: 38e6 a93d 5da5 dcbd 3fa2 d63d e220 f63c
00000080: d4fa f93c 0c04 963c cc7a 893d 190e f4bc
00000090: e678 d6bd d3a6 f7bb bd62 bbbd b6ee 163c
000000a0: 7379 bbbc 6f33 87bd e5b0 9fbc ef03 953d
000000b0: 1874 a9bc c76a 34bc a5f7 cdbc 0956 4c38
000000c0: d402 ad3d 5267 413d 43f0 8d3c 17a7 8f3e
000000d0: 892f 923c cde8 473e 34ae 57bd 761e 16be
000000e0: 74b9 9cbe 6961 0abd dc8b bf3d a8cb b1bd
000000f0: 8564 12be 22aa 883d 994b b23e f2cd f6be
00000100: 68f9 48be f7e8 ddbd 834e 7abe 4b23 81bd
00000110: fd96 3fbc 876d 1e3e 7250 763e acba 033e
00000120: 347f f1bd ab9d e7bc 3744 ad3c 6fc6 333c
00000130: e836 c63c c204 513c bf5d 7dbb 2026 acbd
00000140: df90 6e3d 1a2c 72be 2578 9abc 1024 b33c
00000150: c0af c2bc 5163 85bd ce41 05bd 364a b83d
00000160: e853 673d b43a ea3d 7fd4 19be e189 073e
00000170: 8bfa 113d 8da5 9fbe 40c3 7cbe 60d2 7a3c
00000180: 3ddf 623e 66de 8a3e d944 673d 0fb6 53bd
00000190: 5d8f ca3c 359a 1cbd 9404 bf3c 3f62 21bd
000001a0: a121 e0bc 35a8 b9bc 97a6 69bb a0ef a53d
000001b0: ca94 243d 7d6d 3dbc daa0 733d f959 92bd
000001c0: e2b6 1a3d c831 c0bc e809 fbbc edbf 5cbb
000001d0: 251f 87bd 5b77 8bbc 0dc2 a33c cecb 5e3d
000001e0: 8388 38bd 14a9 f93c 967c bf3d a2b4 6cbd
000001f0: 7083 ad3d ef9d 95bd 4c3f 0e3d 2988 053d
00000200: 549a 3ebc 5e31 bc3d 3e45 73bd 34cd 4b3c
00000210: 4db5 babc 1d23 c6bd 2aeb 1cbd 1ec3 c8bd
00000220: dfb9 de3c 34d1 d3bb 3afa 77bb 0e4d 54bd
00000230: f240 9dbe 20f9 b33b 50ac bb3d c3e8 813e
00000240: b6b2 103d d341 183e 76f1 a6bd 76ed 67bd
00000250: 15ac e7bc 6c93 4a3e d2a9 45be b001 263e
00000260: 501c 5e3e 6682 e93d 6991 6a3e b4ef f03e
00000270: 3702 a6bc f370 843d 2982 d3bd 20c4 b73e
00000280: 265d 813e bc51 1e3e 254c 9ebb e6f3 683d
00000290: 1939 ba3d f96c 313d 2c84 59bd b474 ad3d
000002a0: eaea cd3d a658 193e eb69 a83d 678d 62bd
000002b0: 83e0 8f3c 3d3f 32bb 5bd4 59bd a7fe babd
000002c0: 6120 46bd 1712 aebc 9acd e63c ae94 9b3e
000002d0: 22f0 6f3a 00c1 a83d 8590 9d3c c148 2abe
000002e0: 8c6f 30be c55f 773c acac 90bc 0022 463d
000002f0: 6036 e13d fc60 3ebd 79a8 76bd 8f2b 0cbd
00000300: 26ea 89be f2de 253d c7ee 36bd 27e6 4cbd
00000310: e499 203d 9879 82bd 6149 c53d df0a f83c
00000320: 9ddd dfbc d3fc 4b3c c568 a23c 7811 05bd
00000330: cf82 9dbd 4d2b 25bb 9982 0f3d 2056 183c
00000340: badb c3bc b735 8f3d b75f c7bc 2169 45bc
00000350: 7b44 3b3d 055a 7bbd 0b9d 183d e670 b5bc
00000360: 4bb7 593d f109 0fbd 4a9e d83b b8fb 6a3c
00000370: c3f5 9fbd b5d4 a3bd eb02 4a3d 65b1 b3bc
00000380: d049 8b3d acaf d5bd 9cad 3bbd 5cd7 a4bd
00000390: ee2c 223d b6dc 4abd d1d2 f5bd 55fc 43bd
000003a0: c0e0 36be 42d7 003d 2e24 683e f6e2 193d
000003b0: 1c96 54be b9ff 4a3d ee89 b23d adad f63d
000003c0: e7ae 13bf 4035 7a3d 02b8 e9be e316 173e
000003d0: c38d 813e fd66 303e 6c8c 88bd 385d 07bc
000003e0: aca1 3b3b f46d 6a3d 1178 2f3d 37c3 d9bd
000003f0: 066c bd3d 5c15 bd3c 29c4 7abd cd54 883c

model.0.bias f4 [256]
-0.04693181 0.015973087 -0.03770428 -0.017456468 -0.06849422 -0.043433905 0.07543533 -0.089643456
0.030941889 0.002004873 0.04584926 0.023566434 0.034916643 0.0141343055 0.107263595 0.05585158
0.0530844 0.037377685 0.05460189 0.10212221 0.029285498 0.0044754995 -0.033076182 0.0033900638
0.04976581 -0.11490805 -0.0963466 0.09717295 0.0810767 0.09417724 -0.093319654 0.08940728
-0.06987238 -0.019779626 -0.07351293 0.023297494 -0.06632789 0.01888687 0.08759273 0.008382173
0.039239984 0.0114754625 0.027914524 -0.038358174 0.0798135 0.059562176 0.025023684 -0.037863526
0.023303173 0.008924065 0.072933964 -0.009087854 -0.054575533 -0.086443864 -0.014810461 -0.04845476
-0.09488272 -0.080228604 0.013798085 -0.0020791332 -0.029224617 -0.11694828 0.004729569 0.07781378
-0.050469086 0.09076066 -0.03683413 0.06205784 -0.020135313 -0.10932107 -0.06612454 0.011759311
0.052778255 -0.123838276 0.07455249 0.018867282 0.028914459 0.006730941 -0.061826516 0.0904432
-0.010430207 -0.12279962 -0.004747995 -0.069468096 -0.06230042 -0.08340395 0.014438084 -0.10126944
-0.053179685 -0.022647947 -0.07341339 -0.093842775 -0.06826472 -0.04805784 -0.102507696 -0.09419231
-0.08735876 0.066582516 -0.08411258 0.021339798 -0.011930342 -0.07997639 -0.01571992 0.002016394
0.100340396 -0.0301552 0.08871926 0.04606465 0.06671099 0.022411337 -0.056479737 -0.0028802187
-0.031567127 0.045065865 0.05854654 0.05214184 -0.06731402 0.0032396584 0.060493965 0.024385782
-0.028327655 0.070571445 -0.09171392 -0.091349594 -0.08047877 0.010750652 -0.02245068 0.05399591
0.0041865637 0.012481483 0.011429946 0.05359805 0.047180712 0.057788543 0.0019759175 0.059285372
0.08695027 0.010088745 0.011315074 -0.05185876 0.12058028 0.013946285 -0.106033824 -0.043592867
-0.04029099 -0.015607139 -0.066408046 -0.045356255 -0.09446899 -0.014711764 -0.1046548 0.0045219925
0.0034273732 -0.080297634 0.030574482 0.05465037 -0.036830973 -0.08521194 0.10217952 -0.050707053
0.023431616 -0.08232754 -0.081637025 -0.009410114 -0.03582291 -0.05261584 -0.094528295 0.045148443
-0.11625285 -0.045114473 -0.08308486 -0.09476592 0.03697229 -0.058045506 0.0471884 -0.08879139
-0.06789096 0.04014086 0.016565798 0.08348928 0.049225017 -0.0767533 -0.018972035 0.024996143
-0.010572715 0.08460798 0.062354457 0.050748613 -0.09109104 -0.048609376 -0.111331016 -0.054905605
0.032586038 -0.05162256 0.12122285 -0.0021729758 -0.0020017328 -0.037628405 -0.07668217 0.018624179
0.093200915 0.08180692 0.0210821 0.030877082 -0.045310643 0.0041899104 0.08205837 -0.042736325
0.053023238 0.06901527 0.028425483 -0.10122451 0.05766516 -0.104234636 0.037794676 0.05491898
-0.08053069 -0.08720254 -0.08290304 0.08535581 -0.06181406 -0.06616849 -0.008058398 0.019070165
-0.043579694 -0.07849927 -0.08814133 0.026400426 -0.049667846 -0.100402944 -0.076498665 -0.012569263
-0.048190165 -0.0042732125 0.0060007153 0.09322529 0.094159685 0.03102115 -0.06128116 0.018974252
-0.06380849 0.06670314 0.015143693 -0.019707892 0.09315548 -0.01390079 -0.04841692 0.0090427315
0.106460445 -0.085227266 -0.044051528 -0.046562422 0.053174764 0.102923185 0.08123829 0.08059211
00000000: 923b 40bd fed9 823c ce6f 1abd de00 8fbc
00000010: b346 8cbd c0e7 31bd d77d 9a3d fd96 b7bd
00000020: d879 fd3c 3064 033b 6fcc 3b3d 650e c13c
00000030: c104 0f3d 9393 673c 04ad db3d a0c4 643d
00000040: 076f 593d 5819 193d 3ba6 5f3d 7325 d13d
00000050: 24e8 ef3c 36a7 923b e47a 07bd d52b 5e3b
00000060: 3cd7 4b3d e954 ebbd 5e51 c5bd 9d02 c73d
00000070: 8a0b a63d ffdf c03d 601e bfbd 2a1b b73d
00000080: 4019 8fbd e208 a2bc f28d 96bd 63da be3c
00000090: ebd6 87bd a3b8 9a3c d163 b33d 6255 093c
000000a0: 1bba 203d 9403 3c3c 00ad e43c 761d 1dbd
000000b0: 4375 a33d 78f7 733d 78fe cc3c c916 1bbd
000000c0: 4ce6 be3c 3e36 123c 675e 953d 39e5 14bc
000000d0: 988a 5fbd 7b09 b1bd 93a7 72bc 8078 46bd
000000e0: df51 c2bd e54e a4bd 5d11 623c 1142 08bb
000000f0: 7768 efbc 9482 efbd 80fa 9a3b d55c 9f3d
00000100: acb8 4ebd bae0 b93d 62df 16bd 5d30 7e3d
00000110: d0f2 a4bc bae3 dfbd 4e6c 87bd 20aa 403c
00000120: 032e 583d ec9e fdbd faae 983d 8f8f 9a3c
00000130: 04de ec3c 3a8f dc3b cd3d 7dbd 493a b93d
00000140: 75e3 2abc 5e7e fbbd 1295 9bbb 4a45 8ebd
00000150: ba2e 7fbd b1cf aabd b78d 6c3c 5a66 cfbd
00000160: f1d2 59bd 3088 b9bc c259 96bd a430 c0bd
00000170: 60ce 8bbd 4cd8 44bd 8eef d1bd e6e7 c0bd
00000180: 26e9 b2bd 6a5c 883d 3743 acbd cdd0 ae3c
00000190: 7b77 43bc a9ca a3bd 10c7 80bc 7a25 043b
000001a0: 447f cd3d 0a08 f7bc 72b2 b53d 49ae 3c3d
000001b0: c69f 883d fb97 b73c 4c57 67bd 0dc2 3cbb
000001c0: 884c 01bd fc96 383d 7fce 6f3d af92 553d
000001d0: efdb 89bd 7350 543b 85c8 773d b1c4 c73c
000001e0: 660f e8bc c387 903d 82d4 bbbd 7f15 bbbd
000001f0: 0ed2 a4bd 8123 303c 7dea b7bc d12a 5d3d
00000200: 712f 893b 227f 4c3c ab44 3b3c a189 5b3d
00000210: 9040 413d aeb3 6c3d 657e 013b 38d5 723d
00000220: fc12 b23d 434b 253c dc62 393c da69 54bd
00000230: cbf2 f63d f57e 643c 4328 d9bd 6f8e 32bd
00000240: 2a08 25bd 16b5 7fbc f100 88bd 7bc7 39bd
00000250: f578 c1bd 9c09 71bc 4155 d6bd 392d 943b
00000260: c89d 603b 1673 a4bd 5677 fa3c 11d9 5f3d
00000270: 13dc 16bd 9983 aebd 7f43 d13d 33b2 4fbd
00000280: a9f3 bf3c 579b a8bd 5031 a7bd e12c 1abc
00000290: 0bbb 12bd b583 57bd 0d98 c1bd 93ed 383d
000002a0: f915 eebd f4c9 38bd 6528 aabd a214 c2bd
000002b0: 4270 173d 20c1 6dbd a048 413d 43d8 b5bd
000002c0: 6a0a 8bbd be6a 243d ffb4 873c 6dfc aa3d
000002d0: 2ca0 493d d630 9dbd 3e6b 9bbc b6c4 cc3c
000002e0: 2e39 2dbc f346 ad3d 6367 7f3d c7dd 4f3d
000002f0: f08d babd a01a 47bd 8401 e4bd b3e4 60bd
00000300: f078 053d 2d72 53bd b043 f83d 7c68 0ebb
00000310: 812f 03bb 3e20 1abd 8b0b 9dbd bc91 983c
00000320: 1fe0 be3d 638a a73d 5eb4 ac3c eff1 fc3c
00000330: a797 39bd 844b 893b 380e a83d 490c 2fbd
00000340: e52e 593d e157 8d3d 8fdc e83c cc4e cfbd
00000350: 4e32 6c3d f878 d5bd 97ce 1a3d b9f2 603d
00000360: 46ed a4bd 3f97 b2bd 12c9 a9bd 07cf ae3d
00000370: bd30 7dbd 5883 87bd 5f07 04bc 0939 9c3c
00000380: 9f80 32bd 3ac4 a0bd 7183 b4bd b545 d83c
00000390: 8370 4bbd 0fa0 cdbd 55ab 9cbd 4fef 4dbc
000003a0: 0d63 45bd 4e06 8cbb a6a1 c43b e7ec be3d
000003b0: cbd6 c03d 1120 fe3c f401 7bbd e46f 9b3c
000003c0: 07ae 82bd a89b 883d 411d 783c 7272 a1bc
000003d0: 4dc8 be3d 24c0 63bc d250 46bd f727 143c
000003e0: ef07 da3d a28b aebd 606f 34bd 3db8 3ebd
000003f0: c8cd 593d 64c9 d23d 4360 a63d 7a0d a53d

model.2.weight f4 [256, 256]
-0.1181779 0.05374856 -0.011897921 -0.060225807 -0.1528667 0.052238714 8.506226e-05 -0.03245282
0.07226804 0.057408992 -0.03424252 -0.050428312 -0.04682698 -0.1286754 -0.0037208437 -0.009713748
0.033779144 0.015164046 0.06550165 -0.055412237 -0.025279783 -0.114639655 -0.03681488 -0.13982667
-0.032582887 0.017790435 0.034627106 -0.0020818403 0.011434672 0.08777054 0.040633645 0.10395488
0.005153866 -0.030383553 -0.09212289 0.12049214 0.07625343 -0.077391066 0.032727547 -0.017050922
-0.050361596 -0.032941233 0.060512487 -0.015505119 -0.011644239 -0.092384055 0.006010814 -0.07900533
0.019140506 -0.04925793 0.03647788 -0.018950397 0.010784658 -0.05581807 0.0025108196 0.06041897
-0.020298753 0.02398581 -0.041490685 0.07936661 -0.05301663 0.058420278 0.016961627 0.04972923
-0.16878712 0.04306339 0.141464 -0.0026274088 0.040053993 0.022767736 -0.13990943 -0.043124415
-0.013199974 0.025254678 -0.11270812 0.0199232 0.03308411 -0.18137597 0.10794908 -0.035079636
0.052586593 -0.053036913 0.0066516255 -0.035049807 0.055074356 0.04238916 -0.027269335 0.003131028
0.0045682103 0.078806624 0.04928067 0.046158824 -0.11928558 -0.028543577 0.074960925 0.10501459
0.06357758 -0.20381334 -0.015888775 -0.02785265 0.01868815 -0.114824094 -0.09817187 0.005472918
-0.022751372 -0.11770003 -0.020613475 -0.020820905 0.17549096 0.04031628 0.10199818 -0.076227136
0.006404462 0.06181224 -0.042835698 -0.027163794 0.061867915 0.1982412 0.15811503 0.02621118
-0.022827368 -0.04776001 0.07354925 -0.033147596 -0.03654915 0.08704031 -0.06738512 0.030577827
0.03293365 0.059253182 -0.0462827 0.047497645 0.020701518 0.11130962 0.1289305 0.016823301
-0.08923038 -0.050050598 -0.092108935 -0.04155723 -0.09766037 -0.07446731 0.07559566 -0.017740255
0.00412282 -0.031340137 0.08578531 -0.029675681 0.015479082 -0.057023358 0.042399056 -0.066718355
-0.00620441 -0.043090865 -0.03720019 0.08681183 -0.003731146 0.09155741 0.084532894 -0.04874693
-0.06793824 -0.21427323 0.019076787 0.05343286 -0.16555002 -0.053217262 -0.24825244 -0.049700327
0.011167779 -0.2309987 -0.04929382 0.070049725 0.09265091 0.051355116 0.10979614 -0.05060751
0.068761826 -0.014563003 -0.008834459 0.030395495 -0.035509426 -0.110028096 -0.10239561 -0.17253813
0.018749464 -0.14721796 0.056724433 -0.026276084 0.18461038 0.050156064 0.033582676 -0.2096234
-0.1318016 -0.123582646 -0.25301176 -0.14534815 -0.124357104 -0.00073288794 -0.060478978 0.12387476
0.007403977 0.074055664 -0.031374816 0.01750714 0.063371755 0.025267825 0.09008961 -0.0037218286
0.06514268 -0.017154174 -0.054526255 0.038035966 0.102371156 -0.016011696 -0.14928553 -0.0021479502
-0.20397699 -0.08786178 -0.017779347 0.035473764 0.06068665 -0.014706329 0.06874318 -0.11823778
-0.017439162 0.0027564098 0.014897514 -0.022386799 -0.09150718 -0.024790805 0.056876924 0.074751124
-0.34860128 0.018440463 -0.06354252 0.051471915 0.027058203 -0.01118896 -0.16259317 0.00974757
0.017490404 0.061365478 -0.05258019 0.09156781 0.00562138 0.059975848 -0.099416286 -0.16616523
0.088675156 0.015229544 0.02157023 -0.0032270444 -0.0831103 -0.011087805 0.030412577 -0.056402836
00000000: 4107 f2bd 7327 5c3d 7fef 42bc 56af 76bd
00000010: 1789 1cbe 43f8 553d 7463 b238 40ed 04bd
00000020: 4401 943d b125 6b3d e241 0cbd eb8d 4ebd
00000030: a6cd 3fbd 7cc3 03be 66d9 73bb 6926 1fbc
00000040: 005c 0a3d 9e72 783c bb25 863d f1f7 62bd
00000050: 8c17 cfbc 32c8 eabd 33cb 16bd b92e 0fbe
00000060: a275 05bd 3fbd 913c 27d5 0d3d 7c6f 08bb
00000070: 7e58 3b3c 0ac1 b33d 776f 263d 4ce6 d43d
00000080: c3e1 a83b eee6 f8bc edaa bcbd 95c4 f63d
00000090: c22a 9c3d 357f 9ebd 520d 063d 60ae 8bbc
000000a0: f647 4ebd 63ed 06bd f1db 773d 2f09 7ebc
000000b0: 7ac7 3ebc da33 bdbd 5df6 c43b 8ccd a1bd
000000c0: 8dcc 9c3c afc2 49bd d469 153d dd3d 9bbc
000000d0: 22b2 303c 7da1 64bd 908c 243b e279 773d
000000e0: 9249 a6bc e47d c43c 23f2 29bd f68a a23d
000000f0: f727 59bd 1a4a 6f3d 1cf3 8a3c e1b0 4b3d
00000100: 88d6 2cbe 3d63 303d f0db 103e 9b30 2cbb
00000110: a80f 243d 6783 ba3c 6b44 0fbe 3aa3 30bd
00000120: b444 58bc e6e2 ce3c 84d3 e6bd fb35 a33c
00000130: 3483 073d 9fba 39be 6814 dd3d aaaf 0fbd
00000140: 0a65 573d 3c3d 59bd e1f5 d93b 6390 0fbd
00000150: a695 613d 41a0 2d3d f163 dfbc ef31 4d3b
00000160: edb0 953b 5e65 a13d 87da 493d 0911 3d3d
00000170: 004c f4bd 38d4 e9bc 1d85 993d e411 d73d
00000180: f634 823d 72b4 50be 2d29 82bc 3e2b e4bc
00000190: e417 993c e528 ebbd 550e c9bd 2a56 b33b
000001a0: 1661 babc b70c f1bd 97dd a8bc 9a90 aabc
000001b0: e7b3 333e af22 253d 6ce4 d03d f91c 9cbd
000001c0: 85dc d13b d52e 7d3d 7c74 2fbd 9b86 debc
000001d0: 3669 7d3d beff 4a3e e8e8 213e d4b8 d63c
000001e0: 7600 bbbc 00a0 43bd fda0 963d c6c5 07bd
000001f0: 90b4 15bd 3142 b23d 3601 8abd 5a7e fa3c
00000200: 6fe5 063d 77b3 723d ee92 3dbd e48c 423d
00000210: 3b96 a93c 4cf6 e33d 5b06 043e 05d1 893c
00000220: 6bbe b6bd db01 4dbd 9ca3 bcbd ea37 2abd
00000230: 2902 c8bd 5182 98bd e6d1 9a3d 0354 91bc
00000240: b918 873b 845e 00bd 35b0 af3d 6a1a f3bc
00000250: fa9b 7d3c 5391 69bd a2aa 2d3d a2a3 88bd
00000260: 5d4e cbbb 0c80 30bd 3a5f 18bd 67ca b13d
00000270: 3e86 74bb 7482 bb3d 951f ad3d dcaa 47bd
00000280: 3423 8bbd 716a 5bbe ec46 9c3c 6adc 5a3d
00000290: f285 29be 58fa 59bd e335 7ebe 9292 4bbd
000002a0: 0ff9 363c ec8a 6cbe 51e8 49bd 3b76 8f3d
000002b0: c3bf bd3d be59 523d ccdc e03d d249 4fbd
000002c0: 00d3 8c3d a999 6ebc 68be 10bc f9ff f83c
000002d0: 5572 11bd 6956 e1bd cab4 d1bd d6ad 30be
000002e0: 7a98 993c 4ec0 16be e157 683d f140 d7bc
000002f0: 810a 3d3e 7270 4d3d fd8d 093d 84a7 56be
00000300: 00f7 06be e618 fdbd c28a 81be 25d6 14be
00000310: f0ae febd 471f 40ba ceb8 77bd 0db2 fd3d
00000320: 109d f23b 7faa 973d e182 00bd 226b 8f3c
00000330: 0dc9 813d 78fe ce3c e780 b83d ece9 73bb
00000340: 8769 853d e986 8cbc ec56 5fbd 9acb 1b3d
00000350: f8a7 d13d f62a 83bc 4ede 18be a0c4 0cbb
00000360: 58df 50be e0f0 b3bd fea5 91bc f04c 113d
00000370: 9192 783d d1f2 70bc 39c9 8c3d a626 f2bd
00000380: 93dc 8ebc e2a4 343b b414 743c 8564 b7bc
00000390: 1e68 bbbd 1616 cbbc c7f7 683d 1e17 993d
000003a0: de7b b2be 7410 973c 9522 82bd 37d4 523d
000003b0: 2aa9 dd3c e651 37bc d37e 26be 46b4 1f3c
000003c0: 0948 8f3c 5e5a 7b3d 535e 57bd e787 bb3d
000003d0: 8e33 b83b 3ca9 753d c49a cbbd 3827 2abe
000003e0: 529b b53d 5685 793c 0db4 b03c d27c 53bb
000003f0: bc35 aabd a0a9 35bc cc23 f93c a906 67bd

model.2.bias f4 [256]
0.03526308 0.04013226 -0.08673686 -0.023711136 -0.056880288 0.029602192 0.055972304 -0.050068803
0.055396497 -0.0411881 0.02052984 -0.046432707 0.032779027 -0.029017217 0.055399075 0.023995819
-0.04223604 -0.034594618 0.023418363 -0.0020569111 0.019862829 -0.056289457 0.033802703 0.005387389
0.016510794 -0.04220294 0.04354518 0.041493293 -0.0015477935 -0.032878686 -0.010488607 -0.0014809475
0.018814385 -0.042937655 -0.03089467 0.045300514 -0.00092750054 0.016934894 -0.038670275 0.044089902
-0.064991444 0.02386969 0.0051664794 -0.0028644023 -0.032117553 0.058480863 -0.024051523 0.020997196
-0.025103055 0.067869894 0.027893897 0.05101261 -0.037619423 0.039222118 0.06594898 -0.02610855
0.032048248 -0.0030833487 0.035453614 -0.0007791085 0.040604122 0.0017762196 -0.034816813 -0.0046519246
0.019571565 0.021474142 -0.008887829 0.034728397 0.000458406 0.06115893 0.054067638 0.003983642
-0.038669445 -0.062300153 0.028852724 -0.019729882 -0.004498847 0.051277105 0.0018493553 -0.042265102
-0.067224495 -0.06672707 0.047292933 0.023255823 -0.025459459 -0.01807579 -0.05647933 -0.02190004
0.049594246 0.035047095 -0.00817721 -0.044632215 0.008121559 -0.036335543 0.01965848 0.015671894
0.037589632 0.03774985 0.014556661 0.0034438143 -0.032157082 0.023714487 -0.036459662 -0.08049415
0.026058273 -0.061830275 -0.027095553 -0.040460695 -0.011360622 0.0077081188 0.012922078 -0.04703402
0.035588782 0.00010841876 0.058052197 0.015228724 -0.011593419 -0.03319455 -0.013785499 -0.038764004
0.04561237 -0.05335923 0.05340343 0.044676267 -0.0003827227 -0.00013328738 0.015501609 0.027127028
-0.013502817 -0.055589803 -0.0049180184 0.001784644 0.040002886 -0.053521257 -0.015188903 -0.023833154
0.05568907 -0.026024228 -0.02197165 0.040207576 0.0043913694 0.0625931 -0.027717812 -0.036291014
0.0027123757 0.0020671852 0.038584925 -0.023519328 -0.059682813 -0.021281525 -0.0142021645 -0.059900846
-0.0821121 -0.008303872 -0.035494745 0.06251781 0.034567114 0.044939365 -0.030156031 -0.06794083
-0.052924674 -0.024242954 0.03157484 0.009376453 -0.03527501 -0.0030116409 -0.0127853565 0.05711473
0.04197944 -0.011787715 -0.043994438 0.041567445 0.03171663 -0.055800818 0.03346002 -0.01532766
-0.045115765 0.04111064 0.03738605 0.0041842205 -0.015505907 0.023157854 -0.040403526 0.05782342
-0.028252417 -0.024714304 0.022330163 -0.068927616 0.032234322 0.011143184 -0.031900678 0.01994717
-0.030584825 -0.00032925454 -0.08381219 -0.042925857 0.015357702 0.0037092033 0.050526798 -0.018223738
0.06512627 0.04359805 0.046049222 -0.027572757 0.046804428 0.023434129 -0.015537597 -0.004682557
-0.06068033 -0.03351865 -0.0021339718 -0.05342304 -0.05728664 -0.035164464 0.043381415 0.0013636488
0.03272682 -0.010632457 -0.025517503 -0.010088958 -0.051913828 0.022265146 0.03252069 -0.00831645
-0.034853812 -0.08113946 0.08985832 -0.06617032 0.025924893 -0.034475863 -0.060124174 0.030383091
-0.014908274 -0.004804152 0.036963135 0.035886962 0.013506857 -0.072940946 -0.035052955 0.0045710956
0.03384348 0.02212037 -0.015063094 -0.021901414 0.032665223 0.032382876 -0.019124342 0.061707806
0.092184454 0.050096992 -0.009823723 0.03484409 0.0007220721 0.035037193 0.019057605 0.0067149536
00000000: 0570 103d ba61 243d 18a3 b1bd db3d c2bc
00000010: 4efb 68bd 4c80 f23c 3743 653d f214 4dbd
00000020: 70e7 623d dab4 28bd 322e a83c 3930 3ebd
00000030: 4d43 063d 84b5 edbc 24ea 623d e192 c43c
00000040: b3ff 2cbd 16b3 0dbd ded7 bf3c 3ecd 06bb
00000050: 5fb7 a23c c68f 66bd b474 0a3d b288 b03b
00000060: a541 873c fddc 2cbd 6e5c 323d dff4 293d
00000070: 55df caba cdab 06bd 68d8 2bbc 5a1c c2ba
00000080: a020 9a3c 65df 2fbd d216 fdbc 088d 393d
00000090: 8223 73ba 0cbb 8a3c b964 1ebd 9d97 343d
000000a0: 3c1a 85bd 5e8a c33c 924b a93b b2b8 3bbb
000000b0: b28d 03bd a189 6f3d b307 c5bc 5002 ac3c
000000c0: eca4 cdbc 5fff 8a3d be81 e43c 99f2 503d
000000d0: d316 1abd 5fa7 203d 4210 873d 99e1 d5bc
000000e0: 0645 033d 0212 4abb cf37 113d 163d 4cba
000000f0: 8250 263d 0ad0 e83a 139c 0ebd 2c6f 98bb
00000100: 8c54 a03c 8aea af3c 429e 11bc 5d3f 0e3d
00000110: 3656 f039 c981 7a3d 0776 5d3d 3689 823b
00000120: da63 1ebd 722e 7fbd 8c5c ec3c 90a0 a1bc
00000130: 106b 93bb f107 523d 1166 f23a 2c1e 2dbd
00000140: ffac 89bd 34a8 88bd 3cb6 413d ff82 be3c
00000150: 5b90 d0bc ae13 94bc df56 67bd b667 b3bc
00000160: 5623 4b3d 8b8d 0f3d b4f9 05bc 45d0 36bd
00000170: 4a10 053c 94d4 14bd d20a a13c 5862 803c
00000180: 96f7 193d 969f 1a3d 107f 6e3c 9eb1 613b
00000190: 25b7 03bd e244 c23c ba56 15bd 1eda a4bd
000001a0: 2978 d53c be41 7dbd 7ef7 ddbc 1dba 25bd
000001b0: e721 3abc 6394 fc3b 20b7 533c bfa6 40bd
000001c0: 8bc5 113d e15e e338 24c8 6d3d e681 793c
000001d0: 53f2 3dbc 02f7 07bd 93dc 61bc 01c7 1ebd
000001e0: 09d4 3a3d 358f 5abd 8ebd 5a3d 76fe 363d
000001f0: 2ca8 c8b9 0fc3 0bb9 76fa 7d3c 8039 de3c
00000200: eb3a 5dbc 22b2 63bd 5427 a1bb b7ea e93a
00000210: 11da 233d 1b39 5bbd e0da 78bc bf3d c3bc
00000220: 391a 643d c330 d5bc e4fd b3bc b3b0 243d
00000230: 7ae5 8f3b d030 803d 7710 e3bc e3a5 14bd
00000240: 1dc2 313b 9d79 073b 3a0b 1e3d 9bab c0bc
00000250: f775 74bd 9856 aebc 32b0 68bc 975a 75bd
00000260: 642a a8bd f70c 08bc f062 11bd 5609 803d
00000270: 3f96 0d3d 5712 383d c809 f7bc 9024 8bbd
00000280: 8bc7 58bd 2999 c6bc 9f54 013d b29f 193c
00000290: 877c 10bd f35e 45bb ac79 51bc 23f1 693d
000002a0: a2f2 2b3d 4321 41bc 8333 34bd a042 2a3d
000002b0: 4ce9 013d 668f 64bd 600d 093d de20 7bbc
000002c0: 4fcb 38bd a163 283d 1d22 193d c91b 893b
000002d0: 7d0c 7ebc 8ab5 bd3c 2b7e 25bd 40d8 6c3d
000002e0: 9d71 e7bc a775 cabc bfed b63c ec29 8dbd
000002f0: 2308 043d e791 363c 49aa 02bd 3f68 a33c
00000300: 078d fabc cc9f acb9 baa5 abbd 06d3 2fbd
00000310: df9e 7b3c 1b16 733b 30f5 4e3d f349 95bc
00000320: ec60 853d de93 323d 1c9e 3c3d 43e0 e1bc
00000330: 00b6 3f3d eef8 bf3c 6891 7ebc 2370 99bb
00000340: f08b 78bd da4a 09bd 1bda 0bbb 1ed2 5abd
00000350: 65a5 6abd 9d08 10bd b6b0 313d 76bc b23a
00000360: 8f0c 063d c233 2ebc 150a d1bc 284c 25bc
00000370: 98a3 54bd 6565 b63c 6a34 053d b841 08bc
00000380: dfc2 0ebd 722c a6bd a407 b83d 4e84 87bd
00000390: 7160 d43c 9036 0dbd c444 76bd f6e5 f83c
000003a0: d541 74bc 266c 9dbb a866 173d 35fe 123d
000003b0: dd4b 5d3c 1062 95bd b093 0fbd 21c9 953b
000003c0: 769f 0a3d c735 b53c 32cb 76bc 986a b3bc
000003d0: f8cb 053d e8a3 043d a7aa 9cbc 53c1 7c3d
000003e0: 34cb bc3d 8132 4d3d aef3 20bc adb8 0e3d
000003f0: 7049 3d3a 2983 0f3d b21e 9c3c 1d09 dc3b

model.4.weight f4 [256, 256]
0.12888297 0.045045026 0.02382259 0.0061867624 0.024252892 -0.007876178 0.026351353 -0.041781347
-0.10555498 0.03163197 0.06792558 -0.0734044 -0.14104651 -0.0032259014 4.8441263e-05 -0.015814688
-0.053180967 -0.18656474 -0.023766845 -0.016044669 0.01510649 -0.06803551 0.05298822 -0.10610417
-0.08087877 0.027770925 0.05082975 -0.0023726607 0.02710963 0.09650919 -0.10946742 0.011354584
-0.01285923 -0.07472804 0.078364655 0.07861473 0.0824662 -0.10358433 0.037136126 0.022739619
-0.045441385 -0.025966521 -0.021659758 -0.017966842 0.027619224 -0.065060735 0.06630829 0.0020977266
-0.039262597 -0.020835789 -0.22101177 -0.13580757 -0.06715964 -0.04617464 -0.0149860075 -0.21632594
-0.008523615 -0.037037805 0.0853843 -0.013180273 0.007838783 -0.05349997 0.029804608 -0.32715723
-0.03192395 0.10251393 -0.07360159 0.0036297175 0.058688913 -0.029032022 0.0224741 -0.15384063
0.019723374 0.013507362 -0.047514606 -0.108126365 -0.021407628 0.018134447 -0.09097018 -0.08857201
-0.17113413 0.11914155 0.08951162 0.040182315 -0.19266725 -0.27398747 0.051487546 -0.024931442
-0.21247357 -0.16496058 0.020525053 0.019779656 -0.0733295 0.02256128 -0.050662663 -0.055178758
-0.00030360642 0.018904783 -0.04487073 -0.07450053 0.032408662 -0.08620459 0.042170253 0.030691084
-0.079941 0.09288031 -0.0034145904 -0.0018925312 -0.2603194 -0.059805546 -0.0055911597 -0.06797473
-0.18961151 0.32365343 -0.115868926 0.019667592 0.059540592 0.031453602 0.14212643 -0.016339496
0.07766846 -0.12090032 -0.0277806 -0.015159753 0.011976942 -0.3704193 0.028184794 0.021501964
0.023665702 0.070455015 0.00049629936 0.05102861 0.04783475 0.25573832 0.04801201 -0.0023317453
0.07072723 0.10247034 -0.24268429 -0.10928172 0.08334117 -0.0702324 0.1023853 0.013141863
0.0024750328 -0.022597946 0.03785181 -0.15054643 -0.11191544 -0.0002010008 0.06681089 0.031125316
0.034254268 -0.0030705822 0.033436406 -0.06998773 -0.0003268939 0.037929192 -0.22082154 0.18574323
0.08777131 -0.022146106 -0.05716001 -0.10008038 0.07585206 0.034445122 -0.21024129 0.1010092
0.1393062 0.01869476 0.18506818 0.011532523 -0.028986037 -0.12582213 -0.048869066 -0.13369048
0.009563215 -0.005981833 0.04198821 0.050262783 -0.011831731 -0.0128180245 -0.03354966 0.035442796
-0.116710365 0.076461956 -0.040021636 -0.044033997 -0.05103651 -0.056350492 0.009692076 -0.1030563
-0.18499659 0.05579234 -0.041865155 0.1246129 0.06593609 -0.1566466 0.084347434 -0.07074671
-0.044149593 0.08490058 -0.04263079 -0.0426231 -0.010461867 -0.07789622 0.0008651805 0.010043327
-0.045123998 -0.14720173 -0.05149692 -0.21181315 -0.014479149 0.06400462 -0.04217396 -0.04726894
-0.063146114 -0.025178574 -0.04303335 -0.0015689125 -0.013731577 -0.11993299 0.066801816 0.07585879
-0.26777402 -0.15104923 0.08606198 0.05139 -0.04141842 -0.11225351 0.025180425 -0.22236569
-0.09093931 0.009571013 0.024210783 -0.053318057 -0.108589776 0.14744778 -0.091187194 -0.02131446
0.04103404 -0.062121198 0.1985714 -0.027134128 0.02506247 -0.011790162 -0.122390695 -0.04752493
0.028111327 0.11724564 0.061427817 0.0005685707 -0.0970365 0.014774314 -0.029060608 0.043406904
00000000: e6f9 033e 2281 383d 9827 c33c 53ba ca3b
00000010: 00ae c63c 160b 01bc cbde d73c eb22 2bbd
00000020: 362d d8bd 8690 013d 911c 8b3d 0c55 96bd
00000030: 7f6e 10be a569 53bb 692d 4b38 ce8d 81bc
00000040: 49d4 59bd d40a 3fbe b0b2 c2bc 1c70 83bc
00000050: 3681 773c 3456 8bbd 2d0a 593d 254d d9bd
00000060: c5a3 a5bd da7f e33c db32 503d a47e 1bbb
00000070: 0415 de3c 9ca6 c53d 7430 e0bd 9408 3a3c
00000080: 85af 52bc 040b 99bd a67d a03d c200 a13d
00000090: 0ae4 a83d 0524 d4bd 0d1c 183d 7048 ba3c
000000a0: bf20 3abd beb7 d4bc ce6f b1bc 332f 93bc
000000b0: b641 e23c 903e 85bd a4cc 873d 037a 093b
000000c0: d1d1 20bd d1af aabc e950 62be 2411 0bbe
000000d0: fe8a 89bd 9f21 3dbd df87 75bc 8c84 5dbe
000000e0: a2a6 0bbc f4b4 17bd f7dd ae3d 12f2 57bc
000000f0: 3d6e 003c c922 5bbd cb28 f43c 2781 a7be
00000100: b0c2 02bd d3f2 d13d 6ebc 96bd 8ee0 6d3b
00000110: c963 703d 90d4 edbc 9b1b b83c 6688 1dbe
00000120: ea92 a13c fc4d 5d3c ad9e 42bd 5b71 ddbd
00000130: 0d5f afbc b18e 943c 934e babd 3e65 b5bd
00000140: c93d 2fbe 7c00 f43d de51 b73d 3696 243d
00000150: 904a 45be 1648 8cbe 9be4 523d 063d ccbc
00000160: ac92 59be 6deb 28be 2824 a83c f208 a23c
00000170: c72d 96bd 6fd2 b83c a783 4fbd 1f03 62bd
00000180: 5d2d 9fb9 34de 9a3c 5fca 37bd bc93 98bd
00000190: f2be 043d 088c b0bd b7ba 2c3d de6b fb3c
000001a0: 1bb8 a3bd 0838 be3d 52c7 5fbb cf0e f8ba
000001b0: 9648 85be a9f6 74bd 0c36 b7bb 5636 8bbd
000001c0: 8529 42be e7b5 a53e b04c edbd ee1d a13c
000001d0: d6e0 733d 7ed5 003d 9789 113e 68da 85bc
000001e0: a410 9f3d 969a f7bd 2494 e3bc 9d60 78bc
000001f0: f03a 443c 99a7 bdbe cce3 e63c e324 b03c
00000200: 93de c13c b84a 903d 161a 023a 6003 513d
00000210: 5fee 433d 22f0 823e 3ea8 443d 32d0 18bb
00000220: 70d9 903d f8db d13d 3b82 78be 18cf dfbd
00000230: c6ae aa3d 01d6 8fbd 62af d13d f850 573c
00000240: 2934 223b 541f b9bc 800a 1b3d d828 1abe
00000250: ec33 e5bd bec3 52b9 26d4 883d 85fa fe3c
00000260: 344e 0c3d d23b 49bb 9df4 083d ba55 8fbd
00000270: f562 abb9 a45b 1b3d 0b1f 62be 7933 3e3e
00000280: 72c1 b33d c06b b5bc 9d20 6abd f1f6 ccbd
00000290: 5358 9b3d 5416 0d3d 7e49 57be e9dd ce3d
000002a0: 49a6 0e3e c125 993c 8382 3d3e e8f2 3c3c
000002b0: 2074 edbc 84d7 00be ee2a 48bd 28e6 08be
000002c0: 08af 1c3c 4103 c4bb d4fb 2b3d 59e0 4d3d
000002d0: e0d9 41bc b102 52bc 5e6b 09bd 772c 113d
000002e0: d805 efbd 1698 9c3d baed 23bd fe5c 34bd
000002f0: a90b 51bd c6cf 66bd 83cb 1e3c 2e0f d3bd
00000300: bf6f 3dbe 8286 643d cc7a 2bbd 0c35 ff3d
00000310: 8009 873d f767 20be 59be ac3d a7e3 90bd
00000320: 34d6 34bd 5be0 ad3d a09d 2ebd 8f95 2ebd
00000330: 4068 2bbc 0e88 9fbd 48cd 623a c48c 243c
00000340: f1d3 38bd 0dbc 16be 6fee 52bd 8ce5 58be
00000350: f439 6dbc db14 833d 9abe 2cbd 139d 41bd
00000360: c052 81bd 4c43 cebc bd43 30bd f8a3 cdba
00000370: 69fa 60bc 6d9f f5bd 64cf 883d da5b 9b3d
00000380: ad19 89be a6ac 1abe 4341 b03d 527e 523d
00000390: 5ca6 29bd 2be5 e5bd 2e47 ce3c d5b3 63be
000003a0: 643e babd bdcf 1c3c b155 c63c 0964 5abd
000003b0: 5164 debd 8dfc 163e 5ac0 babd aa9b aebc
000003c0: 4f13 283d cc72 7ebd 4d56 4b3e 6448 debc
000003d0: cf4f cd3c 862b 41bc f9a7 fabd 80a9 42bd
000003e0: ba49 e63c 7b1e f03d bc9b 7b3d 220c 153a
000003f0: 13bb c6bd f70f 723c 8310 eebc 70cb 313d

model.4.bias f4 [256]
0.06567883 -0.055522323 0.029352985 0.0036979266 0.0007642748 0.040198866 -0.05061143 0.066097885
0.057470806 0.06460448 -0.015867949 0.046593897 -0.008415582 -0.03253944 0.017518496 0.055121277
-0.067397915 0.050606646 0.0413579 -0.0069320006 -0.022801463 0.057068367 -0.02506785 0.039858285
0.031080367 0.013451332 0.07941489 0.048461426 0.016420862 0.08164834 0.024542326 -0.030777069
0.036872927 0.03155638 -0.00021429188 -0.018004127 0.07755971 -0.054471806 -0.026301773 0.050206207
-0.019047435 0.061421365 0.036457174 0.0021899883 -0.002605705 -0.0073901904 -0.024322601 -0.043613758
-0.030310638 0.049477108 0.027402505 0.0076517705 -0.021062275 -0.11612928 -0.038499687 0.03576442
0.04922931 0.05703412 -0.0142492335 0.0047068084 0.034067705 0.008323203 0.037494138 0.02457289
0.06874495 -0.03281801 0.06345989 -0.034507014 -0.0023199487 0.07405454 -0.0076162256 -0.024983982
-0.04532644 -0.024684552 0.07643941 0.07710616 -0.025044754 -0.022263186 0.034494326 0.08385307
0.0761413 0.024520926 0.055154484 0.051203478 -0.017305149 0.069063045 0.046776954 0.020182852
0.053603392 0.048243366 -0.05860929 -0.077118605 0.059023626 0.05056215 -0.09631109 -0.040972035
0.030671826 0.048132293 0.021327846 0.061469354 0.060676474 -0.03752781 0.022195462 -0.05192322
-0.033750776 0.07267547 0.05500304 0.0425553 0.06835761 0.040866237 -0.009108029 0.015968269
0.025403174 0.015895838 0.009423716 0.005930303 -0.023355205 0.058808453 -0.06384721 0.04790972
-0.07609581 -0.015835883 -0.031434335 0.05835203 0.008945917 0.031410888 -0.03790112 -0.034773517
-0.06975658 0.0117754415 -0.06230562 0.059446923 0.044417124 0.000797658 -0.0977271 -0.06213926
-0.016104206 0.008244583 0.04742436 -0.062037148 -0.08023301 -0.021920668 0.054406244 0.03654885
-0.039431278 0.016723366 0.013374663 -0.029235244 0.00864275 -0.053715043 -0.039783023 0.030597854
-0.0819905 0.025301198 -0.042497676 -0.049762998 -0.025632547 -0.014655964 0.003316917 0.0024453772
0.025489658 0.02782326 0.07051038 -0.038617212 0.021281336 -0.039755307 -0.0089293625 0.014138503
0.052720476 0.059943173 0.056442887 0.05808868 0.005811422 0.035125364 -0.06416008 -0.06501212
-0.055010613 0.102372594 -0.026838524 0.09342596 -0.035699118 0.045416914 -0.07762054 0.06210174
-0.03860268 -0.03902089 0.013885825 -0.05267311 0.07189787 -0.04080654 -0.027132139 0.058219854
0.024059393 0.011250326 0.045416266 0.011613822 0.043397192 0.06363189 -0.05359468 0.030167237
-0.07183038 0.0339576 -0.0037218307 0.043287214 -0.010239127 -0.05851657 -0.054093685 -0.045804266
0.090595804 -0.01922443 -0.021518894 -0.05225172 0.00936624 0.03708736 -0.042504948 -0.037757654
-0.028294764 0.02948719 -0.0042205206 -0.017204944 0.06582176 0.029355194 -0.051845856 0.033979565
0.067267604 -0.085328676 0.0008103713 0.05955135 -0.018735936 -0.07522142 0.07127777 0.057918854
0.054049775 0.069500655 -0.017747167 -0.012091884 -0.043532565 0.13769257 -0.019486066 0.03699309
0.0178834 -0.07053684 0.0012075126 0.029440828 0.0744781 0.018708114 -0.040910117 -0.017520856
-0.022272747 -0.018265631 0.025999576 -0.06996258 -0.021447908 -0.018955939 0.004779338 0.005434158
00000000: 9f82 863d 606b 63bd ac75 f03c ea58 723b
00000010: 9d59 483a 91a7 243d ee4d 4fbd 545e 873d
00000020: 8266 6b3d 5b4f 843d 80fd 81bc 3ed9 3e3d
00000030: 82e1 09bc 1348 05bd f382 8f3c d9c6 613d
00000040: eb07 8abd ea48 4f3d e766 293d d625 e3bb
00000050: 22ca babc 85c0 693d 175b cdbc 7142 233d
00000060: 419c fe3c fa62 5c3c 46a4 a23d 7d7f 463d
00000070: 0b85 863c 3f37 a73d fd0c c93c 3120 fcbc
00000080: 1108 173d 4341 013d 8ab3 60b9 647d 93bc
00000090: a0d7 9e3d d41d 5fbd d176 d7bc 06a5 4d3d
000000a0: 5e09 9cbc f894 7b3d 1e54 153d e885 0f3b
000000b0: 7ac4 2abb 6929 f2bb 3140 c7bc 57a4 32bd
000000c0: 044e f8bc 82a8 4a3d 387b e03c b4bb fa3b
000000d0: cb8a acbc 30d5 edbd d9b1 1dbd b67d 123d
000000e0: aca4 493d 9c9c 693d 9e75 69bc 923b 9a3b
000000f0: 948a 0b3d 0b5e 083c 7493 193d 164d c93c
00000100: 27ca 8c3d 2d6c 06bd 42f7 813d 3a57 0dbd
00000110: 480a 18bb e8a9 973d 8891 f9bb 35ab ccbc
00000120: 38a8 39bd 4237 cabc 448c 9c3d d6e9 9d3d
00000130: a82a cdbc 4961 b6bc ec49 0d3d 29bb ab3d
00000140: f8ef 9b3d 1ce0 c83c abe9 613d bdba 513d
00000150: 87c3 8dbc ed70 8d3d 3199 3f3d 8256 a53c
00000160: 3b8f 5b3d d69a 453d 4b10 70bd 5cf0 9dbd
00000170: c2c2 713d 421a 4f3d c03e c5bd 4bd2 27bd
00000180: 7b43 fb3c 5e26 453d bcb7 ae3c 4ac7 7b3d
00000190: e587 783d c3b6 19bd 42d3 b53c 71ad 54bd
000001a0: 413e 0abd e0d6 943d de4a 613d 774e 2e3d
000001b0: 13ff 8b3d 5b63 273d d839 15bc e3cf 823c
000001c0: 511a d03c fd37 823c ee65 1a3c fd52 c23b
000001d0: 6a53 bfbc 22e1 703d 53c2 82bd fc3c 443d
000001e0: 1fd8 9bbd 41ba 81bc 4ac1 00bd 8a02 6f3d
000001f0: e591 123c b4a8 003d 343e 1bbd ad6e 0ebd
00000200: 8adc 8ebd c8ed 403c 2e34 7fbd 9e7e 733d
00000210: bbee 353d ec19 513a 2525 c8bd bd85 7ebd
00000220: f8ec 83bc 4a14 073c 0c40 423d aa1a 7ebd
00000230: 3451 a4bd f992 b3bc 15d9 5e3d 3fb4 153d
00000240: b182 21bd 71ff 883c 6721 5b3c c07e efbc
00000250: 529a 0d3c 4e04 5cbd 86f3 22bd 5aa8 fa3c
00000260: a3ea a7bd 7544 cf3c 0b12 2ebd 49d4 4bbd
00000270: 59fb d1bc 921f 70bc a260 593b 9f42 203b
00000280: b0cf d03c 9bed e33c bf67 903d 152d 1ebd
00000290: 3256 ae3c 76d6 22bd 764c 12bc 2ea5 673c
000002a0: 6df1 573d f986 753d a830 673d 65ee 6d3d
000002b0: be6d be3b 9ddf 0f3d 5c66 83bd 1325 85bd
000002c0: cf52 61bd b9a8 d13d 77dc dbbc 1c56 bf3d
000002d0: 3d39 12bd 1607 3a3d 85f7 9ebd 655e 7e3d
000002e0: d81d 1ebd 5ed4 1fbd 5f81 633c c2bf 57bd
000002f0: 313f 933d c224 27bd 3844 debc f177 6e3d
00000300: 3418 c53c 4a53 383c 6806 3a3d e647 3e3c
00000310: 41c1 313d 7051 823d 1886 5bbd 4821 f73c
00000320: ce1b 93bd 2017 0b3d f5e9 73bb ef4d 313d
00000330: 03c2 27bc 12af 6fbd 5791 5dbd 419d 3bbd
00000340: 4b8a b93d 8d7c 9dbc 6448 b0bc e605 56bd
00000350: dc74 193c eae8 173d ab19 2ebd c5a7 1abd
00000360: 6cca e7bc 1f8f f13c 4b4c 8abb 62f1 8cbc
00000370: 8fcd 863d 4e7a f03c 525c 54bd 282e 0b3d
00000380: 99c3 893d cdc0 aebd 196f 543a 1eec 733d
00000390: 1b7c 99bc b00d 9abd 14fa 913d 523c 6d3d
000003a0: 4c63 5d3d 5c56 8e3d 8262 91bc 0a1d 46bc
000003b0: 344f 32bd 48ff 0c3e 3ea1 9fbc 1186 173d
000003c0: 3580 923c 9e75 90bd 6645 9e3a e42d f13c
000003d0: f987 983d c241 993c 5e91 27bd e687 8fbc
000003e0: 5675 b6bc cea1 95bc 10fd d43c 8b48 8fbd
000003f0: 86b3 afbc 7c49 9bbc fe9b 9c3b 0511 b23b

model.6.weight f4 [16, 256]
-0.20024952 0.025353955 -0.15325071 -0.25013748 -0.022474589 -0.07276717 0.08326623 0.4551823
0.009834407 -0.06937834 -0.009384102 -0.039384454 -0.06792822 0.04752171 -0.5008806 0.12239983
-0.025778757 -0.2282634 -0.28926972 -0.05544199 0.08733888 -0.11108337 -0.4297825 0.19186038
0.045638707 -0.03998076 0.13083744 -0.055016965 -0.012880618 -0.04095314 -0.12856469 -0.078646265
0.15356302 0.054128166 0.12193416 0.23564398 0.042527188 0.13492587 -0.19203098 -0.21749769
0.0841517 -0.06034362 -0.22959663 0.0867845 0.009709245 0.07909324 -0.10077444 0.04441885
-0.081940256 0.036041882 0.014885495 0.054189313 -0.10383491 0.19044027 0.09042436 0.14052187
-0.3812847 -0.01771661 -0.048612177 0.8854669 -0.026375318 0.029445112 -0.20026845 -0.10262691
0.19965978 -0.3146718 0.21180609 0.08332569 -0.31278422 0.0766232 -0.005114145 0.48933578
-0.11752705 -0.114924945 0.23795913 0.020909071 -0.008412309 0.10222199 0.057705913 0.81604093
0.5084739 0.06661983 0.095607385 -0.038264968 0.18946882 -0.23288225 -0.22859594 -0.12798998
0.09714493 -0.0800262 0.03535698 -0.03742915 -0.030874422 -0.17141554 0.012583749 -0.35543686
-0.041146297 -0.007642136 0.04824883 0.029663026 0.041457504 0.011641472 -0.10294093 -0.037865333
-0.46596932 -0.005333152 0.14614914 0.07844533 0.056471705 -0.054734986 0.024170522 -0.0714215
0.03816836 0.05652289 -0.07178996 0.09465288 -0.14372167 0.08678775 -0.042742025 -0.23466003
0.16858606 -0.8021691 -0.49250177 -0.10682599 -0.20653692 -0.09860281 0.09987094 -0.030428417
-0.0034981244 0.39632463 -0.03671749 -0.08551543 0.045402844 -0.10062457 0.029715145 0.023716208
0.061744515 0.12269336 0.119495556 -0.0632843 0.050156105 -0.07272786 0.50766647 0.80609137
-0.017341984 -0.066756725 -0.5598559 -0.108904846 -0.09054106 -0.15058553 -0.30056226 -0.25251567
-0.0211575 -0.17861097 -0.062654726 -0.17887057 0.033563282 -0.068154335 -0.15521584 -0.37172055
-0.17294154 0.028809782 -0.022253368 0.03896668 -0.008559102 -0.009683826 0.033646572 0.08778228
-0.14440581 0.02369863 0.04018648 -0.03432373 0.08932239 -0.08538533 -0.109596044 0.048757493
-0.005814835 -0.029812016 -0.05804814 -0.14527382 -0.24422887 -0.2833611 -0.09066234 -0.14466807
-0.5699941 -0.10235772 -0.011179279 -0.011063249 0.14091915 -0.04883621 -0.021040639 -0.2386531
0.64435965 -0.14947385 -0.0014267782 0.033830103 -0.034252513 -0.052715022 0.010419493 -0.20833085
0.010663291 -0.14176548 -0.26791695 -0.13600953 -0.2677745 -0.056460656 -0.44845647 -0.45070547
-0.05064427 0.017101187 -0.060983382 0.02426112 -0.017779436 -0.0017390238 0.07886071 0.093593694
-0.33530387 -0.1327213 0.019750599 -0.040113356 -0.2524151 0.0024592697 -0.030440582 0.09882332
0.031173434 -0.04079121 0.28392795 0.0345319 0.058568034 -0.048604526 -0.18841334 0.22810051
0.10051641 -0.012169687 -0.058359742 -0.053506892 -0.12419577 -0.028044647 -0.008550729 -0.02463273
-0.15622269 -0.01279765 0.019289965 -0.041447617 0.5421871 0.02488171 0.027297866 -0.17962064
-0.052682765 0.006550396 0.032143362 0.079069905 0.017466398 0.101788245 -0.025091603 -0.23861855
00000000: 360e 4dbe 19b3 cf3c c1ed 1cbe 0512 80be
00000010: a11c b8bc f406 95bd 7c87 aa3d a80d e93e
00000020: 7e20 213c 3b16 8ebd c7bf 19bc 9851 21bd
00000030: f31d 8bbd 20a6 423d b639 00bf c3ac fa3d
00000040: f92d d3bc e1bd 69be 291b 94be 2417 63bd
00000050: bade b23d ae7f e3bd 740c dcbe 0c77 443e
00000060: a7ef 3a3d dec2 23bd 40fa 053e 7859 61bd
00000070: 3a09 53bc 7bbe 27bd 76a6 03be 4b11 a1bd
00000080: a03f 1d3e 7fb5 5d3d 9eb8 f93d a84c 713e
00000090: fd30 2e3d 022a 0a3e c5a3 44be b7b7 5ebe
000000a0: ba57 ac3d df2a 77bd 611b 6bbe 12bc b13d
000000b0: 8613 1f3c a3fb a13d d462 cebd 8af0 353d
000000c0: 4bd0 a7bd a7a0 133d 4be2 733c 9df5 5d3d
000000d0: 66a7 d4bd c602 433e 6830 b93d f7e4 0f3e
000000e0: c037 c3be 6d22 91bc 901d 47bd f5ad 623f
000000f0: 0d11 d8bc e036 f13c 2c13 4dbe 0f2e d2bd
00000100: 9d73 4c3e aa1c a1be b2e3 583e a9a6 aa3d
00000110: 4125 a0be a0ec 9c3d 8f94 a7bb 388a fa3e
00000120: 06b2 f0bd c55d ebbd 8fab 733e 8049 ab3c
00000130: c8d3 09bc c359 d13d 095d 6c3d 0fe8 503f
00000140: 582b 023f fa6f 883d cecd c33d babb 1cbd
00000150: 1d04 423e af78 6ebe 0e15 6abe ce0f 03be
00000160: ecf3 c63d c7e4 a3bd 7bd2 103d 4f4f 19bd
00000170: 5bec fcbc 8e87 2fbe 122c 4e3c d2fb b5be
00000180: 0589 28bd e26a fabb 91a0 453d e0ff f23c
00000190: 58cf 293d dfbb 3e3c b2d2 d2bd ae18 1bbd
000001a0: 8893 eebe b9c1 aebb 1fa8 153e f2a7 a03d
000001b0: e04e 673d cb31 60bd 4201 c63c 6f45 92bd
000001c0: 6d56 1c3d 8c84 673d 9d06 93bd 5fd9 c13d
000001d0: c62b 13be c7bd b13d 4312 2fbd b84a 70be
000001e0: d3a1 2c3e f45a 4dbf 3129 fcbe 96c7 dabd
000001f0: 6a7e 53be 45f0 c9bd 2389 cc3d 0445 f9bc
00000200: ca40 65bb 10eb ca3e 1465 16bd b722 afbd
00000210: 55f8 393d 4114 cebd 2d6d f33c 7e48 c23c
00000220: d1e7 7c3d a846 fb3d 16ba f43d 339b 81bd
00000230: 7d70 4d3d 58f2 94bd 6ef6 013f 015c 4e3f
00000240: c710 8ebc c0b7 88bd b752 0fbf 8109 dfbd
00000250: 976d b9bd 1833 1abe 4ce3 99be bc49 81be
00000260: 7e52 adbc cbe5 36be 1f51 80bd d929 37be
00000270: a779 093d 8094 8bbd e7f0 1ebe 2852 bebe
00000280: 9617 31be 7e02 ec3c b24c b6bc 879b 1f3d
00000290: 7a3b 0cbc e9a8 1ebc fdd0 093d 32c7 b33d
000002a0: 1edf 13be a123 c23c 949a 243d 0a97 0cbd
000002b0: a8ee b63d 81de aebd e473 e0bd f0b5 473d
000002c0: 5f8a bebb 5438 f4bc e3c3 6dbd a9c2 14be
000002d0: 2217 7abe b514 91be 2dad b9bd de23 14be
000002e0: 22eb 11bf eda0 d1bd 4b29 37bc a142 35bc
000002f0: 1c4d 103e 7a08 48bd 6b5d acbc 7a61 74be
00000300: c1f4 243f ac0f 19be bb02 bbba 6f91 0a3d
00000310: 5d4c 0cbd b5eb 57bd 85b6 2a3c af54 55be
00000320: 16b5 2e3c f82a 11be 692c 89be 1546 0bbe
00000330: bd19 89be 4a43 67bd 169c e5be dec2 e6be
00000340: 5e70 4fbd ca17 8c3c b6c9 79bd 42bf c63c
00000350: 2ea6 91bc f5ef e3ba b981 a13d 0dae bf3d
00000360: f3ac abbe 18e8 07be 02cc a13c e74d 24bd
00000370: 8d3c 81be b32b 213b 875e f9bc e163 ca3d
00000380: 6e5f ff3c af14 27bd 015f 913e 5271 0d3d
00000390: 09e5 6f3d 8a15 47bd 6def 40be 2e93 693e
000003a0: 8cdb cd3d 5e63 47bc a00a 6fbd 0b2a 5bbd
000003b0: 5a5a febd e3bd e5bc 5b18 0cbc 94ca c9bc
000003c0: d7f8 1fbe 3cad 51bc fd05 9e3c fac4 29bd
000003d0: c6cc 0a3f bad4 cb3c c69f df3c 79ee 37be
000003e0: e2c9 57bd b4a4 d63b c2a8 033d 67ef a13d
000003f0: b115 8f3c 5b76 d03d e88c cdbc 6c58 74be

model.6.bias f4 [16]
0.038573876 -0.038186565 -0.06380434 0.040622078 -0.0013321593 -0.051301323 0.11849543 -0.0102444645
0.012438937 -0.07485651 0.007096084 -0.044297587 -0.084689215 0.020302119 -0.02890157 -0.014162754
00000000: a4ff 1d3d 8469 1cbd daab 82bd 5663 263d
00000010: d99b aeba 5621 52bd bbad f23d 66d8 27bc
00000020: afcc 4b3c 5f4e 99bd 4486 e83b 6371 35bd
00000030: 8a71 adbd a150 a63c fcc2 ecbc e50a 68bc
