data/checkpoints/rlgym-ppo-run-1760737740221222700/541424930/PPO_VALUE_NET.pt (torch, 623393 bytes, 7 tensors)

model.0.weight f4 [256, 89]
00000000: dbd4 cb3e aefa 15be 9e8c 363e 19ea 74bf
00000010: bf53 05be a166 babe df24 983d 5407 b0be
00000020: 876d 763d c5fd ab3c 787d 93bc f095 81bb
00000030: 354b cabb 4c6a 5b3b 5a50 ad3c 4549 ae3c
00000040: c04c 30bb 38ff 02bd ea1e 923d e63c d7bc
00000050: 3acb a9bd a8a2 933d 4dd7 f9bc 6d34 cc3c
00000060: 1b49 e4bc 0619 283d bd82 803d e4ce a2bc
00000070: 1135 7cbc 5caa d6bd cda9 a83c 9e47 a6bd
00000080: d503 d03c 6dac 21bc ce0a 423d ff8e b33d
00000090: 39b3 1b3d bfb1 103d 9b79 8fbc debc 96bd
000000a0: 303b 0cbd 1d40 c53d 8257 fdbc 3f5d 263d
000000b0: e58c 3d3d 9bd6 013d 9974 c7bd 0803 c43d
000000c0: dfba 9cbd 351e a03d f94d 1ebd 41e8 f23e
000000d0: f86c 803e 9875 a63e ae15 973d 026f cdbd
000000e0: fc8c 903d 274b a63d 5e6f 38bd bc6f 32bd
000000f0: e84a b93d 9ba0 0fbd 2156 933e 908a 3e3d
00000100: 5616 fd3c a241 b5bd 53f2 db3d 2f5b 7abc
00000110: ba48 92bc 0c33 0ebd 1918 a33e 3a39 b5bc
00000120: 84a9 973d 06a6 be3c c9ab 19bd 57e9 d2bc
00000130: 6d6a aa3b 2a9a 623c 537d cdbc f1a3 773d
00000140: 39cb 023e bdd6 063e 92c7 343c 74d1 25bc
00000150: 220d ad3c 82dd d53d 9cf5 2f3c 8492 af3b
00000160: b338 ed3d 7214 a1be ad71 2f3f 4797 1dbe
00000170: feb6 54be c669 7abf ebde b23c 4bf0 0b3e
00000180: 6c08 bbbd ee3f d13d 2480 20bb 7428 f5ba
00000190: 4ebc e9bb c5d0 bebb a68b 093b 851a dfbc
000001a0: f848 8e3b 01f8 fcbb 8b18 ff3c 8215 5b3d
000001b0: 6fe7 03be 0a2a 62bd d6db 1ebd 1325 9d3b
000001c0: d929 573d 0957 ee3c 49fb d2bd 2f45 413d
000001d0: 675b 2fba fe26 bebd e53c 7c3d a88e 0cbc
000001e0: 8036 903c 76a7 f53b 2b82 653c 2331 013b
000001f0: ad5a f2bd 6fd2 483d 23b1 553d 4e32 c6bd
00000200: 8ef4 c9bd 7f9e 853d 7797 5abd 6d46 d13c
00000210: 4948 8d3d 05b8 d63c ef04 353d 728c 083d
00000220: cd9f 543d 2848 19bb 80e2 e4bc 6e4b b53d
00000230: 6c94 03bd ae51 cbbd b33a c6bd 6c25 debc
00000240: a63e a83b 291a 0fbd ad24 57bc ea10 563b
00000250: f5ba 00bd 646f 0d3e 7cc4 143e 6283 1e3e
00000260: 5fcb 353d 53ee b93b 1412 483d 31d1 f1bd
00000270: b4bf d1bc 2919 d43c 2de4 56be 66ca a43d
00000280: f180 873d feb0 a4bd 620b d7bc 7c89 ef3c
00000290: 4f4c d9bc e211 6fbc 36a7 743c b977 97bc
000002a0: 03a2 c03d adf0 073e c2a1 943e a78f ac3b
000002b0: dd32 96bc a158 92ba 906c 9a3d 2cc8 9fbc
000002c0: 0c0f 373d ff80 b5bd c469 38bf 20b1 c4bf
000002d0: f8cc d83e 6616 87bc d90c 76bd 09fe 913d
000002e0: 9468 cebc b335 143d 11ae b5bc c037 93bb
000002f0: 7710 e83b 9f2a bf3b eb8e acba 8655 55bb
00000300: 031b 89bc 643c 403b 2b7f 3dbb 838a 943c
00000310: 32a7 573d b01c 653d 391d a03d 0852 5a3d
00000320: b915 9f3d 79f3 80bd 0c6a 933c 9baa ccbd
00000330: 6e34 9b3d a201 213c 481b 2abc ff8f a33d
00000340: cb08 503d 675a 7d3d 7c01 a8bc c92f 81bd
00000350: 8930 ae3c d608 2bbd d4b0 643d 152a 363c
00000360: aca5 313d 73a5 49bc 65ac 743b 4dd1 58bb
00000370: 0b4c 99bd b962 2d3c e13d a73c 4ae6 0dbb
00000380: 468f e2bd c5fb d6bd a1aa 4ebd b4bc 7a3b
00000390: 3ae0 cc3b ab7a 423f 8eaf c53f f022 e1bc
000003a0: 8ade 133d c91b 113c 0a53 913c f840 7c3b
000003b0: 99e7 c23b 6749 193c 5840 633e 33f7 eeba
000003c0: fd82 5a3c 8e5e 173b 43a7 15bb 37be dcbc
000003d0: b0e6 b63e fe9f 0bbc f2ab 26bc 8c89 773c
000003e0: 2b89 20bd a52f af3d 5bd4 5cbb 2a6c 20bb
000003f0: 5820 4d3c f7e7 453c 4263 313b 1f82 e73a
0.39810833 -0.14646408 0.17827079 -0.95669705 -0.13020228 -0.36406425 0.074289076 -0.3438059
0.060163047 0.02099503 -0.018004164 -0.0039546415 -0.006173516 0.0033480106 0.021156479 0.021275172
-0.0026901215 -0.031981677 0.07134803 -0.026274156 -0.082907155 0.072087586 -0.030498171 0.024927342
-0.02786689 0.04103949 0.06274936 -0.019874044 -0.015393511 -0.10481712 0.02058878 -0.08119129
0.025392452 -0.00986777 0.047373585 0.08767509 0.038012717 0.035325762 -0.01751404 -0.07360242
-0.034236133 0.09631369 -0.030925516 0.04061627 0.046276946 0.031698804 -0.09739036 0.09570891
-0.0765283 0.078182615 -0.03864858 0.4744282 0.25083137 0.32511592 0.07377182 -0.10030939
0.07058141 0.08119803 -0.045028083 -0.04356359 0.0904749 -0.035065275 0.2877665 0.046518862
0.03089444 -0.08850409 0.10739579 -0.015280529 -0.017856944 -0.03471665 0.31854323 -0.022122014
0.074053794 0.023272526 -0.037517343 -0.02574603 0.005200675 0.013830701 -0.025084173 0.06045908
0.12772836 0.13167854 0.011033909 -0.010120738 0.021124426 0.1044264 0.01073971 0.005358042
0.1158308 -0.3146091 0.6853283 -0.15389739 -0.20772931 -0.9781765 0.021834811 0.13665883
-0.09132466 0.10217272 -0.002449044 -0.0018704073 -0.0071330434 -0.005823227 0.0020987778 -0.027234325
0.0043421946 -0.007719994 0.031139633 0.05348731 -0.12881254 -0.055215873 -0.03878387 0.0047956794
0.052530143 0.029094236 -0.10301835 0.04718512 -0.000668934 -0.09284781 0.06158151 -0.008578934
0.017604113 0.0074967695 0.014008085 0.0019713126 -0.11833701 0.04902881 0.052170884 -0.096775636
-0.09861098 0.06524371 -0.053367104 0.025546277 0.06898553 0.026210794 0.04419416 0.033337064
0.05191021 -0.0023388956 -0.027940035 0.08852278 -0.032123968 -0.099276885 -0.09679165 -0.027117454
0.0051344214 -0.034937058 -0.013131303 0.003266389 -0.031428296 0.13812023 0.14528078 0.15479806
0.044383403 0.0056741624 0.048845366 -0.11807478 -0.025604106 0.025890904 -0.2098548 0.08046417
0.066163905 -0.08041571 -0.026250545 0.029240362 -0.026525645 -0.014591666 0.014932444 -0.018489705
0.09405901 0.13275404 0.2902966 0.005266148 -0.0183348 -0.001116533 0.07540238 -0.01950463
0.044692084 -0.08862495 -0.72036386 -1.5366554 0.4234388 -0.016490173 -0.060070846 0.071285315
-0.025196351 0.036184024 -0.022177728 -0.00449273 0.007082041 0.0058339383 -0.0013165151 -0.0032552197
-0.016736513 0.002933287 -0.002891491 0.018132454 0.052649684 0.05593556 0.07818074 0.053300887
0.07767815 -0.06296439 0.017994903 -0.09993478 0.075783595 0.009827049 -0.010382481 0.079864495
0.050789636 0.061853793 -0.02050852 -0.063079424 0.021263378 -0.041756473 0.0558327 0.011118432
0.043370888 -0.012307513 0.00373342 -0.0033083737 -0.07485207 0.010582619 0.020415248 -0.0021652156
-0.110624835 -0.1049724 -0.050455693 0.0038259448 0.006252316 0.75968426 1.54442 -0.02748248
0.0361009 0.008856722 0.017739791 0.0038490873 0.0059480187 0.009355879 0.22192514 -0.001823163
0.013336894 0.002309713 -0.0022835291 -0.02694617 0.35722876 -0.008522032 -0.010172831 0.015108477
-0.039193314 0.08554009 -0.003369591 -0.0024478533 0.012519918 0.0120792305 0.002706722 0.001766268

model.0.bias f4 [256]
00000000: c313 bc3c 360a 0dbe 1f9e 783d 3f4b e0bd
00000010: 2a52 193e 81ee b03c 6a55 6a3d 3c92 8a3d
00000020: 5b32 12bd 6ea9 9dbd 68ec 9abc eec9 3ebd
00000030: 6781 593d 355f a8bd ba58 e13d 4b7f c73d
00000040: ae80 23bd b409 c9bd f57b a0bd 9641 b33d
00000050: 63c2 073d 268f bebb 9bdf b0bc 042d 7d3d
00000060: f6a5 343c 7d9e f7bc 35f7 b7bd 1efb cb3d
00000070: 496e b13d cb31 2e3d d2ca 6fbd 3b62 94bb
00000080: 87f0 9a3d 7333 18bc 3690 59bd 3127 92bd
00000090: a120 90bd 1546 81bd fd99 86bd 4a1c 123c
000000a0: 0395 cabd a316 043d 6781 22bd c2f6 283d
000000b0: e608 1ebd d85d 023a 3f5a 343d c8dd 0bbd
000000c0: 5b8a 923b 310c 233d 9682 49bd f9c7 6bbc
000000d0: 5b8c 823d 112d 963d 2acc c0bd fbdf 8cbd
000000e0: f8b5 4f3d 8d78 9e3d e430 f13b b706 863d
000000f0: e1b0 be3c e606 843d eb61 21bd f5b3 373d
00000100: b9d0 49bd 26d7 13bd fdd3 6cbd e0cd 22bd
00000110: d746 1abc ad53 b13c 0185 a4bb 5aba 71bd
00000120: aa5e 003e fabb cb3d a984 173c 5954 0bbc
00000130: c306 95bc 5a25 2dbc 21c0 d0bd c69f 263c
00000140: 3433 78bd 21a4 97bd 1ba9 65bc 230e bfbd
00000150: c181 3b3d ff76 82bd ff17 443d e670 8e3d
00000160: 8cb7 c33d 5843 82bd a892 2f3d dec1 c23d
00000170: 76f6 853c 2350 43bd f1c2 1fbd 1c50 9a3c
00000180: 43fb 94bd 7a07 17bd a92a 813d 55f9 b23c
00000190: c22e 09bc 31a6 a93d 92bb e43b 5271 a2bd
000001a0: 5dc2 1d3d c934 183c 093d dfbc 4b83 14bd
000001b0: db4a 0e3b 278c 84bd cbd3 11bd 8cfc 843d
000001c0: 4d3f 463c 247a 923b 7bad bf3d 4073 b5bd
000001d0: 42f7 aa3d 4a9c 0cbd 925a 67bd c402 edbc
000001e0: edc5 a03d ed03 abbd eea8 93bd c383 f8bc
000001f0: 4102 96bc 674b 06bd 84a5 7abb 1989 a2bc
00000200: d42d a23d ba43 2d3d d1c3 76bd 979d 0a3d
00000210: 16ca bf3d b4d0 c5bc 0713 91bd ff9a 54bd
00000220: 0b7a 91bd 152e 3c3d c058 853d be0a 843d
00000230: 272d bfbd 5069 4cbd 9d10 8b3d de7e 38ba
00000240: 1017 6abc 1e15 b43d 4cd2 15bd a946 a63d
00000250: 6cc3 aa3c a04b c1bd 5242 363d eb4b 4f3c
00000260: dfb9 d03c 934e e33c 9893 76bd 9276 0ebc
00000270: f930 d73d ccea a7bd 3e1b ee3c ade1 343d
00000280: 4a36 bdbc ab20 1dbd 6dcb 79bc fc68 513d
00000290: 6cbb d23d ff87 c93c 665e b9bc 9c91 923d
000002a0: 8350 cb3d 5ae2 c1bc be65 203d 1d7b 723d
000002b0: fd43 21bd fdcf 58bd 0381 283d d289 a93c
000002c0: ce4d e43a f308 483d 1820 8bbc ff8a 2ebd
000002d0: d364 1cbd 372c c8bd 008c dabc ff3c 2ebc
000002e0: 5b30 e5ba bc5c df3d 949e 6b3c 70c5 3f3c
000002f0: ba3e d53d b2a3 70bc 56e0 27bd 4a70 cfbd
00000300: bcaf 37bd 0904 2f3d 713b b13d c398 9dbd
00000310: c457 593c 3001 c33d 3bc1 5abd 87fc e0bc
00000320: c105 c03b 1909 b6bc 3270 1ebd e3fb f63d
00000330: eadf 77bd 4c7a 943d 9fa8 613c 29eb 21bd
00000340: 976a ca3d ce58 3abc d7f4 66bc e122 74bc
00000350: acea a43c ded1 bcbc f0d6 94bc cef1 9c3c
00000360: 835f 1fbd 3137 5a3d 80a8 3c3d 03f6 563d
00000370: 1d87 7bbd 43ec 68bd 8f74 533c ef69 4ebd
00000380: 1fef d9bd 5a95 f73c 41e4 1e3d b207 a43d
00000390: da62 2a3d d8eb f73b 7767 053e 571e 9fbc
000003a0: 8b79 f73b c5b8 c8bd 7b91 3f3d 471c 213c
000003b0: 5771 e63c adbb fe3c db9f ca3a 3135 193d
000003c0: b69d d13c ea14 9abd 0428 bcbc 3a81 8b3d
000003d0: b6cd 9dbc 9334 9d3d a536 7dbd 4c7c 15bd
000003e0: 82c4 c93d 653c 463d 10e9 e7bd 7349 e23b
000003f0: b734 8e3d c284 cb3d 9580 75bd 9164 04bd
0.022958642 -0.13773426 0.06069767 -0.10951852 0.1497275 0.021598103 0.057210363 0.06766173
-0.035692554 -0.07698332 -0.018911555 -0.046579294 0.053101923 -0.08221284 0.110032514 0.09741076
-0.03991764 -0.09816304 -0.07836143 0.08752744 0.033144366 -0.0058154045 -0.021590998 0.06181051
0.011025896 -0.03022694 -0.08982698 0.09960006 0.08663613 0.042527955 -0.058543034 -0.0045283115
0.07565408 -0.00928961 -0.053116046 -0.071363814 -0.070374735 -0.06312195 -0.0657234 0.008917877
-0.09891703 0.03224815 -0.03967419 0.04125095 -0.038582705 0.000497309 0.044031378 -0.034147054
0.0044720597 0.03980655 -0.049196802 -0.014390939 0.06374427 0.073328145 -0.09413941 -0.068786584
0.05071065 0.07737837 0.0073605645 0.065442495 0.023277702 0.06446628 -0.039400022 0.044849355
-0.04927132 -0.036093853 -0.057819355 -0.03974712 -0.009416304 0.021646345 -0.005020738 -0.05901561
0.12536111 0.09947963 0.009247937 -0.008503997 -0.0181917 -0.010567987 -0.10192896 0.010169929
-0.060595706 -0.07404352 -0.014017369 -0.09328868 0.04577804 -0.06370353 0.047874447 0.069551274
0.09556493 -0.06360501 0.04286447 0.095096335 0.016352873 -0.047683846 -0.03900427 0.018837027
-0.07274487 -0.036872365 0.06306965 0.021847406 -0.008372964 0.082836516 0.006980368 -0.079317704
0.038515437 0.009289929 -0.027250784 -0.036258023 0.0021712098 -0.064720444 -0.035602372 0.06493482
0.012100053 0.0044701267 0.09359261 -0.08859873 0.08347942 -0.034328736 -0.05648286 -0.028931983
0.07850251 -0.08350358 -0.07209955 -0.030336266 -0.018311622 -0.032786753 -0.0038245628 -0.019840764
0.07918897 0.042300917 -0.06024534 0.033841696 0.09364717 -0.024147369 -0.07083707 -0.05190563
-0.07103356 0.045942385 0.06511068 0.064473614 -0.09334784 -0.04990512 0.06790278 -0.00070379477
-0.014287725 0.0879309 -0.036577508 0.08118946 0.020845138 -0.094382524 0.04449684 0.012652378
0.025479255 0.027747428 -0.06019935 -0.008695262 0.10507388 -0.08199081 0.029065724 0.044160534
-0.023097176 -0.038361233 -0.015246254 0.05112551 0.10289654 0.02460098 -0.02262802 0.07156679
0.09927466 -0.023667503 0.03915953 0.05919944 -0.03937148 -0.052932728 0.04113866 0.0206956
0.0017418207 0.04883666 -0.016983077 -0.042613026 -0.03818209 -0.09774058 -0.026678085 -0.01063466
-0.0017485725 0.109063596 0.01438107 0.011704788 0.10412355 -0.0146874655 -0.040985428 -0.10128839
-0.044845328 0.042728458 0.08653916 -0.076951526 0.013265554 0.09521711 -0.053406935 -0.027464164
0.005860061 -0.022221135 -0.038681217 0.12059762 -0.060516275 0.07249889 0.013773113 -0.039530907
0.09883612 -0.011373712 -0.01409646 -0.014900894 0.020131432 -0.023049291 -0.018168896 0.01915827
-0.038909446 0.05327529 0.04605913 0.05248071 -0.06140815 -0.05686594 0.012906208 -0.050393995
-0.10641312 0.030222584 0.0387919 0.0800928 0.04159818 0.0075659566 0.1302775 -0.019423647
0.007552331 -0.09800867 0.0467696 0.009833402 0.028130217 0.03109535 0.0015459018 0.037404243
0.025587898 -0.0752352 -0.0229683 0.068117574 -0.01926313 0.07676043 -0.06181969 -0.03649549
0.09851934 0.04839744 -0.1132375 0.0069057285 0.06943648 0.09937431 -0.05993708 -0.03232247

model.2.weight f4 [256, 256]
00000000: 44f5 07bd 36cf 443c 90b2 acbe 38b5 b1bd
00000010: ed59 b43c 04d3 e73d 1af8 2abe b44b 893d
00000020: c123 e7bc 2301 383d dc34 043c 2cc8 1e3e
00000030: f121 96bd 1a54 e33c 464e 593c 316e 543c
00000040: e0cb 243d be57 ccbc c5d2 a23b 318f cf3d
00000050: 0528 35be 7fd1 b03d 2e79 3e3e b464 3e3d
00000060: cf5e 1f3c 4c01 28bc 8340 48bd de3b f83c
00000070: eac1 893e c3e5 123e 0b64 973d a09d abbd
00000080: bf49 4f3d f5a8 b3bc e659 a23d e4ad 0abe
00000090: 59f2 2e3c 3dc1 72bd aabe e13d 82ae ce3d
000000a0: 87df 0abf eaab 60bd c579 a73d 21d2 233c
000000b0: 6fb1 023e efd3 b73d 8aef 353d c735 c8bd
000000c0: abb1 b43d 3cd8 81be 85e4 9b3d d9a3 ab3d
000000d0: dbd8 093e 7570 53bd f5ba 653d a763 073b
000000e0: 1ddd 7dbd 9d83 89bd 1761 bcbd 8634 1d3d
000000f0: f298 0f3e dd53 70bc b985 393d 7b69 28bb
00000100: d3ac f4bb 1c4a 923d 6184 053e 5a5e dd3d
00000110: 803f 9a3c eecc b0ba d047 b43c 7590 a9bc
00000120: b8a8 583d 2138 913d a3bd a03c 61c7 31be
00000130: cc6a 033e a6c5 78bd e849 823a 2317 913d
00000140: 710b 943d 70c5 413d ed7f a7bd 8b56 c0bc
00000150: 3444 adbd 0a35 e2bb 0fcd 36bf 9dc4 58bc
00000160: a917 98b8 6368 9e3c 39f2 cd3d 9b94 6c3c
00000170: bbf5 a23d 78ad c93d 75f9 6c3d 0373 5dbd
00000180: 12b4 2b3d 3e58 283c 6954 28bd 462b 06bd
00000190: 9d08 69be 5693 f83d 226e 073e 90a7 033d
000001a0: 42b6 a53a 40ab 0a3e 9cce 8fbd 5d53 053d
000001b0: e588 003e ee0d d1bc 339f 703d 6a64 2e3e
000001c0: eb0d d13e 897b 36be 6d8f ef3d b7b3 a53c
000001d0: 299b 063e 0055 29be e95b 503d bed7 8fbc
000001e0: e04d 7dbd 5459 1cbd cd92 9dbd 1065 633b
000001f0: cad3 313e 8ff8 31bc 3ea9 b7bb 5454 9bbd
00000200: 1607 3abc dd67 7cbb af2d 14be 34da bd3d
00000210: d6ec 1fbe b5ed 583c f850 413d 991e c7bb
00000220: 6b11 41be 8a95 b23d 9db0 063e 4b62 87bd
00000230: 6857 debc e252 4ebc 6d7e bd3c 2b81 6abe
00000240: e7d4 87bd 372d 953d ad0f bebc 9db2 1abd
00000250: 2844 e6bd 4532 b53d 8048 d8bc 86ab 953d
00000260: a189 1e3e 3b38 d0bd 8e90 70bd f5a5 06be
00000270: 40de 023d bb91 943d 6607 19be 7454 c83c
00000280: 1c99 04be 049e 1cbe fa4d 07be 3ddc b13d
00000290: e390 eb3d 3514 293d 1165 1a3e 9fcd 733d
000002a0: 475f 913d 30b1 47bd a178 6c3d b8c7 a2bd
000002b0: 40b1 ba3d 5970 e5bc d230 ea3d 5cd3 50bd
000002c0: 19f3 e5bd d297 0fbe 4a63 93bd 3cd9 843d
000002d0: d1e4 36bd 3489 53bc 63ca 423c f87c 9f3b
000002e0: 575f 723c 1d3a 1dbe 9e57 fd3d 720c 2dbd
000002f0: 114b 3d3d 4176 653c 1cb1 833c b7a2 f43d
00000300: 94fa e8bd a4dc da3d ea9b b93b 891d bc3d
00000310: 8cf2 f9bd 9433 4f3a dc9f 01bd 1486 b63c
00000320: 9b52 81bc 4c96 0c3d 4244 e53d d8ea 51bd
00000330: 35a6 07be 4c40 99be 42b7 313d fddb f8bc
00000340: 9e00 8e3c 6ce2 7bbd 79dc 133c 036e 2a3d
00000350: 8712 8bbc f18a 133c 9394 fe3d 8314 1d3c
00000360: 0ba4 8f3c 177a 9f3c b4ee 1e3e 8204 153d
00000370: 0bfe fc3d d636 043c 6980 27bd dce8 5f3d
00000380: 72bd 7d3d 25e4 553c eb36 97bd dec3 36bd
00000390: 7dea cd3d e907 063e 2695 30bd 53f1 3f3d
000003a0: c6b1 a7bc fd67 9c3c 1e32 ad3d afb5 333d
000003b0: 0f15 91bd b4b9 72bd 5a17 91bd f493 013c
000003c0: d7c3 d53c e32b 3a3a fc05 003e 6d11 e63c
000003d0: 4229 14bd 28b5 e53d 4a9e 9cbd d834 963d
000003e0: 512e ba3c 0375 fab9 bee0 98bd 9961 053e
000003f0: 3e87 00be 01ab 01be 9d0f 973e 3907 9fbe
-0.033192888 0.012012294 -0.33729982 -0.08677143 0.022015536 0.11319545 -0.16696206 0.06703892
-0.028215291 0.04492296 0.008069243 0.15506047 -0.073306926 0.027750064 0.013263291 0.012965725
0.040233493 -0.024944182 0.0049689733 0.101347335 -0.17691047 0.08633708 0.18600914 0.046482757
0.009727194 -0.010254215 -0.04888965 0.030301984 0.26905757 0.1434546 0.073921286 -0.08379674
0.05060744 -0.02193115 0.07927303 -0.13542897 0.010677897 -0.059266318 0.110226944 0.100918785
-0.54247326 -0.05485145 0.081775226 0.009998829 0.12762998 0.0897597 0.044417895 -0.09775882
0.0882295 -0.25360286 0.07611946 0.08380861 0.1346163 -0.05162092 0.0560865 0.0020658763
-0.06197845 -0.06714556 -0.09198206 0.03838017 0.14023188 -0.014668432 0.045293543 -0.0025697637
-0.0074668913 0.071430415 0.1303878 0.10809012 0.018829107 -0.0013488808 0.0220069 -0.020698765
0.052895278 0.07090784 0.019621676 -0.17361213 0.12833709 -0.060735367 0.0009940239 0.07084491
0.07228745 0.04730743 -0.08178697 -0.023478767 -0.08460274 -0.0069032954 -0.71406645 -0.01323047
-7.252332e-05 0.019336885 0.10055966 0.014439727 0.079570256 0.0984754 0.05785509 -0.05406476
0.041919775 0.010274945 -0.041096125 -0.032756113 -0.22757192 0.12137477 0.13225606 0.032142222
0.0012642818 0.13541889 -0.070218295 0.032550205 0.12552221 -0.025519338 0.058745574 0.17030492
0.4083093 -0.17820562 0.11697278 0.020227296 0.13145126 -0.16536331 0.050868902 -0.017558929
-0.061841846 -0.038171127 -0.07694016 0.003469769 0.17365947 -0.010862484 -0.005604892 -0.07584444
-0.0113542285 -0.0038514056 -0.14470552 0.092701346 -0.1561769 0.0132402675 0.04719636 -0.0060766456
-0.188543 0.087199286 0.1315331 -0.06610545 -0.027141288 -0.012593003 0.023131574 -0.22900836
-0.06632405 0.07284015 -0.023200834 -0.037767995 -0.112434685 0.08847479 -0.026401758 0.07308106
0.15482189 -0.10166975 -0.058731608 -0.13149245 0.031950235 0.072543584 -0.14944229 0.024454333
-0.12949032 -0.15294653 -0.1321334 0.08684585 0.11502244 0.041279037 0.15077616 0.059522267
0.07098251 -0.048752964 0.05773223 -0.079482496 0.09115839 -0.028007673 0.11435093 -0.050982818
-0.11228008 -0.14022759 -0.07196672 0.06486747 -0.04465181 -0.01291113 0.011889073 0.0048671924
0.014793239 -0.153542 0.12370227 -0.042248197 0.046214167 0.014005245 0.016075663 0.11945098
-0.11375919 0.10686615 0.0056643384 0.09185321 -0.12204465 0.0007904109 -0.031646594 0.02228073
-0.01578646 0.03432302 0.1119466 -0.051249355 -0.13246997 -0.29931867 0.04338766 -0.030378336
0.017334279 -0.06149523 0.009024733 0.04160882 -0.016976608 0.009005294 0.12430682 0.00958741
0.017534276 0.019467397 0.15520746 0.036381252 0.12353142 0.0080697145 -0.040893946 0.05466543
0.061948247 0.013054882 -0.07383522 -0.044620387 0.10054491 0.13088955 -0.04311099 0.046861004
-0.020470511 0.019092554 0.08456825 0.04387444 -0.07084095 -0.05925913 -0.07084532 0.00790881
0.02609436 0.00071018765 0.12502283 0.028084481 -0.03617216 0.112161934 -0.07647379 0.07334298
0.022727164 -0.00047770896 -0.07464741 0.13025512 -0.12551591 -0.12662889 0.295041 -0.31060198

model.2.bias f4 [256]
00000000: 8a8b cd3d 73fa e33c 517b 213c e304 31bc
00000010: d493 983d e978 0b3d 58fb 443d 29bc b13d
00000020: 5f6f 63bd 8f4c 803c e2ed 0bbe a57c 043d
00000030: a1a5 13bd bcce 2f3d 203b 933d 465f d13d
00000040: 6230 e6bc 8ecd cebc a57a f5bc 2a36 69bd
00000050: b648 55bd be92 b93c bd55 8dbc f3cf ac3d
00000060: 5446 f1bc fccf a5bc b686 b63d a0bf b8bc
00000070: 5fac 13ba 8e46 7abd 6c11 c5bb 6de9 463c
00000080: be7f aa39 463f 1abd ee2d 4b3d f5ba 11bd
00000090: 414a 06bc bb54 45bd 8858 87b8 f791 5fbd
000000a0: 10ee 053d c44d 983a 501b c7bb f7e0 473c
000000b0: 070a d1bc 1e64 94b9 15f0 19b9 5fbb 02bd
000000c0: 5c78 493d 38e6 7d3c a140 81bd 37e2 4dbd
000000d0: 72c1 603d b21b 72bd 7afe 79bc f033 9dbd
000000e0: 9014 643b d3d9 7c3d 4311 25bb 7acf 893c
000000f0: 8080 30bd f77d 493d d78a 303d b0b2 cdbb
00000100: 5817 5bbc 5111 dfbd b914 203d fc3d a73d
00000110: 3f76 b8bc 2719 483d f746 d03c deb4 203d
00000120: aa8d 4ebd bea5 0b3d 256c c53b cbfd a43b
00000130: 059a b3bb f5fa 493d e230 e13d 4cf2 e63c
00000140: ae80 dabc ed2e 253c bb99 843d 42f8 c13d
00000150: d849 51bd 3eec 343d 75ff 0a3d d364 9f3d
00000160: 1659 1fbc c597 8c3c 1f3a 6ebc bead abbb
00000170: aa58 0ebd 4d1d 233d bf68 3e3d 8809 9a3d
00000180: dc35 923c 5150 7fbd 35d1 4b3c 6f7e dcbc
00000190: f41a 1cbd b4fe 1fbc 3d9d e93c ab3a 023d
000001a0: 8fbb 9fbd 357d 123d 93ea a33b 2471 6b3d
000001b0: 8073 313c 04d8 14bd 3ae2 f8bc 904c 283d
000001c0: 108d 173d 2d2d d63c fb06 8cbc 4322 843d
000001d0: 137c 3ebd ed7e 2dbd 325b 1cbc 751a 3abd
000001e0: 2d02 dd3c d719 1cbd cd04 793d fce6 cabb
000001f0: d4d9 c63c 0a7f efbc 2c7f 8ebd 3fcf 2e3c
00000200: dd0a 783a 7dd8 08bd c783 3fbd bd6d 9ebc
00000210: 2a44 d23d b706 e7bd 1050 473d df0f 62bd
00000220: 0bc3 4d3c 3138 82bd d9d7 bcbb 3389 7e3d
00000230: cb70 b83d 05d8 98bd 7320 bf3d 40e5 a03c
00000240: 3b9a e83d a83f b33d e54e 16bd c526 723d
00000250: d522 453b 4905 39bd 6e00 bd3c ce08 393c
00000260: bed0 d2bc ed30 ff3b 029c 15bd 26bc 813d
00000270: fa58 93bc 9719 b63d c332 99bd d580 36bd
00000280: 16ef f43b 15a7 47bd 2de5 b2bc ead2 69bd
00000290: c497 363d 64fc 2bbd 63a4 ccb7 5f3b ef3c
000002a0: 08c5 9f3c f78d 103d 6ae8 923d cc99 7c3d
000002b0: bf77 8f3c 5c71 0cbd b597 05bd b655 6e3d
000002c0: bd27 283d 1721 e63c 4048 dfbd 6404 923c
000002d0: d0d9 75bc 907c d83d 96a8 86bc c27e fdbc
000002e0: a7fb 4f3a 461e 88bc 0ccb 943d 04a5 efbc
000002f0: 050a 193d 3fda 25bc 3ba2 edbc 5f0e 2c3d
00000300: a247 1fbd 6f6d 3d3d 3e39 f0bc 34e9 93bc
00000310: d8ee 0f3d f4a4 933d 2f7b e43c ea17 8c3d
00000320: 0510 ab3d 64f9 dc3c ea5f 663d 3cab 163d
00000330: 4927 a13b 8fab 81bd 785d 76bc eb69 10bd
00000340: 6311 00bd b729 89bc 6e14 043d 309c 41bd
00000350: f0dd 8a3d ee03 0d3d 1178 afbb d600 033d
00000360: 30b8 a43c 9177 02bd e852 173d 6ef2 fbbc
00000370: cd97 a33c a707 213d 3642 2a3d 9302 78bc
00000380: d92a 1c3d fd4d 56bb e8d1 aa3d f15e 8bbc
00000390: e269 e13c 5627 133d be87 66bc df5b 11bc
000003a0: 1b1d 2b3d a2a0 553d 052c e3bc db70 933c
000003b0: 611c df3b 439b 763d 5b96 153d 61ce f7bb
000003c0: 1908 4dbc 2573 a43c 305b 1bbd e028 ca3b
000003d0: c49c bbbb 3c42 6c3d 32ca 30bd e113 0fbc
000003e0: 7605 393d 43b3 0f3c fac1 a9bd 557c 23bd
000003f0: dbbf e03c c0ae 9cbb ec71 27bd db25 1cbd
0.100363806 0.027829384 0.009856061 -0.010804388 0.07450071 0.034050856 0.048091263 0.08678467
-0.055526134 0.015661506 -0.13664964 0.032345433 -0.036046628 0.042921767 0.071890116 0.1022325
-0.028099243 -0.0252445 -0.029965708 -0.05693642 -0.052071296 0.02265298 -0.017252797 0.08438101
-0.02945248 -0.020240776 0.08912413 -0.022552311 -0.000563329 -0.061102442 -0.0060140397 0.012140614
0.00032520102 -0.037658 0.04960435 -0.035578687 -0.008196414 -0.04817651 -6.453792e-05 -0.054582562
0.032697737 0.0011619856 -0.006076254 0.012199632 -0.025517477 -0.00028303353 -0.00014680655 -0.031916972
0.04918705 0.015496783 -0.06311155 -0.050264563 0.054871984 -0.059108444 -0.015258426 -0.07675922
0.0034802295 0.06173117 -0.002518729 0.016822565 -0.043091297 0.049192395 0.043101158 -0.0062774047
-0.013372265 -0.10891975 0.039082263 0.081661195 -0.022517322 0.048852112 0.025424464 0.03923499
-0.05042807 0.03409361 0.0060248547 0.0050351373 -0.005481007 0.049311597 0.10995652 0.028191708
-0.026672687 0.010081989 0.06474634 0.094711795 -0.051095814 0.04417061 0.03393503 0.077829026
-0.00972583 0.017162213 -0.014540224 -0.0052392175 -0.034752525 0.039822865 0.046486612 0.07521349
0.017847948 -0.062332455 0.012440016 -0.026915757 -0.038111642 -0.009765316 0.02851736 0.03179423
-0.07799446 0.035763938 0.0050023287 0.057480946 0.01083076 -0.03633882 -0.03038131 0.04108864
0.036999762 0.026144588 -0.017093172 0.064518474 -0.046505045 -0.042357374 -0.009543227 -0.045435388
0.026978577 -0.03811058 0.060795594 -0.0061920863 0.02427379 -0.029235382 -0.0695785 0.0106695285
0.0009462068 -0.033409584 -0.046756532 -0.019339437 0.102669075 -0.11280578 0.048660338 -0.055190917
0.012558709 -0.06358374 -0.0057630357 0.062142562 0.090058886 -0.074630775 0.09332361 0.019640565
0.11357542 0.08752376 -0.036696333 0.059119005 0.0030080576 -0.045171056 0.023071494 0.011293603
-0.025734302 0.007787815 -0.036525734 0.063347146 -0.017986763 0.088915996 -0.07480385 -0.044556458
0.0074747903 -0.048743326 -0.021837795 -0.05708591 0.04457833 -0.041988745 -2.4395244e-05 0.029203115
0.019503132 0.03529164 0.07173236 0.06167011 0.017513154 -0.034287795 -0.032615382 0.05818721
0.041053522 0.02809195 -0.109024525 0.01782436 -0.015005544 0.105706334 -0.01643781 -0.030944232
0.00079339225 -0.016615998 0.072652906 -0.02925349 0.03736307 -0.010122835 -0.029008022 0.042005893
-0.038886674 0.046246942 -0.02932417 -0.018055536 0.03513989 0.07209197 0.02789077 0.06840499
0.08352665 0.026974387 0.056243815 0.036784396 0.0049180132 -0.0633155 -0.015036933 -0.03525726
-0.03126658 -0.016743524 0.032246046 -0.047268093 0.067806125 0.034427576 -0.005354889 0.03198322
0.020107359 -0.03185231 0.0369443 -0.030755248 0.019969845 0.03931394 0.04156705 -0.0151373325
0.0381268 -0.0032700293 0.08340818 -0.017013045 0.02751631 0.035926186 -0.014070449 -0.008872001
0.041775804 0.052155145 -0.027730951 0.01799815 0.006808803 0.060206663 0.036520343 -0.007562444
-0.012514138 0.020074436 -0.03792876 0.0061694235 -0.005725475 0.057680354 -0.04316158 -0.008732767
0.045171224 0.008770767 -0.08288951 -0.039913494 0.027435234 -0.004781574 -0.04088013 -0.03812204

model.4.weight f4 [256, 256]
00000000: f5c9 1abe f634 033d 9ff5 93be aae5 0d3d
00000010: 0019 bcbd de23 21bd 630f 50be 4b68 6abe
00000020: 372c a4bb a102 d6be 54dd 873c 5f51 193d
00000030: 7869 2fbe 46b6 0cbd ee87 64bd 84e0 093e
00000040: 7525 0fbe 8115 093c 23a2 1fbd bd48 8fbc
00000050: de3a 85bd e348 1ebe 9d12 7dbd 52bc 87bd
00000060: 6263 1fbd 786f b83c 66ae d4bb e906 b93c
00000070: 62ad bdbe a985 4a3d 7cd9 59be 03a6 57be
00000080: 5221 46be 9413 24bd 3187 8f3d 0d68 bfbd
00000090: d617 0fbd fc31 0cbe 78bc 8abd 451f 1a3d
000000a0: 0dbb 54be c72c 4dbf 0fbe f03d a1ed 81be
000000b0: aaee bcbd e037 82bf a2f0 91be 7895 293d
000000c0: 96e8 583d 110a 3cbc e849 3b3d 1fd7 bc3d
000000d0: b512 6b3d 08d3 053d 38c7 c73d 3820 c3bd
000000e0: f532 2dbd 5c1a fe3a 3afb c5bd 47f9 0abe
000000f0: 4fcb 433c 41c3 293b e0bf 963c 96a0 913c
00000100: b714 633d e4a3 ccbc 1fcf cdbc b3e4 eabc
00000110: 5e78 d23c ee9e 2f3c 9fea ddbe 7d68 853b
00000120: 3808 a3be f2d4 25bd 27d6 7f3d 9925 32bd
00000130: 136d 6cbd 1947 973d 8cf1 8cbd 4e62 3a3d
00000140: 2d2f 5b3d 09c8 9c3d 8e49 1d3b 084a 71bd
00000150: 8699 a1bc 7982 05bd bd82 d23c f875 193d
00000160: b355 383d 1b04 323e 24c6 9fbd 5f02 053c
00000170: b1fd 9f3c e00a 833d c3af 85bd cb23 00bf
00000180: f6c6 eebe 2b96 ecbe 7c71 b8bd ffa4 d43c
00000190: 45b2 8fbe 0bc5 ffb9 afbb 2b3d 159a 5dbe
000001a0: 1fb0 c83d d2d4 c6be 6f6b d33c be97 03bd
000001b0: e4d4 283e e142 e33e e82b 153d 014f d7ba
000001c0: 278f ab3e ed78 f7bd 0534 5d3d 18b5 003c
000001d0: 2ce1 763c 1248 3f3d 534f 88bd f454 373d
000001e0: f05e 5fb8 f2b8 0dbe 5ca6 93bb 6bbd 313d
000001f0: c971 40be b440 e5be b0c6 16bf b9c0 dcbe
00000200: ea71 81bd 0b0c 54be 13cf 99bc bb14 7cbc
00000210: 28d5 943d 5332 d93d e384 56bd a0f8 e23d
00000220: 5fa8 013d 2b91 48bd 9e8f a7bd 3417 25be
00000230: 6876 bcbe 76bd 433e d7ac e8bc dfdf 11be
00000240: 1232 323e ae8b 64bd 5cc5 fc3c 1281 73bc
00000250: f212 43bd 4d97 123e e8c7 453c 5e6e 223d
00000260: b00e f03d ffef 193d 3332 3bbd 95cc 2a3c
00000270: 24d6 09bd 80da 1ebe d937 823b 51bb a0be
00000280: 7da3 153c e493 3f3d a106 5bbd aed1 773d
00000290: edbf d7bd 6f55 1b3d f32a 76bd 14a1 a7bc
000002a0: 7994 25bd a51b 92bd 1d1a 753c ac10 363d
000002b0: ae4a 96be 892a 3fbd 307b 41bd 51ec bb3c
000002c0: 8ed0 93bd 26ab 31be 23ce c9be 8ce6 a3bc
000002d0: ba4c 64be a395 1a3d b269 873d 2ae9 81be
000002e0: 15eb 41bc 7f7c 4dbf 8a4e 23bc 49d8 54ba
000002f0: 3a29 883d ef38 aabd 50a0 6b3e eed8 fbba
00000300: b2f0 843c 2cc9 9bbd 1198 583d 6ac6 acbc
00000310: 2585 93be 4672 723e 6b1d cfbb e307 7cbe
00000320: afdb 99be 1361 f63c 96ca 96bd d280 98bc
00000330: f655 efbd 4313 0f3e cf33 553d 2b97 833d
00000340: 0299 83bd 0fe9 153c 16db b0be d680 023d
00000350: e4c6 193d 8931 c23b 643c b33d 936f f53c
00000360: 42de 82bd 6b94 303d cf83 2abe 7129 1dbe
00000370: ba22 ef3c e2bd dc3c ad71 aabe 83eb 0bbc
00000380: bb38 ddbe 0308 d33c 9844 cebe e07a a3be
00000390: 1383 c53a 49a7 903c 00da d03d 8cc9 d5be
000003a0: 3aac 2d3d 8471 403b b3d4 8ebe e5ee 493e
000003b0: df6a d1be d4be 49be f187 083c 4320 303d
000003c0: 4122 b33d c033 01bf 94e9 f9be 2b09 45bd
000003d0: 2f80 42bb 718f abbc 936a 81bd 6a5a dcbd
000003e0: ec77 2dbd 5dbb 973d ad46 e0bd 1728 b0bc
000003f0: 7bc4 76bd 7a43 f83d 0ff7 8d3c 0163 3d3c
-0.15116103 0.03203293 -0.28898332 0.034642853 -0.09184456 -0.039340846 -0.2031837 -0.22891347
-0.0050101536 -0.4179888 0.01658503 0.037431117 -0.17130077 -0.034353517 -0.055793695 0.13464552
-0.13979132 0.008366943 -0.038972985 -0.017490739 -0.06505369 -0.15457492 -0.06178533 -0.06627716
-0.03891314 0.02251409 -0.0064905165 0.022586303 -0.37046343 0.049443875 -0.2127437 -0.21059422
-0.19348648 -0.040057734 0.070082076 -0.09346018 -0.03493484 -0.13690943 -0.06774229 0.037627477
-0.20774479 -0.8014645 0.11755001 -0.2537661 -0.09225209 -1.0173302 -0.285039 0.04140231
0.052956186 -0.011477009 0.04572478 0.092207186 0.057390887 0.03267196 0.09754795 -0.095276296
-0.042284925 0.0019386518 -0.09667058 -0.13571654 0.011950328 0.0025903734 0.01840204 0.017776769
0.055439677 -0.024980493 -0.025123177 -0.028673505 0.025692161 0.010719044 -0.43343064 0.004071294
-0.31842208 -0.040486284 0.06246009 -0.043492887 -0.05772121 0.07386608 -0.06882009 0.045503907
0.053511787 0.07655341 0.002400014 -0.058908492 -0.019726526 -0.03259513 0.025697106 0.03746602
0.045003604 0.17384379 -0.07801464 0.008118241 0.01953015 0.063985586 -0.065276645 -0.50054616
-0.4663617 -0.4620832 -0.090060204 0.025957583 -0.28065696 -0.000487842 0.041927036 -0.21640809
0.097992174 -0.38834244 0.025808064 -0.032127135 0.16487461 0.44386962 0.036418825 -0.0016426743
0.33507654 -0.12083612 0.054004688 0.007855676 0.015068334 0.04669959 -0.06655755 0.044758752
-5.325576e-05 -0.13840082 -0.0045059156 0.043393534 -0.18793406 -0.44775927 -0.58896923 -0.43115786
-0.063205555 -0.20707719 -0.018775498 -0.015385802 0.07267219 0.10605302 -0.052372824 0.11082578
0.03165471 -0.048966568 -0.0818169 -0.16122133 -0.36809087 0.19115242 -0.028402729 -0.14245556
0.17401913 -0.05579727 0.030855827 -0.014862316 -0.04762549 0.14315529 0.012071587 0.039656036
0.117215514 0.037582394 -0.04570217 0.010424753 -0.033651486 -0.15513039 0.0039739427 -0.3139291
0.009133217 0.0467719 -0.05347312 0.0605027 -0.10534654 0.037923273 -0.060099553 -0.02046255
-0.040424798 -0.07134179 0.014959839 0.044449493 -0.2935385 -0.046671424 -0.04723662 0.022939833
-0.07217513 -0.17350444 -0.39415082 -0.020007394 -0.22294894 0.03774036 0.06611957 -0.25373203
-0.011835833 -0.8026809 -0.009967456 -0.0008119387 0.06648488 -0.083116405 0.23010373 -0.001921443
0.016228054 -0.0760673 0.052879397 -0.021090705 -0.2881252 0.23676404 -0.0063206456 -0.24612384
-0.30050418 0.030075585 -0.07362859 -0.018616114 -0.116863176 0.13972192 0.05205136 0.064253174
-0.06425668 0.009149804 -0.3454215 0.03186115 0.037543193 0.005926315 0.08751753 0.02996043
-0.063900486 0.043110292 -0.16651843 -0.1534784 0.029191364 0.026946012 -0.33289853 -0.008540037
-0.43207344 0.025760656 -0.40286708 -0.31929684 0.001506897 0.017657893 0.1019783 -0.4175533
0.042400576 0.0029364536 -0.27896652 0.19720037 -0.4090185 -0.19701701 0.008333192 0.042999517
0.08746768 -0.5046959 -0.48811018 -0.048104446 -0.0029678454 -0.020942422 -0.063191555 -0.107594326
-0.042350695 0.074087836 -0.1095098 -0.021503491 -0.060245972 0.12122245 0.01732972 0.011559249

model.4.bias f4 [256]
00000000: 07d6 4d3d 5197 26bd b46b f33b 4130 9e3d
00000010: 6907 093d d198 c43b d292 0cbd f6bf e2bb
00000020: 1923 9bbd b486 b3bb aefd d2bc 2ca6 c23d
00000030: 20da a33d 8955 0a3c 7bda 1a3d df4b 2fbd
00000040: d136 52bd 9b91 e3bb aae3 05bd 313d 6bbd
00000050: 55a2 263d 2c76 b8bb 5415 803d 2f73 b13d
00000060: fce7 4e3d 1352 853c 0c55 b5ba f1be a83d
00000070: fdc9 e83c 25b1 b53c 6643 86bc 6f46 083d
00000080: 43b5 913d 6bfd 7e3c d149 1e3d 3d44 333d
00000090: 51a4 b23d c25a 003d 581f d5bc 9479 6c3d
000000a0: 29c2 633d 2af2 0fbd 3de7 b63d d9ff 303d
000000b0: 4a76 963c 9763 d43b 671c c9bc 4f55 753d
000000c0: ce32 b9bc 60d4 2ebc 77de 88bd 41a4 7a3d
000000d0: 5c53 413d 410a 5abd d57f 16bc 7a55 98bd
000000e0: 098c 253d 3273 a73c 3cff 993b 433b 7f3d
000000f0: fc10 613c fac7 e83d c5f2 6b3d 9d32 a03c
00000100: 5861 bbbc b28a 663d d25b 2c3c 0aad a23c
00000110: 079b eb3d 46bd 73bb 5f8d cd3d 6cb7 99bb
00000120: 87eb 8c3b 44a4 283d 45c0 473d e29e c3bc
00000130: 8516 213e ae5a e6bc ae31 c3bc 570e 953d
00000140: bcb0 8fbb ec99 84bd d642 87bb c83a 9bbd
00000150: 4656 a33d 07db 633d f36c 87bd 2d7b 21be
00000160: 308a ac3c 60c6 7a3b 9f9d ae3c ec8a 1ebc
00000170: 5303 9c3d c409 003d 9222 2f3c c260 b63c
00000180: 7c31 ef3d e676 1d3d 46c7 87bc 0ff6 df3d
00000190: b9ce 57bc 7724 5d3d 0b40 9abd d3ec 13bd
000001a0: ed7c 8d3c 43bb 9e3d 03c6 f83b 942d 9abc
000001b0: ad8e 20bd 2db2 833d 5abe 1fbe 51bc b4bd
000001c0: 7dfa 3cbd 59f8 3b3c e6c7 cd3c 28ff c63c
000001d0: b3a9 81bd 6d33 b83c 72d5 003d f255 33bc
000001e0: aea7 363c 9632 cebc 81c6 25bd 9dea 3dbc
000001f0: ed68 dcbc d632 913d 6341 e5bc b679 0d3d
00000200: a5a4 793c a2c3 073d 2e9c ae3d bec7 06bd
00000210: cf07 64bc fc4a 043d 352f a1bb a1cc 3b3d
00000220: b7d8 c13d cdfe cc3b a77e d9bc cffa 65bd
00000230: 7e26 003c 1d52 fe3c ea66 c4bb ce82 0abd
00000240: db19 94ba 3791 e2bc 9464 eb3c cf3a 463d
00000250: 3de4 dd3c f0c4 90bc b648 d63c f581 34bc
00000260: 14be 80bc 96fa 823c 5f34 15bd f8b6 243c
00000270: 1122 86bd 902f 9b3c f7a9 733d a9fa dabb
00000280: 6aea a13b efe0 c13c 39a8 a13d 2777 acbc
00000290: cb5c 1cb8 5be1 c93d 0417 df3c 349b e73d
000002a0: 9c04 16bd 3b89 87bc f2d5 c9bd 32f5 853d
000002b0: 71b5 8d3c 146f 97bc 9876 9c3d f98d 5a3d
000002c0: 637a 1fbc 1562 353d d07f bf3d fad1 59bc
000002d0: 5849 823d bf5f f03c 5c3d 5e3d d845 81bd
000002e0: b5f2 b5bc 2a08 debc e792 c4bc f4a7 12bd
000002f0: bd8e 8f3d eb29 7cbc 6eaf bdbc 5d20 b6bd
00000300: f43b dfbb 7be9 e23c 1b88 413d c301 173b
00000310: ef33 9f3d cc24 243d e736 c23c c69d ed3a
00000320: 8e01 383c b6cf 733a 2ac3 953d 8aef 0d3d
00000330: 4ff9 20bd 05bf 24bd 3e31 e9bb a7f3 ffbc
00000340: a975 3dbd 4d4c f23c 4ab6 603d 1d26 3b3c
00000350: a0fa 453c f4da 943b b51e b9bc 366d 693d
00000360: 8aad 60bd f6ff 8dbd 4cd4 89bd 7b08 a63d
00000370: f0c2 533c 102d 3dbd af22 cf3d a2fd 383d
00000380: 17ff 9b3d caff 203c d204 35bd f2b5 5d3d
00000390: ffac 143d a646 e93d d2dd f3bc bbf4 b13d
000003a0: 885e 36bd e3b5 843d c811 febc 09e1 1abd
000003b0: 93fd a5bc 7012 35bd 7f6c 8e3d 749d 753c
000003c0: e856 1dbd da76 ec3c 937b 15bd 4925 d43c
000003d0: d8eb 223d 40a4 b3bc 2129 393d e1a5 91bd
000003e0: 002d 203d d3f9 a83c cd7c 51bd 3b29 793d
000003f0: 3675 8fbc 8d93 2ebb 0a7e e93d be6c ebbc
0.05025294 -0.04067165 0.0074286107 0.077240475 0.033454333 0.0059996624 -0.034319706 -0.006919856
-0.07575054 -0.0054787043 -0.02575573 0.09504351 0.080005884 0.008443245 0.037806015 -0.042796966
-0.05132181 -0.0069448478 -0.03268782 -0.057431404 0.040682156 -0.0056293216 0.06254068 0.08664548
0.050514206 0.016274488 -0.001383455 0.08239544 0.028416628 0.022179196 -0.01638956 0.033270296
0.07114651 0.015563349 0.038644616 0.04376625 0.08722747 0.031336553 -0.026015922 0.057733133
0.055605087 -0.035143055 0.08930824 0.043212745 0.018366951 0.0064815986 -0.024549676 0.05989581
-0.022607233 -0.010670751 -0.06683057 0.0611918 0.04719864 -0.053232435 -0.009185751 -0.07438178
0.04041675 0.020440672 0.0046996158 0.062312376 0.01373696 0.113662675 0.05760457 0.019555384
-0.022873566 0.056284614 0.010519939 0.019857902 0.115041785 -0.0037191673 0.1003673 -0.004691055
0.004300538 0.04117228 0.048767347 -0.023879472 0.15731247 -0.028119411 -0.0238274 0.07278126
-0.004385082 -0.06474671 -0.0041278405 -0.07579571 0.0797544 0.055628803 -0.06612577 -0.15769644
0.021061987 0.0038265213 0.021315394 -0.009676676 0.076178215 0.031259313 0.010689395 0.022262935
0.1167936 0.03844347 -0.016574513 0.10935604 -0.013171845 0.053989854 -0.075317465 -0.036114525
0.017271483 0.07750561 0.007591964 -0.018820561 -0.039198566 0.06430469 -0.15599957 -0.08824981
-0.04613732 0.011472785 0.025119733 0.02429159 -0.06331196 0.02248546 0.031453557 -0.010945784
0.011148376 -0.025170606 -0.04047251 -0.011591581 -0.026905501 0.07089774 -0.02798528 0.0345399
0.015237008 0.033145554 0.08525883 -0.032905333 -0.013917877 0.032298073 -0.0049189576 0.045849446
0.09465163 0.0062559606 -0.02654965 -0.056147393 0.007821677 0.031045014 -0.0059937136 -0.03381615
-0.001129921 -0.027657134 0.028734483 0.048395928 0.027086372 -0.017672032 0.026157718 -0.011017312
-0.015715636 0.01598863 -0.036426898 0.010053389 -0.065494664 0.018943578 0.059488263 -0.006682713
0.0049412744 0.023666827 0.07893414 -0.02105291 -3.727972e-05 0.09857436 0.027232654 0.113088995
-0.03662549 -0.016544929 -0.0985526 0.06540908 0.017298432 -0.018485583 0.076398075 0.053358052
-0.009733769 0.04428299 0.0935055 -0.013294691 0.063616455 0.02934253 0.054257736 -0.0631215
-0.022210458 -0.027103502 -0.02399583 -0.035804704 0.07009647 -0.015390853 -0.02315494 -0.088928916
-0.006812567 0.027699223 0.04724894 0.0023041822 0.077735774 0.040074155 0.02370782 0.0018128685
0.011230839 0.00093006657 0.07312615 0.03465227 -0.03930026 -0.040221233 -0.007116466 -0.031244112
-0.046254788 0.029577399 0.054861344 0.011422661 0.012083679 0.004542703 -0.02259765 0.056988917
-0.054853 -0.06933586 -0.067299455 0.08107086 0.012924895 -0.046185553 0.10114037 0.045163758
0.07617014 0.00982661 -0.04419405 0.054128595 0.036297794 0.11390428 -0.029768858 0.08689257
-0.044523746 0.06480005 -0.031014338 -0.037812266 -0.020262515 -0.044207036 0.06954288 0.014991153
-0.03841296 0.028865267 -0.036494803 0.025896685 0.0397757 -0.021928906 0.04520524 -0.07111717
0.039105415 0.020626938 -0.05114441 0.060830336 -0.017511945 -0.002663824 0.11400993 -0.028738376

model.6.weight f4 [1, 256]
00000000: 7e8a febe 3422 fdbd 9f2d 29bd efac 243e
00000010: 106c fdbd 295a 883e 3fb9 65be 1dd9 f03d
00000020: 5251 f4be 275e c83b cef6 31bc 3789 bf3e
00000030: e535 a13d a94e 7dbe 47d2 c33d a6e0 debe
00000040: 2a6d f0bd 405d 9abe f87e 613f 6b88 bfbc
00000050: dbff e03e 192c 0ebd e19b 2c3e 1fd9 25bf
00000060: 9016 d83e 0798 35bd 23fd 0e3e d5af 693e
00000070: c6f4 423f c1f8 8f3d f051 063f 9335 4abd
00000080: 613b 213e 53f3 1f3f 16c6 833e 4512 ba3d
00000090: dd82 9f3e 86c5 4fbe 12ff a9ba 1bc8 56bd
000000a0: f20c f53d 1bc7 00be 7324 6b3e 464c d2bd
000000b0: 1c2f 77be fea1 4a3e 6d3b 08bf 4dab 81be
000000c0: e9e2 a4be 2383 b3be fe93 19bc ca46 4bbe
000000d0: 77b3 f2be bc69 8fbd 41cf 063e 2c8b 64bd
000000e0: ca3d cabe 5525 36be 003a 06be ceb0 2bbe
000000f0: 8b8d d7bd c45e ea3e cbb2 a3bd ab70 e6bc
00000100: a7e0 2a3f 0052 e93d a30d 70be 78a1 ffbd
00000110: c6cf 383e 5c2b d13d 0faa 053e d3b5 a6be
00000120: 49fd 1c3f e730 3a3e 1c15 94be bf53 02bf
00000130: e36a b1be d67e 643f 32fb afbc 3da8 c23d
00000140: 2e7f 52be f7c7 5b3d 0878 dcbd b1cb 993e
00000150: d4fe 963e debe d63d bba4 3a3d 3ef0 ef3e
00000160: 1483 203e ecb9 f83d d07b 013e 161f acbe
00000170: dff8 cb3d 9a39 cdbe 4702 ae3e 46f9 693e
00000180: d436 a13d 62a2 b9bd 79df b3bd e3b0 f13d
00000190: 2c8d a33e 65e7 52bf 2ffc a5be 6642 79bc
000001a0: c7c4 f0be 994e f8bd f465 ecbe 6dab 9f3b
000001b0: 71c2 bbbe fa1d c0be 68e6 fabe 3f4d 06bf
000001c0: 7dd7 26be 201d 043e 3702 d5bc ca23 81be
000001d0: 9986 26bf 6971 fabd e728 2bbe 7c6d 9bbe
000001e0: b73d 1f3e 626d ebbe 5cd2 1cbc 65eb b13e
000001f0: 5cd6 9dbd 7084 273e b79e 03bf 44ee c3be
00000200: 9610 6c3d 85a0 7ebe 6c1f 0a3e d9de ebbe
00000210: 0d2d 89be 04e2 313e bf8b 2abf ab70 c9be
00000220: b406 5e3e 5faa 0e3e efa8 f7bc e7ec 4c3d
00000230: bb53 90bd a224 65be 8497 00be ba07 c73e
00000240: 39dd 833e d2f1 ffbe 2188 2dbe 516d 883e
00000250: 30ca 3cbe 0866 40be 17a8 10bf 60ea 78bd
00000260: e17e 96be edc1 953e 5e9c 4abe a876 983c
00000270: 04ff 01bf f5e8 08be 129a 893e 318d 073f
00000280: 5d15 093e 6376 00bd 0b60 0d3e dc8a 35be
00000290: b449 71be 0ec6 e13d 17a7 37bb 168c 0e3e
000002a0: 153a 77bd f01b 77bd 9a00 4cbf 4e29 6a3e
000002b0: 4c05 f3be df06 7fbd 00b6 db3d c2c0 e83d
000002c0: 5244 353e 03db 4cbe 9575 fd3d 3e68 343e
000002d0: de18 d33e cadc 493e 454e 113e 66cd 22bf
000002e0: 2f2e c43e a61c 183e 4d15 683e 0dde adbe
000002f0: 98c3 f43d 3904 143d 0cb5 44bd 063b 4abe
00000300: 50af ccbe 7358 d03e 54e6 4b3e d7e4 083e
00000310: 0b4d 693e 477d 0f3d b192 413e 26a1 473e
00000320: 8450 453e 3dd4 3cbe 4fbc 67be 004f b83e
00000330: c5dc 10bf 7aa7 02be 1c7a bd3e bfaf 7fbc
00000340: cdf3 7cbe 436b f33d 260f bbbe f287 b4bd
00000350: c9a7 95be eebc 2abe 1c36 55bd cf76 27be
00000360: f882 35be 9273 81be ff8b a3bc 82f5 5d3e
00000370: 7e3e 803e b8b3 b5be e3c5 af3d 25e3 bfbe
00000380: 5158 da3d 12af cf3e f3db 9fbc 038f f53d
00000390: 622e c5be 8367 b83e 4c5d 3d3c cfa1 f9be
000003a0: 038c bb3b 1fc9 043f 3b4c 61be 4f4e c1be
000003b0: 996c 6d3e f819 47bd ef91 e13d 79e5 a3be
000003c0: 9d91 a8be 6b02 d13e c6ab c9be e182 06be
000003d0: a46b 80bf dff1 473e 4d89 8d3e 955b c0be
000003e0: 8247 083e d081 e4bd 5b68 dbbe 4fc3 193e
000003f0: 1e4b 5ebe 1b3f 1b3e 44b5 133e 4e9d 443e
-0.49715036 -0.12360039 -0.041303273 0.16081594 -0.12374127 0.26631287 -0.22433947 0.11760161
-0.47718292 0.0061147395 -0.0108620655 0.37409374 0.07871608 -0.24737038 0.095615916 -0.43530768
-0.117395714 -0.3014927 0.88084364 -0.023380479 0.43945202 -0.034710024 0.16856338 -0.64784425
0.42204714 -0.044334438 0.13963751 0.22820981 0.76154745 0.07029868 0.52468777 -0.0493675
0.15745308 0.6248066 0.25737065 0.09085516 0.31154528 -0.20290193 -0.0012969694 -0.05243693
0.1196536 -0.12575953 0.22963123 -0.10268454 -0.24139065 0.19788358 -0.53215677 -0.25326005
-0.3220437 -0.35060987 -0.009373663 -0.19851223 -0.47402546 -0.07002589 0.13164999 -0.055796787
-0.39500266 -0.17787679 -0.13108063 -0.16766664 -0.10525044 0.45775425 -0.079930864 -0.028129896
0.6674904 0.113925934 -0.23442702 -0.124819696 0.1804801 0.10213348 0.13053153 -0.32560596
0.6132398 0.18182717 -0.28922355 -0.50909036 -0.3465186 0.89256036 -0.021482084 0.09504745
-0.20556328 0.0536575 -0.10765082 0.30038217 0.29491293 0.10485624 0.045567255 0.46862978
0.15675002 0.12144837 0.12644887 -0.33617467 0.09959578 -0.4008301 0.33986112 0.22848997
0.07871786 -0.09064175 -0.087828584 0.118013166 0.31943643 -0.8238433 -0.32418963 -0.0152135845
-0.4702513 -0.12124366 -0.46171534 0.0048727305 -0.36671785 -0.3752287 -0.4900391 -0.5246162
-0.1629314 0.12901735 -0.026002033 -0.25222617 -0.6504913 -0.122286625 -0.16714822 -0.30356967
0.15550886 -0.4598189 -0.009571638 0.34749904 -0.077069014 0.16359115 -0.51414055 -0.3826772
0.057633005 -0.24865921 0.13488549 -0.46068457 -0.26792184 0.17371374 -0.66619486 -0.3934377
0.21682245 0.13932179 -0.030231921 0.050030615 -0.0704722 -0.22377256 -0.12557799 0.38873082
0.25754717 -0.49989182 -0.1694646 0.26645902 -0.18436503 -0.18788922 -0.56506485 -0.060770392
-0.29393676 0.29249516 -0.19786212 0.018611267 -0.5077975 -0.13370116 0.2687536 0.52949816
0.13387056 -0.031362902 0.13806169 -0.17728752 -0.23563272 0.11024104 -0.0028023177 0.13920626
-0.060358126 -0.060329378 -0.7968842 0.22867319 -0.4746498 -0.062262412 0.10728073 0.11364891
0.17701843 -0.20005421 0.123759426 0.1761789 0.4122991 0.1971313 0.14190014 -0.63594663
0.38316485 0.14854679 0.22664376 -0.33958474 0.11951369 0.03613684 -0.048024222 -0.19749078
-0.39977503 0.4069248 0.19912082 0.13368545 0.22783296 0.035031583 0.18903615 0.19495067
0.19268996 -0.18440337 -0.22630428 0.35997772 -0.5658687 -0.127592 0.37007225 -0.015605866
-0.24702378 0.11885693 -0.36534995 -0.08814992 -0.29229572 -0.16673633 -0.052053556 -0.16353916
-0.17725742 -0.25283486 -0.019964216 0.21675685 0.25047678 -0.35488677 0.08582666 -0.37477985
0.10661376 0.40563256 -0.01951406 0.11990168 -0.3851195 0.36016473 0.011557888 -0.48756263
0.005723478 0.51869386 -0.22001736 -0.37755057 0.23185958 -0.04860875 0.11014163 -0.3201101
-0.32923594 0.40822157 -0.39388865 -0.13135864 -1.0032849 0.1952586 0.27643815 -0.37569872
0.13308528 -0.11157572 -0.42853054 0.1501591 -0.21708342 0.15160792 0.14424616 0.19200632
