data/checkpoints/rlgym-ppo-run-1760456897712836600/14905254/PPO_VALUE_NET.pt (torch, 623393 bytes, 7 tensors)

model.0.weight f4 [256, 89]
0	0xbd66eec5	-0.056380052
1	0xbd1e5335	-0.03865357
2	0x3d80759c	0.06272432
3	0xbe4f544a	-0.20246997
4	0xbe218c62	-0.15776208
5	0x3d0b3786	0.0339885
6	0x3dbc348f	0.09189712
7	0xbe6293df	-0.22126721
8	0xbcec3b4f	-0.028836874
9	0xbd272867	-0.040810015
10	0xbd780fbb	-0.060561877
11	0x3d5084f3	0.05090804
12	0x3ca95a1b	0.020672848
13	0x3d7d9b08	0.061915427
14	0x3bd5942a	0.0065179067
15	0x3cdd5e3c	0.027022474
16	0x3d942553	0.072336815
17	0xbca061a6	-0.019577812
18	0x3d8b22ae	0.06793724
19	0xbce8d497	-0.028421683
20	0xbd9f3178	-0.07773107
21	0x3d96c4be	0.07361744
22	0xbcd711bb	-0.026253572
23	0x3cf564fd	0.029955382
24	0xbb356804	-0.0027680406
25	0x3d17542b	0.036945503
26	0x3d7c9b2f	0.061671432
27	0xbd41ae3a	-0.047285296
28	0xbc1cb75c	-0.009565201
29	0xbddd070c	-0.1079236
30	0x3cf34ae5	0.029698798
31	0xbd9f24b2	-0.07770671
32	0x3d082fcb	0.033248704
33	0xbcb954e6	-0.02262349
34	0x3d5a5c08	0.053310424
35	0x3db2decc	0.087339014
36	0x3d03a415	0.032138903
37	0x3d5937dc	0.053031787
38	0xbc25df38	-0.01012402
39	0xbd78b920	-0.060723424
40	0xbd8aad57	-0.06771343
41	0x3dbfc156	0.09363048
42	0xbcecc17e	-0.028900858
43	0x3d8e3a9d	0.06944773
44	0x3d38ba7f	0.04509973
45	0x3d047ff2	0.03234858
46	0xbdc146fb	-0.094373666
47	0x3dcf3798	0.101180255
48	0xbd9b4bb9	-0.07582802
49	0x3da9bbc0	0.082877636
50	0xbd03dcdd	-0.032193054
51	0x3dba5b36	0.09099428
52	0x3d694e8e	0.05695968
53	0x3da164b6	0.07880537
54	0x3d1fb667	0.03899231
55	0xbd7acc03	-0.061229717
56	0x3d1fabe5	0.03898229
57	0x3adea02a	0.0016984988
58	0x3c88dcfc	0.016706936
59	0x3cb042d3	0.02151624
60	0x3cd9ebb0	0.026601642
61	0xbcd9c1d9	-0.026581692
62	0x3db9757b	0.09055611
63	0x3db792db	0.08963557
64	0xbd7213a1	-0.05910075
65	0xbdc608b8	-0.09669632
66	0x3d8b5b17	0.068044834
67	0xbb8fa1fb	-0.0043833232
68	0xbd2eb27e	-0.042650692
69	0x3d0c17bd	0.034202326
70	0x3addf2ad	0.0016933285
71	0xbd040d9d	-0.032239545
72	0x3d16ac34	0.03678532
73	0xbc9998a3	-0.01874954
74	0xbdb213e4	-0.086952
75	0x3c874222	0.016511027
76	0xbd8111a5	-0.063021936
77	0x3d5cf78c	0.053947017
78	0x3c71eb5b	0.014765586
79	0xbc8b96c5	-0.017039666
80	0x3d713101	0.058884624
81	0x3d956a7b	0.072957
82	0xbd3e8b4d	-0.046519566
83	0xbdc1986b	-0.094528995
84	0xbd58f986	-0.05297234
85	0x3d811c96	0.063042805
86	0xbc6f80fb	-0.014618154
87	0x3d06fc55	0.032955486
88	0x3c7e76dc	0.015531268
89	0xbe147da8	-0.14501059
90	0x3d8ddee9	0.06927282
91	0xbca30c79	-0.019903408
92	0xbda47374	-0.080298334
93	0xbe39eea5	-0.18157442
94	0xbd4c3731	-0.049857322
95	0x3d36a31d	0.04458915
96	0x3b9608d6	0.00457869
97	0xbd5df80a	-0.054191627
98	0x3d7e4fa5	0.062087674
99	0xbbfa073f	-0.0076302583
100	0x3dce5362	0.10074498
101	0x3b072e35	0.0020626907
102	0xbd89cda8	-0.06728679
103	0xbc5d8b0d	-0.013521922
104	0x3d710718	0.058844656
105	0xbd64476e	-0.055732183
106	0x3b2883c9	0.0025713316
107	0x3daf374a	0.085554674
108	0xbdd57f63	-0.10424688
109	0xbcd93f63	-0.026519483
110	0xbc5d71cd	-0.013515902
111	0x3d390968	0.045174986
112	0x3dabc634	0.083874136
113	0x3c2ff45a	0.01073941
114	0xbda073a9	-0.078345604
115	0x3da80212	0.0820352
116	0xbc80093c	-0.015629403
117	0xbd8cb526	-0.06870489
118	0x3dca225b	0.09869834
119	0xbcf0a171	-0.029373856
120	0x3d46caac	0.048533127
121	0x3d30a90e	0.043129973
122	0x3dc84130	0.097780585
123	0x3d2541cb	0.04034595
124	0xbd8b6408	-0.06806189
125	0x3d797db1	0.060910884
126	0x3be9aeb4	0.007131422
127	0xbd81816e	-0.06323515
128	0xbd9def1c	-0.07711622
129	0x3d3c3858	0.04595217
130	0xbcc168e2	-0.023609582
131	0x3d63bb21	0.055598382
132	0x3cc55f92	0.024093423
133	0x3d03c217	0.03216752
134	0x3db4965a	0.0881774
135	0x3d820455	0.063484825
136	0x3d9ff3ad	0.07810149
137	0x3c921f89	0.017837303
138	0xb98db006	-0.00027024763
139	0x3d175ea1	0.03695548
140	0xbd848b99	-0.06471939
141	0xbdbc17ec	-0.0918425
142	0xbcfc36de	-0.030787881
143	0xbb99aebd	-0.00469002
144	0x3d74d6c4	0.05977513
145	0xbda5c59e	-0.08094333
146	0xbcfcaf8e	-0.03084543
147	0x3d53f5e7	0.051748183
148	0xbdb505e4	-0.08839014
149	0x3c3322a3	0.010933551
150	0x3d7b1e36	0.06130811
151	0x3ddbebb8	0.10738319
152	0x3ced1cdc	0.028944425
153	0x3d7761a8	0.060395867
154	0xbdb24d09	-0.087060995
155	0xbcee724f	-0.029107241
156	0xbd429b5d	-0.047511447
157	0x3b51ab43	0.003199295
158	0x3d723e58	0.059141487
159	0xbd160945	-0.036629934
160	0x3d647efc	0.055785164
161	0x3b5ffd60	0.0034178123
162	0xbce187a0	-0.027530491
163	0x3d881b1d	0.066457964
164	0x3d77c46c	0.060490057
165	0x3d807ab1	0.062734015
166	0x3b64a9f6	0.0034891344
167	0xbdd01d06	-0.10161786
168	0x3d53714f	0.05162173
169	0x3d358d67	0.044324305
170	0x3b159c63	0.002282881
171	0x3d81dc16	0.06340806
172	0xbc9b5315	-0.018960515
173	0x3daad962	0.08342244
174	0xbd8cacb0	-0.06868875
175	0xbb8adcac	-0.004237732
176	0x3d69f220	0.057115674
177	0x3d8f0598	0.06983489
178	0x3d398a0b	0.045297664
179	0xbdfe6970	-0.12422454
180	0x3d23199d	0.03981935
181	0xbc59460f	-0.013261332
182	0xbe4526f7	-0.19253145
183	0x3d9019c6	0.07036166
184	0x3cb16531	0.021654697
185	0xbe269215	-0.16266663
186	0xbbcb0b53	-0.0061964183
187	0xbd0a7811	-0.03380591
188	0x3d07964d	0.033102322
189	0x3cbeae9f	0.023276625
190	0x3d3a0e14	0.045423582
191	0xbd7f1806	-0.06227877
192	0x3c965fd2	0.018356238
193	0x3cf6e18d	0.030136848
194	0x3db1a902	0.08674814
195	0xbd460cc8	-0.048352033
196	0x3d8e9eab	0.06963857
197	0x3d8489ce	0.06471597
198	0x3dc1d17f	0.09463786
199	0x3d8c04ea	0.06836875
200	0x3da8910f	0.08230793
201	0xbd72906e	-0.05921977
202	0x3d776ec5	0.060408372
203	0xbdb8a7d9	-0.090163894
204	0x3db06df0	0.08614719
205	0xbd02ba44	-0.031915918
206	0xbd5aad7d	-0.053388108
207	0x3da8899c	0.08229372
208	0x3da81b0b	0.08208283
209	0x3d9af754	0.07566705
210	0xbada29d2	-0.0016644544
211	0xbdd4cd31	-0.103907
212	0x3d08c3cb	0.033389848
213	0xbcbc3d4c	-0.022978447
214	0x3d8fcaee	0.07021128
215	0xbc9f4d60	-0.019446075
216	0x3d55327a	0.05205009
217	0xbdc3a02d	-0.095520355
218	0xbb892a47	-0.004185948
219	0x3c0c2c06	0.008555418
220	0xbd84ed60	-0.06490588
221	0xbd1142bd	-0.035464037
222	0x3d312c2b	0.043255012
223	0x3ca93e10	0.020659477
224	0xbdbcd9f7	-0.09221261
225	0xbdc0757d	-0.09397409
226	0xbd230b7a	-0.039805867
227	0x3c24cbb1	0.010058329
228	0xbd55393e	-0.052056544
229	0x3d866e59	0.06564016
230	0x3d3d184d	0.046165753
231	0x3ca075ea	0.019587476
232	0x3da4592a	0.08024819
233	0x3d119a24	0.03554739
234	0xbbd734ab	-0.006567558
235	0x3d1224ec	0.035679743
236	0xbd16011b	-0.036622148
237	0xbd5540da	-0.0520638
238	0xbd96654c	-0.073435396
239	0x3db4f897	0.08836477
240	0x3be678b5	0.0070334324
241	0x3ce0f026	0.027458262
242	0xbcab9710	-0.020946056
243	0x3cb32d72	0.021872256
244	0xbd15a141	-0.036530737
245	0xbd4fd2ba	-0.050738074
246	0xbd7e86da	-0.062140323
247	0x3d9b5915	0.075853504
248	0x3cddf49e	0.027094182
249	0xbc745176	-0.014912
250	0xbccabcdd	-0.02474826
251	0xbd8328fd	-0.06404302
252	0x3ca6acd4	0.020346083
253	0x3d02b22f	0.03190821
254	0xbca8ab95	-0.02058963
255	0xbc300768	-0.010743953

model.0.bias f4 [256]
0	0x3cae7390	0.021295339
1	0xbdd6595e	-0.10466264
2	0x3d9252ff	0.071447365
3	0xbda0ce52	-0.078518525
4	0x3dd69143	0.10476925
5	0x3c0bb8bc	0.008527931
6	0x3d80d0d5	0.062898315
7	0x3d8ee6f8	0.069776475
8	0xbd044508	-0.032292396
9	0xbdc8ed51	-0.098108895
10	0xbc80b44c	-0.015710972
11	0xbd13d24f	-0.036089238
12	0x3d3bcf94	0.04585226
13	0xbda6bf7f	-0.08141994
14	0x3dc9663c	0.09833953
15	0x3db2c5fa	0.08729167
16	0xbd2fa5b5	-0.04288264
17	0xbdc93b70	-0.0982579
18	0xbd8a9db7	-0.06768363
19	0x3db247c2	0.08705093
20	0x3d29aa50	0.04142219
21	0xbb0eaa6c	-0.002176906
22	0xbd0a088c	-0.033699557
23	0x3d3e640e	0.04648214
24	0x3c9825c2	0.018572692
25	0xbca72d92	-0.020407472
26	0xbd359fee	-0.044341974
27	0x3dc594e1	0.09647537
28	0x3dc0636f	0.093939655
29	0x3d08a264	0.033357993
30	0xbd842ca1	-0.06453825
31	0x3bce8e68	0.0063035972
32	0x3d4f9e8c	0.05068831
33	0x3bccba00	0.006247759
34	0xbd9388b1	-0.07203806
35	0xbda94a89	-0.082661696
36	0xbd9e0027	-0.07714873
37	0xbdbf963f	-0.09354829
38	0xbd78088e	-0.060555033
39	0x3cb76540	0.022387147
40	0xbda14916	-0.07875268
41	0x3d3d1c1e	0.046169393
42	0xbd306376	-0.043063603
43	0x3d2994d6	0.041401707
44	0xbbe30069	-0.006927539
45	0xbc8f7300	-0.017510891
46	0x3d448986	0.047982715
47	0xbce141ba	-0.027497161
48	0x3c3232ce	0.010876371
49	0x3d3e317d	0.046433914
50	0xbd5be266	-0.053682707
51	0x3c01dcb0	0.007926151
52	0x3d791d06	0.060818695
53	0x3d8f0c77	0.06984799
54	0xbdce6152	-0.10077156
55	0xbd9d58a9	-0.07682926
56	0x3d9adb89	0.07561404
57	0x3dbdd797	0.09269636
58	0x3caffc46	0.021482598
59	0x3d90d061	0.07070995
60	0x3c799594	0.015233416
61	0x3d8233f3	0.06357565
62	0xbd078832	-0.03308887
63	0x3d199b03	0.037501346
64	0xbcfe7823	-0.031063145
65	0xbd13d95f	-0.036095973
66	0xbd7cea47	-0.06174686
67	0xbd7861f1	-0.06064028
68	0xbcebd8fd	-0.028789992
69	0x3cd63023	0.026146
70	0x3d01e693	0.031714033
71	0xbd819535	-0.06327287
72	0x3df5242a	0.11969788
73	0x3ddb985f	0.10722422
74	0xbcf97c12	-0.03045467
75	0xbb8c61b2	-0.004284107
76	0x3c58a089	0.013221868
77	0xbc00a123	-0.007850918
78	0xbdda05b5	-0.1064562
79	0xbae1bf0d	-0.0017223075
80	0xbd8d2322	-0.06891467
81	0xbda0b79f	-0.07847523
82	0xbc9a0ede	-0.018805917
83	0xbdc0caeb	-0.094137035
84	0x3d58ecbd	0.052960146
85	0xbd749c63	-0.059719454
86	0x3ccab471	0.024744244
87	0x3d9556ce	0.07291947
88	0x3db8c576	0.09022038
89	0xbd9fe445	-0.07807211
90	0x3cf878cd	0.03033104
91	0x3dc8fe2d	0.09814105
92	0x3bd4ba59	0.006491941
93	0xbd0b85cb	-0.03406314
94	0xbd87aa0a	-0.06624229
95	0x3c473ead	0.012160939
96	0xbda60a2b	-0.08107408
97	0xbd09cfd0	-0.03364545
98	0x3d6788b9	0.056526873
99	0x3cdcc39e	0.026948746
100	0xbc7a8f60	-0.015292972
101	0x3d870613	0.065929554
102	0xbaa5cfdb	-0.0012650447
103	0xbd9b18d9	-0.07573099
104	0x3d31698d	0.04331355
105	0x3a89d63b	0.0010516116
106	0xbcfa3044	-0.030540593
107	0xbd00bfd5	-0.031432945
108	0xbc9296f1	-0.01789424
109	0xbd7592aa	-0.059954323
110	0xbd0faaf8	-0.035075158
111	0x3d6aeea8	0.057356507
112	0xbc8fcda9	-0.017554121
113	0x3cce3c13	0.02517513
114	0x3db594ad	0.08866248
115	0xbdc94907	-0.09828382
116	0x3db452bb	0.08804842
117	0xbd11780b	-0.035514873
118	0xbd7aa22c	-0.061189815
119	0xbd1cb2f5	-0.038256604
120	0x3da5dee6	0.08099155
121	0xbd8a974e	-0.0676714
122	0xbd535fec	-0.05160515
123	0xbd498ed3	-0.049208473
124	0xbcdb8325	-0.026795933
125	0xbd23c4d2	-0.039982624
126	0xbbe8bb49	-0.0071024043
127	0xbc97b78a	-0.018520135
128	0x3da93979	0.08262915
129	0x3d2ed853	0.04268677
130	0xbcfb99e4	-0.03071303
131	0x3cb3df79	0.021957146
132	0x3dea5550	0.11442053
133	0xbccedd5b	-0.025252035
134	0xbdaf893b	-0.085710965
135	0xbd4eeea2	-0.050520547
136	0xbd588ce7	-0.05286875
137	0x3d84fc1c	0.064933985
138	0x3d8253de	0.06363653
139	0x3db231ff	0.08700942
140	0xbdd3671a	-0.103223994
141	0xbd238c82	-0.03992892
142	0x3db91b1b	0.09038373
143	0x3c8c3c2b	0.017118534
144	0x3c2d03ec	0.010560017
145	0x3d953baf	0.07286774
146	0xbd047914	-0.03234203
147	0x3dd3dc61	0.10344768
148	0xbb8f1f98	-0.00436778
149	0xbdbda325	-0.09259633
150	0x3cf408eb	0.029789409
151	0xbbeda905	-0.0072528147
152	0x3d29f633	0.04149456
153	0xbc13bcf6	-0.00901722
154	0xbd77c006	-0.060485862
155	0xbc0f5a5e	-0.008749573
156	0x3dc48641	0.095959194
157	0xbdc637c9	-0.09678609
158	0x3d046bfb	0.03232954
159	0x3cf3861d	0.029727036
160	0x3a5e25c8	0.0008474258
161	0xbd093bc0	-0.033504248
162	0xbcd9a98c	-0.026570104
163	0x3d5753df	0.05257022
164	0x3dbe9000	0.093048096
165	0x3d127bf8	0.035762757
166	0xbca036f7	-0.01955746
167	0x3d2b9d10	0.041897833
168	0x3dc3114b	0.09524783
169	0xbc9d0fc1	-0.019172551
170	0x3ce97ace	0.02850094
171	0x3da611cd	0.08108864
172	0xbd4fad8f	-0.050702628
173	0xbd862936	-0.06550829
174	0x3d191d8d	0.037381697
175	0x3d1336ca	0.035940923
176	0xbc494175	-0.012283673
177	0x3d148a7e	0.03626489
178	0xbc91bcae	-0.017790165
179	0xbd3ceb79	-0.046123
180	0xbd01bf8c	-0.031676814
181	0xbda4b607	-0.080425315
182	0xbd2bbba2	-0.041926987
183	0xbcc6fd8f	-0.024290828
184	0x39ec6410	0.0004508798
185	0x3dce6cdc	0.10079357
186	0x3b41488e	0.002949271
187	0xbb33fae3	-0.0027462773
188	0x3dd3413a	0.10315175
189	0xbc4bfd09	-0.012450465
190	0xbd5bdc59	-0.053676937
191	0xbdcc565c	-0.09977409
192	0xbd8a7d5f	-0.06762194
193	0x3d84acc7	0.06478267
194	0x3dc1bcde	0.09459852
195	0xbda892ae	-0.08231102
196	0x3d44cfd1	0.04804975
197	0x3db5acef	0.08870875
198	0xbd5ac13b	-0.053406935
199	0xbcb8d7c6	-0.022563826
200	0xbbdc15a8	-0.006716449
201	0xbcb76a22	-0.022389475
202	0xbd1467cc	-0.0362318
203	0x3da76da9	0.08175213
204	0xbd9de908	-0.07710463
205	0x3d9d4283	0.07678702
206	0x3c644492	0.013932364
207	0xbd454269	-0.048159037
208	0x3dd072e8	0.10178167
209	0xbca7ae39	-0.020468818
210	0x3ab1620c	0.0013533249
211	0x390d653d	0.00013484522
212	0x3c299b76	0.010352006
213	0x3bf1abbc	0.0073752087
214	0xbcad5880	-0.021160364
215	0x3c5931d1	0.013256506
216	0xbd67e706	-0.056616805
217	0x3d6f9f48	0.05850151
218	0x3d49db0a	0.049281158
219	0x3d268aca	0.040659703
220	0xbdae4214	-0.08508697
221	0xbd922f6a	-0.0713795
222	0x3c02c771	0.007982121
223	0xbd8cb7cb	-0.06870993
224	0xbdcdef54	-0.10055414
225	0x3d670a06	0.056406043
226	0x3d5e7391	0.05430943
227	0x3da8c5b8	0.08240837
228	0x3ccc479c	0.02493649
229	0x3bf7c48e	0.007561273
230	0x3ddaa5c9	0.10676152
231	0xbcf67a58	-0.030087635
232	0x3d00d0c0	0.03144908
233	0xbdcf4bf9	-0.101219125
234	0x3d66ff36	0.056395732
235	0x3aec161e	0.0018011963
236	0x3c95eae5	0.018300483
237	0x3ccfdf94	0.025375165
238	0x3c44e5b9	0.012017661
239	0x3d41d532	0.04732246
240	0x3cd232de	0.025659021
241	0xbd91a506	-0.07111554
242	0xbd7bb65c	-0.06145321
243	0x3da27b02	0.07933618
244	0xbce60171	-0.02807686
245	0x3d371574	0.044698194
246	0xbcbc72b3	-0.023003912
247	0xbcd0ed7a	-0.025503863
248	0x3dad3641	0.08457614
249	0x3d4f051b	0.05054198
250	0xbdd66ed2	-0.10470356
251	0x3c157ce4	0.0091240145
252	0x3d5c9238	0.053850383
253	0x3dbe4821	0.09291101
254	0xbd9f85c3	-0.07789185
255	0xbd2ef690	-0.04271561

model.2.weight f4 [256, 256]
0	0x3c584066	0.0131989475
1	0x3d654dee	0.055982523
2	0x3d6f92dd	0.05848967
3	0xbc7750da	-0.01509496
4	0xbc5663a0	-0.013085276
5	0x3da364f2	0.07978238
6	0xbd2a2a01	-0.041543964
7	0x3db3ee48	0.08785683
8	0x3d6367fa	0.05551908
9	0x3c2fa343	0.010720077
10	0x3d5f8189	0.054566894
11	0x3d6eb882	0.05828143
12	0x3d9ce7da	0.0766141
13	0x3d7d7601	0.061880115
14	0x3d9ad2fe	0.07559775
15	0xbd0fcf06	-0.035109542
16	0xbd1fa01f	-0.038971063
17	0x3d80ddec	0.06292328
18	0x3b213d3f	0.0024603156
19	0x3d8b3db8	0.06798881
20	0xbd17a20f	-0.037019785
21	0x3d666020	0.056244016
22	0x3c0bce35	0.00853305
23	0x3c24e1b6	0.010063579
24	0x3cd0bc0e	0.025480296
25	0xbbf9edf0	-0.0076272413
26	0xbc1774d5	-0.0092441635
27	0xbbac47b6	-0.005257572
28	0x3d887892	0.06663622
29	0x3d39123f	0.045183416
30	0x3d5e710b	0.054307025
31	0x3cddd916	0.027081054
32	0x3d65ebbf	0.056133028
33	0x3d801512	0.06254019
34	0x3daf53fb	0.0856094
35	0x3cef3130	0.02919826
36	0xbca3ad7e	-0.019980188
37	0x3d7d6d82	0.061872013
38	0x3c1850a3	0.009296569
39	0x3dab1d7c	0.08355233
40	0x3d165dab	0.036710422
41	0xbc642d02	-0.013926746
42	0x3d98a40b	0.07453164
43	0xbc87d247	-0.01657976
44	0x3bdc3d44	0.0067211706
45	0x3d10425c	0.035219535
46	0x3b30a7db	0.0026955518
47	0xbc6739f8	-0.014112942
48	0x3dad16b3	0.08451595
49	0x3c413bf7	0.011794082
50	0x3cf2871a	0.029605437
51	0x3cde7495	0.0271552
52	0x3ded4c57	0.11586826
53	0xbc5022b3	-0.012703585
54	0x399ec156	0.00030280155
55	0x3d0d354a	0.03447465
56	0x3d29daeb	0.041468542
57	0x3d0af7c6	0.0339277
58	0x3d9afa81	0.07567311
59	0x3d86c96c	0.06581387
60	0x3db0336a	0.086035565
61	0xbc5c056b	-0.013429026
62	0x3d8f6234	0.07001153
63	0x3c404807	0.011735923
64	0xbcc1422c	-0.023591124
65	0x3d1b9d9c	0.037992105
66	0x3d90fbc7	0.07079273
67	0x3be61ea5	0.007022696
68	0x3db07498	0.086159885
69	0xbce7ccae	-0.028295841
70	0x3d9cb752	0.07652153
71	0xbb9d9e51	-0.0048101326
72	0xbcc3f1ad	-0.02391895
73	0x3da144dd	0.07874463
74	0x3d41c81a	0.047309972
75	0xbc66b12e	-0.014080329
76	0xbce83acb	-0.028348347
77	0x3cbd7bec	0.02313038
78	0x3d129051	0.035782162
79	0x3cd157f8	0.025554642
80	0x3daf5e00	0.08562851
81	0x3d85618e	0.06512748
82	0xbc0a033a	-0.008423621
83	0x3d5f810f	0.05456644
84	0x3d00dac2	0.031458624
85	0xbbe2b576	-0.0069186045
86	0x3d01ff4a	0.031737603
87	0xbc47e801	-0.01220131
88	0x3cbcc09b	0.02304106
89	0x3b8be886	0.0042696623
90	0x3d7ec699	0.062201116
91	0x3b40dd47	0.0029428767
92	0x3cc8c000	0.024505615
93	0x3d9cab96	0.07649915
94	0xbd441a4e	-0.04787665
95	0x3d954ee9	0.072904415
96	0x3d3d8556	0.046269737
97	0x3d0d4e89	0.034498725
98	0xbca84da9	-0.020544844
99	0xbcb710ee	-0.02234694
100	0x3d6ee5f1	0.058324758
101	0x3d276c9f	0.040875074
102	0x3d88c0df	0.06677412
103	0x3d0391cf	0.032121476
104	0x3cd49431	0.02594957
105	0x3d1d0f7c	0.038344845
106	0xbc830162	-0.01599187
107	0x3d5d879e	0.054084413
108	0x3cf274db	0.029596737
109	0xbcbd6bfe	-0.023122784
110	0x3ca508dd	0.020145828
111	0x3d5b8c9a	0.053600885
112	0x3d9c0915	0.0761892
113	0xbd1d7e85	-0.038450737
114	0x3d92fe34	0.07177392
115	0x3c5f6f11	0.01363732
116	0x3dac9e50	0.08428633
117	0xbd64b649	-0.055837903
118	0x3d0ede40	0.034879923
119	0xbd0f1dab	-0.034940403
120	0xbd3ba2d9	-0.0458096
121	0x3e191f29	0.14953293
122	0xbc0db43c	-0.008648928
123	0x3d1f5c1f	0.038906213
124	0x3d2d3e33	0.042295646
125	0x3ccfa948	0.025349274
126	0x3d84d33b	0.064856015
127	0x3d274a12	0.040842123
128	0x3d45a28f	0.04825073
129	0x3d2a90d7	0.041642036
130	0xbd5188b9	-0.05115578
131	0x3d428c30	0.047496974
132	0xbcbbbd6e	-0.022917476
133	0x3bf93569	0.007605244
134	0x3cfed15f	0.031105695
135	0xb9f780fe	-0.00047207618
136	0x3ca6cae3	0.020360416
137	0x3c942d8d	0.018088127
138	0x3d247e84	0.040159717
139	0xbc9f4f4b	-0.01944699
140	0xbce1e2b7	-0.027573926
141	0xbad42bac	-0.0016187332
142	0x3ce703e8	0.028200105
143	0xbc9f5a12	-0.019452129
144	0xbd2444b4	-0.040104583
145	0x3d5a7f0b	0.053343814
146	0xb9c2faec	-0.00037189515
147	0x3bf48692	0.007462331
148	0xbd0a79b4	-0.03380747
149	0x3d6032fd	0.054736126
150	0x3cc9675d	0.02458542
151	0x3c601b7a	0.013678426
152	0xba9f28c1	-0.0012142883
153	0x3d1628bd	0.036659945
154	0x3d3274b3	0.043568324
155	0xbc9ac6ff	-0.018893717
156	0x3cb71fcb	0.022354027
157	0xbcf32cbc	-0.029684417
158	0x3c78b590	0.015180007
159	0x3d4de714	0.0502692
160	0xbd382184	-0.044953838
161	0xbcadf6b1	-0.021235796
162	0x3cb917bc	0.022594325
163	0x3d583124	0.05278124
164	0x3cc74415	0.024324456
165	0x3d64befc	0.0558462
166	0xbcc4e7cb	-0.024036309
167	0x3d781734	0.060569003
168	0x3d8262dd	0.06366513
169	0x3d59a868	0.05313912
170	0x3d862ee5	0.06551913
171	0xbc4fd26e	-0.012684448
172	0x3d14807e	0.036255352
173	0xbd444af4	-0.047923043
174	0xbbc1787c	-0.0059042554
175	0x3d137209	0.035997424
176	0x3d2b6ccd	0.041851807
177	0xbcb676e5	-0.02227349
178	0x3d7f9652	0.062399216
179	0x3d316175	0.043305833
180	0x3c65a34b	0.014015983
181	0xbaf5307b	-0.0018706465
182	0x3d6decdf	0.058087226
183	0xbc8d0185	-0.017212639
184	0x3cb152f0	0.021645993
185	0x3cd35c2a	0.025800783
186	0x3d1df52f	0.038563903
187	0xbc82bfd1	-0.015960606
188	0x3d27a9cc	0.040933415
189	0x3d310fc2	0.04322792
190	0x3d11979b	0.035544973
191	0x3d7c196f	0.061547693
192	0x3d26bbbf	0.040706392
193	0x3a0b6a0e	0.00053182326
194	0xbb1ae089	-0.0023632369
195	0x3d4d30b0	0.05009526
196	0xbbd83b7b	-0.0065988875
197	0xbcec7e4e	-0.02886882
198	0xbd019fdc	-0.031646594
199	0x3d2f3c07	0.042781856
200	0xbc955ce2	-0.018232767
201	0x3e208968	0.15677416
202	0x3de73f28	0.11291343
203	0x3d3a9be2	0.045558818
204	0xbccede20	-0.025252402
205	0xbd4ea0a3	-0.050446164
206	0x3d2bbda0	0.041928887
207	0xbcb1faa1	-0.021725954
208	0x3d15cd60	0.036572814
209	0xbc470f37	-0.012149624
210	0x3d5488f1	0.05188841
211	0x3d389a8e	0.04506927
212	0x3cf3ac64	0.029745288
213	0x3c14ebf3	0.009089458
214	0x3d9ff354	0.07810083
215	0x3d8b6fb5	0.06808416
216	0x3d90a3fb	0.07062527
217	0x3d36380b	0.04448704
218	0x3d494244	0.04913546
219	0x3d3079be	0.043084852
220	0x3d80e11d	0.06292937
221	0x3d054b67	0.032542612
222	0xbc218e7c	-0.009860631
223	0xbcdc7b54	-0.026914276
224	0x3c35cf77	0.011096827
225	0x3c5f7762	0.013639303
226	0x3c1a10d2	0.009403424
227	0xbcf0d037	-0.02939616
228	0xbb25cc40	-0.0025298744
229	0x3da38006	0.07983403
230	0x3c1b24ec	0.009469252
231	0x3d122e65	0.035688777
232	0x3d8ac3bb	0.06775614
233	0xbc940750	-0.018069893
234	0x3df31140	0.118685246
235	0x3c866079	0.016403424
236	0xbca4178e	-0.020030763
237	0x3cf32d05	0.029684553
238	0x3ca03e58	0.019560978
239	0x3cac67a1	0.021045508
240	0xbcbccb96	-0.023046296
241	0x3d6764c7	0.056492593
242	0x3c5b3027	0.01337818
243	0x3d72b90b	0.059258502
244	0xbcba069e	-0.022708233
245	0xbca01144	-0.019539483
246	0x3d221555	0.039571125
247	0xbc523b60	-0.012831539
248	0x3c89a5cf	0.016802697
249	0xbc1c1505	-0.009526496
250	0xbd1ca4f8	-0.038243264
251	0x3e072d38	0.13200843
252	0xbd6ebfc1	-0.05828834
253	0x3d1661b6	0.03671428
254	0x3d57ef2b	0.052718323
255	0xbbc3b045	-0.0059719407

model.2.bias f4 [256]
0	0x3d49848c	0.049198672
1	0x3c6cfd95	0.014464756
2	0xbc659055	-0.014011462
3	0xbd2ad629	-0.041708145
4	0x3d847dd9	0.06469316
5	0x3d884d60	0.06655383
6	0x3d65c682	0.056097515
7	0x3c7dfe95	0.015502592
8	0xbd7673a7	-0.06016889
9	0xbcec5a94	-0.028851785
10	0x3cabe6aa	0.020984013
11	0x3d2ce06c	0.042206213
12	0xbcac8ff3	-0.021064734
13	0x3d77a6de	0.06046187
14	0x3d1858d0	0.037194073
15	0x3d757f25	0.059935708
16	0xbcdc3adb	-0.026883533
17	0xbce5aeb6	-0.02803741
18	0xbcfa03a5	-0.030519316
19	0xbd17f824	-0.03710188
20	0xbd119df5	-0.03555103
21	0xbb8993f9	-0.004198548
22	0x38916ac1	6.934023e-05
23	0x3d53bd21	0.05169404
24	0xbcb23633	-0.02175436
25	0xbcb70c14	-0.022344626
26	0x3d665108	0.05622962
27	0xbd89cb85	-0.067282714
28	0xbd187b00	-0.037226677
29	0xbd06458d	-0.032781173
30	0xbcd0d61b	-0.025492718
31	0xbbaa4e7a	-0.0051973434
32	0x39ecdcb2	0.0004517786
33	0xbcf8fa9f	-0.030392943
34	0x3d0ad712	0.033896513
35	0xbd0454aa	-0.032307304
36	0x3ab2c9d7	0.0013640475
37	0xbcfb3b2f	-0.03066787
38	0xbc765a57	-0.015036187
39	0xbd5cb722	-0.053885587
40	0xbc154a3a	-0.009111935
41	0x3cb64193	0.022248065
42	0x3c37ac45	0.011210506
43	0x3d19b3ba	0.037524916
44	0xbc76c741	-0.015062154
45	0x3c9f23b1	0.019426199
46	0xbc81bc66	-0.015836906
47	0xba9d7d65	-0.001201552
48	0x3d102a66	0.035196684
49	0xbd2872a7	-0.041124966
50	0xbd4e4357	-0.05035719
51	0xbd4d9cb0	-0.050198257
52	0x3d423be4	0.047420397
53	0x3d705d23	0.058682572
54	0xbc620a0d	-0.013796342
55	0xbd23df58	-0.04000792
56	0x3bf39c39	0.0074343947
57	0x3d6efcac	0.058346435
58	0xbcc9b2ef	-0.024621455
59	0x3bf46f6f	0.007459573
60	0xbd5e8469	-0.054325495
61	0x3c4b9da9	0.012427726
62	0x3d40afb7	0.047042575
63	0x3a8fad6a	0.0010961716
64	0xbcfd78f0	-0.030941457
65	0xbd36f734	-0.044669345
66	0x3d26ce70	0.040724218
67	0x3d5357a1	0.05159724
68	0xbd3adbb8	-0.045619696
69	0x3d2265d4	0.039647892
70	0xbaace876	-0.0013191837
71	0x3c3a334a	0.011364767
72	0xbd4c2d97	-0.049848165
73	0x3d0fdd48	0.03512314
74	0xbd3651f8	-0.044511765
75	0x3c2fb475	0.010724177
76	0xbc6a31c3	-0.014294091
77	0x3d12a480	0.03580141
78	0x3d5f4264	0.054506674
79	0x3d4326e7	0.047644522
80	0xbc95887d	-0.01825356
81	0x3cadf43b	0.021234622
82	0x3d567988	0.052361995
83	0x3d627cc8	0.055294782
84	0xbd6782c2	-0.056521185
85	0x3d6e4836	0.058174334
86	0x3d5e278b	0.05423693
87	0x3d4eb934	0.050469592
88	0xbc4a90c3	-0.012363615
89	0x3c307141	0.010769189
90	0xbd472fad	-0.04862945
91	0xbc793f39	-0.015212827
92	0xbca95ba9	-0.02067359
93	0x3d591f6f	0.053008493
94	0xb930dc77	-0.00016866798
95	0x3d6494a1	0.055805806
96	0xbc7c50ad	-0.015400094
97	0xbb4c5aae	-0.003118198
98	0xbc86d0ea	-0.01645704
99	0xbc708c0f	-0.01468183
100	0xbba28216	-0.004959355
101	0x3c43a993	0.011942285
102	0x3cc97e21	0.024596276
103	0x3d21fb09	0.039546046
104	0xbc9175be	-0.01775634
105	0x3d0b23d9	0.033969734
106	0xbcb3b51a	-0.021936942
107	0x3d31bc5c	0.043392524
108	0xbc982ec8	-0.018576995
109	0xbc436ba9	-0.011927524
110	0xbd3104f1	-0.043217603
111	0x3bce2f75	0.0062922784
112	0xbc235c53	-0.009970742
113	0x3c769dae	0.015052242
114	0xbb879bcd	-0.004138446
115	0x3d601f26	0.054717205
116	0xbd5d9a86	-0.054102443
117	0xbd1ff5ba	-0.039052702
118	0x3aa61fd3	0.0012674279
119	0xbd76d840	-0.060264826
120	0x3d48497f	0.048898216
121	0xbcb54a64	-0.022130199
122	0x3d7e87a0	0.06214106
123	0xbc56c913	-0.013109463
124	0xba10c6f3	-0.000552281
125	0xbccad175	-0.02475808
126	0xbb995467	-0.004679251
127	0xbc16aad0	-0.009195998
128	0xbb1d52f7	-0.002400575
129	0xbd18b6c0	-0.03728366
130	0xbcc8bb7b	-0.02450346
131	0xbc97dcfa	-0.018537987
132	0x3d800426	0.06250791
133	0xbd44d545	-0.048054952
134	0x3d183ee6	0.03716936
135	0xbd4e6b62	-0.050395377
136	0x3c836885	0.01604105
137	0xbd49ce89	-0.049269233
138	0xbbdc8b33	-0.006730461
139	0x3d346160	0.044038177
140	0x3d6538a3	0.055962216
141	0xbd50ae38	-0.050947398
142	0x3d06dcc3	0.03292538
143	0x3c9a379e	0.018825348
144	0x3d8eee41	0.06979037
145	0x3d482876	0.04886671
146	0x3d125f2d	0.035735298
147	0xbc03b764	-0.008039329
148	0xbd63a7bb	-0.055579882
149	0xbd0f40be	-0.034973852
150	0x3d7912c7	0.060808923
151	0xbbc7e39c	-0.006100131
152	0xbbf80337	-0.0075687426
153	0xbd02daea	-0.031947054
154	0xbd068d1b	-0.032849412
155	0x3d41582d	0.04720323
156	0x3c1467e4	0.009057973
157	0x3d7d2a78	0.06180808
158	0xbc71f7fd	-0.014768598
159	0xbd50f703	-0.05101682
160	0x3c767e15	0.015044709
161	0xbd62849e	-0.055302255
162	0x3cdcabd5	0.026937405
163	0xbd3c23aa	-0.04593245
164	0x3d1ba707	0.038001087
165	0xbd3ce7bf	-0.046119448
166	0x3c4fdf21	0.012687475
167	0x3ce3dd03	0.027815348
168	0x3d1ea59f	0.038732167
169	0x3ceed805	0.02915574
170	0x3d55ea19	0.052225206
171	0x3d42922e	0.04750269
172	0x3bb96761	0.0056580757
173	0xbcfa44b2	-0.030550335
174	0xbcf32d69	-0.02968474
175	0x3d1644a1	0.036686543
176	0x3c83538b	0.016031047
177	0xbc7c5b42	-0.015402617
178	0xbd4e7975	-0.0504088
179	0xbcd9623e	-0.026536103
180	0xbccf32ea	-0.025292832
181	0x3d5aa5d8	0.053380817
182	0xbc11409e	-0.008865504
183	0xbd1c15d9	-0.038106773
184	0x3bf1143b	0.007357148
185	0xbce15552	-0.027506504
186	0x3d1a4788	0.037665874
187	0xbcfb2125	-0.030655453
188	0x3d4cceeb	0.05000202
189	0x3cb55b0f	0.022138147
190	0xbcfd2e8f	-0.03090599
191	0x3d2a20b8	0.04153511
192	0xbd192b10	-0.037394583
193	0x3d6058c2	0.054772146
194	0xbd69c5c5	-0.057073373
195	0xbc48cc49	-0.012255737
196	0x3c9e0b63	0.019292539
197	0x3d4f0f60	0.050551772
198	0xbaae60fb	-0.0013304049
199	0x3d60e739	0.05490801
200	0x3d437e9f	0.047728177
201	0x3ccd541a	0.025064517
202	0x3cef657b	0.029223194
203	0x3cfc7901	0.030819418
204	0x3b76f459	0.0037682264
205	0xbd6a9ab6	-0.05727645
206	0xbc213446	-0.009839123
207	0xbd4bfeca	-0.049803533
208	0x3cade5ef	0.021227805
209	0xbd4a249b	-0.049351316
210	0xbc5ce33f	-0.013481914
211	0xbcb2dffd	-0.021835322
212	0x3d66ea79	0.056375954
213	0x3c82fa12	0.015988383
214	0x3bf7531b	0.0075477487
215	0x3d27873b	0.04090045
216	0x3d5663bc	0.052341208
217	0xbc9e5150	-0.019325882
218	0x3cfe07d7	0.031009598
219	0xbd24afac	-0.040206596
220	0x3d6cb22c	0.057787105
221	0xbc8bdc63	-0.017072862
222	0x3d439bea	0.047756113
223	0x3d0d9bbd	0.03457235
224	0xbc29a607	-0.010354525
225	0xbd5b6fe6	-0.05357351
226	0x3d8d4e45	0.06899694
227	0xbd1d8fe9	-0.03846732
228	0x3c972622	0.0184508
229	0x3c96d61c	0.018412642
230	0xbd1d579f	-0.03841364
231	0xbc30defc	-0.010795351
232	0x3d340b0d	0.04395585
233	0x3cf2edde	0.02965444
234	0xbd040477	-0.03223082
235	0x3c511909	0.0127623165
236	0xbc250433	-0.010071802
237	0x3d80b4ea	0.062845066
238	0x3af98daf	0.0019039417
239	0xbc41df84	-0.011833075
240	0xbd0e98af	-0.03481358
241	0xbcbf1df2	-0.023329709
242	0xbca0ae58	-0.019614384
243	0x3cc21072	0.023689482
244	0x3cb97b9b	0.022641947
245	0x3d1820da	0.037140705
246	0xbd4de2aa	-0.05026499
247	0xbc7db8ef	-0.015485986
248	0x3d09d4f1	0.033650342
249	0xbc986408	-0.018602386
250	0xbcce7142	-0.02520049
251	0xbd4722ff	-0.04861736
252	0xbc16c639	-0.009202533
253	0xbd0e5e4c	-0.034757897
254	0x3ba90f04	0.0051592607
255	0xbd3213dd	-0.043475974

model.4.weight f4 [256, 256]
0	0xbd2871ed	-0.041124273
1	0x3d37c04a	0.044861116
2	0xbe61f18e	-0.22064802
3	0x3d674737	0.0564644
4	0x3c1946b1	0.009355233
5	0xbd9d8a76	-0.07692425
6	0xbe519650	-0.20467496
7	0x3acaff82	0.0015487524
8	0x3d1b21d4	0.037874058
9	0xbd229914	-0.039696768
10	0x3d017f8c	0.03161578
11	0x3d8788e3	0.06617906
12	0xbda01111	-0.07815755
13	0xbbea8838	-0.007157352
14	0xbd2ab00e	-0.041671805
15	0xbd20ab71	-0.039226
16	0xbdcc9472	-0.09989251
17	0xbd60a821	-0.05484784
18	0xbcb109f5	-0.021611193
19	0xbdb14dd3	-0.08657422
20	0xbc9b1d4f	-0.018934874
21	0x3d01231b	0.03152762
22	0x3c342917	0.010996125
23	0xbd8038ef	-0.06260859
24	0xbce5aff4	-0.028038003
25	0x3d3628a5	0.044472355
26	0xbd5be3b5	-0.053683955
27	0x3ce6193d	0.028088206
28	0xbdab665a	-0.083691314
29	0x3d1fb9bd	0.038995493
30	0xbe7c4406	-0.24635324
31	0x3ca1e421	0.0197621
32	0xbe51dbe0	-0.20494032
33	0xbccbc0f0	-0.024872273
34	0x3d666ea7	0.05625787
35	0xbd10e1a1	-0.035371426
36	0x3d90fe24	0.070797235
37	0xbcd4320f	-0.025902776
38	0xbcf964cd	-0.030443573
39	0x3d1a1f12	0.037627287
40	0xbd268363	-0.040652644
41	0xbdfb2032	-0.12262
42	0xbd83178e	-0.06400977
43	0xbda7f968	-0.08201867
44	0xbe446fc3	-0.19183259
45	0xbe8690e6	-0.26282424
46	0xbde274d4	-0.110574394
47	0x3db61330	0.088903785
48	0x3dab7e9b	0.083737575
49	0x3bea8b29	0.0071577025
50	0x3da5f82d	0.081039764
51	0x3dcc1ffc	0.09967038
52	0x3d10d4dd	0.035359252
53	0xbd18443a	-0.03717444
54	0x3de94ef4	0.11392012
55	0x3d23b24c	0.03996496
56	0xbd793f15	-0.060851175
57	0x3d818e6f	0.06325995
58	0xbdf741da	-0.12073107
59	0x3c56fb62	0.013121458
60	0x3d5665c4	0.052343145
61	0xbd5fa69c	-0.05460225
62	0xbcc1ba99	-0.023648547
63	0x3c925e6c	0.01786729
64	0xbc8de9d7	-0.017323418
65	0xbd561c9c	-0.052273378
66	0x3afa7052	0.001910696
67	0xbd0fcd61	-0.035107974
68	0x3c1d8dab	0.009616296
69	0x3d36553b	0.044514876
70	0xbe3b133b	-0.18269055
71	0x3bf4add9	0.0074670133
72	0xbddee1b4	-0.10882893
73	0x3be43479	0.006964263
74	0x3d8e4e50	0.06948531
75	0xbc0a4e3e	-0.008441506
76	0xbc943ff7	-0.018096907
77	0x3d8c69d8	0.068561256
78	0xbcf35e02	-0.029707912
79	0xbb59f17c	-0.0033255508
80	0x3da5a291	0.08087648
81	0x3e2123b2	0.15736273
82	0x3c048ec6	0.00809068
83	0xbddc9851	-0.107712395
84	0xbe42340a	-0.18965164
85	0x3c7771eb	0.015102844
86	0x3cdd8e41	0.027045371
87	0xbc26f8e7	-0.010191179
88	0x3c2285c3	0.009919587
89	0x3e460a6e	0.19339916
90	0xbd72a471	-0.059238855
91	0x3d88b638	0.066753805
92	0x3ca680c8	0.02032508
93	0x3dd71b64	0.10503271
94	0xbd5d0109	-0.053956065
95	0xbd8f8a0c	-0.07008752
96	0xbd80fe0d	-0.06298456
97	0xbd401025	-0.046890397
98	0xbd95675e	-0.07295106
99	0x3cd4a4ff	0.025957583
100	0xbe1f5d09	-0.15562834
101	0xbe256e95	-0.16155465
102	0x3d8c881d	0.06861899
103	0xbe1f871a	-0.15578881
104	0x3d4684dd	0.048466552
105	0xbd583338	-0.05278322
106	0x3d656fc8	0.056014806
107	0xbc641c8f	-0.0139228245
108	0x3e30f77c	0.17281908
109	0x3e50ba73	0.20383625
110	0x3d989542	0.07450344
111	0xbc84414c	-0.016144417
112	0x3d4f600d	0.05062871
113	0x3d3fbec8	0.046812803
114	0x3d5d1d3e	0.053982966
115	0xbc88dd9a	-0.01670723
116	0x3d930763	0.07179143
117	0x3db543de	0.08850835
118	0xbd767754	-0.060172394
119	0x3d3754f4	0.044758752
120	0x3d7dd4f6	0.061970674
121	0xbe11c909	-0.14236845
122	0x3b307ebd	0.002693101
123	0x3dc6ea2b	0.09712633
124	0x3c9c8e14	0.019110717
125	0xbe4e5712	-0.20150402
126	0x3d093153	0.033494305
127	0xbe3c36cd	-0.1838028
128	0xbcda53a8	-0.026651219
129	0xbe3a7d59	-0.18211879
130	0xbd1b948b	-0.03798346
131	0xbdb81ada	-0.089894965
132	0xbc2db6a5	-0.010602628
133	0x3d657916	0.05602368
134	0xbd3900cc	-0.045166776
135	0x3d341e0a	0.04397396
136	0x3d01a85f	0.03165471
137	0x3cb54deb	0.02213188
138	0xbc22b9a3	-0.009931955
139	0xbd921a90	-0.07133973
140	0xbd42afc6	-0.047530912
141	0x3e1085ca	0.14113536
142	0x3d251a2b	0.04030816
143	0xbe0a3080	-0.13495064
144	0x3ba2c738	0.0049675964
145	0x3cda2df9	0.02663325
146	0x3c890d79	0.016730057
147	0x3ca16c6b	0.019705018
148	0xbd822aea	-0.063558415
149	0x3d7c21a3	0.061555516
150	0xbd7cc5b5	-0.061711986
151	0x3c9ee6cc	0.019397162
152	0x3d7edc0b	0.062221568
153	0x3d74f078	0.05979964
154	0xbd3b3233	-0.04570217
155	0x3d563e91	0.05230576
156	0xbcce0d12	-0.025152717
157	0xbd296593	-0.041356634
158	0xbc8a5317	-0.016885323
159	0xbe35dff7	-0.17761217
160	0x3bb28e1d	0.00544907
161	0x3d194d96	0.037427507
162	0xbc755ce4	-0.01497576
163	0xbcf53aef	-0.029935328
164	0xbd9a1199	-0.07522888
165	0x3d296152	0.041352578
166	0xbd762af3	-0.060099553
167	0xbbbe86da	-0.0058144154
168	0xbc1bb4b6	-0.009503534
169	0xbdc20e25	-0.09475354
170	0xbd02cc40	-0.03193307
171	0x3da86154	0.08221689
172	0xbc580541	-0.013184846
173	0x3c8b79a5	0.017025778
174	0xbd416586	-0.04721596
175	0x3cbbec51	0.022939833
176	0xbcce7f53	-0.025207197
177	0xba2ba048	-0.0006547016
178	0xbc8cecdb	-0.017202785
179	0x3bb63d7d	0.005561529
180	0xbe86ceab	-0.2632955
181	0xbddb8cbc	-0.10720202
182	0x3d87247a	0.06598754
183	0xbdcfef04	-0.101530105
184	0xbc64d029	-0.013965645
185	0xbe5fd4dd	-0.21858545
186	0xbcc62ae4	-0.024190374
187	0x3c45ffd2	0.012084918
188	0x3dbcf074	0.0922555
189	0xbd823d57	-0.06359356
190	0x3e6532bd	0.22382636
191	0x3d152b20	0.03641808
192	0x3c84f0b2	0.016228054
193	0xbcb28846	-0.021793496
194	0x3da88ccf	0.08229982
195	0xbcacc66a	-0.021090705
196	0xbc3fd584	-0.011708621
197	0x3c5ffbdf	0.013670891
198	0x3cb31f67	0.02186556
199	0xbdc0087b	-0.093766175
200	0xbd085faf	-0.033294376
201	0x3d6a707b	0.057236176
202	0xbdce76b8	-0.100812376
203	0x3c90608e	0.017624166
204	0xbe0ddf7b	-0.13854782
205	0x3d1e2094	0.038605288
206	0x3d5533cf	0.05205136
207	0x3cf081bf	0.029358743
208	0xbd846f07	-0.06466489
209	0x3b4b7b73	0.0031048923
210	0xbdd3a2b8	-0.103337705
211	0x3d12eb2a	0.0358688
212	0xbc03d72f	-0.008046909
213	0x3d6c68e8	0.057717234
214	0x3e118d87	0.14214145
215	0x3db4be78	0.088253915
216	0xbca76283	-0.020432716
217	0x3d8ee3f4	0.06977072
218	0x3bb0b3e4	0.0053925384
219	0xbdd8716d	-0.10568509
220	0x3ce9f675	0.028559903
221	0x3c6dd3cc	0.014515828
222	0xbe03757a	-0.12837783
223	0x3d18356e	0.03716033
224	0xbddd3923	-0.108019136
225	0x3d79272d	0.060828377
226	0xbd9f096c	-0.07765469
227	0xbdfa4b09	-0.12221343
228	0xbc80a30c	-0.015702747
229	0x3d513837	0.051079
230	0xbcb3eb7d	-0.021962876
231	0xbe0df412	-0.13862637
232	0x3c0b949e	0.00851932
233	0x3c6d6aa7	0.01449076
234	0xbdf9df8c	-0.12200841
235	0x3e0c2759	0.13686885
236	0xbdea5b7e	-0.11443232
237	0xbdd70507	-0.10499006
238	0x3d26a3ba	0.040683486
239	0x3d302043	0.042999517
240	0xbde75a62	-0.11296536
241	0xbda9b59d	-0.08286593
242	0xbe8ab53f	-0.27091405
243	0x3a146842	0.00056612876
244	0xbc8aaf1f	-0.016929207
245	0xbd95c8db	-0.07313701
246	0x3ce58da7	0.028021647
247	0xbde6ea6d	-0.11275182
248	0xbd2d77ec	-0.042350695
249	0x3b8bbb24	0.0042642523
250	0xbcd4e8e3	-0.025989955
251	0x3c5d5cce	0.013510896
252	0xbcff322e	-0.031151857
253	0x3d53b113	0.051682543
254	0x3c40d47f	0.011769413
255	0xbb29b6e2	-0.002589636

model.4.bias f4 [256]
0	0x3d12dbff	0.035854336
1	0xbd1e7fc6	-0.038696073
2	0x3cac19c4	0.02100838
3	0x3cbb52dd	0.02286666
4	0x3d0cd5f6	0.034383737
5	0xbcd9e890	-0.026600152
6	0xbcfab0eb	-0.03060194
7	0xbd3c9d34	-0.046048358
8	0xbd77cf57	-0.06050047
9	0x3b9dfec0	0.0048216283
10	0xbcd16f87	-0.025565876
11	0x3d1cb037	0.03825399
12	0x3d43090f	0.04761606
13	0xbbccb758	-0.006247442
14	0xbc0f33ea	-0.008740405
15	0xbd52b404	-0.051441208
16	0xbd46077f	-0.048346993
17	0x3c3e4d4b	0.011615108
18	0xbd69f7ec	-0.057121202
19	0xbd67fa2b	-0.056635063
20	0x3ba26392	0.0049557174
21	0x3c66260f	0.01404716
22	0x3c3073bb	0.01076978
23	0x3ca17662	0.01970977
24	0x3d1511de	0.036393993
25	0x3d0f18da	0.03493581
26	0xbd5daf82	-0.054122455
27	0x3d80bbae	0.06285797
28	0x3a80e8e8	0.0009835036
29	0x3d1645bd	0.0366876
30	0xbd24da18	-0.040247053
31	0x3d6fbd1a	0.05852995
32	0x3d1bd537	0.038045134
33	0xbcb9c59c	-0.022677235
34	0xbb91ff3a	-0.004455474
35	0xbbad1bbd	-0.0052828477
36	0x3cbbfd02	0.022947792
37	0x3d302569	0.043004427
38	0xbc80b0f7	-0.015709383
39	0x3d5d92ce	0.054095082
40	0x3c9233a4	0.01784689
41	0xbd0171f3	-0.03160281
42	0x3d7b553f	0.061360594
43	0x3d373957	0.044732418
44	0x3b11f0d6	0.0022268794
45	0x3c76c551	0.015061692
46	0xbc81151f	-0.015757142
47	0x3b4b62aa	0.003103415
48	0x3c3a505b	0.011371697
49	0xbbe5e57c	-0.007015882
50	0xbd554356	-0.05206617
51	0x3d1de4c5	0.03854825
52	0xbce2857d	-0.027651543
53	0xbd35197f	-0.044213768
54	0xbd64487b	-0.055733185
55	0xbd3d135a	-0.046161033
56	0x3cf0adff	0.029379843
57	0x3c2cad85	0.010539417
58	0x3c510dd0	0.012759641
59	0x3d564554	0.05231221
60	0xbb9cfcd3	-0.004790881
61	0x3d45fce7	0.04833689
62	0x3d591e9b	0.053007703
63	0x3cfc5339	0.030801402
64	0xbd477118	-0.04869184
65	0x3b212391	0.002458785
66	0x3be4a1a3	0.0069772764
67	0x3c34256b	0.010995249
68	0x3d62590f	0.055260714
69	0xbd5222e7	-0.051302817
70	0x3d39b5f4	0.04533954
71	0xbc653fea	-0.013992289
72	0xbced1fb0	-0.028945774
73	0x3ce8fdbe	0.028441306
74	0x3d529e39	0.051420424
75	0xbc907545	-0.017634043
76	0x3d16cdba	0.03681729
77	0xbd68a214	-0.056795195
78	0x3beb21e5	0.0071756714
79	0x3d1a0851	0.037605587
80	0x3c028917	0.007967255
81	0xbd6b4c96	-0.057446085
82	0x3b0a26fd	0.0021080368
83	0xbd317a94	-0.04332979
84	0x3cbda110	0.02314809
85	0x3c2f53c7	0.010701126
86	0xbd7f7d50	-0.062375367
87	0xbd281d4b	-0.04104356
88	0xbc973228	-0.018456534
89	0xbd15a8ba	-0.036537863
90	0xbd12db30	-0.035853565
91	0x3c0fee66	0.008784866
92	0x3d047a60	0.03234327
93	0x3d2a4007	0.041564967
94	0xbcfc6d5d	-0.030813867
95	0xbca9f84e	-0.020748284
96	0x3d7a56b4	0.061117843
97	0x3d224c48	0.03962353
98	0xbc44d769	-0.012014248
99	0x3d7700fa	0.060303666
100	0xbcb0d7a9	-0.02158721
101	0x3d6c746f	0.057728227
102	0xbd6c751f	-0.057728883
103	0xbc834b11	-0.016027005
104	0xbd15efdb	-0.036605697
105	0x3d62ed69	0.055402193
106	0x3cb83315	0.022485295
107	0xbc806ec0	-0.01567781
108	0xbd20de64	-0.03927459
109	0x3d2cee96	0.04221972
110	0xbc786501	-0.0151608
111	0xbcf7f993	-0.030270373
112	0xbd4e2d3e	-0.050336115
113	0xbd21ab78	-0.039470166
114	0x3d0a04c2	0.033695944
115	0xbb5a640f	-0.00333238
116	0xbd628259	-0.05530009
117	0x3caddfb5	0.021224836
118	0x3cb1c70d	0.02170136
119	0xbc25bc4c	-0.010115694
120	0xbccb0bd5	-0.024785915
121	0xbc1d8d22	-0.009616168
122	0xbc4f2886	-0.012643939
123	0xbcfaceae	-0.03061613
124	0xbaa45c1d	-0.0012539659
125	0x3d2faac4	0.042887464
126	0xbbbce584	-0.005764665
127	0x3d38b1f4	0.045091584
128	0xbc60aaf1	-0.013712631
129	0x3c8bdaf5	0.01707218
130	0x3cd540ff	0.02603197
131	0xbc3730d9	-0.01118108
132	0x3d0e905d	0.034805644
133	0x3b9af1d8	0.004728537
134	0x3c2a0f67	0.010379649
135	0xbc28ecb7	-0.0103103435
136	0x3d81948a	0.0632716
137	0xbd070a06	-0.032968543
138	0xbc80ac2a	-0.015707094
139	0xbd3299be	-0.04360365
140	0x3c51fd51	0.012816743
141	0x3cb7de7d	0.022444958
142	0xbc230235	-0.009949257
143	0xbd7529ee	-0.05985444
144	0xbd83acb2	-0.064294234
145	0xbd0f1d80	-0.034940243
146	0x3d6976ac	0.05699794
147	0xbba7f140	-0.005125195
148	0x3cf405ad	0.029787863
149	0xbca58b70	-0.02020809
150	0x3af73c67	0.0018862606
151	0xbbac431f	-0.005257025
152	0xbc0e13b8	-0.0086716935
153	0xbc51da5a	-0.012808407
154	0xbd63ba2b	-0.055597465
155	0x3cb69703	0.022288805
156	0xbd680f80	-0.056655407
157	0x3d372d1a	0.044720747
158	0x3c99d6e2	0.018779222
159	0xbcc2b41b	-0.023767522
160	0xbcaddfdb	-0.021224907
161	0x3d118c6e	0.035534315
162	0x3d316a3c	0.043314204
163	0xbc268da8	-0.010165609
164	0xbd164294	-0.036684588
165	0x3d830ce2	0.063989416
166	0x3cfab619	0.030604409
167	0x3d862b51	0.06551231
168	0xbc296a92	-0.01034035
169	0x3c645fa9	0.013938823
170	0xbd433a42	-0.04766298
171	0x3d21f4c9	0.039540086
172	0x3ca12cb3	0.019674635
173	0x3c024453	0.00795086
174	0x3d19fe8f	0.03759628
175	0x3c7062f0	0.014672026
176	0xbd66fabe	-0.05639147
177	0x3d41b3ce	0.047290616
178	0x3d3c8e96	0.046034418
179	0xbd40304d	-0.046921063
180	0x3c91a86b	0.017780503
181	0xbc478848	-0.012178488
182	0x3c4ac623	0.012376341
183	0xbd4f8ef7	-0.05067345
184	0xbc8fdfbc	-0.01756274
185	0xbd66f47a	-0.056385495
186	0xbd243d79	-0.040097687
187	0xbcf859cc	-0.030316256
188	0x3c211c78	0.009833448
189	0xbbb99448	-0.0056634285
190	0xbc3379e0	-0.01095435
191	0xbd674c88	-0.05646947
192	0x3d0c492d	0.034249473
193	0x3aa5ca88	0.001264886
194	0x3c80ddc0	0.015730739
195	0xbd224d1c	-0.03962432
196	0x3d81c2cc	0.06335983
197	0x3d6a5694	0.057211474
198	0x3cd81eb3	0.026381826
199	0xbcb865b3	-0.022509431
200	0x3ce073b6	0.027398925
201	0x3c9b9dfc	0.018996231
202	0x3ced1736	0.028941732
203	0xbcc983bc	-0.024598949
204	0xbb94bb45	-0.004538926
205	0xbd22f447	-0.039783742
206	0xbd05e08f	-0.03268486
207	0xbc9abb43	-0.018888121
208	0xbcedb9f6	-0.029019337
209	0xbc4fdc19	-0.012686753
210	0x3d37a452	0.044834442
211	0xbc3a29ba	-0.011362487
212	0x3cbf7150	0.023369461
213	0xbb066997	-0.0020509714
214	0xbc8d0bd2	-0.01721755
215	0x3cbd1912	0.023083244
216	0xbd6f9d54	-0.05849965
217	0xbd68c908	-0.056832343
218	0xbd04e623	-0.032446038
219	0x3d41cb45	0.047312994
220	0xbc5e5a9a	-0.013571406
221	0xbd227f77	-0.03967234
222	0x3d6eb2b9	0.058275912
223	0x3cf3751b	0.029718926
224	0x3ce2982c	0.027660452
225	0xbc55f716	-0.013059398
226	0xbd0ad047	-0.033890035
227	0x3bbf7ae7	0.0058435085
228	0xbca2ae7b	-0.01985859
229	0x3d3292e8	0.043597132
230	0xbca08298	-0.019593522
231	0xbca96f17	-0.020682855
232	0xbcc0ef94	-0.02355174
233	0x3d12c036	0.035827838
234	0xbb8f268b	-0.0043686084
235	0xbb72db4d	-0.0037056983
236	0xbd6b73a9	-0.05748335
237	0xbcf4caa1	-0.029881777
238	0x3caec796	0.021335404
239	0x3d07ceff	0.03315639
240	0x3c5cc60e	0.013474954
241	0xbc2270e9	-0.009914615
242	0xbc40f630	-0.011777446
243	0x3c9d5224	0.019204207
244	0x3d7402ab	0.059572857
245	0xbd5bf497	-0.053700056
246	0xbc36cfde	-0.011157958
247	0xbd6f5ee9	-0.058440123
248	0xbc153d45	-0.009108846
249	0x3caef820	0.02135855
250	0x3d30c0cf	0.043152627
251	0x3c667f3c	0.014068421
252	0x3c3481de	0.011017291
253	0xbd0cb7e7	-0.03435507
254	0x3d6e8b7e	0.0582385
255	0xbd449360	-0.04799211

model.6.weight f4 [1, 256]
0	0xbe8338ad	-0.25629178
1	0xbc99aca5	-0.018759081
2	0xbd741619	-0.059591386
3	0x3d952e7b	0.07284256
4	0xbd32b571	-0.043630067
5	0x3d58d278	0.052935094
6	0xbd65cc8b	-0.05610327
7	0x3d5a5c3b	0.053310614
8	0xbd4c54d8	-0.0498856
9	0x3bb5239e	0.0055279275
10	0xbc31ed88	-0.0108598545
11	0x3cd2d0d7	0.025734348
12	0x3c325a7b	0.01088583
13	0xbd4cae36	-0.049970828
14	0x3cd085f1	0.025454493
15	0xbe77c977	-0.24197946
16	0xbd80bc51	-0.062859185
17	0xbd744d9c	-0.059644327
18	0x3e8058a7	0.25067636
19	0xbcdbfc39	-0.026853668
20	0x3d8f1555	0.06986491
21	0xbd3e3013	-0.046432566
22	0x3c09e737	0.008416942
23	0xbc8bf7e0	-0.01708597
24	0x3d86ce01	0.06582261
25	0xbd739426	-0.059467457
26	0x3d880d8b	0.06643208
27	0x3caa5d41	0.02079642
28	0x3e62712c	0.22113484
29	0x3d6c1253	0.057634663
30	0x3e7f6824	0.2494207
31	0xbc668cf7	-0.014071695
32	0x3d32336c	0.04350607
33	0x3d4d2fa1	0.05009425
34	0x3cf37521	0.029718937
35	0x3ca11a4f	0.019665865
36	0x3cf5a40c	0.02998545
37	0xbd3e0642	-0.046392687
38	0xbc34e5a6	-0.011041081
39	0xbce01283	-0.027352577
40	0x3d341349	0.043963704
41	0xbd1493b8	-0.036273688
42	0x3d7db46e	0.06193965
43	0xbd805f66	-0.06268196
44	0xbc3f8a19	-0.01169064
45	0x3d240de2	0.040052302
46	0xbd4f11c0	-0.050554037
47	0xbac57ea5	-0.001506765
48	0xbd10aacc	-0.035319135
49	0xbe1c07a0	-0.15237284
50	0x3c858927	0.01630075
51	0xbd3555a6	-0.044271134
52	0xbe6d3297	-0.2316383
53	0xbd8eff7d	-0.06982324
54	0x3c914ee3	0.017737811
55	0xbd64482c	-0.05573289
56	0xbbece043	-0.0072288825
57	0xbe36942b	-0.17829959
58	0xbcdbb8da	-0.026821543
59	0xbd70ac22	-0.05875791
60	0xbd4658ee	-0.048424654
61	0x3d5a67a9	0.053321514
62	0xbcfd60cc	-0.030929945
63	0xbd0c1813	-0.034202646
64	0x3e8c4430	0.27395773
65	0x3c7ec969	0.01555095
66	0xbd76125b	-0.0600761
67	0xbd738eaf	-0.059462246
68	0x3d9ee4fc	0.07758519
69	0x3d578e36	0.052625857
70	0x3cfc76bc	0.030818336
71	0xbda2e45f	-0.079537146
72	0x3e6f6482	0.23378184
73	0x3d163487	0.036671188
74	0xbd67c3d7	-0.05658325
75	0xbcff2d5a	-0.031149555
76	0xbca2dd36	-0.019880872
77	0x3e85ce28	0.26133847
78	0xbc8d1db4	-0.017226078
79	0x3d2722e1	0.040804747
80	0xbd10966e	-0.03529971
81	0x3d629fb4	0.055328086
82	0xbd5941fd	-0.053041447
83	0x3d6e0b1a	0.058116056
84	0x3d91935f	0.07108187
85	0x3d0c0fa9	0.034194622
86	0x3d3499bc	0.044091925
87	0x3d5798e9	0.05263606
88	0x3d663552	0.056203194
89	0x3d807021	0.06271387
90	0x3cf9495d	0.03043049
91	0xbcfd000a	-0.030883808
92	0x3d034361	0.03204668
93	0xbd83c74d	-0.06434498
94	0x3d87cc40	0.066307545
95	0x3d961d13	0.07329764
96	0x3d5cfab2	0.05395002
97	0xbd8d1a47	-0.06889778
98	0xbc95fbbd	-0.018308515
99	0x3bc35d7b	0.0059620715
100	0x3c969de8	0.018385842
101	0xbd1cee35	-0.03831311
102	0xbcf490e6	-0.02985425
103	0xbc4252b7	-0.011860541
104	0xbd6b7991	-0.05748898
105	0xbc648f2b	-0.0139501495
106	0xbd38baa7	-0.04509988
107	0xba5f0004	-0.0008506777
108	0xbcb40242	-0.021973733
109	0xbe622de2	-0.22087815
110	0xbdd52975	-0.10408298
111	0xbd1f5569	-0.038899813
112	0xbd819fab	-0.063292824
113	0x3ccfad03	0.025351053
114	0xbca7b347	-0.020471228
115	0xbdac36ac	-0.08408865
116	0xbd296d73	-0.041364145
117	0xbd7193ae	-0.05897873
118	0xbd379a2e	-0.04482477
119	0xbcdf9803	-0.027294165
120	0x3cffbbf2	0.031217549
121	0xbcd3459d	-0.02579003
122	0xbc6e7fde	-0.014556853
123	0x3db5f49b	0.088845454
124	0xbd135f33	-0.03597946
125	0x3d65658b	0.056005042
126	0xbe51802c	-0.2045905
127	0xbc830479	-0.015993344
128	0x3cc4ce37	0.024024112
129	0xbd4dee61	-0.050276164
130	0x3d62fc14	0.05541618
131	0xbe13a87b	-0.14419739
132	0xbd0439a6	-0.03228154
133	0x3d04513f	0.032304045
134	0xbd1b6b1e	-0.03794395
135	0xbc09b8da	-0.008405888
136	0x3cf43c1d	0.02981382
137	0x3d84dd29	0.064874955
138	0xbd2fede9	-0.0429515
139	0x3d82a7fb	0.06379696
140	0xbd03516d	-0.032060076
141	0xbca0c156	-0.01962344
142	0xbd2f9f19	-0.042876337
143	0x3e5a76bf	0.2133436
144	0x3e33ee55	0.17571385
145	0xbe8b9629	-0.27263
146	0xbd4741d6	-0.04864677
147	0x3c3d843d	0.011567173
148	0xbd12d87f	-0.035850998
149	0xbd6f1498	-0.05836925
150	0xbcd957e9	-0.026531177
151	0xbd700966	-0.058602713
152	0xbd6c85cf	-0.057744797
153	0x3e15cefe	0.14629743
154	0xbc41f9a6	-0.011839306
155	0x3c3ee44c	0.01165111
156	0xbcb0f76b	-0.021602353
157	0xbc70c8ce	-0.014696313
158	0x3cbe15d5	0.02320377
159	0x3e6a87b9	0.22903337
160	0x3d74232b	0.05960385
161	0xbcbeef06	-0.023307335
162	0x3d7c8d96	0.061658464
163	0xbd3651d8	-0.044511646
164	0xbdea78eb	-0.114488445
165	0x3d8d098e	0.06886588
166	0xbbf35419	-0.0074257967
167	0x3d59192f	0.053002533
168	0xbcec9b75	-0.028882721
169	0xbd2bef2f	-0.04197615
170	0xbc9d90f9	-0.019234167
171	0x3d5af654	0.053457573
172	0xbd81389b	-0.06309625
173	0xbc967dd3	-0.018370545
174	0x3d689e3f	0.05679154
175	0x3da6f521	0.081522234
176	0x3d33976d	0.043845583
177	0xbd515af4	-0.05111213
178	0x3d353ccd	0.044247437
179	0x3d5b338f	0.053515967
180	0x3d85f549	0.06540925
181	0x3d0b0913	0.0339442
182	0x3d7e960b	0.06215481
183	0xbd27994e	-0.040917687
184	0x3c96e9bb	0.018421998
185	0x3d8e2ccd	0.06942139
186	0x3d8f904e	0.07009946
187	0xbd9002d5	-0.0703179
188	0x3ce90a9e	0.028447445
189	0x3cb22b64	0.021749206
190	0xbd2351c1	-0.03987289
191	0xbd048da6	-0.03236165
192	0xbd85eeef	-0.065397136
193	0x3de02c76	0.1094598
194	0x3d663081	0.0561986
195	0x3d6be636	0.057592593
196	0x3d9816dc	0.07426235
197	0x3d5399c9	0.051660333
198	0x3d29b669	0.041433726
199	0x3d5256b3	0.051352214
200	0x3d3b4449	0.04571942
201	0xbd82efe9	-0.063934155
202	0xbcc4c898	-0.024021432
203	0x3d8c89e2	0.068622366
204	0xbd5acd58	-0.053418487
205	0xbcdbcd33	-0.026831245
206	0x3d9952cd	0.07486496
207	0xbc9db2a5	-0.019250223
208	0xbc7d3727	-0.015455044
209	0x3c828d4b	0.015936514
210	0xbe3ea11e	-0.18616149
211	0xbd894af2	-0.06703748
212	0xbc37da19	-0.011221432
213	0xbcdd2bfa	-0.026998509
214	0xbd215c54	-0.03939469
215	0xbca9d32b	-0.020730576
216	0xbe05e7ac	-0.13076657
217	0xbd5d514d	-0.054032613
218	0xbd607299	-0.05479679
219	0x3d819461	0.06327129
220	0x3d97982c	0.07402071
221	0xbe711907	-0.23544703
222	0x3d3456fb	0.044028264
223	0xbd1d5a6e	-0.03841632
224	0x3cd1cc86	0.02561022
225	0x3e279501	0.16365434
226	0xbce0386d	-0.027370656
227	0x3d6fa5cd	0.05850773
228	0xbe6bf358	-0.23042047
229	0x3cb66f75	0.022269944
230	0x3c9829b9	0.018574582
231	0xbe55e347	-0.2088748
232	0x3c01f0c3	0.007930937
233	0xb96d6c0c	-0.00022642332
234	0xbd129d55	-0.035794575
235	0xbce3d82e	-0.027813043
236	0x3d8bf9cc	0.06834754
237	0xbd5500a7	-0.052002575
238	0x3d440d64	0.047864333
239	0xbd691367	-0.05690327
240	0xbe588244	-0.21143442
241	0x3d1f11b3	0.03883524
242	0xbc615ede	-0.013755528
243	0xbd7aa598	-0.06119308
244	0xbd291233	-0.04127712
245	0x3d60831b	0.054812532
246	0xbcc169bf	-0.023609994
247	0xbd4224dc	-0.047398433
248	0x3d5e4dad	0.054273296
249	0xbce4cc80	-0.027929544
250	0xbc6ab639	-0.014325672
251	0x3d915930	0.07097089
252	0xbd5961c7	-0.053071763
253	0x3d8dceae	0.06924187
254	0x3d13f6be	0.036123984
255	0x3d7d1445	0.06178691
