data/checkpoints/rlgym-ppo-run-1760737740221222700/541224882/PPO_POLICY.pt (torch, 638775 bytes, 8 tensors)

model.0.weight f4 [256, 89]
000000 c4 b3 a8 be a4 22 94 3e 66 ea ba be b5 11 c9 3d
       -0.3294965 0.2893268 -0.36506957 0.098178305
000010 fb 68 27 be 52 c8 6b be b1 fd d4 3c b2 e5 c1 bb
       -0.1634864 -0.23025635 0.025999876 -0.0059172744
000020 a5 a0 0f 3d 82 9c 21 3d 19 d5 e4 3c 9d 8c d1 bc
       0.035065312 0.039455898 0.027933644 -0.025579745
000030 ab 3d f5 bc 3a ea 1d bd f1 41 01 be b4 e9 8b 3c
       -0.029936632 -0.038553454 -0.12622811 0.017079212
000040 fa 32 33 3b 34 24 76 3d 59 73 23 bd 50 3a b4 3c
       0.0027343617 0.06009312 -0.039904926 0.022000462
000050 d0 f6 80 3d 5c 51 eb 3b f4 66 7a 3c 43 ab b8 3d
       0.06297076 0.0071813297 0.015283335 0.090170406
000060 05 c2 7b bd 08 95 a6 3c 73 be 7a bd d2 00 9f 3d
       -0.06146433 0.020334736 -0.061216783 0.07763828
000070 bb 57 aa 3d 51 10 dc bd 74 25 d7 3d c8 93 f8 3c
       0.083175145 -0.107452996 0.105051905 0.030343905
000080 85 2d fc 3c a6 ca 97 3c a1 07 8a 3d 77 e7 f1 bc
       0.030783424 0.018529247 0.06739736 -0.029529316
000090 89 e3 d5 bd f8 0b ea bb 40 cf ba bd 13 81 1a 3c
       -0.104437895 -0.00714254 -0.09121561 0.009430188
0000a0 32 75 b9 bc 14 a8 86 bd e7 8c 9d bc aa a2 95 3d
       -0.02263889 -0.06575027 -0.019232227 0.07306416
0000b0 f0 0d a8 bc 2f 9d 30 bc ed 21 cc bc 9a 17 a6 39
       -0.020514458 -0.010779663 -0.02491852 0.00031679572
0000c0 2f 8c ad 3d 30 6f 42 3d d2 03 92 3c c3 13 90 3e
       0.084740035 0.047469318 0.017824087 0.28140077
0000d0 a9 83 90 3c d7 c4 46 3e 71 69 58 bd af e3 15 be
       0.017640905 0.19411026 -0.05283493 -0.14637636
0000e0 2d 85 9b be 52 c3 0d bd 2d 60 bb 3d 31 91 b0 bd
       -0.30375043 -0.0346101 0.091492034 -0.08621443
0000f0 9d fe 10 be 44 af 88 3d b9 de b2 3e 69 8f f6 be
       -0.14159627 0.06674054 0.3493555 -0.48156288
000100 be eb 47 be 2a 00 de bd f7 56 7a be f0 21 80 bd
       -0.19523522 -0.10839875 -0.24447237 -0.06256473
000110 06 f4 38 bc d3 06 22 3e 15 0f 78 3e a8 75 04 3e
       -0.0112886485 0.15822916 0.24224503 0.12935507
000120 91 48 f0 bd a8 f5 e0 bc 48 37 ad 3c d7 fc 20 3c
       -0.11732591 -0.027460888 0.021144524 0.009825907
000130 b9 51 c8 3c 7a 02 25 3c eb f7 75 bb ec f8 ad bd
       0.02445303 0.010071391 -0.0037531804 -0.08494744
000140 b6 59 6b 3d 96 02 71 be d5 36 9e bc 0b ce a8 3c
       0.057458602 -0.23536143 -0.019313255 0.020606061
000150 95 91 cd bc 7f 24 86 bd 05 1f 04 bd d5 46 b9 3d
       -0.025093833 -0.0654993 -0.032256145 0.09046713
000160 9b 33 70 3d 6e e9 eb 3d 05 98 1b be 98 6c 08 3e
       0.058642965 0.115191326 -0.1519471 0.13322675
000170 44 c6 18 3d e0 f0 a0 be c2 80 7a be 89 03 75 3c
       0.037298456 -0.31433773 -0.2446318 0.014954456
000180 dc 7d 62 3e 9b 39 8b 3e 10 1d 68 3d e1 e4 4f bd
       0.22118324 0.27192387 0.05666834 -0.050755385
000190 53 9d ce 3c 51 5f 1b bd 0e 5c be 3c 2e 9a 20 bd
       0.025221502 -0.037932698 0.023237254 -0.039209537
0001a0 df 22 de bc 35 77 b8 bc 09 4f 64 bb c2 3a a6 3d
       -0.027116237 -0.02251778 -0.0034837148 0.08116676
0001b0 c3 21 25 3d db 29 3b bc 4c 29 74 3d 2b 13 92 bd
       0.0403154 -0.011423553 0.059609696 -0.07132562
0001c0 7f 2a 1b 3d 7b 5e be bc 5d bd f9 bc 81 84 54 bb
       0.037882324 -0.023238411 -0.030485803 -0.0032427611
0001d0 27 72 86 bd 36 c6 8b bc 51 d9 a4 3c 45 01 5f 3d
       -0.065647416 -0.017062288 0.020123156 0.05444457
0001e0 e2 d1 37 bd ba a6 fa 3c 8f e3 bf 3d f3 ea 6b bd
       -0.044877894 0.03059708 0.09369575 -0.057597112
0001f0 68 d3 ad 3d 6e 4b 95 bd fd 16 0f 3d a6 45 06 3d
       0.08487588 -0.07289778 0.034934033 0.032781266
000200 7c 4b 3c bc ff e4 bc 3d 4f b8 72 bd a2 15 4e 3c
       -0.011492606 0.09223365 -0.0592578 0.0125784
000210 04 de b9 bc 7f cb c5 bd a3 4c 1c bd bf 87 c8 bd
       -0.022688873 -0.096579544 -0.038159024 -0.097915165
000220 06 e7 df 3c e1 e2 ce bb 83 11 6f bb 22 df 53 bd
       0.02733184 -0.006313667 -0.0036478944 -0.051726468
000230 6a f1 9c be 6a 8a b5 3b 1b 4a bb 3d b0 00 82 3e
       -0.30652934 0.005540182 0.09144994 0.2539115
000240 59 89 11 3d b8 19 19 3e bb c9 a4 bd b6 ae 69 bd
       0.035531376 0.14951217 -0.080462895 -0.057051383
000250 4a 4a e8 bc 09 d6 49 3e da 47 46 be 69 80 25 3e
       -0.028355736 0.19710554 -0.19363347 0.16162266
000260 e5 0d 5e 3e a8 19 ea 3d 5f 66 6a 3e 89 0f f1 3e
       0.21684988 0.11430675 0.22890614 0.47082165
000270 07 91 a4 bc 1c 4f 84 3d 29 82 d3 bd ca cf b7 3e
       -0.020088686 0.064604014 -0.103275605 0.35900718
000280 ea c8 80 3e 3b 7c 1e 3e 19 f3 87 bb 94 c2 68 3d
       0.25153285 0.15477078 -0.0041488525 0.05682619
000290 30 8d bc 3d 2e 4e 2f 3d 58 8f 5b bd 2b d6 ad 3d
       0.09206617 0.042799167 -0.0536035 0.08488115
0002a0 bc 77 ce 3d c6 6d 18 3e a0 38 a8 3d c3 ea 60 bd
       0.10081431 0.14885625 0.08213925 -0.054911386
0002b0 db ff 87 3c b4 0f 64 bb d7 eb 5b bd 0b cb ba bd
       0.016601494 -0.00347994 -0.05369171 -0.091207586
0002c0 1e 49 45 bd 1c 69 c0 bc aa b3 e3 3c 31 fb 9b 3e
       -0.048165433 -0.02348762 0.027795631 0.3046508
0002d0 58 ef 1c 3a 20 b6 a3 3d c4 37 af 3c d5 52 2b be
       0.0005986593 0.07993722 0.021388896 -0.16730817
0002e0 33 fb 31 be be 84 58 3c 20 fa a5 bc 60 5f 45 3d
       -0.17380981 0.013215242 -0.02026087 0.04818666
0002f0 bc b4 e1 3d a1 36 3d bd a9 97 76 bd c7 42 0d bd
       0.110208005 -0.046194676 -0.06020323 -0.034487512
000300 e3 07 8a be 95 0c 27 3d 10 72 35 bd a7 bf 4b bd
       -0.26959142 0.040783484 -0.04429823 -0.04974332
000310 db 72 21 3d 8c f6 81 bd 86 b6 c5 3d 8b bc f9 3c
       0.039416175 -0.06345853 0.09653954 0.030485412
000320 74 26 de bc 18 da 4f 3c b9 39 a5 3c 0f 33 04 bd
       -0.027117945 0.012686275 0.020169126 -0.032275256
000330 90 15 9d bd eb e0 15 bb 17 e0 0f 3d 38 75 1b 3c
       -0.07670128 -0.0022869657 0.035125818 0.009488396
000340 5a f8 c1 bc f4 98 8f 3d 9c c0 c5 bc ad 6b 41 bc
       -0.023677994 0.07011595 -0.024139695 -0.011805457
000350 2e 76 3b 3d 88 66 7a bd 9b 8b 19 3d c5 f0 b2 bc
       0.045767 -0.061132938 0.037486654 -0.021843323
000360 b3 c0 5a 3d 2a 10 0f bd 8f e6 dd 3b 89 76 6e 3c
       0.05340643 -0.034927525 0.0067718695 0.014554628
000370 97 87 9f bd 51 33 a3 bd 9f 9a 4a 3d 37 d4 b1 bc
       -0.077895336 -0.07968772 0.049463864 -0.021707637
000380 aa b1 8b 3d c9 42 d5 bd 1e e5 3a bd df 5e a4 bd
       0.06820996 -0.10413129 -0.04562866 -0.08025908
000390 27 54 23 3d aa 63 51 bd 4a 18 f5 bd 16 e5 3d bd
       0.039875176 -0.051120438 -0.119675234 -0.04636105
0003a0 de cf 36 be a1 48 01 3d a6 68 68 3e a1 ee 12 3d
       -0.17852733 0.031563405 0.2269617 0.035872106
0003b0 19 8f 56 be 15 76 4a 3d 3d a9 b1 3d 0b 7d f6 3d
       -0.20953025 0.049429018 0.08674858 0.12035569
0003c0 c5 a3 13 bf b7 27 72 3d 1e ca e9 be 3d 3b 17 3e
       -0.5767177 0.059119906 -0.45662016 0.14768691
0003d0 9e 60 81 3e 66 55 30 3e 05 63 88 bd 05 2a b3 bb
       0.25269026 0.17220077 -0.066595115 -0.0054676556
0003e0 76 20 71 3b 89 ff 6b 3d fb c8 30 3d ca 15 da bd
       0.003679303 0.057616744 0.04316042 -0.10648687
0003f0 a8 ff bd 3d 1c f9 c5 3c c6 02 7d bd e2 0a 8f 3c
       0.09277278 0.024166636 -0.061770223 0.017461244

model.0.bias f4 [256]
000000 4b 22 3f bd 11 13 84 3c 5d 93 19 bd f3 2b 90 bc
       -0.046663564 0.016122373 -0.037494052 -0.017599082
000010 8e 02 8d bd c0 e7 31 bd 99 c5 9a 3d fd 96 b7 bd
       -0.06885253 -0.043433905 0.0755722 -0.089643456
000020 d0 49 fe 3c f6 cc 02 3b 6f cc 3b 3d 1d c9 c0 3c
       0.031041056 0.0019958592 0.04584926 0.023533398
000030 bc a5 0f 3d b9 1b 66 3c 6c 90 db 3d a2 c1 65 3d
       0.035070166 0.0140446955 0.10720906 0.056092866
000040 01 a2 59 3d c3 c1 18 3d 62 b5 5f 3d d6 dd d0 3d
       0.053133015 0.03729416 0.05461634 0.10198562
000050 b8 78 ef 3c 91 27 96 3b dc 9d 06 bd 49 6a 5c 3b
       0.029232368 0.0045823534 -0.03286539 0.0033632687
000060 dd 56 4c 3d e5 29 eb bd 49 37 c5 bd 2b 4d c7 3d
       0.049887527 -0.114826 -0.096296854 0.097315155
000070 4e 1c a5 3d 8a 33 c1 3d e6 26 bf bd 53 e8 b6 3d
       0.08062039 0.094336584 -0.09333591 0.08931031
000080 4b a2 8e bd 9a 2b a2 bc 9d 22 96 bd 71 07 bc 3c
       -0.06964549 -0.019796181 -0.07330821 0.022952767
000090 4c af 87 bd b5 fc 9a 3c fe 7a b3 3d 1d 37 09 3c
       -0.06625232 0.018919328 0.08763693 0.008374956
0000a0 bf 5f 1f 3d 7f e1 3f 3c 00 ad e4 3c 0b 9a 1c bd
       0.03890967 0.011711477 0.027914524 -0.038232844
0000b0 43 75 a3 3d 72 44 74 3d 78 fe cc 3c bd 2e 1b bd
       0.0798135 0.059635587 0.025023684 -0.03788637
0000c0 80 3c be 3c ac 61 13 3c 67 5e 95 3d c0 7b 10 bc
       0.023222208 0.008995455 0.072933964 -0.008818567
0000d0 ac a7 5e bd 8f ee b0 bd 3a bc 74 bc da ee 45 bd
       -0.054359123 -0.086392514 -0.014937455 -0.04832349
0000e0 c8 72 c2 bd 61 92 a3 bd ca b5 62 3c 00 9d 08 bb
       -0.09494549 -0.07986904 0.013837287 -0.0020845532
0000f0 a0 5a ef bc 94 82 ef bd f7 cf 9d 3b e0 6e 9f 3d
       -0.029218018 -0.11694828 0.004816051 0.077848196
000100 97 01 4f bd 6b 65 ba 3d 1c 12 16 bd ab a7 7e 3d
       -0.050538626 0.09101375 -0.036638364 0.06217162
000110 d4 50 a4 bc 03 19 e0 bd 7b e9 86 bd 09 86 40 3c
       -0.020058073 -0.109422706 -0.065875016 0.0117507065
000120 63 1f 58 3d b9 d2 fc bd 24 b1 98 3d e3 37 9c 3c
       0.052764308 -0.1234488 0.07455662 0.019069618
000130 4b 73 ec 3c c4 09 d8 3b 8d b3 7d bd a3 42 b9 3d
       0.02886357 0.006592961 -0.06193881 0.09045913
000140 48 e3 2a bc 5e 7e fb bd ad b7 99 bb 63 43 8e bd
       -0.010430165 -0.12279962 -0.0046910853 -0.06946447
000150 2b 73 7f bd ff 8f aa bd 47 57 6e 3c c7 c1 cf bd
       -0.062365692 -0.08328246 0.014547176 -0.10144382
000160 8b db 5b bd e6 83 b9 bc 39 38 96 bd 76 03 c0 bd
       -0.05367617 -0.022645902 -0.07334942 -0.0937566
000170 07 c8 8b bd e1 36 45 bd b5 2a d2 bd 84 e3 c0 bd
       -0.068252616 -0.04814804 -0.10262052 -0.09418395
000180 9a 1c b3 bd 83 4f 88 3d 41 70 ac bd cc 82 af 3c
       -0.0874569 0.06655791 -0.08419848 0.021424673
000190 7b 77 43 bc 70 a6 a3 bd f0 98 7d bc 79 1e 12 3b
       -0.011930342 -0.0799073 -0.015478358 0.0022295995
0001a0 09 42 cd 3d 30 34 f9 bc 65 7a b5 3d d4 f7 3c 3d
       0.10022361 -0.030420393 0.088612355 0.046134785
0001b0 24 b0 88 3d 0b a2 b5 3c 39 9b 67 bd c4 b7 3f bb
       0.06674221 0.022171995 -0.056544516 -0.002925382
0001c0 5e 1f 01 bd 48 d7 37 3d 3d 63 70 3d 82 20 55 3d
       -0.031524055 0.044883043 0.05868839 0.052032955
0001d0 2e cf 89 bd 7e 2b 54 3b 8a ce 77 3d b1 c4 c7 3c
       -0.067289695 0.0032374556 0.060499705 0.024385782
0001e0 66 0f e8 bc 9b 90 90 3d 36 11 bc bd 65 c1 ba bd
       -0.028327655 0.07058831 -0.0918297 -0.09118918
0001f0 92 df a4 bd 83 4e 30 3c 48 c5 b7 bc 51 0f 5d 3d
       -0.08050455 0.010760906 -0.022432938 0.053969685
000200 37 14 8a 3b b2 90 4c 3c 7f f5 3d 3c a5 53 5b 3d
       0.0042138356 0.01248567 0.011594175 0.053546567
000210 35 b3 40 3d fc 51 6c 3d af 3b 00 3b 3c 3a 73 3d
       0.047045905 0.057695374 0.0019566824 0.05938171
000220 02 cb b1 3d 0f e6 1e 3c 2d d5 39 3c 25 ec 55 bd
       0.08681299 0.009698405 0.011342329 -0.052227158
000230 b1 fd f6 3d e7 6d 64 3c 9a 4f d9 bd 20 bc 32 bd
       0.120601065 0.013942218 -0.10610886 -0.04363644
000240 20 31 25 bd f7 9d 80 bc d6 d4 88 bd 2e bd 39 bd
       -0.040330052 -0.015700324 -0.0668122 -0.04534643
000250 2e f1 c0 bd 9c 09 71 bc ba 8a d6 bd 51 9f 97 3b
       -0.094210014 -0.014711764 -0.10475679 0.0046271463
000260 76 65 57 3b 7a 92 a4 bd 54 98 fa 3c b4 46 60 3d
       0.0032866872 -0.08035751 0.030590214 0.054754928
000270 25 b5 16 bd fb 2c ae bd ab b5 d0 3d 33 b2 4f bd
       -0.036793847 -0.08504673 0.101909004 -0.050707053
000280 73 92 bf 3c ef c6 a8 bd 7a e3 a7 bd 51 b3 19 bc
       0.023385262 -0.082410686 -0.081976846 -0.009381131
000290 02 9c 13 bd a1 9c 56 bd 14 16 c1 bd 58 5e 38 3d
       -0.036037453 -0.052395467 -0.09428039 0.04501185
0002a0 f9 15 ee bd 3a 5e 38 bd 2e d9 a9 bd 79 54 c2 bd
       -0.11625285 -0.045011736 -0.08293377 -0.09488768
0002b0 59 56 17 3d 20 c1 6d bd 59 f5 41 3d b4 80 b6 bd
       0.036947582 -0.058045506 0.047353122 -0.08911267
0002c0 b9 37 8b bd ec a3 24 3d 8f 3f 89 3c 28 52 ab 3d
       -0.06797738 0.04019539 0.01675394 0.083652794
0002d0 8f 12 4a 3d 60 6b 9d bd 3e 6b 9b bc f4 75 cc 3c
       0.049334105 -0.07686496 -0.018972035 0.024958588
0002e0 99 7e 32 bc ad f6 ac 3d 02 95 7f 3d 66 d7 4e 3d
       -0.010894441 0.08445487 0.062397964 0.05049839
0002f0 93 7d ba bd 08 73 46 bd 16 5a e4 bd b4 a0 60 bd
       -0.09105983 -0.048449546 -0.11149995 -0.05484076
000300 6c 3c 05 3d 62 b2 53 bd be 86 f8 3d 84 cb 0d bb
       0.032528326 -0.05168379 0.12135075 -0.0021636197
000310 1f fd 06 bb 98 31 1a bd 6d 31 9d bd 20 87 99 3c
       -0.002059765 -0.037644953 -0.07675443 0.01874119
000320 93 d8 be 3d cc 4c a7 3d 89 ff ae 3c c6 ce ff 3c
       0.09318652 0.08168945 0.021362083 0.031226527
000330 84 59 39 bd 93 17 8d 3b 94 0d a8 3d 5f 0a 2f bd
       -0.045251384 0.004305789 0.08205715 -0.0427345
000340 b2 10 59 3d e1 57 8d 3d c2 38 e7 3c f0 61 cf bd
       0.052994438 0.06901527 0.028225306 -0.10126102
000350 a3 99 6b 3d 07 88 d5 bd 8c 04 1a 3d 6c e0 5f 3d
       0.057519566 -0.10426336 0.037601992 0.054657385
000360 64 fe a4 bd b2 76 b2 bd ef fc a9 bd c0 a1 ae 3d
       -0.08056334 -0.087140456 -0.083001964 0.08526945
000370 5f 9d 7d bd 47 c8 87 bd 6d 01 05 bc 01 bc 9b 3c
       -0.06191766 -0.06629997 -0.008118016 0.019010546
000380 4b 85 32 bd 27 bb a0 bd c3 5f b4 bd 33 66 d7 3c
       -0.04358415 -0.078481965 -0.088073276 0.02629385
000390 cb f0 4b bd 8c 84 cd bd c8 ca 9c bd 30 4e 51 bc
       -0.049790185 -0.10035047 -0.07655865 -0.012774989
0003a0 91 74 46 bd 6a 93 93 bb dc 20 c8 3b f7 ec be 3d
       -0.04845101 -0.004503657 0.006107433 0.09322541
0003b0 71 f0 c0 3d 60 24 fe 3c cf 98 7a bd bf 9e 99 3c
       0.094208606 0.031023204 -0.061180886 0.018752454
0003c0 43 a9 82 bd 55 a3 88 3d c1 77 71 3c 65 46 a0 bc
       -0.0637994 0.06671778 0.014738024 -0.019564817
0003d0 7e 75 be 3d 79 38 65 bc 9f 81 47 bd b2 84 11 3c
       0.092997536 -0.013990515 -0.0487076 0.008881735
0003e0 74 bb da 3d 99 8f ae bd 85 1e 35 bd fd 9a 3d bd
       0.10680285 -0.08523483 -0.04421856 -0.046290386
0003f0 d0 69 59 3d 81 17 d3 3d c4 76 a6 3d 08 09 a5 3d
       0.053079426 0.103072174 0.081281215 0.08058363

model.2.weight f4 [256, 256]
000000 40 a3 f1 bd 51 3c 5e 3d 4c b3 38 bc cc cb 70 bd
       -0.117987156 0.05425674 -0.011273216 -0.058788106
000010 f3 23 1c be 43 f8 55 3d d0 c3 02 3a 40 ed 04 bd
       -0.15248089 0.052238714 0.0004988285 -0.03245282
000020 f5 83 95 3d fc 77 67 3d e2 41 0c bd 48 77 4d bd
       0.073005594 0.05651091 -0.03424252 -0.050162584
000030 c0 bf 42 bd dc c9 02 be 6b 8b 7b bb 5f 00 1f bc
       -0.04754615 -0.12772316 -0.003838266 -0.009704678
000040 a0 66 0b 3d 69 08 88 3c 2c 9d 86 3d 53 21 64 bd
       0.034033418 0.016605573 0.06572947 -0.055695843
000050 b9 b7 c8 bc 1a 16 ec bd 39 18 15 bd 5b b0 0f be
       -0.024501668 -0.11527653 -0.036400054 -0.14032118
000060 1f 7c 05 bd 86 0f 8f 3c 8a 58 10 3d 69 bb fb ba
       -0.032589074 0.017463457 0.035240687 -0.0019205633
000070 52 ab 2d 3c 22 64 b4 3d ff 0e 29 3d 01 a6 d5 3d
       0.010599928 0.08808161 0.041274067 0.10432053
000080 a5 19 b3 3b 5f 35 f9 bc 75 b9 ba bd 21 f6 f7 3d
       0.0054657036 -0.030420957 -0.09117404 0.12107492
000090 50 c6 9c 3d 54 2d 9d bd 47 c8 07 3d 9d 96 8c bc
       0.076550126 -0.07674661 0.033149984 -0.017161662
0000a0 16 8f 4d bd 45 1b 08 bd f1 db 77 3d bf 81 78 bc
       -0.050185286 -0.03322913 0.060512487 -0.015167653
0000b0 7a c7 3e bc d2 2b bc bd 5d f6 c4 3b 71 e3 a0 bd
       -0.011644239 -0.091880456 0.006010814 -0.07855881
0000c0 da 6c a0 3c f3 73 48 bd d4 69 15 3d e3 80 96 bc
       0.019583154 -0.048938703 0.03647788 -0.018372005
0000d0 b7 2b 3f 3c 59 46 65 bd 53 54 47 3b 57 0a 78 3d
       0.011668137 -0.055975292 0.0030415251 0.060556736
0000e0 0e 41 a2 bc 19 65 c0 3c d3 aa 2a bd 3b df a2 3d
       -0.019806411 0.023485707 -0.041666817 0.07952734
0000f0 d8 ca 56 bd 1a 4a 6f 3d 17 59 8c 3c 47 a3 4c 3d
       -0.05243954 0.058420278 0.017132325 0.0499604
000100 9c a0 2c be 14 ec 30 3d f9 f7 10 3e 5a 5b 50 bb
       -0.16858143 0.04319389 0.14157094 -0.003179273
000110 68 7d 24 3d 58 e3 bb 3c 98 37 0e be cd 21 30 bd
       0.04015866 0.022935554 -0.13888395 -0.043000985
000120 4a ab 56 bc a1 be d4 3c 5d 89 e5 bd 6c 2f a6 3c
       -0.013102362 0.025969805 -0.112078406 0.020286284
000130 1c 72 07 3d 2a b2 3a be 78 6d dd 3d 9c b2 09 bd
       0.033067808 -0.18232027 0.10811895 -0.0336176
000140 0a 65 57 3d 3c 3d 59 bd e5 0d e0 3b 80 a8 0d bd
       0.052586593 -0.053036913 0.006837594 -0.034584522
000150 f4 e9 64 3d ce 90 2e 3d 54 a3 d9 bc 6e bd 19 3b
       0.055887178 0.042618565 -0.026567139 0.0023458856
000160 d0 85 93 3b d0 1e a2 3d 26 c4 4c 3d ed 5f 3c 3d
       0.0045020357 0.07916033 0.04999175 0.04598992
000170 bf db f2 bd 6b b6 e5 bc 7f ac 99 3d 20 ef d7 3d
       -0.118583195 -0.028041085 0.07503604 0.10543656
000180 6a 62 83 3d 07 dd 4f be 63 50 7c bc e0 ec dd bc
       0.06415255 -0.20299159 -0.015400025 -0.02709049
000190 e4 17 99 3c bf 09 eb bd 98 09 c6 bd 30 b8 cd 3b
       0.01868815 -0.11476468 -0.096697986 0.0062780604
0001a0 7a f6 b3 bc c5 a8 f1 bd 7a 02 a6 bc 42 b3 ab bc
       -0.021968115 -0.11799768 -0.020264853 -0.0209595
0001b0 97 5e 34 3e 22 da 25 3d a0 97 d3 3d 5b e6 9b bd
       0.17614208 0.04049123 0.103316545 -0.07612296
0001c0 29 39 db 3b d0 c6 7c 3d f9 e1 30 bd 80 4b da bc
       0.0066901636 0.06171304 -0.043184254 -0.02664733
0001d0 30 11 7e 3d b9 b8 4b 3e 0a a8 21 3e d4 b8 d6 3c
       0.06202811 0.19894685 0.15786758 0.02621118
0001e0 76 00 bb bc 2f ee 43 bd 99 93 98 3d 2b 39 05 bd
       -0.022827368 -0.04783457 0.07450027 -0.032525223
0001f0 3f 69 14 bd 95 e2 b2 3d be fb 86 bd a6 05 00 3d
       -0.036233183 0.08734623 -0.06590985 0.031255387
000200 56 8c 0d 3d 6d c3 73 3d 49 9b 3d bd 3d a2 42 3d
       0.034557663 0.059512544 -0.04629067 0.047518004
000210 fc a2 ac 3c ec 64 e3 3d 4f 0b 04 3e da 29 8e 3c
       0.02107381 0.11103234 0.12894939 0.01735394
000220 84 04 b4 bd 7a 4f 4b bd 08 7c bc bd 19 0e 2a bd
       -0.08789924 -0.04963634 -0.092033446 -0.04151735
000230 6e 67 c6 bd b6 0e 98 bd a3 3f 9b 3d 3b c1 81 bc
       -0.096876964 -0.07424681 0.07580497 -0.01583921
000240 e4 61 8a 3b 10 08 00 bd fc 6d b0 3d 83 c5 ec bc
       0.0042230953 -0.03125769 0.08614728 -0.028902775
000250 92 69 80 3c 53 91 69 bd 1c 5e 2d 3d a2 a3 88 bd
       0.01567534 -0.057023358 0.042326078 -0.066718355
000260 30 8f b6 bb c2 57 2f bd 42 98 17 bd 66 7f b2 3d
       -0.0055712685 -0.0428083 -0.03701044 0.087157056
000270 9d 1c 67 bb f9 2e bd 3d 66 f2 ae 3d dc aa 47 bd
       -0.0035264858 0.09237475 0.085423276 -0.04874693
000280 17 50 89 bd 7b 4b 5b be 44 32 9e 3c 4f 65 5b 3d
       -0.06704729 -0.21415512 0.019311078 0.053563412
000290 a3 de 28 be 3d b7 59 bd a4 e7 7d be de a6 4a bd
       -0.16491179 -0.053153265 -0.24795395 -0.049475543
0002a0 0f f9 36 3c 87 56 6c be 1f 12 47 bd 18 72 90 3d
       0.011167779 -0.23079883 -0.048601266 0.07053012
0002b0 ca 1d bf 3d be 59 52 3d bb 58 e1 3d fd 83 4d bd
       0.09331854 0.051355116 0.11003252 -0.050174702
0002c0 e7 af 8c 3d 49 8a 67 bc 47 b0 0d bc f7 6c 00 3d
       0.06869488 -0.014132091 -0.008647985 0.031353917
0002d0 e3 3d 0e bd ca 71 de bd ca b4 d1 bd 74 99 30 be
       -0.03472699 -0.10861547 -0.10239561 -0.17246038
0002e0 87 be a8 3c 00 5b 15 be 89 3c 68 3d 0d 67 d3 bc
       0.020598663 -0.14585495 0.056698356 -0.025805974
0002f0 59 ce 3c 3e 42 9f 4d 3d 56 57 08 3d aa c7 57 be
       0.1843809 0.05020071 0.033286415 -0.2107226
000300 99 07 06 be 57 90 fd bd f7 6f 81 be 26 38 13 be
       -0.13088836 -0.12381046 -0.25280735 -0.14376888
000310 33 61 fe bd 31 1b c7 39 5a 85 76 bd fc 7a fd 3d
       -0.12420883 0.00037976497 -0.060185768 0.12376973
000320 91 7b f9 3b f5 13 98 3d 57 08 ff bc e8 56 88 3c
       0.007613607 0.074256815 -0.031131906 0.016643003
000330 cb 80 82 3d cc 34 d1 3c 5c b4 b9 3d 75 d8 3d bb
       0.063722216 0.02553787 0.09067604 -0.002896813
000340 60 fa 85 3d e9 86 8c bc d9 5d 5e bd f4 24 1e 3d
       0.06541896 -0.017154174 -0.05428872 0.03860946
000350 80 4e d1 3d bf 39 80 bc 8f 52 17 be 78 e2 18 bb
       0.10220051 -0.015652535 -0.14777587 -0.0023328345
000360 67 3c 50 be 76 c6 b3 bd b6 43 8e bc a5 66 12 3d
       -0.20335542 -0.08778088 -0.017366271 0.03574242
000370 1b 9a 7b 3d 3b 06 6e bc a4 4b 8d 3d b3 6f f1 bd
       0.061426263 -0.014527853 0.06899193 -0.11788883
000380 b9 31 87 bc aa 51 3f 3b 7b 25 7a 3c 70 b6 b7 bc
       -0.016503202 0.0029192963 0.015267725 -0.02242586
000390 d0 b5 b8 bd d5 14 ca bc 62 fc 69 3d 37 02 99 3d
       -0.09019053 -0.024668137 0.057125457 0.074711256
0003a0 23 74 b1 be 76 a1 98 3c c3 70 81 bd 8e af 53 3d
       -0.34658918 0.018631678 -0.06320336 0.051681094
0003b0 50 42 e0 3c 7b 76 32 bc 15 4f 27 be 54 f8 27 3c
       0.02737537 -0.010892506 -0.16338761 0.010252077
0003c0 62 80 96 3c 73 b6 7f 3d ab 75 56 bd 04 a5 bc 3d
       0.018371765 0.062429857 -0.05235831 0.09211162
0003d0 f5 d1 bd 3b 7b 60 77 3d 73 43 ca bd 83 b5 29 be
       0.005792851 0.060394745 -0.09876146 -0.16573147
0003e0 5d 85 b6 3d a1 ca 84 3c 96 6e b2 3c 78 cd 48 bb
       0.08912156 0.016209902 0.021781247 -0.0030640047
0003f0 7c fa a9 bd cd ad 3e bc 9e c0 f6 3c 33 f4 65 bd
       -0.08299729 -0.011638117 0.030121144 -0.05614109

model.2.bias f4 [256]
000000 a1 d2 11 3d 98 c7 24 3d 36 d6 b1 bd 1c 10 c4 bc
       0.035601262 0.04022941 -0.086834356 -0.023933463
000010 7f a9 68 bd 9b da f0 3c c3 10 65 3d 86 a6 4d bd
       -0.05680227 0.029401114 0.05592419 -0.050207637
000020 e2 ac 62 3d 81 15 28 bd 4d 15 a9 3c 88 fd 3e bd
       0.055340655 -0.041036133 0.02064004 -0.046628505
000030 3e 06 07 3d d9 b4 ed bc 88 b7 62 3d 53 96 c4 3c
       0.032964937 -0.029016899 0.05535081 0.023997461
000040 71 fd 2c bd 61 0a 0e bd 73 bf be 3c e2 5d 0d bb
       -0.042233888 -0.034677867 0.02328465 -0.002157085
000050 64 c4 9f 3c fd cf 65 bd 92 81 0a 3d 51 12 b3 3b
       0.019502826 -0.056106556 0.033814974 0.00546483
000060 e5 8e 87 3c fd dc 2c bd 89 7e 32 3d d2 9d 2a 3d
       0.01654763 -0.04220294 0.043577705 0.041654415
000070 e3 ed e2 ba 2d 49 06 bd 25 b3 2a bc f3 79 d4 ba
       -0.0017313327 -0.03278463 -0.010418688 -0.001621066
000080 dc 31 99 3c 32 3c 30 bd 46 bb fc bc ec d0 3a 3d
       0.018700533 -0.043026157 -0.030851018 0.0456094
000090 77 10 73 ba d7 fe 8a 3c ae 4e 1e bd b9 ae 34 3d
       -0.0009272168 0.01696722 -0.038649254 0.04411194
0000a0 3c 1a 85 bd ab b5 c4 3c 04 31 ac 3b 80 f2 43 bb
       -0.064991444 0.024012407 0.0052548666 -0.002989918
0000b0 bc 29 04 bd 83 42 6f 3d b3 07 c5 bc de c9 ab 3c
       -0.032266364 0.05841304 -0.024051523 0.020970281
0000c0 41 79 cd bc a0 1a 8b 3d e1 37 e5 3c a6 a7 50 3d
       -0.025082232 0.06792188 0.027980747 0.050941132
0000d0 d7 fd 18 bd ed de 20 3d 50 db 86 3d 72 4f d6 bc
       -0.037351456 0.0392751 0.06584799 -0.02616093
0000e0 de 5c 03 3d 3c fd 45 bb 96 91 11 3d 39 60 06 ba
       0.032070987 -0.0030210754 0.035539232 -0.00051260326
0000f0 e2 e5 26 3d 25 8f ef 3a b1 56 0f bd a0 c1 97 bb
       0.040746577 0.0018276913 -0.034994785 -0.004631236
000100 b9 93 9f 3c d2 62 ae 3c 49 5e 14 bc 43 63 0e 3d
       0.01947962 0.021287356 -0.009055682 0.034762632
000110 24 a0 f3 39 0b 8e 7a 3d e1 a8 5d 3d 70 a4 77 3b
       0.00046467886 0.06117062 0.054116134 0.0037787221
000120 a9 81 1e bd 37 45 7f bd 25 43 ec 3c c2 da a0 bc
       -0.038697872 -0.062321868 0.02884061 -0.019635562
000130 dc 74 9d bb ca de 52 3d 41 8f dc 3a 55 32 2e bd
       -0.0048051905 0.051482 0.0016827361 -0.04252847
000140 bf 92 89 bd a1 70 88 bd 79 46 41 3d ff 60 bd 3c
       -0.06717443 -0.06662107 0.04718635 0.02311754
000150 b1 b8 d2 bc d3 bd 93 bc d4 9b 67 bd 0b 19 b5 bc
       -0.025722833 -0.018034851 -0.056545094 -0.022106668
000160 15 0f 4b 3d 92 79 0f 3d b4 f9 05 bc 91 cf 36 bd
       0.04957493 0.035028048 -0.00817721 -0.044631545
000170 39 9c 04 3c e8 10 15 bd 83 a9 a1 3c dc 88 80 3c
       0.008093887 -0.036393076 0.01973415 0.01569026
000180 ed 4e 1a 3d b5 61 1a 3d 93 04 6f 3c 49 8e 6b 3b
       0.037672926 0.037690837 0.014588493 0.0035942963
000190 79 9b 03 bd a1 44 c2 3c c0 87 15 bd 1e da a4 bd
       -0.032130692 0.023714365 -0.036506414 -0.08049415
0001a0 a0 f2 d5 3c b4 3e 7d bd ea 4c dd bc 39 c3 25 bd
       0.02611667 -0.061827376 -0.027014215 -0.040469382
0001b0 75 b1 3a bc 3b b6 00 3c 03 e5 51 3c f3 05 41 bd
       -0.011394848 0.007855947 0.012810948 -0.047124814
0001c0 3c b5 11 3d b9 25 77 38 d7 ad 6d 3d 2b bb 77 3c
       0.03557323 5.892452e-05 0.058027115 0.015120308
0001d0 d3 95 3a bc 68 2f 07 bd fb b7 5f bc 26 ff 1e bd
       -0.01138826 -0.033004194 -0.013654704 -0.038817547
0001e0 1b c6 3a 3d d8 6d 59 bd 52 7b 5a 3d a2 47 37 3d
       0.045599084 -0.05308327 0.053340264 0.04474605
0001f0 68 17 e9 b9 a9 f2 c6 b8 a8 22 7c 3c e6 23 de 3c
       -0.00044458662 -9.486575e-05 0.015389122 0.027116727
000200 58 99 5c bc 21 ee 62 bd ed 68 9b bb d1 98 e3 3a
       -0.013464294 -0.05540288 -0.0047427327 0.0017364268
000210 28 5d 23 3d c8 55 5c bd e7 35 79 bc 84 10 c2 bc
       0.039883763 -0.053792745 -0.015210605 -0.023689516
000220 36 f6 63 3d ce 1e d6 bc ab ed b2 bc 61 31 24 3d
       0.055654727 -0.026137736 -0.021841845 0.040086154
000230 88 88 9a 3b 32 54 80 3d 78 54 e2 bc 19 54 14 bd
       0.004715983 0.06266059 -0.027628168 -0.036213014
000240 fd 3a 29 3b 9d 79 07 3b 4f 7e 1d 3d 1f 65 c0 bc
       0.0025822513 0.0020671852 0.038450535 -0.023485718
000250 51 73 74 bd 72 ea ac bc 08 56 63 bc b6 e7 74 bd
       -0.059680287 -0.021107886 -0.013875492 -0.05979129
000260 64 2a a8 bd ad 2a 09 bc 82 e2 11 bd 4e b6 7f 3d
       -0.0821121 -0.008371991 -0.035616405 0.06242972
000270 d7 8e 0e 3d 98 3b 37 3d 82 22 f7 bc 1d ef 8a bd
       0.03480419 0.044734567 -0.030167822 -0.067838885
000280 cf 1b 59 bd 88 4c c7 bc d0 aa 01 3d 5e d2 1b 3c
       -0.053005036 -0.024328485 0.03165704 0.009510605
000290 ef 1e 10 bd 5d dd 46 bb a5 6e 51 bc ac 1d 6a 3d
       -0.03518575 -0.0030344345 -0.012782727 0.057157204
0002a0 f5 6b 2c 3d 99 71 3d bc fa f0 33 bd 6b 2c 2a 3d
       0.042095143 -0.011562728 -0.043930985 0.041546267
0002b0 d1 48 02 3d f3 62 64 bd 5c 73 09 3d 4f 89 7a bc
       0.031807724 -0.055758428 0.03355728 -0.015291526
0002c0 e4 f8 39 bd 8f 86 28 3d e9 79 19 3d ca 82 8d 3b
       -0.045403376 0.04114395 0.03746978 0.00431857
0002d0 95 6c 7e bc 8b 3b bd 3c 8d a9 25 bd b3 8d 6d 3d
       -0.015528818 0.023099681 -0.0404449 0.057996463
0002e0 ae 3c e9 bc 02 10 c9 bc a1 c2 b4 3c 60 1d 8d bd
       -0.028471317 -0.024543766 0.022065463 -0.068903685
0002f0 af e7 03 3d a0 36 33 3c c4 1d 03 bd 60 c1 a3 3c
       0.032203373 0.010938317 -0.03201081 0.01998967
000300 5b ab fa bc 56 10 c2 b9 ba a5 ab bd c1 d4 30 bd
       -0.030599287 -0.00037014735 -0.08381219 -0.043171648
000310 ff 76 7b 3c 47 48 6c 3b e7 4d 4e 3d da 61 94 bc
       0.015348195 0.0036053823 0.050367262 -0.018113066
000320 ff 98 84 3d 93 9f 32 3d 5b 35 3c 3d 7c e6 e1 bc
       0.06474494 0.043609213 0.04594932 -0.027575724
000330 1a 6e 3f 3d eb 42 c0 3c a5 9d 81 bc 23 70 99 bb
       0.04673586 0.023469409 -0.015822241 -0.004682557
000340 ee e7 77 bd 9b c6 08 bd 85 07 12 bb 45 3b 5b bd
       -0.06052392 -0.03339253 -0.0022282314 -0.05352332
000350 b0 d5 69 bd b4 ee 0f bd 19 ec 31 3d 64 95 a8 3a
       -0.057088554 -0.035139754 0.04343805 0.0012861905
000360 64 0e 07 3d dd 47 2e bc 17 6a d1 bc 28 4c 25 bc
       0.03297271 -0.010637251 -0.025563283 -0.010088958
000370 77 cb 55 bd 4e a1 b7 3c ec 9f 04 3d 23 c0 06 bc
       -0.052195992 0.022415783 0.032379076 -0.00822452
000380 43 9d 0f bd 33 52 a6 bd af ce b7 3d 4e 84 87 bd
       -0.035062086 -0.08121147 0.08974969 -0.06617032
000390 6e 17 d5 3c 35 a7 0d bd af 68 76 bd fa fd f7 3c
       0.026012149 -0.03458329 -0.060158428 0.030272473
0003a0 7d d5 74 bc da 6d a7 bb 4d 3f 17 3d fe 1c 13 3d
       -0.014943478 -0.005109531 0.036925603 0.03591632
0003b0 df 20 5f 3c 73 c1 95 bd 5e de 0f bd 7a 56 97 3b
       0.013618677 -0.07312288 -0.035124175 0.004618463
0003c0 6e ef 0a 3d 58 62 b5 3c b6 48 78 bc 6c 5d b2 bc
       0.033919744 0.02214162 -0.015154054 -0.021773063
0003d0 79 f2 05 3d aa 75 04 3d 25 59 9d bc 2f 85 7a 3d
       0.032701943 0.032338776 -0.019207546 0.06116217
0003e0 ee 74 bc 3d ee d2 4c 3d fe 2b 1f bc 0b c4 0e 3d
       0.0920199 0.050005846 -0.009715078 0.03485493
0003f0 f9 d2 39 3a 8e f3 0e 3d 88 23 9c 3c a7 06 db 3b
       0.00070886273 0.03490024 0.019059911 0.0066841426

model.4.weight f4 [256, 256]
000000 8f b4 04 3e f8 f2 34 3d 0b 17 d7 3c 67 51 d0 3b
       0.12959503 0.044177026 0.026256105 0.00635736
000010 d6 20 c6 3c 73 18 0d bc 98 d3 d9 3c 73 ff 2d bd
       0.02418558 -0.008611786 0.026590154 -0.042479943
000020 53 c3 d7 bd 7b ac 00 3d 0e bd 8a 3d 71 4f 96 bd
       -0.10535302 0.03141449 0.067743406 -0.07339371
000030 9a 67 10 be 49 f3 6a bb bf 6b 5f 39 ce 62 80 bc
       -0.14102021 -0.0035850576 0.00021307076 -0.015672114
000040 9a 98 59 bd 88 30 3f be 19 22 c1 bc 22 20 7e bc
       -0.053124048 -0.18670857 -0.02357583 -0.015510591
000050 2d 98 7c 3c 34 e8 8b bd 65 40 58 3d 59 30 dc bd
       0.015417141 -0.068313986 0.052795786 -0.10751409
000060 57 53 a5 bd da 7f e3 3c 46 9a 50 3d f4 02 26 bb
       -0.080725364 0.027770925 0.050928377 -0.002533135
000070 a8 58 d9 3c e5 d6 c4 3d bc 77 e1 bd 6a b3 33 3c
       0.026531532 0.096113004 -0.11009166 0.010968069
000080 7e d2 51 bc b4 d1 99 bd 47 40 a0 3d 81 3b a1 3d
       -0.012806533 -0.07510701 0.0782476 0.078726776
000090 cc d2 a6 3d ec 73 d3 bd 85 f7 18 3d 91 18 b9 3c
       0.08145675 -0.10324845 0.037345428 0.022594722
0000a0 bf 20 3a bd 04 17 d5 bc 6d 46 b1 bc 0f 03 91 bc
       -0.045441385 -0.026011951 -0.021640027 -0.017701654
0000b0 58 d7 e5 3c e5 b7 84 bd a4 cc 87 3d 2c 12 09 3b
       0.028056785 -0.064803876 0.06630829 0.0020915372
0000c0 84 f1 21 bd 7b 29 aa bc bb da 61 be 6e d1 0a be
       -0.039536968 -0.020771733 -0.22056095 -0.13556454
0000d0 b5 4a 89 bd 7a 11 3d bd 00 75 75 bc 3a 81 5d be
       -0.06703702 -0.046159245 -0.014981508 -0.21631327
0000e0 d3 f5 07 bc 1c ac 13 bd 4b 7d ae 3d d5 ce 62 bc
       -0.008298355 -0.03605281 0.085199915 -0.013843258
0000f0 67 ca 02 3c 01 55 59 bd 7e 63 f5 3c e3 df a7 be
       0.007982827 -0.05305958 0.029954668 -0.32788
000100 bd e6 01 bd 19 ec d0 3d 21 f9 95 bd c5 ed 6d 3b
       -0.03171419 0.10201282 -0.07322908 0.0036305052
000110 74 19 70 3d 95 25 ec bc 4e c7 ba 3c e8 82 1d be
       0.058618024 -0.028826514 0.022800114 -0.15381968
000120 9c 69 9b 3c 22 6e 63 3c a1 4a 44 bd 16 de dc bd
       0.018971257 0.013881238 -0.047922734 -0.10784547
000130 eb ae ac bc d6 67 93 3c d4 0f bc bd 51 ea b4 bd
       -0.021079501 0.017993849 -0.091827065 -0.08833755
000140 59 2d 2f be 03 db f2 3d bb fa b6 3d b1 35 25 3d
       -0.17107143 0.118581794 0.08934542 0.040334407
000150 ae 1e 45 be 24 af 8c be cb 9f 53 3d a5 e9 cd bc
       -0.19249985 -0.27477372 0.051666062 -0.025135824
000160 05 66 58 be 13 70 29 be 28 24 a8 3c 81 67 a0 3c
       -0.21132667 -0.16546659 0.020525053 0.019580605
000170 4e 4a 97 bd 8e 7a b9 3c c9 3d 4e bd b6 7f 62 bd
       -0.07387219 0.022641446 -0.05035189 -0.055297576
000180 ef c3 b1 b9 7a ae 9b 3c c1 6d 38 bd eb 85 98 bd
       -0.00033906053 0.019004095 -0.045026544 -0.07447418
000190 ce ea 06 3d 0c 5d b4 bd d9 65 2d 3d de 6b fb 3c
       0.03293877 -0.0880681 0.042333458 0.030691084
0001a0 25 b5 a3 bd bd 5f bd 3d 94 6c 84 bb 9f 25 8f ba
       -0.07993535 0.09246776 -0.004041264 -0.0010921246
0001b0 cc 24 86 be 42 b8 73 bd 99 69 b2 bb cb 1f 8f bd
       -0.2619995 -0.059501894 -0.005444717 -0.06988486
0001c0 f0 69 42 be 10 67 a5 3e c5 02 ed bd 0a a9 9e 3c
       -0.18985724 0.32305193 -0.11572794 0.019367713
0001d0 a2 95 6f 3d 26 0a 02 3d 02 d7 10 3e 6a 13 96 bc
       0.05849231 0.03174796 0.14144519 -0.018319804
0001e0 c6 49 9d 3d fc f3 f7 bd 0d 91 df bc 3a fe 81 bc
       0.07680087 -0.12107083 -0.027290845 -0.015868295
0001f0 6b c9 4e 3c 6e 37 be be d9 da ea 3c db ca af 3c
       0.012621264 -0.37151664 0.028668808 0.021459034
000200 0c 46 c5 3c 46 44 90 3d 38 c2 08 3a a1 c6 51 3d
       0.024081253 0.07044272 0.0005216929 0.051214818
000210 ed 12 48 3d 62 17 82 3e c8 d4 45 3d b6 18 87 bb
       0.048846174 0.25408465 0.048298627 -0.004122819
000220 b5 d8 8f 3d 4f cd d1 3d f2 b8 78 be 15 54 e0 bd
       0.070237555 0.10244238 -0.24289301 -0.109535374
000230 0f 41 ab 3d b5 f8 8f bd 31 57 d2 3d d4 5f 4b 3c
       0.08362018 -0.07029859 0.10270537 0.012412984
000240 0f 23 3c 3b 54 1f b9 bc 28 c4 1b 3d f6 44 1a be
       0.002870742 -0.022597946 0.038028866 -0.15065369
000250 d2 f2 e6 bd fe ea 10 39 9d d4 89 3d d2 c3 fe 3c
       -0.11276783 0.00013820452 0.06730006 0.031099234
000260 34 4e 0c 3d 4b 52 27 bb 13 ab 07 3d fb 37 8f bd
       0.034254268 -0.0025531228 0.033122133 -0.06993099
000270 95 4a ae ba 71 cb 1a 3d ab 73 62 be 8b ff 3c 3e
       -0.0013297374 0.037791673 -0.22114436 0.18456857
000280 1a c1 b0 3d 9e 08 b4 bc 04 dd 6a bd bf d0 cc bd
       0.08630581 -0.021976765 -0.057339683 -0.10000753
000290 4c 4c 9a 3d 7c 7a 0b 3d b1 69 58 be 4f 51 cf 3d
       0.07534084 0.034052357 -0.21134068 0.1012293
0002a0 70 36 0e 3e c9 6f 99 3c 40 e8 3c 3e 65 2d 34 3c
       0.13887954 0.018730061 0.18447971 0.010997151
0002b0 23 be eb bc d8 bf 00 be 5f 0c 49 bd 27 12 0a be
       -0.028777188 -0.12573183 -0.049084064 -0.13483487
0002c0 9e 81 21 3c 40 a9 c2 bb 60 b5 2b 3d 8b 74 4d 3d
       0.009857563 -0.0059405863 0.04192102 0.050159972
0002d0 f1 f6 3e bc da c1 50 bc fe 66 08 bd 10 8e 12 3d
       -0.011655555 -0.01274153 -0.033301346 0.035780013
0002e0 55 de ee bd d1 10 9d 3d ce 9d 27 bd fe 5c 34 bd
       -0.116635 0.07669223 -0.04092198 -0.044033997
0002f0 e0 6b 51 bd 88 86 65 bd be 77 21 3c ee a8 d2 bd
       -0.05112827 -0.056036502 0.009855209 -0.10286127
000300 06 1a 3e be db 2b 66 3d cc 7a 2b bd 8e 38 00 3e
       -0.18564615 0.056194168 -0.041865155 0.12521574
000310 b2 43 87 3d c7 92 20 be cb 56 ad 3d c4 aa 90 bd
       0.06604709 -0.15680991 0.0846382 -0.07063821
000320 04 95 33 bd d9 b1 ad 3d 42 69 30 bd 11 50 2e bd
       -0.043843284 0.084811874 -0.04306913 -0.042556826
000330 a0 f0 25 bc ab ca a0 bd 5c 80 9e 3a c4 8c 24 3c
       -0.01012817 -0.07851156 0.0012092697 0.010043327
000340 72 c6 37 bd 8a 5f 16 be c7 42 51 bd 4a 78 59 be
       -0.044866987 -0.14684883 -0.051089074 -0.21237293
000350 eb e0 5a bc f2 6f 83 3d 52 b9 2d bd ef df 42 bd
       -0.013359289 0.06417836 -0.042413063 -0.04757684
000360 03 43 80 bd 77 ad cc bc 89 f5 2d bd f8 a3 cd ba
       -0.062627815 -0.024985058 -0.04247049 -0.0015689125
000370 fe 75 62 bc 16 c0 f5 bd a5 e8 89 3d 4f c7 9a 3d
       -0.013822077 -0.11999528 0.067338265 0.07557546
000380 85 c1 88 be 0a 99 1b be de a9 b0 3d 52 7e 52 3d
       -0.26710144 -0.15195099 0.086261496 0.05139
000390 1e f3 28 bd f8 09 e6 bd d1 62 d1 3c 4e eb 63 be
       -0.04124748 -0.1123237 0.025559815 -0.2225773
0003a0 7a 20 ba bd 3a 27 1b 3c e0 c5 c6 3c a7 46 56 bd
       -0.09088226 0.009469802 0.024264276 -0.052313473
0003b0 83 45 de bd f2 43 16 3e ac 57 bd bd f3 da b7 bc
       -0.10853102 0.14674357 -0.09245238 -0.02244327
0003c0 18 42 29 3d e5 13 7b bd 65 0d 4b 3e 41 97 e2 bc
       0.041322798 -0.06129827 0.19829328 -0.027660014
0003d0 8a 90 cd 3c 50 a5 45 bc 4a 1a fa bd 90 80 41 bd
       0.025093336 -0.012063339 -0.122120455 -0.047241747
0003e0 12 6d e1 3c 64 01 eb 3d fc b5 79 3d f9 af 3a 3a
       0.02751783 0.114748746 0.06096457 0.0007121559
0003f0 16 d9 c5 bd e3 2f 72 3c d8 06 ec bc 87 6f 34 3d
       -0.096605465 0.014781925 -0.028811857 0.044051673

model.4.bias f4 [256]
000000 32 67 86 3d 68 9c 65 bd 4d 03 f1 3c 62 61 5c 3b
       0.06562652 -0.056057364 0.02942052 0.003362738
000010 9b 30 5d 3a 85 9f 24 3d cc 50 4f bd 48 fc 87 3d
       0.0008437724 0.040191192 -0.050614163 0.06639916
000020 5f 6d 6b 3d de 58 84 3d 8c f0 80 bc 1e 58 3e 3d
       0.05747735 0.064622626 -0.015739702 0.046470754
000030 59 50 11 bc 2a 56 05 bd 3d 8c 90 3c fe 47 61 3d
       -0.008869254 -0.032552876 0.017644996 0.055000298
000040 eb 07 8a bd 99 e6 4f 3d 58 d7 28 3d 28 0e e1 bb
       -0.067397915 0.050757024 0.041220993 -0.0068681426
000050 50 39 b5 bc c9 39 69 3d ff 75 cc bc f4 07 23 3d
       -0.022122055 0.056939874 -0.024958609 0.039802507
000060 b3 a1 fe 3c cc e3 57 3c 74 f4 a2 3d 1b 27 45 3d
       0.031082964 0.01317687 0.07956782 0.048132997
000070 c4 a4 84 3c 3c 35 a7 3d 83 52 ca 3c 31 20 fc bc
       0.016191848 0.081644505 0.024697548 -0.030777069
000080 61 06 17 3d 9e a7 01 3d 38 8f de 38 a2 e3 92 bc
       0.036871318 0.031653993 0.000106124615 -0.01793081
000090 07 9c 9e 3d 25 ce 5f bd f6 bb d7 bc 88 cd 4e 3d
       0.077446036 -0.054639954 -0.026334744 0.05048898
0000a0 99 e6 9b bc 79 cd 7b 3d 45 24 15 3d 38 25 0a 3b
       -0.019030856 0.06147525 0.036411542 0.0021079313
0000b0 b3 17 2e bb 82 c9 f6 bb 65 3f c7 bc 57 a4 32 bd
       -0.0026564419 -0.007531346 -0.024322221 -0.043613758
0000c0 60 13 f8 bc 2d a3 4a 3d fa 88 e1 3c 6c 2b f9 3b
       -0.030282676 0.049472023 0.027531136 0.0076040532
0000d0 3d ab af bc 12 91 ed bd 1f dc 1b bd 34 0b 13 3d
       -0.021443957 -0.115999356 -0.03805172 0.035899356
0000e0 9e ec 49 3d 5c a2 67 3d 3b 18 6b bc e7 ee a7 3b
       0.04929792 0.056551322 -0.014349039 0.005124915
0000f0 93 0a 0b 3d d9 81 06 3c a9 58 18 3d 64 f7 c7 3c
       0.03394563 0.008209669 0.037193928 0.024409957
000100 f6 34 8d 3d 6c 11 07 bd 7d 27 82 3d ce cb 0d bd
       0.06894867 -0.0329756 0.06355188 -0.03461819
000110 68 3e 0e bb 64 88 97 3d d7 91 fc bb 4d fa cd bc
       -0.0021704677 0.07399061 -0.007707815 -0.025143767
000120 df e3 38 bd fe ef c7 bc 0d 29 9c 3d aa e9 9d 3d
       -0.04513919 -0.02440643 0.07625017 0.077105835
000130 b0 ad cd bc ed 49 b2 bc fd 11 0d 3d e6 a6 ab 3d
       -0.025107235 -0.021763766 0.034440983 0.08381443
000140 0a 31 9c 3d 62 b8 c6 3c b9 24 60 3d c0 1e 52 3d
       0.07626541 0.024257842 0.05472252 0.051298857
000150 0f ce 8f bc 5a 02 8d 3d 5e 11 40 3d fa b5 a3 3c
       -0.017554311 0.06885214 0.046891563 0.019984234
000160 66 f3 5a 3d e1 6f 45 3d 4b 10 70 bd 5c f0 9d bd
       0.05345478 0.0482024 -0.05860929 -0.077118605
000170 93 1f 72 3d 2d 21 4f 3d c0 3e c5 bd 49 02 28 bd
       0.059112143 0.05056875 -0.09631109 -0.041017804
000180 b3 fc fb 3c 15 5a 44 3d 7b fc ac 3c 0c f0 7c 3d
       0.030760145 0.04793747 0.021116486 0.061752364
000190 94 2f 79 3d c3 b6 19 bd 6c 8b b6 3c 5a c4 54 bd
       0.06083639 -0.03752781 0.022283278 -0.051945068
0001a0 9f b0 0a bd 3f 76 94 3d b0 ce 62 3d 8a 88 2e 3d
       -0.033859845 0.07249116 0.055372894 0.042610683
0001b0 3e ae 8b 3d ee 59 28 3d 28 e1 10 bc 70 11 83 3c
       0.068203434 0.04110139 -0.008842744 0.015999526
0001c0 51 1a d0 3c 4e fd 83 3c ca 3a 16 3c d0 89 ca 3b
       0.025403174 0.016111996 0.00916929 0.0061809793
0001d0 15 8c be bc 11 48 71 3d 53 c2 82 bd 95 4b 45 3d
       -0.023260156 0.05890662 -0.06384721 0.048167784
0001e0 8b a1 9c bd 0c f2 81 bc 5d 20 01 bd fe 33 70 3d
       -0.076479994 -0.015862487 -0.031525005 0.058643334
0001f0 51 36 0f 3c 52 3e 01 3d ef 4a 18 bd 76 2d 0f bd
       0.008740977 0.031553574 -0.037180837 -0.034955464
000200 8a dc 8e bd dd 46 42 3c 2e 34 7f bd 7b dd 73 3d
       -0.06975658 0.011857715 -0.06230562 0.059537392
000210 ab 03 36 3d f9 78 29 3a f6 22 c8 bd bd 85 7e bd
       0.04443709 0.0006464865 -0.09772293 -0.06213926
000220 e6 2e 83 bc bb 7a 07 3c be 35 42 3d cb 24 80 bd
       -0.016013574 0.008269007 0.047414534 -0.06257018
000230 34 51 a4 bd 9d d6 b3 bc 81 73 5e 3d 96 c2 15 3d
       -0.08023301 -0.021952922 0.05430937 0.036562525
000240 7b ef 1f bd 96 c0 88 3c c3 65 5d 3c c1 5a f0 bc
       -0.039046746 0.016693395 0.013513031 -0.02934015
000250 4a b6 0a 3c 95 cd 5c bd ee 96 20 bd 57 de f9 3c
       0.008466313 -0.053906996 -0.039206438 0.030501528
000260 ae f4 a6 bd b1 ad cd 3c c4 28 2e bd 9e ea 4b bd
       -0.08152138 0.025107237 -0.042519346 -0.049784295
000270 0a 52 d1 bc 9a 17 38 bc 41 63 5d 3b 16 80 1a 3b
       -0.025551815 -0.011236096 0.0033781084 0.002357488
000280 aa 58 d0 3c ec e7 e4 3c ec 4a 90 3d 9f 99 1d bd
       0.025432903 0.02794262 0.0704554 -0.038476583
000290 46 30 af 3c 76 d6 22 bd d8 9a 13 bc 54 37 64 3c
       0.021385323 -0.039755307 -0.009009086 0.013929207
0002a0 be 22 57 3d f4 24 75 3d e4 11 67 3d a3 b8 6d 3d
       0.052523367 0.059849694 0.056413546 0.05803741
0002b0 61 e6 c5 3b 75 03 0f 3d 25 48 83 bd 13 25 85 bd
       0.006039426 0.034915406 -0.06410245 -0.06501212
0002c0 d5 5e 61 bd 5c b7 d1 3d 5e 71 da bc 9d 66 c0 3d
       -0.05502208 0.10240051 -0.026665386 0.09394572
0002d0 80 81 12 bd cb f6 39 3d c9 ae 9e bd ea 5b 7e 3d
       -0.035768032 0.045401376 -0.077481814 0.062099375
0002e0 63 26 1f bd 25 34 1f bd eb d6 62 3c a2 59 5a bd
       -0.038854968 -0.03886809 0.013845186 -0.053308137
0002f0 9e 2f 93 3d f3 2f 27 bd 38 44 de bc f2 46 6f 3d
       0.07186817 -0.040817212 -0.027132139 0.058417268
000300 8b 71 c4 3c 2f ed 39 3c 84 a2 3b 3d 58 15 41 3c
       0.023979923 0.011348053 0.045809284 0.011784874
000310 4d 47 31 3d ff 55 82 3d 7f 38 5c bd bf 30 fa 3c
       0.04328089 0.06364059 -0.053764816 0.030540822
000320 7f fd 92 bd 43 f5 0a 3d ff 14 80 bb d3 37 31 3d
       -0.07177257 0.033925306 -0.003908753 0.04326613
000330 5b c9 2a bc 12 af 6f bd 3f de 5c bd 18 47 3b bd
       -0.010423983 -0.05851657 -0.053922888 -0.045722097
000340 97 d7 b9 3d ab 32 9d bc 64 48 b0 bc e6 05 56 bd
       0.090743236 -0.0191892 -0.021518894 -0.05225172
000350 47 2c 15 3c 42 e5 16 3d 90 36 2e bd e7 8c 1b bd
       0.009104795 0.03683973 -0.042532504 -0.03797617
000360 b2 c1 e7 bc 04 48 f1 3c 7e 1c 6c bb ac 7a 8c bc
       -0.028290603 0.029453285 -0.0036027725 -0.017148338
000370 9c a8 86 3d 52 f8 ef 3c 52 5c 54 bd 01 cc 0a 3d
       0.065751284 0.029293213 -0.051845856 0.03388596
000380 d1 98 89 3d cd c0 ae bd e5 4f 5b 3a 25 a1 73 3d
       0.067186005 -0.085328676 0.0008366092 0.05947985
000390 bf ba 99 bc 4b 93 98 bd d2 b0 91 3d 26 fa 6c 3d
       -0.018765805 -0.07449969 0.07113804 0.057855748
0003a0 82 1e 5d 3d 0b bd 8e 3d dd 0a 92 bc 4f 15 49 bc
       0.053984173 0.06969651 -0.017827446 -0.012273147
0003b0 05 7c 32 bd fd 06 0d 3e 6d ef 9f bc ab a5 17 3d
       -0.043575305 0.13772197 -0.019523347 0.037023228
0003c0 1b 13 92 3c 9e 75 90 bd d3 47 91 3a d3 8b f0 3c
       0.017831376 -0.07053684 0.0011084027 0.029363548
0003d0 e3 5f 98 3d 7f 2a 97 3c 5e 91 27 bd ce c1 8e bc
       0.07440164 0.01845288 -0.040910117 -0.017426398
0003e0 ba 45 b5 bc ce a1 95 bc e7 97 d3 3c 7d 71 8b bd
       -0.022127975 -0.018265631 0.025829269 -0.068087555
0003f0 b4 2d b1 bc 0a 65 9f bc 81 2b 9c 3b ea 78 b0 3b
       -0.021628238 -0.019457359 0.0047659283 0.005385508

model.6.weight f4 [16, 256]
000000 83 e4 4c be 22 50 cf 3c 25 f4 1c be a8 87 80 be
       -0.20009045 0.025306765 -0.15327509 -0.25103498
000010 6d 41 ab bc d2 e3 92 bd 34 03 ab 3d e8 34 e9 3e
       -0.02090522 -0.071723595 0.0835022 0.45548177
000020 26 88 26 3c dc ef 8d bd 0e c7 12 bc d5 0d 21 bd
       0.010164296 -0.06930515 -0.008958591 -0.039319832
000030 89 b7 8a bd da 06 43 3d e2 78 ff be 7f 0b fb 3d
       -0.06773288 0.047613956 -0.49896914 0.12258052
000040 f9 2d d3 bc d2 48 6a be 59 16 94 be 03 ca 6a bd
       -0.025778757 -0.22879341 -0.289233 -0.05732156
000050 60 f7 b2 3d 9e e1 e2 bd d9 24 db be 95 8e 44 3e
       0.08738589 -0.11078189 -0.4280155 0.19195016
000060 98 bc 3a 3d 34 58 23 bd 25 ed 05 3e 81 77 5f bd
       0.045590013 -0.03987904 0.13078745 -0.054557327
000070 02 c4 4e bc fb a6 28 bd 2c bb 03 be 4b 11 a1 bd
       -0.012619974 -0.04117487 -0.12864369 -0.078646265
000080 95 8c 1d 3e 84 88 5d 3d 10 56 fb 3d c9 05 71 3e
       0.15385659 0.05408527 0.122722745 0.23537363
000090 e1 f1 2f 3d e3 83 09 3e 32 cf 43 be a5 d6 5e be
       0.042955283 0.13429217 -0.19122007 -0.21761568
0000a0 78 31 ad 3d c5 03 75 bd 21 5f 6b be d9 d9 b1 3d
       0.08456701 -0.059818048 -0.22985508 0.08684129
0000b0 14 2c 28 3c 4c f3 a2 3d 24 4b d0 bd 8a f0 35 3d
       0.010264415 0.079565614 -0.10170582 0.04441885
0000c0 a6 92 a6 bd 47 a1 11 3d 4d 6b 70 3c 24 35 5e 3d
       -0.0813344 0.035554197 0.01467402 0.054249898
0000d0 b8 fb d3 bd 34 42 43 3e 74 46 b9 3d ca 31 10 3e
       -0.10350746 0.19068223 0.09046641 0.14081493
0000e0 24 46 c2 be e9 ed 9a bc 3b 53 46 bd 7f e6 62 3f
       -0.37944138 -0.018912273 -0.04841922 0.8863296
0000f0 f2 1e d7 bc 77 46 f0 3c 3c f5 4d be 5c 0d d1 bd
       -0.026259873 0.029330475 -0.2011308 -0.10207626
000100 95 56 4c 3e ce 9e a0 be 87 2d 59 3e a3 5a aa 3d
       0.19954903 -0.31371158 0.21208774 0.08318069
000110 3c 72 a0 be 5d e7 9d 3d 55 70 9f bb c0 81 fa 3e
       -0.31337154 0.07710145 -0.004865686 0.48927116
000120 32 26 f0 bd d7 97 ec bd 9a 6c 73 3e cc ad ad 3c
       -0.11726035 -0.11552399 0.23771897 0.021201037
000130 de e0 00 bc 65 a5 d2 3d c2 71 6c 3d 3a 20 51 3f
       -0.0078661125 0.10285453 0.057725675 0.816898
000140 f7 18 02 3f 0b 3c 88 3d fb 8b c3 3d c8 c2 1c bd
       0.50819343 0.06652077 0.095481835 -0.038271695
000150 ae 1b 42 3e 6e 1f 6e be 01 da 68 be 44 ee 02 be
       0.18955871 -0.23254177 -0.22739412 -0.12786204
000160 85 b0 c7 3d 04 d6 a2 bd 7b d2 10 3d 4f 4f 19 bd
       0.09750465 -0.079509765 0.03535698 -0.03742915
000170 56 a8 fa bc 05 65 2f be 12 2c 4e 3c 15 da b4 be
       -0.030597847 -0.1712838 0.012583749 -0.35322633
000180 ef 3c 27 bd a5 d7 f4 bb 7b 20 49 3d 72 23 f2 3c
       -0.040829595 -0.007471996 0.04910324 0.029557917
000190 f7 be 2a 3d df bb 3e 3c 38 c8 d1 bd c0 e7 1c bd
       0.041686025 0.011641472 -0.10243267 -0.03830695
0001a0 1d 85 ee be 88 27 91 bb d5 7e 16 3e 90 3e a1 3d
       -0.46585932 -0.0044297613 0.1469682 0.07873261
0001b0 a2 13 62 3d 37 ef 63 bd b0 df c5 3c 5f 66 8f bd
       0.055194505 -0.055648055 0.024154514 -0.070019476
0001c0 6d 56 1c 3d 59 87 67 3d b7 63 92 bd 9d 2d c1 3d
       0.03816836 0.056525562 -0.07147925 0.09432528
0001d0 82 d5 12 be b1 42 b3 3d 43 12 2f bd 0e 15 71 be
       -0.1433926 0.08752955 -0.042742025 -0.23543188
0001e0 4f bc 2c 3e d2 9c 4c bf 4f 81 fb be 57 b0 dd bd
       0.16868709 -0.7992679 -0.49122092 -0.1082465
0001f0 d6 83 51 be 97 24 cb bd ef ca cc 3d fe 54 f6 bc
       -0.20460448 -0.09919088 0.09999644 -0.030069824
000200 ca 40 65 bb c2 f2 ca 3e 14 65 16 bd 6f 40 af bd
       -0.0034981244 0.39638335 -0.03671749 -0.085572116
000210 b5 19 3b 3d c8 00 cd bd b4 6c f3 3c 7e 48 c2 3c
       0.045678813 -0.10009915 0.02971492 0.023716208
000220 f0 58 7d 3d c8 8e fb 3d d4 a0 f4 3d f3 b2 81 bd
       0.061852396 0.12283093 0.11944738 -0.0633296
000230 7d 70 4d 3d b1 97 94 bd 58 f8 01 3f f8 6c 4e 3f
       0.050156105 -0.07255495 0.5076957 0.80635023
000240 9a be 8a bc 1f 01 86 bd c0 b3 0e bf 06 42 de bd
       -0.016936589 -0.065431826 -0.55743027 -0.10852437
000250 ed 86 b9 bd 9d e5 18 be 88 c6 99 be 61 b8 80 be
       -0.09058938 -0.1493134 -0.3003428 -0.2514067
000260 f6 e0 a6 bc 08 43 35 be 90 0d 80 bd 8c e1 36 be
       -0.020370942 -0.17701352 -0.06252587 -0.17859477
000270 6c f6 09 3d 81 46 95 bd 02 47 1e be 90 06 be be
       0.03368227 -0.07288838 -0.15456775 -0.37114382
000280 28 9d 30 be 4c 54 ee 3c c7 de b5 bc b1 cf 1d 3d
       -0.1724745 0.02909293 -0.022200955 0.038528148
000290 79 4e 07 bc e9 a8 1e bc 70 e9 09 3d a4 fc b3 3d
       -0.008258455 -0.009683826 0.03366989 0.08788422
0002a0 b9 0f 14 be 12 9a c1 3c ed 5d 29 3d 7f 13 0c bd
       -0.14459123 0.023633037 0.04134934 -0.03419828
0002b0 ac fe b6 3d 87 2a ad bd c4 18 e1 bd f0 b5 47 3d
       0.089352936 -0.08455377 -0.10991052 0.048757493
0002c0 5f 8a be bb a4 06 f2 bc b1 9e 71 bd 48 af 14 be
       -0.005814835 -0.029544182 -0.05898923 -0.1451999
0002d0 bf ca 7a be 8f 91 90 be 09 20 b9 bd 13 86 13 be
       -0.24491404 -0.28236052 -0.09039313 -0.14406614
0002e0 fd a0 11 bf 2d 40 d1 bd 9c 49 39 bc 20 c3 37 bc
       -0.56886274 -0.10217319 -0.011309054 -0.011215955
0002f0 ad ab 10 3e 02 a0 45 bd 6b 5d ac bc bf 28 74 be
       0.14127989 -0.0482483 -0.021040639 -0.23843668
000300 23 c4 24 3f ee 2d 19 be 41 10 cc ba 7d ff 0c 3d
       0.6436178 -0.14958927 -0.0015568809 0.03442334
000310 9a b8 0b bd 04 3a 56 bd 2d 8e 2c 3c a6 92 55 be
       -0.034111597 -0.05230142 0.010531944 -0.20856723
000320 86 67 2d 3c 82 5b 10 be 84 79 88 be 7d e6 0a be
       0.010583764 -0.14097407 -0.2665521 -0.13564487
000330 c0 be 88 be 4a 43 67 bd 97 fb e5 be 1d 40 e7 be
       -0.2670803 -0.056460656 -0.4491851 -0.45166102
000340 81 da 4e bd 14 30 8f 3c b6 c9 79 bd 42 bf c6 3c
       -0.05050135 0.01747898 -0.060983382 0.02426112
000350 16 3d 99 bc 9a 36 b8 b9 2b 00 a0 3d 19 e2 be 3d
       -0.018705886 -0.00035135896 0.07812532 0.093204685
000360 46 e6 aa be a1 e6 06 be 58 29 a4 3c 1d 9b 26 bd
       -0.3337881 -0.13173915 0.020039245 -0.04067527
000370 25 48 80 be 5c eb 1f 3b 87 5e f9 bc 20 4d c9 3d
       -0.25055042 0.002440176 -0.030440582 0.098291636
000380 fa c3 02 3d af 14 27 bd cf 7a 91 3e b3 29 0e 3d
       0.03192518 -0.04079121 0.28414008 0.034707736
000390 13 d4 70 3d f4 df 3e bd 81 9b 40 be dd 22 6a 3e
       0.058796 -0.046600297 -0.1880932 0.22864862
0003a0 34 1f ce 3d af 29 4a bc 41 61 6a bd 08 14 60 bd
       0.10064545 -0.01233904 -0.057221655 -0.054706603
0003b0 1e 86 fd bd 5f 4e e3 bc f8 77 0f bc 92 ac c2 bc
       -0.123790964 -0.027747331 -0.00875663 -0.023763929
0003c0 d6 33 20 be 3c ad 51 bc 08 49 9d 3c 5c 25 29 bd
       -0.15644774 -0.01279765 0.019199863 -0.041295394
0003d0 6d a8 0a 3f a8 2e cb 3c c6 9f df 3c 17 dd 38 be
       0.5416325 0.02480252 0.027297866 -0.18053089
0003e0 ec d9 59 bd b4 a4 d6 3b 9e 06 04 3d 27 a9 a5 3d
       -0.053186342 0.006550396 0.032232873 0.08088904
0003f0 3e dc 8f 3c 30 0a d0 3d e9 37 cb bc ed e4 73 be
       0.017561074 0.10158193 -0.024806933 -0.23817797

model.6.bias f4 [16]
000000 c1 2c 1e 3d f0 84 1c bd 5a ea 82 bd 43 ae 27 3d
       0.0386169 -0.038212717 -0.06392355 0.040937673
000010 08 2e c2 ba fd 3b 52 bd b0 b8 f2 3d 87 e8 30 bc
       -0.0014814744 -0.05132674 0.118516326 -0.010797626
000020 c5 81 4c 3c 76 e5 98 bd d1 0a ed 3b ba 12 34 bd
       0.012482111 -0.07465641 0.0072339554 -0.04396317
000030 c3 0a ad bd 6b 68 a6 3c 7a 3d eb bc 99 06 6d bc
       -0.08449318 0.020313462 -0.028715838 -0.014466905
